Model Results/ppo_sentiment_AMC2019-09-011999.pth (torch, 50577 bytes, 11 tensors)

actor.0.weight f4 [64, 20]
0	0xbf8d0ca2	-1.101948
1	0xbfbdf989	-1.4841777
2	0xbfb85c8f	-1.4403247
3	0xbec9a7ba	-0.39385778
4	0xbf52f8d3	-0.82410926
5	0xbf3130cc	-0.69215083
6	0xbfa40a35	-1.2815615
7	0xbd5219bc	-0.051294073
8	0x3ea4fcfd	0.32224265
9	0x3f447d0e	0.7675332
10	0x3f4051bc	0.75124717
11	0x3f52f7c4	0.8240931
12	0x3f123b24	0.5712149
13	0xbec712ab	-0.3888143
14	0xbeab7136	-0.3348481
15	0xbf046997	-0.5172362
16	0xbe67dd4e	-0.22643015
17	0xbf25627b	-0.64603394
18	0xbe1b98b3	-0.15194969
19	0x3e9c5585	0.30533996
20	0x3d17e69e	0.037085168
21	0xbf7a80a4	-0.9785254
22	0xbf6b893f	-0.92006296
23	0x3f5b054a	0.85554945
24	0x3f2d2c47	0.67645687
25	0x3f630aa1	0.88688093
26	0xc0554efe	-3.3329463
27	0xc0307236	-2.756971
28	0xbffc1e67	-1.9696778
29	0xbee3ede8	-0.44517446
30	0xbe855933	-0.26044616
31	0x3e1df0e9	0.15423931
32	0xbec61685	-0.38689056
33	0xbf426ba6	-0.7594551
34	0xbebb0bb3	-0.36532363
35	0x3e75ec2e	0.24015877
36	0x3d861aa7	0.06548052
37	0xbf414d5c	-0.75508666
38	0x3dc20791	0.094740994
39	0x3ea279ab	0.3173345
40	0x3e809d85	0.25120178
41	0xbf0231a4	-0.50856996
42	0xbdc0f914	-0.09422508
43	0xbe15fddd	-0.14647622
44	0xbe1d35f4	-0.15352613
45	0x3d85a3a9	0.06525356
46	0xbf9c68cb	-1.221948
47	0xbf3e850b	-0.7442176
48	0xbf4f0d12	-0.8087932
49	0x3e06f2e0	0.13178587
50	0xbdabf443	-0.083961986
51	0x3dd10a8b	0.10207089
52	0xbe65d3c2	-0.2244406
53	0xbee026fb	-0.4377974
54	0xbe5ef6d5	-0.21773846
55	0x3fcdd161	1.6079522
56	0xc054dfc1	-3.3261569
57	0xbfb8e84a	-1.4445889
58	0xbe3de686	-0.18544969
59	0xbbc0add5	-0.0058800974
60	0xbf653622	-0.89535725
61	0xc02b6c49	-2.6784842
62	0xc029f6e8	-2.655695
63	0x3f69a63f	0.91269296
64	0x3f166c98	0.5875945
65	0x3e6a7058	0.22894418
66	0xbf015901	-0.50526434
67	0xbf87c0d0	-1.0605717
68	0xbfa9b1d9	-1.32574
69	0x3e1ece59	0.15508403
70	0x3d87d9c8	0.06633335
71	0x3e07ef58	0.13274896
72	0x3e945d0f	0.28977248
73	0xbd9741e1	-0.07385612
74	0x3f983114	1.1889977
75	0xbe3e0034	-0.18554765
76	0xbe531df1	-0.2061689
77	0x3f6d6041	0.92724997
78	0x3e81ba8e	0.25337642
79	0x3d6c6f2c	0.05772321
80	0x3f640544	0.89070535
81	0x3f056535	0.52107555
82	0x3f810bbd	1.0081707
83	0x3eeee7ae	0.46661133
84	0x3f684efa	0.9074551
85	0x3f3c45d3	0.73544043
86	0x3fa8972b	1.3171133
87	0xbf30d2ca	-0.6907164
88	0xbf8413e9	-1.0318576
89	0xbf320d0f	-0.69551176
90	0xbf599cba	-0.8500477
91	0xbf2a594e	-0.6654252
92	0xbf52d0bf	-0.8234977
93	0xbf8f955b	-1.1217455
94	0x3e1babb4	0.15202218
95	0x3f999caf	1.2000941
96	0x3e89bd81	0.26902393
97	0x3f1b2563	0.6060392
98	0x3e051db0	0.12999606
99	0xbecff97a	-0.40620023
100	0x3d0bb4f7	0.03410813
101	0x3f1378d7	0.5760626
102	0x3d3cda60	0.046106696
103	0x3f44360c	0.7664497
104	0x3f384de5	0.7199386
105	0x3f39e02b	0.7260768
106	0xbf57f495	-0.8435758
107	0xc01d9aaf	-2.4625661
108	0xc03553d1	-2.8332407
109	0xbf23e392	-0.6401912
110	0xbe26c6b1	-0.16286732
111	0xbe4f7ee8	-0.20263255
112	0x3eb4bd97	0.35300896
113	0x3e038668	0.1284424
114	0x3f35dbd1	0.7103854
115	0x3faa5c02	1.3309329
116	0x3fb71372	1.4302809
117	0x3f207e89	0.6269308
118	0xbe5d530c	-0.21613711
119	0xbda8a5fc	-0.08234784
120	0x3fd8a37d	1.6924893
121	0x3f32cf03	0.69847125
122	0x3e0f7025	0.14007623
123	0xbe201efd	-0.15636821
124	0xbf36d469	-0.7141786
125	0xbf357347	-0.70879024
126	0xc0a635d5	-5.1940713
127	0xc0eb0e42	-7.3454905
128	0xc0ff41ba	-7.9767733
129	0xbf72eaaa	-0.9488932
130	0xbf1bdce7	-0.60883945
131	0xbed38ab1	-0.4131675
132	0xbf7ea6c5	-0.9947322
133	0xbebbca6c	-0.36677873
134	0xbebd95c5	-0.37028328
135	0xbf6c947a	-0.9241406
136	0x3f201ba9	0.62542206
137	0xbd5b2e29	-0.05351082
138	0xbe1db757	-0.1540197
139	0x3eebbc8f	0.46042296
140	0xbf17e3f1	-0.59332186
141	0xbe8a6101	-0.27027133
142	0xbdfbd9a7	-0.12297373
143	0xbf1ba9cb	-0.6080596
144	0xbf122d4c	-0.5710037
145	0xbef039ba	-0.46919042
146	0xc00d3cce	-2.2068362
147	0xbda1a1ee	-0.07892214
148	0x3ef00600	0.46879578
149	0x3f7c8093	0.9863369
150	0x3f427e01	0.75973517
151	0x3f30213c	0.6880071
152	0x3dd22a51	0.102619775
153	0x3f6cb60a	0.9246527
154	0xbe4b9d8d	-0.1988432
155	0xbf5cb738	-0.8621707
156	0xbdb629ae	-0.088946685
157	0xbe95bd5e	-0.29246038
158	0xbf05c772	-0.52257454
159	0x3f5a16ba	0.8519093
160	0xbf35d47d	-0.71027356
161	0xbfb66463	-1.4249386
162	0xbf717459	-0.9431816
163	0x3eee1d36	0.4650666
164	0x3e719e70	0.23595595
165	0x3ec38b79	0.38192347
166	0x3f5dd3d9	0.8665138
167	0x40026d42	2.0379186
168	0x40005752	2.0053296
169	0x3ed0529d	0.4068803
170	0x3ec9cd53	0.39414462
171	0x3db19a3a	0.086719945
172	0xbf2ddb48	-0.6791272
173	0x3f6875a4	0.90804505
174	0x3f5be664	0.85898423
175	0xbfbe818b	-1.4883283
176	0xbf065978	-0.5248027
177	0xbe57a925	-0.21060617
178	0x3ddc1c86	0.10747628
179	0x3d206844	0.039161935
180	0x40010063	2.0156486
181	0x3ef2810b	0.47364077
182	0xbf481a67	-0.78165287
183	0xbddcaab0	-0.107747436
184	0xbd73b6e9	-0.05950061
185	0xbe535cc1	-0.20640852
186	0xc07c08de	-3.9380412
187	0xc0961512	-4.690072
188	0xc08dda0e	-4.432868
189	0xbef85c29	-0.48507813
190	0x3d037628	0.032095104
191	0x3d87239d	0.065985896
192	0xbe6cc207	-0.2312089
193	0xbf92b495	-1.1461359
194	0xbed8d32a	-0.42348605
195	0x3f83ac5c	1.0286975
196	0xbe7daba0	-0.24772501
197	0xbc85d39c	-0.016336255
198	0x3e75df76	0.24011025
199	0xbe16cb4b	-0.14725988
200	0xbea7733d	-0.32705107
201	0x3f8fa990	1.1223621
202	0x3f03db53	0.5150654
203	0x3e2087ae	0.15676758
204	0x3da5cd41	0.0809579
205	0x3e0ac2d7	0.13550888
206	0x3f8c4617	1.095889
207	0x3f4e4f8e	0.8059014
208	0x3f8ee8e9	1.1164829
209	0xbe9b960f	-0.30387923
210	0xbd81ccf3	-0.06337919
211	0xbd43eb48	-0.047831804
212	0x3f356cf8	0.708694
213	0x3f99a7d3	1.2004341
214	0x3ddfef60	0.10934329
215	0xbee5d791	-0.44891027
216	0x3f8b84b7	1.0899876
217	0x3ca6ff80	0.020385504
218	0xbf202831	-0.6256133
219	0x3e6eda72	0.23325518
220	0xbef3a00a	-0.47583038
221	0xbf035148	-0.512959
222	0xbf203ec6	-0.62595785
223	0x3f89b096	1.0757015
224	0x3f1cbbcd	0.6122406
225	0x3f3d840e	0.74029624
226	0xc0659338	-3.5871105
227	0xc07ed090	-3.9814796
228	0xc052f71e	-3.2963328
229	0xbee460a3	-0.44604978
230	0xbe953f30	-0.2914977
231	0x3ea569a4	0.3230716
232	0x3e675108	0.22589505
233	0x3fafe34e	1.3741243
234	0x3f444d14	0.7668011
235	0xbf0dae5d	-0.5534418
236	0xbd0d2898	-0.03446254
237	0x3ed665c7	0.41874525
238	0xbd75c618	-0.06000337
239	0x3f21dc7f	0.63227075
240	0xbfce69f1	-1.6126081
241	0xbf458d2b	-0.7716853
242	0xbf672043	-0.902836
243	0x3faa1e63	1.3290523
244	0x3f6c7279	0.9236217
245	0x3f8b08f1	1.0862104
246	0x3fb0ea00	1.3821411
247	0x3ea5b246	0.32362574
248	0x3eb905e2	0.361373
249	0xbe74d95b	-0.2391104
250	0xbe754ef6	-0.23955902
251	0x3c4d9740	0.012548268
252	0x3f8d99aa	1.106252
253	0x3e2288d1	0.15872504
254	0xbeabd218	-0.33558726
255	0xbe1730a4	-0.14764649

actor.0.bias f4 [64]
0	0x3f1430d4	0.57887006
1	0x3e82fb59	0.25582388
2	0x3e8c616c	0.27418077
3	0x3f2a5dc3	0.6654932
4	0xbf2fe35b	-0.6870629
5	0x3e1a9e3c	0.15099424
6	0x3ec32afd	0.38118735
7	0x3eee938c	0.46596944
8	0x3dbd7f92	0.09252848
9	0x3f5c131a	0.85966647
10	0xbeea9831	-0.45819238
11	0x3f0ac691	0.5420924
12	0x3eb1429e	0.34621137
13	0x3e474e06	0.19463357
14	0x3e94f453	0.29092655
15	0xbedf0621	-0.43559363
16	0xbe556bad	-0.20841856
17	0x3e5c6c3b	0.21525662
18	0xbefbcf37	-0.4918153
19	0xbf3b7e1b	-0.73239297
20	0x3efca2f3	0.4934307
21	0x3e50824a	0.20362201
22	0x3f027106	0.5095371
23	0xbf4293d1	-0.760068
24	0xbf45a4d8	-0.77204657
25	0x3e8eb757	0.27874252
26	0x3f4e1863	0.8050596
27	0xbe6d8f53	-0.23199205
28	0x3ef0b239	0.47010973
29	0x3e023cfd	0.12718578
30	0xbf71a458	-0.94391394
31	0xbf1e98a7	-0.6195168
32	0xbea1fe13	-0.31639156
33	0xbe3692d3	-0.17829446
34	0x3d7ed2ed	0.062212873
35	0x3ef0f0ce	0.4705872
36	0xbf2b5c1b	-0.66937417
37	0xbf7c605e	-0.98584545
38	0x3f4fd0c4	0.81177926
39	0xbd06dc85	-0.032925148
40	0x3d7cd444	0.06172587
41	0x3df09704	0.11747554
42	0xbe52cfa5	-0.20587023
43	0xbed448be	-0.41461748
44	0xbd35f0bf	-0.044419046
45	0x3e2f29f2	0.17105845
46	0xbf58e2cf	-0.8472108
47	0x3f54290c	0.8287513
48	0x3e91e269	0.2849305
49	0x3e7b54ba	0.2454404
50	0xbf2b72f4	-0.6697228
51	0x3c94bb28	0.01815565
52	0x3f212bcf	0.6295747
53	0x3f25f4c1	0.6482659
54	0x3ed0c2a4	0.407735
55	0x3f2c0ebb	0.67209977
56	0xbf478979	-0.7794414
57	0xbefb38cf	-0.4906678
58	0x3f2c2dd3	0.6725742
59	0xbe98f8bb	-0.29877266
60	0xbed7d7b4	-0.42156756
61	0xbdec2ade	-0.11531614
62	0x3ea69a4f	0.32539603
63	0xbed058aa	-0.40692645

actor.2.weight f4 [64, 64]
0	0xbdeef75e	-0.11668275
1	0x3f959ba1	1.1688119
2	0xbf08359c	-0.532068
3	0xbf883cbc	-1.0643535
4	0x3e7094cc	0.23494262
5	0xbcc94ad9	-0.024571823
6	0xbe572ca9	-0.2101313
7	0x3f0ba074	0.5454171
8	0x3fa1be92	1.2636282
9	0xbfaa9e78	-1.3329611
10	0x3c0d4b8b	0.008623968
11	0x4001d502	2.028626
12	0x3efbfeed	0.4921793
13	0x3f2d4f31	0.6769896
14	0xbf24febc	-0.64451194
15	0x3e63e3d4	0.22254878
16	0xbf053cb6	-0.5204576
17	0xbfa2cf05	-1.2719427
18	0xbe597e94	-0.21239692
19	0xbf85ade8	-1.0443697
20	0xbe490d18	-0.19633901
21	0xbe24f1da	-0.16107884
22	0x3e83f015	0.25769106
23	0x3c2dbb88	0.010603793
24	0xbf0c727b	-0.54862183
25	0x3ffef12e	1.9917352
26	0x3ed83283	0.42226037
27	0x3f50b5a2	0.8152715
28	0x3ed7c1b6	0.42139977
29	0xbeb7a495	-0.35867754
30	0xbeac581e	-0.33660978
31	0xbe23b61b	-0.15987436
32	0xbfe2aae0	-1.7708397
33	0x3e862e64	0.26207268
34	0xbed5e7cb	-0.41778407
35	0x3de1142b	0.10990175
36	0xbc5c7ca9	-0.013457456
37	0xbf316d15	-0.6930707
38	0xbe96ad9c	-0.29429328
39	0x3f07ba8d	0.5301903
40	0xbf474003	-0.7783205
41	0xbef09ef2	-0.46996266
42	0x3e56b3c9	0.2096702
43	0xbf2f5d48	-0.6850171
44	0x3d3f6ca1	0.046734456
45	0xbe0e926d	-0.13923045
46	0xbd10c108	-0.03534034
47	0x3eec088c	0.4610027
48	0x3f8eb3ca	1.1148617
49	0x3f51d4eb	0.8196551
50	0xbe0029ac	-0.12515897
51	0xbfc97d53	-1.5741371
52	0x3ef769d3	0.48322925
53	0xbd2dec48	-0.042461663
54	0xbe859545	-0.26090446
55	0x3f29a8d6	0.6627325
56	0xbeb7039d	-0.35744944
57	0xbfafc1ef	-1.3731059
58	0x3da306b5	0.07960264
59	0x3e3dbeb9	0.18529786
60	0x3e9ec26f	0.31007716
61	0xbe59f259	-0.21283855
62	0x3f7a6e22	0.978243
63	0x3ee06baa	0.4383214
64	0xbea0fbd4	-0.3144213
65	0x3f4ad6cd	0.7923401
66	0xbdd0f9c1	-0.10203887
67	0x3f14e61a	0.5816361
68	0x3f4665f0	0.77499294
69	0xbeb7cf10	-0.35900164
70	0xbfc2aa95	-1.5208308
71	0xbcd0d788	-0.025493398
72	0x3f56874f	0.83800215
73	0x3f87f6d7	1.0622205
74	0xbf08ca2b	-0.53433484
75	0x3f389af7	0.7211146
76	0x3f3e4132	0.7431823
77	0x3efc0b98	0.49227595
78	0x3d9dbf62	0.07702519
79	0x3f296a53	0.6617786
80	0x3ef97085	0.48718658
81	0x3d05c4ee	0.03265851
82	0x3f13f38f	0.57793516
83	0xbea58859	-0.32330588
84	0xbfcb539a	-1.5884888
85	0xbf1af99c	-0.60537124
86	0x3f3b78e5	0.73231345
87	0x3ed4fd33	0.41599426
88	0xbeb3eaf4	-0.35140193
89	0x3f455f2d	0.7709835
90	0x3e873624	0.26408494
91	0x3f26ec27	0.6520409
92	0xbe469b89	-0.1939527
93	0x3eb627ff	0.3557739
94	0xbe22781a	-0.15866128
95	0xbe3d01a3	-0.18457656
96	0xbf515ed8	-0.81785345
97	0xbeec8374	-0.4619404
98	0x3f2cbceb	0.67475766
99	0xbd54493f	-0.051827665
100	0x3f3e83f3	0.7442009
101	0xbd7397ab	-0.059470814
102	0xbf58bb42	-0.8466073
103	0x3efd2da6	0.4944889
104	0x3cdf2e65	0.027243802
105	0x400cf3fa	2.2023911
106	0x3d3e818f	0.046510275
107	0x3ef52238	0.4787767
108	0xbf4aa8fc	-0.791641
109	0x3e1c7c08	0.15281689
110	0x3e0e565b	0.1390013
111	0x3fb06f7f	1.3784026
112	0x3ef2bda3	0.47410306
113	0x3ef6b346	0.4818365
114	0xbf52aba8	-0.82293177
115	0xbfb2636f	-1.3936595
116	0x3f4c4c5b	0.7980401
117	0x3caae8fa	0.020863045
118	0x3e2f3fa9	0.17114128
119	0xbd2569b6	-0.040384017
120	0xbe381c6d	-0.17979594
121	0x3efee927	0.49787256
122	0x3de44d1d	0.11147521
123	0x3f5d9034	0.8654816
124	0xbf5341df	-0.82522386
125	0xbf6bdecd	-0.9213684
126	0x3f1948ab	0.5987651
127	0xbd905440	-0.070473194
128	0x3ea02ada	0.31282693
129	0x3da559db	0.08073779
130	0xbdee5a1a	-0.11638279
131	0x3ee3b3c3	0.44473085
132	0x3e9cd8f8	0.30634284
133	0x3edb9885	0.428898
134	0xbde981a1	-0.11401678
135	0xbe600478	-0.21876705
136	0xbf3a8ac5	-0.72867996
137	0x3fcfa677	1.6222676
138	0x3d9a6afc	0.07539937
139	0x3a315a1d	0.0006765442
140	0x3d598361	0.05310381
141	0xbe263d9d	-0.16234441
142	0xbeb8609e	-0.36011213
143	0x3f4dfffe	0.8046874
144	0x3de4467d	0.11146257
145	0xbe788b72	-0.24271944
146	0x3fbee497	1.491351
147	0x3e599863	0.21249537
148	0xbe95cb68	-0.2925675
149	0xbee0e861	-0.4392729
150	0xbefe9bc1	-0.49728206
151	0x3f037f18	0.51365805
152	0xbf09b541	-0.53792197
153	0xbf81e964	-1.014935
154	0xbf16581b	-0.5872819
155	0xbf2f68b4	-0.6851914
156	0xbe8c2ed3	-0.27379474
157	0x3f89c7df	1.0764121
158	0x3f12bbc4	0.5731776
159	0x3e61068c	0.21975154
160	0xbda8757a	-0.08225532
161	0x3ed8c2bd	0.42336074
162	0xbea956fc	-0.33074176
163	0xbef05299	-0.46938017
164	0xbec078a7	-0.3759205
165	0x3e63bed1	0.2224076
166	0x3dd62d0e	0.10457812
167	0x3f45bfda	0.7724587
168	0x3f5b8166	0.8574432
169	0x3f6e6a38	0.93130827
170	0x4000c72a	2.012156
171	0x3f58e77b	0.8472821
172	0x3c04e19a	0.008110428
173	0xbf182c78	-0.59442854
174	0x3e35a7ba	0.17739764
175	0x3def1cd3	0.1167542
176	0xbf6fd8cd	-0.93690187
177	0xbf9afd8a	-1.2108624
178	0xbe58c90c	-0.21170443
179	0x3f027126	0.509539
180	0x3f9b10df	1.2114524
181	0xbf112b48	-0.56706667
182	0xbe4d9ad0	-0.20078588
183	0xbf7beb60	-0.9840603
184	0x3fe8e936	1.819617
185	0x3ce69f67	0.02815218
186	0xc0107dc1	-2.2576754
187	0x3f004527	0.5010552
188	0xbe06fa1f	-0.13181351
189	0xbee73c1b	-0.45163044
190	0xbd664124	-0.056214467
191	0xbd9d50a2	-0.07681395
192	0x3d82ba6c	0.063832134
193	0x3f5da2b8	0.86576414
194	0x3e5b986c	0.21444863
195	0x3efed93c	0.49775112
196	0x3ceeee1e	0.029166277
197	0x3f6a43fa	0.91509974
198	0xbf95c3f1	-1.1700422
199	0xbdc14a89	-0.094380446
200	0xbe0a4164	-0.13501507
201	0x3f34c6d7	0.70615906
202	0xbd7334a0	-0.05937636
203	0x3edd52da	0.43227273
204	0x3f8257e6	1.0183074
205	0x3f9f4368	1.2442446
206	0xbf08e680	-0.53476715
207	0x3f8b0259	1.0860091
208	0x3ed1d1f6	0.409805
209	0x3e7b7b7c	0.24558824
210	0x3f0ada91	0.54239756
211	0x3e24748f	0.16060089
212	0xbf31e6f1	-0.69493014
213	0xbf0fac8c	-0.5612266
214	0xbdd813b2	-0.105506316
215	0x3eb8fbb4	0.36129534
216	0xbf265f1e	-0.6498889
217	0x3f4544cd	0.77058107
218	0xbf8db8b0	-1.1071987
219	0xbeaba5d9	-0.3352497
220	0x3eb15fd2	0.34643418
221	0x3e5c9a73	0.21543293
222	0x3f2a0576	0.6641458
223	0x3e2fea80	0.17179298
224	0x3ef356fe	0.47527307
225	0xbf96b438	-1.1773748
226	0x3f1695e8	0.5882249
227	0xbf267123	-0.6501638
228	0xbe4e3c59	-0.20140208
229	0xbe095eb7	-0.13415037
230	0x3f43b08f	0.7644128
231	0xbe432f17	-0.19060932
232	0x3dfb5961	0.12272907
233	0xbe8c1281	-0.27357867
234	0x3f0160e4	0.5053847
235	0xbed0dc6f	-0.40793177
236	0xbe3fb914	-0.18722945
237	0xbe8f59b2	-0.2799812
238	0x3e874472	0.26419407
239	0x3ef13fa3	0.47118863
240	0x3deef168	0.11667138
241	0x3e9afae5	0.30269542
242	0xbea347e8	-0.31890798
243	0xbd77e19d	-0.060517896
244	0xbea9bb3a	-0.33150655
245	0xbebe7077	-0.3719518
246	0xbfcd4d4d	-1.6039215
247	0xbef3a795	-0.47588792
248	0x3f1c4732	0.61046135
249	0xc012371d	-2.2846138
250	0xbe155052	-0.14581421
251	0x3f674d04	0.9035189
252	0xbf1ce101	-0.6128083
253	0xbecf115d	-0.40442935
254	0x3d828261	0.06372524
255	0x3ddfe5d5	0.10932509

actor.2.bias f4 [64]
0	0xbe617f3b	-0.22021191
1	0xbd13f724	-0.036124364
2	0xbf0b3d42	-0.54390347
3	0xbf16392c	-0.5868099
4	0xbf12faf5	-0.5741418
5	0xbf11d598	-0.56966543
6	0x3f534edd	0.8254221
7	0x3f0af4e4	0.54279923
8	0xbd94c68a	-0.07264431
9	0x3f0cf848	0.5506635
10	0xbec52786	-0.38506716
11	0xbf450a41	-0.7696877
12	0x3e819f73	0.25316963
13	0xbe18ab06	-0.1490899
14	0x3eb0633a	0.34450704
15	0xbe93aaa4	-0.28841126
16	0x3e94735b	0.2899426
17	0xbdb9cb62	-0.09071995
18	0x3f240c15	0.64080936
19	0xbf0b8a72	-0.54508126
20	0xbf6ac4c8	-0.91706514
21	0x3f040416	0.51568735
22	0x3e04bde2	0.1296306
23	0x3d018ee6	0.03163042
24	0xbcb74aae	-0.022374477
25	0xbeb1c8d8	-0.34723544
26	0xbef62b3b	-0.48079857
27	0xbe96faa4	-0.294881
28	0xbec49760	-0.3839674
29	0xbea97cc3	-0.33102998
30	0x3d89ed25	0.06734685
31	0x3da3d9e3	0.08000543
32	0xbf08d641	-0.53451926
33	0xbe73c68a	-0.23806205
34	0xbebcfda9	-0.36912277
35	0x3f573ab9	0.8407398
36	0xbf1ba998	-0.60805655
37	0x3cedf3ad	0.029046858
38	0x3f4ec7f9	0.80773884
39	0x3e2ada15	0.16684754
40	0xbea57375	-0.3231465
41	0x3e49aa7a	0.19693938
42	0x3de142b4	0.10999051
43	0x3eeca7e3	0.46221837
44	0x3ee428e7	0.44562456
45	0xbe68f3aa	-0.227492
46	0x3ed51a5a	0.41621667
47	0xbf9a7b30	-1.2068844
48	0xbe62e667	-0.22158204
49	0x3f5054b2	0.81379235
50	0x3ef013dd	0.46890154
51	0xbdcffa83	-0.10155203
52	0xbe104713	-0.14089613
53	0x3ec09342	0.3761235
54	0xbe822c5f	-0.25424477
55	0x3f0aa296	0.54154336
56	0x3ecb6e5e	0.3973264
57	0x3f3ad602	0.729828
58	0x3ec0f1f4	0.37684596
59	0xbd9f28d3	-0.077714585
60	0x3de9dd11	0.11419118
61	0x3e7fe368	0.24989092
62	0x3a0d4b51	0.0005389946
63	0xbe2c0a37	-0.16800772

actor.4.weight f4 [7, 64]
0	0xc0208cc1	-2.508591
1	0x400e2cc3	2.221482
2	0xbfa56f54	-1.29246
3	0xbf46dabc	-0.7767751
4	0x4004c3c7	2.0744493
5	0xbfe278ec	-1.7693152
6	0x3fe8cd8f	1.8187732
7	0x3ff97e1f	1.9491614
8	0x3fe99a74	1.825026
9	0x3fe8a8ac	1.8176475
10	0x3f140ee7	0.5783524
11	0xbf51ecf8	-0.8200221
12	0x3eb11715	0.34587923
13	0x403bc684	2.9339914
14	0x3fe8c871	1.818617
15	0x3f95ec0d	1.1712662
16	0xbfb0ddeb	-1.3817724
17	0x3ff5bf94	1.919909
18	0x3f7c3d6f	0.9853124
19	0x3f85f8db	1.046657
20	0xbf71af8d	-0.94408494
21	0x3e065ce7	0.13121377
22	0xbf9a6473	-1.2061905
23	0xbfdf21bb	-1.7432169
24	0xbf22561a	-0.6341263
25	0x3f497d26	0.78706586
26	0xbecf5d3a	-0.40500814
27	0x3d94998e	0.07255851
28	0xbf8caa91	-1.0989553
29	0x3fb338d5	1.4001719
30	0x3e080fee	0.13287327
31	0x3f9f7ab2	1.2459319
32	0x3fe061c8	1.752984
33	0xc02a2815	-2.6586964
34	0xbfd8d624	-1.694035
35	0x400268f2	2.0376554
36	0xc008a640	-2.135147
37	0xbfba2f6e	-1.4545724
38	0x3fbaf7ca	1.4606869
39	0x4034f2d0	2.82732
40	0x3f03ed71	0.5153418
41	0xbf6a15d5	-0.91439563
42	0x3ee44b1e	0.4458856
43	0x3ffd69c8	1.9797907
44	0x3e3d0ceb	0.18461959
45	0x3fedab9e	1.8567998
46	0x4010b7ab	2.2612102
47	0xbfc5057c	-1.5392299
48	0x3fc39b08	1.5281687
49	0xbf4f65ed	-0.810149
50	0xbfc51a1a	-1.539859
51	0x4016705e	2.3506083
52	0x3f6630d4	0.89918256
53	0x3fea33f6	1.8297107
54	0x3f8bc8f3	1.09207
55	0x3fe9d981	1.8269502
56	0xbfe27c67	-1.7694215
57	0x3e9cbe31	0.30613855
58	0xbf9169f7	-1.1360463
59	0x3f9c15a8	1.2194109
60	0xc019ff13	-2.4061935
61	0xbfc6c7ad	-1.5529686
62	0xc03600ae	-2.8437915
63	0x3fa66224	1.29987
64	0x3ebf1b7f	0.37325665
65	0x3eddbb0e	0.43306774
66	0x3fa105c8	1.2579889
67	0xbea09a21	-0.3136759
68	0xbf155c60	-0.5834408
69	0xbebfd8f5	-0.37470213
70	0x3f0f28ca	0.55921614
71	0xbdabcd92	-0.08388819
72	0x3f7ef188	0.995873
73	0xbe57c52a	-0.21071306
74	0xbf133439	-0.5750156
75	0xbea9900f	-0.3311772
76	0x3c9680a6	0.018371891
77	0xbe5ac33a	-0.21363536
78	0x3e0e8015	0.13916047
79	0x3eb816e6	0.3595497
80	0xbf8c2157	-1.0947675
81	0x3e6393f4	0.22224408
82	0x3f83c5a5	1.0294691
83	0x3eea202a	0.45727664
84	0x3f85a18b	1.0439924
85	0xbbd9c8d5	-0.0066462555
86	0x3e4ce18d	0.20007916
87	0x3f9cf6e4	1.2262845
88	0xbec7012a	-0.38868076
89	0x3cb55739	0.022136318
90	0x3efef376	0.4979512
91	0x3ebfdda0	0.37473774
92	0xbf15cb7b	-0.5851361
93	0xbcd5ae1c	-0.026083998
94	0x3d751bc7	0.059840944
95	0xbe887b87	-0.26656744
96	0xbeaabba0	-0.33346272
97	0x3e9f7ad1	0.3114839
98	0xbe7e7262	-0.24848321
99	0x3f118386	0.56841314
100	0xbee0a478	-0.4387548
101	0xbf8acfd8	-1.0844679
102	0x3f34563c	0.70444083
103	0x3f2d68be	0.6773795
104	0x3fdc6572	1.7218459
105	0x3f6581fa	0.89651453
106	0xbd969cdd	-0.07354138
107	0xbfac437c	-1.3458095
108	0xbea663c5	-0.32497993
109	0x3e3ab5a6	0.18233356
110	0xbe00ad65	-0.12566145
111	0x3f76cc85	0.9640582
112	0x3ee558b6	0.44794244
113	0xbcb2caeb	-0.021825274
114	0xbf3c40a2	-0.7353612
115	0x3f4e8b74	0.8068154
116	0x3f3e8f92	0.7443782
117	0x3fe3d212	1.7798483
118	0x4021a616	2.525762
119	0x3c8590d9	0.01630442
120	0xbe57deaa	-0.21081033
121	0xbfa5ce22	-1.2953532
122	0xbfe9f037	-1.8276433
123	0x3eb98f65	0.36242214
124	0xbf830a08	-1.0237436
125	0xbebe2e87	-0.37144873
126	0x3fa5ccfd	1.2953182
127	0xbf18330f	-0.5945291
128	0x3df1c204	0.11804584
129	0xbe86d935	-0.2633759
130	0x3f8e0284	1.1094518
131	0x3f8bb867	1.091565
132	0x3ecfaf50	0.4056344
133	0x3f9ab34f	1.2085971
134	0xbf957105	-1.1675116
135	0x3f226b38	0.6344485
136	0x3fa3b53b	1.2789682
137	0x3d6f52c2	0.058428533
138	0x3fe07ee4	1.7538724
139	0x3feb765f	1.8395499
140	0xbeeaf06f	-0.4588656
141	0xbf3bd5e9	-0.73373276
142	0xbee71cd6	-0.45139188
143	0xbe82713b	-0.25477013
144	0x3e8ded1e	0.2771997
145	0x3f1d384a	0.61414015
146	0x3f703e32	0.938449
147	0xbf8ddafa	-1.1082451
148	0xbf469269	-0.77567154
149	0x3db6fd00	0.08934975
150	0xbfc5ae63	-1.5443844
151	0xbf42bd9b	-0.76070565
152	0xbf11fc12	-0.57025254
153	0xbf9ff998	-1.2498045
154	0x3f80c52d	1.0060173
155	0x3f2350f4	0.637954
156	0x3fada1af	1.3564967
157	0xbd69e3ad	-0.057101894
158	0x3fc55dfd	1.5419308
159	0x3f9b2195	1.2119623
160	0x3f066707	0.5250096
161	0x3fda62e5	1.706143
162	0xbc707253	-0.0146756945
163	0x3f9524f2	1.16519
164	0xbe6f5500	-0.23372269
165	0x3ed257ec	0.41082704
166	0xbf4a52fc	-0.79032874
167	0x3b4bcf35	0.0031098847
168	0x3eefe202	0.46852118
169	0xbb2e16ef	-0.0026563962
170	0xbf9b6cd6	-1.2142589
171	0x3f8bbc55	1.0916849
172	0x3d7dd33e	0.061969034
173	0x3eefca0c	0.46833837
174	0xbf0e09e7	-0.5548386
175	0x3f00103a	0.5002476
176	0x3dedfb96	0.11620252
177	0xbfbc3267	-1.4702882
178	0x3fca2ce8	1.5794954
179	0x3ee88c5e	0.45419592
180	0x3ed7a314	0.42116606
181	0xbf679159	-0.9045616
182	0xbf03ef81	-0.5153733
183	0x3dd39454	0.10331026
184	0xbf5a0d8c	-0.8517692
185	0x3fdd1a97	1.727374
186	0x3df020e9	0.11725027
187	0xbf75ce53	-0.9601795
188	0xbf37feef	-0.7187337
189	0x3fd1e483	1.6397861
190	0x3d90c3ee	0.070686206
191	0xbdee4250	-0.11633742
192	0x3ef60b0f	0.48055312
193	0x3e8dae00	0.27671814
194	0x3f4aee93	0.79270285
195	0x3ef960f5	0.48706785
196	0xbda81599	-0.082072444
197	0x3f80f5e3	1.0075039
198	0xbf3b9e51	-0.73288447
199	0x3f326f7a	0.6970135
200	0x3f5909b7	0.8478045
201	0x3ea9148d	0.33023492
202	0xbe525c81	-0.205431
203	0x3f1ba491	0.60797983
204	0xbe6442fe	-0.2229118
205	0xbff6ac0e	-1.9271257
206	0xbfc235d9	-1.5172683
207	0x3e39cfb7	0.18145643
208	0xbf264e53	-0.64963263
209	0x3f535e72	0.8256599
210	0xbfb389ba	-1.4026406
211	0x3ee4e9d5	0.4470965
212	0xbf4cb471	-0.7996283
213	0xbf236b50	-0.6383562
214	0x3cd4dcc9	0.025984185
215	0xbf554bec	-0.8331897
216	0x3de09229	0.10965378
217	0x3eec012c	0.46094644
218	0x3e6fbaa1	0.23411037
219	0xbf63b65e	-0.88950145
220	0xbf6e5279	-0.93094593
221	0x3faa1250	1.3286839
222	0x3edea7f9	0.43487528
223	0xbf1a9e81	-0.6039811
224	0x3f1ab298	0.6042876
225	0x3f1302a6	0.57425916
226	0x3e229269	0.15876164
227	0xbeb5ba6c	-0.3549379
228	0x3e04b6d8	0.12960374
229	0xbdb80a8f	-0.08986389
230	0xbf1927a9	-0.5982614
231	0xbf478864	-0.7794249
232	0x3ebea5fb	0.37236008
233	0x3e9c6123	0.3054286
234	0xbeb11e28	-0.3459332
235	0x3e850fd6	0.25988644
236	0xbf2a8b3b	-0.666187
237	0x3e5ed120	0.21759462
238	0x3bb0beea	0.0053938525
239	0xbf6acd04	-0.9171908
240	0xbe48db59	-0.19614924
241	0xbf254dd3	-0.64571875
242	0xbf683b5c	-0.90715575
243	0x3f0aad58	0.5417075
244	0x3edd5fc5	0.4323713
245	0x3e4b5f4b	0.1986057
246	0xbf46ac45	-0.7760661
247	0x3faf0460	1.367321
248	0xbf752d1a	-0.95771945
249	0xbdc09c4e	-0.09404813
250	0xbea007fc	-0.31256092
251	0x3e352d2d	0.17693014
252	0xbf200b90	-0.6251764
253	0x3f39ef1a	0.72630465
254	0xbf989ad0	-1.1922245
255	0xbf4e76ba	-0.8064991

actor.4.bias f4 [7]
0	0x3f9f088d	1.2424484
1	0x3ed7e191	0.4216428
2	0xbe646869	-0.22305454
3	0x3e62c5bb	0.2214574
4	0x3e2086f5	0.15676482
5	0x3eeeca66	0.46638793
6	0x3f397e19	0.72458035

critic.0.weight f4 [64, 20]
0	0xbec5b9c5	-0.38618293
1	0x3f1ecc4d	0.6203049
2	0xbf48c13d	-0.7841986
3	0xbff13474	-1.8844132
4	0xc0300ddd	-2.7508461
5	0xc046b381	-3.104706
6	0x3fac5163	1.3462337
7	0xbe0b494d	-0.13602181
8	0x3d872a91	0.06599916
9	0xbdc5b912	-0.0965444
10	0x3ef4eb09	0.47835568
11	0x3f636d1c	0.8883836
12	0x3fe23288	1.7671671
13	0x3fbe1fec	1.4853492
14	0x40051e75	2.079984
15	0xbff1a411	-1.8878194
16	0x3f99e5f4	1.2023301
17	0xbb8b8b42	-0.004258544
18	0x3dbc70f8	0.092012346
19	0x3e9028df	0.28156182
20	0xbf0977b0	-0.53698254
21	0x3fa6f03e	1.3042066
22	0x3f0cad31	0.5495177
23	0xbf7d6e98	-0.9899688
24	0xbec34209	-0.38136318
25	0xbe9756b3	-0.29558334
26	0x40e1b1b3	7.052942
27	0x4098d15e	4.7755575
28	0x4062c829	3.5434668
29	0x3e249209	0.16071333
30	0xbe06ec09	-0.13175978
31	0xbe6ecdfb	-0.23320763
32	0xbfd2fe32	-1.6483824
33	0x3eb8470b	0.359917
34	0xbec6b9e7	-0.38813707
35	0xbf9dd4af	-1.2330531
36	0x3f2aef45	0.66771346
37	0xbf61b823	-0.88171595
38	0xbe61c54a	-0.22047916
39	0x3ef6a73a	0.4817446
40	0x3ff9a8a4	1.950459
41	0xbf916797	-1.1359738
42	0xbfb14e2b	-1.385198
43	0x3e742ada	0.23844472
44	0x3e05984c	0.13046378
45	0xbe863116	-0.26209325
46	0xc0d21681	-6.565247
47	0xc0d4bb64	-6.647875
48	0xc09be274	-4.871393
49	0xbf9061f8	-1.1279898
50	0xbe9b21a6	-0.3029911
51	0xbed990a7	-0.42493173
52	0x3f735358	0.9504905
53	0x3f96e0b1	1.178732
54	0x3f53de4b	0.8276107
55	0xbe1d477d	-0.15359302
56	0x3f5b1c1e	0.8558978
57	0xbf55c788	-0.83507586
58	0xbe5fcee9	-0.21856274
59	0xbe106e4d	-0.14104576
60	0x3f9968cf	1.198511
61	0x3faa5902	1.3308413
62	0x3fc597b9	1.5436927
63	0x3f850966	1.0393493
64	0x3f721477	0.94562477
65	0x3f109a1c	0.5648515
66	0xc04ad0da	-3.1689973
67	0xc01ce7fc	-2.4516592
68	0xbfea2009	-1.8291026
69	0x3d705947	0.05867889
70	0xbd2b2496	-0.041782938
71	0x3f016e61	0.5055905
72	0x3f0b5393	0.544244
73	0xbe511b3f	-0.2042055
74	0x3e4f0e9b	0.20220415
75	0xbfa7cd15	-1.3109461
76	0xbed05a1a	-0.40693742
77	0xbfc94cb9	-1.5726539
78	0xbf0ebe0b	-0.5575873
79	0xbd46589a	-0.04842434
80	0xbf63d0fa	-0.8899075
81	0xbef045db	-0.46928295
82	0x3fb4ef72	1.4135573
83	0x3f2d4270	0.676795
84	0xbf620738	-0.88292265
85	0x3df3bcb6	0.11901228
86	0xc0148b02	-2.3209844
87	0xc0081eac	-2.126872
88	0xc045477b	-3.0824878
89	0x3fb442c2	1.4082873
90	0x3f4798a9	0.77967316
91	0x3d8db760	0.06919742
92	0xbf4b04ca	-0.7930418
93	0x3edb6348	0.42849183
94	0xbffa19e5	-1.9539152
95	0x3ece7746	0.40325373
96	0x3e5a68c1	0.21329023
97	0xbe89a3de	-0.26882833
98	0xbf10fdbd	-0.56637174
99	0xbf1f3462	-0.62189305
100	0xbee747c7	-0.4517195
101	0x3f7430e9	0.9538713
102	0xbe8e7299	-0.27821806
103	0x3f5f0072	0.87110054
104	0xbef39604	-0.4757539
105	0xbf0f723c	-0.5603368
106	0x40bcbf01	5.898316
107	0x3fc69b7f	1.5516204
108	0x3f837868	1.027112
109	0xbf247045	-0.6423381
110	0xbf196b47	-0.5992932
111	0xbd6b9efa	-0.05752466
112	0x3f1b034b	0.605519
113	0x3fc316e0	1.5241356
114	0xbe73fed8	-0.23827684
115	0xbfa43dad	-1.2831322
116	0x3f9de2fd	1.2334896
117	0x3bc91304	0.0061363
118	0x3e89f3f9	0.2694395
119	0xbf089a24	-0.533602
120	0x3e83bd51	0.25730374
121	0x3f87e479	1.0616599
122	0xbfae4eec	-1.3617835
123	0xbf36db26	-0.71428144
124	0x3f436d1a	0.7633835
125	0x3d539057	0.051651325
126	0x409a5eee	4.824088
127	0x4018352e	2.3782458
128	0x40035444	2.0520182
129	0xbf3268f3	-0.6969139
130	0xbec97a75	-0.3935124
131	0xbe4bc9bd	-0.19901176
132	0x3ee717b2	0.45135266
133	0xbcd2d998	-0.025738522
134	0x3fb60f26	1.4223373
135	0x3f42b163	0.7605192
136	0xbf95bf74	-1.1699052
137	0x3d7f54d3	0.062336754
138	0x3e08cd36	0.13359532
139	0x3eaae381	0.33376697
140	0x3f634267	0.88773197
141	0x3f8017a8	1.0007219
142	0x3fcf05eb	1.6173681
143	0xbe4b5039	-0.19854821
144	0xba21b684	-0.00061688595
145	0xbded5f44	-0.11590436
146	0x4085fb16	4.1869
147	0x3f9d794b	1.2302641
148	0xbea09514	-0.31363738
149	0x3fa28e8e	1.2699754
150	0x3fb4c67c	1.4123073
151	0x3fa1cb9e	1.2640264
152	0xbdfaa043	-0.12237599
153	0x3ee25655	0.4420649
154	0x3fb97182	1.4487765
155	0xbfdc4fc7	-1.7211846
156	0x3e06a295	0.13147958
157	0x3f64ffee	0.8945302
158	0xbe090eef	-0.13384603
159	0x3eb2a741	0.3489323
160	0x3ead39a1	0.3383303
161	0xbf99e335	-1.2022463
162	0xbf261aaa	-0.64884436
163	0x3e7d6e04	0.24748999
164	0xbdddf7ce	-0.108382806
165	0x3ed3d03b	0.41369805
166	0xbfb967f4	-1.4484849
167	0xbdbd59a7	-0.092456155
168	0x3e582cd0	0.21110845
169	0x3e97cace	0.29646915
170	0x3e3ab44a	0.18232837
171	0x3ee339a3	0.4437991
172	0xbf8b0151	-1.0859777
173	0x3fc223cb	1.5167173
174	0x4002ea3a	2.045546
175	0xbec5c414	-0.38626158
176	0x3e26a9f2	0.16275766
177	0x3f7f3030	0.99682903
178	0x3f233e03	0.637665
179	0xbe2261ba	-0.15857592
180	0xbe02d3ee	-0.12776157
181	0x3e2f32e0	0.17109251
182	0x3ddfcbdc	0.10927555
183	0x3f149e50	0.58054066
184	0xbf0eee91	-0.55832773
185	0xbf0c4a9a	-0.5480133
186	0xbfccf2b1	-1.6011564
187	0xc0c951bf	-6.291229
188	0xc1061a35	-8.381398
189	0xbed47ac1	-0.41499904
190	0xbf426600	-0.7593689
191	0xbf4f69d9	-0.81020886
192	0x3fb76c93	1.4330009
193	0x3e8018e9	0.25019005
194	0xbc3e1c8b	-0.011603485
195	0xbf6de1bf	-0.92922586
196	0x3f7d5b78	0.98967695
197	0x3ecb1256	0.39662427
198	0x3ee3a7f0	0.44464064
199	0xbdd27f90	-0.10278237
200	0xbe022bd6	-0.12712035
201	0x3ea93597	0.33048698
202	0xbeae24cb	-0.34012446
203	0xbf894944	-1.0725484
204	0xbe864239	-0.262224
205	0x3f351ac1	0.7074395
206	0xc080f4b1	-4.0298696
207	0xc02fb9eb	-2.7457225
208	0xc019e55d	-2.4046242
209	0x3ecf3745	0.40471855
210	0x3f1b194f	0.6058549
211	0x3f67d5e9	0.90560776
212	0xc03be89a	-2.9360719
213	0x3e000507	0.12501918
214	0x3e40313e	0.18768784
215	0xbed613b9	-0.41811922
216	0xbf5b9b1b	-0.8578355
217	0x3fa59a90	1.2937794
218	0xbd00dcd8	-0.031460613
219	0x3d5278db	0.051384788
220	0xbe5eedf3	-0.21770458
221	0xbf5bf7e9	-0.85925156
222	0xbeda3228	-0.4261639
223	0xbfbc69be	-1.471977
224	0xbfa70a79	-1.3050071
225	0xbf58df0c	-0.8471534
226	0xbe237fee	-0.1596677
227	0x3fe18154	1.7617593
228	0x404a2d7c	3.1590261
229	0x3e88457a	0.26615506
230	0x3ec1968c	0.3781017
231	0x3ec5bee5	0.38622203
232	0xbfaad40e	-1.3345964
233	0x3f11084f	0.566533
234	0x3fa651c8	1.2993708
235	0xbf364a92	-0.71207535
236	0x3eebffee	0.46093696
237	0x3f9f87f2	1.2463362
238	0xbe7f2894	-0.24917823
239	0x3e54344a	0.20723072
240	0xbfa1a176	-1.2627399
241	0x3f0a8c7e	0.54120624
242	0xbff50822	-1.9143107
243	0x3ea676da	0.32512552
244	0xbe84042d	-0.25784436
245	0xbea48e98	-0.3214004
246	0x4028a20c	2.6348906
247	0xc021fc9e	-2.5310435
248	0xc07f541b	-3.9895084
249	0xbef85927	-0.48505518
250	0xbf23b9f8	-0.6395564
251	0xbe7dfb3d	-0.24802871
252	0x3f9bf508	1.2184153
253	0xbfbbf5bc	-1.4684367
254	0x3ffbec52	1.9681494
255	0xbfa566ce	-1.2921999

critic.0.bias f4 [64]
0	0x3f287974	0.6581032
1	0xbeff7d80	-0.49900436
2	0xbd8e885f	-0.069596045
3	0x3eb313ab	0.34975943
4	0x3f33f85a	0.7030083
5	0xbec138f3	-0.3773876
6	0xbee3afae	-0.4446997
7	0x3fc6a0d1	1.5517827
8	0x3f2d464e	0.676854
9	0xbdd91798	-0.10600203
10	0x3fb309bc	1.3987346
11	0x3e56024a	0.2089931
12	0xbdabc770	-0.08387649
13	0x3eb159c1	0.3463879
14	0xbd7649f2	-0.060129113
15	0x3f8735ed	1.0563332
16	0x3eb873cd	0.3602585
17	0x3f8cd083	1.1001133
18	0x3d94e08d	0.07269392
19	0x3e61be55	0.22045262
20	0x3f4a9ae9	0.79142624
21	0xbeb3be82	-0.35106283
22	0x3e05db48	0.1307193
23	0x3f0e9421	0.55694777
24	0xbf5ef2fb	-0.8708951
25	0x3fa719c0	1.3054733
26	0x3debcc6f	0.11513602
27	0xbf95530b	-1.1665968
28	0x3d5bc839	0.053657744
29	0xbf1560e9	-0.58351
30	0x3f67273a	0.9029423
31	0xbf36bf51	-0.71385676
32	0xbf37d587	-0.7181019
33	0xbf007b87	-0.5018849
34	0xbf892abc	-1.0716166
35	0x3fee5586	1.861985
36	0xbe324e92	-0.17412785
37	0x3ebf2ce2	0.3733893
38	0x3ee66029	0.4499524
39	0x3ec79973	0.3898426
40	0xbf075335	-0.5286134
41	0xbe550c3f	-0.20805453
42	0xbdd27287	-0.102757506
43	0xbe33ddab	-0.17565028
44	0xbf62d482	-0.8860551
45	0xbf30e0e0	-0.6909313
46	0x3f284490	0.6572962
47	0xbfaba580	-1.3409882
48	0x3f4eef78	0.8083415
49	0xbfd0b226	-1.6304367
50	0xbfb0f103	-1.3823551
51	0x3fc2d238	1.5220404
52	0xbf8a1460	-1.0787468
53	0xbea6c96b	-0.32575545
54	0x3f99eb3d	1.2024914
55	0xbfc51a42	-1.5398638
56	0xbf414c89	-0.7550741
57	0x3fe7765a	1.8082993
58	0x3f92d65c	1.1471667
59	0xbf74dbb1	-0.9564772
60	0x3f2a90e7	0.66627353
61	0xbe8264a2	-0.25467402
62	0x3d27d666	0.04097595
63	0xbf14f4cc	-0.5818603

critic.2.weight f4 [64, 64]
0	0xbf1e4337	-0.6182131
1	0xbdfd373a	-0.12364049
2	0xc008a3b6	-2.1349921
3	0x3f0ff91a	0.56239474
4	0xbdbed1d1	-0.09317363
5	0xbf11ab07	-0.5690159
6	0x3e94a726	0.29033774
7	0x3ed72a8d	0.4202465
8	0xbeabb51f	-0.33536622
9	0xbf5246a3	-0.82139033
10	0x3dfe0fd9	0.124053665
11	0xbf91089e	-1.1330755
12	0xbe9731c7	-0.29530165
13	0xbe252932	-0.16128996
14	0xc0209856	-2.5092978
15	0x3e9c29b8	0.3050058
16	0x3ef3acf8	0.47592902
17	0xbefb6276	-0.49098557
18	0xbee59be9	-0.44845513
19	0xbfa5b962	-1.2947199
20	0xbcd5a38b	-0.02607896
21	0x3f07efca	0.53100264
22	0x3f25880c	0.64660716
23	0xbf0127d9	-0.5045143
24	0x3f7dae1a	0.9909378
25	0x3e167e1f	0.14696549
26	0xbf8b92e9	-1.0904208
27	0x3eedfea8	0.4648335
28	0x3f13abc6	0.5768398
29	0x3fe08846	1.7541587
30	0xbf88234c	-1.0635772
31	0xbe8bafdd	-0.2728261
32	0xbe237053	-0.15960817
33	0xbf030e81	-0.51194006
34	0xbfaa9606	-1.3327034
35	0x3e166bb4	0.14689523
36	0xbf2fd5dd	-0.68685704
37	0x3ec109c1	0.37702754
38	0x3fd95cf0	1.6981487
39	0xbed3b4a9	-0.4134877
40	0x3f65f192	0.8982173
41	0x3fecf5b5	1.8512484
42	0x3e7495cb	0.23885266
43	0x3ce0fe3a	0.027464975
44	0xbfb101ae	-1.3828638
45	0xbe502937	-0.20328222
46	0x3dd253ac	0.102698654
47	0x3e8a598c	0.27021444
48	0xbd9ee15f	-0.0775783
49	0xbf30e334	-0.69096684
50	0x3ebdc845	0.37066856
51	0x3d74159d	0.059590925
52	0x3eae76ab	0.3407491
53	0x3f8fc1e5	1.1231047
54	0xbf6c2921	-0.9225026
55	0x3e1666b5	0.14687617
56	0x3c441de9	0.011970022
57	0xbf513552	-0.81721985
58	0x3e91aefb	0.28453812
59	0xbc93d4ab	-0.018045744
60	0xbd120b8f	-0.035655554
61	0x3eb47faa	0.3525365
62	0xbf795fd7	-0.97411865
63	0x3caa6606	0.020800602
64	0xbebf4d24	-0.3736354
65	0xbf077354	-0.5291035
66	0xbff444fc	-1.9083552
67	0x3db01333	0.08597412
68	0x3fe82ba2	1.8138316
69	0xbf6003d5	-0.8750585
70	0x3e8a0a1b	0.26960835
71	0x3eb8742b	0.3602613
72	0x3fd2a8b3	1.6457733
73	0xc016f3bd	-2.3586266
74	0x3f16a96e	0.5885228
75	0x3e598f33	0.21246032
76	0xbf40a108	-0.75245714
77	0x3ecb7b9e	0.3974275
78	0xbfc07864	-1.503674
79	0x3f15f9d7	0.5858435
80	0x3fb0e353	1.3819374
81	0x3f94beb6	1.16207
82	0xbd085916	-0.033288084
83	0x3ffe8bca	1.988641
84	0x3ef43ff5	0.47705045
85	0xbe6db7a1	-0.2321458
86	0xc00f99fd	-2.2437737
87	0x3ee17860	0.4403715
88	0xbea9baf4	-0.33150446
89	0x4008d4cf	2.1379888
90	0xbef706a5	-0.48247257
91	0xbf71dc5f	-0.94476885
92	0x3f88cdb0	1.0687771
93	0x3ddc718f	0.10763847
94	0x3db0c8ee	0.08632074
95	0xbc54ae84	-0.012981061
96	0xbf42f871	-0.7616034
97	0xbf61c288	-0.88187456
98	0xbd22257a	-0.03958652
99	0x3f26ac3f	0.65106577
100	0xbefbe752	-0.4919992
101	0x3d2259e7	0.03963652
102	0x3dfccd29	0.12343819
103	0xbf295b87	-0.66155285
104	0xbc51bb60	-0.012801021
105	0x3dd95517	0.10611933
106	0xbfa047b0	-1.2521877
107	0xbed1f554	-0.41007483
108	0xbf045564	-0.51692796
109	0x3e6a9382	0.22907832
110	0xbfc14c4d	-1.510141
111	0x3e1037e0	0.14083815
112	0x3de43269	0.111424275
113	0xbf94236c	-1.157331
114	0xbf14533e	-0.5793952
115	0x3eae3973	0.34028205
116	0xbfb31414	-1.3990502
117	0xbdb2b3e6	-0.08725719
118	0x3eba4e4a	0.36387855
119	0xbdb98c69	-0.09059984
120	0xbf0ce80d	-0.5504158
121	0x3f106160	0.5639858
122	0x3f853d89	1.0409404
123	0xbf4e64ed	-0.8062275
124	0xbecaa400	-0.39578247
125	0x3e2c81e2	0.16846421
126	0xbf0d8880	-0.5528641
127	0xbe5db45c	-0.21650833
128	0x3f03fc5d	0.5155695
129	0xbf94fce8	-1.1639681
130	0x3ec12fb1	0.37731698
131	0xbe1988b4	-0.14993554
132	0xbe3eabab	-0.18620174
133	0xbe82054e	-0.25394672
134	0xbf826ccf	-1.0189456
135	0xbebabe59	-0.3647335
136	0xbe2ed6b3	-0.17074089
137	0x3fc1c55b	1.5138353
138	0x3e7c2979	0.24625196
139	0xbef81d70	-0.4845996
140	0x3e91727c	0.28407657
141	0xbf72f912	-0.949113
142	0x3f354355	0.70805866
143	0x3f3a7374	0.7283242
144	0xbedc66fd	-0.43047324
145	0x40043903	2.0659797
146	0xbffc6c69	-1.9720584
147	0xbeafb563	-0.34318075
148	0x3f169ea6	0.5883583
149	0xbe954635	-0.29155126
150	0x3ef11017	0.47082588
151	0x3f2740b3	0.653331
152	0x3fbd3bb0	1.478384
153	0x3fbcacbb	1.4740213
154	0x3f90436e	1.1270578
155	0x3e049b42	0.12949851
156	0xbf74940a	-0.9553839
157	0xbea12c74	-0.31479228
158	0xbeddb400	-0.43301392
159	0x3f83d309	1.0298778
160	0xbf8a05d3	-1.0783027
161	0xbea91ca9	-0.33029678
162	0xbf18af5d	-0.59642583
163	0xbf17f5e8	-0.593596
164	0xbf0dc6ba	-0.5538136
165	0xbea38728	-0.31939054
166	0x3ed89320	0.42299747
167	0x3e87d0ab	0.2652639
168	0x3f7d26ba	0.9888722
169	0x3f13fc3f	0.5780677
170	0x3c2ae2f2	0.010430085
171	0xbfa3359e	-1.2750738
172	0xc00bd93d	-2.1851342
173	0xbedfbdcc	-0.4369949
174	0x3f34bafe	0.7059783
175	0xbe15e42c	-0.14637822
176	0xbebee1de	-0.37281698
177	0xbe9eb3bf	-0.3099651
178	0xbf3955be	-0.7239646
179	0x3dc5d120	0.09659028
180	0xbf09cc6c	-0.5382755
181	0x3fa7a390	1.309679
182	0xbf39cf75	-0.7258218
183	0xbf958983	-1.168259
184	0x3d9f2f01	0.07772637
185	0x3f2e66ad	0.6812542
186	0x3da67dbb	0.0812945
187	0x3edcfac0	0.43160057
188	0xbf012bca	-0.5045744
189	0x3e00e810	0.12588525
190	0x3f0829cc	0.53188777
191	0xbfab1d7a	-1.336837
192	0x3f4dfae6	0.80460966
193	0x3f558956	0.83412683
194	0xbfed20d6	-1.8525646
195	0xc00b406c	-2.175807
196	0x3fc63597	1.5485104
197	0x3f412940	0.7545357
198	0xbfb96e90	-1.4486866
199	0x3e9ba587	0.30399725
200	0x3ec28240	0.37989998
201	0xbe9d436b	-0.30715498
202	0x3ec778ef	0.38959453
203	0x3ef12aac	0.4710287
204	0xbf8be435	-1.0929018
205	0xbf2b163d	-0.6683081
206	0xc02b32bd	-2.6749718
207	0xbf76f213	-0.96463126
208	0xbfa4082e	-1.2814996
209	0x3f3832a2	0.7195226
210	0xbf825075	-1.0180804
211	0x3cf32ae4	0.029683538
212	0x3f7993d3	0.97491187
213	0xbf33e619	-0.70272976
214	0x3d0bf053	0.034164738
215	0x3ec8a7e0	0.39190578
216	0x3d38a5f9	0.04508016
217	0xbe78445b	-0.24244826
218	0xbf20aa5e	-0.6275996
219	0xbf1a8595	-0.6036008
220	0xbf10167c	-0.5628431
221	0x3e26d43d	0.162919
222	0xbf48b764	-0.7840483
223	0xbd02b21d	-0.031908143
224	0xbe9b35b1	-0.303144
225	0xbebcbe5c	-0.36863983
226	0xbd4b9676	-0.049704038
227	0x3e453fd9	0.19262637
228	0xbf4c7f26	-0.79881513
229	0x3f81e023	1.0146526
230	0xbf156d00	-0.58369446
231	0x3dbbabaf	0.091636054
232	0x3e62e639	0.22158135
233	0xbd1968d9	-0.037453506
234	0xbef77265	-0.48329464
235	0x3f73fd1d	0.95308095
236	0xbf939370	-1.1529369
237	0xbe4fc096	-0.2028831
238	0x3d265401	0.040607456
239	0x3ef17cc8	0.47165513
240	0x3f4ec5c6	0.8077053
241	0xbe242de6	-0.16033134
242	0xbded59b5	-0.11589376
243	0x3f328e55	0.6974843
244	0x3e29b4d6	0.1657289
245	0xbff21b2f	-1.8914546
246	0xbf5a7278	-0.85330915
247	0xbfd3d1bd	-1.6548382
248	0xbeefcb0c	-0.468346
249	0x3f6ffc92	0.93744767
250	0x3f34a25a	0.7056023
251	0xbf7ed1c5	-0.9953883
252	0x3f89a077	1.0752095
253	0x3e87cb88	0.2652247
254	0xbec48a86	-0.38386935
255	0xbe1fe4d2	-0.15614632

critic.2.bias f4 [64]
0	0x3f085d3d	0.5326727
1	0x3daa8b85	0.083273925
2	0x3ecc1b49	0.39864567
3	0x3dd00785	0.10157684
4	0xbe7a27b1	-0.24429204
5	0xbee94f9c	-0.4556855
6	0x3dfefa1e	0.1245005
7	0xbcbbf812	-0.022945438
8	0xbf74096a	-0.95326865
9	0x3e821d28	0.2541287
10	0xbf53c7f4	-0.8272698
11	0xbf858694	-1.0431695
12	0x3f18b0da	0.59644854
13	0xbece8e9a	-0.4034317
14	0xbeb7ebe9	-0.35922173
15	0xbdcedf68	-0.10101205
16	0x3ea2e83a	0.318178
17	0xbf551982	-0.83242047
18	0xbf9acdb8	-1.209403
19	0xbe6e6c70	-0.23283553
20	0xbf31544a	-0.6926924
21	0x3e5de443	0.21669106
22	0x3d6cf76d	0.05785315
23	0xbf1ed486	-0.62043035
24	0xbeaca2a5	-0.33717838
25	0xbe7c4f72	-0.24639681
26	0x3ebe4274	0.37160075
27	0xbf09affc	-0.53784156
28	0x3f8b3f8f	1.0878772
29	0x3e0b8be7	0.13627587
30	0x3dcf8dc9	0.10134465
31	0xbed51431	-0.41616967
32	0xbf920c1b	-1.1409944
33	0x3edeb092	0.43494087
34	0xbf672a20	-0.9029865
35	0x3f4df890	0.804574
36	0xbfa4118f	-1.2817858
37	0xbe75fe39	-0.2402276
38	0xbf85eb5c	-1.0462451
39	0x3ed64c29	0.4185498
40	0xbe70c62e	-0.235131
41	0xbecdf5da	-0.40226632
42	0x3fac523b	1.3462595
43	0x3f06dc43	0.5267984
44	0x3f236c8c	0.63837504
45	0x3e26dcc2	0.1629515
46	0xbeb3e2ca	-0.35133964
47	0x3ee701e2	0.45118624
48	0x3e648030	0.22314525
49	0xbf6422f9	-0.89115864
50	0xbe9465c3	-0.28983888
51	0x3f2e535c	0.68095946
52	0x3f420a49	0.75796944
53	0xbf1fec75	-0.6247018
54	0xbe214519	-0.15749015
55	0x3e8ae3b7	0.27126858
56	0x3efced75	0.49399915
57	0xbf0cff2c	-0.5507686
58	0x3e4be567	0.19911729
59	0xbe8d8453	-0.27640018
60	0xbdbb322b	-0.09140428
61	0x3e8bf54e	0.2733559
62	0x3ee5ec29	0.44906738
63	0x3e33d3e0	0.17561293

critic.4.weight f4 [1, 64]
0	0x3eee41f8	0.46534705
1	0x3ebae342	0.3650151
2	0x3e875ede	0.26439565
3	0xbeafec94	-0.34360182
4	0xbeb6531b	-0.3561028
5	0xbe888204	-0.26661694
6	0xbeb6192e	-0.35566086
7	0x3e98bff9	0.29833964
8	0xbeba0bc5	-0.36337104
9	0xbeae61bb	-0.34058937
10	0xbe6be8c4	-0.23038012
11	0xbe8996ed	-0.2687296
12	0x3f00f9e1	0.50381285
13	0xbe8f4383	-0.27981195
14	0xbeb46e76	-0.35240525
15	0xbe872501	-0.2639542
16	0x3ecdd158	0.4019878
17	0xbe9112b6	-0.28334588
18	0xbe833a81	-0.25630572
19	0xbec49597	-0.38395378
20	0xbe8fee3f	-0.28111455
21	0x3e94dea8	0.29076123
22	0x3ead3544	0.338297
23	0xbe7debd1	-0.24796988
24	0xbea07b22	-0.31343943
25	0xbebcad04	-0.3685075
26	0xbee60a11	-0.44929555
27	0xbe911751	-0.28338102
28	0x3ebfcd90	0.3746152
29	0x3ea1686a	0.31524974
30	0x3eb37bc3	0.3505536
31	0xbed4b427	-0.41543695
32	0xbe9f4650	-0.31108332
33	0x3ee6718f	0.45008513
34	0xbea6c9c2	-0.32575804
35	0x3e633965	0.22189863
36	0xbeb4f31b	-0.35341725
37	0x3eb78f7d	0.3585166
38	0xbeba6e3b	-0.36412224
39	0x3eb98439	0.3623369
40	0xbed6c3af	-0.4194617
41	0xbed6f4cc	-0.4198364
42	0x3e38867a	0.18020049
43	0xbed4c17e	-0.41553873
44	0xbeaff9d2	-0.34370285
45	0x3ed6ed0b	0.41977724
46	0x3ee5b6a0	0.44865894
47	0x3ea59afe	0.32344812
48	0xbeef75c2	-0.4676953
49	0xbed524be	-0.41629595
50	0xbe9f3230	-0.31092978
51	0x3ec74e35	0.38926855
52	0x3e5e91d6	0.2173532
53	0xbec9023e	-0.39259523
54	0x3ea512cd	0.32240906
55	0x3e8c32aa	0.27382404
56	0x3ef79c6f	0.48361537
57	0x3f2fa09e	0.6860446
58	0x3eb4d747	0.35320494
59	0xbef87268	-0.48524785
60	0x3ec47494	0.38370192
61	0xbe7e68c0	-0.24844646
62	0xbedda028	-0.43286252
63	0x3e7825b4	0.24233133
