Model Results/ppo_sentiment_AMC2022-03-011999.pth (torch, 50577 bytes, 11 tensors)

actor.0.weight f4 [64, 20]
0.19216272 -0.56664425 -0.7219553 0.08206376 0.106455326 -0.15846221 -0.5186819 1.8086747
2.1115215 0.6729816 0.91451085 0.790929 -0.21929878 0.79696846 0.54375726 -1.5455126
-1.2527333 -1.3151184 0.76883286 0.20649183 -0.68031603 0.28323337 -0.09162489 -0.16086002
-0.061660178 -0.12822974 -5.3912954 -6.3346877 -5.4239645 -0.5361008 -0.3233638 0.25545728
-0.26530156 -1.2495615 0.5511099 0.056772478 0.4761393 -0.3450822 0.12039237 0.30337983
0.052696075 0.5467758 1.1315395 0.2546872 0.24152666 0.15795036 2.877085 3.4646952
3.891424 0.017003676 -0.11639849 -0.3831556 0.42175066 -0.19263402 -0.45101675 0.1907391
0.80652636 1.5976824 -0.31531343 -0.0585178 -0.57498866 0.07852917 0.127588 0.80548865
0.09248037 0.54792565 -0.2237537 -0.2967325 -0.5639628 -0.081432104 -0.37448072 -0.2284383
0.6713897 0.6963376 -0.6330144 -0.14548315 -0.45268157 -1.1274289 -0.052921493 -0.6681275
-0.67845327 -0.07704774 0.21247254 -1.0307937 -0.6635693 -1.0346392 2.5408661 1.8345884
1.813944 -0.25536278 -0.20737197 -0.58199114 1.7195576 0.37278208 -1.1016014 0.40749717
-0.02480792 -0.18597212 -0.14866695 -0.044712394 -2.662803 -1.055972 -0.62354743 -0.4644714
-0.23271598 -0.23583686 2.3732271 2.136211 1.6835546 0.60764575 0.3203139 0.3905217
-0.5313766 -1.0074097 -0.49116957 -0.551406 -0.4209553 -0.97174734 0.07336448 0.23153014
-2.4128814 -1.1400503 -0.9434054 0.6859552 0.49627426 0.79477286 -1.0099238 -1.768273
-2.8574488 -0.6249865 -0.5889754 -0.77647614 1.2807833 -0.2840413 -0.44871032 0.2697415
0.5541525 -0.1710201 -0.05606555 0.031690884 -0.2653389 0.33975556 0.4044163 0.5194695
1.0318915 0.41379324 0.8946604 0.9248832 0.70797414 0.3955858 0.21201818 0.2865853
0.046996772 -0.09037047 0.4090405 1.1955826 -0.76201844 -0.26328105 -0.44731107 0.44347537
2.396493 0.57733697 0.06349093 -1.1398711 -0.47612762 -0.47479928 0.76794374 0.836739
2.2626288 0.46574846 0.7137847 0.7514264 0.06421446 -0.75704175 0.369474 0.69172555
-0.6912552 -0.31472155 0.027474137 -0.06159448 -1.1763573 -0.20662905 0.056315955 -0.9150303
-1.2465007 -1.013546 1.4584103 2.0470543 2.5024636 -0.14611678 -0.29839206 -0.48830575
-0.7566172 -0.95084876 -0.10314773 0.19439286 0.32248646 0.1801293 -0.22463183 0.1378255
2.5152485 0.81744945 1.2839013 -0.05136246 -0.53544253 -0.63066626 -0.33907938 1.857463
2.0817623 -0.32721213 -0.19607085 -0.17449453 -0.73280734 0.2765827 -0.02356903 -0.88558626
-0.74896705 0.20345397 -0.04030363 -0.058921542 0.6664305 1.1159422 1.0093067 0.21017626
0.04751402 0.18985406 -0.6655842 -2.7079697 -3.7449286 -0.4050522 -0.27473834 -0.12656055
0.14014733 0.3970969 -0.33561644 -0.7236096 0.094326645 0.29269966 0.35530022 -0.3399194
1.8833222 0.93650055 0.37056187 -0.784032 -0.4000513 -0.80345976 -2.8203487 -1.6991841
-0.15732296 0.33169106 0.88119537 0.9502409 -1.5157477 -0.43858773 1.0422406 -0.38158876
00000000: 4ec6 443e 990f 11bf 10d2 38bf 0b11 a83d
00000010: 4005 da3d eb43 22be 56c8 04bf a782 e73f
00000020: 2b23 0740 8648 2c3f 621d 6a3f 537a 4a3f
00000030: dc8f 60be 2006 4c3f ad33 0b3f 5bd3 c5bf
00000040: 9159 a0bf cd55 a8bf 3bd2 443f 9872 533e
00000050: 3129 2ebf f703 913e d5a5 bbbd 7db8 24be
00000060: 628f 7cbd a84e 03be 7e85 acc0 c3b5 cac0
00000070: 1e91 adc0 e73d 09bf f18f a5be 4ccb 823e
00000080: 9bd5 87be a2f1 9fbf 8a15 0d3f 428a 683d
00000090: 88c8 f33e 9dae b0be 4690 f63d 9a54 9b3e
000000a0: d7d7 573d 80f9 0b3f 49d6 903f 5c66 823e
000000b0: c452 773e bdbd 213e 2922 3840 91bd 5d40
000000c0: 170d 7940 4b4b 8b3c 5562 eebd f92c c4be
000000d0: b4ef d73e da41 45be abeb e6be 1c51 433e
000000e0: 8378 4e3f db80 cc3f c370 a1be 5cb0 6fbd
000000f0: 7532 13bf e7d3 a03d 6ea6 023e 8134 4e3f
00000100: 5966 bd3d db44 0c3f b11f 65be 52ed 97be
00000110: de5f 10bf e0c5 a6bd f0bb bfbe bbeb 69be
00000120: 32e0 2b3f 2e43 323f 3b0d 22bf 89f9 14be
00000130: e1c5 e7be 974f 90bf 35c4 58bd 670a 2bbf
00000140: 1daf 2dbf 35cb 9dbd 6792 593e 0cf1 83bf
00000150: addf 29bf 0f6f 84bf 8d9d 2240 cbd3 ea3f
00000160: 512f e83f e9be 82be 5159 54be 5ffd 14bf
00000170: 771a dc3f 4bdd be3e 4601 8dbf 78a3 d03e
00000180: fb39 cbbc 7a6f 3ebe 263c 18be 5824 37bd
00000190: 5d6b 2ac0 172a 87bf cea0 1fbf 32cf edbe
000001a0: 194d 6ebe 387f 71be f4e2 1740 aeb7 0840
000001b0: b87e d73f ac8e 1b3f 2f00 a43e 76f2 c73e
000001c0: 4c08 08bf cdf2 80bf 947a fbbe f228 0dbf
000001d0: 7487 d7be 6fc4 78bf 1e40 963d 3d16 6d3e
000001e0: a66c 1ac0 2bed 91bf 0483 71bf c39a 2f3f
000001f0: a917 fe3e 3c76 4b3f 2f45 81bf c556 e2bf
00000200: 71e0 36c0 1eff 1fbf 18c7 16bf 24c7 46bf
00000210: b5f0 a33f dc6d 91be 5cbd e5be 8f1b 8a3e
00000220: f0dc 0d3f e51f 2fbe fda4 65bd 4dce 013d
00000230: 80da 87be 71f4 ad3e a70f cf3e f4fb 043f
00000240: 0515 843f b5dc d33e 7708 653f 25c5 6c3f
00000250: cb3d 353f 398a ca3e 4b1b 593e 4fbb 923e
00000260: b07f 403d 2714 b9bd c26d d13e da08 993f
00000270: a413 43bf c6cc 86be f505 e5be 340f e33e
00000280: 2460 1940 5bcc 133f 8807 823d 4ce7 91bf
00000290: 00c7 f3be e418 f3be f697 443f 8734 563f
000002a0: e9ce 1040 9576 ee3e 98ba 363f 7b5d 403f
000002b0: df82 833d 7dcd 41bf b22b bd3e ed14 313f
000002c0: 1af6 30bf 2f23 a1be 7111 e13c 7e4a 7cbd
000002d0: e092 96bf 9196 53be 8fab 663d 6d3f 6abf
000002e0: 568d 9fbf e0bb 81bf 30ad ba3f f002 0340
000002f0: 5d28 2040 a39f 15be d8c6 98be 3603 fabe
00000300: aab1 41bf d36a 73bf 1e3f d3bd ec0e 473e
00000310: f21c a53e d173 383e e305 66be 2122 0d3e
00000320: d5f9 2040 5e44 513f e156 a43f 7161 52bd
00000330: c312 09bf 5873 21bf d09b adbe 59c1 ed3f
00000340: 983b 0540 5988 a7be ccc6 48be b2ae 32be
00000350: 4399 3bbf 3f9c 8d3e d713 c1bc c8b5 62bf
00000360: 4ebc 3fbf 3d56 503e 6b15 25bd b757 71bd
00000370: 309b 2a3f 32d7 8e3f f630 813f 7238 573e
00000380: 109e 423d 1a69 423e ba63 2abf 604f 2dc0
00000390: e9ac 6fc0 0163 cfbe 81aa 8cbe 1799 01be
000003a0: c882 0f3e 4950 cb3e ebd5 abbe 7b3e 39bf
000003b0: 542e c13d bbdc 953e e9e9 b53e ea09 aebe
000003c0: b410 f13f 80be 6f3f 49ba bd3e 52b6 48bf
000003d0: 86d3 ccbe 8aaf 4dbf 9880 34c0 dd7e d9bf
000003e0: 4519 21be 69d3 a93e 0596 613f fd42 733f
000003f0: 0504 c2bf 928e e0be 2468 853f 9a5f c3be

actor.0.bias f4 [64]
0.68751174 0.39736125 -0.72819084 -0.18355682 -0.8049234 0.08178345 -0.012022692 -0.015987454
0.40915343 -0.32373336 -0.33524826 0.3379831 0.6815678 0.52314985 0.4186679 -0.92773306
-0.55203336 -0.7490206 -0.031399332 0.040045004 -0.24076681 -0.1607099 0.04510706 0.13091117
-0.43310013 0.60704905 -0.2956339 0.30594063 -0.50735563 -0.2758581 0.29150632 0.36771813
-0.25708997 0.59132063 0.255315 -0.37764066 0.25874645 -0.38385344 -0.10166993 -0.46168914
-0.89509106 -0.73922074 0.23815672 0.53303754 0.09324669 0.26256415 0.3493898 0.34488207
-0.7669311 0.99844 0.09467758 0.5348684 0.7217204 0.4556145 0.4055177 -0.050144657
0.4199528 -0.061344765 -0.107992604 0.16325861 -0.66143835 0.077651605 -0.33999804 -0.36987603
00000000: c500 303f ef72 cb3e b76a 3abf 52f6 3bbe
00000010: 760f 4ebf 157e a73d d3fa 44bc 1ff8 82bc
00000020: 8f7c d13e 61c0 a5be a9a5 abbe 1f0c ad3e
00000030: 3a7b 2e3f 26ed 053f a45b d63e ea7f 6dbf
00000040: 0f52 0dbf d0bf 3fbf 969c 00bd 3b06 243d
00000050: 938b 76be 2391 24be 2ec2 383d 940d 063e
00000060: 4dbf ddbe 9167 1b3f 545d 97be 40a4 9c3e
00000070: 0fe2 01bf 463d 8dbe 5140 953e 8d45 bc3e
00000080: 4ca1 83be ca60 173f a6b8 823e 1e5a c1be
00000090: 6a7a 843e 7088 c4be 5338 d0bd 8562 ecbe
000000a0: b024 65bf 923d 3dbf 5bdf 733e 2675 083f
000000b0: 1ff8 be3d cf6e 863e 38e3 b23e 6294 b03e
000000c0: 9955 44bf c499 7f3f 52e6 c13d 23ed 083f
000000d0: abc2 383f 4e46 e93e 04a0 cf3e 7c64 4dbd
000000e0: 0e04 d73e a644 7bbd 3a2b ddbd 442d 273e
000000f0: 0654 29bf ce07 9f3d 3914 aebe 6460 bdbe

actor.2.weight f4 [64, 64]
0.21794164 0.0049098935 0.41610432 -1.7911634 -0.41040245 -0.75947595 -0.8011161 -0.70804214
0.69712806 0.002482019 0.08571429 0.004579364 0.09043464 0.0044340417 0.4796096 0.47189695
0.51756114 1.3912057 0.010712563 -0.105694555 -0.0695351 0.73081833 -0.6129633 0.39200094
-0.3360991 -0.5007595 -1.0838112 0.57743466 0.63985664 -0.114341795 -0.7238948 0.42132714
-0.6951091 -0.1592843 -0.43414754 0.9453326 1.5775182 1.4056518 0.6572341 -0.19521108
1.5981649 0.5217925 0.52124023 -0.044174448 0.60888934 -0.005743585 0.04688942 -1.5523301
1.2992038 0.9737703 -0.45872754 0.076720625 0.06247427 -0.15397562 -0.44908288 0.026564758
0.08783258 0.120105654 0.8403082 -0.8529902 -0.28406566 0.55648285 0.10640485 1.6414186
0.73871136 -0.103824906 -0.03270698 0.18311793 0.28145579 0.45726863 0.54837614 -0.37991092
-0.9575874 -0.15084179 -0.036192663 0.18693188 -0.30579272 0.37908143 -0.9696416 0.9524636
-0.01105759 0.10821072 0.6310227 -0.72960305 0.25141865 0.5461001 1.8756452 -0.24493228
-0.14604698 0.59136456 0.5276253 -0.48529765 1.0708165 0.020059077 -0.7382971 1.1128962
1.0156033 0.20408358 0.8115853 0.81977266 -1.05124 -0.61813766 0.91623455 -1.2373238
0.27488342 -0.38226813 -0.4531995 0.6545719 0.8929581 0.7545417 -0.74800926 -0.43118978
0.31258243 0.2189808 -0.21798453 -0.059339896 -0.60403746 -1.435695 -0.9174784 0.6669537
0.42756808 -0.46950984 0.33426428 -0.97381127 0.026994072 -0.26354483 0.6804792 -0.32105604
1.3737032 -0.68927306 -0.8075774 0.32423282 -0.51263714 -0.41795382 0.89765793 -0.13815868
-0.99875546 -0.7108192 -0.47754222 0.43722418 -0.22979768 0.9810928 0.32810363 0.5725589
-0.48810264 -0.6045055 1.2998971 -0.8951472 0.7990176 0.060425896 0.46563813 0.20539461
-0.5304688 -0.20853029 0.09861502 -1.5917779 -0.5586124 -1.0070293 0.96503645 -0.05551767
-0.12079865 -1.2142231 0.4690962 0.023589931 -0.37318838 -0.22173484 0.70298225 -0.57692057
-0.5090564 -0.1215382 -1.2455038 0.4931724 -0.25039062 -0.2962764 0.6062355 0.07830718
0.49604034 -0.6633045 -0.22920169 1.1420785 0.9394163 0.49903443 -0.47549906 0.9902597
1.0111302 1.578654 -2.466644 0.18087824 -0.37863687 -0.88341904 -0.12608527 -0.42919204
0.64424306 0.77895325 -1.0727512 0.71979773 -1.0532324 0.49492452 -0.049951285 -0.026683537
0.2847717 -0.7034292 -1.6372998 0.62849873 0.4260598 0.008818497 -1.1369381 1.1608068
-0.72814655 -0.47276422 0.60615367 0.15205638 -0.16763583 -0.16580322 0.28629857 -0.9145615
-0.35848075 -1.6818943 -0.37948847 -0.31806517 -0.39894947 -1.0674753 1.4309282 0.29368606
-0.46273914 0.3268729 -0.45700788 -0.7652887 0.23285899 -1.0507786 0.5099756 -0.11688116
-0.219519 0.5559421 0.34905052 1.0026419 0.07624719 -1.0314955 -0.5512267 -0.26251858
-0.57572246 0.81648135 0.040198512 1.212464 0.85032445 0.38561872 -1.3672625 1.3618693
-0.1109871 0.84548175 -1.5721914 -0.22977766 -0.07663667 0.26919013 0.7843723 -0.1509912
00000000: 182c 5f3e 2ce3 a03b a00b d53e d844 e5bf
00000010: 4520 d2be 046d 42bf f215 4dbf 4042 35bf
00000020: fc76 323f 5ea9 223b f98a af3d 7d0e 963b
00000030: cc35 b93d 704b 913b 648f f53e 7a9c f13e
00000040: e37e 043f 0713 b23f bf83 2f3c 6376 d8bd
00000050: 6b68 8ebd e916 3b3f 2aeb 1cbf 59b4 c83e
00000060: 2e15 acbe c631 00bf 53ba 8abf c2d2 133f
00000070: a5cd 233f 082c eabd 2b51 39bf 31b8 d73e
00000080: acf2 31bf 6c1b 23be 9648 debe 5101 723f
00000090: 1eec c93f 66ec b33f 7e40 283f 6ae5 47be
000000a0: ab90 cc3f 3194 053f 0070 053f 44f0 34bd
000000b0: 2ce0 1b3f af34 bcbb 1f0f 403d c1b2 c6bf
000000c0: 4f4c a63f 0349 793f 56de eabe b41f 9d3d
000000d0: 05e5 7f3d c9ab 1dbe 31ee e5be 569e d93c
000000e0: 91e1 b33d f4f9 f53d 701e 573f 915d 5abf
000000f0: 0e71 91be a975 0e3f c9ea d93d 011a d23f
00000100: 301c 3d3f 27a2 d4bd c1f7 05bd 4483 3b3e
00000110: f91a 903e 1d1f ea3e 6162 0c3f af83 c2be
00000120: 7324 75bf 4576 1abe c23e 14bd 126b 3f3e
00000130: dd90 9cbe f616 c23e 6f3a 78bf a8d4 733f
00000140: e52a 35bc 959d dd3d b48a 213f 44c7 3abf
00000150: f2b9 803e 37cd 0b3f 2415 f03f 87cf 7abe
00000160: 578d 15be ab63 173f 7412 073f ef78 f8be
00000170: 8410 893f ef52 a43c 0a01 3dbf 6273 8e3f
00000180: 4aff 813f 49fb 503e 0ec4 4f3f 9fdc 513f
00000190: 088f 86bf 453e 1ebf 598e 6a3f a060 9ebf
000001a0: 85bd 8c3e a6b8 c3be c409 e8be 0692 273f
000001b0: e798 643f a529 413f 897d 3fbf e8c4 dcbe
000001c0: ce0a a03e 813c 603e 5637 5fbe 640e 73bd
000001d0: 33a2 1abf dbc4 b7bf dddf 6abf 7abd 2a3f
000001e0: 34ea da3e 9863 f0be b024 ab3e b24b 79bf
000001f0: ac22 dd3c 59ef 86be e333 2e3f 7561 a4be
00000200: 82d5 af3f 3374 30bf 64bd 4ebf d801 a63e
00000210: 303c 03bf 0bfe d5be e9cc 653f 7879 0dbe
00000220: 70ae 7fbf 3ff8 35bf 6a80 f4be d9db df3e
00000230: 1550 6bbe e628 7b3f 33fd a73e 3893 123f
00000240: 97e8 f9be dfc0 1abf 0763 a63f 5e28 65bf
00000250: 6b8c 4c3f 2581 773d 1f68 ee3e f752 523e
00000260: cecc 07bf f788 55be acf6 c93d 61bf cbbf
00000270: 3901 0fbf 56e6 80bf a10c 773f 7f66 63bd
00000280: 4865 f7bd aa6b 9bbf 612d f03e ac3f c13c
00000290: 8c12 bfbe 750e 63be a5f6 333f 11b1 13bf
000002a0: 8551 02bf 05e9 f8bd ab6c 9fbf 1881 fc3e
000002b0: 3333 80be 8ab1 97be 4032 1b3f 845f a03d
000002c0: 00f9 fd3e 53ce 29bf d9b3 6abe a12f 923f
000002d0: 967d 703f 7181 ff3e 9d74 f3be a981 7d3f
000002e0: b76c 813f 5611 ca3f 7fdd 1dc0 2538 393e
000002f0: b1dc c1be c027 62bf 7f1c 01be 0fbf dbbe
00000300: 1ded 243f 7b69 473f e94f 89bf aa44 383f
00000310: 52d0 86bf bf66 fd3e b899 4cbd 6f97 dabc
00000320: 99cd 913e f013 34bf 0a93 d1bf 4be5 203f
00000330: 8324 da3e 757b 103c 3087 91bf 5195 943f
00000340: d067 3abf 270e f2be e32c 1b3f abb4 1b3e
00000350: baa8 2bbe 52c8 29be ba95 923e b420 6abf
00000360: ca8a b7be 5048 d7bf 504c c2be 70d9 a2be
00000370: 1b43 ccbe 08a3 88bf a828 b73f 055e 963e
00000380: 25ec ecbe e25b a73e f0fc e9be f6e9 43bf
00000390: 9672 6e3e ea7f 86bf c38d 023f 645f efbd
000003a0: 97c9 60be 3952 0e3f c0b6 b23e 9256 803f
000003b0: 7d27 9c3d 0b08 84bf 311d 0dbf d668 86be
000003c0: 8c62 13bf ec04 513f 32a7 243d 0532 9b3f
000003d0: ddae 593f d16f c53e 7502 afbf bc51 ae3f
000003e0: 344d e3bd 7e71 583f 913d c9bf d64a 6bbe
000003f0: b0f3 9cbd 4ad3 893e a0cc 483f 709d 1abe

actor.2.bias f4 [64]
0.22674842 -0.040033888 0.11040507 -0.6874369 0.20323564 0.57205063 -0.14314869 -1.0433636
-0.79050666 0.4804983 0.041204467 0.0027328786 -0.56328917 -0.7969947 0.6915803 0.2459995
0.5229756 -1.1893128 0.047344875 -0.15087312 -0.28977984 0.46018922 -0.14909896 -0.6076985
0.41333964 0.70224047 -0.39667904 0.27903003 -0.077060856 0.2226382 0.24139206 -1.2251472
0.41185328 -0.27141568 0.71508384 -0.42956987 -0.8454999 0.014791833 0.4209907 0.3032064
0.27994668 -0.019281635 0.0010481236 0.2698874 0.37786087 0.21179438 -0.29497457 0.21907282
-0.08076431 -0.008323076 -0.17585413 -1.3227743 0.34575146 -0.23260468 0.45110038 -0.027101493
0.6437091 0.5490263 0.7615203 0.108958945 0.13233249 -0.17262948 0.5967175 -0.5873062
00000000: bd30 683e 93fa 23bd 0e1c e23d ddfb 2fbf
00000010: 011d 503e e971 123f 9295 12be f08c 85bf
00000020: a55e 4abf e003 f63e 04c6 283d 181a 333b
00000030: b833 10bf d807 4cbf 680b 313f 4be7 7b3e
00000040: bbe1 053f 673b 98bf b3ec 413d 7c7e 1abe
00000050: 065e 94be ec9d eb3e 66ad 18be 2192 1bbf
00000060: 41a1 d33e 08c6 333f 8419 cbbe 06dd 8e3e
00000070: 15d2 9dbd 45fb 633e 7b2f 773e a0d1 9cbf
00000080: 6fde d23e fff6 8abe bc0f 373f 95f0 dbbe
00000090: ae72 58bf 7259 723c 188c d73e df3d 9b3e
000000a0: 2c55 8f3e 85f4 9dbc 3161 893a ae2e 8a3e
000000b0: fb76 c13e a0e0 583e e806 97be a054 603e
000000c0: c267 a5bd 835d 08bc 1b13 34be ab50 a9bf
000000d0: 5606 b13e ec2f 6ebe a1f6 e63e f303 debc
000000e0: 1fca 243f fd8c 0c3f fff2 423f de25 df3d
000000f0: 2b82 073e c8c5 30be 7ac2 183f b359 16bf

actor.4.weight f4 [7, 64]
2.0637107 2.70949 1.1288775 2.1891196 -0.8879799 -2.17638 1.3164876 -0.14301477
-2.2457628 -0.5665172 -2.0130289 1.0105612 1.6379001 -3.3958697 1.9043316 -0.011780132
2.3156729 -1.6207438 -1.3382691 -1.9735532 2.1347516 1.1931715 0.6546242 -0.84888047
-0.3356832 -0.67913586 -0.104639605 -1.8548955 -1.410215 -1.5539793 0.52906877 -0.7991293
2.713843 -0.51987714 2.5278685 0.6547009 0.7687587 -1.7980604 2.2686377 -2.2210531
2.6747413 1.6824077 -2.0297384 -0.2686174 -0.5038394 -1.2963092 -2.5534394 -2.0004945
1.8691945 -0.69911367 1.5557989 -1.1445746 -1.4578965 2.3096478 0.6249204 1.3191987
0.5321477 2.6485655 1.4103782 0.44013578 -1.0998828 1.8182861 0.931432 -2.58028
-0.97304064 0.25529438 3.2263575 0.98775095 -0.21838401 1.4169439 0.9051675 1.3291485
1.3269653 2.0715766 0.57116234 0.20917559 -1.273872 1.4439273 1.5915898 -0.44423544
0.13265002 -0.061687592 -1.650577 -2.2469392 1.0892819 -2.191195 -0.3040051 -0.6282068
-2.5451753 -1.9494354 -1.054081 -0.438359 1.1361531 -0.90265244 0.3934131 0.34760383
0.76660323 -1.0753376 -1.2282097 1.1822618 0.047291815 -0.29675218 -1.248783 -0.6184603
1.2867684 0.72913325 0.30520138 -1.8110561 -1.4232577 -2.2994692 2.9993908 -0.19752848
-1.0672536 -0.84806 0.048048854 2.8412457 -0.50572926 -0.30709878 2.5099988 -1.2698628
-1.5383948 -2.6094103 1.9842299 -2.4788709 -1.8386967 0.85520524 -1.7348789 -1.674882
-0.39156002 0.26688355 -0.087085515 -0.4500698 0.106611304 -2.984816 -0.1856807 0.23504001
0.044717554 0.39753762 -0.3634169 -1.2045351 0.9694517 0.4319193 0.04500587 1.0148073
-0.564392 1.0144297 -0.27232283 1.9827306 -0.7201748 0.7247265 -1.7380668 2.5283458
-0.15881054 -0.9198314 -0.27613676 -0.84762955 -0.7190075 -1.1975805 0.1530597 2.3820493
0.070191726 0.16432229 -0.3903032 0.94488007 0.880043 0.21785934 -0.4082902 -0.7311518
-0.2037547 0.09572225 -0.19717532 -0.976631 -0.05493424 0.031314198 0.34307876 -0.35800177
1.8127553 -1.2910815 0.19146527 -0.51302284 0.858893 -0.9580912 -0.602446 -0.9542883
0.28598028 -0.6561016 1.3049886 0.41557786 -1.166916 -0.18944404 -0.9822822 0.10375382
0.72199374 -1.4829855 -0.5855369 -0.62944746 0.2997152 -0.5398747 0.32902429 0.73718005
0.08119144 1.0984991 0.4864645 0.2745814 0.1661807 -0.88220567 0.75313675 0.12020337
0.17023806 0.36198974 -0.005831693 -0.27134153 -0.13627647 -0.64193344 0.18212889 0.7835605
0.09744645 0.32233146 -0.9674649 0.3413995 -0.09477722 -0.3855847 0.36204708 0.42701593
-0.12947558 0.30744404 -0.20124826 0.23545791 -0.030533861 0.0052766274 -0.12092591 -0.7298226
-0.33905628 -0.08357204 0.7200745 0.10954455 -0.017807493 0.052550036 0.37564862 -0.16113728
0.79475987 -0.6940961 -0.14857008 0.46724015 -0.08246872 0.8223953 0.81133914 -0.44066375
-0.0351413 0.40461838 0.12213836 -0.48746318 0.13757381 0.1801567 0.3933565 0.32081464
00000000: d613 0440 4968 2d40 0f7f 903f 891a 0c40
00000010: a752 63bf cf49 0bc0 aa82 a83f 7772 12be
00000020: 94ba 0fc0 4507 11bf 77d5 00c0 125a 813f
00000030: b6a6 d13f ee55 59c0 23c1 f33f 7401 41bc
00000040: fc33 1440 8874 cfbf 674c abbf 649d fcbf
00000050: c59f 0840 d8b9 983f 7495 273f 3b50 59bf
00000060: abde abbe d9db 2dbf 4a4d d6bd 376d edbf
00000070: ed81 b4bf cbe8 c6bf 0d71 073f bd93 4cbf
00000080: 9baf 2d40 ab16 05bf 99c8 2140 7a9a 273f
00000090: 5fcd 443f d826 e6bf 5c31 1140 bc25 0ec0
000000a0: f62e 2b40 2359 d73f 3ce7 01c0 3888 89be
000000b0: 9efb 00bf 76ed a5bf 8d6b 23c0 1a08 00c0
000000c0: c441 ef3f 1df9 32bf 6b24 c73f 6c81 92bf
000000d0: 5a9c babf 45d1 1340 c9fa 1f3f 81db a83f
000000e0: d53a 083f 1982 2940 4687 b43f 7a59 e13e
000000f0: f6c8 8cbf 99bd e83f 5472 6e3f 4f23 25c0
00000100: 3119 79bf f2b5 823e a47c 4e40 3fdd 7c3f
00000110: 0fa0 5fbe 6b5e b53f 0fb9 673f 8a21 aa3f
00000120: 00da a93f b694 0440 b237 123f 2032 563e
00000130: 3d0e a3bf 9cd2 b83f 37b9 cb3f d472 e3be
00000140: 68d5 073e 21ac 7cbd 1b46 d3bf dacd 0fc0
00000150: 976d 8b3f 8a3c 0cc0 8ea6 9bbe 29d2 20bf
00000160: 27e4 22c0 1987 f9bf 20ec 86bf 9770 e0be
00000170: 776d 913f 3b14 67bf 716d c93e 21f9 b13e
00000180: 1c40 443f aaa4 89bf fa35 9dbf 5b54 973f
00000190: 10b5 413d e7ef 97be 1fd8 9fbf 6a53 1ebf
000001a0: d4b4 a43f 7aa8 3a3f 5b43 9c3e b0d0 e7bf
000001b0: 4f2d b6bf 812a 13c0 05f6 3f40 e844 4abe
000001c0: c49b 88bf 761a 59bf e0ce 443d f8d6 3540
000001d0: 7977 01bf 0d3c 9dbe d2a3 2040 dd8a a2bf
000001e0: 1fea c4bf 9400 27c0 3ffb fd3f d2a5 1ec0
000001f0: 6a5a ebbf bbee 5a3f 8310 debf 8962 d6bf
00000200: 8e7a c8be f6a4 883e e459 b2bd 8c6f e6be
00000210: 0757 da3d 3a07 3fc0 1523 3ebe 54ae 703e
00000220: c129 373d 0d8a cb3e c811 babe 352e 9abf
00000230: fd2d 783f 8724 dd3e 1358 383d 35e5 813f
00000240: fe7b 10bf d5d8 813f e66d 8bbe 1eca fd3f
00000250: 605d 38bf ad87 393f f978 debf 6bd0 2140
00000260: 3b9f 22be 127a 6bbf cc61 8dbe 40fe 58bf
00000270: e010 38bf 514a 99bf afbb 1c3e 7f73 1840
00000280: aec0 8f3d 1a44 283e d2d5 c7be a9e3 713f
00000290: 804a 613f 8516 5f3e 6a0b d1be c42c 3bbf
000002a0: 12a5 50be 070a c43d 54e8 49be 7d04 7abf
000002b0: ba02 61bd 5143 003d 05a8 af3e 024c b7be
000002c0: 5e08 e83f 2942 a5bf 790f 443e 7755 03bf
000002d0: 69e0 5b3f 7745 75bf e739 1abf 3d4c 74bf
000002e0: 026c 923e 46f6 27bf de09 a73f 9fc6 d43e
000002f0: 815d 95bf 9efd 41be d976 7bbf e27c d43d
00000300: 95d4 383f 78d2 bdbf bfe5 15bf 7823 21bf
00000310: 4574 993e 3a35 0abf df75 a83e d5b7 3c3f
00000320: b347 a63d 9e9b 8c3f e011 f93e ef95 8c3e
00000330: 462b 2a3e 3bd8 61bf 92cd 403f 2f2d f63d
00000340: e352 2e3e b856 b93e c917 bfbb 47ed 8abe
00000350: 0f8c 0bbe c055 24bf ff7f 3a3e 6c97 483f
00000360: 0192 c73d a108 a53e c8ab 77bf eacb ae3e
00000370: 8f1a c2bd 5c6b c5be 3c5e b93e d5a1 da3e
00000380: 3f95 04be 4e69 9d3e 0614 4ebe e11b 713e
00000390: 2622 fabc 8fe7 ac3b 01a8 f7bd a7d5 3abf
000003a0: c998 adbe d127 abbd cd56 383f e558 e03d
000003b0: 05e1 91bc b53e 573d 0455 c03e 2c01 25be
000003c0: 6275 4b3f 48b0 31bf c122 18be 1a3a ef3e
000003d0: 5ce5 a8bd 8088 523f ecb3 4f3f ae9e e1be
000003e0: 53f0 0fbd 242a cf3e ad23 fa3d c694 f9be
000003f0: 26e0 0c3e ff7a 383e 0666 c93e d141 a43e

actor.4.bias f4 [7]
2.0718908 0.5160153 -0.32265192 -0.25595474 -0.53437674 -1.1108116 0.90363073
00000000: dc99 0440 9419 043f a232 a5be 800c 83be
00000010: eacc 08bf 132f 8ebf 5854 673f

critic.0.weight f4 [64, 20]
0.9268648 -1.8455429 0.3124753 -0.3617051 0.31259814 0.23727062 2.0719357 1.8227719
0.6516901 0.0756274 -0.03272653 -0.27483952 1.3530619 0.7037612 -1.5555673 -1.520775
0.5883013 0.94457954 -0.079866014 -0.6300318 1.5911658 0.97119576 2.0538032 -0.20481294
0.6745817 1.1912392 -2.080807 -0.97149193 -1.2215947 -0.1624232 -0.062639154 -0.002581285
-3.1382637 -2.705074 -1.0369241 -0.7292167 -2.0151749 -1.9013801 0.13846631 0.16166334
-2.232445 -0.880002 -1.0111613 -0.011993352 -0.0133038405 -0.6159697 -3.2707183 -3.0197446
-3.4096773 0.47089309 0.113746315 0.18202841 0.69054073 3.487705 -0.9512823 -0.37624162
-0.39030987 -0.5696438 -0.13900569 0.056386504 0.39780638 0.29618233 -0.9195229 0.6685603
0.017266694 -0.028441966 -3.8366425 -3.8121789 -3.6351204 -0.36869028 0.038087267 0.3582405
-0.28577867 -3.5941625 1.7052374 0.5998386 -0.02409842 -0.27255264 0.5935913 -0.5747336
1.9658847 -0.39382946 -0.31668538 -0.56798714 0.1195419 0.6062031 -1.6558787 -2.4429595
-2.1372917 -1.1175127 -0.38056618 0.2347406 0.2775458 -2.9756098 -1.2464641 -1.0153228
-1.3506418 -2.3353417 0.09243439 -0.34652764 -0.8670464 -0.7722747 -0.34313273 -2.2309792
-2.713979 -2.2513213 0.6183164 0.09376281 0.2124951 -0.060708627 -0.10708865 0.0008315524
-1.9869981 -0.4897808 0.63334304 0.6129138 0.475817 0.91196 -0.23721953 0.46592975
2.0443482 -0.53202605 -0.80208516 -0.13118853 0.25573793 -0.30346423 1.0435452 2.4405596
3.9845521 -0.31280375 -0.109608546 -0.03864238 0.19395222 1.8070611 -1.35031 0.026226599
0.3059445 -0.76799953 0.21233995 0.06489328 -0.40421662 -1.3977137 0.15588419 -0.5656763
-0.25513294 0.30136323 -5.101173 -3.3550427 -2.0372977 -0.6931304 -0.061855406 0.30711514
0.50772333 -0.57389903 -1.9539438 1.8715614 -0.15848571 -0.9746764 0.06038107 -0.14447038
1.1605798 -0.4414249 -0.4911639 1.3993644 1.2694073 0.6724651 -2.2773123 -3.3737772
-3.6393712 -0.6219357 -0.4945482 -0.49274406 -0.31172672 -4.0667276 1.0665109 1.3311148
1.0267841 0.7238565 0.34481677 0.15127377 0.5443373 -1.6562825 -1.1496216 1.2348664
0.9990534 0.77852774 1.7154793 1.7357783 1.6802679 0.31274888 -0.21344581 -0.2558799
-0.7321121 -1.7544647 -0.5535733 -1.2899896 0.079014815 -0.11870681 -1.2133498 -0.2930179
0.27510914 -0.4044597 -1.0972322 -0.089163594 0.39423186 -0.5751244 2.774339 3.0577612
3.400746 0.4664146 1.0188372 0.964945 -2.8774385 -0.3121564 1.7002065 -0.015963215
0.85085076 -0.1233998 0.17921375 0.4517673 -0.023736455 -0.18501927 0.23008525 -1.2980337
-0.9920439 -1.3871267 3.2897236 2.1258914 1.801457 0.084385626 -0.17202748 0.024417879
0.07214883 -0.70079046 -1.3797028 -1.3104497 0.4452243 -2.7710018 0.21492417 -0.44486076
-0.89256024 -0.49989593 -0.7587056 -0.013067758 -0.061050635 -0.5835824 -3.8471463 -3.124647
-1.9340917 -0.93009263 -0.5902551 -0.73266655 -0.8658918 -0.78396773 -0.40969014 -0.5895367
00000000: 0347 6d3f c03a ecbf c3fc 9f3e 6931 b9be
00000010: dd0c a03e 12f7 723e 989a 0440 9750 e93f
00000020: 2ad5 263f 8ae2 9a3d 410c 06bd c4b7 8cbe
00000030: 2231 ad3f b229 343f d41c c7bf c1a8 c2bf
00000040: ea9a 163f f7cf 713f cb90 a3bd c449 21bf
00000050: 52ab cb3f 49a0 783f 8371 0340 7cba 51be
00000060: 63b1 2c3f 877a 983f f12b 05c0 b2b3 78bf
00000070: 375d 9cbf 4452 26be f548 80bd c72a 29bb
00000080: 50d9 48c0 ef1f 2dc0 eeb9 84bf f2ad 3abf
00000090: a0f8 00c0 6c60 f3bf 1dca 0d3e 138b 253e
000000a0: 61e0 0ec0 d047 61bf bc6d 81bf c47f 44bc
000000b0: 5af8 59bc 31b0 1dbf 7353 51c0 7f43 41c0
000000c0: 2738 5ac0 e618 f13e d4f3 e83d a865 3a3e
000000d0: 47c7 303f 8f36 5f40 3d87 73bf bea2 c0be
000000e0: b2d6 c7be 2dd4 11bf 8257 0ebe 89f5 663d
000000f0: 47ad cb3e 36a5 973e da65 6bbf c526 2b3f
00000100: e272 8d3c 20ff e8bc 8d8b 75c0 bdfa 73c0
00000110: d0a5 68c0 f9c4 bcbe 6501 1c3d 4c6b b73e
00000120: 9551 92be c206 66c0 3845 da3f 068f 193f
00000130: 0d6a c5bc 058c 8bbe 99f5 173f be21 13bf
00000140: 1ca2 fb3f 04a4 c9be 9624 a2be 9b67 11bf
00000150: 62d2 f43d 2030 1b3f d5f3 d3bf 7359 1cc0
00000160: 63c9 08c0 a80a 8fbf 92d9 c2be d75f 703e
00000170: 7c1a 8e3e 6470 3ec0 238c 9fbf 19f6 81bf
00000180: d5e1 acbf 3d76 15c0 3e4e bd3d 126c b1be
00000190: c1f6 5dbf cbb3 45bf 18af afbe 5dc8 0ec0
000001a0: d5b1 2dc0 a615 10c0 fc49 1e3f b706 c03d
000001b0: 5198 593e 9ca9 78bd 4b51 dbbd 89fc 593a
000001c0: f455 febf 8dc4 fabe c522 223f ebe7 1c3f
000001d0: 499e f33e 3676 693f ade9 72be 588e ee3e
000001e0: 9ad6 0240 dc32 08bf 7455 4dbf 4956 06be
000001f0: 15f0 823e aa5f 9bbe e492 853f 2132 1c40
00000200: e702 7f40 d027 a0be 727a e0bd 7947 1ebd
00000210: 699b 463e c74d e73f f5d6 acbf 2ad9 d63c
00000220: c2a4 9c3e 9e9b 44bf a56f 593e c5e6 843d
00000230: 7bf5 cebe 48e8 b2bf 1ba0 1f3e 29d0 10bf
00000240: c9a0 82be 484c 9a3e cf3c a3c0 05b9 56c0
00000250: 1663 02c0 fe70 31bf 185c 7dbd 323e 9d3e
00000260: 28fa 013f 0ceb 12bf d51a fabf 538f ef3f
00000270: 144a 22be 6484 79bf 2452 773d 0bf0 13be
00000280: e18d 943f 7202 e2be d679 fbbe 5f1e b33f
00000290: f07b a23f ac26 2c3f 7cbf 11c0 f7eb 57c0
000002a0: 75eb 68c0 2e37 1fbf 6c35 fdbe f348 fcbe
000002b0: a59a 9fbe a222 82c0 6e83 883f f861 aa3f
000002c0: a96d 833f a94e 393f d38b b03e 83e7 1a3e
000002d0: b059 0b3f 1101 d4bf cd26 93bf 1a10 9e3f
000002e0: f7c1 7f3f 984d 473f d394 db3f fc2d de3f
000002f0: 0513 d73f 9f20 a03e 8a91 5abe b102 83be
00000300: b36b 3bbf 4d92 e0bf fbb6 0dbf 611e a5bf
00000310: 85d2 a13d 8e1c f3bd 0c4f 9bbf 7106 96be
00000320: 1bdb 8c3e 5815 cfbe 1b72 8cbf 679b b6bd
00000330: c2d8 c93e 5a3b 13bf c58e 3140 5cb2 4340
00000340: d3a5 5940 e5cd ee3e 4269 823f a306 773f
00000350: f427 38c0 f7d2 9fbe 5ea0 d93f 4ac5 82bc
00000360: 5bd1 593f 09b9 fcbd cf83 373e 0b4e e73e
00000370: f472 c2bc b175 3dbe 789b 6b3e f825 a6bf
00000380: 97f6 7dbf 5e8d b1bf d58a 5240 9b0e 0840
00000390: 2596 e63f 5fd2 ac3d f927 30be 0108 c83c
000003a0: c4c2 933d 0167 33bf 1a9a b0bf d1bc a7bf
000003b0: 70f4 e33e 1858 31c0 1515 5c3e cac4 e3be
000003c0: d47e 64bf 5cf2 ffbe 883a 42bf 261a 56bc
000003d0: 3b10 7abd a865 15bf a537 76c0 37fa 47c0
000003e0: 5190 f7bf 8d1a 6ebf f51a 17bf 0990 3bbf
000003f0: 16ab 5dbf 1cb2 48bf e8c2 d1be e1eb 16bf

critic.0.bias f4 [64]
-0.13159114 -0.06417973 0.40477678 0.9068604 0.10930729 -0.6436206 -0.7816721 0.153162
0.28003922 -0.61445427 0.16360469 -0.26857236 -1.0249543 -0.16518825 0.85880667 -0.82582444
-0.25963885 0.59457946 -0.85921854 -0.527969 0.06930966 0.015880805 -0.50205034 0.17126504
-0.32036766 1.1737223 0.989277 0.32995898 -0.47190925 -0.13625562 1.0566732 0.28307283
0.36948562 -0.19553393 0.29464972 1.0555254 -0.42403793 0.07955122 -0.08717175 -1.010626
0.98751163 -0.45631436 -0.33804905 0.94003016 0.6295791 -0.3952068 -0.85897994 0.3022289
0.31445903 -0.3423342 -0.08532617 0.5001578 0.532248 0.37944835 -0.41725722 0.8740595
1.0658919 -0.07954633 0.34994617 1.3473299 -0.40225965 0.573487 -0.9815694 -0.45559773
00000000: d4bf 06be aa70 83bd e73e cf3e 0128 683f
00000010: 80dc df3d 52c4 24bf aa1b 48bf 80d6 1c3e
00000020: 4d61 8f3e e04c 1dbf fd87 273e 5182 89be
00000030: b431 83bf 1c27 29be c1da 5b3f 3b69 53bf
00000040: 62ef 84be 5c36 183f bff5 5bbf fa28 07bf
00000050: 39f2 8d3d 7618 823c 5f86 00bf 1a60 2f3e
00000060: 3b07 a4be 883c 963f 4241 7d3f 62f0 a83e
00000070: 179e f1be 9886 0bbe 1141 873f ecee 903e
00000080: 382d bd3e 0c3a 48be 54dc 963e 751b 873f
00000090: 801b d9be c0eb a23d 1a87 b2bd 315c 81bf
000000a0: 90cd 7c3f 09a2 e9be c414 adbe d1a5 703f
000000b0: 192c 213f 8c58 cabe 1ce6 5bbf bfbd 9a3e
000000c0: c600 a13e 6e46 afbe 7dbf aebd 570a 003f
000000d0: 6841 083f 0e47 c23e bda2 d5be 5dc2 5f3f
000000e0: 256f 883f 30e9 a2bd 252c b33e 4e75 ac3f
000000f0: faf4 cdbe 0bd0 123f 2248 7bbf 1b44 e9be

critic.2.weight f4 [64, 64]
0.21874112 0.6786047 -0.17862041 -0.7250668 -2.126091 0.15460815 1.1640514 -0.6859917
-1.2161169 -0.76794606 1.0679992 0.7457825 -0.49252915 0.3055333 0.8616293 -1.6068245
0.6719541 -1.5854986 -0.57048947 0.010698195 0.8570984 0.006234818 0.7119418 -0.10920651
0.9432481 0.7743714 -0.03410576 0.4835297 0.41518342 -0.33867463 1.5894074 -0.5656986
-0.09740013 0.09772347 -2.2840896 1.7246345 0.7497818 0.8045572 0.2887836 -0.31426114
0.75202715 -0.0780494 0.7897699 0.72187084 1.3230485 -0.082811736 -0.98161876 -1.0902059
0.84098977 0.40094084 0.21455443 -0.10432115 0.20223352 -1.5732756 0.27644742 2.0374002
-0.23299432 -0.19916028 -0.39202338 -1.2007976 0.052720707 -0.1671073 -0.41297942 -1.1286005
-0.4722744 0.83014184 -1.8013378 -0.21493818 0.3819617 -1.0006797 0.4158281 0.31935927
0.540841 0.6424944 0.57918286 0.7352159 -0.6310376 0.26715577 -0.6917977 -1.1187713
-0.24157204 0.13850486 -0.3185724 -0.027740339 0.77670807 -1.3490511 0.54457176 -0.24601164
0.30313322 -0.34858832 0.8405423 -0.37957698 0.110232905 0.23689373 0.15260273 0.21743557
0.20501044 -1.8349528 0.23655386 -0.4063948 0.30603248 -0.316318 -1.1229364 0.56383204
-0.35711917 -0.3626863 0.24291164 0.065928824 0.37270454 0.5040374 1.2415688 -0.86098754
0.7885382 -0.2804656 -1.7874594 -0.34939566 -1.5302525 0.42863107 -0.40660828 0.1773572
0.43360567 -0.030194232 0.53159004 -0.84222466 -1.0381199 1.4884288 0.004115349 -0.8209642
1.8034643 0.10685686 0.50007206 -0.04154783 0.7365973 0.27604565 0.20119242 -0.83843064
-0.89233166 -0.3848904 -0.38969642 -1.7955306 0.6314612 -2.2148845 0.86450994 -0.6415116
1.322651 1.4866102 0.5088474 -0.129026 -0.19957003 -0.34328443 -0.15449975 0.17154884
-0.3010791 -0.549399 2.1144087 -0.53946143 -0.8271468 0.47204566 0.05097647 -0.2692212
-0.39155477 -0.08066617 1.4292248 -0.05586548 0.21104091 -0.672971 1.1760645 0.19903684
0.14299715 0.35844615 0.49852547 -0.5897429 1.1126277 0.3513238 -0.22715825 0.16097812
-1.2958583 0.6086128 -0.38012865 0.5331381 -0.52409977 0.20383984 0.6442799 -0.57953745
-1.782455 -1.8694627 0.178732 -0.3524988 -0.32384267 0.71815103 -2.052753 0.6980728
-0.025321124 0.7445073 -0.65583795 -0.056862183 1.0054464 -0.28309175 -0.27948496 -1.1051512
0.6808353 -0.68825394 0.50520283 0.38745257 0.61775863 1.7426704 -0.21741603 2.1801894
-0.36100346 0.4889071 0.41528222 1.2660271 -0.59780437 -1.4984976 1.367527 -1.7032771
-0.45568174 -1.1232665 -0.7797841 0.4883979 0.3040886 -1.0621502 1.2285604 -0.37441865
-1.104442 -0.123504974 0.25084803 -0.34641552 0.5165009 -0.4276172 -1.5409993 0.4234635
-1.174794 -0.7276248 1.0135977 0.35756877 -0.09245382 0.75944924 -0.10358983 -0.7759185
0.6655151 -1.0407246 -0.45903367 -0.33979252 -0.93090266 -1.0587053 -0.43080202 0.23586501
-0.21907371 -0.5902269 -0.4383247 -1.364629 -0.0038365067 -2.0195436 0.5821486 -1.047012
00000000: acfd 5f3e 0ab9 2d3f 45e8 36be fa9d 39bf
00000010: e011 08c0 9951 1e3e a3ff 943f 279d 2fbf
00000020: b8a9 9bbf 1d98 44bf 33b4 883f 9aeb 3e3f
00000030: c82c fcbe dc6e 9c3e bd93 5c3f 6dac cdbf
00000040: 2f05 2c3f 9ef1 cabf 990b 12bf 7b47 2f3c
00000050: cd6a 5b3f 724d cc3b d141 363f aaa7 dfbd
00000060: b578 713f 343d 463f 7bb2 0bbd 3491 f73e
00000070: ec92 d43e c366 adbe b471 cb3f a0d1 10bf
00000080: b879 c7bd 3e23 c83d 862e 12c0 d3c0 dc3f
00000090: b3f1 3f3f 76f7 4d3f 72db 933e d6e6 a0be
000000a0: da84 403f 5dd8 9fbd 5c2e 4a3f 87cc 383f
000000b0: a759 a93f 3399 a9bd 5e4b 7bbf de8b 8bbf
000000c0: 1b4b 573f 1e48 cd3e 28b4 5b3e 54a6 d5bd
000000d0: 4e16 4f3e 1861 c9bf 848a 8d3e c464 0240
000000e0: 1096 6ebe acf0 4bbe 4ab7 c8be bcb3 99bf
000000f0: abf1 573d 2d1e 2bbe 0a72 d3be fb75 90bf
00000100: f3cd f1be 2d84 543f 3d92 e6bf c118 5cbe
00000110: 7c90 c33e 4616 80bf 6ce7 d43e 0f83 a33e
00000120: 8e74 0a3f 837a 243f 5445 143f 1c37 3c3f
00000130: ae8b 21bf a4c8 883e a719 31bf e633 8fbf
00000140: a95e 77be 38d4 0d3e ec1b a3be b53f e3bc
00000150: 57d6 463f b5ad acbf 0e69 0b3f 7aea 7bbe
00000160: 4734 9b3e 2b7a b2be c82d 573f ea57 c2be
00000170: cac1 e13d 4594 723e e443 1c3e 6ea7 5e3e
00000180: 42ee 513e bcdf eabf 2d3b 723e fb12 d0be
00000190: 4ab0 9c3e 6ff4 a1be 61bc 8fbf 4c57 103f
000001a0: 53d8 b6be 05b2 b9be d4bd 783e b105 873d
000001b0: 21d3 be3e 9808 013f baeb 9e3f ae69 5cbf
000001c0: a4dd 493f 3099 8fbe 78cb e4bf fde3 b2be
000001d0: 50df c3bf 8875 db3e f62e d0be 209d 353e
000001e0: 9001 de3e e559 f7bc 4916 083f 099c 57bf
000001f0: 1de1 84bf d684 be3f 0dda 863b b62a 52bf
00000200: ebd7 e63f c5d7 da3d b904 003f 0f2e 2abd
00000210: a491 3c3f db55 8d3e 6305 4e3e 64a3 56bf
00000220: d96f 64bf 5b10 c5be 4a86 c7be f2d3 e5bf
00000230: 71a7 213f abc0 0dc0 8650 5d3f 1b3a 24bf
00000240: a14c a93f 3e49 be3f d343 023f 641f 04be
00000250: 165c 4cbe fac2 afbe 2f35 1ebe 80aa 2f3e
00000260: 0a27 9abe 6aa5 0cbf 7952 0740 251a 0abf
00000270: e5bf 53bf f8af f13e b4cc 503d 5cd7 89be
00000280: de79 c8be 4e34 a5bd d7f0 b63f 34d3 64bd
00000290: 1c1b 583e d447 2cbf 4889 963f 50d0 4b3e
000002a0: d86d 123e 4186 b73e bb3e ff3e 64f9 16bf
000002b0: 966a 8e3f b7e0 b33e 2c9c 68be 73d7 243e
000002c0: afde a5bf 0cce 1b3f 39a0 c2be bd7b 083f
000002d0: 672b 06bf 64bb 503e 87ef 243f 915c 14bf
000002e0: 7c27 e4bf 8e4a efbf 8505 373e b97a b4be
000002f0: b5ce a5be bfd8 373f 4e60 03c0 e6b4 323f
00000300: 3f6e cfbc 0898 3e3f ffe4 27bf 52e8 68bd
00000310: 78b2 803f 67f1 90be a718 8fbe 9875 8dbf
00000320: 394b 2e3f 6931 30bf f954 013f 2f60 c63e
00000330: 6e25 1e3f d30f df3f 4fa2 5ebe 3988 0b40
00000340: 72d5 b8be 0852 fa3e df9f d43e 2d0d a23f
00000350: b509 19bf c5ce bfbf 200b af3f fc04 dabf
00000360: 1e4f e9be 32c7 8fbf ee9f 47bf 4a0f fa3e
00000370: 80b1 9b3e 8af4 87bf 7841 9d3f cdb3 bfbe
00000380: 5b5e 8dbf 2df0 fcbd 276f 803e 605d b1be
00000390: 6739 043f a4f0 dabe 773f c5bf 35d0 d83e
000003a0: a65f 96bf 9e45 3abf 92bd 813f 4113 b73e
000003b0: 6e58 bdbd 446b 423f e826 d4bd 98a2 46bf
000003c0: 335f 2a3f 7736 85bf 7606 ebbe 49f9 adbe
000003d0: a34f 6ebf a883 87bf 1592 dcbe 9986 713e
000003e0: dc54 60be 1c19 17bf 186c e0be 2aac aebf
000003f0: e76d 7bbb 3440 01c0 b107 153f 7d04 86bf

critic.2.bias f4 [64]
-0.25186527 -0.13686444 0.1816334 0.05801661 0.43126658 -0.39863035 -0.001529558 -0.31790158
-0.28866655 0.01775303 -1.4206011 0.16597268 0.6633706 0.2048848 0.27328467 -0.19322746
-0.43675736 0.6181982 -0.47903082 0.19766498 -0.28831416 0.25001842 -0.018523129 -1.0826066
-0.13501419 0.23060666 0.12555514 0.073033854 0.44605073 -0.15344112 -0.70384747 -0.8846934
1.0475839 -0.40508568 0.28050092 0.63328147 0.21032971 -0.17086934 -1.1768227 -0.6433637
0.66510785 -1.7538632 0.7306324 -1.3986835 0.35098198 -0.78172773 0.12850024 -0.9988283
0.59281904 -0.30139592 -0.43244871 -0.33513603 -0.15873127 -0.30680498 0.9162373 -0.14356022
-0.4794342 -0.38703012 0.7884266 -0.14269815 0.2840298 -0.6550941 -0.35567376 -0.30751237
00000000: 7cf4 80be 3126 0cbe 1bfe 393e d3a2 6d3d
00000010: f9ce dc3e 4719 ccbe 737b c8ba ffc3 a2be
00000020: 1acc 93be cd6e 913c 42d6 b5bf bef4 293e
00000030: a8d2 293f 52cd 513e f8eb 8b3e 6bdd 45be
00000040: a99e dfbe 3d42 1e3f 8743 f5be b068 4a3e
00000050: ea9d 93be 6a02 803e d1bd 97bc da92 8abf
00000060: 2941 0abe 2724 6c3e 8791 003e c692 953d
00000070: c360 e43e ab1f 1dbe 592f 34bf 447b 62bf
00000080: 3b17 863f 6467 cfbe d19d 8f3e bc1e 223f
00000090: ac60 573e 5ff8 2ebe 20a2 96bf 7cb3 24bf
000000a0: 8244 2a3f 977e e0bf ba0a 3b3f 1008 b3bf
000000b0: e9b3 b33e 4f1f 48bf 9195 033e 36b3 7fbf
000000c0: fdc2 173f 9150 9abe eb69 ddbe f396 abbe
000000d0: 738a 22be 8b15 9dbe 878e 6a3f 7301 13be
000000e0: 6678 f5be d028 c6be 53d6 493f 771f 12be
000000f0: 5b6c 913e 3fb4 27bf df1a b6be 4372 9dbe

critic.4.weight f4 [1, 64]
-0.24099001 0.33851445 -0.2525553 0.32215363 -0.26009476 -0.2680343 0.21711452 -0.26646176
-0.27721938 0.257444 -0.31572214 -0.291348 0.21575826 0.36951718 0.32595655 -0.35030437
-0.39317608 0.25388083 0.3163016 -0.33370876 0.25185046 -0.33598718 -0.27611604 0.3568038
0.30366293 -0.34100327 0.26553527 -0.22327338 -0.25566882 0.32242113 0.32487917 -0.23079121
0.25469565 -0.32686222 0.25979358 0.33231258 0.22399633 -0.25951406 -0.15959673 0.2811256
0.199634 -0.2821523 -0.29527828 -0.35461184 0.23477097 -0.27799225 0.30795327 -0.3393011
-0.28307912 -0.28029308 -0.36154374 -0.25745416 0.27949122 -0.34914818 0.28865314 0.29228884
-0.31710374 0.31888065 -0.31501395 -0.2807295 0.22141978 -0.28570572 -0.18060741 -0.23425908
00000000: 16c6 76be c451 ad3e ee4e 81be 52f1 a43e
00000010: 242b 85be cb3b 89be 4553 5e3e ad6d 88be
00000020: b3ef 8dbe b3cf 833e 55a6 a1be 912b 95be
00000030: bcef 5c3e 5b31 bd3e c7e3 a63e 185b b3be
00000040: 604e c9be abfc 813e 49f2 a13e e0db aabe
00000050: 8bf2 803e 8306 acbe 155f 8dbe fdae b63e
00000060: b579 9b3e fb97 aebe 3df4 873e c7a1 64be
00000070: 06e7 82be 6214 a53e 9056 a63e 8854 6cbe
00000080: 7867 823e 7c5a a7be aa03 853e e024 aa3e
00000090: 4b5f 653e 07df 84be 536d 23be b2ef 8f3e
000000a0: db6c 4c3e 4476 90be b72e 97be af8f b5be
000000b0: cd67 703e 0055 8ebe 0dac 9d3e e0b8 adbe
000000c0: bfef 90be 9382 8fbe 431c b9be 08d1 83be
000000d0: 7919 8f3e 8dc3 b2be 58ca 933e e2a6 953e
000000e0: 6c5b a2be 5344 a33e 8249 a1be c7bb 8fbe
000000f0: debb 623e 0548 92be 26f1 38be 9de1 6fbe
