Model Results/ppo_sentiment_AMC2019-12-011999.pth (torch, 50577 bytes, 11 tensors)

actor.0.weight f4 [64, 20]
1.4910411 0.30779612 0.94666123 -0.3713167 -1.2010114 -1.0316048 -3.8697522 -2.8714263
-3.2306209 -0.46341926 -0.2939906 0.03111045 -1.4565614 -0.36785877 -0.549788 -0.27370963
0.25248006 0.08018687 0.17955422 0.35059807 0.57403785 0.38321838 -0.1045052 -1.9025466
-2.0718374 -1.8398461 0.22695951 0.10922959 0.27881336 -0.94589245 -0.6669612 -0.7435894
0.6071826 -1.065154 0.09847604 -0.997994 0.4349883 0.66913676 -1.0233016 -0.12895401
0.427047 0.4459207 1.4239175 0.7912699 0.82616943 0.6045354 -0.38285685 -0.44283137
-0.97161245 -0.25230378 -0.030157965 -0.33792537 0.46921438 0.59151 -1.2012572 -1.2879419
-0.78422177 -0.51919496 -0.048952546 -0.051328227 -1.2416985 -1.1743548 -1.5223444 -0.68015367
-0.657602 -0.8322011 1.0879912 0.9481373 1.3103199 -0.11246937 0.2459879 0.42816278
-0.7144762 -1.1522475 1.2389737 0.79512864 1.3694744 1.2765887 -0.07810829 -0.11840946
-0.10154488 1.1222872 0.3187516 -0.46127263 -0.95370305 -0.8961424 -0.026509432 -2.448212
-4.3277817 0.79564416 0.4079964 0.3496023 -0.76907176 -0.27367103 -0.2055822 -0.97806025
-0.2942614 -0.3020832 0.8079249 0.5093474 0.115442224 0.18537189 -0.1624089 0.450646
-0.17734517 -0.40818292 -4.293624 -4.071387 -4.1677446 -0.378832 -0.090013124 -0.11295271
-1.196303 1.1705307 0.7156371 0.60775477 -0.20479354 -0.2550607 0.06413467 -0.7033813
0.36283058 0.41059896 0.27527237 0.30501294 0.037809853 0.06179798 -1.8371066 -1.4609294
-1.4823123 0.011382934 0.32383636 0.14871559 -1.901074 -0.66655415 1.2755361 -0.7148889
0.107754804 0.92810386 0.09001166 -0.350622 -0.6664604 -2.4268506 -1.9803641 0.5730514
0.019145854 -0.12214159 -1.021875 -0.03770223 -0.026194053 -0.0014936334 0.06687944 -0.046249777
0.66368663 1.4551905 0.593142 -0.21175873 0.40347484 0.018460676 0.10056565 -0.1665975
-0.5935395 -0.076524794 -1.1538864 -0.452641 -0.38292295 -0.5080886 -3.4061062 -2.8433452
-2.420629 -0.06305958 -0.0506267 0.3140139 -1.3560563 -0.09620235 -0.07827545 0.27948087
-0.79951274 -1.0604719 0.2326111 -0.12413334 1.15731 1.8090305 2.046119 0.32211512
0.48184228 0.28986266 0.9675116 0.27915436 -0.2854421 -0.38375744 -0.28966954 -0.3166686
-0.36175644 -0.4593805 -1.5333146 -0.46082363 0.041550104 -0.47432196 -0.24474213 -0.391999
-0.66091144 -0.5015698 -0.24189599 -0.401609 -0.3185545 -0.5650553 4.4956756 4.3081393
4.0989122 0.3122256 0.0462728 -0.22741337 1.705368 0.18764296 -0.85543996 0.32015187
-0.4224287 -0.59507954 0.16623837 -0.060939603 -0.44821247 0.1776215 -0.7331611 0.39364663
0.11627238 0.33957005 2.4294522 3.0923142 3.63112 0.6087996 0.65961486 0.63912445
0.52839893 -0.5899721 0.3134288 0.54239434 0.2838734 -0.34260198 0.26278725 0.09075501
0.37407565 -0.1346497 0.14431046 -0.5385535 0.08687789 0.08799323 2.9929984 2.3807893
1.802145 0.020540357 -0.09926566 -0.4214353 2.3328989 0.984137 -1.140719 0.4958745
00000000: 6fda be3f 7497 9d3e 6458 723f 391d bebe
00000010: beba 99bf a00b 84bf 05aa 77c0 73c5 37c0
00000020: 7ec2 4ec0 4a45 edbe f085 96be 58db fe3c
00000030: 9b70 babf fc57 bcbe e8be 0cbf ab23 8cbe
00000040: 1145 813e 0439 a43d 10dd 373e 9781 b33e
00000050: 25f4 123f 3335 c43e d306 d6bd a686 f3bf
00000060: fc98 04c0 1480 ebbf 1368 683e c3b3 df3d
00000070: a0c0 8e3e 0226 72bf f8bd 2abf e05b 3ebf
00000080: 5270 1b3f f756 88bf cead c93d 897c 7fbf
00000090: c9b6 de3e 8c4c 2b3f 8cfb 82bf 850c 04be
000000a0: e8a5 da3e b84f e43e ee42 b63f aa90 4a3f
000000b0: d77f 533f d5c2 1a3f d005 c4be cbba e2be
000000c0: 98bb 78bf f62d 81be d60d f7bc 8e04 adbe
000000d0: de3c f03e 336d 173f ccc2 99bf 48db a4bf
000000e0: c2c2 48bf f6e9 04bf 7782 48bd 8c3d 52bd
000000f0: faef 9ebf 4251 96bf 2edc c2bf 8d1e 2ebf
00000100: 9b58 28bf 220b 55bf 4c43 8b3f 20b9 723f
00000110: 90b8 a73f 5756 e6bd 41e4 7b3e 2738 db3e
00000120: eae7 36bf d97c 93bf b196 9e3f 8d8d 4b3f
00000130: f04a af3f 4267 a33f 3df7 9fbd a980 f2bd
00000140: c3f6 cfbd 1ba7 8f3f 6933 a33e ed2b ecbe
00000150: e225 74bf 9769 65bf 4f2a d9bc 81af 1cc0
00000160: 307d 8ac0 56af 4b3f e7e4 d03e 13ff b23e
00000170: e3e1 44bf 9c1e 8cbe 2484 52be 2862 7abf
00000180: 6ea9 96be a6aa 9abe 2bd4 4e3f 9764 023f
00000190: f96c ec3d 21d2 3d3e 854e 26be 13bb e63e
000001a0: f999 35be 5afd d0be 5e65 89c0 cd48 82c0
000001b0: 2a5e 85c0 45f6 c1be cd58 b8bd c053 e7bd
000001c0: 7520 99bf f3d3 953f fe33 373f d195 1b3f
000001d0: 66b5 51be 5197 82be 0a59 833d cc10 34bf
000001e0: eec4 b93e 073a d23e 80f0 8c3e a82a 9c3e
000001f0: 81de 1a3d e11f 7d3d 4f26 ebbf bcff babf
00000200: 69bc bdbf 7c7f 3a3c e1cd a53e e648 183e
00000210: 6556 f3bf 4ba3 2abf c444 a33f f502 37bf
00000220: 8dae dc3d 3798 6d3f 0858 b83d ba84 b3be
00000230: 269d 2abf 8551 1bc0 927c fdbf 7fb3 123f
00000240: c4d7 9c3c 5f25 fabd cdcc 82bf a76d 1abd
00000250: e994 d6bc 05c6 c3ba 16f8 883d 6870 3dbd
00000260: 5ee7 293f af43 ba3f 27d8 173f 48d7 58be
00000270: 4194 ce3e d83a 973c 5df5 cd3d 8998 2abe
00000280: 34f2 17bf 08b9 9cbd 8db2 93bf 90c0 e7be
00000290: 7a0e c4be 1812 02bf a5fd 59c0 5ef9 35c0
000002a0: 96eb 1ac0 6225 81bd f15d 4fbd 6ec6 a03e
000002b0: 4193 adbf bd05 c5bd e14e a0bd 1e18 8f3e
000002c0: deac 4cbf 8bbd 87bf 9b31 6e3e 9f39 febd
000002d0: bc22 943f 508e e73f 9df3 0240 46ec a43e
000002e0: 08b4 f63e e168 943e d7ae 773f 52ed 8e3e
000002f0: 7825 92be db7b c4be 914f 94be 6322 a2be
00000300: 2438 b9be ec33 ebbe a743 c4bf 13f1 ebbe
00000310: 7130 2a3d 54da f2be ae9d 7abe 18b4 c8be
00000320: 7e31 29bf e166 00bf 95b3 77be b29f cdbe
00000330: 9319 a3be 77a7 10bf 93dc 8f40 47dc 8940
00000340: 4a2a 8340 09dc 9f3e 8c88 3d3d 0ddf 68be
00000350: 8049 da3f 7a25 403e 1dfe 5abf f2ea a33e
00000360: 9348 d8be 2257 18bf 643a 2a3e ce9b 79bd
00000370: 1b7c e5be 69e2 353e 72b0 3bbf 0d8c c93e
00000380: 3720 ee3d 20dc ad3e 257c 1b40 7ae8 4540
00000390: 4564 6840 4ada 1b3f 85dc 283f a99d 233f
000003a0: 2745 073f 6908 17bf bd79 a03e 5bda 0a3f
000003b0: db57 913e 8769 afbe 0d8c 863e c3dd b93d
000003c0: d886 bf3e 9ce1 09be 1fc6 133e a4de 09bf
000003d0: 09ed b13d cb35 b43d 498d 3f40 da5e 1840
000003e0: b0ac e63f 4044 a83c cb4b cbbd 5ec6 d7be
000003f0: 374e 1540 67f0 7b3f 1503 92bf 43e3 fd3e

actor.0.bias f4 [64]
0.4422853 -0.6120134 -0.12829736 -0.041355047 0.97210073 0.3623152 0.43225512 0.1787142
0.5373488 -0.18622245 -0.43770447 0.32178792 -0.19246665 0.5100182 -0.30676958 0.27094626
0.08669619 0.25824815 -0.81655115 0.58560807 -0.6112118 -0.5975192 0.519076 0.23642913
-0.61511844 0.52040726 0.48934367 0.7015433 0.287127 -0.084260516 0.49760604 -0.0346452
-0.45167562 0.3534514 0.31935 0.48442593 -0.21399166 0.56733435 -0.26885504 -0.47624585
-0.3163324 0.0391684 0.8679013 -0.046776436 0.2091458 -0.41729563 -0.076926336 -0.40901935
-0.760236 0.13484466 -0.69313145 0.22193162 -0.35517767 0.3576231 -0.023549277 0.49907824
-0.07822834 0.13345322 0.15301815 0.43859234 -0.19492324 -0.81265783 0.12306119 -0.4465262
00000000: 3873 e23e e9ac 1cbf 6260 03be e963 29bd
00000010: 98db 783f 6181 b93e 8b50 dd3e db00 373e
00000020: b18f 093f 19b1 3ebe cd1a e0be 63c1 a43e
00000030: fa15 45be 8e90 023f e710 9dbe 78b9 8a3e
00000040: c68d b13d 1a39 843e 7f09 51bf 69ea 153f
00000050: 6078 1cbf 05f7 18bf 2ae2 043f 7a1a 723e
00000060: 6778 1dbf 6939 053f 418b fa3e 5798 333f
00000070: 4f02 933e c790 acbd 38c6 fe3e 20e8 0dbd
00000080: 0742 e7be 95f7 b43e d881 a33e ad06 f83e
00000090: a120 5bbe d33c 113f 5ea7 89be 7fd6 f3be
000000a0: 52f6 a1be 0b6f 203d c82e 5e3f a698 3fbd
000000b0: 512a 563e c6a7 d5be 8e8b 9dbd fc6a d1be
000000c0: d49e 42bf b814 0a3e 1071 31bf 0b42 633e
000000d0: d9d9 b5be 601a b73e 6aea c0bc 2f87 ff3e
000000e0: 2e36 a0bd f6a7 083e cab0 1c3e 2d8f e03e
000000f0: f599 47be 580a 50bf 8107 fc3d 159f e4be

actor.2.weight f4 [64, 64]
-0.5680459 -0.52471954 -0.1781372 0.35086218 -0.83053285 -0.5675618 -0.06650797 -0.6079746
0.37073842 0.18866731 0.4505673 -0.6846747 1.2255732 0.1568943 -0.12009789 -0.86618406
-0.6181444 -0.5158166 0.7147468 -0.9163698 0.5994052 0.75666887 -0.3928747 0.638265
1.0544463 -0.89280826 -0.05742413 -1.3196388 -0.5778929 0.26774555 0.34655982 0.8088158
-0.39340034 -0.81829363 0.1293001 -0.7295218 2.2529726 -0.8399388 0.77193046 2.2143586
-0.28604144 -0.64461076 0.21079554 0.10919771 -0.745061 1.0178151 0.12249558 0.22600694
-0.6074 0.066969216 1.3161972 -1.2757335 0.54408675 -0.7974073 -0.353118 -0.7091773
0.4504061 0.29358315 0.15934432 -0.48201466 0.7555368 -0.038551055 -0.5052514 1.048958
0.9051278 -0.22822869 -0.7766176 1.0062579 -0.34788945 0.28432477 0.9891808 -0.47083646
0.3215845 -0.098040625 -0.121400714 -0.04028784 -0.2483422 0.05096754 -1.0194811 -0.27767274
1.0079817 -0.45590633 0.20439291 -0.43013054 -0.09434811 -1.2104391 0.42623863 1.2724769
-0.8944847 -0.13966873 0.18611813 0.8211242 -0.011500289 0.18429738 0.9043549 -1.8791456
1.0476204 0.9385734 0.16309445 1.0714169 -1.045287 0.012099855 -0.44614252 -0.43468234
-0.72151643 0.54753923 1.0051398 -0.083770394 0.8378886 -0.21844433 -0.54602575 -0.41234112
-0.5398686 0.03329779 -0.30561644 0.12910204 -0.33420688 0.29442844 -0.4782699 0.94956875
0.7293068 -0.507779 -0.05638981 -0.6272146 -0.6256087 -0.97969663 0.31734252 -0.82624924
-1.0311384 -0.50561976 -0.31273153 0.8898759 -0.3861124 0.30650932 0.18638319 0.35200277
-0.412989 -0.0037767047 0.14981157 -0.38002664 0.5621872 0.18969218 -0.23243818 0.7787001
-0.12857921 -0.29837832 1.357306 -0.44961733 1.0885676 -0.23721999 0.17289087 0.33947498
-0.12509534 -0.9244086 -0.63388395 -1.0965012 -0.0666487 0.91819733 0.36880568 -0.14225936
0.9636048 0.6666075 -0.49594992 -0.26803666 0.032533273 -0.66173357 -0.34891227 1.4055693
-0.31053594 -0.25062922 -1.5230278 0.62287855 -0.2257322 0.3517079 0.022790667 -0.00402119
-0.5302921 0.3017837 -0.8788477 0.519895 0.38214314 -0.8081182 -1.5902848 -0.06856525
0.04658309 -0.83122486 -0.8894079 -0.26502934 0.45007464 0.0354539 0.66961294 0.46816206
0.3027191 -2.1265588 0.07646194 -0.09915727 -0.7432931 0.7829622 0.05795234 -0.08721495
-0.21156628 -0.13450149 -0.38809064 -0.17576669 -0.14822845 -0.19298467 0.12485141 -0.2977223
-0.026744463 -0.086141884 0.27887622 0.28374028 0.009678086 -0.25822636 0.43381733 -0.42927012
0.0398217 0.16887853 -0.7032217 0.49345607 -0.40221232 0.5938107 -0.053694036 1.101979
-1.2056464 -0.31443077 -0.0258568 -1.3297309 0.51440895 0.45301324 -0.04110425 1.5433112
-1.0711128 -0.76640797 0.026160808 0.86036766 -0.016913744 0.45781785 -0.077647604 0.09357597
0.4062952 0.05632721 0.7678837 -1.3077118 0.3148395 -0.013184336 0.18664461 -0.3881048
-0.7527722 0.7062293 0.11821046 0.6600357 -0.11581974 0.015906282 -0.9886994 1.1707969
00000000: 756b 11bf 0554 06bf 9969 36be 35a4 b33e
00000010: cd9d 54bf bb4b 11bf 5535 88bd 39a4 1bbf
00000020: 6dd1 bd3e 0132 413e c2b0 e63e d746 2fbf
00000030: 95df 9c3f e6a8 203e e2f5 f5bd 3dbe 5dbf
00000040: b63e 1ebf 8f0c 04bf a5f9 363f 3697 6abf
00000050: 9f72 193f 0db5 413f df26 c9be 5665 233f
00000060: 19f8 863f 158f 64bf 9135 6bbd ede9 a8bf
00000070: caf0 13bf f215 893e 4a70 b13e 8d0e 4f3f
00000080: c56b c9be b17b 51bf 3f67 043e f1c1 3abf
00000090: b430 1040 3b06 57bf 3c9d 453f 0db8 0d40
000000a0: 0674 92be 3605 25bf c9da 573e 0da3 df3d
000000b0: 51bc 3ebf c447 823f f6de fa3d 5d6e 673e
000000c0: 917e 1bbf 2827 893d 2679 a83f 3c4b a3bf
000000d0: 4549 0b3f e322 4cbf e2cb b4be a58c 35bf
000000e0: a19b e63e 8850 963e 282b 233e a0ca f6be
000000f0: dc6a 413f b6e7 1dbd 2858 01bf 4144 863f
00000100: 75b6 673f c8b4 69be 69d0 46bf 0fcd 803f
00000110: 911e b2be 0493 913e f43a 7d3f 7a11 f1be
00000120: b9a6 a43e 86c9 c8bd f0a0 f8bd dd04 25bd
00000130: 6b4d 7ebe 57c3 503d 5b7e 82bf 1f2b 8ebe
00000140: 8b05 813f 8e6c e9be 604c 513e 123a dcbe
00000150: 9539 c1bd abef 9abf f33b da3e 86e0 a23f
00000160: f3fc 64bf 5205 0fbe c095 3e3e 3235 523f
00000170: b56b 3cbc 74b8 3c3e cd83 673f d887 f0bf
00000180: 6d18 863f 5946 703f 3b02 273e 3024 893f
00000190: f7cb 85bf 783e 463c cb6c e4be af8e debe
000001a0: 4db5 38bf 882b 0c3f 6ca8 803f d08f abbd
000001b0: de7f 563f dfaf 5fbe 58c8 0bbf 601e d3be
000001c0: d434 0abf 4363 083d c279 9cbe 5333 043e
000001d0: 2a1d abbe 53bf 963e cbdf f4be f016 733f
000001e0: dab3 3a3f cefd 01bf 00f9 66bd 2391 20bf
000001f0: e427 20bf 66cd 7abf b87a a23e 1285 53bf
00000200: 58fc 83bf 4c70 01bf 591e a0be e8ce 633f
00000210: 86b0 c5be caee 9c3e 3cdb 3e3e b539 b43e
00000220: 4b73 d3be 9782 77bb 3468 193e da92 c2be
00000230: 80eb 0f3f ab3e 423e 4604 6ebe e458 473f
00000240: 45aa 03be 0bc5 98be 34bc ad3f 3e34 e6be
00000250: 2f56 8b3f cce9 72be 4e0a 313e aacf ad3e
00000260: fe18 00be 0ba6 6cbf 3846 22bf 275a 8cbf
00000270: 1d7f 88bd fb0e 6b3f 19d4 bc3e 70ac 11be
00000280: ceae 763f caa6 2a3f 26ed fdbe 1a3c 89be
00000290: 9c41 053d 5f67 29bf a1a4 b2be b2e9 b33f
000002a0: 91fe 9ebe 7952 80be 93f2 c2bf f874 1f3f
000002b0: 5826 67be 0f13 b43e 7eb3 ba3c 30c4 83bb
000002c0: 39c1 07bf 6583 9a3e 2afc 60bf d717 053f
000002d0: 44a8 c33e d6e0 4ebf 748e cbbf f06b 8cbd
000002e0: e9cd 3e3d 27cb 54bf 3cb0 63bf edb1 87be
000002f0: 2f70 e63e 1c38 113d c16b 2b3f f0b2 ef3e
00000300: fffd 9a3e 8a19 08c0 1498 9c3d f712 cbbd
00000310: 7548 3ebf 3670 483f 6f5f 6d3d c09d b2bd
00000320: d5a4 58be c2ba 09be d1b3 c6be 2ffc 33be
00000330: 33c9 17be c69d 45be 19b2 ff3d 0f6f 98be
00000340: 3417 dbbc 286b b0bd ddc8 8e3e 6846 913e
00000350: d690 1e3c 3f36 84be 4e1d de3e 4bc9 dbbe
00000360: 141c 233d 7eee 2c3e 5606 34bf 46a6 fc3e
00000370: c6ee cdbe fa03 183f 47ee 5bbd a60d 8d3f
00000380: 9f52 9abf 12fd a0be a4d1 d3bc 9f34 aabf
00000390: 4eb0 033f 5af1 e73e ee5c 28bd 398b c53f
000003a0: 391a 89bf 5033 44bf 314f d63c 0e41 5c3f
000003b0: b18e 8abc 1a67 ea3e b505 9fbd c2a4 bf3d
000003c0: ed05 d03e 5cb7 663d 0794 443f 1a63 a7bf
000003d0: a532 a13e 1d03 58bc c41f 3f3e acb5 c6be
000003e0: aeb5 40bf 72cb 343f 5318 f23d 1af8 283f
000003f0: e632 edbd e44d 823c 671b 7dbf acdc 953f

actor.2.bias f4 [64]
-0.44574985 -0.041304015 -0.581553 -0.9676008 -0.32389107 0.039950743 0.19722201 0.36868387
0.3293273 -0.040825393 -0.54482037 0.66643244 0.5201405 -0.19511211 0.24414074 0.8443156
0.18467104 0.46535534 -1.2370169 0.39722705 0.7066928 -0.099485986 0.17975418 -0.5394459
-0.6428732 -0.39935338 -0.25553602 0.8756631 0.795271 0.7714633 0.49466667 -0.45801875
0.49136046 -0.27439025 -0.34865063 0.17814255 -0.2563857 0.27809498 0.15880261 0.86459297
0.23753773 -0.5180774 0.2723311 0.2843806 -0.43776953 0.60498345 0.13784726 0.24980201
-0.10610128 0.5021934 0.14199689 0.24485672 0.6262563 -0.5590118 -0.6693494 -0.33627892
-0.34914356 0.37072095 -0.41288665 -0.103389874 -0.29099536 -0.71956104 -0.43607983 -0.07900518
00000000: 5339 e4be 662e 29bd a8e0 14bf b0b4 77bf
00000010: 0dd5 a5be 64a3 233d 91f4 493e 22c4 bc3e
00000020: 969d a83e 8738 27bd 5979 0bbf 519b 2a3f
00000030: ee27 053f 78cb 47be 0800 7a3e 1125 583f
00000040: 681a 3d3e 0e43 ee3e 9256 9ebf 5861 cb3e
00000050: d2e9 343f 4fbf cbbd 7b11 383e 2019 0abf
00000060: 5793 24bf 0c78 ccbe 9ed5 82be 752b 603f
00000070: e196 4b3f 9e7e 453f f344 fd3e 6f81 eabe
00000080: 9993 fb3e e17c 8cbe 5682 b2be 006b 363e
00000090: fd44 83be 7762 8e3e 279d 223e f755 5d3f
000000a0: 173d 733e b8a0 04bf fb6e 8b3e 569a 913e
000000b0: 5423 e0be 32e0 1a3f d527 0d3e 19cc 7f3e
000000c0: a14b d9bd bf8f 003f a267 113e b8bb 7a3e
000000d0: 5552 203f 661b 0fbf 7b5a 2bbf c02c acbe
000000e0: f2c2 b2be 23cf bd3e e165 d3be 12be d3bd
000000f0: 58fd 94be 2735 38bf db45 dfbe 78cd a1bd

actor.4.weight f4 [7, 64]
-0.43139276 -0.92590636 -2.3447063 -0.5606349 -1.7513193 -0.48951548 -0.5185789 1.3763112
-1.6206839 -0.6468131 -2.167664 0.6275904 2.6465564 1.9264059 1.2861749 1.0783165
1.034081 1.4015696 -1.8581166 0.744662 1.7113945 -1.9547501 -0.5801333 -0.6866109
-1.7318445 -1.3423136 1.1367508 -2.225429 -0.06805401 1.75059 0.91367203 0.88188124
2.2067657 -1.8050128 1.8325006 1.8573029 -0.22583024 1.1911265 -1.1919736 1.7460645
-0.743915 -1.5972601 -1.5216056 1.78321 0.8512337 2.0464325 1.4743443 -1.6764269
-0.4837393 1.3779615 -0.97667545 -1.2466447 0.7759455 -2.481822 1.2082064 1.5163819
1.507859 0.89706004 -0.13832168 -2.1832066 1.6357937 0.8553896 2.9027703 1.630243
-0.20478721 -1.9628572 0.5034873 0.28291348 -0.3937728 -1.4908673 -1.7119755 -0.80951244
0.3996175 -0.14546172 -1.4544756 -2.337344 -0.6058391 -0.15770212 2.0896275 -0.61215246
1.4201167 2.0904799 1.6880696 -0.0080818115 0.38613778 0.6348906 -1.7435316 0.021696225
0.58308476 -2.181107 0.3143355 0.40638906 -1.0682192 0.7046285 -0.5094263 -0.22007728
-0.20800135 0.50615704 1.5157168 0.5957935 -1.600599 0.4238375 -0.3550728 -1.6109143
-1.3856362 -0.81703013 1.2558292 -0.17653324 1.4994643 0.03056321 0.2004602 -0.68283206
-0.09609146 -0.2532004 -2.219344 -1.8799574 -1.0259706 -1.6203787 -0.7675418 -2.2811947
1.972337 0.9563034 1.804054 -0.38031924 -1.090106 0.7137749 -1.1289458 1.6818143
-0.052860964 -0.32500595 -0.05740408 0.18262121 1.0904292 0.97080547 0.3957506 0.1773928
0.0881225 -0.112663515 -0.87178653 -0.9687833 1.2731712 0.17129496 0.4411558 1.3057543
-1.9738833 -0.880068 -0.32355633 1.4877619 1.4333756 -0.60908705 0.6348416 1.1507202
0.14234072 0.4722345 -0.98432475 -0.35872182 -0.46680903 -1.4833647 -0.31820375 0.050518006
0.035725694 1.5917139 1.3330121 2.1061397 0.4074737 0.6601421 0.0013039341 1.6188604
0.826018 0.65451914 0.671594 -1.1256385 -2.0087435 0.5703994 0.6108091 1.0914755
-1.0720171 -1.6841137 0.58199143 1.201834 -1.9177154 -1.1477137 1.6271368 0.2612083
-0.6004159 -0.30591166 -2.9169466 1.6935508 0.15781462 -0.5662428 -1.7781465 -1.7418743
-1.1800239 0.30333444 -0.17851098 0.4578866 -0.15430431 0.44944626 -2.3369436 0.32228503
-0.023667248 -0.43806067 -0.298415 0.10323578 0.4715493 0.52068925 -0.21837948 0.37782535
-1.113426 -0.60570586 0.58163035 0.45669284 -0.20872635 1.0427357 0.07084922 0.090637356
-0.24445722 -1.5081962 0.43402678 -0.37394956 -0.70439196 -0.6363041 0.20896992 0.62546664
-1.4569815 0.49992797 -0.20491393 -0.14770418 -1.6105194 -0.13268028 -0.0009898806 -0.4832206
-0.45813605 0.75887996 0.7070174 -0.1144821 -1.2678865 0.015898257 -0.03243504 -0.3899289
1.78074 0.1376032 0.32336956 0.3610773 0.82658845 -0.17321096 -0.091121845 1.1864012
-0.346788 -1.7458127 -0.5194281 0.057173524 1.52881 -2.1253798 -0.5293434 0.39547077
00000000: 83df dcbe 3308 6dbf ab0f 16c0 c585 0fbf
00000010: 3b2b e0bf c6a1 fabe 96c1 04bf f72a b03f
00000020: 9272 cfbf 8b95 25bf 02bb 0ac0 c4a9 203f
00000030: 2e61 2940 7894 f63f 61a1 a43f 4606 8a3f
00000040: c45c 843f a266 b33f c4d6 edbf 2ba2 3e3f
00000050: fa0e db3f 4035 fabf 9e83 14bf bbc5 2fbf
00000060: 15ad ddbf efd0 abbf 0d81 913f 6e6d 0ec0
00000070: e75f 8bbd 5513 e03f 69e6 693f f8c2 613f
00000080: a63b 0d40 a90a e7bf 618f ea3f 1abc ed3f
00000090: 0b40 67be d576 983f 9792 98bf 0b7f df3f
000000a0: 3771 3ebf 0573 ccbf f9c3 c2bf 3a40 e43f
000000b0: 74ea 593f c0f8 0240 50b7 bc3f 2895 d6bf
000000c0: adac f7be 0b61 b03f 6707 7abf 0e92 9fbf
000000d0: 5da4 463f 2cd6 1ec0 82a6 9a3f cd18 c23f
000000e0: 8601 c13f baa5 653f 33a4 0dbe a8b9 0bc0
000000f0: b061 d13f d0fa 5a3f fdc6 3940 cdab d03f
00000100: bdb3 51be e83e fbbf 8be4 003f 09da 903e
00000110: 979c c9be bdd4 bebf 0322 dbbf 353c 4fbf
00000120: aa9a cc3e ebf3 14be 422c babf 0b97 15c0
00000130: 4518 1bbf aa7c 21be 75bc 0540 06b6 1cbf
00000140: 62c6 b53f 6cca 0540 aa12 d83f 9369 04bc
00000150: dab3 c53e 3188 223f 0b2c dfbf 48bc b13c
00000160: 0b45 153f 4297 0bc0 95f0 a03e 3a12 d03e
00000170: 68bb 88bf 8962 343f c369 02bf f05b 61be
00000180: 4efe 54be 8293 013f 0203 c23f ec85 183f
00000190: 6ee0 ccbf 3b01 d93e 1acc b5be 7132 cebf
000001a0: 875c b1bf e328 51bf 03bf a03f 21c5 34be
000001b0: 72ee bf3f b25f fa3c 7045 4d3e 15ce 2ebf
000001c0: 99cb c4bd 7ca3 81be bb09 0ec0 72a2 f0bf
000001d0: 0153 83bf 9268 cfbf 9f7d 44bf 18ff 11c0
000001e0: 8a75 fc3f 4dd0 743f 3eeb e63f 34b9 c2be
000001f0: 9888 8bbf f4b9 363f 4c81 90bf b145 d73f
00000200: bd84 58bd 2e67 a6be 8a20 6bbd 0e01 3b3e
00000210: 2f93 8b3f b586 783f d39f ca3e 75a6 353e
00000220: 9279 b43d 21bc e6bd 672d 5fbf 2f02 78bf
00000230: 46f7 a23f f267 2f3e 2cdf e13e f522 a73f
00000240: 35a8 fcbf 234c 61bf 2da9 a5be fb6e be3f
00000250: da78 b73f 21ed 1bbf fb84 223f cd4a 933f
00000260: c4c1 113e b8c8 f13e b5fc 7bbf 63aa b7be
00000270: 9801 efbe e5de bdbf 9aeb a2be f8eb 4e3d
00000280: 1b55 123d 48bd cb3f 24a0 aa3f feca 0640
00000290: 65a0 d03e 13ff 283f c5e8 aa3a d136 cf3f
000002a0: ea75 533f 918e 273f 96ed 2b3f ec14 90bf
000002b0: 418f 00c0 b205 123f fc5d 1c3f 78b5 8b3f
000002c0: db37 89bf 0a91 d7bf 64fd 143f b2d5 993f
000002d0: b377 f5bf 48e8 92bf 0546 d03f 18bd 853e
000002e0: dbb4 19bf 74a0 9cbe 41af 3ac0 46c6 d83f
000002f0: 289a 213e 4af5 10bf 4e9a e3bf bdf5 debf
00000300: 060b 97bf a74e 9b3e 95cb 36be 1d70 ea3e
00000310: f301 1ebe d21d e63e 7c90 15c0 8b02 a53e
00000320: d1e1 c1bc 7d49 e0be dac9 98be 486d d33d
00000330: e96e f13e e44b 053f df9e 5fbe 5372 c13e
00000340: be84 8ebf 8a0f 1bbf bae5 143f a5d3 e93e
00000350: 5cbc 55be 5d78 853f 6519 913d 14a0 b93d
00000360: fe52 7abe 930c c1bf c238 de3e 5176 bfbe
00000370: 0853 34bf d3e4 22bf 36fc 553e 951e 203f
00000380: 5f7e babf 8ff6 ff3e f5d4 51be c43f 17be
00000390: 8025 cebf 57dd 07be e2be 81ba b168 f7be
000003a0: cf90 eabe f545 423f 18ff 343f 9775 eabd
000003b0: 1b4a a2bf 103d 823c 9bda 04bd c3a4 c7be
000003c0: 4aef e33f dae7 0c3e b290 a53e 20df b83e
000003d0: 4d9b 533f 375e 31be 179e babd ffdb 973f
000003e0: 328e b1be ca76 dfbf 3df9 04bf c92e 6a3d
000003f0: 0cb0 c33f 3906 08c0 0d83 07bf 257b ca3e

actor.4.bias f4 [7]
1.6321956 -0.35175797 -0.67013085 0.08284599 0.012367131 0.12699634 1.0499288
00000000: c9eb d03f 9f19 b4be b28d 2bbf 29ab a93d
00000010: 829f 4a3c 540b 023e 1164 863f

critic.0.weight f4 [64, 20]
-0.9142922 0.26110277 0.59006083 0.04092216 -0.077299684 -0.084744915 -9.77763 -4.4421167
-1.868909 -0.19971435 0.29995665 0.6497842 -4.3221188 -1.4323834 -0.66709083 0.5038032
-0.39906907 -0.22487654 0.40406612 -0.58465064 -0.9332502 0.13106728 0.60286516 0.47279298
0.40010643 0.7188681 2.1193826 2.0629573 1.9373609 -0.10977544 -0.39887658 -0.39266253
4.9142785 0.5656536 1.6157182 1.3184327 0.7598228 0.50439703 -0.037845965 -0.03373008
-0.6322178 0.5710801 0.88844025 -0.4752169 -0.02418293 0.32008222 12.535968 9.150807
6.6269717 0.82919985 0.08940526 -0.41116336 0.41577798 -0.6521785 -1.236337 -1.5053883
0.5773629 0.19171472 0.038724463 -0.25881016 0.10459641 -0.8112675 0.94201267 -0.40533108
-0.12502755 0.36615816 5.09426 -0.60840225 -4.3163633 0.23576741 -0.7317855 -0.9238584
3.5641992 -1.1674137 0.5426155 -1.1797268 -0.42897412 0.7932496 -0.1786166 0.52369285
-0.8398307 -0.47898135 -0.6255464 0.21302444 0.2806553 0.5197055 0.34193313 0.24782613
-0.61436105 0.67492384 0.3207093 0.42777005 2.7172396 0.18661205 2.664084 6.3707943
3.9116325 2.052698 0.15642825 0.2718091 -0.052849367 0.95454717 -0.6807282 1.1318874
-0.018038152 -0.7500724 -0.7650842 2.0541315 2.572277 0.4691113 0.08687725 -0.024567042
-1.2914774 2.237179 -1.3341466 -1.1298649 0.66239226 0.23973542 -0.23829916 -0.21456501
1.3800453 -0.5263922 0.58589256 -1.4299184 -0.85536575 -1.507702 -6.919287 -6.8023
-6.8212266 -1.9762647 -1.7215204 -1.4966049 -2.601699 -0.9730543 0.6910499 -0.47516388
-0.13639769 0.14404938 -0.17421865 -0.23784588 0.8576139 0.27985278 1.7910719 -1.092098
-0.20573165 -0.13087913 0.46426848 1.5360411 1.7218559 1.4454219 1.411478 1.4321955
-0.53778934 -0.74496454 5.2195706 0.09992717 0.88145983 1.4485601 0.57674474 0.3395738
-2.8311296 -1.787485 -1.1306583 -1.6014476 -0.46547788 -1.6066786 4.8852983 2.656842
1.4792837 0.57022315 0.12686473 0.017685702 2.057548 1.5808524 0.5621091 -0.21363834
0.52386117 0.36926675 -0.26270086 0.8843117 0.23626564 -0.10554359 -0.47851655 -1.6179658
-1.2171328 -1.211708 -4.859566 -6.2971234 -6.8896666 -0.6673487 -0.36025545 -0.59023386
-3.1734812 -0.68091613 -2.1813154 -1.4117521 -2.2426813 -1.7761356 -0.21033828 0.06682723
0.59743094 -1.4099636 -0.71398056 0.7814708 -0.032790862 -0.026305953 -6.8147573 -4.8350534
-4.461126 0.9147547 1.0006781 1.1567799 -1.0958865 -0.40352377 -0.079536416 0.94679815
-0.61409825 -1.2724218 0.32227913 -0.9016763 -0.96142673 -1.2643772 -0.14944215 0.987629
0.32516044 0.59088653 -3.314994 -1.7315495 -0.60398984 1.0960226 1.1935289 1.2184688
-2.325243 -0.108546086 0.5226858 -2.4873247 -1.1096326 -0.442989 0.36003512 -0.6467333
-0.94645053 -2.8653247 -2.525954 -0.5049806 -0.87052613 -0.7716797 -4.0093584 -0.17713092
2.0168266 -1.0238665 -0.6102633 -0.6020001 -1.1243215 2.4958286 2.2000573 -0.37499228
00000000: 0e0f 6abf 43af 853e 3a0e 173f ff9d 273d
00000010: 4c4f 9ebd be8e adbd 2c71 1cc1 d225 8ec0
00000020: 6938 efbf eb81 4cbe eb93 993e 4258 263f
00000030: cc4e 8ac0 5758 b7bf 77c6 2abf 3ff9 003f
00000040: c852 ccbe 0946 66be c1e1 ce3e aaab 15bf
00000050: 7ce9 6ebf 8036 063e 5f55 1a3f ec11 f23e
00000060: c0da cc3e bd07 383f f7a3 0740 7e07 0440
00000070: 71fb f73f f2d1 e0bd 8d39 ccbe 100b c9be
00000080: c541 9d40 adce 103f dbcf ce3f 67c2 a83f
00000090: bf83 423f 2a20 013f 5f04 1bbd 8d28 0abd
000000a0: 07d9 21bf 4e32 123f d270 633f a14f f3be
000000b0: 481b c6bc d1e1 a33e 5393 4841 b569 1241
000000c0: 2710 d440 7146 543f 1b1a b73d 0184 d2be
000000d0: dae0 d43e 2cf5 26bf 4a40 9ebf 90b0 c0bf
000000e0: 0ece 133f dd50 443e 8b9d 1e3d c482 84be
000000f0: a536 d63d 3aaf 4fbf be27 713f 8e87 cfbe
00000100: 3907 00be 1579 bb3e 2e04 a340 40c0 1bbf
00000110: a61f 8ac0 036d 713e 4b56 3bbf fc81 6cbf
00000120: d71b 6440 d06d 95bf d9e8 0a3f 4a01 97bf
00000130: 7fa2 dbbe 6812 4b3f 45e7 36be bc10 063f
00000140: 25ff 56bf 0b3d f5be cf23 20bf 1423 5a3e
00000150: 0db2 8f3e 6b0b 053f dc11 af3e 22c6 7d3e
00000160: c446 1dbf cfc7 2c3f 0234 a43e ad04 db3e
00000170: 41e7 2d40 3b17 3f3e 5a80 2a40 8cdd cb40
00000180: 3058 7a40 675f 0340 ba2e 203e 902a 8b3e
00000190: 9478 58bd 345d 743f 3444 2ebf b0e1 903f
000001a0: bfc4 93bc bf04 40bf 8fdc 43bf e476 0340
000001b0: 30a0 2440 5b2f f03e b3ec b13d d240 c9bc
000001c0: 224f a5bf f12d 0f40 51c5 aabf 6a9f 90bf
000001d0: 8a92 293f 347d 753e b204 74be eeb6 5bbe
000001e0: 53a5 b03f a4c1 06bf 0efd 153f 9107 b7bf
000001f0: 40f9 5abf 61fc c0bf cd6a ddc0 71ac d9c0
00000200: 7d47 dac0 3ef6 fcbf c85a dcbf c090 bfbf
00000210: 3d82 26c0 161a 79bf a5e8 303f ae48 f3be
00000220: d6ab 0bbe ae81 133e 6066 32be df8d 73be
00000230: 968c 5b3f dd48 8f3e d841 e53f dec9 8bbf
00000240: 51ab 52be 2e05 06be 99b4 ed3e ff9c c43f
00000250: c665 dc3f 9603 b93f 50ab b43f 2f52 b73f
00000260: 90ac 09bf ffb5 3ebf b906 a740 9ea6 cc3d
00000270: 5aa7 613f 6b6a b93f 8ba5 133f 9edc ad3e
00000280: 3a31 35c0 4fcc e4bf 69b9 90bf 3cfc ccbf
00000290: 1e53 eebe a5a7 cdbf 5d54 9c40 b309 2a40
000002a0: 2b59 bd3f 25fa 113f d4e8 013e 9be1 903c
000002b0: deae 0340 5f59 ca3f 62e6 0f3f 02c4 5abe
000002c0: c41b 063f 8810 bd3e ba80 86be 4062 623f
000002d0: 9fef 713e 3d27 d8bd 1f00 f5be 8119 cfbf
000002e0: 02cb 9bbf 3f19 9bbf 9181 9bc0 0982 c9c0
000002f0: 2678 dcc0 5dd7 2abf 6773 b8be 9119 17bf
00000300: 511a 4bc0 8550 2ebf ac9a 0bc0 4bb4 b4bf
00000310: 1788 0fc0 6958 e3bf eb62 57be b7dc 883d
00000320: 3cf1 183f b079 b4bf 6ec7 36bf 780e 483f
00000330: b64f 06bd 957f d7bc 7e12 dac0 c2b8 9ac0
00000340: 8bc1 8ec0 5d2d 6a3f 3816 803f 5d11 943f
00000350: 0246 8cbf ab9a cebe fde3 a2bd 5d61 723f
00000360: 8b35 1dbf b8de a2bf c501 a53e 42d4 66bf
00000370: 1020 76bf 1dd7 a1bf 5d07 19be 41d5 7c3f
00000380: 6e7b a63e 5744 173f dd28 54c0 6aa3 ddbf
00000390: 149f 1abf 784a 8c3f 8ec5 983f c9f6 9b3f
000003a0: c8d0 14c0 694d debd bdce 053f 5430 1fc0
000003b0: 7108 8ebf 74cf e2be 8656 b83e 5090 25bf
000003c0: 954a 72bf 7b61 37c0 3ba9 21c0 6946 01bf
000003d0: cdda 5ebf cd8c 45bf aa4c 80c0 cf61 35be
000003e0: b013 0140 0f0e 83bf 373a 1cbf ae1c 1abf
000003f0: c4e9 8fbf a8bb 1f40 bdcd 0c40 fdfe bfbe

critic.0.bias f4 [64]
0.6624201 -0.02400992 -0.7311904 0.31429762 0.5255603 0.12243168 -0.5813797 1.05986
-0.37635586 0.07470883 1.5198193 0.8037223 -0.7395155 -0.25314227 -0.82822335 0.8027684
-1.3247436 -0.17448862 1.4343903 -0.7658595 -1.2844063 -0.07426833 -1.143 0.84433174
1.6570643 -0.22729932 0.5321968 0.41324085 1.2913407 -0.42233497 1.6647782 0.21710746
0.01177652 -1.5199758 0.54501903 -0.55314875 0.13850597 -1.0993692 -0.10205068 -0.28399703
-0.69814897 -0.3649493 0.8232895 -1.765839 -0.7253241 -1.2044861 -0.55433047 0.7184437
0.84198964 -0.7544283 -0.060556605 -1.3911904 0.16271465 -0.4186316 0.9606997 -1.239624
-0.21033238 0.31377035 1.1519738 -0.7951557 -0.71799904 -0.9571823 0.2654413 -0.2385294
00000000: 5d94 293f 74b0 c4bc 4b2f 3bbf 9eeb a03e
00000010: 1f8b 063f 76bd fa3d 4dd5 14bf 7ea9 873f
00000020: b7b1 c0be f100 993d 7089 c23f bfc0 4d3f
00000030: e350 3dbf dd9b 81be 7206 54bf 3b82 4d3f
00000040: 3391 a9bf 25ad 32be 1a9a b73f 5e0f 44bf
00000050: 6d67 a4bf ff19 98bd d34d 92bf 2026 583f
00000060: af1a d43f 27c1 68be 0d3e 083f 4e94 d33e
00000070: a74a a53f 4a3c d8be 7417 d53f 6b51 5e3e
00000080: 4ef2 403c 918e c2bf 5e86 0b3f 289b 0dbf
00000090: 82d4 0d3e 21b8 8cbf f2ff d0bd 0f68 91be
000000a0: e4b9 32bf a2da babe 1ac3 523f 0307 e2bf
000000b0: d7ae 39bf 9a2c 9abf 9ae8 0dbf edeb 373f
000000c0: a28c 573f 3722 41bf 340a 78bd 8712 b2bf
000000d0: ab9e 263e e256 d6be 6af0 753f 00ac 9ebf
000000e0: 5f61 57be 82a6 a03e e173 933f 538f 4bbf
000000f0: c9ce 37bf e609 75bf ece7 873e 0d41 74be

critic.2.weight f4 [64, 64]
0.6347107 0.9078657 -0.5302763 0.28627715 1.1989279 -0.5252852 -1.2358338 0.2712678
-0.27319783 -0.45472562 -1.5375881 0.3997311 1.056213 -1.2549312 -0.20314048 -1.3460721
-1.3175906 -1.6552714 0.12391464 0.4890958 -0.7073756 -1.5423214 -0.99545544 0.091884874
0.51976097 -1.1231146 0.08996111 0.81601125 -0.422143 -0.1970559 1.3215086 -0.10183311
0.6796112 -0.29617426 1.3957196 -0.7462846 0.5937292 0.18104915 0.60610265 -0.4709445
0.09610227 -0.1751619 1.9593945 0.13706593 -2.1259983 -0.79639065 0.4470186 -0.1280857
-0.61833 -0.46748623 0.020103652 -1.2993482 -1.1258541 -0.70345366 0.7941743 0.03111382
-0.7644484 -0.17512964 1.0977473 -1.1911325 2.2518005 -0.40901187 0.64824253 -0.9331134
-0.40404117 0.44700667 -0.59328437 -1.2777559 -1.6891394 0.54141814 0.17625421 -0.11679723
-0.010102222 1.4323188 0.93870395 1.3363214 -1.3688308 -0.7485494 -0.91191524 -0.067762636
-0.28689566 -0.68186826 0.99311364 0.45267048 0.017998772 1.1489211 0.023234336 0.35056236
0.48503387 0.46239224 0.289604 0.5920148 -0.8284442 -0.32746458 2.0889 -0.067482896
0.7798821 0.6197496 -0.7118037 0.8306165 0.43694556 -0.048296608 0.6629878 1.8643228
-0.23393743 0.8800869 0.18383862 -0.81434816 -0.59897995 0.07744027 -1.6673973 -0.88369703
-1.0423319 -1.0312272 -0.541096 -2.028904 -0.72918177 0.6075182 0.5105853 0.67769426
1.5185401 0.03532949 0.60126925 -0.31970453 0.6841856 -0.31030768 -0.18475756 -0.57738477
-0.13139862 -0.62119067 0.32007277 0.45693114 -2.2647233 0.19681153 -0.8427988 -0.42904943
0.79762036 2.490123 1.4837407 0.06464858 -1.5428596 -0.0742224 -0.7496003 0.7632221
-0.8225637 -0.82824403 -0.48068446 1.2054174 0.6265583 -0.34272543 0.69074434 -0.09992742
-0.12241863 0.07985516 0.28832015 1.3815987 -0.8620616 -1.9479458 -1.1754206 0.69675946
2.3103511 0.08526978 0.86573595 -0.6881759 0.27858946 0.8996239 0.7080674 1.4718237
0.4826308 0.61592233 2.3953395 0.27196658 0.24829336 -0.63563573 0.48195547 1.6200451
0.9841724 0.45334312 -1.4758024 -1.5399597 0.19592588 0.6103433 0.48878145 -2.7875717
0.5412285 -0.22005038 2.3474324 0.91775674 0.17946178 -0.34210092 -0.53504026 -0.9568217
-0.4841019 0.9788587 0.08908005 0.34654447 0.021997228 0.32467908 -0.74119306 0.43160388
-0.17266163 -0.6829674 -0.23780291 0.4138587 -0.93577427 -1.4164152 0.66170514 0.75980747
-1.7885517 -0.6551677 2.924397 0.77237874 -0.36258706 0.30226344 -0.64492047 0.6593472
0.7645203 -0.042306267 1.0692363 -1.386952 0.3792959 0.03970644 -0.37761283 0.2504464
-0.7151142 -0.00405973 0.50893533 0.42158324 0.019964539 -0.3129354 -1.385043 1.3326979
1.5167717 -0.6357941 0.52380687 -2.668814 -1.1602689 -1.2501912 -0.116183735 0.68972945
0.080588326 -1.3368759 -0.5846841 -0.7932466 -0.41516507 0.3964583 0.9528974 -0.2648609
-0.9363213 -0.004015158 0.42253265 0.5888939 0.18054685 -1.7132578 -1.0770191 -1.1866302
00000000: 677c 223f e369 683f 30c0 07bf eb92 923e
00000010: 7876 993f 1779 06bf cd2f 9ebf 9de3 8a3e
00000020: 96e0 8bbe ccd1 e8be b0cf c4bf 8ea9 cc3e
00000030: fd31 873f 96a1 a0bf 0f04 50be 174c acbf
00000040: cfa6 a8bf efdf d3bf f5c6 fd3d c46a fa3e
00000050: 9116 35bf ca6a c5bf 2bd6 7ebf 232e bc3d
00000060: 0e0f 053f 38c2 8fbf 883d b83d 1de6 503f
00000070: 2123 d8be 06c9 49be 3227 a93f e18d d0bd
00000080: 00fb 2d3f 27a4 97be f1a6 b23f 820c 3fbf
00000090: a3fe 173f f364 393e 8b29 1b3f a31f f1be
000000a0: 44d1 c43d a45d 33be 70cd fa3f 035b 0c3e
000000b0: 5b10 08c0 42e0 4bbf 9fdf e43e e628 03be
000000c0: e04a 1ebf 5b5a efbe 6ab0 a43c 0b51 a6bf
000000d0: fd1b 90bf 8a15 34bf 024f 4b3f 69e2 fe3c
000000e0: e4b2 43bf 2f55 33be fc82 8c3f 0877 98bf
000000f0: 801d 1040 016a d1be 39f3 253f 85e0 6ebf
00000100: 7cde cebe 0fde e43e 7ce1 17bf 818d a3bf
00000110: b835 d8bf 619a 0a3f fc7b 343e 6333 efbd
00000120: ca83 25bc 3956 b73f e74e 703f 940c ab3f
00000130: d935 afbf efa0 3fbf 4773 69bf 23c7 8abd
00000140: fde3 92be eb8e 2ebf b23c 7e3f 6dc4 e73e
00000150: 2972 933c d90f 933f ef55 be3c e97c b33e
00000160: 5c56 f83e adbe ec3e fa46 943e 488e 173f
00000170: eb14 54bf 70a9 a7be 8ab0 0540 7934 8abd
00000180: 5aa6 473f e9a7 1e3f c438 36bf 48a3 543f
00000190: 54b7 df3e aad2 45bd 92b9 293f 21a2 ee3f
000001a0: 4b8d 6fbe 604d 613f 3140 3c3e 1f79 50bf
000001b0: c056 19bf 0199 9e3d 466d d5bf f839 62bf
000001c0: 226b 85bf 41ff 83bf 4485 0abf 90d9 01c0
000001d0: a8ab 3abf 5086 1b3f b8b5 023f 5f7d 2d3f
000001e0: 865f c23f a8b5 103d c8ec 193f 50b0 a3be
000001f0: ca26 2f3f a6e0 9ebe 1631 3dbe 7dcf 13bf
00000200: 5c8d 06be 5a06 1fbf 94e0 a33e e1f2 e93e
00000210: 3af1 10c0 f688 493e aac1 57bf 5eac dbbe
00000220: d930 4c3f 2d5e 1f40 37eb bd3f 7a66 843d
00000230: 6c7c c5bf ea01 98bd cee5 3fbf 8662 433f
00000240: 8993 52bf cd07 54bf 461c f6be 1e4b 9a3f
00000250: 2066 203f b579 afbe 9fd4 303f bfa6 ccbd
00000260: 9eb6 fabd 1a8b a33d b39e 933e 3ad8 b03f
00000270: 12b0 5cbf 4a56 f9bf 2f74 96bf d45e 323f
00000280: cbdc 1340 eca1 ae3d dfa0 5d3f 4c2c 30bf
00000290: 47a3 8e3e c04d 663f e843 353f b864 bc3f
000002a0: 621b f73e 16ad 1d3f 3e4d 1940 343f 8b3e
000002b0: 9d40 7e3e 06b9 22bf dec2 f63e a35d cf3f
000002c0: b9f2 7b3f 971c e83e 18e7 bcbf 661d c5bf
000002d0: cba0 483e 753f 1c3f 9041 fa3e 9367 32c0
000002e0: f38d 0a3f e354 61be 553c 1640 1bf2 6a3f
000002f0: d4c4 373e da27 afbe 66f8 08bf 44f2 74bf
00000300: 34dc f7be 7c96 7a3f 9a6f b63d 476e b13e
00000310: 8833 b43c 563c a63e d4be 3dbf 2ffb dc3e
00000320: 36ce 30be f4d6 2ebf 9b82 73be 4ae5 d33e
00000330: e78e 6fbf 184d b5bf 8265 293f be82 423f
00000340: 43ef e4bf 12b9 27bf 5229 3b40 9dba 453f
00000350: 03a5 b9be 46c2 9a3e 8219 25bf faca 283f
00000360: 9ab7 433f 5649 2dbd bcdc 883f a587 b1bf
00000370: 1233 c23e 38a3 223d 7856 c1be 833a 803e
00000380: b911 37bf 7c07 85bb 9649 023f c2d9 d73e
00000390: ac8c a33c 1239 a0be 1749 b1bf d895 aa3f
000003a0: 9325 c23f 67c3 22bf 3518 063f d9cd 2ac0
000003b0: b183 94bf 4406 a0bf bdf1 edbd 1c92 303f
000003c0: 7e0b a53d c01e abbf dbad 15bf 3612 4bbf
000003d0: 8490 d4be 95fc ca3e 16f1 733f d99b 87be
000003e0: c1b2 6fbf 9691 83bb 3356 d83e c0c1 163f
000003f0: 46e1 383e 084c dbbf c3db 89bf 80e3 97bf

critic.2.bias f4 [64]
0.38467473 0.9042817 0.62638545 0.89912885 1.1024598 -0.09181982 -0.67740214 0.37020814
1.1176414 -0.12371827 1.0781598 -0.39833173 -0.19368413 0.1136544 0.4624829 -0.2682505
-0.45403627 -0.55468345 -0.58796704 0.012616526 0.14820094 -0.44881845 0.049182117 0.4154229
-0.23788184 -0.6776138 0.49879387 -0.307949 0.00010267022 0.49051508 -0.76386213 0.33643547
-0.20754594 0.5596636 -0.2662075 -0.47948533 -0.8869914 -0.26896477 -0.4341749 0.15738842
-0.2754566 -0.6755934 0.7494909 0.8966585 0.48136765 -0.20035562 0.55273217 -0.18898617
-1.0193515 0.82082605 -0.22300863 0.120493874 -0.002709422 -0.67032856 0.08272677 0.0225213
0.37275025 -0.41465536 -0.7367091 0.72206604 0.046797764 0.27739027 0.25154346 -0.43254247
00000000: 16f4 c43e 017f 673f cc5a 203f 4f2d 663f
00000010: 671d 8d3f 080c bcbd 3a6a 2dbf ec8b bd3e
00000020: e00e 8f3f 0160 fdbd 2401 8a3f 23f2 cbbe
00000030: 2255 46be a3c3 e83d 8fca ec3e 2158 89be
00000040: 7177 e8be bcff 0dbf 0285 16bf 8cb5 4e3c
00000050: fdc1 173e 88cb e5be 3073 493d 4fb2 d43e
00000060: 4c97 73be 1978 2dbf e961 ff3e 7eab 9dbe
00000070: a850 d738 cb24 fb3e 788c 43bf 4541 ac3e
00000080: ec86 54be 1d46 0f3f 594c 88be 1a7f f5be
00000090: de11 63bf c0b5 89be 2c4c debe 6e2a 213e
000000a0: a608 8dbe b0f3 2cbf a3de 3f3f 698b 653f
000000b0: d275 f63e 062a 4dbe db7f 0d3f 9785 41be
000000c0: 1c7a 82bf a821 523f 605c 64be 7ec5 f63d
000000d0: 8f90 31bb a79a 2bbf a76c a93d 977e b83c
000000e0: 1fd9 be3e b54d d4be f898 3cbf 52d9 383f
000000f0: 03af 3f3d 1906 8e3e 4eca 803e 3576 ddbe

critic.4.weight f4 [1, 64]
-0.2565413 0.42941296 -0.4444034 -0.46212807 0.5095939 0.4390851 0.47874823 0.38007313
0.4912246 0.4690709 -0.53481126 -0.63084453 0.45371896 0.6177443 0.16532247 -0.3016749
-0.42350182 -0.35072693 0.25192297 -0.5328029 0.391689 0.49576527 0.561106 -0.40534055
0.51495767 -0.25886494 0.40456027 0.3870044 0.505406 -0.54780954 0.32403418 0.34735152
-0.4875681 0.3224402 -0.30017224 0.48202026 -0.4486381 -0.26616085 0.47991106 0.63295996
0.33677396 -0.34649065 -0.49046436 0.47957766 -0.45520425 0.37779555 -0.46006277 0.40064067
0.37028602 -0.43926898 0.5575295 -0.34443998 -0.2960462 -0.27663693 0.60173154 -0.32960624
0.33399004 -0.5345287 -0.5655322 0.30792153 -0.3886706 -0.46276653 -0.21084347 0.4739042
00000000: 6259 83be 04dc db3e d888 e3be 0d9c ecbe
00000010: bf74 023f c3cf e03e 7d1e f53e f298 c23e
00000020: ca81 fb3e 102a f03e 64e9 08bf 077f 21bf
00000030: da4d e83e 7e24 1e3f 4b4a 293e 2275 9abe
00000040: 3bd5 d8be 7b92 b3be 0cfc 803e c565 08bf
00000050: 768b c83e f2d4 fd3e a5a4 0f3f cc88 cfbe
00000060: 44d4 033f f289 84be 8622 cf3e 7125 c63e
00000070: 4a62 013f 3f3d 0cbf cfe7 a53e 0fd8 b13e
00000080: 87a2 f9be e216 a53e 2db0 99be 5ccb f63e
00000090: e5b3 e5be 3c46 88be e7b6 f53e aa09 223f
000000a0: a36d ac3e 3967 b1be 251e fbbe 348b f53e
000000b0: 8810 e9be 6b6e c13e 598d ebbe c620 cd3e
000000c0: 2196 bd3e dde7 e0be 41ba 0e3f 705a b0be
000000d0: 5e93 97be 5ba3 8dbe 140b 1a3f 26c2 a8be
000000e0: be00 ab3e dfd6 08bf b8c6 10bf e4a7 9d3e
000000f0: d5ff c6be bcef ecbe 5ae7 57be 92a3 f23e
