Model Results/ppo_sentiment_MSFT2022-03-011999.pth (torch, 50591 bytes, 11 tensors)

actor.0.weight f4 [64, 20]
0	0xbde6b413	-0.11264815
1	0x3f3adf16	0.7299665
2	0x3e30d0f9	0.17267217
3	0xbf9c94bb	-1.2232889
4	0xbf768ee6	-0.96311796
5	0xbfd520d8	-1.6650648
6	0x4013a0b5	2.3066838
7	0x3f3e54a4	0.743479
8	0xbec463a0	-0.38357258
9	0x3db42898	0.08796805
10	0x3e37fefb	0.17968361
11	0xbdbd8f5a	-0.09255858
12	0xbeb73552	-0.35782868
13	0xbf764ead	-0.962138
14	0xbec60980	-0.38679123
15	0xbf7ec657	-0.9952139
16	0xbede46ce	-0.43413395
17	0x3e25c9b5	0.16190226
18	0x3dfab6ff	0.12241935
19	0xbe73a645	-0.23793896
20	0x3e81f8ad	0.25385037
21	0x3e916e74	0.28404582
22	0xbd55b116	-0.052170835
23	0xbf536f26	-0.82591474
24	0xbf1cb6b7	-0.612163
25	0xbf4816c5	-0.78159744
26	0xc02ce8c9	-2.701708
27	0xc0646573	-3.568692
28	0xc05c53c5	-3.442613
29	0xbe7cd780	-0.24691582
30	0x3df81f02	0.12115289
31	0x3e8a5ed2	0.27025467
32	0xbf810d5f	-1.0082206
33	0xbf9916a0	-1.196003
34	0x3f13ca08	0.5773015
35	0x3ef19dd1	0.47190717
36	0xbf1d3538	-0.6140933
37	0xbf1a6c86	-0.60321844
38	0x3f0436d1	0.51646143
39	0x3d8c6728	0.06855613
40	0xbda7cc37	-0.08193248
41	0xbeb2929a	-0.34877473
42	0xbecf0810	-0.4043584
43	0xbeda291a	-0.42609483
44	0xbcfd1f84	-0.030898817
45	0xbe77d298	-0.24201429
46	0x3ffe3606	1.9860237
47	0x3eeafbee	0.45895332
48	0xbf0f2c0e	-0.559266
49	0xbe7d9bdf	-0.24766491
50	0xbe9615ac	-0.2931341
51	0xbf18f22d	-0.5974453
52	0xbf05433d	-0.5205572
53	0xbfec1569	-1.8444034
54	0xbecff89d	-0.40619364
55	0x3e93edda	0.28892404
56	0x3ef396a1	0.47575858
57	0x3f92c926	1.1467636
58	0xbe350ae7	-0.1767994
59	0xbf0ab4b3	-0.54181975
60	0xbf37a682	-0.71738446
61	0xbfc3692c	-1.5266471
62	0xbff5ac09	-1.9193126
63	0x3fbaea19	1.4602691
64	0x3f5c80cd	0.86134034
65	0x3faceebc	1.3510356
66	0xbdc0f75d	-0.09422181
67	0x3f6e0fd6	0.92992914
68	0x3fd1b840	1.6384354
69	0x3f5e5cd1	0.86860377
70	0x3f31c6a8	0.6944375
71	0x3f693270	0.91092587
72	0xbf20f2ba	-0.6287037
73	0x3f1b859a	0.60750735
74	0x3d45645c	0.048191413
75	0x3f26f4b8	0.6521716
76	0x3e50103a	0.2031869
77	0xbf1a4efb	-0.60276765
78	0x3f0efc5f	0.5585384
79	0x3d12580e	0.035728507
80	0xbc8c6bea	-0.017141301
81	0xbf6b3376	-0.918754
82	0xbf6a44dc	-0.9151132
83	0x3f3b06a6	0.7305702
84	0x3dbb7fce	0.09155236
85	0xbe13ab8e	-0.14420912
86	0x4051950d	3.2747223
87	0x3f9d4b29	1.2288562
88	0x3d8530e1	0.065034635
89	0x3f1c6644	0.61093545
90	0xba5ab8ff	-0.00083436066
91	0x3ea41a81	0.3205147
92	0x3f47dc87	0.78070873
93	0xbf33fe96	-0.7031034
94	0xbdbb6b88	-0.09151369
95	0x3ebed484	0.37271512
96	0x400a476b	2.160609
97	0x40039413	2.0559127
98	0x3e532f2f	0.20623468
99	0x3e4bdda5	0.1990877
100	0xbd03b7fb	-0.03215788
101	0xbf8da2b9	-1.1065284
102	0xbfe62d12	-1.7982504
103	0x3f0d81a9	0.5527597
104	0x3f4dcbae	0.80388916
105	0x3f0b81a5	0.54494697
106	0xc0bee74c	-5.9657345
107	0xc0cce9a1	-6.403519
108	0xc0b3210c	-5.597784
109	0xbf0e5072	-0.555915
110	0xbe255120	-0.16144228
111	0xbdaff404	-0.08591464
112	0xbf45ce71	-0.7726813
113	0xbed2cfa8	-0.41174054
114	0x3e8890a6	0.26672858
115	0x3dd0b9bc	0.10191676
116	0xbe82109b	-0.25403294
117	0x3e34cfda	0.17657414
118	0x3e40f70e	0.18844244
119	0x3df5046a	0.119637325
120	0xbf09b823	-0.53796595
121	0x3ee0452e	0.4380278
122	0x3e9b04f4	0.30277216
123	0xbf5fe348	-0.8745618
124	0x3e5080cc	0.20361632
125	0x3eec763a	0.4618395
126	0x403fc361	2.9963
127	0x406f585f	3.7397687
128	0x407bb7b3	3.933087
129	0x3f25f560	0.6482754
130	0x3ebd5d63	0.3698531
131	0x3df1b691	0.118024
132	0xbf193892	-0.59851944
133	0x3ed00edc	0.40636337
134	0xbe18b13d	-0.14911361
135	0x3f2b0982	0.6681138
136	0xbf802ca9	-1.0013629
137	0x3edcf1d3	0.43153247
138	0x3d806ce9	0.06270773
139	0xbdd88e99	-0.10574073
140	0x3fb1bccc	1.3885741
141	0x3eaa6229	0.33278015
142	0x3f7a9009	0.9787603
143	0x3f822d65	1.0170103
144	0x3f3b0ef8	0.73069715
145	0x3e9d6fa2	0.30749232
146	0xc08368e0	-4.106552
147	0xbf96ba0f	-1.177553
148	0x3e9fcbc4	0.31210148
149	0xbe21a85a	-0.15786877
150	0x3f1129f1	0.5670462
151	0x3ea60f50	0.32433558
152	0xc00bdce9	-2.1853583
153	0xbf238501	-0.6387482
154	0x3f0dea71	0.55435854
155	0x3f0dc9c5	0.55386
156	0x3f311ab4	0.6918137
157	0x3eadbea7	0.3393452
158	0x3e99762d	0.29972973
159	0x3e85533b	0.26040062
160	0xbfb95345	-1.4478537
161	0xbe9a216b	-0.3010362
162	0xbe2b74e8	-0.16743815
163	0xbf3a2e49	-0.72726876
164	0x3b8a5e42	0.004222662
165	0x3db50f15	0.08840767
166	0xc0af4199	-5.4767575
167	0xc0d8c8e0	-6.774521
168	0xc0eb3762	-7.3505106
169	0xbf7991a2	-0.97487843
170	0xbe14c3ce	-0.14527819
171	0xbe6e8876	-0.23294243
172	0xbe8d4581	-0.2759209
173	0x3efbf2c7	0.49208662
174	0x3f6ce07b	0.9253003
175	0x3eaf3f16	0.34227818
176	0xbe57e7b4	-0.21084481
177	0xbec28b8b	-0.37997088
178	0x3effff95	0.4999968
179	0x3ec40053	0.38281497
180	0x3f3d4300	0.7393036
181	0x3e8490c3	0.25891694
182	0x3f1f9725	0.62340003
183	0xbe426b72	-0.189863
184	0x3e8d20f7	0.27564213
185	0xbda2eb0d	-0.07954989
186	0x3f1b9107	0.6076817
187	0x40413827	3.0190523
188	0x408af895	4.3428445
189	0x3f0e1d3f	0.55513376
190	0x3e2f8d49	0.1714374
191	0x3e8e6811	0.2781377
192	0xbf06829b	-0.5254304
193	0x3f3912cc	0.72294307
194	0xbea11e94	-0.31468642
195	0xbf4f68b3	-0.81019133
196	0xc00feb0e	-2.2487216
197	0xbf97d79a	-1.1862671
198	0xbe9d1cfa	-0.3068617
199	0xbe1f87fb	-0.15579216
200	0xbebe4e30	-0.37169027
201	0xbe2bbf9f	-0.16772316
202	0xbe074a8a	-0.13212028
203	0xbf273255	-0.65311176
204	0xbf5612d7	-0.836225
205	0xbf1c4df6	-0.6105646
206	0xbfc481dd	-1.5352131
207	0xbface085	-1.3506018
208	0xbf6ab866	-0.9168762
209	0x3ec3d3b8	0.38247466
210	0x3e652d9e	0.22380683
211	0x3e218499	0.15773238
212	0xbe23db70	-0.16001678
213	0x3ef8021c	0.4843911
214	0x3f027408	0.509583
215	0x3f066fd3	0.5251438
216	0x3fb93e9e	1.4472234
217	0x3f6ebbed	0.932555
218	0x3e71276a	0.23550192
219	0x3f8c8145	1.097695
220	0x3fd9282c	1.6965384
221	0xbe91f3ad	-0.28506222
222	0x3f650a1f	0.8946857
223	0x3e42af84	0.19012266
224	0xbf21703c	-0.6306188
225	0xbef403d6	-0.47659177
226	0x3fcb49eb	1.5881933
227	0x405f1f57	3.4862878
228	0x407e988a	3.9780602
229	0x3e302356	0.1720098
230	0x3ee57c89	0.44821575
231	0x3e27863e	0.16359803
232	0xbf7ca0d1	-0.98682886
233	0xbf125c96	-0.57172525
234	0xbe8d867d	-0.2764167
235	0xbf09bfd9	-0.5380836
236	0x3f8c64d3	1.0968269
237	0x3f5c72e1	0.8611279
238	0xbe025506	-0.12727746
239	0xbd244548	-0.040105134
240	0xbfb007e6	-1.375241
241	0xbf561d01	-0.83638006
242	0xbfde4881	-1.7365876
243	0xbf1845bd	-0.5948141
244	0xbfa711d8	-1.305232
245	0xbf86c97a	-1.0530236
246	0x3e5b0d65	0.21391828
247	0x3e8f09cd	0.27937165
248	0x3ea61e9e	0.32445234
249	0xbf409e11	-0.7524119
250	0xbf2865f1	-0.6578055
251	0xbf4f7d79	-0.8105083
252	0x3dc741ad	0.097293235
253	0x3ebadc45	0.36496177
254	0xbf271c13	-0.6527721
255	0xbf2d8558	-0.6778159

actor.0.bias f4 [64]
0	0x3df8819c	0.12134096
1	0x3f2781c1	0.65432364
2	0xbe45c707	-0.19314204
3	0x3ecb7e42	0.39744765
4	0x3ebba7ab	0.36651358
5	0x3ee35125	0.44397846
6	0xbf110291	-0.5664454
7	0x3f1276d2	0.57212555
8	0x3f3f0137	0.7461123
9	0xbe84636e	-0.2585711
10	0x3ec55ee4	0.38548958
11	0xbeacedf9	-0.3377531
12	0xbf191d2c	-0.5981014
13	0x3e94b78e	0.2904629
14	0xbeac72d3	-0.33681354
15	0xbf0e1a56	-0.55508935
16	0xbe65b0da	-0.22430745
17	0xbe973bdd	-0.2953786
18	0x3d73d556	0.059529625
19	0xbe57cab4	-0.21073419
20	0xbd2652c9	-0.040606294
21	0xbf394109	-0.7236486
22	0xbdf990f7	-0.12185853
23	0x3e33c494	0.17555457
24	0x3d771265	0.060320277
25	0x3f2e89dc	0.68179107
26	0xbf143c93	-0.5790493
27	0x3ec210d2	0.37903458
28	0x3d4bb4a0	0.049732804
29	0xbdca61e9	-0.09881956
30	0x3ee7f4af	0.45303866
31	0xbde215fc	-0.110393494
32	0xbea6f093	-0.3260542
33	0x3e28ebcc	0.164962
34	0x3ee364a9	0.44412735
35	0xbeae1f83	-0.34008417
36	0x3ed3d084	0.41370022
37	0x3d9ec20d	0.07751856
38	0xbd60626e	-0.05478137
39	0x3f44ba61	0.7684689
40	0xbf22ddef	-0.63619894
41	0xbf0fbf37	-0.56151146
42	0xbd010d65	-0.031506915
43	0x3f06ca7d	0.5265272
44	0xbeb5d845	-0.35516563
45	0x3e226c9b	0.15861742
46	0xbee0f4d8	-0.439368
47	0xbd078b9b	-0.033092123
48	0x3f472f1a	0.77806246
49	0xbe2be69e	-0.16787192
50	0xbba24321	-0.00495185
51	0x3f54d8d9	0.83143383
52	0x3edaa330	0.42702627
53	0xbdebc1b7	-0.115115575
54	0x3f242cbd	0.64130765
55	0xbef7666e	-0.48320335
56	0x3eadfad4	0.3398043
57	0x3ea19098	0.3155563
58	0x3f2b4071	0.66895205
59	0xbe25d104	-0.16193014
60	0xbe9496b3	-0.29021224
61	0x3ec41494	0.3829695
62	0x3e44a9e6	0.19205436
63	0x3da9b4c6	0.08286433

actor.2.weight f4 [64, 64]
0	0x3e9a86ec	0.30181062
1	0x3f0dcc2d	0.5538967
2	0x3e907127	0.28211328
3	0x3ebb26ba	0.36552984
4	0x3e3fab66	0.18717727
5	0xbf0c9641	-0.5491677
6	0x3ebff0da	0.37488443
7	0x3f17c363	0.5928251
8	0xbf406bed	-0.7516468
9	0x3e849381	0.25893787
10	0x3d950f29	0.07278282
11	0x3f5f73c0	0.87285995
12	0xbe131136	-0.14362034
13	0x3d4bb75b	0.04973541
14	0x3e6ac227	0.22925626
15	0xbc9cd532	-0.019144628
16	0xbee8d69a	-0.45476228
17	0x3e1e4ea9	0.15459694
18	0x3f793771	0.9735022
19	0xbf8264f9	-1.0187064
20	0xbe605da5	-0.21910723
21	0xbdce6772	-0.100783244
22	0xbe0bda1e	-0.13657424
23	0xbe36dfc2	-0.17858794
24	0xbfdba349	-1.7159206
25	0x3f010b26	0.50407636
26	0xbf235da5	-0.63814765
27	0xbc01c9bb	-0.007921631
28	0xbefcafd4	-0.49352896
29	0xc0063c85	-2.0974438
30	0x3e299e7a	0.1656436
31	0x3f68e8a7	0.9098
32	0xbfafcd10	-1.3734455
33	0x3d174fde	0.0369414
34	0xbee8aeea	-0.4544595
35	0xbea811db	-0.32826123
36	0xbf1c7f9c	-0.61132216
37	0x3f9e1b65	1.235211
38	0xbf0c5e69	-0.5483156
39	0x3ee45f66	0.44604033
40	0x3f38dae1	0.7220898
41	0x3dbf0ecd	0.09328995
42	0xbf018c63	-0.5060484
43	0x3eb8d7f9	0.36102274
44	0xbf0c6bcd	-0.5485199
45	0x3e80ebc9	0.2517989
46	0xbfc649b9	-1.5491248
47	0x3e6e4d12	0.23271587
48	0x3f8d7f68	1.1054506
49	0xbf2fb0c7	-0.68629116
50	0xbf78c62d	-0.9717739
51	0x3f3c1179	0.7346416
52	0xbf33c809	-0.70227104
53	0xba82f6af	-0.000999173
54	0xbee4fb98	-0.447232
55	0x3ec14ca8	0.37753797
56	0x3f2ea1eb	0.6821582
57	0x3df34e0a	0.11880119
58	0xbd67a26d	-0.056551386
59	0x3ef9b5e5	0.48771587
60	0xbf7a2abb	-0.9772145
61	0x3f85f2e4	1.0464749
62	0xbf1f86a7	-0.6231484
63	0x3e610101	0.21973039
64	0x3f4d9acd	0.8031433
65	0xbd4e0070	-0.050293386
66	0x3e89e8b9	0.26935366
67	0x3ed45720	0.4147272
68	0xbf7ec2cb	-0.9951598
69	0x3f37e8d6	0.71839654
70	0x3ecb4d21	0.39707282
71	0x3f0ed0a6	0.5578712
72	0x3d880fe3	0.06643655
73	0x3f7e0dd5	0.99239856
74	0xbf526887	-0.82190746
75	0xbe14a8b7	-0.14517485
76	0xbebda341	-0.37038615
77	0x3efc2ecf	0.49254462
78	0x3e9dad2e	0.30796188
79	0x3f73b25c	0.9519403
80	0x3fa1312e	1.2593133
81	0xbd6c8675	-0.057745416
82	0x3f9a6c8d	1.2064377
83	0x3e94e813	0.2908331
84	0xbcb0b52f	-0.02157077
85	0xbe3a2cd6	-0.18181166
86	0x3f3f1733	0.74644774
87	0x3e9e0f56	0.30871075
88	0xbd99a18f	-0.07501518
89	0x3f6f6e5d	0.93527776
90	0x3ed94f79	0.42443445
91	0xbd0e95a1	-0.034810666
92	0xbed77125	-0.4207851
93	0x3f623833	0.88367003
94	0x3eaadedf	0.33373162
95	0x3e9bcb3b	0.3042849
96	0xbe87311f	-0.26404664
97	0x3e1e30c3	0.15448289
98	0x3e17bbab	0.14817683
99	0x3fa6b23d	1.3023144
100	0x3ef21e0b	0.47288546
101	0xbf10d6dd	-0.56577855
102	0xbf31f83a	-0.6951939
103	0xbee9402c	-0.45556772
104	0xbe3cb3e9	-0.18428005
105	0x3f26a07a	0.6508862
106	0x3f1ca2da	0.6118599
107	0x3f232c24	0.6373923
108	0x3e20db9a	0.15708771
109	0xbf02131c	-0.5081041
110	0xbf5ae825	-0.85510474
111	0x3fc59122	1.5434916
112	0xbe3fbe52	-0.18724945
113	0x3e29dbd3	0.16587763
114	0x3f88a6ba	1.0675881
115	0xbd9b67b6	-0.07588141
116	0x3ed048cf	0.4068055
117	0xbf0c075a	-0.5469872
118	0x3e75cc19	0.24003638
119	0xbf367290	-0.7126856
120	0x3eb1771b	0.34661183
121	0x3e75c380	0.24000359
122	0xbf8d83d8	-1.105586
123	0xbeb4f360	-0.3534193
124	0xbfe324c4	-1.7745595
125	0xbe1bedf0	-0.15227485
126	0xbe85ced3	-0.26134357
127	0xbf5a7fe8	-0.8535142
128	0xbee876df	-0.4540319
129	0xbd8f18fb	-0.069871865
130	0xbecb9779	-0.39764002
131	0x3c709f7e	0.014686463
132	0x3e572ecc	0.21013945
133	0xbf8f90d3	-1.1216072
134	0x3f68079d	0.90636617
135	0xbf3daf60	-0.74095726
136	0x3f06eae3	0.5270216
137	0xbf3d6cab	-0.7399394
138	0x3f16b71a	0.5887314
139	0xbf8a5d0c	-1.0809646
140	0xbeffc40d	-0.49954262
141	0xbeb0b63a	-0.34514028
142	0xbca6ba98	-0.020352647
143	0xbf7edef1	-0.9955893
144	0xbf05a993	-0.52211875
145	0xbdd01bfa	-0.10161586
146	0xbf1ed84a	-0.6204878
147	0x3f6d8f63	0.92796916
148	0xbf2421c0	-0.64114
149	0xbf150948	-0.5821729
150	0xbf959066	-1.1684692
151	0xbe940534	-0.2891022
152	0x3ead7b48	0.3388312
153	0xbed9b197	-0.42518303
154	0xbf6dce1f	-0.9289264
155	0x3e13b37d	0.14423938
156	0x3ebd7f11	0.37011006
157	0xbf84eb0a	-1.0384228
158	0xbf111619	-0.56674343
159	0x3ec82cf4	0.39096797
160	0xbf80a09c	-1.0049014
161	0xbdc86df8	-0.097866
162	0x3f544478	0.82916975
163	0xbf50140e	-0.812806
164	0xbf1f8c07	-0.6232304
165	0xbb0ec224	-0.0021783197
166	0x3f1cf946	0.6131786
167	0x3d21a504	0.03946401
168	0x3ea5c050	0.32373285
169	0xbe91e81d	-0.284974
170	0xbf20b9ad	-0.6278332
171	0xbf02cbe0	-0.5109234
172	0xbe5573a4	-0.20844895
173	0x3e57e1d2	0.21082237
174	0xbd308a83	-0.043100845
175	0xbf5d9dbb	-0.865688
176	0x3ea0da5e	0.314166
177	0x3e434adb	0.19071524
178	0x3da37854	0.07981935
179	0x3e51b50e	0.20479223
180	0xbf278230	-0.65433025
181	0x3f3ee50a	0.74568236
182	0x3e8e5ba3	0.27804288
183	0x3f4495d9	0.7679115
184	0xbf384eeb	-0.7199542
185	0xbe973d44	-0.2953893
186	0x3f63e59c	0.8902223
187	0x3eff874f	0.4990792
188	0x3f503483	0.81330127
189	0xbedf6319	-0.43630293
190	0xbe9ca63e	-0.30595583
191	0x3ea97d6a	0.33103496
192	0x3f4357e3	0.7630598
193	0x3f66182b	0.8988063
194	0xbde64751	-0.11244071
195	0xbe73ac7e	-0.2379627
196	0xbee9c772	-0.45659977
197	0xbf841cca	-1.0321286
198	0xbf8120a7	-1.008809
199	0x3fa7133a	1.3052742
200	0x3f10ce6d	0.5656498
201	0x3e19e863	0.15030055
202	0x3ee43315	0.44570222
203	0x3f8ced2f	1.1009883
204	0xbf4b7833	-0.79480284
205	0xbf1151d4	-0.56765485
206	0x3f9a7714	1.206759
207	0xbe528ad3	-0.2056077
208	0x3e4a3954	0.19748431
209	0x3f147324	0.5798819
210	0x3f4897e2	0.78356755
211	0xbf892955	-1.0715739
212	0xbecb5a16	-0.39717168
213	0x3e4027ae	0.18765137
214	0xbda52ec9	-0.08065564
215	0x3e25ab7e	0.161787
216	0xbee55422	-0.4479075
217	0xbde29370	-0.11063278
218	0x3f5a858b	0.8536002
219	0x3ededff7	0.43530247
220	0x3e67ab11	0.2262385
221	0xbfc17dc2	-1.5116503
222	0x3d8d60d0	0.06903231
223	0x3ef16408	0.4714663
224	0xbdfc67f3	-0.12324514
225	0xbf032d31	-0.5124083
226	0xbf96d295	-1.1783015
227	0x3e1ec73f	0.15505694
228	0x3f4db85e	0.80359447
229	0x3f2e2af0	0.6803427
230	0xbe895b34	-0.26827395
231	0xbd09f6b2	-0.033682533
232	0xbe0106b3	-0.12600212
233	0x3f820571	1.015791
234	0x3f46ac55	0.7760671
235	0x3ed703d3	0.41995105
236	0xbe4d0951	-0.20023085
237	0xbf002afe	-0.500656
238	0xbf3ef59a	-0.7459351
239	0xbdc98104	-0.09839061
240	0x3f397758	0.7244773
241	0xbeeabf09	-0.45848873
242	0x3e76e5d6	0.24111113
243	0x3f0d4ece	0.5519837
244	0x3ee733da	0.45156747
245	0x3ea255c8	0.3170607
246	0x3f512ed4	0.8171208
247	0xbb751090	-0.0037393905
248	0x3efdf79c	0.49602973
249	0xbea03926	-0.312936
250	0xbd61bd3f	-0.05511212
251	0x3e2ac7a3	0.16677718
252	0x3e40c33c	0.18824476
253	0x3ec3de1b	0.3825539
254	0xbe43cb5f	-0.19120549
255	0x3f28fb74	0.66008687

actor.2.bias f4 [64]
0	0xbe68126b	-0.22663276
1	0xbeff3144	-0.49842274
2	0x3f2aafa7	0.66674274
3	0x3e8842f8	0.26613593
4	0xbda9fbf4	-0.08300009
5	0xbe7eed3c	-0.24895185
6	0xbeeb88ae	-0.46002716
7	0xbf13d47c	-0.577461
8	0x3d393b93	0.04522283
9	0x3d7f0b39	0.062266562
10	0xbeb16f02	-0.34655005
11	0x3ec6e7f3	0.38848838
12	0xbe4802fc	-0.19532388
13	0x3f8275e9	1.0192233
14	0xbf289f3a	-0.6586796
15	0x3e0ef174	0.13959295
16	0xbe16c95a	-0.14725247
17	0x3f25199a	0.6449219
18	0xbd73c4f0	-0.059513986
19	0x3f25ccca	0.6476561
20	0x3d828da6	0.063746735
21	0xbeb5628a	-0.35426742
22	0x3df45998	0.11931151
23	0x3eb7ce44	0.35899556
24	0xbed71a8c	-0.4201244
25	0x3e47eced	0.19523974
26	0xbe94476f	-0.2896075
27	0x3bc2e967	0.005948234
28	0xbea8ce1f	-0.32969758
29	0xbd167545	-0.03673293
30	0xbeb2a267	-0.34889528
31	0x3ebfa8f3	0.37433586
32	0xbf6266de	-0.8843821
33	0xbedf4b97	-0.43612358
34	0x3f849952	1.035929
35	0x3f0ae3ea	0.5425402
36	0xbd491632	-0.049093433
37	0x3e116287	0.14197741
38	0x3e8f708b	0.2801555
39	0xbf3f13fb	-0.7463986
40	0x3f4e31f7	0.8054499
41	0x3eb2e428	0.34939694
42	0x3f6aa69c	0.91660476
43	0x3d838d3c	0.06423423
44	0x3f6ed9c6	0.93301046
45	0x3e044e0b	0.12920396
46	0x3d45ae91	0.048262183
47	0xbee06ac8	-0.43831468
48	0xbe6346e2	-0.22195008
49	0x3f754edb	0.9582345
50	0x3f42a6bb	0.7603566
51	0x3ecf403c	0.40478694
52	0xbeddb2be	-0.43300432
53	0x3ea58044	0.3232442
54	0xbd3b82fd	-0.045779217
55	0x3e60ccc7	0.21953116
56	0xbe9b73fe	-0.30361933
57	0xbe33d5ed	-0.17562075
58	0x3d81ac67	0.06331711
59	0x3f072ce8	0.52802896
60	0xbeef30af	-0.4671683
61	0xbed64474	-0.418491
62	0x3f15e660	0.5855465
63	0xbe5d2905	-0.21597679

actor.4.weight f4 [7, 64]
0	0xbfde746f	-1.7379283
1	0xbfbc3e5e	-1.4706533
2	0x40277cd6	2.6169944
3	0x3b403e27	0.002933392
4	0x3f9c134c	1.2193389
5	0xc011d741	-2.278763
6	0x3f6dee69	0.9294191
7	0x3ea8b141	0.32947734
8	0xbfbcc575	-1.4747759
9	0x3f7bf687	0.98423046
10	0xbfec6c0e	-1.8470476
11	0x3f858c41	1.0433427
12	0xbf85cda0	-1.0453377
13	0x3f846026	1.0341842
14	0xbed6c3d3	-0.41946277
15	0xbfd3fcdc	-1.6561542
16	0xbffe9f32	-1.9892333
17	0x3ea13d32	0.31492
18	0xbf60159a	-0.8753296
19	0x3eb985da	0.36234933
20	0xbe3997e4	-0.18124348
21	0xbfe5da2c	-1.7957206
22	0x3f7beb75	0.98406154
23	0x3f0e5b6d	0.55608255
24	0x3f1811d8	0.5940223
25	0x3f4955ed	0.7864674
26	0xbf8633d0	-1.0484562
27	0xbf864645	-1.0490195
28	0xc0235e66	-2.5526366
29	0xbff53a7b	-1.9158472
30	0xbfbb354d	-1.4625641
31	0xbf7c6d96	-0.98604715
32	0xbf95a572	-1.1691115
33	0x3e035c85	0.12828262
34	0x3e43777f	0.19088553
35	0x4018bb05	2.3864148
36	0x3fa4ea03	1.2883915
37	0xbff865d2	-1.9406073
38	0x3e917b5f	0.28414437
39	0xc0101499	-2.2512572
40	0x3f3c78f9	0.7362209
41	0x3e1972f0	0.14985251
42	0xbf0c8a55	-0.5489858
43	0xbf817537	-1.0113896
44	0x3fbceafb	1.475921
45	0xbff15085	-1.8852698
46	0xbf83c7af	-1.0295314
47	0x3f2c0ee0	0.672102
48	0xbf9dfafd	-1.234222
49	0x3fc73cd5	1.556544
50	0x3fb8f5fa	1.4450066
51	0x3cb849d5	0.022496143
52	0xbfcd8a90	-1.6057911
53	0xbfb6ee7e	-1.4291532
54	0x3f0895fc	0.5335386
55	0x3f9c2abd	1.2200543
56	0x3fd50c0b	1.66443
57	0x3efd7d84	0.49509823
58	0xbf5d62da	-0.8647896
59	0x3f7924f3	0.97322005
60	0x401598bb	2.337447
61	0xc025acfe	-2.5886836
62	0x3feb1c59	1.8368026
63	0x3fd8a0ef	1.6924113
64	0x3fba6719	1.4562713
65	0xbecb6971	-0.39728883
66	0x3e6231ed	0.22089358
67	0x3f590801	0.8477784
68	0xbf3d57fe	-0.7396239
69	0xbeb8f0a5	-0.36121097
70	0x401c2bdd	2.4401772
71	0xbffab312	-1.9585898
72	0xbf9a8483	-1.2071689
73	0x3ff7e460	1.936657
74	0xbf25bb9b	-0.6473939
75	0x3fdf4107	1.744172
76	0xbf3a24a5	-0.72712165
77	0xbf82ddeb	-1.0223974
78	0xbfc85a3d	-1.5652539
79	0xbe87333c	-0.26406276
80	0xbf8dfb48	-1.109231
81	0xc008a651	-2.1351511
82	0x3f6c7c5b	0.9237725
83	0x3fc1fb5d	1.5154835
84	0x3f683981	0.90712744
85	0xbf899db6	-1.0751255
86	0xbf90222c	-1.1260428
87	0x3fd98a2a	1.6995289
88	0xbd99774e	-0.07493459
89	0x4027f35d	2.6242287
90	0xbda4522d	-0.08023486
91	0xbf815a94	-1.0105767
92	0xbf265d86	-0.64986455
93	0xbf1979c0	-0.599514
94	0xbef29525	-0.47379413
95	0x3f5f9fb6	0.87353075
96	0x3f7bab18	0.98307943
97	0xbf9c1d3a	-1.2196419
98	0xc0042072	-2.0644803
99	0x3ea4dc3d	0.32199278
100	0x4015a2cb	2.338061
101	0x3ea1c188	0.31592965
102	0xbf1317a4	-0.5745795
103	0x3f727702	0.9471284
104	0xbf41ff27	-0.75779957
105	0xbfa88686	-1.3166053
106	0xbe033d18	-0.12816274
107	0xbf0e8547	-0.55672115
108	0xbfc1eed0	-1.5151005
109	0xbf8de923	-1.1086773
110	0xbf98a993	-1.192675
111	0x3fcf90bc	1.6216044
112	0xbfaaf5f9	-1.3356315
113	0x3facb30c	1.3492141
114	0xbfaa4a19	-1.3303863
115	0x3fd8a711	1.6925985
116	0x3ea0eb75	0.3142964
117	0x3f6b92ab	0.9202067
118	0x401d2035	2.4550908
119	0x3e63d6c3	0.22249894
120	0x3ec07797	0.3759124
121	0x3f616cb9	0.8805652
122	0xbf956cd8	-1.1673841
123	0xbf303fe3	-0.68847483
124	0x3f43fb70	0.7655554
125	0xbedcacb0	-0.431005
126	0x3fa0541b	1.2525667
127	0x3f5c6deb	0.8610522
128	0xbf84c5b8	-1.0372839
129	0xbf7f6c60	-0.9977474
130	0x3e9d9b22	0.3078242
131	0x3f14281c	0.578737
132	0x3f39d35f	0.7258815
133	0x3ea55a26	0.3229534
134	0x3f8c71c4	1.0972219
135	0xbf1be16b	-0.60890836
136	0xbc4830d3	-0.012218672
137	0xbeea5f38	-0.4577577
138	0x3f229c07	0.6351933
139	0xbf213457	-0.6297049
140	0x3f24df93	0.6440365
141	0xbec03909	-0.37543514
142	0x3ee5a7a7	0.4485447
143	0x3f3ae30f	0.73002714
144	0x3fada9ab	1.3567404
145	0xbf13eac2	-0.57780087
146	0x3f3b40c9	0.7314573
147	0xbf0908b3	-0.535289
148	0xbe1608af	-0.1465175
149	0xbcd3d00c	-0.02585604
150	0xbed6f04b	-0.41980204
151	0x3dae6a1d	0.08516333
152	0x3ed152bd	0.40883437
153	0xbdf39be4	-0.11894968
154	0xbe71dc97	-0.23619305
155	0xbe3c678b	-0.18398874
156	0xbe9302a1	-0.28712943
157	0xbee6e6e8	-0.45098042
158	0xbe33420b	-0.17505662
159	0x3f069c17	0.52581924
160	0xbecc3b97	-0.39889213
161	0x3f0524e7	0.52009434
162	0xbf64ec76	-0.8942331
163	0x3e5b8be3	0.21440081
164	0xbf36afec	-0.71362185
165	0x3c74fa4e	0.014952255
166	0xbf0a6c5c	-0.54071593
167	0x3f1a45c6	0.60262716
168	0xbf9aa080	-1.2080231
169	0xbf143be1	-0.5790387
170	0x3fa2726a	1.2691166
171	0x3f3694bf	0.7132072
172	0xbf823254	-1.0171609
173	0x3eed10b5	0.4630181
174	0x3f160da7	0.5861458
175	0xbf96c86a	-1.1779912
176	0xbf8ac10e	-1.0840166
177	0x3c83a001	0.016067507
178	0xbf5602a3	-0.83597773
179	0x3f05c44e	0.5225266
180	0x3e9abc0f	0.30221602
181	0x3ee380b6	0.44434136
182	0x3f31f5b0	0.69515514
183	0xbeac3365	-0.3363296
184	0xbe61224d	-0.21985741
185	0x3ec32936	0.3811738
186	0x3f34b158	0.70583105
187	0x3f32c9ec	0.6983936
188	0x3cf9b231	0.030480476
189	0xbdcbd903	-0.09953501
190	0x3f3db3f8	0.74102736
191	0x3ed3e0ca	0.41382438
192	0x3f565769	0.8372713
193	0xbfbed5fb	-1.4909052
194	0x3df6cd36	0.1205086
195	0xbd983a9a	-0.07433052
196	0x3fce3f9f	1.6113166
197	0x3e97893e	0.29596895
198	0x3f636364	0.88823533
199	0xbf4e6255	-0.8061879
200	0xbfb1b665	-1.3883787
201	0xbfe6ba4d	-1.8025604
202	0xbecf90be	-0.40540117
203	0xbf3216d1	-0.69566065
204	0xbe886612	-0.26640373
205	0x3d1ae455	0.03781541
206	0x3f98625f	1.190502
207	0xbf21c6f2	-0.6319419
208	0x3e03d99b	0.12875979
209	0xbf75a9af	-0.9596204
210	0x3f1e2097	0.6176848
211	0xbf1aee2c	-0.6051967
212	0x3ee57c86	0.44821566
213	0x3e848b8a	0.2588771
214	0xbcd8eb3c	-0.026479356
215	0x3f992b7c	1.1966395
216	0xbeb96d36	-0.36216134
217	0x3eb359e2	0.35029513
218	0x3f87c971	1.060835
219	0xbee84243	-0.45363054
220	0x3f7bf7a0	0.9842472
221	0x3eb2fc1f	0.34957978
222	0x3de451e3	0.11148431
223	0xbeb3e92d	-0.35138837
224	0x3f5e63c5	0.86870986
225	0x3fb987e2	1.4494593
226	0xbfed6539	-1.8546516
227	0x3e057081	0.13031198
228	0xbe1e257e	-0.1544399
229	0xbe53ed3f	-0.20695971
230	0x3f1c6687	0.61093944
231	0x3e2ee70d	0.17080326
232	0x3ee42521	0.44559577
233	0xbf557750	-0.8338518
234	0x3ed2408a	0.41064864
235	0x3e728c53	0.23686342
236	0xbe9ce9c3	-0.30647096
237	0x3f05c6fb	0.52256745
238	0x3f111125	0.56666785
239	0x3fde4c7c	1.7367091
240	0xbf9f557f	-1.2447966
241	0xbe3daee4	-0.18523747
242	0xbe8d8bbe	-0.27645677
243	0x3c3c53f3	0.011494624
244	0x3f34b983	0.7059557
245	0xbfb8e965	-1.4446226
246	0x3f1a0715	0.60167056
247	0xbeb86cbc	-0.36020458
248	0xbd80b3b5	-0.062842764
249	0x401509f1	2.3287318
250	0x3f0a93ef	0.5413198
251	0x3d331ce5	0.043728728
252	0x3e261fe2	0.162231
253	0xbef179eb	-0.4716333
254	0xbd4609b4	-0.048349097
255	0xbef61fb3	-0.4807106

actor.4.bias f4 [7]
0	0x40016e07	2.0223405
1	0xbd8facd2	-0.07015385
2	0x3dd9cbf7	0.10634606
3	0x3def2907	0.11677747
4	0xbe34cd53	-0.1765645
5	0x3f054e69	0.5207277
6	0x3f7be9d8	0.9840369

critic.0.weight f4 [64, 20]
0	0xbe60ad64	-0.21941143
1	0x3f2f6848	0.68518496
2	0xbe9a8311	-0.3017812
3	0x3e053ca3	0.13011412
4	0xbedcafaf	-0.43102786
5	0x3f028eb6	0.5099901
6	0x3f80e326	1.006932
7	0xbf6387ab	-0.8887889
8	0xbfc07a0c	-1.5037246
9	0xbe8fc509	-0.28080013
10	0xbd741ce1	-0.059597854
11	0xbe35bdbe	-0.17748162
12	0x4014c4b0	2.3245049
13	0xbf1a7282	-0.60330975
14	0xbf5baafc	-0.85807776
15	0x3fe65da4	1.7997327
16	0xbd901695	-0.07035557
17	0xbfe85623	-1.8151287
18	0x3d5ffdab	0.054685276
19	0xbdfaa692	-0.12238802
20	0x3d66f417	0.056385126
21	0xbda98c71	-0.0827874
22	0xbe0f6ab1	-0.14005543
23	0xbf253621	-0.6453572
24	0xbf1ccbe9	-0.6124864
25	0xbf035c7d	-0.51313
26	0x400e96ad	2.2279465
27	0x40542f24	3.3153772
28	0x40453e6d	3.0819352
29	0x3fed84d3	1.855616
30	0x3fd38f98	1.6528196
31	0x3fbf5809	1.4948741
32	0x3da89658	0.08231801
33	0x3fb17e6b	1.3866705
34	0x4011fc9a	2.2810426
35	0xbef9e5f7	-0.48808262
36	0x3f52e5c3	0.8238184
37	0x3fae2a71	1.3606702
38	0x3f0effbe	0.5585898
39	0xbed842f7	-0.4223859
40	0x3efab5c6	0.48966807
41	0x3f3a298d	0.7271965
42	0xbe3f6886	-0.18692216
43	0x3e5f8168	0.21826708
44	0x3f33b789	0.7020193
45	0x3e41bf9b	0.18920748
46	0xbff1dda4	-1.8895764
47	0xbe4cf7c5	-0.20016392
48	0xbecb3af9	-0.3969343
49	0x3f327837	0.69714683
50	0x3f6b885a	0.9200493
51	0x3f4c8eb3	0.7990524
52	0x3f7f0c0b	0.9962775
53	0x40290309	2.6408103
54	0x3e8ac91d	0.27106562
55	0x401112cb	2.266772
56	0x3f889c86	1.0672767
57	0x3fa54857	1.2912701
58	0x3ea7f9c7	0.32807752
59	0x3f061849	0.52380806
60	0x3f978fe6	1.1840789
61	0x3efa2461	0.4885588
62	0x3feba2df	1.8409079
63	0xbf5fc11b	-0.8740403
64	0xbee8c932	-0.45466
65	0xbf3bcb8e	-0.73357475
66	0x411d6389	9.836801
67	0x40d8f71a	6.780164
68	0x40bc935d	5.8929887
69	0x3ed788a6	0.42096442
70	0x3eb2f90b	0.3495563
71	0x3f2bbb62	0.670828
72	0x3f06e598	0.5269408
73	0xbf53237a	-0.8247601
74	0xbf41ff78	-0.7578044
75	0xc007a144	-2.1192179
76	0xbc16215a	-0.009163225
77	0xbf32d045	-0.69849044
78	0xbe4c25d0	-0.199363
79	0xbe7a844c	-0.2446453
80	0x3eb10eeb	0.34581694
81	0xbf069c50	-0.52582264
82	0x3e3904d8	0.18068254
83	0x3eb8a98b	0.3606685
84	0x3ebc9dc5	0.3683912
85	0xbe3f82e2	-0.18702272
86	0xc0a1810e	-5.0470037
87	0xc0a3a447	-5.1138034
88	0xc0a58107	-5.1720004
89	0xbfce8177	-1.613326
90	0xbf75c92b	-0.9601008
91	0xbebe230d	-0.37136117
92	0x3e96bf0a	0.29442626
93	0xbf855206	-1.0415657
94	0x3ebf9f66	0.374263
95	0x3f5fbe72	0.8739997
96	0x3f441569	0.7659517
97	0xbf00df60	-0.50340843
98	0xbbe0b511	-0.0068575223
99	0x3d4d203c	0.05007957
100	0x3fcb82d7	1.5899304
101	0x3f95320b	1.1655897
102	0x3f382bb4	0.71941686
103	0xbf181d2f	-0.5941953
104	0xbfac0de5	-1.344174
105	0xbff2bc2f	-1.8963679
106	0xbfd94078	-1.6972799
107	0x3dda14c2	0.106484905
108	0x3fc8481a	1.5647004
109	0x3fb14829	1.3850147
110	0x3fcb4a89	1.5882121
111	0x3fad7812	1.3552268
112	0xbdbddf23	-0.092710756
113	0x3fe292fc	1.7701106
114	0x3eafc3e2	0.34329134
115	0x3e189462	0.14900354
116	0x3e72449d	0.23658986
117	0xbea51d19	-0.32248762
118	0x3e1cb25f	0.15302418
119	0x3f182439	0.5943027
120	0xbfd06a2e	-1.6282403
121	0xbf88fac2	-1.0701525
122	0x3da5f27c	0.08102891
123	0xbf15ab2c	-0.5846431
124	0xbf6ca206	-0.9243473
125	0xbfd60874	-1.672133
126	0xbfbfda95	-1.4988581
127	0x3f0be923	0.54652613
128	0xbec25f11	-0.37963155
129	0xbe919b2c	-0.284387
130	0xbf31b0f5	-0.6941064
131	0xbf769a28	-0.96328974
132	0xbfdb8554	-1.7150064
133	0xc0016779	-2.0219405
134	0xbfbb8b76	-1.4651935
135	0xbfa175b3	-1.2614044
136	0x3f2e31d8	0.68044806
137	0x3ec0e070	0.37671232
138	0xbe172d12	-0.14763287
139	0x3dcacb1a	0.0990202
140	0xbf3fab2f	-0.7487058
141	0x3e2dad6b	0.16960685
142	0x3f21fc9c	0.63276076
143	0xbeca12f5	-0.39467588
144	0xbe6baa9d	-0.23014303
145	0xbf9fe82b	-1.2492727
146	0x407fbe43	3.9959877
147	0x407af3cc	3.9211302
148	0x407af16e	3.9209857
149	0x3fb0eb1c	1.382175
150	0x3f49ab53	0.78777045
151	0x3ebd36ce	0.36955875
152	0xbf382f8d	-0.71947557
153	0xbd95594a	-0.07292421
154	0xbfcb8c30	-1.5902157
155	0xbdd4f338	-0.10397953
156	0xbfb20de1	-1.3910486
157	0xbede9d57	-0.43479416
158	0x3ea8b169	0.32947853
159	0x3e8138a7	0.25238535
160	0x3eae7c06	0.34078997
161	0x3eb25072	0.34827
162	0x3f1d4116	0.6142744
163	0xbf2ccf43	-0.67503756
164	0xbe44d5f8	-0.19222248
165	0xbf6cd845	-0.925175
166	0xbed42b13	-0.41439113
167	0xbe56e240	-0.20984745
168	0xbddf11e6	-0.10892086
169	0x3f8c24bf	1.0948714
170	0x3fa56095	1.29201
171	0x3fa6c6a4	1.302937
172	0xbf85908b	-1.0434736
173	0x3f85cad3	1.0452522
174	0x3f5cca61	0.86246306
175	0xbfa5c89e	-1.2951849
176	0x3e58d074	0.21173269
177	0x3e6b7477	0.22993647
178	0x3f47e96c	0.7809055
179	0xbf302969	-0.68813187
180	0x4035170f	2.8295324
181	0x4008923b	2.1339252
182	0x40464700	3.0980835
183	0x3f8a0572	1.0782912
184	0x3faa16c6	1.32882
185	0x3f22409b	0.6337983
186	0x3f0a678b	0.54064244
187	0xc0751f4b	-3.830035
188	0xc0cfa60a	-6.4890184
189	0xbdcb5119	-0.099275775
190	0x3e6a6573	0.22890262
191	0x3f0a8d2a	0.5412165
192	0xbf1354e4	-0.5755141
193	0x400202d9	2.0314238
194	0xbf80b7fd	-1.0056149
195	0xbdcfa6b7	-0.1013922
196	0x3f3f5fc8	0.74755526
197	0xbf2647cc	-0.64953303
198	0x3f12c836	0.5733675
199	0xbe025423	-0.12727408
200	0xbfd1da0c	-1.6394668
201	0x3db9d41e	0.09073661
202	0xbf418ea5	-0.75608283
203	0x3e2acfad	0.16680785
204	0x3f712e93	0.9421169
205	0xbe62921b	-0.22126047
206	0x3fe608f1	1.7971479
207	0xbeb8a395	-0.36062303
208	0xbf2e09ad	-0.67983514
209	0xbf5bc88b	-0.8585288
210	0xbf3a7ba1	-0.7284489
211	0xbedd913a	-0.43274862
212	0xbef3e71a	-0.47637254
213	0x3f4679c1	0.7752953
214	0xbec4430d	-0.38332406
215	0xbdad8bc8	-0.08473927
216	0xc042addf	-3.0418622
217	0xc044f380	-3.077362
218	0x3cbb1c4f	0.022840647
219	0xbe9ed7f5	-0.31024137
220	0xbe30c75e	-0.17263553
221	0x3e7a9353	0.24470262
222	0xbc89d453	-0.016824877
223	0xbb52555e	-0.003209434
224	0xbeb48bd0	-0.35262918
225	0xbe8b1563	-0.27164754
226	0x3f5a77e8	0.8533921
227	0x40776534	3.865552
228	0x40b3c1e2	5.6174173
229	0x3f75af25	0.95970374
230	0x3f4424b1	0.76618487
231	0x3e8de9cc	0.27717435
232	0x403c9773	2.9467437
233	0x4077f72b	3.874461
234	0xbebc2403	-0.36746225
235	0x3e95c8eb	0.2925485
236	0x3e269064	0.16266018
237	0x3f7a0869	0.9766908
238	0xbd0e297e	-0.03470754
239	0x3e807d6d	0.25095692
240	0x3ebad5bf	0.364912
241	0x3ec20e24	0.37901413
242	0x4038e62a	2.889048
243	0xbeb567cf	-0.35430762
244	0xbe738ed5	-0.23784955
245	0x3e167bc7	0.14695655
246	0x412db92b	10.857707
247	0x40f5a801	7.6767583
248	0x40d06b4d	6.5130982
249	0x3f4a8f42	0.79124844
250	0xbded977a	-0.116011575
251	0x3cc33ba5	0.023832152
252	0xbe63b7f9	-0.22238149
253	0x3f36ac38	0.71356535
254	0xbf4715f4	-0.7776787
255	0xbf05a4f9	-0.52204853

critic.0.bias f4 [64]
0	0x3daf11f9	0.0854835
1	0x3f9c09fb	1.2190546
2	0x3f5774b0	0.84162426
3	0xbeb3f3c0	-0.35146904
4	0x3e68e127	0.22742139
5	0x3f82fadf	1.023281
6	0xbf0645ea	-0.5245043
7	0xbe2f5981	-0.17123987
8	0x3f890b57	1.0706586
9	0x3f8012b5	1.0005709
10	0xbd2f0864	-0.04273261
11	0xbf09051b	-0.53523415
12	0xbf73aeb2	-0.9518844
13	0x3a3cc3b2	0.0007200792
14	0xbf345627	-0.7044396
15	0x3f755d46	0.9584545
16	0xbe440620	-0.19142962
17	0x3dee4ce8	0.116357625
18	0xbf8367b1	-1.0266019
19	0xbcf72959	-0.030171083
20	0xbeb7f526	-0.3592922
21	0x3e161618	0.14656866
22	0xbf76d842	-0.96423733
23	0x3e81075d	0.2520093
24	0xbedd5ab4	-0.43233263
25	0xbe8de0f6	-0.27710694
26	0xbc93eb19	-0.01805644
27	0xbfdc5e14	-1.721621
28	0xbf7ac929	-0.97963196
29	0x3eb6a7bf	0.35674855
30	0xbea9fc4e	-0.33200306
31	0xbeea80f8	-0.4580152
32	0xbf913c06	-1.1346443
33	0xbe92af05	-0.28649154
34	0x3ec3313e	0.38123506
35	0x3f2999b8	0.6625018
36	0xbf773aa3	-0.9657385
37	0xbf24f097	-0.6442961
38	0xbf48e897	-0.78479904
39	0xbe6df161	-0.2323661
40	0x3f7c29c7	0.9850125
41	0x3eec97c5	0.4620954
42	0xbf137f58	-0.57616186
43	0x3f4d07c3	0.8008997
44	0xbf094185	-0.536156
45	0x3eec959d	0.46207896
46	0xbf4b0412	-0.79303086
47	0xbde9b23e	-0.1141095
48	0x3f56165e	0.8362788
49	0xbe757237	-0.23969351
50	0xbe1f5b11	-0.15562083
51	0xbe01b5e4	-0.12667042
52	0x3ea59d86	0.32346743
53	0x3f8b83ae	1.089956
54	0x3f8b2b01	1.0872499
55	0xbe07afcd	-0.13250656
56	0x3fb902b8	1.4453955
57	0x3ddbe2eb	0.107366405
58	0x3f227244	0.63455606
59	0x3cec72a7	0.028863264
60	0x3da45d6a	0.0802563
61	0x3db2a63a	0.087231115
62	0xbd769bbb	-0.06020711
63	0xbf162ea2	-0.58664906

critic.2.weight f4 [64, 64]
0	0x3f52d871	0.82361513
1	0xbe4a4f82	-0.19756892
2	0x3f82ede4	1.0228848
3	0xbfa7a789	-1.3098003
4	0xbf432733	-0.7623169
5	0xbd3e470d	-0.046454478
6	0xbea4b1a4	-0.3216678
7	0xbe950dd2	-0.29112107
8	0x3f53b23c	0.8269384
9	0xc01b69a7	-2.4283235
10	0xbf070925	-0.5274833
11	0x3c36f173	0.011165964
12	0x401123a3	2.2678
13	0xbeda974d	-0.42693558
14	0xbe1ea46a	-0.15492406
15	0xbf72b5a3	-0.94808406
16	0x3e96235c	0.29323852
17	0x3f779363	0.9670927
18	0x3f1353e1	0.57549864
19	0xbd5ff250	-0.054674447
20	0x3e6c2bdb	0.23063605
21	0xbd05e3ac	-0.032687828
22	0xbf17866d	-0.5918949
23	0xbf028d56	-0.5099691
24	0x3fde604d	1.7373139
25	0x3e1e7245	0.15473278
26	0x3e51a25e	0.20472094
27	0x3f791f8a	0.9731375
28	0xbf2c644b	-0.67340535
29	0x3eee600b	0.4655765
30	0xbee13ce0	-0.43991756
31	0x3f8cbbe7	1.0994843
32	0x3f5e4e31	0.8683806
33	0x3f135b0d	0.5756081
34	0xbf64f931	-0.89442736
35	0x3f52ab69	0.822928
36	0x3e9c6570	0.3054614
37	0x3f2c4e8a	0.6730734
38	0x3dd88fc6	0.105742976
39	0x3ccf7425	0.025323937
40	0x3f8c55d2	1.096369
41	0x3d6eeebc	0.058333144
42	0x3fc61368	1.5474672
43	0xbf5b7ba0	-0.8573551
44	0xbe65996e	-0.2242181
45	0xbf857a68	-1.042798
46	0x3f502d28	0.813189
47	0x3f01da0b	0.5072333
48	0xc009786a	-2.1479745
49	0xbe0ba439	-0.13636865
50	0x3f8df466	1.109021
51	0x3f3f16f4	0.746444
52	0x3e01c052	0.1267102
53	0xbea479c6	-0.32124156
54	0x3f8ebd08	1.1151438
55	0xbf285826	-0.65759504
56	0xbf82465c	-1.0177722
57	0x3f3ca64c	0.7369125
58	0xbfafadd0	-1.3724918
59	0xbf122582	-0.5708848
60	0x3fb4f87e	1.4138334
61	0x3ebbaf98	0.36657405
62	0xc014ae76	-2.3231483
63	0x3f333acc	0.7001159
64	0x3e781e88	0.24230397
65	0x3ae7ddd5	0.0017690012
66	0xbfa209b8	-1.2659216
67	0x3eab509a	0.33459932
68	0xbf2a6229	-0.6655603
69	0xbe968c7c	-0.29404056
70	0xbeb74666	-0.35795897
71	0x3fc4c178	1.5371542
72	0x3eabcfb1	0.33556893
73	0xbf6762ac	-0.90384936
74	0x3e227ea7	0.15868627
75	0x3e9b511d	0.30335322
76	0xc001d730	-2.028759
77	0xbf79c8dc	-0.9757211
78	0x3e441da9	0.1915194
79	0xbff0fe70	-1.8827648
80	0x3fa186ba	1.261924
81	0xbf3a6136	-0.7280458
82	0x3e1ff698	0.15621412
83	0x3e95b819	0.29242018
84	0x3f90ab8d	1.1302353
85	0x3fb378c7	1.4021233
86	0xbf72839e	-0.9473208
87	0xbf29b2d9	-0.66288525
88	0x3dbc683d	0.091995694
89	0xbf9e5154	-1.2368569
90	0xbf3acfaf	-0.7297315
91	0xbf4a82f7	-0.79106086
92	0xbfc4347d	-1.5328518
93	0x3f8cb922	1.0993998
94	0x3fcbcaaa	1.5921223
95	0x3fbbd541	1.4674455
96	0xbac81933	-0.0015266299
97	0xbee15461	-0.44009688
98	0x3f97217d	1.1807095
99	0x3f6bf65c	0.9217279
100	0xbf0e52fd	-0.5559538
101	0x3f94a882	1.1613925
102	0x3f3806d5	0.71885425
103	0xbf1f08ed	-0.62122995
104	0x3b032fcf	0.002001751
105	0x3f662030	0.89892864
106	0xbe1c66e3	-0.15273623
107	0xbf8e926d	-1.1138436
108	0xbea5c059	-0.32373312
109	0xbf346da7	-0.70479816
110	0x3f8b40b2	1.0879118
111	0xbf8f2a0e	-1.1184709
112	0xc00c7dee	-2.1951861
113	0x3e891d13	0.26779994
114	0x3f80540f	1.0025653
115	0xbe02a389	-0.12757696
116	0xbea4799a	-0.32124025
117	0x3f31bc84	0.69428277
118	0x3e6c1bf4	0.23057538
119	0x3ff88761	1.9416314
120	0x3fa5bd74	1.2948442
121	0x3e016aa7	0.12638341
122	0xbf872aa2	-1.0559886
123	0xbe1eb45c	-0.15498489
124	0xbe6e1855	-0.2325147
125	0x3efe2bed	0.49642888
126	0xbe97977c	-0.2960776
127	0xbec788a9	-0.3897145
128	0xbf6dc7fb	-0.9288327
129	0x3f5b8081	0.85742956
130	0xbe5894bf	-0.21150492
131	0x3f570419	0.8399063
132	0xbf03bd44	-0.5146067
133	0x3fbe2722	1.4855692
134	0xbf6972e9	-0.91190964
135	0x3e434753	0.19070177
136	0x3e6dcb77	0.23222147
137	0xbdb0ebcf	-0.08638727
138	0xbf82fe5f	-1.0233878
139	0x3f0fbd9d	0.561487
140	0xbf788db9	-0.9709125
141	0x3e62428b	0.22095697
142	0xbf677011	-0.90405375
143	0x3ed59e8b	0.4172252
144	0xbe8c6477	-0.274204
145	0xbf636798	-0.88829947
146	0xbfafdf4d	-1.3740021
147	0x3e1c1560	0.15242529
148	0x3c48de15	0.01225998
149	0xbf167b89	-0.5878225
150	0xbe70aabe	-0.23502633
151	0xbe0db054	-0.13836795
152	0xbef51713	-0.47869167
153	0xbf499bb5	-0.78753215
154	0xbef0eec4	-0.47057164
155	0xbe7cbcc1	-0.24681379
156	0x3ef6d1fd	0.48207083
157	0xbdde2a0d	-0.10847864
158	0x3f695d8d	0.9115837
159	0xbdca4073	-0.09875574
160	0xc010ab01	-2.2604373
161	0xbf577d63	-0.841757
162	0x3f7add05	0.979935
163	0x3eab73bb	0.33486733
164	0x3e92db42	0.28682905
165	0x3f44d9aa	0.7689463
166	0x3ec223ed	0.37918034
167	0xbd968a46	-0.07350592
168	0x3e887e4c	0.26658857
169	0x3f10640f	0.5640268
170	0x40252297	2.5802362
171	0xbeeab7db	-0.45843396
172	0xbeb1b6a4	-0.34709656
173	0x3eddd4fb	0.43326554
174	0x3ed812da	0.42201883
175	0x3fcc74a3	1.5973095
176	0x3f25bbc7	0.6473965
177	0xbe88169f	-0.2657976
178	0x3fa37fb3	1.2773346
179	0x3f68cfba	0.90941966
180	0xbf2efa65	-0.6835082
181	0x3faed4d8	1.3658705
182	0x3ec6c8f2	0.38825184
183	0xbf2fb63e	-0.68637455
184	0x3f3d08b0	0.7384138
185	0x3def6640	0.116894245
186	0xbeaf104f	-0.3419213
187	0xbede81e2	-0.43458468
188	0x3f6a6e65	0.915747
189	0x3f204df0	0.62618923
190	0x3f488f57	0.7834372
191	0xbe57df6f	-0.21081327
192	0xbf366fe1	-0.71264464
193	0x3dbbd178	0.09170812
194	0xbe50c305	-0.20386894
195	0xbd896592	-0.06708826
196	0x3faa1747	1.3288354
197	0xbe293559	-0.16524257
198	0x3e892e12	0.2679296
199	0xbfc005b2	-1.5001738
200	0xbdb0ddeb	-0.086360775
201	0xbf0911f5	-0.53543025
202	0xbe0aaafc	-0.13541788
203	0xbf025b73	-0.5092079
204	0xc00a4db4	-2.1609926
205	0x3fc7a806	1.5598152
206	0x3e7956e6	0.24349555
207	0x400a92c4	2.1652079
208	0xbf03b270	-0.5144415
209	0x3f3b0dab	0.7306773
210	0xbfe58a0d	-1.7932755
211	0x3f6bfa75	0.9217904
212	0x3fa6f226	1.3042648
213	0x3f97dbd2	1.1863959
214	0x3f895e17	1.0731839
215	0x3d25972a	0.040427364
216	0xbede60a1	-0.43433097
217	0xbdc4afae	-0.09603821
218	0xbf307227	-0.6892418
219	0xbdc38cec	-0.09548363
220	0xbf879791	-1.0593129
221	0xbfcd34ea	-1.6031773
222	0x3f94d402	1.16272
223	0x3f0cae45	0.54953414
224	0xbfd56ffe	-1.6674802
225	0xbf773da5	-0.9657844
226	0x4027186c	2.6108656
227	0x3e8ebd01	0.27878574
228	0xbe17dbe1	-0.14829971
229	0x3cd39121	0.025826039
230	0xbf53920a	-0.8264471
231	0x3def2225	0.116764344
232	0x3f969799	1.1765014
233	0xbf272dbb	-0.65304154
234	0xbeac2398	-0.33620906
235	0xbf7a885f	-0.97864336
236	0xbd4d0850	-0.050056756
237	0x3f37b0f7	0.717544
238	0xbe8d51dc	-0.27601516
239	0xbf21628b	-0.6304099
240	0x3e877ffe	0.26464838
241	0xbf7bc811	-0.9835215
242	0xbfd4fc80	-1.6639557
243	0x3eca8ee7	0.3956215
244	0xbf60ca34	-0.8780854
245	0xbf31ef9b	-0.69506234
246	0x3dbf99b6	0.0935549
247	0xbfd4957f	-1.6608123
248	0xbe7b52a3	-0.24543242
249	0x3f201025	0.62524635
250	0x3d911e00	0.070858
251	0xbf3d410d	-0.73927385
252	0x3f731ff7	0.9497065
253	0xbee8854a	-0.4541419
254	0x3ec54310	0.38527727
255	0xbfc02369	-1.5010806

critic.2.bias f4 [64]
0	0x3d95e1d0	0.07318461
1	0x3dd83dec	0.10558686
2	0x3fabb94f	1.3415927
3	0x3eb42518	0.3518455
4	0xbfb78461	-1.4337274
5	0x3ebeabb1	0.37240365
6	0xbf75297b	-0.9576642
7	0x3e89f300	0.26943207
8	0x3f0c3e80	0.5478287
9	0x3f37ca0a	0.7179266
10	0xbf0b3dd2	-0.54391205
11	0x3f98835e	1.191509
12	0x3ec978fe	0.39350122
13	0x3ee5bf5b	0.44872555
14	0xbfc74829	-1.5568897
15	0x3f1c0121	0.6093922
16	0x3eba346b	0.36368117
17	0xbef3cdd8	-0.47617984
18	0xbf0b92ee	-0.5452107
19	0xbe520d77	-0.20512949
20	0x3fbd70c7	1.4800042
21	0x3f790d6d	0.9728611
22	0x3f2044c1	0.6260491
23	0xbebf5200	-0.3736725
24	0xbeddedbe	-0.43345445
25	0x3ea9b8e2	0.33148867
26	0x3fa411e8	1.2817965
27	0x3ebc388a	0.36761886
28	0x3e74b61b	0.23897593
29	0xbe748b4b	-0.23881261
30	0x3eb51cc9	0.35373524
31	0x3ff30110	1.8984699
32	0x3ee1372e	0.4398741
33	0xbef6918a	-0.48157912
34	0x3eebbafd	0.46041098
35	0xbf40a6ef	-0.7525472
36	0xbe6d5db4	-0.23180276
37	0xbf10fb89	-0.5663381
38	0x3c625dad	0.013816279
39	0xbe3c991f	-0.18417786
40	0xbdfb8848	-0.12281853
41	0xbebc0de2	-0.36729342
42	0x3f485a0a	0.7826239
43	0xbf6b9c89	-0.9203573
44	0xbf87cfad	-1.0610253
45	0x3c3bf553	0.011472064
46	0x3f5aa039	0.8540073
47	0xbf250954	-0.6446736
48	0xbf39de2b	-0.72604626
49	0x3efc7b9c	0.49313056
50	0x3f0c253f	0.54744333
51	0xbf26d2e1	-0.65165526
52	0x3de5df1f	0.112241976
53	0x3f3162b7	0.6929125
54	0x3efba41d	0.49148646
55	0xbec9a1f5	-0.39381376
56	0xbf059329	-0.52177674
57	0x3f552d30	0.83272076
58	0x3e63161f	0.22176407
59	0xbea440c2	-0.32080656
60	0xbe712e9c	-0.23552936
61	0xbd1ac704	-0.037787452
62	0x3f2ed5d8	0.6829505
63	0xbf28b6d9	-0.65904003

critic.4.weight f4 [1, 64]
0	0x3ec26ef6	0.3797528
1	0x3ec06388	0.37575936
2	0x3e066133	0.13123016
3	0x3eafbbba	0.34322912
4	0xbece4353	-0.4028574
5	0x3ea22cf5	0.31674924
6	0xbeb5543d	-0.3541583
7	0x3ed923c8	0.4241011
8	0x3ec2b97f	0.38032147
9	0xbf035e5b	-0.5131585
10	0x3d923687	0.071393065
11	0x3e9eddd5	0.3102862
12	0xbe9047fc	-0.2817992
13	0xbeb6d323	-0.3570796
14	0x3ee1aadb	0.44075665
15	0xbee4f5b0	-0.44718695
16	0xbe90faa2	-0.28316218
17	0xbea22699	-0.31670073
18	0x3ef61841	0.4806538
19	0x3e92be87	0.28660986
20	0x3ed12b01	0.40853122
21	0x3ebabb73	0.36471137
22	0xbf113cec	-0.56733584
23	0xbf14913e	-0.5803412
24	0xbea22fa1	-0.31676963
25	0xbed7f734	-0.4218079
26	0xbef4e7f0	-0.47833204
27	0x3ea6d0bf	0.32581136
28	0x3ebb1638	0.3654039
29	0xbee93ff8	-0.45556617
30	0xbebc74a9	-0.36807755
31	0x3e6a62aa	0.228892
32	0x3eba4bc0	0.36385918
33	0x3e3830d4	0.17987376
34	0xbef00191	-0.46876195
35	0xbe02de5d	-0.12780137
36	0xbedbc94b	-0.42927012
37	0xbeb81f87	-0.35961553
38	0x3e948351	0.29006436
39	0xbf0e4fee	-0.55590713
40	0x3ee27846	0.44232386
41	0x3ebde652	0.37089783
42	0x3f0d49f8	0.5519099
43	0xbeef2119	-0.4670494
44	0xbee74991	-0.45173314
45	0xbe8f12e2	-0.27944094
46	0xbec1ccd2	-0.37851578
47	0xbf05bea3	-0.52244014
48	0xbe896619	-0.26835707
49	0x3ee8296b	0.453441
50	0x3ed2e53b	0.41190514
51	0xbf1c9871	-0.6117011
52	0x3e84e8eb	0.25958952
53	0xbef64e22	-0.48106486
54	0xbeccde3d	-0.40013304
55	0xbec61cc4	-0.3869382
56	0x3eb81f3b	0.35961327
57	0x3e3c1f0f	0.18371223
58	0x3ea21679	0.3165777
59	0xbed197b8	-0.40936065
60	0xbe77fee4	-0.24218327
61	0x3ec74579	0.3892019
62	0xbefa080d	-0.48834267
63	0x3ee08413	0.43850765
