Model Results/ppo_sentiment_AMC2021-09-011999.pth (torch, 50577 bytes, 11 tensors)

actor.0.weight f4 [64, 20]
0	0xbf94422e	-1.1582696
1	0xbf73f44f	-0.9529466
2	0xbec40f6d	-0.3829302
3	0xbeb04af0	-0.34432173
4	0xbd91dbb1	-0.07121981
5	0x3ef505cc	0.47855985
6	0x3ec5ca8f	0.38631102
7	0x3e6da089	0.2320577
8	0xbd9d2e0c	-0.07674798
9	0x3ea305f5	0.31840482
10	0x3f2f110a	0.68385375
11	0x3ecd8065	0.4013702
12	0x3f81e054	1.0146585
13	0xbf2d4efe	-0.6769866
14	0x3f9664fa	1.1749566
15	0x3f1cced0	0.6125307
16	0x3f66b1a8	0.9011483
17	0x3f7f2387	0.99663585
18	0x3e89cb9d	0.26913157
19	0x3e450431	0.1923988
20	0x3f6ec6cd	0.93272096
21	0x3f55cdf9	0.83517414
22	0x3ef9b6af	0.4877219
23	0x3f99b4e7	1.2008332
24	0x3f8c5fc4	1.0966725
25	0x3f688a52	0.9083606
26	0x40306ca6	2.7566314
27	0x3fd3a991	1.6536123
28	0x3f9d6d59	1.2298995
29	0xbd006ee5	-0.031355757
30	0xbdceff44	-0.10107282
31	0xbe20c15e	-0.15698764
32	0x3f7b67cc	0.98205256
33	0x3e86135d	0.26186648
34	0xbeb2bbd9	-0.3490894
35	0xbdf238b1	-0.11827219
36	0x3f37c9fe	0.7179259
37	0xbf6a1601	-0.91439825
38	0xbe278dc7	-0.16362678
39	0x3e017ad7	0.12644516
40	0x3e38d3a5	0.18049486
41	0x3ee879e9	0.4540551
42	0x3f266d29	0.65010315
43	0x3e1f0f66	0.15533218
44	0x3e99b4ad	0.30020657
45	0x3e6e65db	0.23281042
46	0x404b1869	3.1733649
47	0x3f7988be	0.97474277
48	0x3e732775	0.2374552
49	0x3e941ba1	0.2892733
50	0x3e14b423	0.14521842
51	0xbd629eda	-0.055327274
52	0x3f339662	0.7015134
53	0xbf6db067	-0.92847294
54	0x3dd09ee7	0.10186558
55	0x3f127314	0.57206845
56	0x3ed12500	0.4084854
57	0x3eda4981	0.42634204
58	0x3db9e234	0.09076348
59	0xbec017d7	-0.37518188
60	0xbeaf206c	-0.34204423
61	0x3eda27af	0.426084
62	0x3e4d663d	0.20058532
63	0xbe77a571	-0.24184205
64	0x3ea9d135	0.33167425
65	0xbd7c2b09	-0.06156448
66	0x4031482f	2.7700307
67	0x3fc951e6	1.5728118
68	0x3f12534b	0.57158345
69	0x3f0015fd	0.5003355
70	0x3e8016af	0.25017306
71	0x3edb8032	0.42871243
72	0xbf7b07e5	-0.9805892
73	0xbfbd7c28	-1.4803514
74	0x3d8f9960	0.07011676
75	0xbdf808d4	-0.12111059
76	0xbde621be	-0.112369046
77	0x3edbb130	0.4290862
78	0x3e7e651e	0.2484326
79	0xbc592825	-0.0132542
80	0xbebe71a3	-0.37196073
81	0xbffc8b5c	-1.9730029
82	0xbebb4c83	-0.3658181
83	0xbee3945e	-0.44449133
84	0xbe87edf8	-0.26548743
85	0xbeffd778	-0.49969077
86	0xbe49ed87	-0.19719516
87	0x3f1c0519	0.6094528
88	0x3f2a2dc2	0.6647607
89	0x3c8c5bf1	0.017133685
90	0xbe0f5cf2	-0.140003
91	0xbd1c0355	-0.038089115
92	0x3f6086a0	0.8770542
93	0x3ea95c46	0.33078212
94	0x3e059821	0.13046314
95	0xbee429fd	-0.44563285
96	0x3ebb5c9b	0.3659409
97	0xbf98f160	-1.1948662
98	0x3d157008	0.036483794
99	0x3ed24d88	0.41074777
100	0xbf51bd14	-0.81929135
101	0xbf84d5e8	-1.0377779
102	0xbffc0577	-1.9689168
103	0xbf31a9ae	-0.69399536
104	0xbf0ee0ca	-0.5581175
105	0xbf3716ea	-0.7151934
106	0xc07e1684	-3.9701242
107	0xc01fb69e	-2.495521
108	0xbfe1c42e	-1.7637994
109	0xbeaa9b02	-0.33321387
110	0xbeb2edc0	-0.34947014
111	0xbe91fa5b	-0.2851132
112	0xbf2f94a1	-0.68586165
113	0xbef3b220	-0.47596836
114	0x3f08f43d	0.5349768
115	0xbf59797d	-0.84951
116	0x3de1d231	0.11026419
117	0x3f3aa135	0.7290223
118	0x3eb1d408	0.3473208
119	0xbe38ec9c	-0.1805901
120	0xbf72f62c	-0.9490688
121	0xbeab13c1	-0.3341351
122	0xbdc8a7ea	-0.09797652
123	0xbefd7b1b	-0.49507985
124	0xbe87dcb0	-0.2653556
125	0xbec0dadc	-0.37666976
126	0x3edbe4c1	0.42947963
127	0x401280b2	2.289105
128	0x40545dfd	3.3182366
129	0xbeb6dd35	-0.35715643
130	0x3ece76a8	0.40324903
131	0x3ee9e3f0	0.45681715
132	0x3ea41036	0.32043618
133	0xbd8cfd86	-0.06884293
134	0x3ea163c3	0.31521425
135	0x3e4d9ee8	0.20080149
136	0xbf188f4d	-0.5959366
137	0xbf8ac887	-1.0842446
138	0xbcca4aad	-0.024693811
139	0x3e5fb385	0.21845825
140	0x3f6ece79	0.932838
141	0x3fec3ece	1.8456666
142	0x3f7d7fdd	0.9902323
143	0x3ebc7c35	0.36813512
144	0x3ec095a6	0.37614173
145	0x3e073347	0.13203155
146	0xbe91fe78	-0.28514457
147	0xbd8955d6	-0.06705825
148	0x3f178f4e	0.5920304
149	0x3ebc0464	0.367221
150	0x3e1e943e	0.15486237
151	0xbcc3e9f6	-0.023915272
152	0xbdfe51c5	-0.1241794
153	0x3f50af68	0.8151765
154	0xbdd9757b	-0.10618111
155	0x40174467	2.36355
156	0x3e943a56	0.28950757
157	0x3ca57183	0.020195728
158	0x3cb88988	0.022526518
159	0x3ab632bd	0.0013900619
160	0x3f0a633f	0.5405769
161	0x3ed7a916	0.4212119
162	0xbeed8e63	-0.46397695
163	0x3fbd28a3	1.4778026
164	0x3fca369a	1.5797913
165	0x3f556fdb	0.833738
166	0xc02c479a	-2.6918702
167	0xc0367179	-2.8506758
168	0xc01f1dc6	-2.4861922
169	0xbe5781f4	-0.21045667
170	0xbd6157c0	-0.055015326
171	0x3cef7dfd	0.02923488
172	0xc001625c	-2.0216284
173	0xbef181ce	-0.47169346
174	0x3d30ef22	0.043196805
175	0x3d317240	0.043321848
176	0x3e37dd4a	0.17955509
177	0x3f70f908	0.9412999
178	0x3e5e95f1	0.21736886
179	0xbcb2a713	-0.021808183
180	0xbce1b9f6	-0.027554493
181	0xbc8fde1a	-0.017561961
182	0x3f4716c7	0.7776913
183	0xbf13605d	-0.57568914
184	0x3eac5020	0.3365488
185	0x3e23dead	0.16002913
186	0xc054a490	-3.322544
187	0xc084a845	-4.1455407
188	0xc08bdb00	-4.3704834
189	0xbcc7deae	-0.024398174
190	0xbe80f037	-0.2518327
191	0xbd673862	-0.056450255
192	0xbe25f6c6	-0.16207418
193	0x3db62f6a	0.08895762
194	0x3eb6a117	0.35669777
195	0x3fb6b1dc	1.4273028
196	0xbf477a2a	-0.7792078
197	0x3ebd1d9f	0.36936662
198	0x3e071073	0.13189869
199	0xbe87d018	-0.2652595
200	0x3f82ddd9	1.0223953
201	0x3f262878	0.649055
202	0xbe85dba1	-0.26144126
203	0x3f9a4697	1.2052792
204	0x3f01baf6	0.50675905
205	0x3f425861	0.75916106
206	0x3f944c5b	1.1585802
207	0x3d1535c5	0.03642823
208	0xbf2efad3	-0.6835148
209	0xbebc0448	-0.36722016
210	0xbf06dde3	-0.5268232
211	0xbef4864d	-0.47758713
212	0xbe80d966	-0.25165862
213	0xbf445295	-0.7668851
214	0xbe70d30f	-0.23518012
215	0xbf3f9f37	-0.7485232
216	0xbef525ba	-0.47880346
217	0xbfb9fcec	-1.4530311
218	0xbe9c1c5e	-0.30490392
219	0x3f05c4d7	0.5225348
220	0xbf71d9fc	-0.9447324
221	0xbf45035c	-0.7695825
222	0xbfbf3ee5	-1.4941069
223	0x3f3b1d1b	0.73091286
224	0x3f23a267	0.6391968
225	0x3f53d057	0.82739776
226	0xbf859963	-1.0437435
227	0xbf1ab994	-0.6043942
228	0xbf01aaff	-0.50651544
229	0xbd3a7ff2	-0.045532174
230	0x3eb540fd	0.35401145
231	0x3dd418f1	0.1035632
232	0xbf6878e4	-0.90809464
233	0x3e10195a	0.14072171
234	0xbe53ae25	-0.206719
235	0xc00125c8	-2.017931
236	0x3edc464f	0.4302239
237	0xbe910ccc	-0.28330076
238	0x3e9fb059	0.3118923
239	0x3ee8c314	0.45461333
240	0xbd8f0731	-0.069837935
241	0xbe5441e2	-0.20728257
242	0xbe8c5610	-0.2740941
243	0xbea38762	-0.31939226
244	0xbeb88c24	-0.3604442
245	0xbe99c260	-0.3003111
246	0xbf6b7cb3	-0.9198715
247	0x3eae3225	0.34022632
248	0x3f3eedb8	0.7458148
249	0x3d2f07d9	0.042732093
250	0xbe079b07	-0.13242732
251	0xbec3111e	-0.38098997
252	0xbf90f2fb	-1.1324152
253	0xbf3c05db	-0.73446435
254	0xbce34b26	-0.027745795
255	0x3e10d166	0.14142379

actor.0.bias f4 [64]
0	0x3f3a954c	0.7288406
1	0xbe93d928	-0.28876615
2	0xbb1550ed	-0.0022783831
3	0x3efa116a	0.4884141
4	0xbb16cb09	-0.0023009202
5	0x3e7a21b0	0.24426913
6	0x3eb32810	0.34991503
7	0x3e908d7e	0.2823295
8	0x3d9c7739	0.076399274
9	0x3ebfc9fd	0.37458792
10	0xbed03de9	-0.40672234
11	0x3ecea833	0.403627
12	0xbf141296	-0.5784086
13	0xbe4a0f6a	-0.19732442
14	0x3e7f7858	0.24948251
15	0x3ef9dee1	0.48802856
16	0xbf1d510d	-0.614518
17	0xbeac344e	-0.33633655
18	0xbcf1f3b0	-0.029535145
19	0xbe03c67b	-0.12868683
20	0xbea1abdd	-0.31576434
21	0xbf6637f5	-0.89929134
22	0x3f09de6d	0.5385502
23	0x3dbcb7ff	0.09214782
24	0x3e780158	0.24219263
25	0xbf00c223	-0.5029623
26	0x3f04a7e2	0.5181867
27	0x3ecbeefb	0.39830765
28	0x3f60a623	0.87753505
29	0x3d9ce9d0	0.07661784
30	0xbd8af722	-0.06785418
31	0xbe2250a6	-0.15851077
32	0x3af17a05	0.0018423205
33	0xbe5655cf	-0.20931171
34	0x3ec0a796	0.37627858
35	0xbec0af8e	-0.37633938
36	0xbdfc18ca	-0.12309416
37	0xbd0a7b54	-0.03380902
38	0xbcce065c	-0.025149517
39	0xbf592368	-0.8481965
40	0x3f0a8457	0.54108185
41	0x3e0202da	0.126964
42	0xbedeeb89	-0.43539074
43	0x3ed0f50c	0.40811956
44	0x3dac7b19	0.084219165
45	0xbceaef48	-0.028678551
46	0xbe24a8a2	-0.16079953
47	0xbe67c0a6	-0.22632083
48	0xbe71af51	-0.23602034
49	0x3df2ecae	0.11861549
50	0xbea6a14a	-0.3254493
51	0xbf28fd5e	-0.6601161
52	0x3e85c0a1	0.26123527
53	0x3ce52e6a	0.027976234
54	0xbefe9644	-0.4972402
55	0x3f668f64	0.90062547
56	0xbebefcab	-0.37302145
57	0x3f2983ed	0.6621693
58	0xbd6cd09b	-0.05781613
59	0xbf19c2eb	-0.60063046
60	0x3ead6b96	0.33871144
61	0x3dd68779	0.10475058
62	0xbea8ea69	-0.3299134
63	0x3e0d3b11	0.13792063

actor.2.weight f4 [64, 64]
0	0x3ea94619	0.33061293
1	0x3da01ce7	0.07818013
2	0x3e623462	0.22090295
3	0x3f34a376	0.7056192
4	0x3ed17987	0.4091303
5	0xbe3ab602	-0.18233493
6	0x3f80f358	1.0074263
7	0xbe3aa756	-0.18227896
8	0xbf307f5b	-0.6894433
9	0x3e26cd16	0.16289172
10	0x3eb8b6d6	0.36076993
11	0xbf635e41	-0.88815695
12	0xbfaae94b	-1.3352445
13	0x3f25de3d	0.64792234
14	0x3f9f87d4	1.2463326
15	0x3e51725d	0.20453782
16	0xbec973d3	-0.3934618
17	0xbce995cd	-0.028513813
18	0xbf23cc6f	-0.63983816
19	0xbf707d05	-0.93940765
20	0xbf15a500	-0.58454895
21	0xbf3aecde	-0.7301768
22	0x3f0b7d9c	0.5448854
23	0x3f3191f4	0.6936333
24	0x3f719689	0.94370323
25	0xbfb37937	-1.4021367
26	0x3c8de1b3	0.017319536
27	0x3ec056a9	0.37566116
28	0xbed6feb4	-0.41991198
29	0xbdb2c5d3	-0.08729138
30	0x3fc22a7d	1.5169216
31	0x3f7e6d34	0.9938538
32	0x3f3813b1	0.71905047
33	0xbed2e9ad	-0.41193905
34	0xbf92a69c	-1.1457095
35	0xbe59a89a	-0.21255723
36	0xbee95f73	-0.45580634
37	0x3e268903	0.16263203
38	0x3d5647e4	0.052314654
39	0x3ed25073	0.41077003
40	0x3dc2ea8d	0.09517393
41	0x3f81e616	1.0148342
42	0xbecbeab4	-0.39827502
43	0x3ec58dca	0.3858474
44	0xbf08577a	-0.5325848
45	0x3f3cffca	0.73827803
46	0x3f14d512	0.5813762
47	0xbe697209	-0.22797407
48	0x3f1b3060	0.6062069
49	0x3dce3368	0.10068399
50	0x3eeb99b9	0.4601572
51	0xbec35852	-0.3815332
52	0x3f82267a	1.0167992
53	0x3e16ecdc	0.14738792
54	0xbf716398	-0.94292593
55	0x3ecd385c	0.4008206
56	0x3e23a1b3	0.15979652
57	0xbfc3eb70	-1.5306225
58	0xbf0beea0	-0.5466099
59	0x3e4d6cb4	0.20060998
60	0x3f2ece61	0.6828366
61	0x3f69b891	0.9129725
62	0x3c1c2b5d	0.009531823
63	0x3e96f0dc	0.29480636
64	0xbf07cd1c	-0.5304735
65	0x3f9d38e7	1.228299
66	0x3e593ee3	0.21215396
67	0x3da3ec4a	0.08004053
68	0x3d97ea9d	0.07417796
69	0xbf4fd786	-0.8118824
70	0x3da1f1a4	0.079074174
71	0xbe0d6d9b	-0.13811342
72	0xbed3b7bf	-0.41351125
73	0xbfba7e57	-1.4569806
74	0x3f0985b1	0.5371962
75	0xbef573a8	-0.479398
76	0x3e9cc711	0.30620626
77	0x3fa4e390	1.2881947
78	0x3db33e71	0.08752144
79	0x3e786398	0.24256742
80	0xbec99721	-0.39373115
81	0xbe5d18b6	-0.21591458
82	0x3e93668d	0.28789178
83	0xbf9262b1	-1.1436368
84	0xbf0cc31d	-0.5498522
85	0xbdb6f050	-0.08932555
86	0x3ebd9ec6	0.37035197
87	0x3f51e42c	0.8198879
88	0x3ee5852d	0.44828168
89	0xbf44826d	-0.76761514
90	0xbec10c4e	-0.377047
91	0x3f354739	0.708118
92	0xbf31b481	-0.6941605
93	0xbeb4f8bf	-0.35346028
94	0x3ebd7b8f	0.3700833
95	0x3f5667d8	0.83752203
96	0x3ed6896b	0.41901717
97	0x3f288f85	0.65843993
98	0xbf1c5dfd	-0.61080915
99	0x3f1c5e28	0.6108117
100	0xbe0c0b7d	-0.13676257
101	0xbf110f0b	-0.5666358
102	0xbf4f2596	-0.80916727
103	0x3f171ed8	0.5903144
104	0xbe3c20b1	-0.18371846
105	0x3f2a10c2	0.6643182
106	0x3f8dd489	1.1080486
107	0xbe45819d	-0.19287725
108	0xbf32a978	-0.6978984
109	0x3b416762	0.0029511084
110	0x3eb4236e	0.3518328
111	0xbffc51a6	-1.9712417
112	0xbf48fafa	-0.7850796
113	0x3ea047e5	0.3130485
114	0x3cc77dd8	0.024352
115	0x3ef3ae5f	0.47593972
116	0x3f7e3a35	0.99307567
117	0xbf4b9b0b	-0.7953345
118	0xbead8ff9	-0.33898905
119	0xbe350d6a	-0.17680898
120	0x3e81886a	0.25299388
121	0x3e053c5e	0.1301131
122	0xbe7b3ed4	-0.24535686
123	0x3f9bbfc5	1.2167898
124	0x3e3bedcf	0.18352436
125	0x3ed10e54	0.40831244
126	0xbe89f1db	-0.26942334
127	0xbe31a1b0	-0.17346835
128	0xbf95d0e9	-1.1704379
129	0x3db6951e	0.089151606
130	0x3f068958	0.5255332
131	0xbe8a20f0	-0.26978254
132	0xbf91591f	-1.1355323
133	0xbe9192f8	-0.2843244
134	0xbe772ea9	-0.24138893
135	0x3f411d4e	0.7543534
136	0xbf13561f	-0.57553285
137	0xbf0425d9	-0.5162025
138	0x3dddbbeb	0.10826858
139	0xbf0d43ec	-0.55181766
140	0x3e9f44f9	0.3110731
141	0x3ed91a1d	0.42402735
142	0xbe792a42	-0.24332526
143	0xbeaab4eb	-0.33341154
144	0xbd102480	-0.03519106
145	0x3f741efe	0.9535979
146	0x3f3af3ff	0.7302856
147	0x3e82fe9c	0.25584877
148	0x3e259536	0.161702
149	0xbe2ecdc1	-0.17070676
150	0x3dbccba5	0.092185296
151	0x3dc83d7d	0.09777353
152	0x3dc822c9	0.0977226
153	0xbea3b12c	-0.3197111
154	0xbe1b7228	-0.15180266
155	0xbf048e42	-0.5177957
156	0xbed30d7d	-0.41221228
157	0xbf3a7872	-0.72840035
158	0x3ef14af1	0.47127488
159	0xbe42d356	-0.19025931
160	0x3f8abc16	1.0838649
161	0xbf7c1389	-0.9846731
162	0xbf1fa20a	-0.62356627
163	0x400886b4	2.1332216
164	0x3ebb2f5e	0.36559576
165	0xbea02f8e	-0.3128628
166	0x3fd82e34	1.68891
167	0xbd7a0955	-0.061044056
168	0xbeb52254	-0.35377753
169	0xbd1a2dae	-0.03764122
170	0x3fed9558	1.8561201
171	0xbf1dd0de	-0.6164683
172	0x3e523a97	0.20530163
173	0x3e03f7e0	0.12887526
174	0x3f8d9ee3	1.1064113
175	0xbe50da40	-0.20395756
176	0x3eb12314	0.34597075
177	0xbf1bc91e	-0.60853755
178	0x3f7a5882	0.977913
179	0x3f7c5fa4	0.98583436
180	0xbddd06e2	-0.107923284
181	0xbf0a08da	-0.53919756
182	0xbe121933	-0.14267425
183	0xbf1c943c	-0.6116369
184	0xbeddaafb	-0.4329451
185	0xbf0ea5ff	-0.5572204
186	0x3ed13d0a	0.40866882
187	0x3f72736c	0.9470737
188	0x3e586a66	0.21134338
189	0x3e045a99	0.12925185
190	0x3f4bcc06	0.7960819
191	0x3ef24aa8	0.47322583
192	0x3ee1ac3f	0.44076726
193	0x3ed7ae3e	0.42125124
194	0x3ef17058	0.47156024
195	0x3f7dd1fb	0.9914853
196	0x3f2cafc9	0.67455727
197	0xbe7756c5	-0.24154194
198	0x3d83b628	0.06431228
199	0x3eece1fb	0.4626616
200	0xbf3d4e81	-0.7394791
201	0xbf16d9f0	-0.58926296
202	0xbea78408	-0.3271792
203	0xbe89c5fe	-0.2690887
204	0x3e5ce17a	0.21570387
205	0x3e924d58	0.28574634
206	0x3f2044e4	0.6260512
207	0xbef783a3	-0.48342618
208	0x3f129f14	0.57273984
209	0xbd8b36bb	-0.067975484
210	0x3eec207d	0.46118537
211	0xbeecf63a	-0.46281606
212	0xbfb822cd	-1.438562
213	0xbf38765d	-0.7205561
214	0xbf1c99a6	-0.6117195
215	0x3dc2d3e9	0.09513075
216	0x3f8e2e85	1.1107947
217	0xbe1d5075	-0.15362723
218	0x3f79739a	0.9744202
219	0x3f1bd899	0.60877377
220	0x3f2a385e	0.6649226
221	0x3e0599fa	0.13047019
222	0x3e0b2f07	0.13592158
223	0x3d242f78	0.040084332
224	0x3f222f25	0.63353187
225	0xbf07b283	-0.5300676
226	0x3fb5e9cc	1.4211974
227	0xbd0150ff	-0.031571385
228	0xbe8291b4	-0.25501788
229	0xbdaa6f2a	-0.08321984
230	0xbfb2f460	-1.3980827
231	0xbf9cc196	-1.2246578
232	0x3f52d025	0.82348853
233	0x3f427d77	0.75972694
234	0xbe6ba28d	-0.23011227
235	0x3ee2c1f1	0.4428859
236	0x3f9119d8	1.1336012
237	0xbf2ff8a6	-0.6873878
238	0xbe26e019	-0.16296424
239	0xbea5dabe	-0.3239345
240	0x3ef821ab	0.48463187
241	0xbebb94fe	-0.3663711
242	0xbf3e238c	-0.7427299
243	0xbe9a658b	-0.30155596
244	0x3e76561f	0.2405629
245	0x3bc0da14	0.005885372
246	0x3f1e4de2	0.6183759
247	0xbd114410	-0.0354653
248	0x3f6fdc2f	0.9369535
249	0x3fa000a6	1.2500198
250	0xbcd8d91f	-0.026470719
251	0xbe2586dd	-0.16164728
252	0xbedcbeac	-0.4311422
253	0x3e92afdc	0.28649795
254	0xbf9c583f	-1.221443
255	0xbea1aeea	-0.3157876

actor.2.bias f4 [64]
0	0x3f241783	0.64098376
1	0xbe570b40	-0.21000385
2	0xbf3c5fef	-0.73583883
3	0x3f50d8ec	0.81580997
4	0x3ea2e108	0.3181231
5	0x3d87c836	0.06629984
6	0x3e9ddff3	0.30834922
7	0x3f3a3cae	0.7274884
8	0x3e83cc45	0.25741783
9	0x3ebea687	0.37236425
10	0x3f254304	0.6455538
11	0xbe4840b8	-0.19555938
12	0x3d85c33c	0.065313786
13	0x3c8b8d19	0.017035054
14	0xbdb40c9f	-0.0879147
15	0x3ee08dad	0.4385809
16	0xbf70719a	-0.9392334
17	0x3e8bb958	0.27289844
18	0xbe149bc5	-0.14512546
19	0x3e839baa	0.257047
20	0x3c3274e6	0.010892129
21	0x3ec4d7d9	0.3844593
22	0x3efa2f5f	0.48864266
23	0x3ec2a484	0.3801614
24	0x3e54a4b7	0.20765959
25	0x3e7c88d9	0.24661578
26	0x3f332e03	0.69992083
27	0xbef8920c	-0.48548925
28	0xbc9ba207	-0.01899816
29	0xbef92283	-0.48659143
30	0xbe4abe09	-0.19799055
31	0x3e439515	0.19099839
32	0x3f2aeec1	0.6677056
33	0xbede83d1	-0.43459943
34	0x3dbb338c	0.09140691
35	0x3d4f67bc	0.05063604
36	0x3f81e97e	1.0149381
37	0xbeadbe82	-0.33934408
38	0x3dba1b30	0.09087217
39	0xbdd9b3c9	-0.106299944
40	0xbf191cea	-0.59809744
41	0x3f644fab	0.89184064
42	0x3f090efa	0.5353848
43	0xbe9a7c6f	-0.3017306
44	0xbedd193c	-0.43183315
45	0x3e12218e	0.14270613
46	0x3c88943d	0.016672248
47	0xbefcaaec	-0.49349153
48	0x3f047e89	0.5175558
49	0x3e97ebc0	0.2967205
50	0xbc84dd44	-0.016218789
51	0xbe80a4b6	-0.25125664
52	0xbf0dd271	-0.55399233
53	0x3e7be48b	0.24598901
54	0xbbfb7a61	-0.007674501
55	0xbde5aadf	-0.11214232
56	0xbf653135	-0.8952821
57	0xbeb2862b	-0.34867987
58	0x3eb82b37	0.3597047
59	0x3f28c820	0.65930367
60	0x3ed02be1	0.40658477
61	0x3f59b8e0	0.8504772
62	0xbf25ec5c	-0.6481378
63	0xbee227a4	-0.44170868

actor.4.weight f4 [7, 64]
0	0xbefe3e7f	-0.49657056
1	0xc03ae49c	-2.9202032
2	0xc047a5d6	-3.1194968
3	0x401af30e	2.421085
4	0x3dc25eed	0.09490762
5	0x3fbde697	1.4835995
6	0x4041d0ea	3.028376
7	0xbfdf457d	-1.7443081
8	0x40173c89	2.3630698
9	0xbefac116	-0.48975438
10	0x3fd737f8	1.6813955
11	0xc00b98d9	-2.181204
12	0xbfe5d6a6	-1.795613
13	0x3ffe2540	1.9855118
14	0x3fec8420	1.8477821
15	0x3fbb0fe9	1.461423
16	0xbf95edd4	-1.1713204
17	0x3fad40bc	1.353538
18	0xbd0c43be	-0.03424429
19	0x3fe2390b	1.7673658
20	0x3f9c36b1	1.220419
21	0xbf642fb0	-0.89135265
22	0xbf9b8f77	-1.2153157
23	0xbf206c83	-0.62665576
24	0x3f28d1f2	0.6594535
25	0xc02ab05f	-2.6670148
26	0x40237c41	2.5544589
27	0x3f4aacef	0.79170126
28	0x3e0d3a06	0.13791665
29	0xbf84f0df	-1.0386008
30	0x3f874f20	1.0571022
31	0x3f8a8daf	1.0824488
32	0x3ed84cf6	0.42246217
33	0xbfb9644f	-1.4483737
34	0xbfba8752	-1.4572546
35	0xbfb576b0	-1.4176846
36	0x3febe6a9	1.8429767
37	0xbdbead8b	-0.093104444
38	0x3f672d34	0.9030335
39	0x3f3f2e04	0.7467959
40	0x3f951365	1.1646544
41	0xbe91263c	-0.28349483
42	0x3ff2adff	1.8959349
43	0xbfc7ed37	-1.5619267
44	0xbfe03f3a	-1.7519295
45	0x401b23a3	2.42405
46	0x3ff8a284	1.9424596
47	0xc0487d2d	-3.1326401
48	0x401dc1b9	2.464949
49	0x3fab77b5	1.3395907
50	0xbfd2110b	-1.6411451
51	0x3fcd68e8	1.604764
52	0xc0161e0a	-2.3455834
53	0xbf92a48e	-1.1456468
54	0x4021b25e	2.5265117
55	0x3faf786c	1.3708625
56	0x3f51f22d	0.82010156
57	0x400183e1	2.0236742
58	0xbff3809a	-1.9023621
59	0x3f53ef25	0.8278678
60	0x40313c74	2.7693148
61	0xc001ed2b	-2.0301006
62	0x3ff59bc2	1.9188159
63	0xbff8df1e	-1.944309
64	0xbfa89142	-1.3169329
65	0xbd700515	-0.058598597
66	0xbe8599b0	-0.26093817
67	0xbdfefff9	-0.12451167
68	0xbf186173	-0.59523696
69	0x3e6cae93	0.2311347
70	0xc02572b6	-2.5851264
71	0x3f164394	0.58696866
72	0xbf4c1839	-0.7972446
73	0xbf7bd585	-0.9837268
74	0x3e46787b	0.19381897
75	0xbeca96ca	-0.39568168
76	0x3f0b87c2	0.54504025
77	0xbaa830e4	-0.0012831953
78	0xbf168c0a	-0.5880743
79	0xbdbe315b	-0.092867576
80	0x400bcd17	2.1843927
81	0xbfa6b4bd	-1.3023907
82	0x3f6519ef	0.89492697
83	0x3fe5f85f	1.7966422
84	0x3f53174a	0.8245741
85	0xbf5ad80f	-0.8548593
86	0x3f41093e	0.7540473
87	0xbf848c73	-1.0355362
88	0xc00ccf43	-2.2001503
89	0x3fdfa932	1.7473509
90	0xbd01df35	-0.031707007
91	0x402d7730	2.7103996
92	0x3fe6cf7f	1.8032073
93	0x3fc9aa53	1.5755104
94	0x3f0e5f0f	0.556138
95	0x3f0791df	0.52956957
96	0xbfdcb037	-1.7241277
97	0x3fbd57c7	1.4792413
98	0xbeeecc2d	-0.4664015
99	0xbf8d3264	-1.1031003
100	0xbf2e5f5a	-0.68114245
101	0x3ea7d531	0.3277984
102	0xbdbc50e6	-0.09195118
103	0x3e5de409	0.2166902
104	0x3f05080d	0.5196541
105	0xbfcbb2a1	-1.5913888
106	0xbd89b336	-0.06723635
107	0x3f96011a	1.1719086
108	0xbf9faa98	-1.2473936
109	0x3f2e43fd	0.6807249
110	0x3f090e86	0.53537786
111	0x3db48681	0.08814717
112	0xbfbe4839	-1.4865791
113	0x3fef23ee	1.868284
114	0xbe07e87a	-0.13272277
115	0x3fcf6638	1.620307
116	0xbf95bc24	-1.1698041
117	0xbeca2aed	-0.39485875
118	0x3e74864b	0.23879354
119	0x3fac2a5c	1.3450427
120	0x3f22f9fa	0.63662684
121	0x3f90914c	1.1294341
122	0xc005fb52	-2.0934644
123	0xbeecea83	-0.46272668
124	0x3ec11101	0.37708285
125	0xbfa89a6b	-1.3172125
126	0x3fb1aafb	1.3880304
127	0x3f6ec3b9	0.932674
128	0xbf8c7147	-1.097207
129	0xbe923ebb	-0.28563485
130	0x3e3fd473	0.18733387
131	0xbf28be3b	-0.6591527
132	0xc07e2e6b	-3.9715831
133	0xbd961fdc	-0.073302954
134	0x3f0b2a6d	0.5436161
135	0xbc87d255	-0.016579786
136	0xc03c16fa	-2.9389024
137	0xbfa52bc0	-1.2903976
138	0xbe55d514	-0.20882064
139	0x3ef7ad73	0.4837452
140	0xbf6249eb	-0.8839404
141	0x3e12749a	0.14302292
142	0xbe0b5794	-0.13607627
143	0x3f3ad547	0.72981685
144	0x3ec3abd4	0.38217032
145	0xbfd40a16	-1.6565578
146	0xbf4ec3c8	-0.8076749
147	0x3fb26d54	1.3939614
148	0xbe83cd99	-0.25742796
149	0x3efaaf3b	0.48961815
150	0x3d321970	0.04348129
151	0xbf82e0f9	-1.0224906
152	0xbdb7168e	-0.08939849
153	0x3f069678	0.5257335
154	0xbdce16b1	-0.10062922
155	0x3f0292b6	0.51005113
156	0xc021781f	-2.5229566
157	0x3eadc40d	0.33938637
158	0x3f389dd2	0.72115815
159	0xbea81533	-0.32828674
160	0x3cd4b19c	0.025963597
161	0xbf5f1696	-0.8714384
162	0x3f264059	0.64941937
163	0x3f5f136d	0.87139016
164	0xbfed6b33	-1.854834
165	0xbed165ae	-0.40897888
166	0xbeb71759	-0.3576
167	0x3d87f480	0.066384315
168	0xbeeb4b31	-0.45955804
169	0xbfae7c74	-1.363173
170	0xbdeec9c8	-0.116595805
171	0x3e5331aa	0.20624414
172	0x3e00f38f	0.1259291
173	0xbdf61030	-0.12014806
174	0xbee1a9b1	-0.44074777
175	0x3e3c3985	0.18381317
176	0xbee81ad0	-0.45332956
177	0xbf3955b5	-0.72396404
178	0x3e51c982	0.20487025
179	0x3f55ff13	0.8359234
180	0xbf0375a8	-0.51351404
181	0x3e7d410b	0.24731843
182	0xbea16515	-0.31522432
183	0xbff7066d	-1.9298836
184	0x3fc6bab9	1.5525733
185	0x3eab4160	0.33448315
186	0xbdc79d21	-0.09746767
187	0xbf0d2d6c	-0.55147433
188	0xbe4c9a46	-0.19980726
189	0xbea57adf	-0.32320306
190	0x3f1a0490	0.6016321
191	0xbf229539	-0.63508946
192	0x3ea02f80	0.3128624
193	0x3fe84bc8	1.8148127
194	0x3f4f4570	0.8096533
195	0xc03040a8	-2.7539463
196	0xbf3b415a	-0.73146594
197	0xbf4f805f	-0.81055254
198	0xbe9314eb	-0.28726897
199	0x3f0a017c	0.53908515
200	0x3e7f2c91	0.24919344
201	0x3c83777f	0.016048191
202	0x3f05d9e7	0.5228562
203	0x3d8f392a	0.06993325
204	0x3fe5082f	1.7893122
205	0xbf52a37e	-0.8228072
206	0x3eca6e40	0.3953724
207	0xc00301ee	-2.0469928
208	0xbfa92bb8	-1.3216467
209	0xc02cb309	-2.6984274
210	0xbf935297	-1.150958
211	0xbf95dad7	-1.170741
212	0xbced2ea3	-0.028952902
213	0xbef81a15	-0.484574
214	0xbf09e0a3	-0.53858393
215	0xc00f5a15	-2.2398732
216	0xbfb46753	-1.4094032
217	0x3f3b32c3	0.7312433
218	0xbf91a8a4	-1.137959
219	0x3ecf3d7c	0.40476596
220	0xbe952071	-0.29126313
221	0x4002513c	2.0362082
222	0xbf70e8a5	-0.9410499
223	0xbfb167c4	-1.3859792
224	0x3e1079fe	0.14109036
225	0x3f1c1791	0.6097346
226	0x3f0efe2d	0.5585659
227	0xbf09a433	-0.53766173
228	0xbfe3d4e3	-1.7799343
229	0x3fbe44a0	1.4864693
230	0x3ecedb34	0.40401614
231	0x3f4cd485	0.8001178
232	0x3fc94b6d	1.5726143
233	0x3f138123	0.5761892
234	0x3eae8501	0.3408585
235	0x3f0bf0ed	0.546645
236	0x3fb2edad	1.3978783
237	0xc00d49e9	-2.207636
238	0xbef3dfba	-0.47631627
239	0x3f9f43e6	1.2442596
240	0xc02aab99	-2.6667235
241	0x3f9e4e56	1.2367656
242	0x3f6ecdb7	0.93282646
243	0x3e2bee07	0.16790019
244	0x3e8cce06	0.27500933
245	0xbf750030	-0.9570341
246	0xbf0c1eb5	-0.54734355
247	0xbf0de553	-0.55428046
248	0xbd8a9c5b	-0.06768104
249	0xbfe9d629	-1.8268481
250	0xbf6a4efa	-0.9152676
251	0xbf435d4e	-0.76314247
252	0xbd1e50f8	-0.038651437
253	0x3d89a127	0.067201905
254	0x3f01e56b	0.5074069
255	0x3de77f48	0.11303574

actor.4.bias f4 [7]
0	0x3f811155	1.0083414
1	0x3df470ba	0.119355634
2	0xbdfc9353	-0.12332787
3	0xbf26e535	-0.6519349
4	0xbe5b0ee2	-0.21392396
5	0xbdaead29	-0.085291214
6	0x3f8860f6	1.065459

critic.0.weight f4 [64, 20]
0	0xbea7678c	-0.32696187
1	0xbfafb3e9	-1.3726779
2	0x3f5ae9d7	0.8551306
3	0xbd9e01e7	-0.077152066
4	0x3e2dad92	0.16960743
5	0x3f1e134c	0.61748195
6	0x4085a28d	4.1760926
7	0x3fa0b101	1.2554017
8	0xbfe1e493	-1.764788
9	0x3f197f0e	0.59959495
10	0x3d96d5b0	0.073649764
11	0xbf2bedb0	-0.6715956
12	0x400799ad	2.1187546
13	0x3f087bc3	0.53313845
14	0xbf6d239f	-0.9263248
15	0x3e8115cc	0.25211942
16	0x3f6476fa	0.89244044
17	0xbfa53cb5	-1.2909151
18	0xbed7b53c	-0.42130458
19	0xbf679de0	-0.90475273
20	0xbdc392a4	-0.09549454
21	0x3fc9f3d3	1.5777534
22	0x400cd084	2.2002268
23	0xbf1134c0	-0.56721115
24	0xbf8677bb	-1.0505289
25	0xbf9010ad	-1.1255089
26	0x3f141131	0.5783873
27	0xc0077bcf	-2.1169317
28	0xc07ca39e	-3.9474864
29	0x3fb9e1aa	1.4521992
30	0x3f39b908	0.7254796
31	0x3ea5f699	0.32414702
32	0x3f828e38	1.0199652
33	0x3d5faac6	0.05460622
34	0xbeac6724	-0.3367244
35	0x3f8ac869	1.084241
36	0x3faf8b75	1.3714434
37	0xbe505ef5	-0.20348723
38	0x3e299192	0.16559437
39	0xbf4236e1	-0.7586499
40	0x3fc1cc7f	1.5140532
41	0x3eb2ce10	0.34922838
42	0x3f699887	0.91248363
43	0x3f41753e	0.7556952
44	0x3e93bb65	0.28853908
45	0xbe911e27	-0.28343317
46	0x3f8e68b4	1.1125703
47	0x3f1e795a	0.6190392
48	0x3f09cda9	0.5382944
49	0x3f0751ed	0.52859384
50	0x3f27801c	0.65429854
51	0x3f88c598	1.0685301
52	0xc007243b	-2.1115863
53	0xbf7bdae0	-0.9838085
54	0x3ece19b0	0.40253973
55	0x3ed90dd3	0.4239336
56	0xbfbef7d4	-1.4919381
57	0xbfd902c9	-1.6953975
58	0x3ea18f8e	0.31554836
59	0xbd1af16a	-0.037827887
60	0xbfa43eee	-1.2831705
61	0x3fac81ce	1.3477113
62	0x3d93c941	0.072161205
63	0x3eba0c17	0.3633735
64	0xbef246d2	-0.47319657
65	0xbedfcafd	-0.43709555
66	0x40ea1d02	7.316041
67	0x40500edd	3.2509072
68	0x3f5b4c7e	0.8566359
69	0xbdc883f4	-0.09790793
70	0xbe668ae2	-0.22513917
71	0xbe930d9e	-0.28721327
72	0xbea059a2	-0.31318384
73	0x3fa9baba	1.326011
74	0xbee05fbf	-0.43823048
75	0xbfb56b9e	-1.4173467
76	0x3f998246	1.1992881
77	0xbef3e36e	-0.47634453
78	0xbebd3067	-0.3695099
79	0xbd751994	-0.059838846
80	0x3fbdffca	1.4843686
81	0xc02def35	-2.717725
82	0xbfc21a03	-1.5164188
83	0xbec73ffe	-0.3891601
84	0xbff40d6d	-1.9066597
85	0xc01af85d	-2.421409
86	0xbf864605	-1.0490118
87	0xbf7725df	-0.9654216
88	0xbfcd47d1	-1.6037542
89	0xbf45051c	-0.7696092
90	0xbf3f9eb2	-0.74851525
91	0xbf1dff0b	-0.6171729
92	0xbf0ea2ee	-0.5571736
93	0x3f507861	0.81433684
94	0xbf49095c	-0.78529906
95	0x3f9f983c	1.2468333
96	0xbea2b879	-0.31781366
97	0xbfede286	-1.8584754
98	0x3df40222	0.11914469
99	0xbf71f75e	-0.9451808
100	0x3d1dd57b	0.03853367
101	0x3fd06a15	1.6282374
102	0x3ed7d459	0.42154196
103	0xbecd0eb0	-0.40050268
104	0xbf191c95	-0.5980924
105	0xbec9307a	-0.39294797
106	0xc02e232d	-2.720897
107	0xc04b2e2c	-3.174693
108	0xc02c940b	-2.6965358
109	0xbed42127	-0.41431543
110	0xbde2579a	-0.11051865
111	0x3ecff79d	0.406186
112	0xbf80df3a	-1.0068123
113	0xc00baf9e	-2.1825938
114	0x3fab3878	1.3376608
115	0x3ea14ec4	0.31505406
116	0x3dc0c963	0.094134115
117	0x3e801462	0.2501555
118	0x3eab6c98	0.33481288
119	0x3ef60e84	0.4805795
120	0x3f373da7	0.7157845
121	0x3f9d39cf	1.2283267
122	0xbe94325e	-0.28944677
123	0xbf5aa3c5	-0.8540614
124	0xbe509500	-0.20369339
125	0xbe9cad51	-0.3060098
126	0xbf0529e2	-0.52017033
127	0xbf523f1f	-0.82127565
128	0x3ece1991	0.4025388
129	0xbf1099ef	-0.56484884
130	0xbf1e49aa	-0.6183115
131	0xbe06bdef	-0.13158391
132	0x3fa6e82d	1.3039604
133	0xbf9b4bf5	-1.2132555
134	0x3e9abf39	0.30224016
135	0xc001f9c0	-2.0308685
136	0xbf3e7306	-0.7439426
137	0x3ff2cb65	1.8968321
138	0xbe43bb78	-0.19114482
139	0xbe11e4c8	-0.1424743
140	0xbf08988c	-0.5335777
141	0xbe4d3ce5	-0.2004276
142	0xbbcb9a37	-0.006213452
143	0xbe1b8366	-0.15186843
144	0x3d7dd4b6	0.061970435
145	0xbc824d4a	-0.015905995
146	0x407d8768	3.9613895
147	0x3c8d4483	0.017244583
148	0xbfc3bd2a	-1.5292103
149	0x3eee8fd1	0.46594098
150	0xbe830979	-0.25593165
151	0xbe27f3ec	-0.16401643
152	0x3fc596a9	1.5436603
153	0x3f864d5d	1.0492359
154	0xbd10aa5a	-0.03531871
155	0xbf883d63	-1.0643734
156	0xbf591fc2	-0.84814084
157	0x3f99b545	1.2008444
158	0xbf6aeeaa	-0.9177042
159	0xbe9cb24c	-0.3060478
160	0xbf2b8702	-0.6700288
161	0x3f8db1d0	1.1069889
162	0xbe8e8638	-0.27836776
163	0xbea5ca21	-0.32380775
164	0xbeca2a1f	-0.3948526
165	0x3f05a7e1	0.5220929
166	0x3fb1d435	1.3892885
167	0x3fd3e88d	1.6555344
168	0x403988a9	2.898966
169	0xbe1a0b86	-0.15043458
170	0x3ec480fd	0.3837966
171	0x3eb88cb9	0.36044863
172	0x3f85e9a8	1.0461931
173	0x4013b16c	2.307704
174	0x3f57a962	0.8424283
175	0xc022d717	-2.544378
176	0x3eac31b9	0.33631685
177	0x3f998eba	1.1996682
178	0x3e9ef263	0.310443
179	0xbf0bb499	-0.54572445
180	0x3f3ab8fc	0.72938514
181	0x3ec2a71a	0.38018113
182	0xbf49dc9f	-0.78852266
183	0xbfc4dce8	-1.5379915
184	0xbff00812	-1.8752463
185	0xbfff6b97	-1.9954709
186	0x40bfc4bd	5.992766
187	0x40c0d728	6.026264
188	0x40d43967	6.632007
189	0xbd80ca4f	-0.06288587
190	0xbe8359d3	-0.25654468
191	0xbe027c92	-0.12742832
192	0xbf08442d	-0.5322903
193	0xbfab45f8	-1.3380728
194	0x3e9c100d	0.30480996
195	0x400bb52c	2.1829329
196	0x3e100d6e	0.14067623
197	0xbf64fd7e	-0.894493
198	0xbf3e67f1	-0.7437735
199	0x3d018494	0.031620577
200	0x3f833e36	1.025336
201	0x3e70e0d4	0.23523265
202	0x400bc077	2.1836221
203	0x3ee76410	0.4519353
204	0x3f1ba20f	0.60794157
205	0x3ec56c8f	0.38559386
206	0xc01d88fe	-2.4614863
207	0xbea63967	-0.3246567
208	0x3f9b6e3c	1.2143016
209	0xbf5010c8	-0.81275606
210	0xbf9a5b4c	-1.2059112
211	0xbf7184e7	-0.9434342
212	0xbfb09ad4	-1.379725
213	0xbf7f1c85	-0.9965289
214	0xbe47c8a0	-0.19510126
215	0x3ec4d422	0.38443094
216	0xbeee41ea	-0.46534663
217	0x3e98a77b	0.29815277
218	0x3e3521b6	0.17688641
219	0x3c9e8b4d	0.019353533
220	0xbfc04444	-1.5020833
221	0x3e9a77ef	0.30169627
222	0x3fc60329	1.5469714
223	0xbf0d867e	-0.55283344
224	0x3eb268d0	0.3484559
225	0xbdd5ecdb	-0.10445567
226	0x3fea11cd	1.8286682
227	0xbe92e2ff	-0.2868881
228	0xbf2ab8c6	-0.6668819
229	0xbd3c3b8c	-0.045955226
230	0xbedf72d8	-0.43642306
231	0xbe0495f5	-0.12947829
232	0x3e8b5d71	0.27219728
233	0xbff605a3	-1.922047
234	0x3f664ff2	0.89965737
235	0xbf5c4b1a	-0.86052096
236	0x3f7b1523	0.9807913
237	0xbe90fd04	-0.28318036
238	0x3e8fa841	0.28058055
239	0x3e9a58fd	0.30146018
240	0x3f7ac0b2	0.9795028
241	0x40239adc	2.5563269
242	0x400dbb40	2.2145538
243	0xbe01e42f	-0.12684701
244	0xbf07ee2b	-0.5309779
245	0xbee5dac9	-0.44893482
246	0xc060441b	-3.5041568
247	0xc0ba35e9	-5.819081
248	0xc0d8327b	-6.756162
249	0x3e8f64ec	0.28006685
250	0xbcd14f21	-0.025550427
251	0x3d4d73c5	0.050159235
252	0x3e7c77e0	0.24655104
253	0xbe8c6a5e	-0.27424902
254	0x3da5f152	0.08102669
255	0xc057a1fc	-3.3692617

critic.0.bias f4 [64]
0	0x3d878d9f	0.06618809
1	0x3f5bb77f	0.8582687
2	0x3f828d07	1.0199288
3	0xbce4eb53	-0.027944243
4	0xbee5437d	-0.44778052
5	0x3f27e61d	0.655855
6	0xbe8132b9	-0.2523401
7	0xbe375b86	-0.17906007
8	0xbead5eef	-0.3386149
9	0xbf3ba00b	-0.7329108
10	0xbf972bc2	-1.1810229
11	0x3e27d450	0.16389585
12	0x3f15700c	0.58374095
13	0x3f2d5708	0.67710924
14	0xbe75b003	-0.23992924
15	0x3ebbe31e	0.36696714
16	0x3eee8ec8	0.46593308
17	0x3f62fdd1	0.88668543
18	0x3e345c5b	0.17613356
19	0x3e93202e	0.2873549
20	0x3ccb1c58	0.024793789
21	0x3e069890	0.13144135
22	0x3caded7a	0.021231402
23	0x3f8dfba6	1.1092422
24	0xbe193f64	-0.14965588
25	0xbea63b90	-0.32467318
26	0x3f1d2d5d	0.61397344
27	0xbf6d00a9	-0.9257913
28	0x3d85b7f4	0.06529227
29	0xbf5d984a	-0.865605
30	0xbfeaeb01	-1.8352968
31	0x3efad312	0.4898916
32	0xbf419308	-0.75614977
33	0x3d9c58a7	0.076340966
34	0x3f948d5b	1.1605638
35	0xbee4990b	-0.44648013
36	0xbd31b152	-0.043381996
37	0xbe02d43f	-0.12776278
38	0xbe8de0e9	-0.27710655
39	0xbf34a8bc	-0.7056997
40	0xbeb5cffb	-0.3551024
41	0xbf37e1b2	-0.7182876
42	0x3e37df4d	0.17956276
43	0xbdd4a9a3	-0.10383918
44	0x3dbbfc42	0.09178974
45	0x3fbab3e8	1.4586153
46	0x3fabfd35	1.3436648
47	0x3f85ebe8	1.0462618
48	0x3d361b38	0.04445955
49	0x3f3a26bc	0.72715354
50	0x3f39980f	0.7249765
51	0x3ee03967	0.43793795
52	0x3fb6e2a9	1.4287921
53	0xbed162c5	-0.40895668
54	0xbf0bf61a	-0.54672396
55	0x3ec1522a	0.37758
56	0x3ec66931	0.3875213
57	0x3f148c27	0.58026356
58	0x3f11bbdf	0.56927294
59	0x3d714fb8	0.058913916
60	0xbee2e8c4	-0.4431821
61	0xbf284501	-0.6573029
62	0xbf7c2d11	-0.98506266
63	0x3f8c8f2e	1.0981195

critic.2.weight f4 [64, 64]
0	0x3dab2e44	0.08358434
1	0x3f325a42	0.6966897
2	0xbe6da64f	-0.23207973
3	0x3f40bd8c	0.75289226
4	0x3f87e1f8	1.0615835
5	0xbea8345b	-0.32852444
6	0xbf9de979	-1.2336875
7	0xbdaefe48	-0.08544594
8	0x3dfb0d7b	0.122584306
9	0x3e7ca51a	0.24672356
10	0xbed3c7fb	-0.4136351
11	0xbf73818f	-0.95119566
12	0xbe69a46a	-0.22816625
13	0xbf271525	-0.6526664
14	0x3bbadcac	0.0057025757
15	0xbf6dcd1c	-0.928911
16	0xc00080dc	-2.007865
17	0xbfb4d9a7	-1.4128922
18	0x3eca25a6	0.39481848
19	0xbfba34ab	-1.4547323
20	0xbfa82402	-1.3135989
21	0x3fae7674	1.3629899
22	0xbfac5584	-1.3463597
23	0xbf63780f	-0.8885507
24	0xbfa12f32	-1.2592528
25	0xbe31765a	-0.17330304
26	0x3fada0bf	1.3564681
27	0x3d96c00a	0.07360847
28	0x3e654929	0.2239119
29	0xbf085892	-0.5326015
30	0x3f83778b	1.0270857
31	0x3f2691a4	0.6506598
32	0x3ed8a571	0.42313722
33	0xbf7aecb7	-0.9801745
34	0x3e31a6e3	0.17348818
35	0xbfb2304b	-1.3920988
36	0xbe71c1f4	-0.23609143
37	0xbf84bc6e	-1.0370004
38	0x3fa87bfa	1.3162835
39	0xbd2f1d1d	-0.042752374
40	0xc00cd20c	-2.2003202
41	0xbe3a1950	-0.18173718
42	0xbee367bd	-0.44415084
43	0xbfd7f231	-1.6870786
44	0xbe84431e	-0.25832456
45	0xbdf7fb7c	-0.12108514
46	0xbe6827a7	-0.22671376
47	0x3f73baa3	0.9520666
48	0x3e9e0d1f	0.30869386
49	0xbe7d9342	-0.24763206
50	0x3ef36a38	0.47541976
51	0xbe207221	-0.15668537
52	0xbfbb9cf8	-1.4657278
53	0x3e1a7aa1	0.15085842
54	0xbfeb7474	-1.8394914
55	0x3a2da9da	0.0006624736
56	0xbf0b6731	-0.5445433
57	0xbeb03bb2	-0.34420544
58	0x3e467cc7	0.19383536
59	0x3e81fc7b	0.2538794
60	0x3ff4f234	1.9136415
61	0x3ea1c5e8	0.31596303
62	0xbeb28bd1	-0.34872296
63	0xbf3e2a90	-0.74283695
64	0xbebb41c1	-0.36573604
65	0xbde7461d	-0.1129267
66	0xbf9aa9c3	-1.2083057
67	0xbd68e5c7	-0.056859758
68	0x3ee2cea6	0.44298285
69	0x3ef3dff2	0.47631794
70	0xbf27c5ea	-0.6553637
71	0x3f2092aa	0.6272379
72	0xbf63b323	-0.88945216
73	0x3edb17de	0.42791647
74	0x400de198	2.2168941
75	0xbfa06713	-1.2531456
76	0xbe080e4e	-0.13286707
77	0xbfd760c9	-1.6826411
78	0x3f8d8889	1.1057292
79	0x3f1c18c5	0.60975295
80	0x3df5c5ba	0.12000604
81	0xbf9148dc	-1.135036
82	0xbf60e940	-0.8785591
83	0x3f2f3025	0.6843284
84	0xbfd65175	-1.6743609
85	0xbdeebf19	-0.11657543
86	0x3faf432f	1.3692378
87	0xbec340c2	-0.38135344
88	0xbf2b8011	-0.6699229
89	0x3ec0631a	0.37575608
90	0x3f8badbc	1.0912395
91	0x3ef2108e	0.47278255
92	0xbb615c31	-0.0034387226
93	0x3f14ccad	0.5812481
94	0x3fc63906	1.5486152
95	0x3f1a7c8e	0.60346305
96	0x3fe969df	1.8235434
97	0xbfd5e3c1	-1.671013
98	0x3c9c2010	0.019058257
99	0x3f4f1824	0.8089621
100	0x3f1e69e3	0.6188032
101	0x3da7f5d6	0.08201186
102	0xbf140b4a	-0.57829726
103	0xbf2ad8fb	-0.66737336
104	0x3eafece7	0.3436043
105	0x3f122694	0.57090116
106	0x3fad21be	1.3525922
107	0x3e8a3158	0.2699077
108	0x3f6e1211	0.9299632
109	0xbf592f71	-0.84838015
110	0xbe4e922a	-0.20172945
111	0xbfa5e483	-1.2960361
112	0x3f6cc4c0	0.92487717
113	0xbf49e7f1	-0.7886954
114	0x3e12d177	0.14337717
115	0xbe11e12a	-0.1424605
116	0xbe92bcb4	-0.28659594
117	0x3fa3635d	1.2764698
118	0xbd48ac2b	-0.048992317
119	0xbf6ee064	-0.9331114
120	0x3f6b71ae	0.91970336
121	0xbecbd80d	-0.3981327
122	0xbf1a4516	-0.60261667
123	0x3e9bf01d	0.3045663
124	0xbf3d052a	-0.73836005
125	0x3f107148	0.56422853
126	0x3f694442	0.9111978
127	0xbfce3d33	-1.6112427
128	0xc00f6faa	-2.2411904
129	0x3f8fa857	1.1223248
130	0x3f568f69	0.83812577
131	0xbf0f7e6f	-0.560523
132	0x3f35f598	0.7107787
133	0x40143426	2.315683
134	0x3f745ab9	0.9545093
135	0x3e31f5e9	0.17378964
136	0x3f7aeb7d	0.98015577
137	0x3ffd5be4	1.9793668
138	0x3efc6770	0.49297667
139	0x3e3e9b9f	0.18614052
140	0x3ef254b4	0.47330248
141	0x3f833a37	1.0252141
142	0x3f9b7f9a	1.2148316
143	0xbfa7d1e8	-1.3110933
144	0xbf34d390	-0.7063532
145	0x3a5fd256	0.00085381174
146	0xbf0e7883	-0.55652636
147	0x3fa42ee9	1.2826816
148	0x3f82217e	1.0166471
149	0xbd22fc1c	-0.03979121
150	0xbf8dec81	-1.10878
151	0x3f634fdd	0.88793737
152	0x3f11caf7	0.56950325
153	0xbf5a15bb	-0.8518941
154	0x3e4f1c6b	0.20225684
155	0xbe8c136e	-0.27358574
156	0x3d21b63c	0.039480433
157	0xbf1f4ca1	-0.622263
158	0x3f3bd425	0.7337058
159	0x3f113942	0.56727993
160	0xbaf099f3	-0.0018356427
161	0xbe217cc0	-0.15770245
162	0xbf2fc6c3	-0.6866266
163	0xbf618cc5	-0.8810542
164	0xbe8ab960	-0.27094555
165	0xbf1a1be6	-0.6019882
166	0xbf736005	-0.9506839
167	0x3f52ae1f	0.8229694
168	0xbf5c7f5c	-0.86131835
169	0xbfc27b9e	-1.5193975
170	0x3f91ad11	1.1380941
171	0xbfabf2bd	-1.3433453
172	0xbea3b891	-0.3197675
173	0xbf0bf5ab	-0.54671735
174	0xbeefba94	-0.46822035
175	0xbce35dc0	-0.027754664
176	0xbf05afaf	-0.52221197
177	0xbfc6633b	-1.5499033
178	0x3c2582a4	0.010101948
179	0x3e9ccd1f	0.30625245
180	0xbf3b74c6	-0.7322506
181	0x3e24f448	0.16108811
182	0x3f2ba972	0.6705543
183	0x3f146a52	0.5797473
184	0xbf36f00b	-0.71460027
185	0xbeab48fb	-0.33454117
186	0x3faae054	1.334971
187	0x3fd01937	1.6257695
188	0x3e1d71be	0.1537542
189	0xbeca644c	-0.39529645
190	0xbe940451	-0.28909543
191	0x3fb1f6f2	1.3903487
192	0xbf19579f	-0.59899324
193	0x3e277e8f	0.16356872
194	0xbe91cd04	-0.28476727
195	0xbcf68275	-0.030091504
196	0xbe57a9d2	-0.21060875
197	0x3e365068	0.1780411
198	0x3eac160a	0.33610564
199	0xbfb9b20a	-1.4507458
200	0xbf6a425b	-0.915075
201	0x3f5e9a80	0.869545
202	0xbec415ef	-0.38297984
203	0x3f723cae	0.9462384
204	0x3fa3b538	1.2789679
205	0x3fd3bd90	1.6542225
206	0x3f872538	1.0558233
207	0x3f1592dc	0.58427215
208	0x3fc442d5	1.5332896
209	0x3fa547dc	1.2912555
210	0x3f7301a8	0.949244
211	0xbeb7ab9f	-0.35873124
212	0x3e52e432	0.20594862
213	0x4017fe82	2.374909
214	0x3f047aa3	0.5174963
215	0x3f367f46	0.71287954
216	0xbf824dcf	-1.0179995
217	0x3fc4fb34	1.5389161
218	0xbdf846e0	-0.12122893
219	0xbe784aa2	-0.2424722
220	0xbf063b6f	-0.5243444
221	0xbf5078b9	-0.8143421
222	0xbedebba8	-0.43502545
223	0xbe621cde	-0.22081324
224	0xbef58756	-0.47954816
225	0x3f2c7d71	0.6737891
226	0x3e7e1090	0.24811006
227	0x3f62882f	0.8848905
228	0xbff54ede	-1.9164693
229	0x3f378a05	0.71694976
230	0x3de1f26e	0.11032568
231	0x3ee0ae30	0.43882895
232	0x3ed16c44	0.40902913
233	0xbf76138e	-0.9612359
234	0xbefd0289	-0.49415997
235	0x3f660a74	0.898597
236	0x3fc2140b	1.5162367
237	0x3f8b5ce0	1.0887718
238	0x3f5cda20	0.8627033
239	0xbf03e57d	-0.51522046
240	0xbe80452d	-0.25052777
241	0x3f9b3106	1.2124336
242	0x3ebcbc8c	0.368626
243	0x3e527641	0.20552923
244	0x3f801564	1.0006528
245	0xbf078859	-0.52942425
246	0x3e0c1afa	0.13682166
247	0x3f15c9a7	0.5851082
248	0x3fa41d3c	1.2821422
249	0xbe0f43aa	-0.13990656
250	0xbdd938eb	-0.10606559
251	0xbf4237ad	-0.75866205
252	0xbf22b118	-0.63551474
253	0x3f966a0e	1.1751115
254	0x3ea1165d	0.31462374
255	0x3f03d6af	0.51499456

critic.2.bias f4 [64]
0	0x3fb02af2	1.3763106
1	0x3e97aae3	0.29622564
2	0xba453443	-0.0007522741
3	0x3f8d279e	1.1027715
4	0x3ea5b015	0.32360902
5	0x3fa0345c	1.2515979
6	0xbe23a139	-0.1597947
7	0x3d59664b	0.05307607
8	0x3ef5fc34	0.48043978
9	0xbee3962b	-0.44450507
10	0x3fb10a43	1.3831257
11	0xbe1981bf	-0.149909
12	0xbed1d638	-0.40983748
13	0xbfa28a1c	-1.2698398
14	0x3f232e9c	0.63742995
15	0xbeb0f642	-0.3456288
16	0x3dd59b8d	0.104300596
17	0x3ebcfbac	0.3691076
18	0xbda019da	-0.07817431
19	0x3e23b317	0.15986286
20	0x3ee92666	0.45537108
21	0x3edd6245	0.43239036
22	0xbeba3f40	-0.3637638
23	0xbf81d365	-1.0142637
24	0x3f49742e	0.786929
25	0xbf365d7d	-0.712364
26	0xbf82b288	-1.0210733
27	0xbe31d06e	-0.17364666
28	0xbf596de0	-0.8493328
29	0x3f573149	0.8405958
30	0xbfb3553f	-1.401039
31	0xbede9543	-0.43473253
32	0xbe0fca80	-0.14042091
33	0xbea449a9	-0.32087448
34	0x3f65ff3d	0.8984259
35	0x3fc2363e	1.5172803
36	0xbf61f888	-0.88269854
37	0xbee1b147	-0.44080564
38	0x3f5c3a29	0.86026245
39	0x3f4c751e	0.79866207
40	0xbf455d0a	-0.7709509
41	0xbd357f95	-0.044311125
42	0x3f2430b6	0.64136827
43	0x3de0647b	0.10956665
44	0x3cf2c5e4	0.029635377
45	0x3fdd4436	1.7286441
46	0x3f1e2891	0.6178065
47	0x3e6d9b4b	0.23203771
48	0xbe10a25c	-0.14124435
49	0x3f49f5f7	0.7889094
50	0x3f909d38	1.1297979
51	0x3f441a87	0.7660298
52	0xbe75c53e	-0.24001023
53	0xbf2386f4	-0.638778
54	0x3e58689a	0.21133652
55	0x3de03447	0.10947471
56	0xbec45a12	-0.38349968
57	0xbef446c3	-0.47710237
58	0x3e37949b	0.17927782
59	0x3d592cae	0.053021125
60	0xbe727c84	-0.23680311
61	0x3f3baff8	0.7331538
62	0x3e356fce	0.17718431
63	0xbf430a87	-0.7618794

critic.4.weight f4 [1, 64]
0	0x3e8c250e	0.2737202
1	0x3e9d0e58	0.30675006
2	0xbed29ef6	-0.41136903
3	0xbeacb50a	-0.33731872
4	0x3e2a3654	0.16622287
5	0x3ed34c53	0.41269168
6	0xbe9bf082	-0.3045693
7	0x3eeddebb	0.46458992
8	0x3e95c195	0.29249254
9	0xbea31e5e	-0.31859106
10	0x3e9116fc	0.28337848
11	0x3e8290ef	0.255012
12	0xbe84044e	-0.25784534
13	0xbe72d974	-0.23715764
14	0x3ea637ee	0.32464546
15	0xbea93244	-0.33046162
16	0x3eca21bb	0.3947886
17	0xbef74670	-0.48295927
18	0x3eab3829	0.33441284
19	0xbea83ce9	-0.3285897
20	0xbe9fa1be	-0.31178087
21	0xbe88beb2	-0.2670799
22	0xbe9d8b6d	-0.30770436
23	0xbe931f0f	-0.28734633
24	0x3eb2550b	0.34830508
25	0xbec0fff3	-0.37695274
26	0xbe910377	-0.28322956
27	0xbeaa9269	-0.33314827
28	0xbe56becc	-0.2097122
29	0xbe8af186	-0.27137393
30	0x3e924e1e	0.28575224
31	0xbe9d3b88	-0.3070948
32	0x3e9fb5bc	0.3119334
33	0xbea2c780	-0.3179283
34	0x3e59f2d8	0.21284044
35	0xbedacf26	-0.42736167
36	0xbe5a923a	-0.21344844
37	0xbe9fc317	-0.3120353
38	0x3e898890	0.26862
39	0x3e899dab	0.26878104
40	0x3e9315f3	0.28727683
41	0x3e74f2dc	0.23920768
42	0xbe6132aa	-0.21991983
43	0xbebfaa81	-0.37434772
44	0xbedfb83f	-0.43695256
45	0x3ee70883	0.4512368
46	0xbe88ec5d	-0.2674283
47	0x3ea278b5	0.31732717
48	0xbe9242b3	-0.28566512
49	0xbebf0727	-0.37310144
50	0xbe954b9e	-0.29159254
51	0xbe98bc24	-0.2983104
52	0x3eb3eddc	0.3514241
53	0xbe92a319	-0.2864006
54	0xbe80d24b	-0.2516044
55	0x3ea88ed5	0.32921472
56	0xbe9367da	-0.2879017
57	0xbe774925	-0.24148996
58	0x3edfadf2	0.43687397
59	0xbeb2313a	-0.34803182
60	0xbea818a5	-0.32831302
61	0xbe920ee4	-0.28526986
62	0x3e85eb8f	0.2615628
63	0x3e945c1d	0.28976527
