Model Results/ppo_sentiment_TSLA2020-12-011999.pth (torch, 50591 bytes, 11 tensors)

actor.0.weight f4 [64, 20]
0.71446943 0.2542518 -0.29597595 -0.24150845 -0.16114059 0.21711594 3.2227998 3.5305378
4.4041677 0.6483392 0.75803393 0.72425205 1.8926384 0.4858815 -0.065080106 -0.7842425
-1.2173439 0.26721588 0.5996935 0.10177789 -0.38884616 1.3090897 1.2921307 -0.111552574
-0.14291395 -0.4743247 -0.39484593 -0.6052254 -1.5112984 -0.40750834 -0.50364083 -0.50680196
-0.53314173 -0.46073493 -0.42730922 1.4897068 1.174168 0.86175513 0.2542351 -0.44508988
-0.3985763 -0.83120614 -1.269895 -0.092326276 0.054830525 -0.3438455 2.2426538 1.8283688
2.1342473 0.104795486 -0.061918415 -0.01354142 0.8859629 1.3197438 -0.5013392 -1.3061401
-1.5734087 -3.653149 -0.602693 -0.48759136 -0.910492 -0.15833738 -0.056454215 0.1605766
0.80829257 0.59432966 -3.101342 -3.383712 -3.0054464 -0.9553964 -0.68521285 -0.46146843
-0.21445079 0.27599496 -0.19716023 0.025764061 0.0012528034 -0.48045194 -0.015276354 -0.1934712
-0.74580514 -1.6820029 -1.2946303 0.040258493 -0.2281736 -0.28982222 2.8757057 2.7060797
2.5930662 0.93715954 0.6326312 0.45135385 2.275527 1.185667 -0.15542059 -0.6751746
-0.82031476 -0.1827655 0.26394668 -0.13515337 0.31356984 1.6101862 1.7988732 1.4513061
0.8667216 1.1619241 0.13058744 -0.90005714 -1.2024904 0.098664604 -0.09560774 -0.34079394
0.24802603 -0.5283692 0.16722046 0.54813117 0.7514926 -0.18864673 -0.686169 0.18520963
-0.19924206 0.14154834 0.81059164 1.0915893 0.7773123 0.8215076 1.1167331 0.7767618
0.7781806 0.5816978 0.79265076 0.7129379 0.001384493 0.12149305 0.7394527 -0.47266975
0.5178866 0.17892966 -0.58434606 0.5898293 -1.0953034 -0.08478222 -0.79814196 0.6183055
0.6090663 0.38762304 -2.065955 -1.4257553 -1.1996677 -0.7067888 -0.8081401 -0.7324156
-0.7446776 0.83549225 -0.82581025 0.043273438 -0.051594943 0.24426287 0.63721263 -0.654317
-0.5730449 -0.09763946 0.06030241 0.95812047 0.6730343 0.507984 -1.9316404 -2.2040372
-1.9563973 0.096444644 0.33258155 0.5672934 -1.048832 -1.0646251 0.53726536 -0.81575876
0.81754816 -0.1290838 0.688432 0.67843527 -1.8350743 -3.3014297 -1.5615934 0.64795256
0.0546215 0.12770954 1.2755253 0.8022395 0.7454662 -0.24116708 -0.102136664 0.02939897
0.59106326 0.81080866 -0.6273826 0.39732584 -0.7396313 -0.33065873 -0.25344393 -0.13631599
0.5746983 -0.38206092 -0.95386505 0.862327 -0.086619206 0.45472234 -1.1582791 -2.1463153
-2.2940085 -0.10913441 0.13736774 -0.06372773 0.48665863 0.5095666 0.40652946 1.0226403
0.28765213 0.8948504 0.27629766 0.50376326 -0.7550272 -0.7656005 -0.75428885 -0.1689687
-0.2201472 -0.23288836 2.709004 1.9333473 1.147775 0.7387127 0.4570725 0.56745124
1.3178822 0.08669214 0.5361084 -0.1977475 -0.49390885 0.6292908 -0.8205616 0.4443183
-1.2463253 -0.4042248 -0.40996894 1.5121807 1.1438097 1.3406397 0.09367986 -0.408204
-0.6969232 0.27304402 0.26189056 0.132836 0.19297795 0.17329057 0.40152875 -0.407047
00000000: 78e7 363f 4b2d 823e 298a 97be fe4d 77be
00000010: 0a02 25be a453 5e3e 5a42 4e40 55f4 6140
00000020: f1ee 8c40 8ff9 253f 830e 423f 9568 393f
00000030: fa41 f23f 76c5 f83e b848 85bd 1ec4 48bf
00000040: edd1 9bbf 85d0 883e 8385 193f ed70 d03d
00000050: d816 c7be 4090 a73f 8a64 a53f ad75 e4bd
00000060: 0958 12be b0da f2be 3f29 cabe 0df0 1abf
00000070: 3a72 c1bf efa4 d0be 9bee 00bf c6bd 01bf
00000080: fa7b 08bf 73e5 ebbe 46c8 dabe b6ae be3f
00000090: 234b 963f fc9b 5c3f 1a2b 823e d2e2 e3be
000000a0: 3112 ccbe edc9 54bf eb8b a2bf 8f15 bdbd
000000b0: f995 603d 840c b0be a487 0f40 fd07 ea3f
000000c0: 8297 0840 049f d63d 2a9e 7dbd d5dc 5dbc
000000d0: 77ce 623f 5ded a83f c457 00bf 992f a7bf
000000e0: 7565 c9bf 31cd 69c0 174a 1abf 93a5 f9be
000000f0: 0116 69bf 3223 22be 893c 67bd 316e 243e
00000100: 43ec 4e3f fd25 183f 637c 46c0 bd8e 58c0
00000110: 3c59 40c0 dc94 74bf 1c6a 2fbf 9745 ecbe
00000120: fd98 5bbe 364f 8d3e 5fe4 49be 270f d33c
00000130: 1b35 a43a ccfd f5be ac49 7abc 501d 46be
00000140: 16ed 3ebf df4b d7bf 72b6 a5bf 17e6 243d
00000150: 57a6 69be 9463 94be 900b 3840 6930 2d40
00000160: ccf4 2540 b0e9 6f3f 1ef4 213f da17 e73e
00000170: 3ca2 1140 f0c3 973f 9326 1fbe 3ed8 2cbf
00000180: 2600 52bf e126 3bbe 0524 873e a565 0abe
00000190: 3a8c a03e 951a ce3f 7a41 e63f 66c4 b93f
000001a0: 77e1 5d3f eeb9 943f b7b8 053e 256a 66bf
000001b0: 35eb 99bf ab10 ca3d fecd c3bd 8b7c aebe
000001c0: 89fa 7d3e 3443 07bf d73b 2b3e 5352 0c3f
000001d0: d261 403f 9c2c 41be c6a8 2fbf 98a7 3d3e
000001e0: 1c06 4cbe 0cf2 103e ef82 4f3f 33b9 8b3f
000001f0: f0fd 463f 524e 523f 1cf1 8e3f dcd9 463f
00000200: d836 473f 26ea 143f 29eb 4a3f 1983 363f
00000210: e077 b53a 59d1 f83d c64c 3d3f c501 f2be
00000220: 3794 043f 5639 373e b497 15bf 0eff 163f
00000230: e732 8cbf 4da2 adbd 0853 4cbf 4549 1e3f
00000240: c5eb 1b3f 8776 c63e 9b38 04c0 267f b6bf
00000250: b68e 99bf 1cf0 34bf 45e2 4ebf 977f 3bbf
00000260: 31a3 3ebf d2e2 553f 4d68 53bf 7d3f 313d
00000270: 3855 53bd 0c20 7a3e 5e20 233f 5281 27bf
00000280: 12b3 12bf 32f7 c7bd a9ff 763d 6247 753f
00000290: fa4b 2c3f 3d0b 023f fe3f f7bf f20e 0dc0
000002a0: 3a6b fabf c584 c53d 2148 aa3e 243a 113f
000002b0: 2140 86bf a345 88bf 398a 093f 91d5 50bf
000002c0: d64a 513f 8b2e 04be 143d 303f efad 2d3f
000002d0: b7e3 eabf a04a 53c0 4be2 c7bf 38e0 253f
000002e0: cbba 5f3d 4ac6 023e 6a44 a33f 915f 4d3f
000002f0: dfd6 3e3f 81f4 76be 072d d1bd 1cd6 f03c
00000300: ec4f 173f 2891 4f3f 259c 20bf 4b6e cb3e
00000310: 7a58 3dbf 1a4c a9be 67c3 81be 6b96 0bbe
00000320: 6e1f 133f 7d9d c3be 8030 74bf 76c1 5c3f
00000330: 6965 b1bd 5ed1 e83e 7d42 94bf 3b5d 09c0
00000340: 09d1 12c0 dd81 dfbd 21aa 0c3e af83 82bd
00000350: 522b f93e f572 023f a124 d03e e1e5 823f
00000360: 2447 933e ea14 653f e376 8d3e a1f6 003f
00000370: 7649 41bf 65fe 43bf 1319 41bf 2206 2dbe
00000380: 456e 61be 497a 6ebe 5260 2d40 ed77 f73f
00000390: 4bea 923f 471c 3d3f 6805 ea3e 7c44 113f
000003a0: 5db0 a83f a68b b13d 663e 093f 527e 4abe
000003b0: 9fe1 fcbe 3419 213f 5310 52bf b07d e33e
000003c0: 9687 9fbf 8ef6 cebe 73e7 d1be 238f c13f
000003d0: 5b68 923f 159a ab3f 3adb bf3d 1d00 d1be
000003e0: 8f69 32bf 6dcc 8b3e 8516 863e 2906 083e
000003f0: 039c 453e 1573 313e 2d95 cd3e 7768 d0be

actor.0.bias f4 [64]
-0.014503205 -0.27204138 -0.33003685 -0.17566055 -0.110770926 0.06747958 0.600733 -0.64160603
0.72894883 -0.0015252891 0.26679477 0.47919187 0.3618079 -0.5022847 0.14904734 0.12666644
-0.006156912 0.17758931 0.3969093 0.09402433 -0.1560593 0.5733177 -0.28974327 -0.36745915
-0.07373829 -0.26014957 0.33875513 0.26054254 -0.9952561 0.22893645 -0.6011151 -0.3770476
0.25763842 -0.22869372 0.36421153 -0.44191772 -0.29265556 -0.81540567 0.15065628 0.2794446
-0.08120431 0.43944693 0.23575452 -0.5674747 -0.46724066 -0.19709276 0.5590183 -0.115499556
-0.323775 0.03293513 0.45718068 0.5645372 -0.17456464 0.6441798 0.8676466 -0.5154183
0.000610595 -0.0011757188 -0.18683086 0.42060855 0.4897863 -0.1845381 0.022267284 -0.1356406
00000000: da9e 6dbc 0249 8bbe 97fa a8be 5ce0 33be
00000010: dedb e2bd bc32 8a3d a3c9 193f 4b40 24bf
00000020: 649c 3a3f 36ec c7ba 5399 883e a358 f53e
00000030: e33e b93e bb95 00bf de9f 183e d9b4 013e
00000040: ecbf c9bb f9d9 353e b237 cb3e d48f c03d
00000050: 02ce 1fbe f3c4 123f 3b59 94be 9b23 bcbe
00000060: 1a04 97bd 5332 85be 5071 ad3e d565 853e
00000070: 1bc9 7ebf 516e 6a3e aee2 19bf 620c c1be
00000080: 2fe9 833e b02e 6abe ef79 ba3e 0a43 e2be
00000090: f3d6 95be 6dbe 50bf a445 1a3e 5d13 8f3e
000000a0: 724e a6bd 30ff e03e a269 713e 0646 11bf
000000b0: 2b3a efbe afd2 49be d31b 0f3f 088b ecbd
000000c0: d6c5 a5be fde6 063d 9613 ea3e 8385 103f
000000d0: 13c1 32be f8e8 243f 161e 5e3f 74f2 03bf
000000e0: 5610 203a 941a 9aba 9750 3fbe 015a d73e
000000f0: 45c5 fa3e 8ef7 3cbe e169 b63c 5fe5 0abe

actor.2.weight f4 [64, 64]
1.4971112 -0.052712414 0.041255567 -0.1476022 1.0499145 -0.40498355 -0.27395988 -0.7374681
0.26516992 -0.20109105 1.4698411 0.69598854 -0.13093917 1.0593164 0.39817917 -0.0042877784
0.91598225 1.0781643 0.036068317 -0.2483432 -0.4773088 -0.7335234 0.09739058 -0.17296663
-0.45273682 -0.773811 -0.09629523 -0.6389049 0.43061954 0.1984286 -0.6302647 -0.64843905
0.65806514 -0.53527015 0.1633487 0.45127398 -0.4255065 0.21836378 0.06917384 1.0399097
0.7564929 0.07111555 0.86566067 0.37904784 -0.10744572 0.2850366 0.73876673 -0.10273189
-0.15434612 -0.43254215 1.6769527 -0.12186268 -1.2068506 -0.38660902 1.7473078 -0.21492982
0.34557593 0.26071772 0.13039072 -0.74342144 0.0062996177 -0.57895416 -0.8360634 0.44992015
-0.22271886 0.030019527 -1.1427995 -0.17900187 0.31859878 -0.343725 0.36146027 0.019099865
-0.1375733 0.06083849 0.9400688 0.21192664 0.09665359 0.29288197 0.3232955 -2.3897557
0.3527994 -0.047387354 0.08951274 -0.6245377 -0.620665 -1.2257111 -0.99082613 -0.26396567
0.041479718 -0.24171732 0.5519387 1.272302 -0.4289578 0.26143786 -0.37351707 -0.41500664
0.8857734 -0.16019842 0.013158957 -0.001021372 0.7694061 0.49004272 -0.5582862 -0.45522055
0.4918771 -0.1379277 0.7802232 -0.45256442 0.56190056 0.7771551 0.46114025 -0.4060628
1.7437892 -0.59379655 0.26192704 -0.31685427 -0.32396862 -0.48846886 0.87100184 -0.57641625
0.5327007 -0.77189535 -1.0562258 -0.40110853 -0.11726148 2.3845284 -1.1446006 -2.6987293
0.70462155 -0.4874346 0.3829957 -0.2358409 2.0671391 -0.9102694 0.7340115 -0.09705653
1.052229 0.43397477 0.07034943 1.1254771 0.925038 0.6067482 0.04120793 0.5055729
0.91286606 0.4526484 -0.95288646 -0.12152728 0.042435613 0.6953575 -0.110579066 -0.049907714
-0.6789523 -1.1503683 -0.53618646 0.48326394 -0.224604 -0.1877197 0.4606905 -0.56151503
-0.3035482 0.23220919 -0.21978453 -0.22112665 0.7859592 -0.072329886 -0.2931309 0.584351
0.5436673 0.022992421 0.75887537 -0.5337898 1.7906427 0.2202359 0.16700804 -0.51671344
-0.2740497 -0.83131 1.033719 1.1834446 -1.0609636 0.56738424 -0.30530855 -0.39056593
-0.22824283 0.045659173 -1.0208994 -0.18459438 -0.06375422 -0.06392985 -0.6638975 0.721277
0.37290013 -1.2782103 0.440316 -0.51415306 -0.2163399 -0.007914533 -1.2914017 -0.17342685
-0.57719 -0.13021763 -0.6609834 -0.55472904 -0.58787155 0.53134835 -0.26215896 0.6159539
-0.01098455 0.30892512 -0.336954 0.084587686 0.25267488 -0.90853494 -1.4671831 1.0814813
-0.17769425 0.51338124 0.05406293 0.73614186 1.0085784 0.8470115 -0.915536 0.55518854
0.3081159 0.26326987 -0.15444022 1.4280655 -0.1998053 0.9157831 -0.15791894 -1.664652
-0.5358378 0.05177567 -1.1608154 0.93688375 -0.6083764 -0.40719914 0.26705775 0.25313094
-0.08071681 -0.60694057 0.50675184 -0.20715292 0.9171819 -0.7470442 0.14583229 -0.97677076
-0.67025226 0.30023897 0.2971365 -0.5078061 -0.026785558 -0.18666002 0.42049852 0.14853653
00000000: 57a1 bf3f f9e8 57bd 99fb 283d 0825 17be
00000010: 9963 863f 015a cfbe 7844 8cbe b6ca 3cbf
00000020: 5ac4 873e d0ea 4dbe c123 bc3f 4e2c 323f
00000030: eb14 06be ae97 873f 24de cb3e 7e80 8cbb
00000040: d07d 6a3f 4a01 8a3f 5fbc 133d ae4d 7ebe
00000050: d261 f4be 31c8 3bbf b674 c73d 2a1e 31be
00000060: 1fcd e7be 7a18 46bf 6f36 c5bd 468f 23bf
00000070: 2a7a dc3e de30 4b3e 0759 21bf 1a00 26bf
00000080: f576 283f 7707 09bf e244 273e 620d e73e
00000090: fddb d9be c19a 5f3e 04ab 8d3d c31b 853f
000000a0: 85a9 413f 08a5 913d f09b 5d3f 8f12 c23e
000000b0: 800c dcbd 51f0 913e d11f 3d3f 1965 d2bd
000000c0: e90c 1ebe 2a76 ddbe 63a6 d63f 2493 f9bd
000000d0: 157a 9abf 9ef1 c5be c8a7 df3f 9016 5cbe
000000e0: 54ef b03e cb7c 853e 2585 053e de50 3ebf
000000f0: 066d ce3b 5736 14bf 4008 56bf ef5b e63e
00000100: 6a10 64be 83eb f53c 4147 92bf 444c 37be
00000110: 611f a33e b9fc afbe 5211 b93e 5277 9c3c
00000120: 04e0 0cbe c831 793d 59a8 703f 4c03 593e
00000130: 51f2 c53d a0f4 953e fd86 a53e c2f1 18c0
00000140: 1fa2 b43e 3e19 42bd 7552 b73d b4e1 1fbf
00000150: e7e3 1ebf 1ae4 9cbf c8a6 7dbf 8226 87be
00000160: a3e6 293d bf84 77be db4b 0d3f cbda a23f
00000170: 5ba0 dbbe 2fdb 853e a13d bfbe c07b d4be
00000180: 0cc2 623f 0e0b 24be aa98 573c 8fdf 85ba
00000190: ccf7 443f e1e6 fa3e d8eb 0ebf ab12 e9be
000001a0: 51d7 fb3e eb3c 0dbe b5bc 473f 86b6 e7be
000001b0: b7d8 0f3f a3f3 463f 931a ec3e 77e7 cfbe
000001c0: 7c34 df3f 0d03 18bf 4d1b 863e b93a a2be
000001d0: 37df a5be 9718 fabe faf9 5e3f 0490 13bf
000001e0: 135f 083f ef9a 45bf 6832 87bf 195e cdbe
000001f0: c926 f0bd 1d9c 1840 4682 92bf fbb7 2cc0
00000200: 1462 343f 0791 f9be 0318 c43e 4780 71be
00000210: 024c 0440 6a07 69bf 2de8 3b3f 93c5 c6bd
00000220: 71af 863f f131 de3e 5d13 903d a20f 903f
00000230: 4acf 6c3f da53 1b3f a5c9 283d 3a6d 013f
00000240: 97b1 693f 88c1 e73e 5ef0 73bf 4be3 f8bd
00000250: f7d0 2d3d f302 323f 4777 e2bd 086c 4cbd
00000260: d1cf 2dbf 453f 93bf 8443 09bf 5f6e f73e
00000270: 97fe 65be 9839 40be a0df eb3e 73bf 0fbf
00000280: ab6a 9bbe 3fc8 6d3e 320f 61be 066f 62be
00000290: 9f34 493f b121 94bd 4115 96be 0798 153f
000002a0: c82d 0b3f 9a5a bc3c a845 423f 73a6 08bf
000002b0: c833 e53f 8585 613e 2804 2b3e 5547 04bf
000002c0: 3e50 8cbe bbd0 54bf e750 843f 1d7b 973f
000002d0: a8cd 87bf 1840 113f 6751 9cbe 42f8 c7be
000002e0: 7db8 69be 1d05 3b3d d5ac 82bf 4f06 3dbe
000002f0: 9391 82bd a7ed 82bd 30f5 29bf 9ca5 383f
00000300: c4ec be3e 659c a3bf 1971 e13e 899f 03bf
00000310: 3588 5dbe f5ab 01bc a74c a5bf cf96 31be
00000320: b9c2 13bf c557 05be 3536 29bf b902 0ebf
00000330: c07e 16bf 7206 083f b339 86be 28af 1d3f
00000340: 8bf8 33bc 6f2b 9e3e 3c85 acbe 4f3c ad3d
00000350: 9a5e 813e bf95 68bf a8cc bbbf fb6d 8a3f
00000360: 7bf5 35be f46c 033f 1771 5d3d cb73 3c3f
00000370: 1919 813f bfd5 583f 9160 6abf d620 0e3f
00000380: 5ec1 9d3e 4fcb 863e 9425 1ebe daca b63f
00000390: c399 4cbe c370 6a3f 81b5 21be 5113 d5bf
000003a0: ab2c 09bf ba12 543d 9995 94bf 9dd7 6f3f
000003b0: 8ebe 1bbf 687c d0be cbbb 883e 619a 813e
000003c0: db4e a5bd 7560 1bbf 7dba 013f e51f 54be
000003d0: 6fcc 6a3f 4a3e 3fbf 0f55 153e a60d 7abf
000003e0: a795 2bbf ecb8 993e 4622 983e 95ff 01bf
000003f0: 636d dbbc ce23 3fbe 954b d73e f619 183e

actor.2.bias f4 [64]
0.21089159 0.27761722 0.07996432 0.11342419 -0.2792163 -0.60602283 0.4406386 -0.7562699
-0.104034156 0.35093024 0.30015492 -0.5653936 0.18230392 -0.43182787 0.20248625 0.44904122
0.46764135 -0.22022486 -0.034403395 0.15742768 -0.70867026 -0.6202506 -0.708396 0.2730185
-0.01309068 -0.42249486 -0.60348177 -0.25609735 0.09409486 -0.23247074 -0.38308546 0.16375865
0.06846467 0.16677435 0.28917065 0.42294952 -0.13997358 0.26830125 -0.46889356 -0.052983057
0.20551522 -0.021283794 0.287703 0.1625256 -0.36635128 -0.59471345 0.21044801 -0.048707448
0.3749157 0.0987688 0.014065434 -0.17415182 -0.52129066 -0.4462349 0.82781035 -0.3840513
0.3801197 0.16759029 0.8798206 0.04586058 -0.6253828 -0.13072409 0.05841714 0.033535536
00000000: f7f3 573e d823 8e3e 55c4 a33d f14a e83d
00000010: 70f5 8ebe 5024 1bbf 629b e13e e79a 41bf
00000020: dc0f d5bd 21ad b33e e8ad 993e a3bd 10bf
00000030: e1ad 3a3e 8b18 ddbe 8e58 4f3e bbe8 e53e
00000040: b06e ef3e a082 61be 93ea 0cbd b934 213e
00000050: 6a6b 35bf bec8 1ebf 7159 35bf 15c9 8b3e
00000060: 4b7a 56bc 3f51 d8be c87d 1abf 311f 83be
00000070: ceb4 c03d cf0c 6ebe c723 c4be 59b0 273e
00000080: 3437 8c3d e5c6 2a3e 2d0e 943e d78c d83e
00000090: 3c55 0fbe c85e 893e d112 f0be c304 59bd
000000a0: 9572 523e 5a5b aebc cf4d 933e 1c6d 263e
000000b0: 6592 bbbe 243f 18bf af7f 573e 7681 47bd
000000c0: f3f4 bf3e 4c47 ca3d b572 663c db54 32be
000000d0: 4e73 05bf e778 e4be 61eb 533f 5fa2 c4be
000000e0: 0d9f c23e ca9c 2b3e ec3b 613f 4ed8 3b3d
000000f0: 1619 20bf 89dc 05be d046 6f3d 8f5c 093d

actor.4.weight f4 [7, 64]
1.662034 2.130861 2.0024946 -1.6243768 -2.7957351 -1.8709859 -1.5009071 0.21868064
2.1077826 1.2713479 1.7900898 0.1148866 1.3210051 -0.81781495 1.7839612 2.0006313
1.9009236 1.0903361 1.5823336 3.2843807 -2.5312963 -1.108213 -1.3136836 -2.648603
-1.9088662 -1.7308426 -1.7053688 -2.4860022 -1.2320473 -0.66431653 -2.6049116 1.8762219
2.268643 -3.0796082 2.9158068 -0.11866117 2.044889 1.3360221 0.5278688 2.4297354
0.6577894 -2.241199 -0.18938002 2.092508 0.046591517 2.2257984 -1.3768448 -2.201951
1.1346256 2.6643243 1.3942796 -1.4408455 1.8547914 1.6827749 -1.920749 -1.476377
1.0934621 2.7011082 2.6893604 1.2678688 -1.8811661 -3.0589652 0.2601574 2.6482215
0.3082347 -1.3507584 0.76463854 0.05897681 0.6855588 0.43386176 -0.18900399 0.0031653035
0.45306328 -0.23063275 0.5970086 2.240668 1.1094753 -0.77599794 0.5349649 -0.18684426
0.2825042 -1.2423024 0.880171 -0.293764 0.8777543 2.4104457 0.3480283 1.4880883
-0.02658691 -0.4656357 1.7097771 0.6147326 -0.46097857 -1.0687821 -0.3247631 0.73238534
0.18358451 -0.79355925 -0.108901784 -1.3630908 1.1523678 1.5032512 0.13838102 -0.6036973
0.30767295 -0.30368963 0.4690623 1.7714406 -1.3915417 0.4355094 -1.5907743 0.2056684
-0.98026353 0.16844715 -1.7058576 0.57167494 -0.66080034 -1.9002068 0.45520467 2.504491
0.9177582 -0.66317475 0.028262123 0.5524586 0.18737932 -1.2856448 -1.3019736 -0.5626001
1.0839462 -2.1553206 0.94976616 0.17525026 -0.022564732 0.33737037 0.3279543 -0.53572536
-1.4976052 -1.2455535 0.035158716 0.16342312 0.66528547 -0.35251912 -0.8006001 0.05023964
-1.8871435 0.4157753 -0.10325517 -0.1540109 0.63764894 -0.049758714 1.6955372 0.8823884
1.6040754 0.09810551 0.39305958 0.9184546 -1.59395 1.0023793 -0.62664807 -0.33975953
-1.3556652 1.4755113 -0.5901312 -0.017966282 0.039976824 -0.6187063 -0.303721 0.6738446
0.097450145 1.842932 0.3690989 -0.9781141 0.6569072 -1.7112871 0.83403754 0.51410836
0.23249826 -1.0749991 1.1817796 -0.34200385 0.6227883 -0.9961099 -0.52201694 0.14059906
-0.04156719 -1.5433625 -0.37146303 0.4061108 1.4018958 0.16812564 -0.35910305 -0.12430847
-0.8615909 -1.0345658 0.95599824 -0.3975161 0.21093802 1.3323095 0.7470951 -1.0788
-2.7479985 1.3509829 -1.6675353 -2.193686 -0.1323287 -0.38797915 -0.36861065 1.241443
-1.7016044 -0.6247279 0.60172963 -0.7662984 0.8051146 1.3771862 -1.3805051 0.1939721
2.5089495 1.6064413 0.9016222 -0.3247744 -0.32348558 0.70046645 0.5459304 -0.9958496
0.26839882 0.95394486 -1.905945 1.5508041 -2.836617 -0.2960204 -1.0374882 0.61700374
-1.792666 -0.27412495 0.6823901 -1.1630306 1.3092418 -1.7729594 1.8327439 2.0510104
-1.4501615 -1.1998938 1.7131416 1.8973006 -1.0683701 -0.24976721 0.49274367 -0.34783313
1.3233479 -0.3059499 0.79582334 -2.7371798 -1.722991 1.7829729 2.2138107 0.51400614
00000000: 88bd d43f 0760 0840 df28 0040 94eb cfbf
00000010: 53ed 32c0 777c efbf b91d c0bf d1ed 5f3e
00000020: e9e5 0640 87bb a23f aa21 e53f aa49 eb3d
00000030: b216 a93f 525c 51bf d758 e43f 580a 0040
00000040: 7751 f33f 2290 8b3f e889 ca3f 4b33 5240
00000050: c200 22c0 ecd9 8dbf c926 a8bf b682 29c0
00000060: ba55 f4bf 408c ddbf 8649 dabf a91a 1fc0
00000070: bab3 9dbf a610 2abf dfb6 26c0 0a28 f03f
00000080: 7231 1140 4d18 45c0 949c 3a40 a104 f3bd
00000090: 76df 0240 c602 ab3f 6922 073f c980 1b40
000000a0: e364 283f ce6f 0fc0 d6ec 41be a7eb 0540
000000b0: bfd6 3e3d 7b73 0e40 733c b0bf c4ec 0cc0
000000c0: 693b 913f 4a84 2a40 c177 b23f a06d b8bf
000000d0: ce69 ed3f 2b65 d73f 1adb f5bf ecf9 bcbf
000000e0: 91f6 8b3f f5de 2c40 7b1e 2c40 8649 a23f
000000f0: 0dca f0bf 16c6 43c0 5a33 853e 767c 2940
00000100: f0d0 9d3e a7e5 acbf 5abf 433f ab91 713d
00000110: c880 2f3f 2123 de3e 438a 41be fb70 4f3b
00000120: e9f7 e73e fe2a 6cbe 8ed5 183f 1b67 0f40
00000130: 4903 8e3f cda7 46bf 76f3 083f 1a54 3fbe
00000140: 64a4 903e c403 9fbf e352 613f 3c68 96be
00000150: 81b4 603f be44 1a40 c430 b23e ad79 be3f
00000160: cbcc d9bc cd67 eebe fad9 da3f 1e5f 1d3f
00000170: 6205 ecbe dacd 88bf 5947 a6be 9b7d 3b3f
00000180: 94fd 3b3e b326 4bbf e607 dfbd c279 aebf
00000190: ca80 933f 896a c03f c1b3 0d3e e88b 1abf
000001a0: 4f87 9d3e 357d 9bbe ef28 f03e 91be e23f
000001b0: 0a1e b2bf 17fb de3e 7e9e cbbf bd9a 523e
000001c0: 8df2 7abf 697d 2c3e 8b59 dabf 4a59 123f
000001d0: 362a 29bf fa39 f3bf 9610 e93e 9549 2040
000001e0: 34f2 6a3f d2c5 29bf f885 e73c ed6d 0d3f
000001f0: 5de0 3f3e 0290 a4bf 12a7 a6bf 8f06 10bf
00000200: c0be 8a3f c6f0 09c0 e023 733f ce74 333e
00000210: acd9 b8bc cfbb ac3e a0e9 a73e 4c25 09bf
00000220: 87b1 bfbf 4c6e 9fbf 9602 103d 6458 273e
00000230: 2650 2a3f 637d b4be 21f4 4cbf 15c8 4d3d
00000240: eb8d f1bf 80e0 d43e 7277 d3bd 09b5 1dbe
00000250: f63c 233f cbcf 4bbd 5d07 d93f 35e4 613f
00000260: 5852 cd3f 8beb c83d 1b3f c93e d71f 6b3f
00000270: 8e06 ccbf f74d 803f 026c 20bf f6f4 adbe
00000280: 7086 adbf 8edd bc3f d712 17bf 062e 93bc
00000290: bdbe 233d 8963 1ebf 5281 9bbe 1481 2c3f
000002a0: f193 c73d 32e5 eb3f 88fa bc3e b065 7abf
000002b0: 122b 283f 750b dbbf 7c83 553f 9b9c 033f
000002c0: 0614 6e3e 9299 89bf 8e44 973f 211b afbe
000002d0: 0e6f 1f3f 0f01 7fbf e7a2 05bf 33f9 0f3e
000002e0: 5c42 2abd e78c c5bf 6730 bebe c1ed cf3e
000002f0: 5271 b33f 2129 2c3e 5bdc b7be 7095 febd
00000300: 3991 5cbf a76c 84bf 4dbc 743f 3b87 cbbe
00000310: 2300 583e 1e89 aa3f a041 3f3f 1e16 8abf
00000320: 35df 2fc0 02ed ac3f cc71 d5bf 5a65 0cc0
00000330: 2d81 07be 34a5 c6be 89ba bcbe 9be7 9e3f
00000340: 2cce d9bf 2bee 1fbf f40a 1a3f 222c 44bf
00000350: fe1b 4e3f a347 b03f 64b4 b0bf 9fa0 463e
00000360: a192 2040 de9f cd3f b6d0 663f d548 a6be
00000370: e79f a5be c551 333f 18c2 0b3f 00f0 7ebf
00000380: 926b 893e bb35 743f 01f6 f3bf c080 c63f
00000390: 228b 35c0 fc8f 97be 6acc 84bf f5f3 1d3f
000003a0: 1476 e5bf 1b5a 8cbe 1eb1 2e3f 30de 94bf
000003b0: 3c95 a73f 55f0 e2bf 5a97 ea3f c143 0340
000003c0: e49e b9bf 1f96 99bf 3948 db3f bfda f23f
000003d0: 5ac0 88bf fac2 7fbe e648 fc3e 2f17 b2be
000003e0: 7763 a93f 77a5 9cbe 14bb 4b3f f42d 2fc0
000003f0: f88a dcbf 7538 e43f 13af 0d40 e895 033f

actor.4.bias f4 [7]
0.97224903 -0.46344492 -0.4732685 1.3521817 0.21775132 0.7961147 0.7467212
00000000: 50e5 783f a748 edbe 4050 f2be 4a14 ad3f
00000010: 34fa 5e3e 2cce 4b3f 1f29 3f3f

critic.0.weight f4 [64, 20]
0.021984546 -0.34925258 0.0950437 0.40197468 -0.92251277 -0.70767933 -3.4008827 -3.9362812
-4.4496994 -0.95859885 -0.44254246 -0.3843876 1.4770658 -0.07489131 0.62873375 -1.5427045
-0.85210043 0.39464575 -1.3125018 0.29462764 1.5418372 -1.8266795 0.7364472 0.042510293
-0.3550056 -0.09133975 -0.34767935 2.8496234 4.50984 -0.6528643 0.0011885943 0.08697062
0.45687374 1.5636411 0.028275212 -0.4048669 -0.12357121 0.4280622 0.18758044 -0.3449913
0.079724185 -0.6248211 -2.3457937 -0.12185219 -1.4405438 -0.66205305 -7.803398 -5.077094
-2.3973293 -0.12565714 0.53412765 0.6996444 -0.21478215 -1.0777876 1.6499561 -0.2791067
0.6196496 1.2152352 0.16238835 0.43882957 -0.81856924 1.0452609 -0.35443038 -0.050621744
0.47292542 -0.11255915 -3.1615338 -2.9198663 -2.688073 -0.69677836 -0.4961111 0.024585953
-0.040464792 1.3833734 0.24111517 -0.94963264 -1.0408033 1.9683264 1.2924147 0.15188724
-1.39683 -0.19256444 -0.6056776 -4.089504 -3.6986816 -3.6996224 4.4483104 2.6902099
1.1959774 0.33909065 0.13027932 0.102308646 1.3815541 0.5160023 -0.38366318 0.03608827
1.9217261 -0.093438104 -0.35093954 0.36200666 -0.9707483 1.1137079 1.6024941 -1.3075193
-1.8457415 -1.8050867 5.1488934 7.0419784 7.625819 -0.096061476 -0.17318168 -0.48833987
0.47811252 -1.2132751 -0.7343415 -0.92069614 -0.75237966 -0.060906775 0.94719255 -1.1666096
0.17682214 1.2688239 -1.6008763 -0.5636003 -0.20623972 -0.4066973 -2.7630584 -1.4981335
-0.9691356 -0.35058326 0.19340286 0.14517447 -0.30371028 2.2742136 -0.6011559 -0.51787084
-0.34955943 0.9942527 0.7910897 -0.361645 -0.25761214 0.13681224 0.7532934 -1.6851244
-1.0442433 -1.1519039 -4.504134 0.049507774 1.3517522 0.030189347 0.37531692 0.2101122
-1.4807053 -1.3395118 -0.054098655 -1.2131467 1.1184967 0.7475597 0.2436207 -0.31116557
1.124971 -0.3621277 -0.67990255 0.697347 0.09193408 0.3209208 -3.6958337 -0.7809019
1.6662439 -0.017836785 0.46883726 0.4341028 0.4731478 1.2884179 -0.63519734 1.1369166
-0.28074116 -0.42959887 0.28426272 -0.6413225 -1.267193 0.2691561 0.61074734 0.27393648
0.007484734 -0.18546724 -4.8758307 -3.6064556 -2.7650733 0.0972157 -0.04924667 -0.15650022
-1.2080351 1.4781044 0.60294515 -0.5437941 1.4419533 -0.6825502 -0.15899923 -0.024995247
1.3326818 -0.48234767 -0.8712688 1.3107616 -0.575239 -0.7920942 -0.37070775 0.83335185
1.6789596 -0.5654033 -0.3199638 -0.23820713 1.4126875 -0.002684708 -0.4144174 0.21015894
-0.2953134 -0.017089324 0.92026913 0.09328856 2.9950802 4.5884547 4.3197675 -0.74384624
-0.71138155 -0.24827573 -0.3298055 -3.648333 -6.1985774 -0.3629026 -0.50086063 -0.059763577
-1.5541294 -0.6351199 -0.11152759 0.9131652 0.8126121 -0.12771228 -0.7187967 0.3557473
0.2907038 -0.5677964 0.4405944 2.5208592 2.3103518 3.0047908 0.10407864 1.5610559
3.090712 -0.052926846 0.5495514 0.39270175 0.50846446 1.0828435 -0.95937824 -1.9484491
00000000: ef18 b43c 3cd1 b2be 45a6 c23d a0cf cd3e
00000010: cc29 6cbf 792a 35bf 10a8 59c0 08ec 7bc0
00000020: f063 8ec0 bc66 75bf ed94 e2be 74ce c4be
00000030: 7e10 bd3f 9d60 99bd b2f4 203f 5777 c5bf
00000040: 4123 5abf 020f ca3e 0f00 a8bf 6fd9 963e
00000050: ec5a c53f a2d0 e9bf ce87 3c3f 461f 2e3d
00000060: 4bc3 b5be 5610 bbbd 0703 b2be 3b60 3640
00000070: 9c50 9040 1d22 27bf 9bca 9b3a a71d b23d
00000080: 5beb e93e 6425 c83f 6ba1 e73c b74a cfbe
00000090: e712 fdbd f82a db3e 1615 403e b3a2 b0be
000000a0: 6f46 a33d 47f4 1fbf 7c21 16c0 a48d f9bd
000000b0: bd63 b8bf 4f7c 29bf 70b5 f9c0 8e77 a2c0
000000c0: d86d 19c0 44ac 00be 97bc 083f e51b 333f
000000d0: daef 5bbe f2f4 89bf c331 d33f 13e7 8ebe
000000e0: 5ba1 1e3f d48c 9b3f 2249 263e 45ae e03e
000000f0: c18d 51bf 1ccb 853f e677 b5be bf58 4fbd
00000100: 4823 f23e 6985 e6bd 9256 4ac0 17df 3ac0
00000110: 6309 2cc0 1160 32bf 4602 febe 7b68 c93c
00000120: 69be 25bd 6112 b13f e5e6 763e 201b 73bf
00000130: 0b39 85bf 1ff2 fb3f d86d a53f 5488 1b3e
00000140: 53cb b2bf 9d2f 45be b00d 1bbf 37dd 82c0
00000150: 33b7 6cc0 9dc6 6cc0 8f58 8e40 662c 2c40
00000160: ca15 993f 4a9d ad3e f167 053e 3287 d13d
00000170: c4d6 b03f ba18 043f 806f c4be 4bd1 133d
00000180: 1ffb f53f 7a5c bfbd 59ae b3be f058 b93e
00000190: f682 78bf fb8d 8e3f 871e cd3f cb5c a7bf
000001a0: 4241 ecbf 150d e7bf bcc3 a440 e357 e140
000001b0: b606 f440 e1bb c4bd 8a56 31be af07 fabe
000001c0: 2acb f43e 994c 9bbf cefd 3bbf beb2 6bbf
000001d0: f49b 40bf 6279 79bd 367b 723f 7753 95bf
000001e0: dd10 353e d268 a23f 84e9 ccbf 1c48 10bf
000001f0: 8130 53be a13a d0be f3d5 30c0 d7c2 bfbf
00000200: 4519 78bf a67f b3be 660b 463e 9ea8 143e
00000210: ea7f 9bbe b78c 1140 5ae5 19bf 2f93 04bf
00000220: 74f9 b2be 5887 7e3f db84 4a3f 8929 b9be
00000230: bde5 83be 8218 0c3e d6d7 403f 28b2 d7bf
00000240: c4a9 85bf 9671 93bf de21 90c0 aac8 4a3d
00000250: 3706 ad3f a64f f73c 8a29 c03e a727 573e
00000260: c087 bdbf 1f75 abbf 8d96 5dbd 6448 9bbf
00000270: e62a 8f3f 1360 3f3f b477 793e 1851 9fbe
00000280: 0dff 8f3f cd68 b9be 180e 2ebf 5585 323f
00000290: ef47 bc3d bb4f a43e 8a88 6cc0 30e9 47bf
000002a0: 7b47 d53f 731e 92bc 700b f03e b942 de3e
000002b0: 6e40 f23e e1ea a43f 4b9c 22bf 7c86 913f
000002c0: 4ebd 8fbe 62f4 dbbe e28a 913e b62d 24bf
000002d0: 6133 a2bf d4ce 893e f059 1c3f 6741 8c3e
000002e0: 8042 f53b 20eb 3dbe ce06 9cc0 2bd0 66c0
000002f0: f6f6 30c0 0619 c73d e0b6 49bd 9841 20be
00000300: e5a0 9abf 8632 bd3f 9d5a 1a3f 1736 0bbf
00000310: ed91 b83f 9cbb 2ebf b2d0 22be d5c2 ccbc
00000320: 5195 aa3f 46f6 f6be 790b 5fbf 09c7 a73f
00000330: dd42 13bf afc6 4abf 68cd bdbe 8c56 553f
00000340: 26e8 d63f 45be 10bf 4cd2 a3be 92ec 73be
00000350: f2d2 b43f edf1 2fbb 842e d4be e833 573e
00000360: 5133 97be e9fe 8bbc c296 6b3f 130e bf3d
00000370: 65af 3f40 9fd4 9240 893b 8a40 b56c 3ebf
00000380: 1a1d 36bf fe3b 7ebe 44dc a8be 4a7e 69c0
00000390: bf5a c6c0 5fce b9be 6738 00bf a7ca 74bd
000003a0: b6ed c6bf 3897 22bf 9468 e4bd 32c5 693f
000003b0: 5907 503f 02c7 02be 0f03 38bf 8324 b63e
000003c0: 21d7 943e 1b5b 11bf 9795 e13e c255 2140
000003d0: cedc 1340 7e4e 4040 2f27 d53d aed0 c73f
000003e0: 3ace 4540 d2c9 58bd 67af 0c3f 3410 c93e
000003f0: ba2a 023f 9e9a 8a3f d099 75bf c866 f9bf

critic.0.bias f4 [64]
0.2234556 -0.5903421 0.3221062 0.40562746 0.25668234 -1.3030981 -0.38662553 0.07190092
-0.67642313 -0.07092537 -0.24282278 0.62416345 -0.260879 0.40475413 -0.21577571 -0.0934577
0.39545617 0.3933174 -0.06161464 -0.32605284 0.7153518 0.5847457 -0.0071850927 0.04675192
0.07911885 -0.67810273 -0.7855069 0.936458 -0.24362694 -0.14593865 0.46577182 0.14479241
-0.37686276 -0.05113869 0.19254197 -0.33342296 0.025706863 0.4369651 -0.25423595 0.5312378
-0.16600671 -0.3661647 0.968631 0.006807004 -0.03687968 -0.25250039 -1.3252572 0.22052298
0.62427884 0.063576296 0.93224066 -0.31862545 -0.20534234 0.32435158 -0.43154913 0.7459984
-0.48604533 0.61812454 0.56128293 0.26966974 0.36978945 -0.82556295 0.34640762 -0.31527683
00000000: 8bd1 643e a920 17bf 1beb a43e 67ae cf3e
00000010: de6b 833e ebcb a6bf c8f3 c5be ca40 933d
00000020: 112a 2dbf 5241 91bd 89a6 78be 2dc9 1f3f
00000030: ef91 85be ef3b cf3e 4ff4 5cbe c066 bfbd
00000040: 3b79 ca3e e660 c93e a25f 7cbd 66f0 a6be
00000050: 4c21 373f e5b1 153f ed70 ebbb f17e 3f3d
00000060: 1009 a23d 2498 2dbf fb16 49bf b6bb 6f3f
00000070: 5779 79be f170 15be a579 ee3e 7644 143e
00000080: 28f4 c0be ce76 51bd b929 453e 6ab6 aabe
00000090: 3397 d23c e4b9 df3e 372b 82be 33ff 073f
000000a0: aafd 29be f179 bbbe 34f8 773f 4a0d df3b
000000b0: 260f 17bd bb47 81be 07a2 a9bf c7d0 613e
000000c0: bdd0 1f3f 4a34 823d 53a7 6e3f e022 a3be
000000d0: 4345 52be 6911 a63e 02f4 dcbe c0f9 3e3f
000000e0: efda f8be 693d 1e3f 3db0 0f3f 2712 8a3e
000000f0: 0b55 bd3e 1858 53bf 575c b13e f76b a1be

critic.2.weight f4 [64, 64]
-0.12789431 0.94053894 0.2903755 0.1857333 0.4284189 1.491293 1.4740587 -0.93810093
2.042855 1.2404809 0.23163092 1.0275497 0.4394657 1.0290374 -0.28718337 -0.4544468
0.68631035 0.06198622 0.557187 1.1954836 0.6418117 2.573942 0.8470113 0.485489
0.9460717 -0.16006848 -1.5670989 -0.3120334 -0.78231215 0.9490497 0.8119837 -0.5716836
-0.11965283 0.5001591 0.47455618 0.5488394 0.574864 0.29584733 -1.6542727 -1.4778973
-0.36343926 0.68972975 0.6941748 -0.43555823 1.3014754 1.0950025 -1.052433 -0.36908776
0.40674222 -0.57674915 0.40310758 0.5968192 -0.4115969 -0.32474878 0.50251174 -0.8885059
-0.13851173 0.3658461 0.044290632 0.55953455 -1.1445031 0.3083859 0.25002745 0.27976292
0.40579858 -0.12836884 1.2764839 -0.2685412 1.4455115 -0.15458249 0.75880706 0.15496075
-0.63763684 1.2298199 -0.06776541 0.3785604 -1.1498463 2.162124 -0.42217547 0.037985545
1.0086305 -0.64956695 0.66266435 0.16684255 0.3409263 0.21912636 0.8529148 -0.4309821
0.5084469 -0.71019 -1.232383 -0.17252709 -0.4980072 -0.20600948 0.20476247 0.5977577
-0.21762918 1.1356713 -0.3978358 1.7265476 -0.82934165 -0.65741307 -0.18666023 -0.74888384
-0.43402493 0.4403648 -0.7221158 -0.51314425 1.2545158 0.6608954 -1.2675956 1.1107924
-1.0342844 -0.7979714 0.049495064 1.3667704 -0.048339773 -0.28115773 -0.80612683 0.92998207
-1.2340293 -1.0813174 -0.22332557 -0.254175 -0.1275544 0.7163032 1.0835896 0.93708545
-0.25675386 0.45212072 0.12586476 -0.91533834 -0.11814 -0.83752185 -1.996622 -0.8570204
0.5420006 1.4875357 0.110889815 -0.16283602 0.11786015 -1.272379 -0.18114856 -0.3308582
-0.26137266 1.058123 -0.649771 -0.5894295 0.017638767 1.5739608 0.4035207 1.095275
-0.31145373 -0.6359892 -0.7253415 -0.271267 -0.104685344 -0.24931818 0.24279276 0.4681644
0.7868072 -0.110653885 0.65492773 0.14151213 0.40353692 -0.80361974 0.85911214 -0.4090753
-1.3893676 -1.6783841 1.2434733 1.1498028 -0.30353668 -0.45595104 -1.0120893 0.56723547
0.09525518 -0.57641125 -0.22750553 -0.27668056 -0.06761464 -0.19373769 -0.6187243 -0.68072796
-0.18580106 1.0160003 -0.31541684 0.8042354 0.37898636 -0.23479007 0.9799593 0.18890299
-0.04268321 -0.5879349 0.70526457 3.1703131 -0.9712022 -0.15353295 1.1222136 -0.60687613
0.19527072 1.1466254 -0.90898055 1.2090372 -0.44119737 1.4145814 -1.82093 -2.0192986
0.18361951 0.9424841 1.2753783 -0.35942242 0.9045168 0.54530096 -0.74273217 1.2118847
0.07548451 0.6627369 0.50534034 -0.6140024 0.3909405 -1.0552666 -0.35803738 -0.24664815
2.2771568 -0.5368004 -0.7059211 0.6601196 0.38694414 -1.0399885 1.0890548 0.31261125
-2.7349715 0.41350472 0.9671767 0.3041153 1.7849007 -0.5068456 0.19589555 -1.4079647
0.5330739 -1.0439522 -0.023394382 -0.033662938 -0.4594913 0.6755786 0.20380895 0.8032155
-0.11869417 1.954258 -1.1982325 -0.023667792 0.21735445 -0.16625223 0.96750367 -0.13599135
00000000: baf6 02be 29c7 703f 19ac 943e df30 3e3e
00000010: b959 db3e b0e2 be3f f5ad bc3f 6227 70bf
00000020: 23be 0240 14c8 9e3f a830 6d3e c086 833f
00000030: a601 e13e 7fb7 833f b309 93be 40ad e8be
00000040: 09b2 2f3f 43e5 7d3d cfa3 0e3f 9b05 993f
00000050: c64d 243f 77bb 2440 bcd5 583f 0492 f83e
00000060: c131 723f fee8 23be b296 c8bf d8c2 9fbe
00000070: 9c45 48bf ecf4 723f 2ade 4f3f db59 12bf
00000080: 8b0c f5bd 6d0a 003f 07f9 f23e bd80 0c3f
00000090: 492a 133f 4d79 973e 35bf d3bf bd2b bdbf
000000a0: b614 babe 2192 303f 71b5 313f 7d01 dfbe
000000b0: bf96 a63f 0b29 8c3f 20b6 86bf 12f9 bcbe
000000c0: 8440 d03e d5a5 13bf 1e64 ce3e 25c9 183f
000000d0: d4bc d2be 7945 a6be 9ca4 003f 1f75 63bf
000000e0: 05d6 0dbe 2e50 bb3e 186a 353d a83d 0f3f
000000f0: 147f 92bf c2e4 9d3e 9903 803e 163d 8f3e
00000100: d5c4 cf3e 1f73 03be d363 a33f 3b7e 89be
00000110: 8506 b93f df4a 1ebe 2e41 423f 08ae 1e3e
00000120: 2b3c 23bf bd6a 9d3f 97c8 8abd abd2 c13e
00000130: 2a2e 93bf 3d60 0a40 6227 d8be bb96 1b3d
00000140: ce1a 813f 054a 26bf 5fa4 293f c6d8 2a3e
00000150: e48d ae3e a962 603e a058 5a3f b0a9 dcbe
00000160: 9329 023f 03cf 35bf babe 9dbf f1aa 30be
00000170: cdfa febe 26f4 52be 41ad 513e a606 193f
00000180: 2fda 5ebe ad5d 913f 22b1 cbbe 83ff dc3f
00000190: bc4f 54bf 394c 28bf dc23 3fbe dab6 3fbf
000001a0: 8438 debe 7f77 e13e 95dc 38bf 6c5d 03bf
000001b0: f993 a03f 7130 293f 9340 a2bf 722e 8e3f
000001c0: 6e63 84bf db47 4cbf 56bb 4a3d 55f2 ae3f
000001d0: edff 45bd e8f3 8fbe 545e 4ebf 4e13 6e3f
000001e0: acf4 9dbf 9c68 8abf 75af 64be 3a23 82be
000001f0: 9f9d 02be a65f 373f 10b3 8a3f d5e4 6f3f
00000200: 3e75 83be 5e7c e73e b1e2 003e 9d53 6abf
00000210: 62f3 f1bd d567 56bf 4f91 ffbf b065 5bbf
00000220: 8dc0 0a3f 9267 be3f 331a e33d 7cbe 26be
00000230: aa60 f13d 51dd a2bf 027f 39be 3f66 a9be
00000240: a3d2 85be 9370 873f 6457 26bf dae4 16bf
00000250: 2d7f 903c 8c77 c93f 449a ce3e f931 8c3f
00000260: dd76 9fbe 30d0 22bf fbaf 39bf 82e3 8abe
00000270: 4565 d6bd 444d 7fbe aa9e 783e 3fb3 ef3e
00000280: 326c 493f 819e e2bd 58a9 273f 8ee8 103e
00000290: 649c ce3e 06ba 4dbf c6ee 5b3f 5172 d1be
000002a0: ccd6 b1bf 4ad5 d6bf 222a 9f3f bd2c 933f
000002b0: 2969 9bbe 6a72 e9be 248c 81bf 5836 113f
000002c0: 2615 c33d b08f 13bf 36f7 68be 13a9 8dbe
000002d0: 8b79 8abd 2c63 46be b764 1ebf 3044 2ebf
000002e0: a242 3ebe 4c0c 823f 517e a1be 5fe2 4d3f
000002f0: 800a c23e cf6c 70be 9dde 7a3f c96f 413e
00000300: 97d4 2ebd e782 16bf 388c 343f 69e6 4a40
00000310: b5a0 78bf be37 1dbe b2a4 8f3f 3c5c 1bbf
00000320: 0cf5 473e 9fc4 923f f3b2 68bf bbc1 9a3f
00000330: 9fe4 e1be 0111 b53f 3c14 e9bf 303c 01c0
00000340: c106 3c3e a346 713f 993f a33f 3706 b8be
00000350: 6a8e 673f d898 0b3f b223 3ebf 0a1f 9b3f
00000360: 9f97 9a3d 20a9 293f fc5d 013f 432f 1dbf
00000370: 5a29 c83e fa12 87bf ad50 b7be 5591 7cbe
00000380: f0bc 1140 c06b 09bf 3fb7 34bf 99fd 283f
00000390: 8b1d c63e 581e 85bf 2666 8b3f 950e a03e
000003a0: c609 2fc0 e4b6 d33e e498 773f 00b5 9b3e
000003b0: a077 e43f a2c0 01bf d898 483e 3038 b4bf
000003c0: 8877 083f 3aa0 85bf 93a5 bfbc 26e2 09bd
000003d0: 7242 ebbe b8f2 2c3f 4bb3 503e 889f 4d3f
000003e0: ee15 f3bd 2025 fa3f af5f 99bf f5e2 c1bc
000003f0: 2a92 5e3e 063e 2abe 52ae 773f 5141 0bbe

critic.2.bias f4 [64]
0.8736023 0.08423578 0.09009965 -0.08502171 -0.57078093 -0.4248796 0.22889586 -0.1507415
-0.5238283 -0.25793108 -0.11149037 0.48625624 -0.2784483 0.5981218 0.13374285 -0.6728096
0.4860389 -0.28442055 -0.188398 0.44465965 0.05892397 0.072883576 -0.1354696 0.54182583
-0.39788377 0.3926142 0.28687757 -0.43907937 -0.40179592 -0.66274863 0.20708019 0.0014890397
0.22528218 -0.07847007 0.30473983 0.44755828 0.38503912 0.4900761 0.22077523 0.10505421
-0.2722615 -0.6753659 -0.06630894 -0.8209218 -0.34134108 0.0749302 -0.59197617 -0.21863936
0.035116203 -0.4724761 -0.60505104 -0.11585266 -0.1753727 -1.1668614 0.1944769 0.46737576
-0.24548225 -0.33164984 -0.12970911 0.45931292 -0.2246393 -0.31858337 -1.2068793 0.79750615
00000000: 66a4 5f3f cf83 ac3d 2a86 b83d dd1f aebd
00000010: b31e 12bf d289 d9be ad63 6a3e fb5b 1abe
00000020: 9d19 06bf 8b0f 84be 1055 e4bd 94f6 f83e
00000030: c790 8ebe 831e 193f e3f3 083e 403d 2cbf
00000040: 17da f83e 929f 91be 68eb 40be 6eaa e33e
00000050: 435a 713d fc43 953d 8bb8 0abe 19b5 0a3f
00000060: 6cb7 cbbe ba04 c93e 9ee1 923e 03cf e0be
00000070: 32b8 cdbe e5a9 29bf d40c 543e e22b c33a
00000080: 5fb0 663e ebb4 a0bd dc06 9c3e 5c26 e53e
00000090: d923 c53e 41eb fa3e e712 623e a926 d73d
000000a0: dc65 8bbe c8e4 2cbf fbcc 87bd ee27 52bf
000000b0: 42c4 aebe 0175 993d c08b 17bf ffe2 5fbe
000000c0: 02d6 0f3d 63e8 f1be a0e4 1abf 2944 edbd
000000d0: e794 33be b75b 95bf f424 473e e04b ef3e
000000e0: b35f 7bbe 02ce a9be 77d2 04be 102b eb3e
000000f0: d807 66be 5c1d a3be 057b 9abf 5d29 4c3f

critic.4.weight f4 [1, 64]
0.4124854 -0.2448176 -0.5153443 0.22961278 0.40358937 -0.31772685 0.1680271 -0.4371309
-0.3759452 -0.3047487 -0.28625196 -0.27710372 0.6639058 -0.3902867 -0.2747086 -0.3444481
0.2789649 0.3386655 -0.29332036 0.4238477 -0.40910932 0.35904709 -0.517058 0.4412448
0.48228475 0.48024878 0.39658344 -0.40561125 -0.44193932 -0.41360173 0.27331963 -0.3645004
0.40803653 -0.48532492 0.34244454 -0.320395 0.47486103 0.32782146 -0.52114904 -0.36705863
0.34124464 0.39059827 0.3523507 -0.27334827 -0.257463 0.24152276 -0.37213814 -0.27797914
0.3884509 0.43412584 0.3164145 0.4433189 0.2580681 0.2788341 0.5018035 0.188852
0.43121508 -0.47354442 0.39880735 0.35904157 -0.3456979 0.35412118 -0.23420794 0.33304217
00000000: 4931 d33e 77b1 7abe 9bed 03bf 9d1f 6b3e
00000010: 44a3 ce3e 18ad a2be 4c0f 2c3e 9fcf dfbe
00000020: e47b c0be 0608 9cbe 9e8f 92be 8ae0 8dbe
00000030: bbf5 293f a9d3 c7be 9ba6 8cbe 805b b0be
00000040: 7dd4 8e3e 9065 ad3e 162e 96be 9102 d93e
00000050: c776 d1be 05d5 b73e ea5d 04bf d7ea e13e
00000060: 07ee f63e 2be3 f53e fc0c cb3e 47ac cfbe
00000070: df45 e2be 9bc3 d3be 8df0 8b3e cc9f babe
00000080: 2aea d03e 827c f8be e454 af3e d00a a4be
00000090: fc20 f33e 37d8 a73e 066a 05bf 1cef bbbe
000000a0: 9eb7 ae3e 7ffc c73e 5067 b43e 4ef4 8bbe
000000b0: 31d2 83be be51 773e e488 bebe 4853 8ebe
000000c0: 09e3 c63e be45 de3e 1501 a23e b2fa e23e
000000d0: 8121 843e 58c3 8e3e 3276 003f 6b62 413e
000000e0: 39c8 dc3e 6a74 f2be 7a30 cc3e 4cd4 b73e
000000f0: 51ff b0be 5f4f b53e 35d4 6fbe 8184 aa3e
