Model Results/ppo_sentiment_MSFT2021-03-011999.pth (torch, 50591 bytes, 11 tensors)

actor.0.weight f4 [64, 20]
000000 2c 4b 5f 3f 36 e3 20 3f e7 3d 7c 3e f1 f1 49 3f
       0.8722408 0.62846696 0.24632989 0.788848
000010 26 15 b1 3e b7 2b 15 3f 23 0f 88 40 41 63 ac 40
       0.34586447 0.5826983 4.2518477 5.387116
000020 8a 88 c8 40 03 f1 b0 3e 8f 98 c4 3e e6 39 1e 3e
       6.2666674 0.34558877 0.38397643 0.15451774
000030 0a b4 de 3f 5c 69 5f 3e d8 84 1d bf 52 38 09 3f
       1.7398694 0.21817535 -0.6153083 0.5360156
000040 94 e0 d6 3d ca 02 b3 be 96 e9 cf be ec 32 8c 3e
       0.10492054 -0.34963065 -0.406079 0.273826
000050 11 69 a1 bc 91 68 9e 3e 74 3f ef 3e 18 ee 40 3f
       -0.01970342 0.30939153 0.46728098 0.753633
000060 01 fa 66 3f b9 aa ff 3e ea f7 a2 c0 b6 80 c7 c0
       0.90225226 0.4993494 -5.092763 -6.234462
000070 e6 1c e3 c0 27 03 56 bf 4d e1 0d bf 30 81 13 bf
       -7.0972776 -0.8359856 -0.55421907 -0.57619
000080 4b 3f ec bf 95 ae 5f 3e ba 16 bc 3e c7 a6 fc bf
       -1.8456815 0.21843942 0.3673609 -1.9738396
000090 b6 17 9b bd dc 56 06 3f 1f 56 3c 3e 8f 7f 6b be
       -0.07572882 0.52476287 0.18392228 -0.22997878
0000a0 ef 85 b3 3e b8 a4 b8 3c e2 e3 13 bf d0 9f a4 3b
       0.3506312 0.022539482 -0.57769597 0.005023934
0000b0 99 4a 01 3f 41 b2 01 3f 1b 3c e6 3e d3 35 23 3f
       0.5050445 0.5066262 0.44967732 0.63754004
0000c0 a5 aa c8 3e df df 8a 3e b4 dd cb 3e e3 78 b1 3e
       0.3919269 0.27123925 0.39817584 0.34662542
0000d0 88 88 e3 3d 53 46 90 bd f8 3c fb 3e 21 6b 4e 3e
       0.11110026 -0.07044663 0.49069953 0.20158054
0000e0 f6 03 74 3f 68 d0 3a 3f 2f 8c 97 3d 4e 64 fd be
       0.95318544 0.7297425 0.07399785 -0.4949059
0000f0 6a 4d ce be fb f6 de 3d a2 d6 50 3e 52 05 91 3f
       -0.40293437 0.108869515 0.20394376 1.1329749
000100 2c d3 1d 3f 61 a1 fa 3e 3d a6 df 3f f2 12 4c 3f
       0.6165035 0.48951247 1.7472607 0.7971641
000110 56 27 78 bd ab 73 92 be 73 9a 2b bf 99 60 e2 be
       -0.06058439 -0.28603873 -0.67032546 -0.44214323
000120 94 6c 10 40 69 37 cc 3f a4 2d da be 76 0f dd be
       2.256627 1.595441 -0.42612946 -0.43175858
000130 fb a1 71 3e 7e 6d 59 3f 3a cb dc bd 48 ab c2 3d
       0.23596947 0.84932697 -0.1078095 0.095053256
000140 92 b8 34 3f 65 1c cb bd c3 66 e4 bd 90 ba b5 3f
       0.7059413 -0.09917525 -0.11152413 1.4197559
000150 6a dc 17 3f 6e f2 45 3f 29 49 6a bf 79 99 48 bf
       0.593207 0.77323043 -0.91517884 -0.7835918
000160 09 bf 16 bf c0 96 85 be ee 3a 67 3b 16 bc a9 3d
       -0.58885247 -0.26091576 0.0035282928 0.08287828
000170 27 c4 45 3f 16 35 ae 3f 10 08 44 3d c8 5e 85 3e
       0.7725243 1.360995 0.04785925 0.26048875
000180 99 eb 49 3e bb 2e 09 bf 09 6d 64 3e b7 94 8a 3e
       0.1971878 -0.5358693 0.22307219 0.27066585
000190 c5 99 4b 3f 7e 7c 9e 3f d5 c9 14 40 15 d1 06 3f
       0.7953151 1.2381742 2.3248188 0.52662784
0001a0 d3 80 c9 3d 56 de 03 3f 4f 35 89 be 9a 98 fc 3e
       0.098390244 0.5151113 -0.26798484 0.49335176
0001b0 6e 1d 59 3f 08 4e 4e 3e 63 94 09 bd de 04 f8 3b
       0.8481053 0.20146954 -0.03358878 0.0075689396
0001c0 1a bb 68 3f 08 ce a0 3f ed 30 b0 3e 68 74 67 3e
       0.90910494 1.2562876 0.34412327 0.22602999
0001d0 df 0a 8b bf 8a 6f b1 be 48 1a 16 3b a4 b1 d9 3e
       -1.0862693 -0.3465541 0.0022903848 0.42518342
0001e0 73 0e 4c be ed f1 c1 bf 9d 1a f9 bf fd 16 2f 3f
       -0.19927387 -1.5151955 -1.9461247 0.6839445
0001f0 ea da a0 3e 3a 18 34 3e fc c7 2d bf aa f0 b2 bf
       0.31417018 0.17587367 -0.67883277 -1.3979695
000200 29 37 a0 bf a2 19 9c 3e fe 0d bb 3d 77 81 a6 3e
       -1.2516834 0.30488306 0.09133528 0.3252065
000210 d9 db 9b bf 97 38 6c bf 3b ad 11 3f 32 88 5a 3f
       -1.2176467 -0.9227385 0.56904954 0.8536407
000220 b8 ae 2a be ee 75 5e bd fa ec c1 3e b7 0a a8 3e
       -0.16668212 -0.054311685 0.3787611 0.32820675
000230 77 68 1d bf 67 7e 43 bf 03 46 bb bd ec 49 da 3e
       -0.61487526 -0.7636475 -0.09144213 0.42634523
000240 b3 c0 f5 3e 28 ea 6c 3e cb 31 a7 3f cc 22 bb 3f
       0.4799858 0.23136199 1.3062071 1.4619994
000250 31 ca b0 3f 1f e4 07 3f b3 e1 0a 3f 63 02 61 3e
       1.3811704 0.5308246 0.5425064 0.21973567
000260 d9 d2 3b 3f 75 c1 71 3f 36 0d 02 3f 43 a5 19 be
       0.73368603 0.94435817 0.5080141 -0.15004449
000270 ff d2 41 3b e0 0b 89 3f 3c 55 25 3f 39 2d 6e be
       0.0029575226 1.0706749 0.6458318 -0.23259439
000280 89 b7 12 bf 76 6f ce 3e fe a4 47 3f f6 7f 1d bf
       -0.573113 0.40319413 0.77986133 -0.6152338
000290 e7 3e 23 be 3d 05 ec 3d 22 83 ed 3f e9 aa 75 3f
       -0.15941964 0.115244366 1.8555644 0.95963913
0002a0 f4 24 4e 3f c4 de 09 bf 61 6b 26 bf 55 29 1b bf
       0.80525136 -0.5385554 -0.650076 -0.6060994
0002b0 ac 74 f9 3f 4d 4a 8f 3d b4 08 f6 be 78 63 04 3d
       1.948873 0.069965936 -0.48053515 0.032321423
0002c0 64 36 14 bf 1d e8 16 3f e4 85 cd 3d eb 2d 83 3e
       -0.57895494 0.58947927 0.10035303 0.2562097
0002d0 25 52 a1 be e7 5b 04 be 54 65 59 3f ae 87 bb 3f
       -0.31507984 -0.12925683 0.8492024 1.4650781
0002e0 52 ea 83 3f 58 26 10 3f 8d ec 78 c0 e9 f9 31 c0
       1.0305884 0.5630851 -3.889438 -2.7808783
0002f0 4e 74 1e c0 7e fa 05 bf 23 d8 df be 60 c7 d1 bd
       -2.4758487 -0.52335346 -0.43719587 -0.10243106
000300 e7 67 75 bf 87 0c e7 3f 80 22 72 be bb cc 89 bf
       -0.9586167 1.8050698 -0.23645973 -1.0765604
000310 8c 1d 02 bf f7 44 4d bf d4 5d 27 3e bf 7d 2d 3e
       -0.50826335 -0.80183357 0.16344386 0.169425
000320 5b 6c b5 3e 76 9a a9 bb af 48 72 3f 02 0b e9 3f
       0.3543423 -0.005175884 0.94642156 1.8206484
000330 28 a6 bf 3f ab 96 91 3f 98 f0 94 bf 38 af 15 3f
       1.4972582 1.1374105 -1.1635923 0.5847049
000340 fb 2b 7b 3f ff 42 50 3f b3 66 80 3f b6 53 47 3f
       0.98113984 0.8135223 1.0031341 0.7786211
000350 e1 23 18 bf 42 a7 cd bd 83 76 10 3f 74 56 3f bf
       -0.59429747 -0.100416675 0.56430835 -0.7474129
000360 38 e3 0b bf c2 bc f0 bd 48 65 ef 3d 6d 38 e8 3e
       -0.54643583 -0.11754753 0.1168924 0.4535555
000370 3f da 56 bf d5 f4 8d 3f 7f e9 04 3f ea 00 fe be
       -0.8392677 1.1090342 0.51918787 -0.49610072
000380 4b 66 06 3e ed ee 71 3e ab bf 02 3f 8b 57 c6 be
       0.13124959 0.23626299 0.5107371 -0.38738665
000390 0c 25 5f bf 15 db 9a 3e 01 31 b9 bd 2e 80 63 3e
       -0.87165904 0.3024527 -0.0904255 0.22216865
0003a0 2c 61 5b 3f a2 24 12 bf c8 58 80 3d 9c 66 1d 3f
       0.8569515 -0.5708715 0.06266934 0.61484694
0003b0 62 13 d7 3f d3 a5 eb bc 94 3c 0f 3e 05 e9 cc be
       1.680279 -0.028765595 0.13987952 -0.4002153
0003c0 db 09 35 3e 6a 98 1d 3f d4 70 d5 3e 50 f3 33 bf
       0.17679541 0.6156069 0.41687644 -0.7029314
0003d0 cc 4b 6d be 08 37 ad be fa 58 bd 3e 09 86 ef 3e
       -0.23173445 -0.33831048 0.36981946 0.46781948
0003e0 ac 51 b6 3f 53 db a9 be 31 b4 f9 3d 03 a8 b8 3e
       1.4243674 -0.33175144 0.12192572 0.36065683
0003f0 0b e4 c0 be 5e 60 e8 bf 9b 21 dd be e8 a8 82 be
       -0.37673983 -1.8154409 -0.431897 -0.2551949

actor.0.bias f4 [64]
000000 82 95 00 bf d4 6c 99 3e 0c dd 9a 3e 1e f5 6f be
       -0.5022813 0.29965842 0.3024677 -0.23433349
000010 f6 90 b6 3e 57 d3 49 3e 79 de d2 3e b0 54 c8 3d
       0.3565747 0.19709526 0.41185358 0.09781778
000020 01 c1 e7 be c7 12 ba bb 7f 95 c3 3e 4d 12 84 3d
       -0.45264438 -0.005678508 0.38199994 0.06448803
000030 f3 d2 5d 3e 19 1e f1 3e 9a 6e 21 be 2b c4 1a 3f
       0.21662502 0.47093275 -0.15764847 0.6045558
000040 53 e3 b5 3e 1b 89 3a 3d fb 50 8e 3e 63 50 c2 3e
       0.35524997 0.04554091 0.27796158 0.37951955
000050 f6 f2 17 bf 48 98 d7 be 12 7d b0 3e 6b 33 df 3e
       -0.59355104 -0.4210837 0.3447042 0.43593916
000060 28 2d aa be 38 0e 53 3f e6 56 fd be 88 cb 04 3c
       -0.33237576 0.8244357 -0.4948036 0.008105166
000070 7b cd 51 be 7f da 36 be b6 db e4 3c fa 78 a5 be
       -0.20488541 -0.17856787 0.027936798 -0.3231886
000080 ed f6 91 3e 53 96 dd be 09 ce 55 3e fe 55 c1 bd
       0.28508702 -0.4327875 0.20879377 -0.0944023
000090 18 27 d7 bd a2 24 c4 3e d8 a0 fb 3e f8 4f 9c bc
       -0.105055034 0.383092 0.49146152 -0.0190811
0000a0 c2 87 4d be 45 84 d2 3e dc 92 6a be 3e e7 06 3f
       -0.20071319 0.4111654 -0.22907585 0.526966
0000b0 40 16 a9 be b0 4a 65 3e 93 58 2a bd 5b e4 93 3e
       -0.33024788 0.22391772 -0.041588377 0.2888516
0000c0 34 38 41 3e da 65 1e 3f cf 83 09 bf ed 51 74 bf
       0.18869096 0.61874163 -0.5371675 -0.9543751
0000d0 cf 01 d0 3d 22 ba e0 3d 83 aa 0c 3f 33 ff 36 bc
       0.10156595 0.10973002 0.5494768 -0.011169243
0000e0 3a d2 e1 3e d2 7b 5d 3e b6 a2 5a bf af 55 ba be
       0.44105703 0.21629265 -0.8540453 -0.36393496
0000f0 4f d3 04 3f cb aa 95 3e 34 c0 2c be c4 f6 d6 3e
       0.5188493 0.29231867 -0.16870195 0.41985142

actor.2.weight f4 [64, 64]
000000 26 7d 62 be 3d fd be bd 71 89 c1 3e b0 eb 35 3f
       -0.22118053 -0.09325645 0.37800172 0.71062756
000010 7f 41 c2 3e 41 99 29 be eb e5 c4 3e e0 c1 03 3f
       0.37940595 -0.16562368 0.38456663 0.51467705
000020 85 29 ae bd 19 1e 9b be 31 fd 71 3e dd 51 37 bf
       -0.08504013 -0.302964 0.23631741 -0.7160929
000030 bd 94 39 bf c3 f4 02 40 f8 20 8a be 3a 07 87 3f
       -0.7249258 2.046189 -0.26978278 1.054908
000040 2c fc 7d bf 47 ba 4b bd 50 ec 16 3e c9 75 af 3f
       -0.9921291 -0.049738195 0.14738584 1.370782
000050 14 c1 01 3e 66 ab 11 bf 5d ae 54 3c 29 44 7f 3f
       0.1267131 -0.5690216 0.012981025 0.9971338
000060 85 a6 50 bf ef 34 17 3f 6f 09 a9 bc 88 f3 dc 3b
       -0.8150409 0.59065145 -0.020634381 0.0067428984
000070 49 6a a5 3e c6 27 72 3f 0a 5d bf 3e 47 05 8b 3d
       0.32307652 0.9459194 0.3737567 0.06788116
000080 5d 6c c2 be f5 a5 8b be 87 5d 2e 3f ff 50 81 3e
       -0.379733 -0.27275053 0.6811146 0.25257108
000090 4c e6 c7 3e de c5 52 3f 87 63 e1 bd d8 96 1b bf
       0.3904289 0.8233317 -0.110053115 -0.60777044
0000a0 bb ab fd be d4 af 5c 3f 92 29 73 bf e7 e9 84 bf
       -0.49545082 0.8620579 -0.94985306 -1.0383881
0000b0 eb ba 0a 3c 83 5f 82 3f a2 b2 ac 3d 89 7e 23 3f
       0.008467416 1.0185398 0.08432509 0.6386495
0000c0 36 a5 41 3f ae 1b 8f 3f 8c 6e 05 bf b7 3a 06 c0
       0.75642717 1.1180322 -0.52121806 -2.0973337
0000d0 b4 12 d8 3f 16 43 b2 3c db 06 31 3f 24 2c dd 3e
       1.6880708 0.021760505 0.69151086 0.4319774
0000e0 45 1a e8 bc 75 78 1d be 04 61 58 bf 0e a0 ac 3e
       -0.028332839 -0.15377982 -0.84523034 0.33715862
0000f0 74 4b 40 3f 9c 90 c1 3d 6e 17 40 3f fd c1 17 bf
       0.7511513 0.0945141 0.7503575 -0.5928038
000100 79 da c5 be 1b 1b 42 bd 13 fc 31 bc 29 7c 2d be
       -0.38643244 -0.04738913 -0.010863322 -0.16941895
000110 b4 a0 59 3f fb 2b 13 3f 87 77 fc be fd f5 cd 3e
       0.8501084 0.57488984 -0.49309942 0.40226737
000120 1f fd 84 be 76 bb 64 3f e6 08 9f be 5d 9d 65 bf
       -0.25974366 0.8934854 -0.31061476 -0.8969324
000130 c5 47 f8 3e 7d 76 23 3f c4 32 81 bc c8 e7 f5 be
       0.48492256 0.63852674 -0.015771277 -0.48028398
000140 7d 29 5d bf 8d bb 50 3c 6e 17 9e 3c 29 46 80 3f
       -0.8639143 0.012740028 0.019298282 1.0021411
000150 1d 81 4f 3f e6 a6 21 bf 7f ad a5 3d c2 0d d1 3f
       0.81056386 -0.6314529 0.080897324 1.6332324
000160 a3 55 fa 3e 9b d0 35 3f df 9b 16 3e e3 a8 91 bd
       0.4889346 0.7102143 0.14707898 -0.07112291
000170 1b bf 29 bf c3 07 a3 3f eb 3d a4 be de 68 24 bc
       -0.6630723 1.2736744 -0.3207849 -0.010034768
000180 44 f9 f8 3d 1f 07 68 3d bf 73 57 3d bf e3 d6 3e
       0.12156919 0.056647416 0.05260062 0.4197063
000190 af f5 ca 3e 01 b7 22 3e 7b 3e 47 3e 9d 14 e6 bd
       0.39640567 0.15890123 0.19457428 -0.112344004
0001a0 79 eb 43 3d 76 ad be be 07 e9 0a 3e da d9 38 3f
       0.047831986 -0.37241715 0.13565455 0.72207415
0001b0 ca 85 45 3f 86 af f1 3f 7b a1 0b bf e6 9a 15 be
       0.7715727 1.888169 -0.54543275 -0.1460987
0001c0 98 ba 1a bf 2e bd 96 bd 32 5d 35 bf 31 79 15 3e
       -0.6044097 -0.07360302 -0.7084533 0.14597012
0001d0 1e 73 7c 3f 27 77 6e bf 3e 7b bc be a1 cf 50 3f
       0.98613155 -0.9315056 -0.36812776 0.81566817
0001e0 de 3d c4 3e e5 2f d9 3e c8 d5 b5 3c b1 da c2 be
       0.3832845 0.42419353 0.022196665 -0.38057473
0001f0 3e 88 91 be 4a 09 02 3f 15 39 d0 be 94 8c f8 bd
       -0.28424257 0.50795424 -0.4066855 -0.12136188
000200 ff e0 f1 3c b6 55 69 3e ba e3 81 bd 94 a7 db bd
       0.029526232 0.22786602 -0.063422635 -0.10725322
000210 d6 fc 90 be d1 d7 ea 3c 33 b8 8d bf 39 75 cf bb
       -0.283179 0.028667362 -1.1071838 -0.0063311127
000220 28 af 6d 3f 02 99 6c bd c0 e5 88 3e 01 fe 2e 3f
       0.9284539 -0.057763107 0.26737785 0.6835633
000230 61 6f 9b be a7 b7 4c 3f af fd a0 3e 27 8d c4 bf
       -0.30358413 0.7996773 0.31443545 -1.5355576
000240 20 b8 83 3e 4f 99 49 bd c4 b7 19 3f 55 20 49 be
       0.25726414 -0.049218472 0.6004603 -0.1964124
000250 24 e5 fc be b3 e3 8a 3e 52 69 4b be c2 21 3a bf
       -0.4939357 0.27126846 -0.19864395 -0.7270776
000260 87 ab c5 3f 0d 71 23 bf 02 f9 64 3e 24 ad 0b be
       1.5442971 -0.63844377 0.22360614 -0.13640267
000270 7f c0 c9 3b 8f 67 2c 3e 8d 92 ee 3e c1 a0 43 3f
       0.0061569805 0.1683638 0.46596184 0.76417166
000280 39 cd 09 3f 81 57 2a 3f 39 49 9f bf 76 59 0c bf
       0.5382877 0.6653977 -1.2444221 -0.54824007
000290 04 19 87 3f 51 fa eb bf d9 c4 65 3e a5 c8 3a 3e
       1.0554509 -1.8435766 0.22438373 0.18240602
0002a0 63 fd 0f 3e 67 c0 fc be 6a 8d 9c 3e ef 83 7b be
       0.14061503 -0.4936554 0.3057664 -0.24562047
0002b0 bc 5d 73 3d f6 f7 d3 bd 14 fa 90 bc 05 92 a0 bf
       0.059415564 -0.10350029 -0.017697372 -1.2544562
0002c0 e4 0c 58 bf 23 a6 ac 3e 4a 33 8c be e8 0d 5b 3f
       -0.8439467 0.33720502 -0.2738288 0.85568094
0002d0 6e da 5f bf 12 e0 15 be 8f d9 82 be 7c c9 6b bf
       -0.8744267 -0.14636257 -0.2555661 -0.92104316
0002e0 ce 5c 81 3e 14 e8 70 be bf 1b 5a be 43 be 20 bd
       0.25266117 -0.23526031 -0.21299647 -0.039243948
0002f0 f9 b7 34 bf cb 79 44 3d 23 24 a9 3d 24 30 64 bd
       -0.7059322 0.047967713 0.08258846 -0.055709973
000300 7e d1 c5 be 25 ae 00 c0 df 22 12 be 9b be 43 bf
       -0.38636392 -2.010629 -0.14271115 -0.76462716
000310 83 3e 8b bf 23 6a 77 bf 95 19 12 3f 37 03 46 3d
       -1.0878452 -0.96646327 0.57070285 0.04834291
000320 b4 9d b3 3e 8a a7 3a be ba 04 c2 3f 22 ed 1e 3f
       0.35081255 -0.18227974 1.5157692 0.62080586
000330 03 cc 09 be 1a 6e 8f bf b5 9d 51 3e f8 69 fe 3d
       -0.1345673 -1.1205475 0.20470317 0.12422556
000340 15 17 45 3f 1d 90 27 bf 98 cc 27 3d ab 8f 11 bf
       0.76988345 -0.65454274 0.0409666 -0.56859845
000350 06 02 ed be d1 81 c6 3b fc 24 68 bf 5c 32 5b 3d
       -0.46290606 0.006057956 -0.90681434 0.053514823
000360 34 a0 3b bf ef 35 43 3e 28 f9 57 3f 6b 0b 75 be
       -0.73291326 0.19063543 0.8436456 -0.23930137
000370 a3 3f 86 be e5 ab 02 bf fb e8 37 bf 0c 36 c7 3e
       -0.26220426 -0.5104354 -0.71839875 0.38908422
000380 f8 5d 1f 3e bd 6a f8 be 61 52 24 bf a9 43 40 3f
       0.1556319 -0.48518935 -0.641882 0.7510324
000390 2f 40 9b be 66 18 e2 bd ba b7 37 bf aa 8e 1e 3f
       -0.30322406 -0.1103981 -0.7176472 0.6193644
0003a0 6b 52 c2 3d 6d 20 58 bf bf 3d 4c bf fc 0a 29 be
       0.09488376 -0.8442448 -0.7978172 -0.16508096
0003b0 bc 81 30 be 41 d2 a0 be f4 cd 89 bf 6d ba 50 3f
       -0.1723699 -0.3141041 -1.0765977 0.81534463
0003c0 35 fe e2 3d 14 52 19 bf cf 16 42 3f 0e 17 18 3f
       0.110836424 -0.59890866 0.75816053 0.5941018
0003d0 fc 83 67 bf 7c a6 22 3f 44 7c cd bc 3d d6 d4 3d
       -0.9043577 0.63535285 -0.025083669 0.10392425
0003e0 53 b4 28 be 68 1d 2b 3f 11 20 7a 3f c1 79 16 3f
       -0.16475038 0.66841745 0.9770518 0.5877953
0003f0 50 83 96 be fb ea 16 be 7d a0 ba bd a4 96 11 3f
       -0.29397058 -0.14738075 -0.09112642 0.56870484

actor.2.bias f4 [64]
000000 db f7 37 3f 13 2d af bd 2c 25 90 be 81 d8 51 bd
       0.7186257 -0.08553519 -0.2815336 -0.051231865
000010 68 0a d9 3e 28 27 3f 3f 51 4c 1d 3b a1 e6 19 bf
       0.42390752 0.7466912 0.0024001787 -0.60117537
000020 c4 d6 13 be 57 49 e0 be a2 f7 9d 3e a9 92 7b 3d
       -0.14437395 -0.43805954 0.3085299 0.061419163
000030 10 3b 0f 3f a6 61 e6 3d 8e a5 20 bf 16 2f 38 3c
       0.559495 0.11249094 -0.62752616 0.011241695
000040 1f 53 36 be f9 89 9c be 17 2f 33 bf 23 c7 15 bf
       -0.17805146 -0.30574015 -0.6999373 -0.58506984
000050 3f fd 1a be 7a 81 99 bd 1e ed 2a 3c 8c bd eb 3e
       -0.15135668 -0.07495399 0.01043251 0.4604305
000060 0a 80 3a 3e 06 4f 82 3e 01 0a da bd a7 d0 e4 3e
       0.18212906 0.25450915 -0.10646439 0.4469044
000070 90 e7 7b 3c 90 c1 53 3e d5 0b f3 3e 8a 92 54 bd
       0.015375033 0.20679307 0.47469965 -0.051897563
000080 ab 26 76 3e c3 49 0e be 46 30 1a 3f c6 b0 fb 3e
       0.24038188 -0.13895325 0.6022991 0.49158305
000090 ab 6a 22 3f fc 6d f2 3d d5 b4 07 bc 4f 9a a8 3e
       0.6344401 0.11837384 -0.00828286 0.32930228
0000a0 48 61 0b 3f fc bd b7 3e 7c 48 bc 3d ce 9a 94 3e
       0.54445314 0.35887134 0.09193513 0.29024357
0000b0 7f e2 16 3e 87 33 21 3f 7f 94 da be c2 42 80 3e
       0.14734839 0.6296925 -0.4269142 0.25050932
0000c0 f5 31 e0 3d 9a 2b 98 3e b9 f8 20 bf 7e d0 33 bf
       0.109470285 0.29720765 -0.6287952 -0.7024001
0000d0 ed ef 45 be 32 20 1f 3d 5b b2 64 bd f9 27 25 bd
       -0.19329806 0.038849063 -0.055834156 -0.040321324
0000e0 49 94 1a 3e dd 60 af 3e 1a 70 57 3e ee c2 c0 3d
       0.15095629 0.34253588 0.21038857 0.0941218
0000f0 2e 38 29 3f 76 6c 4c be 73 cf ed 3e d6 be 8c 3f
       0.6610135 -0.1996325 0.46447334 1.0995739

actor.4.weight f4 [7, 64]
000000 1d 31 ee bf f7 36 3d bf 91 9f 36 c0 1a d7 d6 3f
       -1.8608738 -0.73911995 -2.8534892 1.6784394
000010 32 a3 bb bf 7d 9c a0 bf c7 24 2b 3f c1 61 59 3f
       -1.4659178 -1.2547756 0.6685299 0.84914786
000020 c0 b2 d5 be 51 6a 54 bf 4a 05 ba be a7 c0 9f 3f
       -0.41737938 -0.82974726 -0.3633216 1.2480668
000030 4a 47 9a bf a7 4d 36 bf cd 69 9e bf 45 60 e2 bd
       -1.2053006 -0.7121224 -1.2376038 -0.11053518
000040 3a 7c 5c 3f 38 77 12 c0 8c 42 8f 3f 91 83 8d 3f
       0.86127055 -2.2885265 1.1192183 1.1055776
000050 38 22 b0 3f 11 a2 a3 bf f9 22 86 bf 95 93 2c 40
       1.3760443 -1.2783834 -1.0479423 2.6965077
000060 24 49 de 3f 0f ad 35 3e 58 58 77 3f 84 31 ff bf
       1.7366071 0.17741798 0.96619177 -1.9936986
000070 83 5e 31 c0 7e eb 18 c0 48 cb a4 3f ee 84 33 3f
       -2.7713935 -2.3893733 1.2874537 0.7012471
000080 15 a6 a1 bf b3 a6 14 c0 37 16 37 3f 03 fd a7 3f
       -1.2628809 -2.3226745 0.7151827 1.3124088
000090 46 24 0c 40 6f 93 8f bf 98 6f 9b 3f b4 bc b8 3f
       2.189714 -1.1216868 1.2143431 1.4432588
0000a0 42 5a 0a 40 6a df 13 bf 3a e8 b8 bf e3 ba cd 3f
       2.161759 -0.5776278 -1.444587 1.6072658
0000b0 c7 ce 27 c0 d9 87 f8 3f 2c 4c 28 bf 3a dd cd 3f
       -2.6219957 1.9416457 -0.6574123 1.6083138
0000c0 b4 87 94 3e 23 e5 22 3f 81 ac ae 3f 0a a5 db 3f
       0.29009783 0.63630885 1.3646394 1.7159741
0000d0 a8 07 0d c0 10 64 cd 3f 38 92 f7 bf e2 42 e5 be
       -2.2035923 1.6046162 -1.9341497 -0.4477759
0000e0 fd 22 2d bf 31 08 f2 3f 9f b7 ea 3f 43 c0 0a 40
       -0.6763151 1.890875 1.8337287 2.1679847
0000f0 74 eb 75 bf 7a 89 95 be ad 23 dd 3e 75 b4 a6 3f
       -0.960624 -0.2920645 0.4319128 1.3023821
000100 6f 1b 1b 3f 9c 13 ae 3f 4d 63 51 bf 58 44 aa 3f
       0.60588735 1.3599734 -0.81792146 1.3302107
000110 fa 1c 82 bf 9d 1d 02 bf d2 ce 01 40 b7 28 ae 3f
       -1.0165093 -0.50826436 2.0282483 1.3606175
000120 b2 60 b5 bf 43 03 13 3e 88 df f0 3f e7 15 4b bc
       -1.4170134 0.14356713 1.8818216 -0.012395359
000130 e4 a5 df 3f 69 21 cc bf 59 cb 9e bf d9 a5 97 be
       1.7472501 -1.5947696 -1.2405807 -0.2961872
000140 da 22 ff be 5d 8d 92 3f f8 e1 b6 bf d4 c2 dd bf
       -0.49831277 1.1449391 -1.428771 -1.7325082
000150 e9 50 d3 be 4d b2 da 3f 17 c1 49 bf ca ff 11 bf
       -0.41272667 1.7085663 -0.78810257 -0.5703093
000160 a7 35 7b bf bc df 94 be 8d 5a 8b 3f 5a af 3f c0
       -0.9812874 -0.29076946 1.0887009 -2.9950776
000170 b6 12 49 be ef ac db bf 91 48 db 3f cf 49 72 be
       -0.19636044 -1.716215 1.713152 -0.23660968
000180 ec ba c8 bf 37 c7 7c be d3 1a ef bf 5f a7 f0 3f
       -1.5682044 -0.2468537 -1.8680061 1.8801078
000190 89 e7 61 3f 53 a3 7b 3f 48 ff b7 bd 48 52 ba 3f
       0.8824392 0.9829609 -0.08984238 1.455636
0001a0 7b f3 a0 3f 09 48 ce 3d e0 15 d1 bf 78 66 b3 bf
       1.2574304 0.10072333 -1.6334801 -1.4015646
0001b0 0d d3 80 be 04 15 e1 3e 0c 33 db 3e ba 90 51 bf
       -0.2516102 0.43961346 0.42812383 -0.8186146
0001c0 54 52 1d c0 6c 2a b4 3f 67 bc 62 bf 04 01 c6 3f
       -2.45815 1.4075446 -0.8856873 1.546906
0001d0 dc 07 c6 3e fe 6d 2e bf 05 d8 49 3f 6e 1d 8f 3f
       0.3867787 -0.68136585 0.78845245 1.1180856
0001e0 01 dc cd 3e c8 d8 df 3d 4f 8d 5f bf db 82 fc be
       0.40206912 0.109300196 -0.87324995 -0.49318585
0001f0 2a f6 53 bf a9 ad 04 c0 cd bb f8 bf 76 7c 58 be
       -0.8279749 -2.0730994 -1.9432312 -0.21141228
000200 9c 2f c8 3e 2f 99 06 3e 7a 79 c2 be 9b 40 70 be
       0.39098823 0.13144372 -0.37983304 -0.23462145
000210 c6 18 10 3d 4c 86 0b 3f c1 3d 70 bf 2e 0c 19 bf
       0.035179876 0.54501796 -0.9384423 -0.5978421
000220 ba 10 a2 be 4c 11 55 be 75 c6 19 bf 5e 6e 6d 3d
       -0.31653386 -0.2080738 -0.60068446 0.057966582
000230 e9 b1 57 bf 63 0d ff be 17 6e 5c be 04 bb 00 3e
       -0.84255844 -0.498149 -0.21526371 0.12571341
000240 69 dd 9e 3d 57 72 d7 be 19 f2 32 bf 44 93 6e 3f
       0.077570744 -0.42079422 -0.6990066 0.9319346
000250 d7 c9 e4 be 25 75 63 3f db e2 ab bf 9b ac 44 bf
       -0.44685242 0.88850623 -1.3428606 -0.76825875
000260 e0 d5 c4 be a3 18 a8 bf 99 3c 51 3e 14 3a c9 3e
       -0.38444424 -1.3132519 0.20433272 0.39302123
000270 2c 97 e4 3d 25 7e 0f 3f 85 3d 95 3d b6 1f 12 3f
       0.11161646 0.56051856 0.072871245 0.5707964
000280 37 4a c2 3d 9d a8 56 3e 0b 9a 8a be 4b 63 31 be
       0.094868116 0.20962758 -0.2707065 -0.17323034
000290 89 1e 08 bf ab 7e fe 3e 29 e4 65 be 80 77 01 bf
       -0.5317159 0.49706015 -0.22450317 -0.5057297
0002a0 be a9 36 3f 04 1e 2f be 66 0c 0f bf 43 50 a1 3e
       0.71352756 -0.17101294 -0.55878294 0.31506547
0002b0 0a eb 33 be ac 55 27 be 59 f7 ee bd e3 b4 7a bc
       -0.17570129 -0.16341275 -0.116682716 -0.015301916
0002c0 3e 1e fe bf a6 be af 3f b6 04 13 3f c5 39 30 bc
       -1.9852979 1.3730056 0.57429063 -0.010755961
0002d0 a4 5c 60 3e f5 1f 7a 3e b7 f3 c6 be 65 ed 48 bf
       0.2191034 0.24426253 -0.38857815 -0.78487235
0002e0 ac 77 d3 3e 36 f2 51 bf 29 0a be 3e 28 e1 c2 be
       0.4130224 -0.8201021 0.37117127 -0.38062406
0002f0 5a 75 fc be d3 3c 5e be 8a 25 06 bf 9c ea 38 3e
       -0.49308282 -0.2170289 -0.5240103 0.18058246
000300 50 11 c0 3e 52 2e 22 3f fe 4f bf be cf 9d 80 3e
       0.37513208 0.6335193 -0.37365717 0.25120398
000310 11 d0 52 3f e2 d2 5c 3f b1 67 8d 3d 9e e9 1e 3f
       0.82348734 0.8625928 0.06904543 0.6207522
000320 b4 02 16 bf 32 d0 35 3f b1 13 18 3f c8 c1 98 3e
       -0.58597875 0.71020806 0.59405047 0.29835343
000330 75 f1 2f 3e a9 03 44 bf cc 3f 3d 3e ec b2 c9 3e
       0.17181952 -0.76568085 0.18481368 0.3939432
000340 dd 75 7d be 45 25 2f bf 07 aa 01 bf 3f f9 1c bf
       -0.24751993 -0.68416244 -0.50650066 -0.6131782
000350 8e 94 43 bd 1a 42 29 3f b2 6e 54 3d 09 bd 07 3f
       -0.047749095 0.6611649 0.05186338 0.5302282
000360 01 5f 6a be 62 0d f8 3d 0f cd 56 3f 3b 75 12 3f
       -0.22887804 0.121119276 0.83906645 0.5721013
000370 59 d6 a5 be 6d 64 a9 bd 35 39 a7 3e 99 b8 85 be
       -0.32390097 -0.08271108 0.32660833 -0.261174
000380 92 04 58 bf 2c 6a b6 be 87 7f 78 be be 06 ba 3e
       -0.84381974 -0.35627878 -0.24267398 0.3633327
000390 31 26 a5 3e eb 2c ce be 8b f7 80 bf cc 3d ee be
       0.322557 -0.40268645 -1.0075544 -0.46531522
0003a0 1f 45 e7 3e e0 36 07 3d 45 a6 aa bf 46 75 99 3e
       0.45169923 0.033011317 -1.3331991 0.29972285
0003b0 33 67 46 bf 31 b4 9f bd fa 44 46 3f f0 cf 82 3e
       -0.7750122 -0.07798041 0.77449 0.2554927
0003c0 8e fb cc bc 73 78 1c bf 24 40 07 3f 68 ae 23 3f
       -0.025022294 -0.6112129 0.52832246 0.63938
0003d0 8f 8e 5d 3f 22 94 92 bf ee 2b 00 bf 4b 0f af be
       0.8654565 -1.1451457 -0.5006703 -0.34191355
0003e0 28 92 1e 3f f6 db a5 3e 50 59 d0 3e 9f 6c 19 be
       0.61941767 0.3239438 0.4069314 -0.14982842
0003f0 3b 97 ac 3e df 89 35 bf 15 27 e1 3e 6d 78 2d 3f
       0.3370913 -0.709135 0.4397513 0.6776188

actor.4.bias f4 [7]
000000 e2 de a1 3f 93 1a 56 3f 82 4e 0a 3e 3d b7 b1 3d
       1.2646143 0.836343 0.13506511 0.08677528
000010 1c 98 8e 3d c2 ca 89 bd 67 ea 5e 3f
       0.06962606 -0.06728126 0.8707642

critic.0.weight f4 [64, 20]
000000 4d a0 6f 3e 94 82 e4 be 58 05 1b bf 8b f4 be be
       0.23400994 -0.44630873 -0.6055503 -0.37295946
000010 2f 22 23 bf b5 a6 5e bf ef 8a 3d c1 df c5 e4 c0
       -0.63724035 -0.86973125 -11.846419 -7.149154
000020 a0 bb 84 c0 fa 52 18 bf 98 1c 10 3e 74 b4 30 3f
       -4.1479034 -0.5950161 0.14073408 0.6902535
000030 e6 d3 2c c0 de 94 b4 bf 26 e1 e7 3e 51 f0 7a bf
       -2.7004333 -1.4107931 0.45288962 -0.98022944
000040 25 6a fa bf 95 91 10 c0 b1 d8 c6 3d a3 54 e9 3d
       -1.9563643 -2.2588856 0.09709299 0.11393096
000050 0c c6 d8 be e9 8f 59 3f 88 f4 1c be df 85 09 3f
       -0.42338598 0.84985214 -0.15327656 0.53719896
000060 1d db 1c 3f 72 b4 53 3f 06 71 11 40 46 94 09 40
       0.6127184 0.8269721 2.2725234 2.149675
000070 b4 7b 1d 40 86 8f 8b 3f f5 52 76 3f 05 b0 47 3f
       2.4606752 1.0903175 0.9622033 0.7800296
000080 24 4b ae 3f e3 6c fc 3f dc cc 34 3e da 54 19 3f
       1.3616681 1.972073 0.17656273 0.598951
000090 6e 3a 06 bf ed 5a 1f 3e b8 16 40 bf e3 27 84 3e
       -0.52432907 0.15562029 -0.75034666 0.2581168
0000a0 8b c1 13 bc 56 50 bf bd eb 1c 5e bd c7 2f 6f 3f
       -0.009018312 -0.09341495 -0.054226797 0.9343228
0000b0 37 b6 52 bf 65 7d 37 be c1 e8 f8 bf a6 9d 80 c0
       -0.8230929 -0.17918928 -1.9446031 -4.019244
0000c0 1f 10 8b c0 05 42 ae 3e 71 e9 03 3f 1a bf 07 3e
       -4.345718 0.34034744 0.5152808 0.13256493
0000d0 6a e2 84 bf f7 d2 35 3f ca f3 57 3e 1e 5c dc 3f
       -1.0381596 0.7102503 0.21089092 1.7215612
0000e0 bb 8b 65 3e 43 f2 f0 bf a5 a8 4f be 14 e7 44 3e
       0.22416584 -1.8823932 -0.20279177 0.19228774
0000f0 4b 67 08 bf e5 35 0c be 8e 83 07 3e a2 2c 81 3f
       -0.5328261 -0.13692434 0.13233778 1.0091746
000100 74 d7 44 be 6e f0 16 bf 75 7f 1f 41 20 b8 d5 40
       -0.19222814 -0.58960617 9.968617 6.678726
000110 f6 dd be 40 9a ce 56 3f 6e 64 b0 3e 59 61 9f 3e
       5.964595 0.83909 0.34451622 0.31128958
000120 71 9c 1e 40 80 bd 2a c0 5a c7 b7 3e 2e 0b 6b bd
       2.4782984 -2.6678162 0.3589428 -0.05738371
000130 81 4a 91 3e 75 80 55 bf 67 a7 f6 3d f7 d1 de be
       0.28377154 -0.83399135 0.12043648 -0.43519565
000140 77 cc 1d bf 33 10 30 3f 2e 5b 4d 3d 1f ad fe bd
       -0.61640114 0.6877472 0.050135784 -0.12435364
000150 d7 3c a1 3e 7d fd 8e 3d 72 5f 93 3f 00 a6 c9 3f
       0.3149173 0.06981943 1.1513503 1.5753784
000160 6c 52 25 40 5d bf f9 be 75 b5 a6 be b7 91 62 be
       2.5831556 -0.4877881 -0.32560316 -0.22125898
000170 f0 3e 37 3f b4 31 91 bf 8f 7a 13 bf 5b c8 f2 3f
       0.7158041 -1.1343293 -0.57608885 1.8967394
000180 23 49 83 bf 47 94 6a bc 32 a6 f9 3e 4f 9f 12 be
       -1.0256695 -0.014317579 0.4875961 -0.14318584
000190 09 1d 3d 3e dc 4f 16 c0 7d 8b c9 be 67 93 53 3f
       0.18468107 -2.3486242 -0.39364234 0.82646793
0001a0 0a 87 53 3f 76 c4 63 3f 3e 9b e8 c0 d3 14 40 c0
       0.8262793 0.8897165 -7.2689505 -3.001271
0001b0 99 54 af bf a8 ad 6a bf 79 ae ba be 2f a6 0b bf
       -1.3697692 -0.9167123 -0.36461237 -0.5455045
0001c0 8b 91 30 c0 44 7c d6 3f 47 62 71 be 68 b7 82 3f
       -2.7588832 1.6756673 -0.23572646 1.0212221
0001d0 26 ad 80 be 6e 50 ad 3e cd 88 a5 3e 32 4f ed bd
       -0.25132102 0.33850425 0.32330933 -0.11587371
0001e0 cf 8b eb bf 47 f2 f9 be 50 67 b3 bd 42 1c 91 3e
       -1.8402041 -0.48817655 -0.0875994 0.28341872
0001f0 51 ce ca 3e f2 95 9c 3e 33 ed dc c0 95 b4 a5 c0
       0.39610532 0.3058315 -6.903955 -5.1782937
000200 1e da 8d c0 65 71 28 bd cc d6 12 3f 8c 41 3c 3f
       -4.4328756 -0.041123766 0.57359004 0.73537517
000210 8f 8e 34 bf 12 05 ca 3f b6 96 ae 3f b7 76 75 bf
       -0.7053003 1.5782797 1.3639743 -0.9588427
000220 b2 ba 97 3e 67 a3 c3 3e 30 a3 b3 3e 0c 9c a1 3e
       0.29634625 0.38210604 0.3508544 0.31564367
000230 ad 72 df 3f f3 09 b4 bd f6 91 9d bf 57 11 93 bf
       1.7456871 -0.0879096 -1.2310169 -1.1489667
000240 7e 68 2c 3f 39 43 14 3f 2f 0d 6d c0 bd 61 18 c0
       0.6734694 0.57915074 -3.7039297 -2.3809655
000250 6f 5d d9 be 3e 4d 11 be f6 2b b3 be fa 1a b1 be
       -0.42454097 -0.14189622 -0.34994477 -0.34590894
000260 c0 26 b2 be 95 bd 17 3f 2b 60 0a 3e 0c 00 df 3c
       -0.3479519 0.59273654 0.13513248 0.027221702
000270 ab 40 69 bf dc 0f 80 3f ee 14 79 3e cc 01 f6 bd
       -0.911143 1.000484 0.2432439 -0.120120615
000280 61 39 00 bf 97 53 bb 3f 47 5d 02 c0 d2 ea 3a 40
       -0.50087553 1.4634885 -2.0369432 2.9205823
000290 35 62 52 3f 56 f8 0d 40 7f 27 ad be 5c b2 00 40
       0.821811 2.2182822 -0.33819196 2.0108862
0002a0 e7 17 4f 40 4c f5 82 3e 30 68 12 3f e8 82 3d 3f
       3.235834 0.25577772 0.5719023 0.7402787
0002b0 53 70 0f be c1 18 63 3f b9 12 ed be 6b fc b9 bd
       -0.14007692 0.88709646 -0.46303347 -0.09081348
0002c0 45 6f 14 be 54 0d 40 bf 53 7b 4b 3e 5d b8 0a be
       -0.14495571 -0.7502034 0.19871263 -0.13546892
0002d0 44 04 59 bf 9c 0c 93 3f d9 2e 8a 3f b0 11 06 3f
       -0.84772134 1.1488223 1.0795547 0.5237074
0002e0 dc 7f b5 3e ee 4b 06 3f e7 9c 5c c0 14 06 95 c0
       0.3544911 0.5245961 -3.4470766 -4.656992
0002f0 1f 35 95 c0 7b 64 25 be 5f ad 4b be 74 e5 50 3d
       -4.6627345 -0.16151612 -0.19890355 0.051000074
000300 51 96 a2 3f 72 43 19 40 d1 31 02 3e f2 06 59 3f
       1.2702123 2.3947415 0.12714316 0.8477622
000310 49 7e 71 bf e3 62 ad bf e7 ae 6f 3e 89 16 bb bd
       -0.9433332 -1.3545803 0.23406564 -0.091351576
000320 51 d3 02 3e 2e 6b 7c bf 2f d3 d1 be 8c 2a 98 bf
       0.12775923 -0.98601043 -0.40981433 -1.1887984
000330 2d 7f 8c bf 92 0c 09 bf 0f f0 2d 41 10 35 25 41
       -1.0976311 -0.53534806 10.871108 10.325455
000340 be 65 10 41 e4 ca 35 bf 39 38 8d bf a2 ce b2 bf
       9.024839 -0.7101271 -1.1032783 -1.3969309
000350 2a 67 14 3f 1c 09 42 be a7 31 da bf 08 19 c0 3e
       0.57969916 -0.18948787 -1.7046403 0.37519097
000360 54 ed 45 3f d7 6f da 3f 22 4f e9 3c b5 15 94 be
       0.7731526 1.7065381 0.028480116 -0.2892281
000370 43 f8 72 3e 5d b8 00 bf 50 b4 cd 3e 72 19 90 bf
       0.23727517 -0.50281316 0.4017663 -1.1257765
000380 0e b6 37 3f a5 bc bf 3e e0 3c 96 40 04 fc f7 40
       0.7176217 0.37448612 4.694931 7.7495136
000390 b1 d5 1c 41 66 1e ad 3f 2d b3 9f 3f 15 91 86 3f
       9.802171 1.3524902 1.2476555 1.0513026
0003a0 98 59 f6 be 9d 1e 92 bf 15 44 82 bf 12 96 0f 3f
       -0.4811523 -1.1415592 -1.0177027 0.56088364
0003b0 87 aa 41 3f b4 18 29 bf 81 43 8a be 06 50 b1 3e
       0.7565083 -0.6605332 -0.27004626 0.34631366
0003c0 0a dd 19 be 55 6f b0 bf d9 b5 12 be 27 d6 95 bf
       -0.15025726 -1.3783976 -0.14327182 -1.1705979
0003d0 a0 f2 21 bf df e0 d8 be f2 47 da bf 3f 35 73 c0
       -0.6326084 -0.42359063 -1.7053206 -3.800125
0003e0 b1 61 ab c0 3b 36 32 bf 1e 75 f7 be 54 5d 3c bf
       -5.355675 -0.69614 -0.4833154 -0.7357991
0003f0 c4 fe bd be 6b 44 ff bf 2b 17 d5 be e8 09 a7 3f
       -0.37108433 -1.9942755 -0.41619238 1.3049898

critic.0.bias f4 [64]
000000 a1 63 ec 3e ef 20 11 3f b0 b3 0a 3f 9e a4 5a be
       0.4616976 0.5669088 0.5418043 -0.21351859
000010 34 07 52 bf 98 59 a4 be ce 69 9f 3f cc a4 77 3d
       -0.8204224 -0.32099605 1.2454164 0.060459897
000020 ce 3c 57 3d 38 08 ac 3e 95 ed 0d c0 18 61 0a bf
       0.052548222 0.3360002 -2.2176259 -0.54054403
000030 74 bd 2b be 88 90 83 bf f8 3d db be aa 7a ba bf
       -0.1677149 -1.0278482 -0.42820716 -1.4568684
000040 ca 6a 16 bf 4c 79 22 bf 97 b2 fd be 09 8e 2a bf
       -0.587567 -0.63466334 -0.49550316 -0.6662298
000050 8c c8 9a bf 5b c2 95 bf 76 16 cd 3e 8e d6 1e 3f
       -1.2092452 -1.1699938 0.400562 0.62046134
000060 fa 73 d5 3e 90 b9 71 3f c8 f9 69 bf 9c c2 2b bf
       0.41690046 0.9442377 -0.9139676 -0.67093825
000070 1f 51 97 bf 38 4a 51 3f 0d 2c 9e bf 4e eb 0e 3f
       -1.1821631 0.81753874 -1.2357193 0.55827796
000080 cb ac a9 3f d6 e0 46 3e a6 94 bf 3f 4f f8 94 3f
       1.3255857 0.19421706 1.4967239 1.1638278
000090 1b 65 8e bf f0 8f 41 3f 0d b2 6e 3f 43 4c 01 3f
       -1.1124605 0.75610256 0.93240434 0.5050699
0000a0 48 14 65 bf 88 19 75 bd fb cc b3 3f 39 77 b7 3f
       -0.8948407 -0.0598388 1.404693 1.4333259
0000b0 60 20 e8 bf 36 d2 cf 3e 39 f9 33 be 78 a8 15 3f
       -1.813488 0.40590066 -0.1757554 0.5846019
0000c0 f5 6a 32 3e ac be e9 3f 57 80 cc be 4f ff 30 3f
       0.17423613 1.8261313 -0.39941666 0.6913957
0000d0 ef 7a fb be 55 25 47 3f a1 c8 eb 3c fb 68 85 be
       -0.49117228 0.7779134 0.02878219 -0.26056656
0000e0 5d 31 70 bf e7 98 a7 3f 6a 28 25 bf 97 e8 a7 be
       -0.9382532 1.3093537 -0.6451479 -0.3279464
0000f0 54 e8 7c 3f 11 67 94 3f 2a 44 bd 3e 18 87 dc 3d
       0.98792005 1.1593953 0.36966068 0.107679546

critic.2.weight f4 [64, 64]
000000 66 76 47 bf a9 7f 3e 3f 6b 6b 04 40 65 db ec 3f
       -0.77915037 0.74413544 2.0690563 1.8504454
000010 5c 74 30 3f 26 33 fd 3c 5a c4 cc be a0 af 9b 3f
       0.6892755 0.030908179 -0.39993554 1.2162971
000020 45 2e 35 3e b7 a1 f2 3f f5 8e 69 3f be 23 42 3f
       0.17693432 1.8955601 0.9123376 0.7583579
000030 80 76 20 bf e4 27 16 3f 00 a8 72 bf e3 08 82 bf
       -0.62680817 0.5865462 -0.947876 -1.0158962
000040 76 2c b9 bf 53 9e cc bd 02 d1 d8 be 37 7d 8d 3e
       -1.4466693 -0.099911354 -0.4234696 0.27634594
000050 c9 80 58 be c7 ac cc 3b b8 18 97 3f 6f fc 80 3f
       -0.21142878 0.0062461826 1.1804419 1.0077037
000060 f1 66 ab bf cf 4f a9 bf 03 19 88 3f 30 39 b3 3b
       -1.339079 -1.3227481 1.0632633 0.0054694638
000070 be 20 be 3e 1a d3 82 bf 66 f1 54 3f 51 14 8b 3f
       0.37134355 -1.0220673 0.83180845 1.0865575
000080 19 5e 70 3f c8 89 70 bf cd 05 8e 3e 49 b8 b1 bf
       0.9389358 -0.9396024 0.277388 -1.3884364
000090 13 52 cc 3e b8 d3 c3 be 0f 58 74 3f 2f ea cb be
       0.39906368 -0.38247466 0.95446867 -0.39827105
0000a0 09 ae 56 3e 40 8a 41 bf 6b 0f f9 3d f9 ad 8e bd
       0.20964827 -0.7560158 0.12161144 -0.069667764
0000b0 be bd 9b bf f5 19 3a c0 f5 e3 20 3f ca 5a 09 bf
       -1.216728 -2.9078343 0.62847835 -0.5365416
0000c0 07 dc 3f 40 59 5d f5 3d 42 1b 89 bf af 3b aa bf
       2.9978044 0.11980695 -1.0711443 -1.3299464
0000d0 33 a4 dc 3d 08 a5 f1 bf f2 bf 5a 3e cd be bd be
       0.10773506 -1.8878489 0.21362284 -0.37059632
0000e0 03 71 39 3e 15 a0 9d 3f fb 99 10 c0 38 ce b2 3f
       0.18109517 1.2314478 -2.2593982 1.3969183
0000f0 29 bc cd bf b0 89 f5 3f 69 3b 69 3e c5 2d 02 bf
       -1.6073047 1.9182644 0.2277657 -0.5085109
000100 6d 92 27 3f 6e c1 4f be 0a 1d 0e bf 92 56 2b bf
       0.65457803 -0.20288631 -0.5551306 -0.6692897
000110 79 3c a8 bf e9 4c 76 3f 86 29 2e 3f f7 8b 89 bf
       -1.3143455 0.96211106 0.6803211 -1.0745839
000120 35 da 07 be 60 70 f8 bf e6 50 09 3d b3 a5 71 be
       -0.13266833 -1.9409294 0.033524416 -0.23598365
000130 46 e5 d9 3d 0b 94 e6 bd 3a b3 91 3f 5f 77 13 3e
       0.106394336 -0.11258706 1.1382821 0.14401005
000140 5e f7 19 3f b5 52 de be 90 1d db bf 87 4f 58 bf
       0.6014308 -0.43422475 -1.7118397 -0.8449635
000150 b3 3c 37 bd 03 50 e3 3e fa 19 5c 3f 45 f4 f5 3d
       -0.04473562 0.44396982 0.8597714 0.12009481
000160 c0 8e ea 3d c2 22 35 3f db ce e2 be 73 60 06 bf
       0.11453009 0.7075616 -0.44298443 -0.5249092
000170 79 e1 23 bf bc 26 cd 3e 23 70 cf be 18 e3 b5 bd
       -0.6401592 0.40068614 -0.4051524 -0.08881205
000180 ee bf dc 3e f6 e8 9c 3f c3 de 24 be 23 fe 0e 3f
       0.4311518 1.2258594 -0.16100602 0.5585653
000190 b4 46 47 3f fb 16 d2 3e 8f 2a 73 3f 3b 3e 89 3f
       0.7784226 0.41033158 0.94986814 1.0722116
0001a0 f7 31 20 bf 93 22 67 3f 1e a5 15 bf 48 58 c1 3f
       -0.6257624 0.9028713 -0.58455074 1.5105066
0001b0 eb 7e 5a bd 1c 70 eb be 3d d7 06 bf d9 a4 97 3f
       -0.053343695 -0.4598397 -0.5267218 1.1847183
0001c0 14 31 87 bf 9a 3b 11 40 ff 6f b6 3e 00 02 59 3f
       -1.0561852 2.2692628 0.3563232 0.84768677
0001d0 aa c3 f5 bd 01 fb b1 3f e7 18 5f 3f 01 d5 a4 3f
       -0.120002106 1.3904725 0.8714737 1.2877504
0001e0 9b 0c 1a bf 52 79 aa 3e 3f 5d ba 3f dd d3 e6 be
       -0.60175484 0.33295685 1.4559706 -0.45083514
0001f0 9e 0f 07 40 97 74 1c 3f 52 9f f9 3f be fe 6a 3e
       2.1103282 0.611154 1.9501746 0.22948739
000200 8c 58 9c 3f 2f 57 04 bf 3a 06 49 3e 5b e4 ea be
       1.2214522 -0.5169553 0.19631281 -0.45877346
000210 36 1a 94 bf 0b c9 1f 3d 9a 12 f9 bb 5b 5b d6 be
       -1.1570499 0.03901009 -0.0076010944 -0.41866574
000220 86 c1 5b bf c0 dd df 3b ab ff 0e be bd f3 8e 3f
       -0.8584217 0.0068318546 -0.13964717 1.1168133
000230 45 42 17 3b d8 20 03 3e e9 64 12 3f e8 3f 24 bf
       0.0023080271 0.12805498 0.57185227 -0.64160013
000240 6e 2f e4 bd 4e 15 89 be 50 68 e4 3f ec dc 6e 3d
       -0.11141859 -0.26774067 1.7844334 0.058316156
000250 f1 71 67 bc f8 fa 86 be df bf d6 bd c8 5b 0d be
       -0.014126287 -0.2636335 -0.10485815 -0.13804543
000260 92 fb 9c 3f 9a 62 57 bf c6 00 3c bf 2e cd 0b bf
       1.2264273 -0.8413483 -0.7343868 -0.54609954
000270 28 5a 06 3e d4 cb df 3f 94 7b a9 bd 4c e1 8f bf
       0.1312033 1.7484078 -0.08275524 -1.124063
000280 a4 43 a1 bd da 84 bc 3f 2b 6c 3d bd db 1d 08 3f
       -0.078742296 1.4728043 -0.046245735 0.53170556
000290 5e ac af bf 4d 8c 6d 3f 1e b7 94 be 4a 29 bb 3d
       -1.3724477 0.92792207 -0.29045957 0.09138735
0002a0 4c 01 56 3e f3 be fa 3e 72 2b c6 bd 8d 76 08 3f
       0.20898932 0.48973808 -0.09676255 0.53305894
0002b0 68 d4 1a be 07 d4 50 be 33 b2 93 3e b0 74 f6 3f
       -0.15120089 -0.20393382 0.28846893 1.925436
0002c0 a9 86 b8 bf ef 63 1f 3f 1e 27 9d 3f 0c c3 4e bf
       -1.4416095 0.6226186 1.2277563 -0.8076637
0002d0 f5 c4 0a bf 91 80 66 3e f6 38 0f bf 91 fe aa bf
       -0.5420678 0.22509982 -0.5594629 -1.3358938
0002e0 40 e0 a9 3e 03 50 b7 3e a9 2b 4a 3f ba 2b 8d bf
       0.33178902 0.35803232 0.7897287 -1.1028969
0002f0 bc 75 e5 3d 53 35 2d bf 7c 61 25 bf ee 21 1d bf
       0.11204097 -0.6765949 -0.64601874 -0.613799
000300 3e e7 93 bf 5f 49 51 bf ea 90 f4 be a3 54 0d 3f
       -1.1554945 -0.8175258 -0.4776681 0.5520727
000310 a0 22 f7 be e5 62 27 3e 01 77 ae bd 0e 64 08 3e
       -0.48268604 0.16346319 -0.08518792 0.13319418
000320 6c d8 36 be 68 eb 0e 3f 5d e8 a9 bf 67 d2 ad bf
       -0.17855996 0.5582795 -1.3274037 -1.3579835
000330 54 2f c2 3e 02 ae af be d3 12 ea bd 9c 25 8b bf
       0.37926733 -0.34312445 -0.11429372 -1.0870852
000340 68 f5 c7 be 83 7f d6 bf 5f 77 00 bf 42 61 a2 be
       -0.39054418 -1.6757663 -0.50182146 -0.31714827
000350 75 cf 0c bf 20 a4 bc 3e 54 7f ac 3d da a3 2d 3d
       -0.55004054 0.36843967 0.084227234 0.04239259
000360 94 1e 84 3f 68 2f 81 bd 53 0a 96 be c6 68 d8 3c
       1.0321832 -0.0630787 -0.29304752 0.026417147
000370 37 fd fb be cf 4b 7e 3e cb d1 18 bf 0c fa e5 bd
       -0.49216625 0.24833606 -0.5969512 -0.11229333
000380 d0 17 87 bd 98 f9 45 bf 40 a9 c5 be 5d 02 c2 bf
       -0.06596339 -0.77333975 -0.3860569 -1.5156971
000390 75 ec 66 bd b1 61 74 3f 4a a9 3c 3f 7f bd f9 3f
       -0.056377847 0.95461565 0.73695815 1.9510955
0003a0 6d b1 2e bf 3e 19 fa 3d 7b ec 12 3f 17 0b b1 3e
       -0.6823948 0.12211846 0.5739209 0.34578773
0003b0 bf 50 15 3f 44 c3 78 bf 89 15 e6 3e d2 14 87 3f
       0.58326334 -0.9717295 0.44938305 1.0553229
0003c0 93 97 40 bf d4 34 8c bf 7a 72 91 3e e7 bc a2 3f
       -0.75231284 -1.0953622 0.2840765 1.2713898
0003d0 f2 89 72 3f aa d2 27 bf 09 44 bb be c6 d2 6e bc
       0.9474174 -0.6555582 -0.36575344 -0.0145766195
0003e0 7b 36 13 3e b7 9e 15 40 f2 83 3d 3f 79 58 fb be
       0.14376251 2.3378122 0.7402946 -0.49090937
0003f0 f0 05 93 3c b8 e9 67 3f 59 24 cc 3d d7 14 54 3d
       0.017947167 0.90591 0.0996787 0.051777687

critic.2.bias f4 [64]
000000 ac 49 7c 3c a5 bb 18 be 42 3a 1a 3f 5f d8 f0 3e
       0.015398424 -0.1491533 0.60245144 0.47040078
000010 41 53 d9 3e bd 1e 4c bf 66 3c a1 be b9 53 bf be
       0.4244633 -0.797344 -0.31491393 -0.37368563
000020 a8 ed 1a 3e 22 d5 42 3e 07 f1 88 bf 20 7a 0b 3f
       0.15129721 0.19026616 -1.0698556 0.5448322
000030 dd c6 54 3e 1e 68 0a 3f e7 d0 3d be 68 fd b9 be
       0.20778985 0.5406512 -0.18536721 -0.36326146
000040 e7 14 b4 3e 14 cd 8b 3b a8 eb 6a be 97 7d da 3d
       0.35172197 0.0042663906 -0.22941458 0.106684856
000050 c0 82 85 be 5a a7 8e 3f 37 3a 5c be 81 c4 62 3f
       -0.26076317 1.1144822 -0.21506582 0.8858109
000060 a2 8d 8a 3e e6 a7 3c 3f 4b 2d 38 bf 88 01 b1 be
       0.27061182 0.7369369 -0.7194411 -0.3457148
000070 57 e0 43 3f 58 f4 d3 be 6a 0f 92 be f7 27 f8 3e
       0.7651419 -0.41397357 -0.28527385 0.4846799
000080 a5 66 c5 3e 67 34 1d bf ab 95 19 bf e4 b0 d4 3e
       0.38554874 -0.61408085 -0.59994 0.41541207
000090 fa 20 bf bb 24 68 4b 3d 37 84 85 3e f7 4d 30 3e
       -0.0058327885 0.049659863 0.26077434 0.17217241
0000a0 fe f6 9d 3e 8d 9f 83 be 6f 77 52 3f 22 16 f9 3e
       0.30852503 -0.25707665 0.8221349 0.48649698
0000b0 1c 22 01 3d 78 34 17 bf 8b bd 32 3f be 6a 23 3f
       0.03152667 -0.59064436 0.6982047 0.6383475
0000c0 38 4d 80 3f 43 57 9c be 75 92 5c 3e 47 b5 c1 3d
       1.0023565 -0.30535325 0.21540244 0.09458404
0000d0 6d 45 7a be 8f ba b9 be 14 14 28 3f de 35 4d 3f
       -0.24440546 -0.36275145 0.65655637 0.8016032
0000e0 c1 08 0e bf 45 c1 39 bf c5 fa ec 3e c1 71 9c be
       -0.5548211 -0.7256053 0.46285072 -0.30555537
0000f0 4e 4c ed be 9b 23 3b bf c6 60 2b bf db c2 99 be
       -0.46347278 -0.73101205 -0.6694454 -0.30031475

critic.4.weight f4 [1, 64]
000000 ce b6 f5 be 19 f4 f4 be bb 86 08 bf 87 6a ec 3e
       -0.4799103 -0.47842482 -0.5333058 0.46175024
000010 8e 06 4f be 08 9a b5 be 25 0e be 3e 42 2f c0 3e
       -0.20217344 -0.3546908 0.37120166 0.37536055
000020 93 36 c6 3e 09 b4 da be fa 78 f3 3e 69 4e ab be
       0.38713512 -0.4271548 0.47553235 -0.3345826
000030 d0 3a 06 bf 47 3a b4 be 63 99 01 3f 34 42 cb be
       -0.5243349 -0.35200712 0.50624675 -0.39698946
000040 39 7a bc 3e 79 57 91 be c1 0e da be 22 4e ab 3e
       0.36811998 -0.2838705 -0.4258938 0.33458048
000050 cc e3 1a bf 64 8f bf be b8 a4 ca be 65 85 9b 3e
       -0.6050384 -0.37414086 -0.39578795 0.3037521
000060 bb 05 9d be 8a 7a a6 3e 51 a9 b4 be 96 0e 04 bf
       -0.30668435 0.32515365 -0.35285428 -0.51584756
000070 04 79 9f 3e 92 22 d0 be 71 03 17 bf f0 a7 f6 3e
       0.31147015 -0.40651375 -0.58989626 0.48175
000080 59 02 25 3f b4 9d c1 3e 37 b4 0d bf 86 16 2b 3e
       0.6445671 0.3781563 -0.5535311 0.16707811
000090 b1 10 9c be da 30 9b be 36 9c c5 3e 1d db c9 be
       -0.30481485 -0.30310708 0.38595742 -0.39424983
0000a0 94 fa cc be 34 33 00 bf f3 db eb 3e 17 c4 be 3e
       -0.40034926 -0.5007813 0.46066245 0.3725898
0000b0 81 b0 a2 3e f5 69 ba 3e cb bd a1 3e 7a b6 9b 3e
       0.31775287 0.36408964 0.31590113 0.30412656
0000c0 2f 7c 01 3f db 89 b8 3e b6 19 e2 be 51 e2 b7 be
       0.50580114 0.36042675 -0.4416024 -0.35914853
0000d0 a2 a2 67 3e 77 7c 07 3f 43 8e b3 be 45 50 61 3d
       0.22620633 0.52924293 -0.35069475 0.05500819
0000e0 e8 e1 1c 3f 0d fb 13 be ec a3 bd be b4 2b 8e be
       0.61282206 -0.14451237 -0.37039125 -0.27767718
0000f0 a4 7f 8f be 1b c5 05 bd 21 b3 bb be 12 8f 80 be
       -0.2802707 -0.032658678 -0.36660102 -0.25109154
