Model Results/ppo_sentiment_AMC2020-03-011999.pth (torch, 50577 bytes, 11 tensors)

actor.0.weight f4 [64, 20]
00000000: 2557 94bf af8b 99bf d414 21bf b2ee e33d
00000010: 3a43 2ebe 7ec0 893d 5582 b33f a997 2a40
00000020: 3725 3b40 aae9 943e fb8c 373f f24a 243f
00000030: 68fb f73e a2ca 643f 20c8 d23d c369 9fbf
00000040: a0bc c2bf 858e 65bf d932 aa3e 65aa db3c
00000050: dca1 00bf b70e c1bd fc5c 15bf 1d8b 09bf
00000060: 6585 29bf 03ab 0cbf 67b4 57c0 6c17 6cc0
00000070: 3e17 76c0 234f 9ebe 8122 69bd 58ec ab3e
00000080: 0e8a c4bf c5a1 efbf 13dd 1a3f ff12 f23e
00000090: f348 a3bd f999 ff3d 673b 343e b01d f83e
000000a0: 46ab e4be 5960 b93f facb d63f 6d11 b5be
000000b0: ba3e f8be c017 28bf a920 36bf 7adc ee3d
000000c0: bcc3 833e 2631 36be 766f 5b3d a1cd f1bd
000000d0: 320a 1ec0 ed05 a5bf 6260 2f3f ce9e e1be
000000e0: 221e 8b3e 5826 3d3f ab72 413e 6c63 f33d
000000f0: 2a26 003f d930 de3e dc3a aebd 48c1 943d
00000100: ab98 da3e 871f ff3e 7ab3 c53f 4f9e 1b40
00000110: fca3 6640 b7ff 433f 8a18 753f 9d4e 5f3f
00000120: 32d2 2b3d 3288 eabe b461 f43e c582 3e3f
00000130: 60a0 323f 51cb 7f3f d9c8 213e 14da 83be
00000140: eeeb c6bf 1903 24bf 1b5c 0c3d a4c9 803d
00000150: 4a19 213f 22b4 ab3d 09e4 bf3f 6d47 c43e
00000160: cb70 84be 7e2a 623f 1c36 093f 9047 053f
00000170: 9a54 633e dda7 153f 03f7 fc3f 369e e53f
00000180: d7d1 e13f 6e56 2640 72e0 3e3f ddda 9f3e
00000190: 8314 aa3f 9490 1340 f37c 933f 06b5 4fbf
000001a0: 51a2 6fbf a333 8ebf 569e afbf a86c 23c0
000001b0: d063 46c0 8389 03bf 8c8b 28bf 184c e2be
000001c0: cc47 24bf e082 b9bf 331a e8be dd9a 56be
000001d0: 6748 89be 2fef 2c3e 2c4d 07be da4b 4cbe
000001e0: 66b0 9c3b 9f24 ffbe 94a8 d63d 96c3 85be
000001f0: e031 adbe ed20 4cbe 196c 87c0 441a 2bc0
00000200: 3db9 0dc0 61fd 1bbf 4784 e4be 221d ddbd
00000210: a5be 91be b57e 983f 2790 ed3e e988 dbbe
00000220: 9374 013f 2aff afbe 275e 38bd a8b7 143d
00000230: 8200 bd3e e702 27bf bb03 87be ce84 7bbd
00000240: c653 6dbe d7c3 c1be 13ed c0bf 0423 13c0
00000250: d494 2cc0 cf79 22bf 091c a6be 7c91 25be
00000260: 0f6b b73d 6398 b3bf 0f9e d63d 85e1 bbbf
00000270: 5359 8cbe ed8a 0ebf 9e8d be3e 664c 2b3d
00000280: 3a6e d1be 2a03 f0be e549 783f cb6f eabe
00000290: b345 aebc 8d88 ccbe 69cb 97bf 36a2 35bf
000002a0: ec57 d5bd 0450 35bf a7ef e8be 87c3 f2be
000002b0: e21b 503f 60e5 ab3e 9a28 09bd 237b 8bbf
000002c0: 877a 033f 6f4a 1e3f a261 fd3d 9dfb 5e3c
000002d0: bc65 6dbf 62fa a1bd dde9 bdbd ac45 c2be
000002e0: d725 eebd 84e9 91be 6347 a2bd f323 543f
000002f0: 100b 723f a77a 6a3e 5fff 313e 70bc 04be
00000300: 7aec 2cbf 067d 2f3f 2c4d 523e 630e 0340
00000310: 82e0 0c3f a179 513e f502 9abe 1dd1 0ebf
00000320: 8766 0ec0 2694 33be 0f84 0ebf 11a5 84bf
00000330: 9b68 7abf 2f78 d3be ca0e 1940 26f3 1b40
00000340: 9643 2c40 225c 913f 1391 583f 9bdd 443f
00000350: c5ac a53f d976 7c3f 231e 823b dbb6 64be
00000360: 3a6f cb3e df37 d0be e458 ce3e 0cbe a6bd
00000370: 845f bebe ab6a 873e c5b8 613f 5ba0 f4be
00000380: 0207 efbe 3b95 c2be 18d2 9c40 4e60 3f40
00000390: bcec b83f c720 2f3f c6ef 713e 1335 7ebd
000003a0: 1015 16be 9d45 093f 864a 393e 312e 7040
000003b0: eba5 283e 32b2 223f 1c67 e43c b5f8 97bd
000003c0: 145a e33f 9fe2 5540 343c 5440 4059 92be
000003d0: d657 b7be 1b6c 49be 6e30 8340 0a67 1640
000003e0: a9f4 4b3f 1410 293f f58e db3e 68a3 143e
000003f0: 5e1a 213e 1326 f03e c2e2 923e 0dfd 143f
-1.1589094 -1.1995753 -0.62922406 0.11129512 -0.17017832 0.06726168 1.4024149 2.6655066
2.9241464 0.29084522 0.71699494 0.6417686 0.48433995 0.89371693 0.10292077 -1.2454151
-1.5213814 -0.8967059 0.3324192 0.026814649 -0.5024698 -0.09426635 -0.5834501 -0.53727895
-0.6621917 -0.54948443 -3.370386 -3.6889296 -3.8451686 -0.30919752 -0.05691767 0.33578753
-1.5354631 -1.8721243 0.6049358 0.47280118 -0.07972898 0.1248054 0.17600785 0.4846015
-0.4466192 1.4482528 1.6780999 -0.35364857 -0.48485357 -0.6566124 -0.71143585 0.11663146
0.2573527 -0.17792186 0.053573094 -0.11806799 -2.4693723 -1.2892433 0.68506444 -0.4406647
0.27171427 0.7388663 0.18891399 0.118841976 0.50058234 0.43396643 -0.0850732 0.07263428
0.426946 0.4982874 1.5445397 2.4315374 3.6037588 0.76562065 0.9574057 0.8722933
0.041948505 -0.45807034 0.47730792 0.7441829 0.6977596 0.9991961 0.15799274 -0.25752318
-1.554075 -0.64067227 0.034267526 0.0628846 0.62929213 0.08383967 1.4991466 0.38335744
-0.25867304 0.8834609 0.5359819 0.5206232 0.22200242 0.58459264 1.9762882 1.7938907
1.7642163 2.5990252 0.74561226 0.31221667 1.328751 2.3056993 1.1522506 -0.81135595
-0.9360705 -1.1109508 -1.3720195 -2.5535069 -3.099842 -0.513817 -0.6583793 -0.4419868
-0.64172053 -1.4493065 -0.45332488 -0.20957513 -0.2681305 0.16888116 -0.13213032 -0.1995081
0.0047817705 -0.49832627 0.104813725 -0.26125783 -0.33827114 -0.19934435 -4.2319455 -2.6734781
-2.214431 -0.609335 -0.4463217 -0.10796572 -0.28465763 1.1913668 0.46399042 -0.42877892
0.50568503 -0.34374362 -0.045011666 0.03630796 0.3691445 -0.65238804 -0.26370034 -0.06140595
-0.23176488 -0.37844726 -1.5072349 -2.2990122 -2.6965837 -0.63467115 -0.32443264 -0.16168779
0.08955967 -1.403088 0.10479366 -1.4678198 -0.274119 -0.55680734 0.3721742 0.041820906
-0.4090441 -0.46877414 0.96987754 -0.45788416 -0.02127347 -0.3994793 -1.1858951 -0.7095064
-0.104171604 -0.7082522 -0.4549534 -0.474148 0.81292546 0.33573437 -0.033485986 -1.0896953
0.51358837 0.61832327 0.123721376 0.013609794 -0.9273336 -0.07909085 -0.092731215 -0.3794378
-0.11628311 -0.2849847 -0.07923772 0.82867354 0.9454813 0.2289835 0.17382573 -0.12962508
-0.67548335 0.68550146 0.20537251 2.047753 0.5503007 0.20456554 -0.3008038 -0.5578783
-2.2250078 -0.17536983 -0.55670255 -1.0362874 -0.97815865 -0.4130263 2.3915277 2.4367156
2.691625 1.1356242 0.84596366 0.76900643 1.294335 0.9861885 0.0039708777 -0.22335379
0.39733297 -0.40667626 0.40302193 -0.08141717 -0.37182248 0.2644857 0.8817256 -0.47778592
-0.46685034 -0.3800448 4.900646 2.990253 1.4447246 0.6840939 0.23626623 -0.062062334
-0.14656472 0.53621846 0.18094835 3.7528193 0.16469543 0.63553154 0.027881198 -0.07420484
1.7761865 3.3419569 3.3161745 -0.28583717 -0.358092 -0.19670145 4.099662 2.350039
0.79670197 0.6604016 0.42882505 0.1451546 0.15732715 0.46904048 0.28688627 0.58198625

actor.0.bias f4 [64]
00000000: e3dc c03e edd7 993e 6833 453e 636a c43e
00000010: f6b3 133f af57 c0bd 7476 1a3c 1a6f aabe
00000020: 1417 4cbf aff1 10bf 3304 d53e e80a 633e
00000030: 0d7a 8bbc 8608 e5be ab4c 9a3e d568 373e
00000040: 4569 e43d 151c 0c3d 45e9 2e3e c61d 4b3f
00000050: 9d3b 463e 3670 d0be 9f17 6f3f 398b a0be
00000060: 407e 3dbf 3137 30bf 5d81 03be f636 e3bd
00000070: c609 d43e 5a22 1d3f 60c3 ef3e 56dc 28bf
00000080: 0237 d2bd b45c c8be e7ae 243e e7c3 92be
00000090: 35e7 8ebe e4e5 99bd bd54 db3e 3490 533c
000000a0: 4688 43be 425b 94be e829 19be f104 56be
000000b0: 9329 963d afca 223f 9679 a33e 8876 a2bd
000000c0: 7e30 233e 25c5 3a3e 03cc 40bd b56c 9c3e
000000d0: f4e3 70be 5687 11be b05e 1fbd 85cb 74bf
000000e0: 95a8 22be 74ff bb3e 7ce9 963e fe5e 9a3d
000000f0: 66d3 be3e 8a5f 1bbe 2ebc a43e e94f 82bf
0.37668523 0.3004755 0.19257891 0.38362417 0.57696474 -0.09391724 0.0094276555 -0.3328789
-0.79722714 -0.5661878 0.41604766 0.22172129 -0.017025972 -0.44733065 0.30136618 0.17911084
0.11152891 0.03420647 0.17081173 0.79342306 0.19358678 -0.4071061 0.9339542 -0.31356218
-0.7402077 -0.68834215 -0.12842317 -0.11094467 0.41413707 0.6138054 0.46828747 -0.65961206
-0.10264398 -0.39133227 0.16082345 -0.28665087 -0.27910772 -0.07514551 0.42838088 0.012912799
-0.19094953 -0.28975874 -0.14957392 -0.20900322 0.073321484 0.6359052 0.319287 -0.07932764
0.15936467 0.18239267 -0.04706956 0.30551687 -0.23524457 -0.14211783 -0.03890866 -0.95623046
-0.15884621 0.36718333 0.2947501 0.075376496 0.3727066 -0.15173164 0.3217482 -1.0180637

actor.2.weight f4 [64, 64]
00000000: 464e ae3f 2198 c43e a037 a43f ddbd 5e3e
00000010: 908d 463e cf1e 843f cc17 debc 1e8a 5c3e
00000020: 7ab8 3d3e 1cd6 8dbf f003 9c3f 330f 05be
00000030: 50b5 963f bc78 7b3e 0556 023e e3fa f0be
00000040: 1516 143f e3f3 7ebe 30ae 0ebf ba10 ab3f
00000050: 48dd 813d e80c 90be 97e0 7d3e a519 74be
00000060: bb02 be3d 2c21 02bf f3ab 6bbe d809 d5bf
00000070: 03d3 333e a52e 143f 9d3f 403d 8d43 1a3e
00000080: 1d98 3cbe 9336 773e 2d8d 31be 04d4 a9be
00000090: 6a1e abbe 691e d73f 8330 d53e 8aed f83b
000000a0: 22c3 6c3e e078 b6bd 2d48 f5bf 4135 fabf
000000b0: 514f 3c3f c420 0abc 7541 c6be 9133 783e
000000c0: 0a68 1a3f 2747 4ebf d33d c0bd 9ab6 923f
000000d0: 271f 123f 9cba 87bf a77c e3be ebbf be3d
000000e0: 6262 3d3f 7601 be3d 3c45 22bf b19f 89bf
000000f0: d78b 953d e90a 71be 8a64 863f f3fd 043f
00000100: 2f36 5cbe f750 9f3e 0bae f9be 4f88 ddbe
00000110: 9f6a 0a3f c3ba e83d 0b27 1f3f f155 813c
00000120: becf 7f3f 9176 8abf 849e 5f3e 4391 88bf
00000130: 6e2a 53bf 9ce8 90bd 0ae4 8ebe 5652 053e
00000140: 977d eebf 4f23 a23e 2c5d 64bf 15c2 183f
00000150: 308b 233f d75a 8a3f 4726 99be 5b53 fdbd
00000160: c9cb b03f 9566 93bf 749a 33bd 6eb6 e1be
00000170: 40c9 a03f e5fb cebc 7537 e0be 8580 47bc
00000180: 181c d9be 0623 cc3e 91b8 1ebf 49df 033f
00000190: 7268 a5bd cf65 be3e 2262 8dbe 7a48 673e
000001a0: cae3 cc3e c6f9 0cbf 560d 34be e86e 8cbf
000001b0: f3c1 1ebf cf44 8d3d a7d9 3d3e 8b1b 573c
000001c0: fcaf 05bf 11c2 d5be 8745 26bf 857b 1a3f
000001d0: 83b4 b23e 0b4c 79bf e64d 87bf 15fc 1e3f
000001e0: 339d 313f a610 e6bd f2ff a3bc b060 79be
000001f0: 8d27 933f 8c9e 8a3e 9de2 5e3f 051c d23e
00000200: ce44 c53c 3657 233f acb8 dc3e 8763 033f
00000210: f66d 203f 505f 5fbe a450 8d3e 8ebb e8be
00000220: 3e73 8cbe ecfa 623f 04a3 d53f f12b d13e
00000230: e08b 87be a413 9dbf 4dcf e73f 8e4b 493f
00000240: cdd7 153f e788 063f 71fd a1be 2b5e b9be
00000250: 8990 8a3e 4f7e 29bf da1c 11be e32c 1dc0
00000260: c3a2 15bf c537 a43e e0a1 ccbe bb0e b2bc
00000270: 038e f1be 6682 87bf 13ad d13d d87d e8be
00000280: ff94 973c 656f 0abf dd47 3abf 44e8 ccbf
00000290: 3990 20bf 3f54 24bf 2fd5 b8be 2f9e 3dbf
000002a0: 7dbb 183f 3a8e a13f d01d 4e3e 05ba 5b3e
000002b0: 0057 243f 4255 383f 90c8 1d3f d563 0dbf
000002c0: a4e8 1e3f 472e b83f 84b5 f6bd 3baa ca3d
000002d0: 54b2 5fbf a70c a23f ae70 323e 2550 90bf
000002e0: fa83 903e b1fe 503f ec88 8ebe 77d2 463d
000002f0: 1857 7cbf e850 1c3f bef0 413f 6aa7 893d
00000300: ba5c f1be bc4c 003f dd52 bf3c 44b1 2fbf
00000310: 6a7e 0c3e d6c4 3abf 891c 44be 9af0 68bc
00000320: 24e2 f43e 9e27 f6be 0def 6e3f 0429 423e
00000330: 62bb 383e e19a 74bf 13ec 353e 6f2b 0340
00000340: 47ba 42be c1e7 a93f 6f00 13be 9dc4 34bf
00000350: 5161 583e 4fea 3b3f b5b5 21bf 0a3d a1be
00000360: eb9d 69bf 93dd 343f 9f58 a23e 468c d63f
00000370: 4ad0 143f 9281 f6bf e765 33bc 7096 1e3f
00000380: 7850 393e fa69 27bf 7e85 29bf a192 46bf
00000390: c7a7 d63e 99ad 39bf 8007 08c0 f32a 48bf
000003a0: 5970 c63d 6153 793f 577b 493e feb5 ad3e
000003b0: 4cea 403e e5ea 3dbe b152 58bf 6be7 283f
000003c0: 424d ecbe cd67 343f 277e 883f 1496 f4bd
000003d0: a841 0cba 0cb5 8a3f dda5 8fbe 0a2e 013e
000003e0: 6f7d b0bf 5741 293f bc4f c53e f2ac 093e
000003f0: d87f 01be 7006 e23e 1f36 823e ccba 3c3f
1.3617637 0.38397315 1.2829475 0.21752115 0.1938994 1.0321902 -0.027110957 0.21537063
0.18527403 -1.1080966 1.2188702 -0.1299408 1.1774082 0.24557775 0.12728126 -0.4706641
0.57846195 -0.24897723 -0.5573454 1.336448 0.06341034 -0.28134847 0.24792705 -0.23837908
0.092778645 -0.50831866 -0.23014812 -1.6643629 0.17560963 0.57883674 0.046935666 0.15064831
-0.18417402 0.24141912 -0.1733901 -0.33169568 -0.33421642 1.6806155 0.41638574 0.0075966762
0.23121312 -0.08909774 -1.9162651 -1.9547502 0.7355853 -0.0084306635 -0.38721815 0.24238421
0.60315 -0.8057732 -0.09386792 1.1461976 0.57078785 -1.0603824 -0.4443104 0.09313949
0.73978245 0.092776224 -0.63386893 -1.0751859 0.07302063 -0.23539318 1.0499432 0.51949996
-0.21505044 0.3111646 -0.48765597 -0.43268058 0.5406894 0.11363747 0.6216895 0.01578805
0.99926364 -1.0817434 0.21837813 -1.066933 -0.8248662 -0.07075617 -0.27908355 0.1301969
-1.8632077 0.31667563 -0.8920467 0.59671146 0.6388426 1.0808972 -0.29912016 -0.123694144
1.381219 -1.151568 -0.04384847 -0.44084495 1.2561417 -0.025266597 -0.4379231 -0.012176638
-0.42404246 0.3987047 -0.62000376 0.5151258 -0.08076562 0.3718705 -0.27613932 0.22586241
0.4001754 -0.55068624 -0.17583212 -1.0971346 -0.62014693 0.0689789 0.18540059 0.013129125
-0.52221656 -0.41749623 -0.6494984 0.60344726 0.34903345 -0.9738166 -1.0570648 0.62103397
0.6938049 -0.11233644 -0.020019505 -0.2435329 1.1496445 0.27074087 0.87064534 0.41037002
0.02408066 0.6380495 0.43109643 0.5132374 0.6266779 -0.21813703 0.27600586 -0.45455593
-0.27431673 0.88664126 1.6690373 0.40853837 -0.26473904 -1.2271619 1.8110138 0.7863091
0.5853241 0.52552646 -0.31638673 -0.36204657 0.27063397 -0.66208357 -0.14171162 -2.4558647
-0.5845148 0.320738 -0.3996725 -0.02173554 -0.4717866 -1.058667 0.102380894 -0.4540851
0.018503664 -0.54076225 -0.72765905 -1.6008382 -0.62720066 -0.6419105 -0.36100146 -0.74069494
0.59661084 1.2621529 0.2012856 0.2145768 0.6419525 0.72005093 0.6163416 -0.55230457
0.6207373 1.4389123 -0.1204634 0.0989575 -0.8738148 1.2660111 0.17425796 -1.1274458
0.2822569 0.8163863 -0.27838838 0.04854056 -0.98570395 0.61060953 0.7575797 0.06721385
-0.47141057 0.5011709 0.023354942 -0.6862986 0.13720098 -0.729566 -0.1915151 -0.01421752
0.47828782 -0.480771 0.9333351 0.18960959 0.18040231 -0.95548826 0.17765836 2.049526
-0.19016372 1.3273851 -0.14355634 -0.7061251 0.21130873 0.734044 -0.6316789 -0.31491882
-0.9125659 0.70650595 0.31708238 1.6761558 0.58130324 -1.9258292 -0.010949588 0.619483
0.18097103 -0.6539608 -0.6621932 -0.7756749 0.4192488 -0.72530514 -2.1254578 -0.78190535
0.09689397 0.9739285 0.19675957 0.33927912 0.18839377 -0.18546636 -0.8450118 0.65978116
-0.46152693 0.7047089 1.0663499 -0.11942688 -0.000535036 1.0836501 -0.2805623 0.12615219
-1.3788279 0.66115326 0.38537395 0.1344488 -0.12646425 0.44145536 0.25431916 0.7372253

actor.2.bias f4 [64]
00000000: 8542 babd 83e0 cf3d b145 07bd 0378 5ebf
00000010: 4004 febe 4178 4c3f 799e 18bd 429d 7dbe
00000020: 7527 72be 46ee cdbe bd97 aebe 8d4e fdbe
00000030: e501 8b3e b891 d13d b8b4 173f 95ae 66be
00000040: fc8e e6be d832 31bf 33fd 0dbf 4bfe 4fbe
00000050: f43f a23e a943 27bf 8e60 a03e 1afa f33d
00000060: 2174 bc3d 2ffe aa3e f954 2a3f 9583 88be
00000070: 2ad5 923e 22fa c8be 68aa 06be 3384 933e
00000080: e9fe 71bf 4267 c1be b2bd ddbe 125c 1f3c
00000090: 362b cf3d e39c ed3e a77f 113e cac1 53be
000000a0: e51b e63e 16ad aabd e745 84be 83cf 803e
000000b0: fccc 36bf 8cc4 86bf ea40 d93c 13f9 803e
000000c0: 9bb4 813e a1d5 07bf 75d3 2ebf 648c 79bc
000000d0: b559 cebe e820 883e 9200 eebe 7f0c 173f
000000e0: f260 d5be 3b9a 85bf 5da1 20bf 6df3 c3be
000000f0: ee68 55be e2e3 a03c 995e 5dbe a883 15be
-0.09094719 0.10150244 -0.033025447 -0.86901873 -0.49612617 0.7987099 -0.037260506 -0.2476702
-0.23647864 -0.4022085 -0.34100142 -0.49473992 0.27149883 0.10232872 0.5926013 -0.22527535
-0.45030963 -0.69218206 -0.55464476 -0.20311849 0.31689417 -0.65337616 0.31323665 0.119129375
0.09201837 0.33397052 0.6653591 -0.2666289 0.28678256 -0.39253336 -0.13150942 0.28811797
-0.9452959 -0.37774092 -0.4330879 0.009726541 0.10115664 0.46408758 0.14208852 -0.20679393
0.44943157 -0.08333795 -0.2583458 0.2515832 -0.7140653 -1.0528731 0.026520211 0.2519003
0.25333104 -0.53060347 -0.6829141 -0.015231226 -0.40302816 0.26587605 -0.4648481 0.5900344
-0.41675526 -1.0437692 -0.6274622 -0.38271657 -0.20840809 0.019639913 -0.21618117 -0.14601004

actor.4.weight f4 [7, 64]
00000000: a291 84bf 0bc1 1dbd ad3e 17c0 ee94 15c0
00000010: 509f d5bf bc00 1c40 0694 b1bf d6c2 bb3f
00000020: 576a 6c3f eec7 fcbe eef4 2940 60de 04c0
00000030: 18e4 c73f 1063 f23e 7396 de3f 1c06 ad3f
00000040: 84d3 cc3f ffaf d3bf f867 f73f 61d8 0340
00000050: 6043 4cbe 2cc2 1abf 76f0 b9be 70ba 8bbf
00000060: 5072 2d40 c5d6 b5bf 5383 323f b7c2 3cbd
00000070: d736 ee3f cb52 8cbf 3ecc c8bf 3683 97bf
00000080: f1e1 31be 84d8 42bf c857 23c0 d106 23c0
00000090: d4a3 2740 742c 113e 0843 593f 8cee 0ac0
000000a0: 8e79 14c0 38a9 ebbf ad3e 343f 3b11 e13f
000000b0: e3c3 873d d864 33bf 2c5d 85bf 2097 c2bf
000000c0: b6d1 1ebf e9a7 c4bf c418 22c0 4825 4cbf
000000d0: e7b8 30c0 728b 12bf 299e a8bf 1a87 d7bf
000000e0: 917d b03f 921a 75bf 7406 0ac0 66df 1440
000000f0: 89ce d3bf 5594 b73f b2ef babf da4c e3bf
00000100: c424 fcbf b4ab d13f 4572 853d fc18 5dbf
00000110: 5edf 43bf 1ddc 1c3f a53f 7bbf d055 143f
00000120: 5774 b03e e480 dfbe e31d ee3f 1a22 2540
00000130: 15aa 813e bf52 18c0 da39 f83d 3e3d ddbf
00000140: f24b ffbf e88b 94bf d0c6 0540 3ddb c23f
00000150: 08e9 dcbf 1762 00bf 8216 0cbf 7f77 0fbf
00000160: bc38 94be 23bb e8bf 538f 5dbf 17be df3f
00000170: 5d4f fdbf bd5b 2240 1d1c 12bf 679c b6bf
00000180: 69cd 66be 8e1a 7dbf b0e1 45bf b8dc edbe
00000190: fa47 093f 1a98 a1bf 0037 3d3f a2bc db3f
000001a0: 0935 d33f c3e7 babc 8831 f13f a528 f5bf
000001b0: 74c2 1b3f 3947 3dbf 54bc d3bf 5b72 1c3f
000001c0: 5d2e 5d3f eadc c9bf 78de fdbe 3729 c6be
000001d0: 75c6 8cbf 4432 27bf 461c 48be f9fa b03f
000001e0: 65bc 903f 5960 713f d754 26bf 39b6 95bf
000001f0: 84fd db3f e63a a83f 46f0 1d3f 83ee b8be
00000200: e8df 3640 3d68 a33f 67be 133e 65d5 d1be
00000210: 87d4 0a3d 3366 d43e 2a4b 783f 0913 da3e
00000220: 34fd 8b3f 2955 233f 1c37 013d 6f44 f63e
00000230: dfa1 04bf 649f 693e 33c8 1abc 7c73 c3bf
00000240: aa1b 45bf fe8c 2440 e322 bdbe 51cb c4bf
00000250: ec4b 96be ff1d b73f 6c84 4bbf 174e aa3e
00000260: ac68 14be f84a 3dbf 9774 59bf 16ba c63d
00000270: 4e12 2dbf bbd1 323f a27e dc3f d90d 67bf
00000280: 4447 463f 4c3a f2be 0096 0b3e f3f7 b43e
00000290: 5217 a1bd 53e8 3b3c 1b38 d3be 6011 07bf
000002a0: 70fa d63d 9c3b 9c3f 4869 143e 89e3 a33f
000002b0: c90b f8be 1067 8bbf 5bcf 5c3f a9a2 a53f
000002c0: 3f32 7dbf f907 133f bb4b b23e 7e5e c03d
000002d0: bb42 2b3e 62e0 9abf 9104 bb3f 3d3b a83f
000002e0: bf35 873c 211a 843f e342 f5bf 0834 83bf
000002f0: 3dd4 babc 2369 cebf c9e0 713d 2845 6dbf
00000300: 39d0 da3e dfad bbbd 2e62 90bf 017d dfbe
00000310: 76d7 213f 2c59 c1be 730b 71be 0112 e73e
00000320: 005a a93e 13c2 923c b1fe 083f 9609 b63e
00000330: dff9 15bf 1750 2abf 8d7b c53f 9836 473a
00000340: 5d12 ee3e a755 013e c87c 56bf ebde fc3d
00000350: 2113 993e 12f5 e9be 1b47 24bf abd9 4f3f
00000360: 6389 573e e39f 733f 7923 4dbf c952 2a3f
00000370: 0cd5 113e 10cc bb3e a1ee 74bd 781b 033f
00000380: 6b3f c53f c091 89bf d998 8d3e a2f9 43bd
00000390: 4d6f 3a3f 9744 783e e728 25bf 12b5 463f
000003a0: b03c 3c3f 3512 fe3e f6b6 483e 69b9 993f
000003b0: 75f1 bbbe fc19 eabe 8a70 7abf 13de 013e
000003c0: 6dd0 f93e adc9 c9be 1be5 fd3d 336a 173f
000003d0: 53a9 d83e e140 9cbf addf 6bbe cd4a d1be
000003e0: 3392 923e 88ce bbbe f3cd 96bf 0df6 643e
000003f0: 77a3 c0be 8e73 f93b 73e8 62be d938 cc3e
-1.0356944 -0.03851418 -2.3632004 -2.337215 -1.6689243 2.4375448 -1.3873298 1.4668834
0.9234976 -0.49371284 2.6555743 -2.0760727 1.5616484 0.47341204 1.7389663 1.351749
1.600205 -1.6538085 1.9328604 2.0600817 -0.19947577 -0.6045253 -0.3631627 -1.0916271
2.710102 -1.4206167 0.69731635 -0.046084132 1.8610486 -1.0962766 -1.568733 -1.1836917
-0.17371346 -0.76111627 -2.5522327 -2.547291 2.6193743 0.14177114 0.84867907 -2.1708097
-2.319919 -1.8411016 0.70408136 1.7583383 0.06629159 -0.7007575 -1.0419059 -1.520237
-0.62038743 -1.5363742 -2.5327616 -0.79744387 -2.7612855 -0.57244027 -1.3173267 -1.6838105
1.378832 -0.9574367 -2.1566439 2.3261352 -1.6547405 1.4342142 -1.4604399 -1.7757828
-1.969872 1.6380525 0.06515936 -0.8636625 -0.76512706 0.61273366 -0.9814399 0.5794344
0.3446376 -0.43653023 1.8602871 2.5802064 0.25325075 -2.3800504 0.12120409 -1.7284315
-1.9945052 -1.1605196 2.0902596 1.5223156 -1.7258615 -0.50149673 -0.54721844 -0.5604171
-0.28949535 -1.818211 -0.8654682 1.7479886 -1.9789845 2.5368493 -0.5707415 -1.426648
-0.22539295 -0.98868644 -0.77297497 -0.46457458 0.5362545 -1.2624543 0.7391205 1.7166941
1.650056 -0.02281559 1.8843241 -1.9153029 0.60843587 -0.739368 -1.6541848 0.6111199
0.8639887 -1.5770543 -0.49583793 -0.3870332 -1.0998064 -0.65311074 -0.19542035 1.3826591
1.1307493 0.9428764 -0.64973205 -1.1696235 1.7186742 1.3142974 0.61694753 -0.3611947
2.8574162 1.2766186 0.14428101 -0.4098312 0.033894088 0.41484222 0.9698969 0.42592648
1.0936646 0.6380182 0.031546697 0.48099086 -0.51809496 0.22814709 -0.009447145 -1.5269618
-0.76995337 2.5711055 -0.3694068 -1.5374547 -0.293548 1.4306029 -0.79498935 0.33262703
-0.14493054 -0.7394252 -0.84943527 0.09703462 -0.67606056 0.69851273 1.7226145 -0.90255505
0.7745249 -0.47310102 0.13631439 0.3534542 -0.07865776 0.011468965 -0.41253743 -0.5276089
0.10496986 1.2205691 0.14493287 1.2803813 -0.4844649 -1.0890827 0.862539 1.2940265
-0.98904794 0.5743404 0.34823403 0.09393023 0.16724674 -1.2099726 1.4610769 1.3143078
0.01650512 1.0320474 -1.9161037 -1.0250254 -0.022806281 -1.6125835 0.059052262 -0.9268365
0.42736986 -0.09164023 -1.1279962 -0.43650058 0.6321939 -0.37763345 -0.23539524 0.45130923
0.33076477 0.017914807 0.5351363 0.35554188 -0.585844 -0.6652846 1.542833 0.00075993827
0.46498385 0.1263033 -0.8378415 0.12347206 0.29897407 -0.45694786 -0.64171 0.8119151
0.21048503 0.9516584 -0.8013225 0.6653257 0.14241427 0.36679125 -0.059797887 0.5121379
1.5409979 -1.0747604 0.27655676 -0.04784549 0.7282608 0.24244915 -0.6451554 0.7762004
0.735301 0.49623266 0.19601044 1.2009708 -0.36707655 -0.4572295 -0.9782797 0.12682371
0.4879183 -0.3941168 0.12397214 0.5914642 0.42316684 -1.22073 -0.23034544 -0.4087738
0.28627166 -0.36681008 -1.1781601 0.22359486 -0.37624714 0.007612652 -0.22158985 0.3988712

actor.4.bias f4 [7]
00000000: b710 983f fd98 ab3d 58b3 83be b002 003f
00000010: d676 51be 1e48 2bbf 1c29 c13f
1.1880101 0.083787896 -0.25722766 0.500041 -0.20455489 -0.6690692 1.509067

critic.0.weight f4 [64, 20]
00000000: 40a1 76bf 2ba2 02c0 3614 cb3d e58e 94bf
00000010: 2747 ccbd 58d5 30bf 306d 1fc0 119f 1fc0
00000020: 8baf 77c0 8916 ccbf a974 a0bf e02d 18bf
00000030: 1474 8f3e 7167 b3bf 7562 0a3d d7bb 8fbf
00000040: b40f 1bbe 7fe0 b0bf b65f 87bd 5ae3 b2bd
00000050: dc51 3abf 293e c63d 0da8 393f d2b7 48bf
00000060: 6d05 3a3e ca5d fe3e 7c8e 4a40 7906 ae40
00000070: 8a66 9540 078f e53e 52b6 983e efaa 8abd
00000080: 3328 f4bf 94ce ff3f 2cae 8ebf 2822 a33f
00000090: 5d8e c3be 8b23 0abf 7f29 563c 363e a73e
000000a0: 65b9 c73f faaa d3be ee96 973f b513 c03e
000000b0: cd05 4a3e 9698 93be 0a22 7fc0 9cfa 2dbf
000000c0: 9d5e cbbd 15fa 94be 5e84 843e 3bfd e4bc
000000d0: 80db 04c0 b23a 193f e421 01bf 8cfb 9dbf
000000e0: ac16 ca3d 289f 0bbf 8426 8f3d 32fa 0b3f
000000f0: d46b 8b3f 070c febe 5cc4 d8bd e37b a1be
00000100: 501c a5bd ac33 56bd 0901 9fc0 9882 57c0
00000110: d102 17c0 16cf 2a3e c722 733f f472 863f
00000120: adef f13e 0311 493e 1880 fe3e 8d69 cd3f
00000130: ff80 df3f 4759 96be f002 753d 0766 40be
00000140: 1c53 293e e310 71bf 756c 9abf 8dfa 53bf
00000150: 9c47 a2be 2e57 32bf 0242 4bc0 d080 59be
00000160: d0b2 1040 7573 a9bf 36a7 cfbd 7aa9 19bd
00000170: 68b3 34c0 6bba 47bf 1e7b aa3f 5181 02bf
00000180: 22fd 1abf 0eb0 78be 2f32 b0be 5c03 79be
00000190: 10f8 553e 8b23 abbf f288 a33f be2d 17bf
000001a0: 39fb d03e 321e a7bc fb47 08c0 f296 2c3e
000001b0: 17a0 d33f 4235 2ebf f939 3abf ec41 06bf
000001c0: a292 953f c32a 893f d691 133f cf8e 49be
000001d0: 2474 5dbf f60c 6d3f a545 ce3e c14c fd3d
000001e0: faae 09be 895e 4fbf 2ff6 00c0 59c0 febe
000001f0: 71b8 133f bc66 633f 1ed7 bfbd c988 92bf
00000200: 8a50 b4bf 02f1 a9be e254 493d e5ab dcbd
00000210: f3a3 a0be 2ce7 0dc0 5ad6 6e3d 2e01 1240
00000220: 8c6c 2b40 c743 a53f 0721 82be 4086 023e
00000230: 2908 323f 2fec ecbe 3d36 7cbe 7e49 85bd
00000240: 0644 11be 10e9 23bf dedb 82c0 84af 3cc0
00000250: 185b 08c0 d2ce 52bf c6dd 5bbe fa9a c63d
00000260: 50cb 323f 28bb 7fbf 4b22 ddbf 6d05 193f
00000270: 1f40 1b3f f52b 2cc0 8ae3 303f 5ae7 c53e
00000280: 3224 e13e dc9b 333d c1da 8bbf 2548 6d3f
00000290: 2d7f 673f 8ce1 b23f 9e46 a840 4762 a140
000002a0: 966d 9b40 1cd1 1040 852c e23f 1b74 da3f
000002b0: 1d4c 64bf 2d33 6abf 5afa 3c3f 756d 8a3f
000002c0: 7042 0fbf 092b 6c3e 35d3 303d 698c 443f
000002d0: 3129 403e 0c06 24bf 3601 c13f 2534 ed3e
000002e0: 589f 0ebe af6f 993e 1dfe 9240 2f29 3140
000002f0: 18b4 213f d872 9bbe d98f d5be 333e 0abf
00000300: 237c 943f 755a 03c0 ebce 093f 80c4 8fbf
00000310: 7eb4 10bf 1070 a33f 09d7 5e3e 46bb cd3e
00000320: d3b6 97be 26f3 943b 1fee d3bd c07a 91be
00000330: 923d fabe 66e3 06bf 47d2 30bf dd5c a93f
00000340: d777 b23f 804e 71bf 2723 19bf 65a6 18bf
00000350: 22ca 2d3f 7ece 2740 8a16 e4bf 915e a4bf
00000360: dd76 e7bf 7753 85c0 ef0a 0cbf 13d1 823e
00000370: ecc5 2b40 6a1e 083f 2c73 92bf da36 71bf
00000380: b7d3 88bf 1156 a93e d24b f33f 354a d3be
00000390: cf8d c5bf e2a0 52bf e0bd 60bf 2489 7fbf
000003a0: 7952 d03f da63 f63e f695 b13d 3f2c 3cbf
000003b0: f7dc b9bf 8f7b eebd 24aa 55bd ed89 ddbc
000003c0: 8daa 55bf b2d3 303f 7f7e 463f 3ec5 1abe
000003d0: ebcd 4dbf 1983 96bf 9e51 0cc0 17bd 6ec0
000003e0: e4b9 9ec0 b349 c9bf 67e0 e5bf 1d74 b0bf
000003f0: 36f2 1640 c988 97bb d7ab ccbe ec5e 9b3f
-0.963398 -2.041148 0.09915964 -1.1606108 -0.09974509 -0.69075537 -2.4910393 -2.4940836
-3.8700893 -1.5944377 -1.2535602 -0.59445 0.28018248 -1.4015943 0.033785302 -1.1229199
-0.15142709 -1.3818511 -0.06610052 -0.0873477 -0.7278116 0.09679825 0.7252205 -0.7840549
0.18166132 0.4968093 3.1649466 5.43829 4.668767 0.44835684 0.298266 -0.06770884
-1.9074768 1.9984918 -1.1146903 1.2744799 -0.38194552 -0.53960484 0.013071417 0.3266465
1.5603453 -0.41341382 1.1842935 0.37515035 0.19728775 -0.2882735 -3.9864526 -0.67960525
-0.099301554 -0.29097047 0.25882238 -0.027952781 -2.0758972 0.59855187 -0.5044234 -1.2342391
0.098676056 -0.5453973 0.06989768 0.5467864 1.0892282 -0.4961855 -0.105843276 -0.3153983
-0.08062041 -0.052295372 -4.9688764 -3.3673458 -2.359547 0.1668056 0.9497494 1.0503831
0.4725317 0.19635396 0.49707103 1.6047837 1.7461241 -0.29364988 0.059817255 -0.1878892
0.1653561 -0.9416639 -1.2064348 -0.82804185 -0.3169526 -0.69664276 -3.1759038 -0.21240544
2.2609138 -1.323836 -0.10139315 -0.03751514 -2.82345 -0.78018826 1.3318822 -0.5097857
-0.605425 -0.2428591 -0.34413287 -0.24317688 0.2089541 -1.3370222 1.2776167 -0.5905417
0.40816668 -0.02040014 -2.1293933 0.16854456 1.653323 -0.68050015 -0.7274471 -0.5244434
1.1685374 1.0716175 0.57644403 -0.19683383 -0.8650534 0.925979 0.4028751 0.12368155
-0.13445655 -0.81003624 -2.0150259 -0.49756125 0.5770331 0.88828635 -0.09367202 -1.1447994
-1.4087079 -0.33191687 0.049153216 -0.10774974 -0.31375083 -2.2172346 0.05830989 2.281322
2.6785002 1.2911309 -0.25415823 0.12746525 0.695437 -0.46273944 -0.24630065 -0.06508158
-0.14186105 -0.640275 -4.0893393 -2.9482126 -2.13056 -0.8234683 -0.21471319 0.09697528
0.6984148 -0.9989495 -1.727609 0.59773904 0.60644716 -2.690183 0.690972 0.3865307
0.43972927 0.04384981 -1.0926133 0.9268821 0.9042843 1.3975081 5.2586203 5.0432467
4.857127 2.262763 1.7669836 1.7066683 -0.8917864 -0.9148434 0.73819506 1.0814654
-0.5596075 0.23063292 0.043170173 0.7677675 0.18765713 -0.64071727 1.5078495 0.46328846
-0.13927972 0.2996802 4.5935197 2.7681386 0.63165426 -0.30361056 -0.4171131 -0.5400116
1.1600384 -2.052396 0.53831357 -1.1231842 -0.5652541 1.2768574 0.21761717 0.4018194
-0.2963167 0.004545587 -0.10348152 -0.28413963 -0.488751 -0.5269073 -0.6907086 1.3231465
1.3942822 -0.94260406 -0.59819263 -0.596289 0.67886555 2.6219783 -1.7819378 -1.2841359
-1.8083149 -4.1664386 -0.54704183 0.25550136 2.6839552 0.5317141 -1.1441398 -0.9422432
-1.068961 0.33073476 1.9007514 -0.41267553 -1.5433902 -0.8227674 -0.87789726 -0.99818635
1.6275169 0.48123056 0.08671181 -0.73505014 -1.4520558 -0.11644661 -0.052164212 -0.027043307
-0.83463365 0.6907302 0.7753677 -0.15114304 -0.8039233 -1.1758758 -2.1924815 -3.7302911
-4.9601917 -1.5725616 -1.7959107 -1.3785435 2.3585334 -0.0046244604 -0.39974853 1.2138343

critic.0.bias f4 [64]
00000000: 6b10 05be db22 49bf 7ccf 9a3e bcaf 963f
00000010: 756b 83bf e129 4ebf f2c9 bcbe af19 aebb
00000020: cfc6 b13f 4e9b 6cbd 48b9 2cbf b9ba 1bbf
00000030: be24 97bf 3d4a 7e3e f912 2ebf 7502 15bf
00000040: fae6 a23f 57c7 6b3f 063a 7ebe e442 dabf
00000050: 9a5d 19bf af7e e13f 5d16 9abf 8b19 823e
00000060: 719f 903f 2c19 c23f f321 a9bf a2e5 cf3d
00000070: 17c0 823e 132d 363f 594c 533f 6f75 6a3e
00000080: 4169 0b3f dbc9 253f 4e4b 4b3d 2848 8a3f
00000090: afff 6c3f 196a 3cbf 292f 8f3f 6678 563f
000000a0: 6c44 9d3f 6ede 6d3f 3bbe 8cbe 1f74 bfbc
000000b0: ed74 e7bd a6cb c43f 4494 853f 1533 873f
000000c0: f12f 7fbf aa3c 26bf 4d68 5d3d a814 adbf
000000d0: e467 8cbe f947 bfbe 60d9 bf3c 1b3c ae3f
000000e0: 10ce d7be 9d1b 9bbf b913 31bf f73a 67bf
000000f0: 56f8 3dbf d32b 0c3f 9e6c 553f e145 723f
-0.12994544 -0.7856881 0.30236423 1.177238 -1.0267168 -0.8053265 -0.36872822 -0.0053131203
1.3888797 -0.057765298 -0.67470217 -0.6083179 -1.1808088 0.24833007 -0.679977 -0.58206874
1.2726738 0.92101043 -0.24826822 -1.7051663 -0.5990845 1.7616786 -1.2038075 0.25410113
1.1298658 1.5163932 -1.3213485 0.10151221 0.25537178 0.7116253 0.8253837 0.2289636
0.5445748 0.6476113 0.049632363 1.080327 0.9257764 -0.7359939 1.1186267 0.83777463
1.2286506 0.92917526 -0.27488884 -0.0233708 -0.11301599 1.5374649 1.0435872 1.0562464
-0.9968253 -0.64936316 0.054054547 -1.3521929 -0.27423012 -0.37359598 0.023419082 1.3612093
-0.421494 -1.2117802 -0.6917072 -0.9032435 -0.74207056 0.5475437 0.8336886 0.94637877

critic.2.weight f4 [64, 64]
00000000: caca 863f c2cf 1340 c0ca 01bf f8dc 553f
00000010: 5360 47be f0a7 52bf f70e 023c c18b 663f
00000020: 10c0 0c3f 4683 013f 369c a43e 052a c5bf
00000030: 6397 19bf 7c84 8ebd d9f6 cb3e 6723 35bf
00000040: b111 6e3f 0822 f33f b8d2 313e 2377 6b3f
00000050: f88e 303e 11dc 863e 797d b4be 9e9f b83f
00000060: a3fe 59bf 7001 723e 9fa2 43bf e6f7 723f
00000070: dff2 fcbe 1dca 0dbf 2128 15bf c91b 3c3f
00000080: b8b6 e1be 1012 1fbf 0006 6a3f e3f2 f4be
00000090: 8528 cdbe ba97 9bbf be77 70be 5ec2 3c3f
000000a0: 9d86 acbe 1a23 8cbc 4261 9d3e ebdd 863e
000000b0: dd96 683f 78aa 173f 1b6a 913f 5818 22bf
000000c0: 6608 92be cf30 89bd 86e3 a63e 6ba4 f73e
000000d0: 59c3 b6be 92a3 1b3f a421 723e f14f 83be
000000e0: f7a2 efbb 124e bdbf 58e4 abbc c2e3 18bd
000000f0: 4a9c ed3c 9f8d 863f a170 823f 1580 ba3d
00000100: 7ca2 a83f f97a 5f3f 6499 913e e168 11bf
00000110: 5e48 863f 7012 a23f ec89 24bd 0b9c 873f
00000120: 9a36 29bf d950 283f d0bc a93e 8a70 57be
00000130: 245f 6f3e 0597 19bf f96c df3e 74cf b43f
00000140: 904c 5d3f ea67 35bf 5923 b63e 3ac8 9b3f
00000150: 41c3 1bbf fea1 cdbc f5f1 dcbf 1cd3 1fbf
00000160: 841e c93e 609d 74bc 2bf2 103d abab 78bf
00000170: debf cabf 46d2 87bf ed90 aabe 62c5 ef3e
00000180: a8dc a3be 1abd 80bf 07a6 afbe 5bac f5bf
00000190: c0bc e4bf 872a 6bbe 5bf5 e93d 2808 d43e
000001a0: 86a0 8cbf 95a3 23c0 c859 dbbd 0265 b33b
000001b0: 7662 813f f1d0 b6bf 1154 023e 2903 b4be
000001c0: 924c 073f b43b 49be 9650 6c3f b608 8c3e
000001d0: 4aaa aebf f2ef debc b326 89bf 10da 5ebf
000001e0: 3862 ddbe dcb1 30bf ef88 f53d dc5e 1ebf
000001f0: ae85 693e 9a54 8b3e 965c 04bf 196b b5bf
00000200: 7cbb 8d3f 0fb6 cbbe e18f 86be 91ff 603f
00000210: 18e0 c23f e3e3 88bc 3fe7 a1be 9b41 c83f
00000220: 5f2f dfbe 9879 48bf 7803 5f3f 4d7e e23c
00000230: 38c0 5dbf 0f0c 0c40 522d eabe 6273 84bf
00000240: 254d c83e 5316 d639 733c ec3f 9d3a 833f
00000250: f30e b1bf 3b88 f93e cfb2 063f ff31 aebe
00000260: bfc1 9a3e 5e39 283f 3628 b03e 478f 0b3f
00000270: 6e01 bdbf fa65 823f 1591 443f 4765 58be
00000280: e59f 0f3e 0a57 923e 8c5e 5e3e 9c82 65bf
00000290: b131 45bf 0baa bebe 639f 60bd c134 edbe
000002a0: 14f9 52bf d224 d13e c3d2 cf3f fbf5 553f
000002b0: f482 d4bf 14b1 a03c abe2 9f3f a948 2d3e
000002c0: 78bf 783f 1ff1 69bf d3cf 4cbe c2d9 603e
000002d0: 3bea 6bbf 48e7 9abe b218 0e3f 7e3c 8a3f
000002e0: a197 b6bf 9012 f6be b58a f43d 3031 2d3f
000002f0: 7d95 d83e 9e05 c8bf 89e3 8cbf a00a b5be
00000300: 89c0 bc3e 31cb 86bf c29f 88bf 57b8 493f
00000310: 43c0 e63c e1f7 623f 9306 ddbe ceb4 5a3f
00000320: acb7 f43e e14a cebd d54e f2be 6986 efbe
00000330: cf29 c3be fe64 2e40 7270 313f 2f76 cfbf
00000340: 94b3 ea3d 15fa 353e 51a0 8dbd 84d5 133f
00000350: fd3d 2cbf 2e7f bf3e c659 523f 5e62 603f
00000360: 2518 78be e6e6 0339 ab7e 19bf 8e7a 58bd
00000370: d995 2ebf b47c 003f 44e5 4b3f 1379 5b3f
00000380: f59e 3c3e 1b1b 1f3f e255 743e f910 923f
00000390: 8bf3 18be c357 a23e fd55 083f 558b c33f
000003a0: f442 b53e 1573 233d 1734 b93f c7ce 193a
000003b0: 7074 8bbf 3fcb 143e 3dd3 0a3f e83f 2e3f
000003c0: a7b3 32bf 474b 023e de69 28bf 0b82 9bbf
000003d0: 1b9d 88bf d98b 9d3f a6c8 1d40 a016 1e3f
000003e0: f66f 953f 136f 07bf 59c8 1bbf c0bd 89bd
000003f0: b640 bdbf 024e 2a3f 7a85 88be 02fa dd3e
1.0530636 2.3095555 -0.50699997 0.83540297 -0.19470339 -0.822875 0.007938138 0.90057
0.54980564 0.5059093 0.3215043 -1.5403448 -0.5999662 -0.06958863 0.39836767 -0.70757145
0.92995745 1.899476 0.17365539 0.91978663 0.17242038 0.26339772 -0.35251978 1.4423711
-0.8515417 0.23633361 -0.76420015 0.94909513 -0.49404046 -0.55386525 -0.58264357 0.73479897
-0.44084716 -0.62136936 0.91415405 -0.47841558 -0.40069976 -1.2155678 -0.23483178 0.7373408
-0.33696452 -0.017106581 0.30738264 0.26341185 0.908552 0.5924449 1.1360506 -0.63318396
-0.28522032 -0.066987626 0.32595462 0.48367628 -0.35695913 0.60796463 0.23645645 -0.25646928
-0.007313128 -1.478945 -0.020982906 -0.03732658 0.029005188 1.0511969 1.0190622 0.09106461
1.3174586 0.87297016 0.2843734 -0.5680066 1.0490835 1.2661877 -0.040170595 1.0594496
-0.6609894 0.65748364 0.33151865 -0.21039024 0.23376137 -0.5999606 0.43637827 1.412581
0.8644495 -0.70861685 0.35573843 1.2170479 -0.6084481 -0.025101658 -1.726134 -0.624315
0.39281094 -0.014930099 0.0353872 -0.97136945 -1.5839803 -1.0611045 -0.33313695 0.4683028
-0.32004285 -1.0057709 -0.34306356 -1.9193224 -1.7870102 -0.22965442 0.11423751 0.41412473
-1.0986488 -2.5568593 -0.10710484 0.0054746876 1.0108173 -1.4282514 0.12727381 -0.3515866
0.5285121 -0.19651681 0.92310464 0.27350396 -1.3645718 -0.027214024 -1.0714935 -0.87051487
-0.43238997 -0.6902139 0.11989009 -0.61863494 0.22804901 0.27212983 -0.51703775 -1.4173309
1.1072841 -0.39787337 -0.26281646 0.87889963 1.5224638 -0.016710227 -0.3162174 1.5645021
-0.4359083 -0.7831054 0.8711467 0.027648116 -0.8662143 2.188236 -0.45737702 -1.0347712
0.39121357 0.00040833894 1.8455948 1.0252262 -1.3832687 0.48736748 0.5261659 -0.3402252
0.30225942 0.65712535 0.3440568 0.545155 -1.4766061 1.0187371 0.7678388 -0.21132384
0.14025839 0.2858203 0.21715754 -0.8965242 -0.7702895 -0.37239107 -0.054839503 -0.4632931
-0.82411313 0.40848404 1.6236194 0.8357846 -1.6602464 0.019615687 1.2491049 0.16922249
0.9716716 -0.91383547 -0.20001154 0.21958068 -0.9215428 -0.3025458 0.5550643 1.0799711
-1.4265023 -0.48061037 0.11940519 0.6765318 0.4230155 -1.5626714 -1.1006938 -0.3535967
0.36865643 -1.0530759 -1.0673754 0.78796905 0.02816785 0.88659483 -0.43169078 0.85432136
0.4779638 -0.10072876 -0.4732577 -0.46782234 -0.38117835 2.724914 0.693122 -1.6207942
0.11460033 0.1777118 -0.069153436 0.57747674 -0.67282087 0.37401718 0.82168233 0.87650096
-0.2422796 0.0001257915 -0.59958905 -0.052851252 -0.681974 0.5019028 0.79646707 0.8573162
0.18420012 0.62150735 0.23860887 1.141143 -0.14936654 0.31707582 0.5325621 1.5276896
0.35402644 0.039904673 1.4469022 0.0005867299 -1.0894909 0.14530657 0.54228574 0.68066263
-0.6980538 0.12724029 -0.6578654 -1.2149061 -1.0672945 1.2308303 2.4653716 0.61753273
1.1674793 -0.5290386 -0.6085258 -0.06725645 -1.4785373 0.6652528 -0.26664335 0.43354803

critic.2.bias f4 [64]
00000000: be93 8bbd ef76 91bd f50f 52be 015c a63f
00000010: 601b 1abf 05cd 7d3e 6195 ffbd 9225 39bf
00000020: b544 f5be cdfa 08bf 1a68 9cbf 708a a7be
00000030: 88e4 833e 1533 5f3f dde3 1c3f 4c4a 653f
00000040: 2d19 bfbc f6b4 46bf ffbe 94bd d6b5 bcbe
00000050: d3a3 3f3f 7381 d1bd 7002 8b3e 4c2c c63c
00000060: ccb7 093f fdea b8be ae49 4f3f 22fd 1f3f
00000070: 919a fbbe bd28 9dbf ec12 cb3e 0bfe a3bd
00000080: e7a3 d2bc 1e83 423f dbf7 453f b8a5 d3bd
00000090: 0dd3 e03e d95c 7d3f 1b76 e5be 1cd9 6fbe
000000a0: 10d8 143f 8371 433e 1ce1 53bf bbb2 bebe
000000b0: 55ab 6abe 87c5 39be dfdf 3ebf 1dc4 883e
000000c0: 6626 7ebf 2a0f e33e 7886 63bd 3b9a 13bf
000000d0: 8118 cebe 2d11 26bf d04f 9b3e bef5 133f
000000e0: 9789 48bf 9bd8 8bbe 07f4 59bf 5a67 a1be
000000f0: 05f9 56be decd 2d3e 8e0e 77bd 8fde d43e
-0.06815289 -0.07102763 -0.205139 1.2996827 -0.6019802 0.2478524 -0.12479664 -0.7232295
-0.47903982 -0.5350769 -1.2219269 -0.32722807 0.25760293 0.8718732 0.6128519 0.89566493
-0.023327434 -0.77619874 -0.07262992 -0.3685748 0.7485935 -0.102297686 0.27150297 0.024191044
0.53796077 -0.36116782 0.809718 0.62495625 -0.49141362 -1.2278057 0.39662874 -0.08007439
-0.02571292 0.7598132 0.7733132 -0.10334343 0.4391102 0.989698 -0.4481667 -0.23422664
0.58142185 0.1908627 -0.82765365 -0.37245736 -0.2291692 -0.18141757 -0.7456035 0.26712123
-0.9927734 0.44347507 -0.05554816 -0.5765721 -0.4025307 -0.6486996 0.3033433 0.5779685
-0.78334945 -0.27313694 -0.8513798 -0.31524163 -0.20993431 0.16973063 -0.060316615 0.4157605

critic.4.weight f4 [1, 64]
00000000: 7a7e dd3e dfef d8be 61c2 aebe 7177 923e
00000010: 02d7 e2be af7f b33e e4e4 aebe 8291 0b3f
00000020: c723 c23e 5890 cd3e a84b c3be e9ff d6be
00000030: 6ae3 ec3e 1c2a 8f3e 9e18 963e c125 d6be
00000040: 3b5c 0dbf 652c ba3e 5c11 aabe 019a c43e
00000050: ce46 0bbf 0238 86be ebdc e03e ddc9 ecbe
00000060: c2cc 133f 654c b83e ea7c 843e 3b57 963e
00000070: 1196 dbbe a5de 04bf 5e04 fb3e 52d4 e03e
00000080: 836b a13e f5ab d1be df9a 123f 3ab5 ec3e
00000090: 2eb9 fdbe 17c0 9abe 5a79 203e af6f 5f3e
000000a0: 565c 9c3e f964 04bf ee95 d8be e7fb a83e
000000b0: bbb2 fd3e e2f1 bcbe 1fcd c23e 8522 bebe
000000c0: 4311 dbbe c932 eb3e 0431 493f 099e a9be
000000d0: 91a4 b03e 99c8 c43e 4157 98be 9ed3 ec3e
000000e0: 70ea fcbe 1a7a cfbe 835e c83e 3a60 db3e
000000f0: 37c0 983e c72a 76be b681 bebe 0277 e8be
0.43260556 -0.42370507 -0.34132674 0.28606752 -0.44304663 0.35058352 -0.34159005 0.545189
0.3791792 0.40149188 -0.3814366 -0.4199212 0.46267253 0.27961814 0.29315656 -0.4182568
-0.5521886 0.36361995 -0.3321637 0.38398746 -0.54404914 -0.26214606 0.43918547 -0.4624776
0.5773431 0.35995784 0.25876552 0.29363427 -0.4288793 -0.5190223 0.4902677 0.43911988
0.31527337 -0.40951505 0.57267565 0.46232015 -0.49555343 -0.30224678 0.15671292 0.21819948
0.30539197 -0.5171657 -0.42301887 0.33004686 0.49550423 -0.36903292 0.3804712 -0.3713571
-0.42786607 0.45937183 0.78590417 -0.33128384 0.34500554 0.38434294 -0.2975407 0.462552
-0.49397612 -0.40522844 0.39134607 0.42846853 0.29834148 -0.24039756 -0.37208337 -0.45403296
