Model Results/ppo_sentiment_TSLA2019-12-011999.pth (torch, 50591 bytes, 11 tensors)

actor.0.weight f4 [64, 20]
0	0x3e6944ae	0.22780105
1	0xbe8346b5	-0.25639883
2	0xbf5ecd96	-0.8703245
3	0x3fc8a13e	1.5674207
4	0x3fd8a489	1.6925212
5	0x3f9b75f8	1.2145376
6	0xbf834659	-1.0255843
7	0xbe9ebcc0	-0.3100338
8	0x3e8d22c6	0.27565593
9	0x3e9912cf	0.29897162
10	0x3e9eb6cb	0.30998835
11	0x3f04abb3	0.5182449
12	0xbf6e9fe4	-0.93212724
13	0xbe8aed19	-0.27134016
14	0x3ea2c967	0.31794283
15	0x3f561960	0.8363247
16	0x3f069d3d	0.52583677
17	0x3ebd5e92	0.36986214
18	0xbf8fc64a	-1.1232388
19	0x3e3a8c8c	0.18217677
20	0x3ecf8c76	0.4053685
21	0x3f3d2877	0.7388987
22	0x3f4a3a05	0.7899478
23	0xbe8a3561	-0.2699385
24	0xbea54070	-0.32275724
25	0xbe9ed4cc	-0.31021726
26	0x3eab241b	0.33425984
27	0xbd2575e4	-0.040395632
28	0x3deeb93f	0.11656427
29	0x3ef0f525	0.4706203
30	0x3f029d3a	0.5102116
31	0x3ec62ffe	0.3870849
32	0xbfa29a45	-1.2703329
33	0xbea9ab35	-0.33138433
34	0x3f0b73f1	0.5447379
35	0xbf669077	-0.90064186
36	0x3dd7cae5	0.10536746
37	0x3eeeecce	0.46665043
38	0xbf943bdb	-1.1580766
39	0x3ef7f3e4	0.4842826
40	0xbfb5c4c9	-1.4200679
41	0x3edbda5b	0.4294003
42	0x3d710885	0.058846015
43	0xbe76f74b	-0.24117772
44	0xbe46e020	-0.19421434
45	0x3d789751	0.06069118
46	0x3ed28478	0.4111669
47	0xbf3c956e	-0.7366551
48	0xbfde23a0	-1.7354622
49	0x3e91b589	0.28458813
50	0xbd451cd9	-0.048123214
51	0xbed734a4	-0.4203235
52	0xbea47c54	-0.32126105
53	0x3f89c782	1.076401
54	0xbf177728	-0.59166193
55	0x3dc0b92e	0.0941032
56	0x3f40679f	0.75158113
57	0xbeeafd86	-0.45896548
58	0x3f97e1c1	1.186577
59	0x3e7864e9	0.24257244
60	0xbe90d8d4	-0.28290427
61	0xbdf1498f	-0.11781608
62	0xbf18b126	-0.5964531
63	0xbf79829d	-0.97464925
64	0xbf211ee9	-0.6293779
65	0xbf210551	-0.6289874
66	0x3fa93347	1.3218774
67	0x3f40fe58	0.753881
68	0xbecd426e	-0.40089744
69	0x3e5bebfa	0.21476737
70	0xbe1e53f0	-0.15461707
71	0xbe08630c	-0.13319033
72	0x4003ed20	2.061348
73	0x3f943365	1.1578184
74	0x3eb03c04	0.34420788
75	0x3f8d3aa9	1.1033527
76	0x3fda8bdc	1.7073932
77	0x3f479b92	0.77971756
78	0x3f96acdf	1.1771506
79	0xbdac6da5	-0.084193505
80	0xbf90f890	-1.1325855
81	0xbf0e265d	-0.5552729
82	0xbfa4acb5	-1.2865206
83	0x3f9b5c5f	1.2137564
84	0x3f7cc0aa	0.9873148
85	0x3f700c2e	0.93768585
86	0x3fcd944b	1.606088
87	0x3f0fd7fa	0.5618893
88	0x3f05646e	0.5210637
89	0x3dd69887	0.10478311
90	0x3df52e6e	0.119717464
91	0x3e437d20	0.190907
92	0x4006ac34	2.1042604
93	0x3f16843c	0.58795524
94	0x3e5c3710	0.2150538
95	0xbf32de80	-0.6987076
96	0xbf194a83	-0.5987932
97	0x3e51e0d0	0.20495915
98	0x3f22b242	0.6355325
99	0x3eae769a	0.3407486
100	0xbf5d679e	-0.8648623
101	0x3f14f6f9	0.5818935
102	0x3f0a30b6	0.53980577
103	0xbe070369	-0.13184895
104	0xbe7c349b	-0.24629442
105	0xbf094d7e	-0.5363387
106	0x40345ead	2.8182786
107	0x400e49df	2.2232587
108	0x3fa5edea	1.2963231
109	0x3f026fff	0.5095214
110	0x3e5892c1	0.21149732
111	0xbdf87c0c	-0.12133035
112	0x3f22754c	0.6346023
113	0xbbd0e30e	-0.0063747233
114	0xbed7797c	-0.42084873
115	0xbf3970a9	-0.7243753
116	0x3f27355f	0.6531581
117	0xbeb36857	-0.35040542
118	0xbed947f1	-0.424377
119	0xbe14eaf9	-0.1454276
120	0xbff0f7f7	-1.8825673
121	0xbee1787a	-0.4403723
122	0xbf6b150b	-0.91828984
123	0x3f8e6216	1.1123683
124	0x3f576929	0.84144837
125	0x3f34a4d4	0.7056401
126	0xbf603c72	-0.8759223
127	0xbf07533d	-0.52861387
128	0xbef87632	-0.48527676
129	0x3ee4183e	0.44549745
130	0x3f1d4d80	0.6144638
131	0x3f3cc8a2	0.7374364
132	0xbf2f0f39	-0.683826
133	0xbcb048c0	-0.021519065
134	0x3f38a9c9	0.7213407
135	0x3d7a473f	0.0611031
136	0x3ed7f6ea	0.42180568
137	0x3e633282	0.22187236
138	0xbf91fe10	-1.1405659
139	0x3f1aa3c0	0.6040611
140	0x3f8a8724	1.0822492
141	0x3f2d1682	0.6761247
142	0x3f82fdbc	1.0233684
143	0x3e496378	0.1966685
144	0x3efcc37a	0.49367887
145	0x3ec57608	0.38566613
146	0xbf64b681	-0.8934098
147	0xbee40c10	-0.44540453
148	0xbe70146a	-0.23445287
149	0xbf6a4d0d	-0.9152382
150	0xbf499f6d	-0.7875889
151	0xbf09ed7a	-0.53877985
152	0xbfd036ff	-1.6266783
153	0xbd2dd9ae	-0.042443924
154	0xbf0eaff9	-0.5573726
155	0x3e74d08e	0.23907682
156	0x3f0e114e	0.55495155
157	0xbd51a7a5	-0.05118527
158	0xbfc7f985	-1.5623022
159	0xbf0b3824	-0.5438254
160	0x3e9fff72	0.31249577
161	0xbe37bc0f	-0.17942832
162	0x3eec6ed4	0.46178305
163	0xbc53b799	-0.012922191
164	0x3e59bdfb	0.21263878
165	0x3ef7d29e	0.48402876
166	0xbebce8d6	-0.3689639
167	0x3ec91f4c	0.3928169
168	0x3f76a5c1	0.9634667
169	0xbe24d456	-0.16096625
170	0xbc81d891	-0.015850337
171	0xbeb4639f	-0.35232255
172	0xbf8791e9	-1.0591403
173	0x3eed76ae	0.46379608
174	0xbecea59b	-0.40360722
175	0xbe92110a	-0.28528625
176	0x3eade709	0.33965328
177	0x3fb5ac10	1.4193134
178	0x3ef3a5be	0.4758739
179	0xbec26138	-0.37964797
180	0xc00f61a8	-2.2403355
181	0xbff3ef94	-1.9057488
182	0xbfa3926b	-1.2779058
183	0x3e5b3813	0.2140811
184	0xbed8eea5	-0.4236957
185	0xbe533662	-0.20626214
186	0x3f8773f7	1.0582265
187	0x3ff3b516	1.9039638
188	0x3fee43cb	1.8614439
189	0x3f9bb1bf	1.2163619
190	0x3f2738bb	0.6532094
191	0x3efe0907	0.49616262
192	0xbe40dab8	-0.18833435
193	0x3f165358	0.5872092
194	0x3ef786f5	0.48345152
195	0xbf929327	-1.1451157
196	0xbf2f1ad1	-0.68400294
197	0x3e2adeaf	0.1668651
198	0x4001bb43	2.0270545
199	0x3eae4ad4	0.34041464
200	0x3f54404e	0.8291062
201	0x3f4ece21	0.8078328
202	0x3d529521	0.05141175
203	0xbe6eac5e	-0.2330794
204	0x3eea4ddb	0.45762524
205	0x3e889d06	0.266823
206	0x3df35890	0.11882126
207	0xbed9fe80	-0.4257698
208	0xbeb228b3	-0.34796676
209	0xbe88b678	-0.26701713
210	0xbec73d4e	-0.3891396
211	0xbebd5425	-0.3697826
212	0x3fb96444	1.4483724
213	0x40019333	2.0246093
214	0xbc2670de	-0.010158746
215	0xbe85d40c	-0.2613834
216	0xbf895616	-1.0729396
217	0xbef39f87	-0.47582647
218	0x3f8a5ec2	1.0810168
219	0xbd7bc35a	-0.0614656
220	0xbfd7b14b	-1.685098
221	0x3f508eb4	0.8146775
222	0x3e6feae0	0.23429441
223	0xbdc631c3	-0.0967746
224	0x3cef2dcb	0.02919664
225	0xbd8cdb0b	-0.06877717
226	0xbf5f431e	-0.8721179
227	0xc04ca6af	-3.1976736
228	0xc0723451	-3.7844431
229	0xbe7cf71b	-0.24703638
230	0xbe01b89e	-0.12668082
231	0xbe9af5b4	-0.30265582
232	0xbdb2c2b1	-0.08728541
233	0xbede4980	-0.4341545
234	0x3e2ee5f5	0.17079909
235	0x3f3deea9	0.7419229
236	0xbe256f91	-0.1615584
237	0xbf09d2a6	-0.5383705
238	0xbf72c178	-0.9482646
239	0x3e4afe92	0.19823673
240	0xbfcb6eba	-1.5893166
241	0x3dfae868	0.12251359
242	0x3f90bb77	1.130721
243	0x3d93adb6	0.07210867
244	0xbd591a4c	-0.053003594
245	0x3ee0ac2e	0.43881363
246	0x4076a624	3.8538904
247	0x406b8895	3.6802113
248	0x403da2d7	2.963064
249	0x3eeb4f1b	0.4595879
250	0xbd913964	-0.070910245
251	0xbe7a330f	-0.2443354
252	0x3f831474	1.0240617
253	0x3f0fed60	0.5622158
254	0xbf1af578	-0.60530806
255	0xbfa99f39	-1.3251716

actor.0.bias f4 [64]
0	0x3ec10ce7	0.37705156
1	0x3f0425c8	0.5162015
2	0xbd4f3a59	-0.050592754
3	0xbe256eed	-0.16155596
4	0x3e5d9931	0.21640469
5	0xbd84c2f6	-0.06482498
6	0x3ef163c0	0.47146416
7	0xbeb9d4a0	-0.36295033
8	0xbe0fbb3d	-0.1403627
9	0x3f0ad807	0.5423588
10	0xbdd2a5a3	-0.10285499
11	0x3edac9c5	0.42732063
12	0xbf24b4cb	-0.6433837
13	0x3ef79bb1	0.4836097
14	0xbea43992	-0.32075173
15	0x3ec0bc6e	0.3764376
16	0x3b507093	0.003180538
17	0x3e316eee	0.17327473
18	0xbe710837	-0.2353829
19	0x3dccec23	0.10005977
20	0x3e9d0b7b	0.3067282
21	0xbdb4f844	-0.088364154
22	0xbe0e2668	-0.13881838
23	0x39cdb305	0.00039234027
24	0x3f147857	0.57996124
25	0xbeb2acf7	-0.34897587
26	0x3e61b659	0.22042216
27	0x3e964aef	0.29354045
28	0x3f2afee2	0.6679517
29	0xbbb8cdc2	-0.0056397626
30	0x3e5436e2	0.20724061
31	0xbe7601d8	-0.24024141
32	0xbe4255db	-0.18978064
33	0xbc4b7fe3	-0.012420627
34	0xbf216eb7	-0.6305956
35	0xbec1568f	-0.3776135
36	0x3eb8473c	0.35991848
37	0xbebf6035	-0.37378088
38	0x3e90b00f	0.28259322
39	0xbd1bdddc	-0.03805338
40	0xbe806756	-0.2507884
41	0x3ecede5b	0.4040402
42	0x3f0c855f	0.5489101
43	0xbe0af9fd	-0.13571925
44	0x3eb80f9a	0.35949403
45	0xbeea99b7	-0.458204
46	0x3ee88e82	0.45421225
47	0xbd9bc95b	-0.07606765
48	0xbeb733a2	-0.3578158
49	0x3ef6a077	0.481693
50	0x3eb3fead	0.3515524
51	0x3e82cb77	0.25545856
52	0xbe272c6f	-0.16325544
53	0x3e1d059e	0.15334174
54	0xbc62d502	-0.01384473
55	0x3edeaabd	0.43489638
56	0x3d890630	0.06690633
57	0x3e6124f9	0.2198676
58	0xbbad68a2	-0.005292014
59	0x3f44495a	0.76674426
60	0xbea02080	-0.31274796
61	0x3eb9ea11	0.3631139
62	0xbeacc24c	-0.33741987
63	0xbf20ba9d	-0.6278475

actor.2.weight f4 [64, 64]
0	0x3ed5a90f	0.41730544
1	0xbe253138	-0.16132057
2	0xbf2a8c9e	-0.66620815
3	0x3fa8e2c1	1.31942
4	0x3e880a97	0.2657058
5	0x3e7036f0	0.23458457
6	0xbf87e9f7	-1.0618275
7	0xbed55550	-0.4166665
8	0x3ea95737	0.33074352
9	0xbf02303e	-0.5085486
10	0xbe2fedbf	-0.17180537
11	0xbf9a8d68	-1.2074404
12	0xbfa5f748	-1.2966089
13	0xbe2b7790	-0.16744828
14	0x3e593800	0.21212769
15	0xbd0b130e	-0.03395372
16	0x3fa5f571	1.2965528
17	0x3e693d15	0.22777207
18	0x3ecc0099	0.39844206
19	0x3e714f5e	0.23565432
20	0x3f4a4a20	0.79019356
21	0x3c86efc9	0.01647176
22	0xbf03c7b5	-0.51476604
23	0x3ecbaba0	0.39779377
24	0xbeb0f281	-0.34560016
25	0x3e920e23	0.2852641
26	0x3e90cb2b	0.28280005
27	0xbf21bbf6	-0.6317743
28	0xbf6a352e	-0.91487396
29	0xbeb41530	-0.35172415
30	0xbf175156	-0.59108484
31	0x3f3a2b1d	0.72722036
32	0x3fc7fccc	1.5624022
33	0xbee54f9a	-0.44787294
34	0x3e41013f	0.18848132
35	0xbfea106a	-1.8286259
36	0xbf196e88	-0.5993428
37	0x3d8ba018	0.06817645
38	0x3e7deb8a	0.24796882
39	0xbf6f96c9	-0.93589455
40	0xbf897b8e	-1.0740831
41	0xbdc99200	-0.098423004
42	0xbdf49214	-0.11941925
43	0x3e182cca	0.14860836
44	0x3e854c73	0.2603489
45	0xbfa3beb5	-1.2792574
46	0xbf05b61c	-0.52231
47	0xbcec8473	-0.02887175
48	0xbee8c736	-0.45464486
49	0x3f00153e	0.50032413
50	0x3f31b686	0.69419134
51	0x3f1aeb05	0.6051486
52	0xbe4d4d13	-0.20048933
53	0x3fd5298f	1.6653308
54	0xbf97862e	-1.1837823
55	0x3f41786e	0.75574386
56	0x3e2265c9	0.1585914
57	0x3dcbc2fc	0.099493
58	0x3d9218ba	0.071336225
59	0xbfa142f7	-1.2598561
60	0x3de62a62	0.11238553
61	0x3f2aa726	0.666613
62	0x3f12038b	0.57036656
63	0xbea6c36b	-0.32570967
64	0x3e93ebf7	0.28890964
65	0x3f23e17c	0.64015937
66	0xbea9caff	-0.33162686
67	0xbd046fae	-0.03233307
68	0x3ef4cf19	0.47814253
69	0xbf064a7e	-0.52457416
70	0xbec28e01	-0.37998965
71	0xbfd6b77c	-1.6774745
72	0xbf5126ab	-0.8169963
73	0x3e629174	0.22125798
74	0x3f06e7e2	0.52697575
75	0xbed954c1	-0.42447475
76	0xbf0907be	-0.5352744
77	0x3f19b09c	0.6003511
78	0xbf5905b9	-0.8477436
79	0xbe49a34a	-0.19691196
80	0x3dc79753	0.0974566
81	0xbd657150	-0.056016266
82	0xbf965ec8	-1.1747675
83	0x3f1f9fc4	0.6235316
84	0x3eecd5ef	0.46256968
85	0xbfbd20d7	-1.4775647
86	0xbef31f80	-0.4748497
87	0x3d5cf5ba	0.05394528
88	0xbc410c99	-0.011782789
89	0x3f729c8d	0.9477013
90	0x3f0543e0	0.52056694
91	0x3df6b907	0.1204701
92	0x3e125836	0.14291462
93	0xbdb41682	-0.087933555
94	0xbe934fba	-0.28771764
95	0x3df94728	0.12171775
96	0x3c56ddef	0.0131144365
97	0xbf50d61e	-0.81576717
98	0xbf2ff445	-0.687321
99	0x3e2eaaf2	0.17057398
100	0x3f4292bf	0.76005167
101	0x3e8eb467	0.2787201
102	0xbb97adad	-0.004628858
103	0xbed05519	-0.40689924
104	0x3ed001c5	0.4062635
105	0x3ec25e99	0.37962797
106	0x3f7792d8	0.9670844
107	0x3f80764f	1.0036105
108	0xbef561e3	-0.47926244
109	0xbd3975bd	-0.0452783
110	0x3fb304ac	1.3985801
111	0x3e869c53	0.2629114
112	0xbf75e5ae	-0.9605359
113	0x3f094531	0.536212
114	0x3e215a4e	0.15757105
115	0x3e934496	0.28763264
116	0x3eafc9de	0.343337
117	0xbedcb844	-0.43109334
118	0x3e9e8c8e	0.3096661
119	0x3f3b224f	0.73099226
120	0x3e3222fe	0.17396161
121	0x3f46c3da	0.77642596
122	0xbf9c467b	-1.2209009
123	0x3ebf95ae	0.37418884
124	0xbf6085cf	-0.87704176
125	0xbf305475	-0.6887887
126	0xbf7ef25d	-0.99588567
127	0xbf31ab3c	-0.6940191
128	0xbf3c2f75	-0.73509914
129	0xbeb59b88	-0.35470223
130	0xbf1509fb	-0.58218354
131	0xbf894f1e	-1.072727
132	0xbe785173	-0.2424982
133	0x3f602b40	0.87565994
134	0xbf49263f	-0.78573984
135	0xbefb51fa	-0.4908598
136	0xbf282609	-0.6568304
137	0xbf0b8372	-0.54497445
138	0x3f3c042b	0.7344386
139	0x3f8d9aa4	1.1062818
140	0x3fcc93e5	1.5982634
141	0x3f1ba607	0.6080021
142	0xbe957742	-0.2919255
143	0x3ea30a06	0.31843585
144	0x3e82dad5	0.2555758
145	0x3f6068b8	0.8765979
146	0x3f4bdf81	0.79637915
147	0xbd83ed68	-0.06441766
148	0xbe129771	-0.14315583
149	0x3f0390d5	0.5139287
150	0x3fa7687b	1.307876
151	0x3f8bebf7	1.0931386
152	0xbf664660	-0.89951134
153	0x3ee6ac18	0.45053172
154	0x3dbce86c	0.092240185
155	0x3f2cba4d	0.6747177
156	0x3fceb62b	1.6149343
157	0x3ddd7f90	0.10815346
158	0xbf0a8707	-0.54112285
159	0xbfbb64f3	-1.4640182
160	0xbee54d4c	-0.44785535
161	0x3fd85386	1.6900489
162	0xbf898710	-1.0744343
163	0x3e65b418	0.22431982
164	0x3f1e742a	0.61896
165	0x3fda25c0	1.704277
166	0xbf418c9e	-0.7560519
167	0x3fe45a3a	1.7840035
168	0xbef070a6	-0.46960944
169	0x3eba8503	0.36429605
170	0xbec6c127	-0.3881924
171	0x3f08e175	0.5346902
172	0xbebc31ec	-0.36756837
173	0x3e89aaaf	0.26888034
174	0xbf3614f6	-0.71125734
175	0xba158a2f	-0.000570449
176	0xbef594a6	-0.47964972
177	0xbf59fabb	-0.8514821
178	0xbf010bbd	-0.50408536
179	0xbf2ba411	-0.6704722
180	0x3e945ec2	0.28978544
181	0x3f0ef958	0.5584922
182	0xbecdb553	-0.40177402
183	0xbe8068f4	-0.25080073
184	0xbd6402c0	-0.055666685
185	0xbee687fb	-0.4502562
186	0xbe09e83e	-0.134675
187	0xbcbd24e1	-0.023088874
188	0x3ed67ee9	0.418937
189	0xbf6f23fb	-0.93414277
190	0xbe171e21	-0.14757587
191	0x3e9f4ba4	0.31112397
192	0xbf4f8683	-0.81064624
193	0xbdf4ab40	-0.11946726
194	0xbecf3e67	-0.40477297
195	0x3f51ee3a	0.8200413
196	0xbf6c9792	-0.9241878
197	0x3ea93af1	0.3305278
198	0xbf02a383	-0.5103075
199	0xbdda244c	-0.10651454
200	0xbe64c69a	-0.22341385
201	0x3d7470eb	0.059678
202	0x3f8a1e81	1.0790559
203	0x3e9f0617	0.31059334
204	0x3f2a9ba5	0.66643745
205	0xbdffefba	-0.12496896
206	0xbf2f7b0c	-0.6854713
207	0x3e0c1769	0.13680805
208	0xbe3fe15c	-0.18738312
209	0x3f37d97a	0.7181622
210	0x3e16d9fb	0.1473159
211	0x3f94e16a	1.1631291
212	0xbf202b31	-0.62565905
213	0xbf149516	-0.5803999
214	0x3ea35fee	0.31909126
215	0x3ebd2c22	0.36947733
216	0xbe959ee6	-0.29222792
217	0x3f538b5b	0.82634515
218	0xbdfdf136	-0.12399523
219	0x3e8446ed	0.25835362
220	0x3e840a09	0.25788906
221	0xbe18e538	-0.1493119
222	0xbda40cbb	-0.08010241
223	0xbd175520	-0.036946416
224	0x3b9869ec	0.0046512987
225	0xbd757a9d	-0.059931386
226	0xbebae63a	-0.36503774
227	0x3f16221e	0.5864581
228	0x3e2517c7	0.16122352
229	0x3f337133	0.70094603
230	0xbe7e26a1	-0.24819423
231	0x3eb3a372	0.35085636
232	0xbf461100	-0.7736969
233	0x3f5bc343	0.8584482
234	0xbe4d1fd3	-0.20031671
235	0xbeccd606	-0.40007037
236	0xbeded988	-0.43525338
237	0x3d7be5cc	0.06149845
238	0xbe806b9d	-0.25082102
239	0xbf096997	-0.5367674
240	0xbbf5379c	-0.007483436
241	0xbd735dd4	-0.059415653
242	0xbf8a23de	-1.0792196
243	0xbdd215a0	-0.10258031
244	0xbf29cd76	-0.66329134
245	0xbf042521	-0.51619154
246	0xbd4b10a8	-0.04957643
247	0x3fea9c4e	1.832895
248	0xbf75eeec	-0.9606769
249	0xbfa896aa	-1.3170979
250	0xbf5dc6b9	-0.8663135
251	0x3eb11367	0.34585115
252	0xbe5a6aa4	-0.21329743
253	0x3ec6ed5e	0.38852972
254	0x3dc78344	0.09741834
255	0xbfbb77a9	-1.4645892

actor.2.bias f4 [64]
0	0xbea9ebb4	-0.3318764
1	0x3e7ccfdf	0.24688672
2	0x3ec0dc17	0.37667915
3	0xbebffee5	-0.37499157
4	0x3e960fb0	0.29308844
5	0xbe1f47f1	-0.15554787
6	0xbe9cdb03	-0.30635843
7	0xbf0dd4c4	-0.5540278
8	0xbc93139c	-0.017953686
9	0xbd538087	-0.051636245
10	0xbecedda9	-0.40403488
11	0x3ed8a10d	0.42310372
12	0xbdb6da56	-0.08928363
13	0xbf059eb3	-0.5219528
14	0x3f76e483	0.9644243
15	0xbd4e7233	-0.050401878
16	0x3ed0bff5	0.40771452
17	0xbe10aa7c	-0.14127535
18	0xbe3fa72d	-0.18716116
19	0x3cd018d6	0.025402468
20	0x3d994b41	0.07485057
21	0xba85a2bf	-0.0010195597
22	0xbf15c4c4	-0.58503366
23	0x3e0f08b6	0.13968167
24	0xbdc69944	-0.09697202
25	0x3d6fdc52	0.058559723
26	0x3f3fed4a	0.7497145
27	0x3f0bfca8	0.546824
28	0xbeaf9784	-0.34295285
29	0x3e644a76	0.2229403
30	0xbed87c1b	-0.42282185
31	0xbe87bfdd	-0.26513568
32	0xbf1eec93	-0.62079734
33	0x3e4f332b	0.20234363
34	0x3dbf2a5a	0.0933425
35	0x3ebd1a17	0.36933967
36	0xbeb82fc9	-0.35973957
37	0xbf3f8d2f	-0.74824804
38	0xbebc74e8	-0.36807942
39	0xbe5b7860	-0.21432638
40	0x3f2183e0	0.6309185
41	0xbeaaf094	-0.33386672
42	0xbebf3369	-0.3734391
43	0xbf489994	-0.7835934
44	0x3e239a75	0.1597689
45	0x3d367e73	0.044554185
46	0x3f014007	0.5048832
47	0x3f32c677	0.69834083
48	0xbe107999	-0.14108886
49	0x3e2a9014	0.16656524
50	0xbea01b54	-0.3127085
51	0x3e5873c3	0.2113791
52	0x3f09b0bf	0.5378532
53	0xbe6dbb46	-0.2321597
54	0x3ed78483	0.42093286
55	0xbe67c325	-0.22633035
56	0x3f88893e	1.0666883
57	0xbc223001	-0.00989914
58	0x3ea143b3	0.31496963
59	0xbdba1154	-0.09085336
60	0x3ddbc531	0.10730971
61	0xbd54aef2	-0.051924653
62	0x3f26cebc	0.651592
63	0xbe5aaef8	-0.21355808

actor.4.weight f4 [7, 64]
0	0xc0211c9b	-2.517371
1	0x3fa741fd	1.3067013
2	0x3ff0c21b	1.8809236
3	0x3f703cfd	0.9384306
4	0xc0107953	-2.257405
5	0xbfa7ca9c	-1.3108706
6	0x3f1ec61c	0.6202104
7	0xc02a9088	-2.6650715
8	0x40128a60	2.2896957
9	0x3fcba071	1.5908338
10	0xbef75190	-0.48304415
11	0x4010518e	2.2549777
12	0xbfe3d7d5	-1.7800242
13	0xbfb087f9	-1.3791496
14	0xbfccab6d	-1.5989815
15	0x3f09104c	0.5354049
16	0xbe761cd1	-0.2403443
17	0x402c5dcf	2.6932256
18	0xbf6bebff	-0.92156976
19	0xc00a0316	-2.1564384
20	0xbf6a22f3	-0.9145958
21	0x3e7db6df	0.24776791
22	0xbfb1e35c	-1.389751
23	0xbff9a2c8	-1.9502802
24	0xbff664f9	-1.9249564
25	0xc02191b2	-2.5245175
26	0x4026f6d3	2.608815
27	0x3fc636c5	1.5485464
28	0x3f4b0dc7	0.793179
29	0x3fc881ae	1.5664575
30	0x3fbcf600	1.4762573
31	0xc014b434	-2.3234987
32	0xc02c7f22	-2.6952596
33	0x40083457	2.1281946
34	0xbfdbe82e	-1.7180231
35	0xbe3d5c67	-0.1849228
36	0xc00d1186	-2.2041945
37	0xbf167cda	-0.5878426
38	0x3f26f913	0.6522381
39	0xbfdeb4f1	-1.7398969
40	0x400186bc	2.0238485
41	0xbf57aa0f	-0.84243864
42	0xc0043b81	-2.0661318
43	0xbd173829	-0.036918793
44	0x400078bb	2.0073688
45	0xbf7d619d	-0.9897707
46	0x402a9ecc	2.6659422
47	0x40167b6d	2.3512833
48	0xc00c3e34	-2.1912966
49	0xbfe74d84	-1.8070531
50	0xbfd605ea	-1.6720555
51	0x3f8f114d	1.1177155
52	0x3f19925a	0.5998894
53	0x3fc2fb56	1.5232952
54	0x3f8f4e1c	1.1195712
55	0xbfdb9640	-1.7155228
56	0x3e5a4d53	0.2131856
57	0x40091d21	2.142403
58	0x4007bbc0	2.1208344
59	0x3ff1a644	1.8878865
60	0xbf9f3d99	-1.2440673
61	0x3fd18158	1.6367598
62	0x401c288a	2.4399743
63	0x3d06bd5d	0.032895435
64	0x3f802f08	1.0014353
65	0xbd17da5c	-0.037073478
66	0xbf71cd49	-0.94453865
67	0x3dfdeccf	0.12398683
68	0xbeaf6162	-0.34253985
69	0x3f38832d	0.7207516
70	0xbd997341	-0.07492686
71	0x3f30ee8c	0.69113994
72	0xbe53b9c1	-0.20676328
73	0xbe12270f	-0.14272712
74	0xbd782cb0	-0.060589492
75	0xbf8bde3a	-1.0927193
76	0xbdb3b66a	-0.08775027
77	0x4035d3a1	2.8410418
78	0xbd860f7d	-0.06545923
79	0x4013137a	2.2980638
80	0xbe910214	-0.28321898
81	0x3f130eb5	0.57444316
82	0xc00f29fa	-2.236937
83	0xbe5ccc48	-0.21562302
84	0x3ee4679b	0.44610295
85	0x3ef0e9dc	0.4705342
86	0x400058f5	2.0054295
87	0xbe89b5b2	-0.26896435
88	0x3ea3492a	0.31891757
89	0x3f2b45c9	0.6690336
90	0xbfb0a949	-1.3801662
91	0xbfec0935	-1.844031
92	0x3fa15206	1.2603157
93	0x3f4872f1	0.78300387
94	0x3f69f2e1	0.9138623
95	0xbef7b1f8	-0.48377967
96	0x3f8d2d6c	1.1029487
97	0xbfc15e08	-1.5106821
98	0xbf635aa3	-0.88810176
99	0xbf0eeb17	-0.5582747
100	0x3fb04233	1.3770202
101	0xbe448b08	-0.19193661
102	0xc0307a87	-2.7574785
103	0xbdd8fc6d	-0.105950214
104	0x3eec418c	0.46143758
105	0x3e0e9003	0.13922124
106	0x3f06d933	0.5267517
107	0x3e92b383	0.28652582
108	0xbd88cbbd	-0.06679485
109	0x3e876f7a	0.26452237
110	0x3f170ff0	0.59008694
111	0xbf24eef5	-0.6442712
112	0x3cd8b10b	0.026451608
113	0xbefaf449	-0.490145
114	0x3f30802a	0.6894556
115	0x3e602990	0.21890855
116	0xbe7744af	-0.24147294
117	0x3f9a1d7b	1.2040247
118	0x3cd08672	0.025454734
119	0xbfeb906c	-1.8403449
120	0xbfedaf74	-1.8569169
121	0x3f22fa7f	0.63663477
122	0x3da477c4	0.08030656
123	0xbe82ebb6	-0.25570458
124	0xbf7f08b3	-0.9962265
125	0xbd779daa	-0.060453095
126	0xc008c599	-2.1370604
127	0xbed6a852	-0.41925293
128	0x3fa9ccb9	1.3265601
129	0xbf998f2a	-1.1996815
130	0xbf247a72	-0.64249337
131	0x3e5fa00d	0.21838398
132	0x3f380d66	0.71895444
133	0x3db73767	0.08946114
134	0x3f16a461	0.5884457
135	0xbf8c355f	-1.0953788
136	0xbe3275dd	-0.17427774
137	0x3de5f734	0.11228791
138	0x3f5c48f8	0.8604884
139	0x3eb0c110	0.34522295
140	0xbe304908	-0.17215359
141	0xbecd25df	-0.40067956
142	0x3f4f2e30	0.8092985
143	0xbf71b390	-0.94414616
144	0x3eb08d4e	0.34482807
145	0xbed1f421	-0.41006568
146	0x3e735dd4	0.23766261
147	0xbf29b372	-0.66289437
148	0x3d5aadc3	0.05338837
149	0xbdb4e384	-0.08832458
150	0x3f3acf1f	0.7297229
151	0xbdd47d9e	-0.10375522
152	0x3e86c6ff	0.26323697
153	0xbe1e2b55	-0.15446217
154	0x3fa311ae	1.273977
155	0xbf116dee	-0.56808364
156	0xbee85063	-0.4537383
157	0x3ee6ee98	0.45103908
158	0xbe8dde32	-0.27708584
159	0x3ec1ffdb	0.37890515
160	0x3fc29ea6	1.5204666
161	0xbd3a6f25	-0.045516152
162	0x3fae6362	1.3624079
163	0x3eacb52c	0.33731973
164	0x3f0c3794	0.54772305
165	0x3e8933ac	0.26797235
166	0xbfe72ada	-1.8059952
167	0x3fa4dc50	1.2879734
168	0x3fc5288f	1.5403003
169	0x3bc1d23d	0.005914955
170	0x3f99386e	1.1970346
171	0x3fa392e8	1.2779207
172	0xbf31ee99	-0.69504696
173	0xbf13c65d	-0.57724553
174	0x3f50ff3f	0.81639475
175	0xbf891b58	-1.071147
176	0x3e0ada59	0.13559856
177	0xbe3d8361	-0.18507148
178	0xbf3c2273	-0.73490065
179	0xbec5249a	-0.38504487
180	0xbec23331	-0.3792968
181	0x3fc06ee2	1.5033839
182	0xbd183e31	-0.037168685
183	0x3f781a66	0.9691528
184	0xbec2b1d5	-0.380263
185	0x3f645597	0.891931
186	0xbf942049	-1.1572353
187	0xbd030244	-0.031984583
188	0x3e995d03	0.29953775
189	0xbfa5ffef	-1.296873
190	0x40330a79	2.7975142
191	0x3fb4c344	1.412209
192	0x40290e65	2.6415036
193	0xbd776984	-0.060403362
194	0xbfdacfbc	-1.7094646
195	0xbf0b5140	-0.5442085
196	0x3f80f9a7	1.0076188
197	0x3efc6d92	0.49302346
198	0xbfe436b2	-1.7829192
199	0x3f679e5f	0.9047603
200	0xbf5a1b0e	-0.8519753
201	0xbfcbd70a	-1.5925
202	0xbf955a86	-1.166825
203	0xbfae0f00	-1.3598328
204	0x3fe868e9	1.8157016
205	0xbf1e8dc3	-0.6193506
206	0x3f663ade	0.89933574
207	0xc0116054	-2.2715044
208	0xbf97edcc	-1.1869445
209	0xc0002a6a	-2.0025887
210	0x3fd5648c	1.667131
211	0x3f96b241	1.1773149
212	0x4000a5e3	2.010125
213	0x3f25a776	0.6470865
214	0xbd36a9f8	-0.04459569
215	0x3ff462d4	1.909266
216	0x3fa11c44	1.2586751
217	0x3fb5369c	1.415729
218	0x3f28a28a	0.65873015
219	0xbf42b3d9	-0.76055676
220	0xbfe4abf7	-1.786498
221	0xbfe743b2	-1.8067534
222	0xbfc8dc0a	-1.569215
223	0x3f6a0db2	0.9142715
224	0xbf1fc972	-0.62416756
225	0xbf1f8d4b	-0.6232497
226	0x3fdb100f	1.7114276
227	0x401924b3	2.392865
228	0x3ed11254	0.40834296
229	0xbf9a1009	-1.2036144
230	0x3f740c1d	0.95330983
231	0x3fa82ff0	1.3139629
232	0xbec6fcdd	-0.38864794
233	0xbf96c25f	-1.1778067
234	0xbf62307a	-0.8835522
235	0xbfdc1078	-1.7192526
236	0xbeb0b70d	-0.34514657
237	0x3fbebc6d	1.4901253
238	0xbf842e98	-1.0326719
239	0xbf5ed541	-0.8704415
240	0x3f94462d	1.1583916
241	0x3f88eaec	1.0696692
242	0x3e763bfd	0.24046321
243	0x3e0ef97c	0.13962358
244	0x3fa8fd81	1.3202363
245	0xc016a559	-2.353842
246	0x3ec10e5c	0.37706268
247	0x400bc586	2.1839309
248	0x401ac70b	2.4183986
249	0xbf7ef863	-0.9959776
250	0x3f16ef61	0.58959013
251	0xc043d75c	-3.0600195
252	0x40246db4	2.5691957
253	0xc018bfc8	-2.3867054
254	0x3eb4de9b	0.35326084
255	0xbfa8aeb7	-1.3178319

actor.4.bias f4 [7]
0	0x3f9c101b	1.2192415
1	0xbe7d1d95	-0.24718316
2	0xbe605827	-0.21908627
3	0x3f931e65	1.1493651
4	0x3e95a1f1	0.29225114
5	0x3ecb3ec7	0.39696333
6	0x3f54bb2e	0.83098114

critic.0.weight f4 [64, 20]
0	0xbe12a9ac	-0.14322537
1	0xbf3335a5	-0.7000373
2	0x3f0a8de6	0.5412277
3	0x3f0cdaf8	0.5502162
4	0xbe50792d	-0.20358725
5	0x3de2cd26	0.11074285
6	0x40afb90c	5.4913387
7	0x408e02d6	4.437846
8	0x403563f2	2.8342252
9	0x3f3ec0a0	0.7451267
10	0x3e8f64a2	0.28006464
11	0xbeaf8721	-0.34282783
12	0xbf8bc6bc	-1.0920024
13	0x3fdbfbe7	1.718625
14	0xbf188fa9	-0.5959421
15	0xbf937d5e	-1.1522634
16	0xbd472c66	-0.048626326
17	0x3f8eb349	1.1148463
18	0xbf37566f	-0.7161626
19	0xbe79e69c	-0.24404377
20	0x3fd63e34	1.6737733
21	0xbf7800d1	-0.96876246
22	0xbed280b3	-0.41113815
23	0x3f3ee9f9	0.74575764
24	0xbe85a9b3	-0.26106033
25	0xbe89a2eb	-0.2688211
26	0x40091281	2.1417544
27	0x405a9a34	3.4156618
28	0x40969df0	4.7067795
29	0x3e8cf4e2	0.2753058
30	0x3f062b59	0.52409893
31	0x3e159d21	0.14610721
32	0x3f8d84df	1.1056174
33	0x3d2794f4	0.040913537
34	0x3e38d22b	0.18048923
35	0xbf329840	-0.69763565
36	0xbef500bf	-0.47852132
37	0x3fa72a5d	1.3059803
38	0xbf6d19d4	-0.92617536
39	0xbf3c3d41	-0.73530966
40	0x3f9097a7	1.1296281
41	0xbdc0469d	-0.093884684
42	0xbeb9d529	-0.3629544
43	0xbf8ee149	-1.1162502
44	0xbfae13ec	-1.359983
45	0xbf45bd3e	-0.77241886
46	0xbfc47c19	-1.5350372
47	0xbf2d74d8	-0.67756414
48	0x3de72e16	0.11288087
49	0xbec48b9d	-0.38387766
50	0x3f10d675	0.56577235
51	0x3f507674	0.81430745
52	0x3e94c719	0.2905815
53	0x3ff72bde	1.9310262
54	0x400fb6cf	2.2455328
55	0x3fc6604e	1.549814
56	0x3f30bcd8	0.6903815
57	0x3fedab6a	1.8567936
58	0xc01fb93c	-2.4956808
59	0x3f37bf5e	0.7177638
60	0x3c995335	0.018716434
61	0x3f52dd23	0.8236868
62	0xbf27d10a	-0.65553343
63	0x3e8cfab8	0.27535033
64	0x3d4bac0f	0.049724635
65	0xbe81d71b	-0.25359425
66	0xc096d699	-4.713696
67	0xc0613a53	-3.5191848
68	0xc039979e	-2.899879
69	0xbe9bfb82	-0.30465323
70	0xbe2ac5ca	-0.16677013
71	0x3de9b7d3	0.11412015
72	0xbff00636	-1.8751895
73	0x3e688db6	0.22710308
74	0x3f8e5b05	1.1121527
75	0xbfdc33b1	-1.7203275
76	0x3fbd2d09	1.4779369
77	0x3e95d9e2	0.29267794
78	0xbe22911a	-0.15875664
79	0x3f241108	0.6408849
80	0xbe541d61	-0.20714332
81	0x3f9b1f00	1.2118835
82	0x3fd0366c	1.6266608
83	0xbf718e64	-0.94357896
84	0xc01cac2e	-2.448009
85	0xbfcca5c3	-1.5988086
86	0x40d1ea48	6.559849
87	0x40b13003	5.537111
88	0x408d9b23	4.4251876
89	0x3f3e687a	0.7437817
90	0x3e81a28d	0.2531933
91	0xbe76807c	-0.2407245
92	0x3fcbc977	1.5920857
93	0x3f7a85f0	0.9786062
94	0x3e03f127	0.12884961
95	0xbf43f51a	-0.7654587
96	0xbe2f4e67	-0.17119752
97	0xbef26247	-0.47340605
98	0xbfd1dc4a	-1.6395352
99	0xbde798be	-0.1130843
100	0x3d155c03	0.036464702
101	0xbf3ffeae	-0.74997985
102	0xbd66bc23	-0.056331765
103	0xbf43067d	-0.76181775
104	0xbf27b7cb	-0.6551482
105	0xbf0975d2	-0.53695405
106	0x4019a518	2.4007015
107	0x4084444b	4.1333365
108	0x40a8a2ee	5.269889
109	0x3fd5b0e5	1.6694609
110	0x3f8f76e8	1.1208162
111	0x3f918353	1.1368202
112	0x3f50a2d7	0.81498474
113	0x3f6e15a1	0.93001753
114	0x3f1a22c7	0.60209316
115	0xbf209995	-0.6273435
116	0xbeff5985	-0.49872985
117	0x3fd5f370	1.6714916
118	0xc0200d40	-2.5008087
119	0xbe615dc0	-0.22008419
120	0xbfae005c	-1.359386
121	0xbf739c04	-0.95159936
122	0xbfb5c63e	-1.4201124
123	0x3f23151a	0.63704073
124	0x3ebf65d5	0.3738238
125	0x3f609c7e	0.8773879
126	0xc056b07b	-3.3545215
127	0xc098ef38	-4.7792015
128	0xc0a033c2	-5.006318
129	0xbf31c972	-0.69448006
130	0xbeded61b	-0.43522725
131	0xbea0f71d	-0.31438532
132	0x3f6d364c	0.92660975
133	0x401a2b49	2.408892
134	0x3fe0421c	1.7520175
135	0xbc5ffdc4	-0.013671342
136	0x3feb134a	1.8365262
137	0x40449684	3.0716867
138	0xc00b06f3	-2.1722991
139	0x3de461da	0.11151476
140	0x3f53d733	0.8275024
141	0x3d5366f2	0.05161185
142	0xbf3178bf	-0.6932487
143	0xc0268373	-2.601773
144	0xbf3b1d1d	-0.730913
145	0xbf1d4bba	-0.61443675
146	0xc00c9ca8	-2.1970615
147	0xbee14a5b	-0.4400204
148	0x3f731572	0.949546
149	0x3ed6b2ee	0.41933388
150	0x3f42b2be	0.7605399
151	0x3f0984fb	0.5371854
152	0x3f00fb4c	0.5038345
153	0x3eb9587c	0.3620032
154	0x3ecc1705	0.39861313
155	0xbfb0765c	-1.378612
156	0xbfd542a3	-1.6660961
157	0xbf59f1e6	-0.8513473
158	0xbedc9155	-0.4307963
159	0x3d9ac5dd	0.07557271
160	0xbf5f48cf	-0.8722047
161	0xbddc942c	-0.10770449
162	0x3d7e9349	0.06215218
163	0xbf0267ce	-0.50939643
164	0xbf205e2b	-0.6264369
165	0xbf4532cd	-0.7703064
166	0x40c56bf5	6.1694283
167	0x40713e22	3.7694173
168	0x3f6c63e5	0.92339927
169	0xbe0e7f11	-0.1391566
170	0xbf1fc78b	-0.62413853
171	0xbf911ee1	-1.1337548
172	0x401cc5be	2.4495692
173	0x4015daed	2.3414872
174	0xbfaf91c0	-1.3716354
175	0xbf53ab2a	-0.8268305
176	0xbf194a69	-0.59879166
177	0xbfc6fc78	-1.5545797
178	0x3efc9938	0.49335647
179	0xbf2d3976	-0.67665803
180	0xbf013eda	-0.5048653
181	0x3fb2b540	1.3961563
182	0xbf6cbc60	-0.9247494
183	0xbf3eb4fd	-0.74494916
184	0xbdc97cb5	-0.09838239
185	0x3e617d4a	0.2202045
186	0xc00ab6c3	-2.167405
187	0xc0284ed6	-2.6298118
188	0xc0590af5	-3.3912938
189	0xbee153ef	-0.4400935
190	0xbf0b34c5	-0.54377395
191	0xbf3a8dbf	-0.7287254
192	0x3f50827a	0.8144909
193	0x403ec1ab	2.9805706
194	0x3ed793fc	0.4210509
195	0xbf913b13	-1.1346153
196	0x3e9407ee	0.289123
197	0x3f8d6d8e	1.1049058
198	0xbf546219	-0.82962185
199	0x3e893d6c	0.26804674
200	0x3f636820	0.8883076
201	0x3f54d8e2	0.83143437
202	0x3fae3e48	1.3612757
203	0xbe635fb7	-0.22204481
204	0xbf411bdc	-0.75433135
205	0xbfa5d216	-1.2954738
206	0x3f1a2c5c	0.6022394
207	0x3f2488c9	0.6427122
208	0xbce0cf84	-0.027442701
209	0xbec87d9b	-0.3915833
210	0xbf4d2491	-0.8013392
211	0xbf7ad1ae	-0.97976196
212	0xbe21daf2	-0.15806177
213	0x3f3e4499	0.7432342
214	0xbf07ee9c	-0.53098464
215	0xbfc8220c	-1.563539
216	0xbe6933ce	-0.22773668
217	0x3fba87f5	1.4572741
218	0xbe88f3a6	-0.2674839
219	0xbf2c0d9b	-0.6720826
220	0xbf8cdda5	-1.100514
221	0x3dde7c0a	0.10863502
222	0x3f0cb525	0.54963905
223	0xbe88ba28	-0.26704526
224	0xbefacb3f	-0.4898319
225	0x3f47378a	0.7781912
226	0xc07c54ac	-3.942668
227	0xc05b2a9c	-3.4244757
228	0xc02e0ac7	-2.7194078
229	0xbe9dae9c	-0.3079728
230	0xbdebc12a	-0.115114525
231	0xbc960ade	-0.018315729
232	0xbea22e3b	-0.31675896
233	0x3f5caf47	0.8620495
234	0x3ee24904	0.44196332
235	0x3f580491	0.8438197
236	0xbfa46aca	-1.284509
237	0x3f1104bb	0.56647843
238	0x3f96b764	1.1774716
239	0x3e5b29d5	0.21402676
240	0x3fc1ff8b	1.515611
241	0xbd3f5b96	-0.046718203
242	0xbf40f0f0	-0.7536764
243	0xbd598daf	-0.053113636
244	0x3e9ed8a6	0.31024665
245	0x3ce59454	0.02802483
246	0xbec46580	-0.38358688
247	0x3f7d1b77	0.98870033
248	0x3f9a7f28	1.2070055
249	0xbecf3e80	-0.4047737
250	0xbf6311a8	-0.88698816
251	0xbf4cf3a5	-0.8005927
252	0x3eca3106	0.39490527
253	0x3c755289	0.014973291
254	0xbfb9581b	-1.4480013
255	0x3f208b6b	0.62712735

critic.0.bias f4 [64]
0	0xbe7b24e1	-0.24525787
1	0xbeb06c6e	-0.34457725
2	0x3f643731	0.89146715
3	0x3f0098e0	0.5023327
4	0x3e43497b	0.19071
5	0xbe90894d	-0.28229752
6	0x3cd8b598	0.026453778
7	0x3ee19de0	0.44065762
8	0xbf208727	-0.62706226
9	0xbde04b1a	-0.109518245
10	0xbf1be652	-0.60898316
11	0xbde88c3e	-0.11354874
12	0xbfa30a84	-1.2737584
13	0xbfc29655	-1.5202128
14	0x3e2cbd04	0.16868979
15	0xbe439e3a	-0.19103327
16	0x3e1274c5	0.14302357
17	0x3e542825	0.20718439
18	0xbfa0e28f	-1.256914
19	0xbde7bb84	-0.11315063
20	0x3f1e30d2	0.61793244
21	0xbf589db5	-0.8461564
22	0xbeeb4ade	-0.45955557
23	0xbebafb75	-0.3651997
24	0xbe21ec07	-0.15812694
25	0xbf2d65e4	-0.677336
26	0x3eb4cae9	0.35311058
27	0xbe72fce7	-0.23729287
28	0x3f4031b8	0.75075865
29	0xbf2f6b17	-0.6852278
30	0x3e70e655	0.23525365
31	0x3e803482	0.2504006
32	0xbebf0ed2	-0.37315995
33	0xbfb0364a	-1.3766568
34	0x3dbb5256	0.09146564
35	0x3ec53d27	0.38523218
36	0xbf7b4881	-0.9815751
37	0xbef4cb9d	-0.47811595
38	0xbdb3a66f	-0.08771979
39	0xbf8eb22a	-1.1148121
40	0xbf2a2efe	-0.66477954
41	0xbf374790	-0.7159357
42	0x3f0143af	0.504939
43	0xbf1bcb0f	-0.6085672
44	0xbfb32eeb	-1.3998693
45	0x3ecb733f	0.39736363
46	0xbf9b4507	-1.213044
47	0x3e773202	0.2414017
48	0x3d2c2a89	0.042032752
49	0x3f0f4ce9	0.5597673
50	0xbebabca8	-0.36472058
51	0x3f687ff3	0.90820235
52	0xbf622924	-0.88344026
53	0xbebb7612	-0.36613518
54	0x3e0787f1	0.13235451
55	0x3f646f71	0.89232546
56	0x3e0bf245	0.13666637
57	0x3e51d039	0.20489587
58	0xbebed32d	-0.3727049
59	0x3ed85e61	0.42259505
60	0x3eb52834	0.35382235
61	0x3e334c3f	0.17509554
62	0xbee91e49	-0.45530918
63	0x3f467a32	0.77530205

critic.2.weight f4 [64, 64]
0	0x3ee07d26	0.4384548
1	0x3e8d2545	0.27567497
2	0xbf0f0932	-0.55873406
3	0x3fb11b56	1.3836467
4	0x3fabb193	1.3413566
5	0xbf4507dd	-0.76965123
6	0x3fbb9be3	1.4656948
7	0x3eb68fd7	0.35656616
8	0x3e75c95e	0.24002597
9	0xbea738d4	-0.32660544
10	0x3f0d2d54	0.5514729
11	0xbeaa9466	-0.33316344
12	0xbf3280ef	-0.6972799
13	0x3fb67f5d	1.4257618
14	0x3f6942b1	0.9111739
15	0xbef812b7	-0.48451778
16	0x3eac640d	0.33670083
17	0xbcddabc7	-0.027059449
18	0x3fbd471c	1.4787326
19	0xbfa5efe3	-1.2963833
20	0x3f5e4715	0.8682721
21	0xbf1f5eb8	-0.62253904
22	0x3e253521	0.16133548
23	0xbfc82d19	-1.5638763
24	0x3eeadd58	0.45871997
25	0xbf82b7ae	-1.0212305
26	0x3f8ce44f	1.1007174
27	0xbea112cc	-0.31459653
28	0xbeba1334	-0.36342776
29	0xbe5e8535	-0.21730502
30	0xbd9e5d5e	-0.07732652
31	0x3e546728	0.20742476
32	0xbf4039e9	-0.75088364
33	0xbec49dba	-0.38401586
34	0x3eae7f47	0.3408148
35	0xbf200507	-0.6250767
36	0xbf5f839e	-0.87310207
37	0x3f3b19cb	0.7308623
38	0x3f300eaa	0.68772376
39	0xbfb37ef0	-1.4023113
40	0xbef744b6	-0.4829461
41	0x3f84e9a8	1.0383806
42	0xbeac3f58	-0.33642077
43	0x3f98b089	1.1928874
44	0x3f37beb6	0.71775377
45	0x3f2a4fb5	0.66527873
46	0x3ea298b7	0.31757137
47	0xbf159056	-0.58423364
48	0x3f56d857	0.8392386
49	0x3f032a14	0.5123608
50	0xbd768009	-0.060180698
51	0xbec1c80e	-0.37847942
52	0x3f48574c	0.78258204
53	0x3e34d3b7	0.17658888
54	0x3f8eb520	1.1149025
55	0xbfd2cc25	-1.646855
56	0xbeae2cd1	-0.34018567
57	0x3f8932b1	1.0718595
58	0x3fd77bde	1.6834676
59	0xbe5c3098	-0.21502912
60	0xbfa0512c	-1.2524772
61	0xbe4b6ed8	-0.19866502
62	0x3f59216e	0.84816635
63	0xbf0beb82	-0.5465623
64	0xbdfcf326	-0.123510644
65	0xbd6ccf31	-0.05781478
66	0xbe82b228	-0.25526547
67	0x3f961b81	1.1727144
68	0x3f505495	0.8137906
69	0x3f102978	0.56313276
70	0x3f3aca70	0.72965145
71	0xbe096b10	-0.13419747
72	0xbe8fe88a	-0.281071
73	0x3e29c249	0.1657802
74	0xbf8f5d8a	-1.1200421
75	0x3e66b644	0.22530466
76	0xbf241b5e	-0.6410426
77	0x3ec8877a	0.3916586
78	0x3e3e94bd	0.18611427
79	0xbe78a9ff	-0.24283598
80	0xbf7e2504	-0.9927523
81	0x3e645fc9	0.22302164
82	0xbf7bbd7d	-0.9833601
83	0xbf128241	-0.5723
84	0x3f33c8e8	0.70228434
85	0x3f8531ca	1.040582
86	0xbeadf537	-0.33976147
87	0xbf2d89b9	-0.67788273
88	0xbf089c5e	-0.533636
89	0xbee8aed6	-0.4544589
90	0xbea4378c	-0.3207363
91	0x3ec699e1	0.38789275
92	0xbf2a8673	-0.66611403
93	0x3fa914f4	1.3209519
94	0x3f203b5b	0.6259057
95	0x3f599fa7	0.85009235
96	0xbf08b261	-0.53397185
97	0xbe93c9a5	-0.2886478
98	0x3ed06b14	0.40706694
99	0x3fada591	1.3566152
100	0xbea29d1d	-0.31760493
101	0x3f58437f	0.8447799
102	0xbd612736	-0.054969035
103	0xbd2e9e7d	-0.042631615
104	0x3ef53427	0.47891352
105	0xc00dda92	-2.2164655
106	0xbeea7074	-0.4578892
107	0x3ecb8a7f	0.39754102
108	0x3fb7e8ca	1.4367917
109	0xbef47613	-0.47746333
110	0xbf8deb54	-1.1087441
111	0xbe922a99	-0.28548124
112	0x3ef496a4	0.4777118
113	0x3f863fd9	1.0488235
114	0xbfe1e1f5	-1.7647082
115	0x3e27621c	0.1634602
116	0xbfcd8fff	-1.6059569
117	0xbf35fa5d	-0.7108515
118	0xbfd40513	-1.6564049
119	0x3fb3b656	1.404002
120	0x3ed5a7a4	0.41729462
121	0xbf312ac7	-0.692059
122	0x3f500389	0.81255394
123	0x3d4a2554	0.049352005
124	0xbcd10638	-0.02551566
125	0x3eec46d4	0.46147788
126	0x3e9d9be8	0.3078301
127	0x3f053e08	0.5204778
128	0x3f48f79c	0.7850282
129	0xbe3c1ea7	-0.18371068
130	0x3ea99db6	0.33128136
131	0xbde265f6	-0.11054604
132	0xbdd1e16a	-0.102480724
133	0xbed1ed16	-0.41001195
134	0xbd583ac2	-0.05279041
135	0xbe502743	-0.20327477
136	0x3ec0c4fb	0.37650284
137	0xbfeb00ed	-1.8359658
138	0x3e95e024	0.29272568
139	0x3ece32f8	0.4027326
140	0xbe90142b	-0.28140387
141	0x3e6a31c7	0.22870551
142	0xbd1b6eeb	-0.037947576
143	0xbf36e76e	-0.71446884
144	0x3f3ba9e6	0.7330612
145	0xbeb793c0	-0.35854912
146	0x3e2c6df4	0.16838819
147	0x3dce1f39	0.10064549
148	0x3f743342	0.95390713
149	0x3f991065	1.1958128
150	0x3f0197e6	0.50622404
151	0xbf06f82d	-0.52722436
152	0x3f69cd72	0.9132911
153	0x3ff0c44a	1.8809903
154	0xbf97b24e	-1.1851289
155	0x3e2b72ec	0.16743058
156	0x3e1667f9	0.146881
157	0x3fd2b020	1.6459999
158	0x3ed7a097	0.42114708
159	0xbf9cb03f	-1.2241286
160	0x3e986e10	0.2977147
161	0x3f1483ff	0.5801391
162	0xbf13231c	-0.5747545
163	0xbf850c87	-1.0394448
164	0xbe7b858d	-0.24562664
165	0xbf7018d2	-0.9378787
166	0xbf932aaf	-1.1497401
167	0x3e831f73	0.2560993
168	0xbe035990	-0.12827134
169	0xbfc39ff8	-1.5283194
170	0x3ee83b0b	0.45357546
171	0xbf8d2c1b	-1.1029085
172	0xbf4bf562	-0.796713
173	0x3eee9ad0	0.46602488
174	0x3e84ade1	0.2591391
175	0x3ff561f9	1.9170524
176	0xbf8f867e	-1.1212919
177	0xbf5ab9e9	-0.85439926
178	0xbf76cd19	-0.96406704
179	0xbf1bf7ed	-0.6092518
180	0x3f2c7e79	0.6738048
181	0xbf11f826	-0.5701927
182	0x3fbd1ff1	1.4775373
183	0x3f08097c	0.5313947
184	0xbda2c157	-0.07947033
185	0x3f866ea5	1.0502516
186	0x3f9ae0c2	1.2099841
187	0x3bcd7c19	0.006270897
188	0xbf14bcc3	-0.5810053
189	0xbde2ae7f	-0.11068439
190	0xbec41ad1	-0.3830171
191	0xbf0b1b4a	-0.54338515
192	0xbf5d1d4f	-0.86372846
193	0xbeca1f3c	-0.39476955
194	0x3fcada6f	1.5847911
195	0x3fcf3e30	1.6190853
196	0x3fedd6a4	1.8581128
197	0x3fd3d16a	1.6548283
198	0xbf2a2851	-0.6646777
199	0xbe832388	-0.25613046
200	0x3f00903a	0.5022007
201	0x3f266f6b	0.6501376
202	0x3e37c9a5	0.17948015
203	0x3f7aa1f3	0.97903365
204	0xbcb9b4f5	-0.022669295
205	0xbe14b686	-0.14522752
206	0x3fdb3c61	1.7127801
207	0x3e6e6e93	0.23284368
208	0xbf29164e	-0.6604966
209	0x3e310b12	0.17289379
210	0xbfdf6c65	-1.7454954
211	0xbfe84c27	-1.814824
212	0xbeac58bf	-0.33661458
213	0xbf898045	-1.074227
214	0xbf590877	-0.8477854
215	0x3e5c7c12	0.21531704
216	0x3cb700bb	0.022339216
217	0xbf590eea	-0.8478838
218	0xbef56195	-0.47926012
219	0x3e3ee6c8	0.18642724
220	0x3f02a3d0	0.5103121
221	0xbeefe27f	-0.4685249
222	0x3f3ce620	0.7378864
223	0xbedbec86	-0.4295389
224	0xbcff50fd	-0.031166548
225	0x3f44b7ab	0.76842755
226	0x3fb67a03	1.4255985
227	0xbf7cae02	-0.98703015
228	0x3dfb565d	0.12272332
229	0x3dbcf769	0.09226877
230	0x3f45117b	0.769798
231	0xbf0e9ce1	-0.5570813
232	0x3f4629b7	0.774074
233	0x3e4e13f4	0.20124799
234	0xbebe9501	-0.37223056
235	0x3e8207c6	0.25396556
236	0xbf91f3c3	-1.1402515
237	0xbe15b54b	-0.14619939
238	0xbea60bc6	-0.32430857
239	0x3f6dd959	0.9290977
240	0x3f5046c6	0.8135799
241	0x3e0b3bfd	0.13597102
242	0xbe4dddf0	-0.20104194
243	0xbf107353	-0.5642597
244	0xbf5bb495	-0.8582242
245	0x3e8ee9da	0.2791279
246	0xbfac0089	-1.3437663
247	0x3ed56091	0.41675237
248	0xbeff91b4	-0.4991585
249	0xbee9e194	-0.45679915
250	0xbe2f0e07	-0.17095195
251	0x3faea547	1.3644189
252	0xbf3dff59	-0.74217755
253	0x3f0811df	0.5315227
254	0xbeeb4658	-0.45952106
255	0xbfad858a	-1.3556378

critic.2.bias f4 [64]
0	0x3e9788f6	0.2959668
1	0xbed33e52	-0.41258484
2	0x3d88ac1d	0.06673453
3	0xbe80ae65	-0.25133052
4	0xbf79fe7c	-0.9765394
5	0xbf93544d	-1.1510102
6	0xbe011d13	-0.12608747
7	0x3e9946c7	0.2993681
8	0x3f1242fa	0.5713345
9	0x3d84bdc7	0.0648151
10	0x3cbcdf19	0.0230556
11	0x3e739c34	0.23790056
12	0xbf4fd62c	-0.81186175
13	0xbdc54107	-0.096315436
14	0xbf8127f4	-1.0090318
15	0x3c8c2960	0.017109573
16	0xbf8f2af1	-1.118498
17	0x3e8e527c	0.27797306
18	0x3f4cab48	0.79948854
19	0xbe9237d9	-0.28558233
20	0x3f1d67cd	0.6148651
21	0xbe300990	-0.17191148
22	0xbe92814e	-0.28614277
23	0x3f2a4b63	0.6652128
24	0xbf850ffa	-1.0395501
25	0xbe8dceab	-0.27696738
26	0xbf10af39	-0.5651737
27	0x3fa83a8d	1.3142868
28	0xbe94a8b6	-0.29034966
29	0x3e6d360e	0.23165151
30	0xbf1177b1	-0.5682326
31	0x3eba7e91	0.36424688
32	0x3e83688c	0.256657
33	0x3e6765fa	0.22597495
34	0xbf8e664b	-1.1124967
35	0xbe92f9a3	-0.28706083
36	0x3f2ddc4c	0.6791427
37	0x3e24c82a	0.16091982
38	0xbd0b6f71	-0.034041826
39	0x3cbeb3c6	0.023279082
40	0xbd3c829b	-0.046022993
41	0x3eb8ba9d	0.36079875
42	0x3e1a6885	0.15078934
43	0xbf961a49	-1.1726772
44	0x3d7c7883	0.061638366
45	0x3b0b61c3	0.0021267987
46	0x3f89529b	1.0728334
47	0xbf2c14ed	-0.6721943
48	0xbeb281c6	-0.34864634
49	0x3bdb2ca8	0.006688673
50	0x3da4aa2c	0.0804027
51	0xbf1c636f	-0.61089224
52	0x3f263980	0.6493149
53	0x3edb994e	0.428904
54	0xbe0ade5f	-0.1356139
55	0x3f2aff40	0.6679573
56	0xba507a8d	-0.0007952832
57	0xbe9fdf16	-0.3122489
58	0x3c9b85c4	0.018984683
59	0x3ee4621f	0.4460611
60	0x3e3f17d4	0.18661433
61	0x3f889fed	1.0673805
62	0xb9f1e9e0	-0.00046141353
63	0x3ec1c306	0.37844104

critic.4.weight f4 [1, 64]
0	0xbeefebc9	-0.46859577
1	0x3ef10f78	0.47082114
2	0xbeb47027	-0.35241815
3	0xbeab6397	-0.3347442
4	0xbe9251e5	-0.28578106
5	0xbe9c91d6	-0.30580014
6	0x3ecf3a55	0.4047419
7	0xbea0297f	-0.3128166
8	0xbf0ef168	-0.55837107
9	0xbf049d9f	-0.5180301
10	0x3effccd2	0.49960953
11	0xbef086d8	-0.46977878
12	0xbeb3bb49	-0.35103825
13	0xbeb44ad6	-0.35213345
14	0xbf087f04	-0.5331881
15	0x3ea51de9	0.32249382
16	0x3f264bc1	0.6495934
17	0x3e7e02b9	0.24805726
18	0x3ebf6b34	0.37386477
19	0x3eb1c6ca	0.34721977
20	0x3e8c562c	0.27409494
21	0x3edf8541	0.43656352
22	0xbed24409	-0.41067532
23	0xbf046e00	-0.51730347
24	0xbed8606d	-0.42261067
25	0xbe9edb73	-0.310268
26	0x3ec6cb6f	0.38827083
27	0xbe3e8fca	-0.18609539
28	0x3efd4d98	0.49473262
29	0x3e85a313	0.26100978
30	0x3eb0dce9	0.3454354
31	0xbedc1ee0	-0.42992306
32	0xbebacc5b	-0.36484036
33	0x3e8e2920	0.2776575
34	0xbea01156	-0.31263226
35	0xbeb8b7f3	-0.36077842
36	0x3ea49801	0.3214722
37	0xbf0398bc	-0.5140493
38	0xbe8c53bc	-0.27407634
39	0xbe740b13	-0.2383235
40	0x3e5d1c47	0.21592818
41	0x3f0718ea	0.5277239
42	0x3e9165d6	0.28398007
43	0xbeded87a	-0.43524534
44	0xbecaf544	-0.39640248
45	0xbeddb5c2	-0.43302733
46	0x3ebab842	0.36468703
47	0x3ecfd775	0.40594068
48	0x3e8f5ef2	0.28002125
49	0x3ea6612e	0.32496017
50	0xbeaddfd0	-0.33959818
51	0xbeeef069	-0.46667793
52	0x3eb896ac	0.36052454
53	0xbec406e2	-0.382865
54	0xbef3cb2d	-0.47615948
55	0x3e95c341	0.2925053
56	0x3ec660e8	0.3874581
57	0x3ec761d1	0.38941815
58	0xbec51414	-0.3849188
59	0x3ecf2227	0.40455744
60	0xbedd76b5	-0.4325463
61	0x3e885069	0.26623848
62	0xbe923de2	-0.28562838
63	0xbea96adc	-0.3308934
