Model Results/ppo_sentiment_MSFT2020-09-011999.pth (torch, 50591 bytes, 11 tensors)

actor.0.weight f4 [64, 20]
0	0x3f78d164	0.97194505
1	0x3d945e04	0.072444946
2	0xbedc0b20	-0.42977238
3	0x3e23fe80	0.16015053
4	0xbd696711	-0.056983057
5	0x3da7d255	0.081944145
6	0x3f9920f8	1.1963186
7	0x3fa3270e	1.2746294
8	0x400ca909	2.197817
9	0xbeb2b5b5	-0.34904256
10	0xbeda7c22	-0.4267283
11	0xbdf2efc1	-0.11862136
12	0xbe50b5d3	-0.2038186
13	0xc027a0a4	-2.6191797
14	0xbf16e0a3	-0.5893652
15	0x3fbf93cd	1.496698
16	0x3f9c25b3	1.2199005
17	0xbdb49a49	-0.0881849
18	0xbf01be5b	-0.50681084
19	0xbeb7d1ab	-0.3590215
20	0x3a15a001	0.00057077414
21	0x3f4e52b6	0.80594957
22	0x3f9bc274	1.2168717
23	0x3d0b6b6d	0.034037996
24	0xbf021dc2	-0.50826657
25	0xbf13f900	-0.5780182
26	0x404058a0	3.0054092
27	0x40008b21	2.0084918
28	0x3f97cb38	1.1858892
29	0x3f597509	0.84944206
30	0x3eb65560	0.3561201
31	0x3f2f490d	0.6847084
32	0x3faad9ad	1.3347679
33	0x3fa3d225	1.2798506
34	0x3eef17d4	0.46697867
35	0x3edd8324	0.43264115
36	0x3f3e8e97	0.74436325
37	0x3fa5c6f7	1.2951344
38	0x3f4af3d8	0.79278326
39	0x3dc725c9	0.09724004
40	0x3f0fa8a6	0.5611671
41	0xbf774b35	-0.9659913
42	0xbfbb7055	-1.4643656
43	0x3f048918	0.5177169
44	0x3f236a90	0.63834476
45	0x3f6f04b8	0.93366575
46	0xbf2a4308	-0.6650853
47	0x3f27061d	0.65243703
48	0x3ff95212	1.9478171
49	0xbd5b5c69	-0.053554926
50	0x3e662278	0.22474086
51	0x3e5b3806	0.2140809
52	0xbef99763	-0.4874831
53	0xc008a815	-2.135259
54	0xbeb712b0	-0.35756445
55	0x3fa8d61e	1.3190343
56	0x3f1c2d2e	0.6100644
57	0x3f55ca38	0.83511686
58	0x3ccd51ab	0.025063356
59	0xbd122a71	-0.035685007
60	0x3f640a48	0.8907819
61	0xbcb637eb	-0.02224346
62	0x3c77aeac	0.015117329
63	0xbed94ef4	-0.4244305
64	0xbdd02c4b	-0.10164698
65	0xbebc4e54	-0.3677851
66	0x409f3941	4.975739
67	0x4095abf5	4.677241
68	0x4085a116	4.175914
69	0x3f0e4cb9	0.5558582
70	0x3eaf6df3	0.34263572
71	0x3ea52a6d	0.3225893
72	0x3f0062bb	0.5015065
73	0x3f217129	0.63063294
74	0xbe1ff4b6	-0.15620694
75	0xbf0fca8e	-0.5616845
76	0x3f205770	0.6263342
77	0x3fb4bb07	1.4119576
78	0xbe223331	-0.1583984
79	0xbf4930c5	-0.7859004
80	0x3f55dc6b	0.83539456
81	0xbf414a11	-0.7550364
82	0x3e51e6d8	0.20498216
83	0x3dd309f3	0.10304632
84	0x3e31b3c8	0.17353737
85	0xbe012228	-0.12610686
86	0xc0d5a5cd	-6.6764894
87	0xc0cedd84	-6.4645405
88	0xc0ccc7e1	-6.3993993
89	0xbf2dff7d	-0.6796797
90	0xbea11094	-0.3145796
91	0xbd91adb5	-0.0711321
92	0xbf5edef0	-0.87058926
93	0xbdb74cea	-0.08950217
94	0x3ee630e4	0.44959176
95	0x3f0847af	0.5323438
96	0xbf05365c	-0.5203607
97	0x3dd793cc	0.10526237
98	0x3db25805	0.08708195
99	0xbe15ff8e	-0.14648268
100	0x3e94b077	0.29040882
101	0x3f893303	1.0718693
102	0x3f8aea52	1.0852759
103	0xbfcb87eb	-1.5900854
104	0xbfe19497	-1.7623471
105	0xbfb53077	-1.4155415
106	0x4066d15b	3.606528
107	0x4083608e	4.1055365
108	0x405748cf	3.363819
109	0x3f105522	0.563799
110	0x3e784c2b	0.24247806
111	0x3e414bd8	0.18876588
112	0x3e3ff472	0.18745592
113	0xbf8df238	-1.1089544
114	0xbe180acc	-0.14847869
115	0x3ea045ee	0.31303352
116	0xbe189c38	-0.14903343
117	0xbceb9acf	-0.028760342
118	0x3f325d7d	0.696739
119	0xbec5be40	-0.38621712
120	0x3e8e1d87	0.27756903
121	0x3e7b5aad	0.24546309
122	0x3d7adc25	0.061245102
123	0x3f26371a	0.6492783
124	0x3eeb231e	0.4592523
125	0xbd23e44d	-0.040012646
126	0xbf99014a	-1.1953518
127	0xc05d7ddb	-3.4608066
128	0xc089f127	-4.3106875
129	0xbf3045b8	-0.6885638
130	0xbef04361	-0.46926406
131	0xbf125a04	-0.571686
132	0x3f79a3ed	0.97515756
133	0xbf1a3232	-0.6023284
134	0xbe87ef1c	-0.26549613
135	0xbef63550	-0.4808755
136	0xbe194e6f	-0.14971326
137	0xbf82a10e	-1.02054
138	0xbe77e3da	-0.24208012
139	0x3d8ff7e4	0.07029703
140	0x3f88679e	1.0656621
141	0x3f1e5674	0.61850667
142	0x3fa3a1ea	1.2783787
143	0xbe72403c	-0.23657316
144	0xbf744e07	-0.9543156
145	0xbf33c0ca	-0.7021605
146	0x3e032f93	0.12811117
147	0x3f98af88	1.1928568
148	0x400497d6	2.0717673
149	0xbe70dabd	-0.23520942
150	0xbd97ae61	-0.07406307
151	0xbef72d06	-0.48276538
152	0xbebd9a6a	-0.3703187
153	0x3e9d610f	0.30738112
154	0xbef425b8	-0.47685027
155	0xbfae2def	-1.3607768
156	0xbf5d584d	-0.8646286
157	0xbe7fbe00	-0.24974823
158	0xbe7c0aa4	-0.24613434
159	0xbe3e76f5	-0.18600066
160	0xbffe3f5f	-1.9863089
161	0xbfbfea1d	-1.4993321
162	0xbf822337	-1.0166997
163	0xbf13f064	-0.5778868
164	0xbf4f5d27	-0.81001514
165	0xbf118f8c	-0.5685966
166	0xc089aaf7	-4.3021197
167	0xbfec5dad	-1.8466088
168	0xbf14360a	-0.5789496
169	0xbf6b8393	-0.9199764
170	0xbf299f9e	-0.6625918
171	0xbe52edc1	-0.20598508
172	0xbe060820	-0.13089037
173	0xbf1cb6bb	-0.61216325
174	0xbeded4b3	-0.43521652
175	0xbf02f611	-0.5115672
176	0xbf5d78e0	-0.86512566
177	0xbf2ef070	-0.6833563
178	0xbdf36ca0	-0.11885953
179	0xbe9d47fe	-0.30718988
180	0xc010582e	-2.255382
181	0x3d9e5505	0.0773106
182	0xbee1b6c0	-0.4408474
183	0x3eae1068	0.33996892
184	0x3f053039	0.52026707
185	0x3f272fc9	0.6530729
186	0x3cc62fa9	0.024192648
187	0xbe11edca	-0.14250866
188	0x3e9ce266	0.30641478
189	0xbde071bc	-0.10959193
190	0x3e88ad0e	0.2669453
191	0x3ec9d2f2	0.3941875
192	0xbee5e2c5	-0.44899574
193	0xbcf85592	-0.03031424
194	0xbe9a27a8	-0.3010838
195	0xbefdf735	-0.49602666
196	0x3e28d380	0.16486931
197	0x3edb17c0	0.42791557
198	0xbf398c6f	-0.7247991
199	0xbe2a5ca7	-0.16636907
200	0x3e604554	0.21901447
201	0x3e89444f	0.26809928
202	0xbf00992d	-0.5023373
203	0x3e1240c6	0.14282522
204	0xbe2ef7c7	-0.17086707
205	0xbee337fe	-0.44378656
206	0xc053f8ff	-3.3120725
207	0xc04d048b	-3.2034023
208	0xc013b488	-2.3078938
209	0x3d247eae	0.040159874
210	0x3edc6a19	0.43049696
211	0x3e578894	0.21048194
212	0xbf5e82b9	-0.86918217
213	0xbfd6b0a6	-1.6772659
214	0x3f9d8e80	1.2309113
215	0xbfa98163	-1.3242611
216	0xbd80696d	-0.06270108
217	0x3f87f28d	1.0620896
218	0x3e71e103	0.23620991
219	0x3e752fa7	0.23943959
220	0x3d29b5d7	0.04143318
221	0x3f883bba	1.0643227
222	0x3f091bef	0.5355825
223	0x3f6c023a	0.921909
224	0x3fb2f0c9	1.3979732
225	0x3f3083fa	0.6895138
226	0x3f8c39f1	1.0955182
227	0x3fac9303	1.3482364
228	0x3fb461cd	1.4092346
229	0x3f6812f9	0.9065395
230	0x3f61842d	0.8809231
231	0x3f62e7c4	0.88634896
232	0xbf49a417	-0.78766006
233	0xbe0a39ee	-0.13498661
234	0x3e6e7a83	0.23288922
235	0x3d4c07eb	0.04981224
236	0xbf8aa39d	-1.0831181
237	0xbecf9d3a	-0.40549642
238	0xbebf3535	-0.3734528
239	0x3b428937	0.0029683837
240	0x3f3265e6	0.69686735
241	0x3d2ea9b2	0.042642303
242	0x3e5a6a49	0.21329607
243	0xbdbe5d52	-0.09295143
244	0x3dde3d7d	0.10851572
245	0x3e70e1c1	0.23523618
246	0x403fad55	2.9949543
247	0x4034b667	2.823633
248	0x40403851	3.0034373
249	0x3f38e00d	0.72216874
250	0x3ebe3748	0.3715155
251	0x3e3c37cf	0.18380664
252	0xbf23a36a	-0.63921225
253	0xbfdb335f	-1.7125052
254	0x3dfd9887	0.12382608
255	0xbdbd4019	-0.09240741

actor.0.bias f4 [64]
0	0xbeb62dbf	-0.35581776
1	0x3e947236	0.28993386
2	0xbe7169c4	-0.23575503
3	0xbd12f98a	-0.03588251
4	0x3f2fc89c	0.6866548
5	0xbe915dcd	-0.28391877
6	0x3e70a207	0.23499309
7	0xbf4036f1	-0.75083834
8	0xbf3f5909	-0.7474523
9	0xbddbd9e4	-0.10734919
10	0x3f220c38	0.63299894
11	0x3f56c245	0.8389018
12	0x3e1b85d2	0.15187767
13	0x3e73c341	0.23804952
14	0xbf061215	-0.5237134
15	0xbf6d7dbd	-0.92769986
16	0x3b1749fc	0.002308487
17	0x3f0b1728	0.5433221
18	0xbcd384b5	-0.025820116
19	0xbf08ae78	-0.5339122
20	0x3e1fb2b5	0.15595515
21	0xbf62954b	-0.88509053
22	0x3f4118aa	0.7542826
23	0x3dc27898	0.09495658
24	0xbd7eff14	-0.06225498
25	0x3eb70490	0.35745668
26	0x3e74649f	0.23866509
27	0x3cd47a8b	0.02593734
28	0x3b205921	0.0024467187
29	0xbf6d12ed	-0.92607003
30	0x3eb1d56d	0.34733143
31	0xbe3a3b02	-0.18186572
32	0x3d690b96	0.056895815
33	0xbd14521c	-0.036211118
34	0x3e3f186f	0.18661664
35	0xbee7cdae	-0.4527411
36	0xbedef573	-0.43546638
37	0x3f82000d	1.0156265
38	0xbe93f983	-0.289013
39	0x3d057fad	0.032592464
40	0xbf9ebeff	-1.2402037
41	0x3e85d7c9	0.26141194
42	0x3eb44aa7	0.35213205
43	0xbe0a7160	-0.13519812
44	0xbeaa0bf8	-0.33212256
45	0x3f623f55	0.88377887
46	0x3e401d0a	0.18761078
47	0x3dd5fda8	0.10448772
48	0xbed2635c	-0.4109143
49	0xbf3b6dac	-0.7321422
50	0xbf227872	-0.63465035
51	0xbdb7db4f	-0.08977377
52	0x3de097c7	0.10966449
53	0x3f63c29f	0.88968843
54	0x3e7e8dee	0.2485883
55	0x3f738db2	0.95138085
56	0xbf0d650d	-0.55232316
57	0xbe0903fe	-0.13380429
58	0xbebf2c4d	-0.37338486
59	0xbe845b87	-0.2585108
60	0xbd47342a	-0.048633732
61	0xbda7212c	-0.08160624
62	0xbf18d699	-0.5970245
63	0x3e0bb659	0.13643779

actor.2.weight f4 [64, 64]
0	0x3ddde3e1	0.1083448
1	0xbf7b2d10	-0.98115635
2	0xbe9f470a	-0.31108886
3	0xbe34fe60	-0.17675161
4	0xbfc33ee2	-1.5253565
5	0xbddf1a6a	-0.1089371
6	0x3e5c2f0b	0.2150232
7	0x3fa5c6a3	1.2951244
8	0x3d0cf19d	0.034410108
9	0x3f8128b8	1.0090551
10	0xbf5765c4	-0.8413966
11	0xbdf3444b	-0.1187826
12	0x3f787a08	0.97061205
13	0x3f40ef46	0.753651
14	0x3e3e4d0b	0.18584077
15	0x3f69d492	0.9133998
16	0xbdb660f7	-0.08905213
17	0xbe383f6a	-0.1799294
18	0xbe25225b	-0.16126387
19	0xbe602805	-0.21890266
20	0xbe0c404e	-0.13696405
21	0xbfe61f92	-1.7978384
22	0xbf8943e7	-1.0723847
23	0xbe1634dd	-0.14668603
24	0xbf111b1d	-0.56681997
25	0x3cbb7b21	0.02288586
26	0x3eed2605	0.4631807
27	0x3f3044a2	0.68854725
28	0xbed9e8e5	-0.42560497
29	0x3f78726e	0.97049606
30	0x3dfbfa66	0.12303619
31	0x3f78ea10	0.9723215
32	0xbe3a0250	-0.18164945
33	0x3ea5a3a6	0.32351416
34	0x3ea41dab	0.32053885
35	0xbc46a171	-0.012123452
36	0x3ea2d858	0.31805682
37	0x3edce9d1	0.43147138
38	0x3fbd2ca3	1.4779247
39	0xbf3e66b1	-0.74375445
40	0x3f0a66c7	0.54063076
41	0xbe9551fb	-0.2916411
42	0x3f370942	0.714985
43	0xbf0a69ff	-0.5406799
44	0xbefbbac7	-0.49165937
45	0xbf3d9491	-0.7405482
46	0xbec5edf5	-0.3865811
47	0xbf5c9020	-0.8615742
48	0x3ddcd8fc	0.10783574
49	0x3f4147fc	0.75500464
50	0x3f442e60	0.7663326
51	0x3eda8a97	0.4268386
52	0xbfd2f45f	-1.6480826
53	0xbdd5685c	-0.104202956
54	0xbeb9a602	-0.36259466
55	0x3f507c9b	0.8144013
56	0x3e337ae4	0.17527348
57	0x3e645f2b	0.22301929
58	0xbef6615b	-0.4812115
59	0x3ee1a461	0.44070724
60	0xbf3a185a	-0.7269341
61	0x3ec7c481	0.39017108
62	0x3e60fd3e	0.21971604
63	0x3eeeae99	0.46617582
64	0xbe3eba7e	-0.18625829
65	0x3f1c6f22	0.61107075
66	0x3d8986b8	0.06715149
67	0x3f45b403	0.772278
68	0x3fe3858b	1.7775129
69	0x3f44de78	0.7690196
70	0xbf43520a	-0.76297057
71	0xbe35d0e6	-0.1775547
72	0x3e44d2d8	0.19221056
73	0xbf8d184c	-1.102304
74	0xbfbf943d	-1.4967114
75	0xbdccbf3c	-0.099974126
76	0xbfaf03ec	-1.3673072
77	0xbeceab0a	-0.40364867
78	0xbf318794	-0.693475
79	0xbf02fdb2	-0.5116836
80	0x3efb4d1d	0.4908227
81	0xbe38e48a	-0.1805593
82	0x3dacb586	0.0843306
83	0x3e872c56	0.26401013
84	0x3e91ccd7	0.28476593
85	0x3f3abd30	0.7294493
86	0x3fe06420	1.7530556
87	0xbf330fff	-0.69946283
88	0x3c2149f9	0.009844297
89	0xbf368313	-0.71293753
90	0xbe93f9d1	-0.28901532
91	0x3f197198	0.59938955
92	0x3c9e6fb0	0.019340366
93	0xbed4cc4b	-0.41562113
94	0x3e555e32	0.20836714
95	0xbf2d21cf	-0.6762971
96	0xbd07844d	-0.033085156
97	0xbf043213	-0.5163891
98	0xbed2bf31	-0.41161492
99	0x3eb65883	0.35614404
100	0xbe87f66c	-0.26555192
101	0x3d997e15	0.07494751
102	0xbf7938c2	-0.9735223
103	0x3f20a645	0.6275371
104	0xbf145a6a	-0.5795046
105	0xbeb0b5b9	-0.34513643
106	0x3ea7aa19	0.32746962
107	0x3f49ba62	0.7880002
108	0x3f04658f	0.51717466
109	0x3f411016	0.7541517
110	0x3f2f8290	0.685586
111	0x3e2f09f7	0.17093645
112	0xbd7e1833	-0.062034797
113	0xbed7ee21	-0.42173865
114	0x3f740781	0.9532395
115	0xbf04d155	-0.51881915
116	0x3f5c3c1a	0.8602921
117	0x3e96a863	0.29425344
118	0x3f9508e8	1.1643343
119	0xbeee3453	-0.46524295
120	0xbcd66203	-0.026169783
121	0xbf33d19f	-0.7024173
122	0x3e980e35	0.2969834
123	0x3d4eaa7b	0.05045555
124	0xbe56b647	-0.20967971
125	0xbec66ce4	-0.38754952
126	0xbe1dfeed	-0.15429278
127	0x3f1a0a5c	0.6017206
128	0xbeaf4920	-0.34235477
129	0x3f472e0b	0.7780463
130	0xbf0d1414	-0.5510876
131	0x3ec9577a	0.39324552
132	0xbf19135f	-0.5979518
133	0xbf3057cf	-0.68883985
134	0xbd2d32d5	-0.042284805
135	0xbefe9401	-0.49722293
136	0xbf40d25b	-0.75320977
137	0xbe9957e6	-0.29949874
138	0xbf1a90cf	-0.6037721
139	0x3f4171d4	0.7556431
140	0xbd96376c	-0.0733479
141	0x3f0489e7	0.5177292
142	0x3dd15276	0.10220806
143	0xbdf64e38	-0.12026638
144	0x3e0b9fa9	0.13635124
145	0x3b9b9425	0.004747885
146	0xbef45e3f	-0.47728154
147	0xbed4c270	-0.41554594
148	0x3eece0b8	0.46265197
149	0xbefdf4a8	-0.4960072
150	0xbe81d5d5	-0.25358453
151	0x3ebba759	0.36651114
152	0x3ea8bb4e	0.32955402
153	0xbf1aef8f	-0.6052179
154	0x3f0718b8	0.5277209
155	0x3d9351af	0.07193314
156	0x3c8c043b	0.017091861
157	0xbf90dd87	-1.1317605
158	0xbf3e33d5	-0.7429784
159	0x3e453538	0.19258583
160	0x3f371b40	0.71525955
161	0xbd4b3e29	-0.049619827
162	0xbf37d983	-0.7181627
163	0xbda120eb	-0.07867607
164	0xbf1fdcc4	-0.62446237
165	0x3e9d178b	0.30682024
166	0xbd83411b	-0.06408902
167	0x3f172651	0.5904284
168	0xbe8cf150	-0.27527857
169	0x3eed5b72	0.4635883
170	0x3f39c1e4	0.7256148
171	0xbb63708e	-0.003470454
172	0x3cdbb06a	0.02681752
173	0xbe7c0349	-0.24610628
174	0xbdc23e16	-0.09484498
175	0xbe88733c	-0.26650417
176	0xbe8654db	-0.26236615
177	0xbf702074	-0.9379952
178	0x3f83ec2a	1.0306447
179	0xbf32320c	-0.69607615
180	0x3f8cdcfb	1.1004938
181	0x3f03c6b0	0.5147505
182	0x3d8b841f	0.068123095
183	0x3f76ade3	0.9635908
184	0xbf9a1fcb	-1.2040952
185	0x3d94c592	0.07264246
186	0x3ebe5a13	0.37178096
187	0xbeee192f	-0.4650359
188	0x3e30d73f	0.1726961
189	0xbdf22378	-0.118231714
190	0xbfb91a20	-1.4461098
191	0xbdbe3231	-0.09286917
192	0xbeeac7ed	-0.45855656
193	0x3ea292f1	0.31752732
194	0xbf58759c	-0.8455446
195	0xbf15b65b	-0.5848138
196	0x3f83ae76	1.0287616
197	0x3f172085	0.59033996
198	0xbecb2006	-0.3967287
199	0x3ee20fcb	0.44152674
200	0xbe4dba93	-0.20090704
201	0xbfb4eec9	-1.4135371
202	0x3f056777	0.52111
203	0x3ca24a77	0.019810898
204	0xbe2bae9e	-0.1676583
205	0xbe2cb6b4	-0.1686657
206	0xbf26c446	-0.6514324
207	0xbf8e3787	-1.1110696
208	0xbdf6d2af	-0.120519035
209	0x3ee11785	0.43963256
210	0xbef31c72	-0.4748264
211	0xbee03d72	-0.4379688
212	0x3f51e4ea	0.8198992
213	0x3fb6e598	1.4288816
214	0x3f6c3cbe	0.92280185
215	0x3ec1386e	0.37738365
216	0xbe4a2827	-0.1974188
217	0x3e249e8e	0.16076109
218	0xbce34bf8	-0.027746186
219	0xbe25f940	-0.16208363
220	0xbeaf6360	-0.34255505
221	0xbf2b155d	-0.6682947
222	0x3f3a807d	0.7285231
223	0xbe6928e8	-0.22769511
224	0x3df9b06c	0.12191853
225	0xbe7c9d44	-0.24669367
226	0xbfb45d9b	-1.4091066
227	0xbf4f8db7	-0.81075615
228	0xbf9f0cda	-1.2425797
229	0x3deb7026	0.11496
230	0xbee22d42	-0.44175154
231	0x3d9e482e	0.07728611
232	0xbdf02229	-0.117252655
233	0x3f09fa26	0.5389732
234	0xbe41b51f	-0.18916748
235	0xbeca0f43	-0.3946477
236	0xbe183c16	-0.14866671
237	0x3f6fdad4	0.9369328
238	0x3f0efefe	0.5585784
239	0xbe80cd08	-0.25156426
240	0xbf0be5b0	-0.5464735
241	0xbf82be09	-1.0214244
242	0x3e95a613	0.29228267
243	0xbefde992	-0.49592263
244	0x3f644a92	0.89176285
245	0x3ed75463	0.4205657
246	0xbf0ac43c	-0.5420568
247	0xbe1dbb51	-0.15403487
248	0xbf002730	-0.50059795
249	0x3e3727f6	0.17886338
250	0x3ea3dd8c	0.32004964
251	0x3e1efe88	0.15526783
252	0x3e9173b1	0.28408578
253	0xbe056d19	-0.13029899
254	0xbf4bbd90	-0.79586124
255	0x3f159c3e	0.5844153

actor.2.bias f4 [64]
0	0xbee09ac6	-0.43868083
1	0xbe39bf94	-0.18139488
2	0x3f1bfa88	0.60929155
3	0x3f4ac7dd	0.7921122
4	0xbe4edbb3	-0.20200996
5	0xbeed900d	-0.46398965
6	0xbe39c5f6	-0.18141922
7	0xbe00a1ea	-0.12561765
8	0xbe1ca0f6	-0.15295777
9	0x3e40e98f	0.18839096
10	0xbc3213b4	-0.010868955
11	0x3ec0f31b	0.37685475
12	0x3d86d669	0.06583864
13	0xbf09f970	-0.53896236
14	0x3ebd754e	0.3700356
15	0xbeb71d52	-0.35764557
16	0xbf5bdbc9	-0.8588224
17	0x3f1420a1	0.5786229
18	0x3ce4d708	0.027934566
19	0x3e516af2	0.20450953
20	0x3e4835e2	0.19551805
21	0xbeaf8c19	-0.34286574
22	0x3f40cae2	0.75309575
23	0x3f037175	0.51344997
24	0x3da70d64	0.08156851
25	0x3e94ceef	0.29064128
26	0xbcabef42	-0.02098811
27	0x3f1c939a	0.6116272
28	0x3ef64949	0.48102787
29	0xbe238cd5	-0.15971692
30	0xbeaf2800	-0.34210205
31	0x3ee32649	0.44365147
32	0xbc9d5626	-0.019206118
33	0x3f05f944	0.52333474
34	0xbe3bb673	-0.18331318
35	0xbe275072	-0.16339281
36	0x3e76b695	0.24093087
37	0x3bd3bfea	0.006462087
38	0x3ed17965	0.4091293
39	0xbee1a24c	-0.44069135
40	0x3e3bf49d	0.18355031
41	0x3e949b70	0.2902484
42	0x3ecf6bfb	0.4051207
43	0x3da31b31	0.07964171
44	0xbefdb8bf	-0.49555013
45	0x3e3311c9	0.17487253
46	0x3de68b55	0.11257044
47	0xbf453560	-0.7703457
48	0xbdaef10a	-0.08542068
49	0x3ee022c6	0.4377653
50	0xbe125fcf	-0.1429436
51	0xbe27a6c3	-0.16372208
52	0x3f2e35ef	0.68051046
53	0x3e0f23d5	0.13978513
54	0x3c5ff58a	0.013669381
55	0xbdd2c946	-0.10292296
56	0xbe0b1c7c	-0.13585085
57	0x3f3d768e	0.74009025
58	0x3f7d3bfe	0.98919666
59	0x3eafb83b	0.34320244
60	0xbf6b4311	-0.9189921
61	0x3e358c13	0.17729215
62	0x3d6a93a6	0.057269715
63	0xbf18345d	-0.594549

actor.4.weight f4 [7, 64]
0	0xbddbda88	-0.10735041
1	0xbede0191	-0.4336057
2	0x3fe26e2f	1.7689875
3	0x3ee518d5	0.44745508
4	0xc01deb7e	-2.4674983
5	0xbf627dbe	-0.8847312
6	0x40140db8	2.3133373
7	0xc023131f	-2.548042
8	0xc002bf91	-2.0429423
9	0x40140d58	2.3133144
10	0xbfa9b417	-1.3258084
11	0x3fd52f82	1.6655123
12	0x3fc69d04	1.5516667
13	0x3e94f4c9	0.29093006
14	0x40521a1f	3.2828443
15	0x3fe6b571	1.8024122
16	0xbf1cee06	-0.61300695
17	0x3fe0d87b	1.7566065
18	0x3fac91c9	1.348199
19	0xbfa7ca54	-1.3108621
20	0x3fe4444e	1.7833345
21	0xbf97386d	-1.1814095
22	0xbfa87b6a	-1.3162663
23	0xbe6d6bd8	-0.2318567
24	0x3f9adcb4	1.2098603
25	0xbf663cd1	-0.8993655
26	0xbf87f5d8	-1.06219
27	0xbfcf110c	-1.6177077
28	0x3fe8ab0b	1.8177198
29	0xbfa465b1	-1.2843534
30	0xc02ab2e1	-2.667168
31	0x40002e90	2.002842
32	0x402ce402	2.7014165
33	0x3e1346e8	0.14382517
34	0xc018261c	-2.377326
35	0x4037d7e1	2.8725512
36	0x4022c5b3	2.5433166
37	0xbe3a2bbe	-0.18180749
38	0x4023b009	2.5576193
39	0x3faf6cba	1.3705056
40	0xbfa15309	-1.2603465
41	0xbf61b4b0	-0.8816633
42	0xbf3abc04	-0.7294314
43	0xbf497956	-0.7870077
44	0x3f3dfc2e	0.7421292
45	0xc015b037	-2.3388803
46	0xbfce71d4	-1.6128488
47	0xbf3a07bb	-0.72668046
48	0x3f8009c4	1.000298
49	0x401e189c	2.470252
50	0x3fa2e012	1.2724631
51	0x402031a6	2.5030303
52	0x3e8c811b	0.2744225
53	0xbff41b49	-1.9070827
54	0xbf9c2ddf	-1.2201499
55	0x40093b4a	2.1442437
56	0xc016f0fd	-2.3584588
57	0x3f824524	1.017735
58	0x3f5c94ba	0.8616444
59	0x4036594e	2.8492007
60	0xc000b54c	-2.0110655
61	0xbf717cc8	-0.94331026
62	0x4010ba6a	2.2613778
63	0x3f9ebfc0	1.2402267
64	0x3f75305d	0.9577692
65	0xbe424e4a	-0.18975177
66	0xbeff1312	-0.49819237
67	0xbf1b9d23	-0.60786647
68	0xbf29582a	-0.6615015
69	0xbfe883b0	-1.8165188
70	0xbe0680e1	-0.13135101
71	0xbf00f869	-0.50379044
72	0x3f9afc46	1.2108238
73	0xbe5ad629	-0.21370758
74	0xc00af022	-2.1709065
75	0xbea4fb06	-0.32222766
76	0xbf57e2a0	-0.8433018
77	0x3ee464a8	0.44608045
78	0x3f938029	1.1523486
79	0x3ee11613	0.43962154
80	0xbf45f0ae	-0.77320373
81	0x3f10ee56	0.5661367
82	0xbfd8b308	-1.6929636
83	0x3ef1876e	0.47173637
84	0xbf9bd1b2	-1.2173369
85	0xc007702a	-2.116221
86	0x3f2f75a6	0.6853889
87	0xbfbb1cb1	-1.4618131
88	0xbce133cb	-0.027490517
89	0x3f6552ba	0.89579356
90	0xbf7eeb50	-0.9957781
91	0x3f0051dc	0.5012491
92	0x3f13a489	0.57672936
93	0xbcb8a4e6	-0.022539567
94	0xbe9b37da	-0.3031605
95	0xbeb1dd45	-0.34739128
96	0x3e9cc1a2	0.3061648
97	0xbfad14b8	-1.3521948
98	0xbee48d20	-0.4463892
99	0x3f4e02e5	0.80473167
100	0x3fb16e72	1.386183
101	0x3d7da65b	0.061926227
102	0xbe84b696	-0.25920552
103	0x4005e729	2.092234
104	0x3d9ac402	0.07556917
105	0xbf3ec11e	-0.74513423
106	0x3f7dd5b7	0.9915423
107	0x3f99250f	1.1964434
108	0xbf9263dc	-1.1436725
109	0x3fc7d328	1.5611315
110	0x3fcc763c	1.5973582
111	0xbd9cc279	-0.0765428
112	0xbfc01acc	-1.5008178
113	0x3f3b3f46	0.7314342
114	0x40057623	2.0853355
115	0x3e8de8a9	0.27716568
116	0x3edf94d7	0.43668243
117	0x3f293489	0.6609579
118	0xbef0ce6a	-0.4703248
119	0xbe596177	-0.21228586
120	0x3f2d331c	0.6765611
121	0xbef2489c	-0.47321022
122	0xbd8043bf	-0.062629215
123	0x3e7b60c2	0.24548629
124	0xbe911da5	-0.2834293
125	0xbf263d28	-0.6493707
126	0x3f41e459	0.75739056
127	0x3fc7ced2	1.5609992
128	0x3f2fc8ad	0.6866558
129	0xbfe2b201	-1.7710572
130	0xbf064040	-0.5244179
131	0x3e9aa6bd	0.30205336
132	0xbfad9ab4	-1.3562837
133	0x3e60185c	0.21884292
134	0xbf5fb425	-0.87384254
135	0xbf38c21c	-0.7217119
136	0x3c927433	0.017877674
137	0xbf063ee3	-0.5243971
138	0xbf9e747d	-1.2379299
139	0xbf7d740f	-0.99005216
140	0x3e9d837d	0.3076438
141	0xbf175cf3	-0.59126204
142	0x3ea42b9a	0.32064515
143	0xbd8453e8	-0.06461316
144	0xbf4bd4a3	-0.7962133
145	0xbf457a26	-0.7713951
146	0xbeb31305	-0.34975448
147	0x3fdd81b1	1.7305204
148	0xbf18ddca	-0.59713423
149	0xbd158083	-0.03649951
150	0x3dfb5e5c	0.12273857
151	0xbf1eee15	-0.62082034
152	0xbf03b292	-0.5144435
153	0x3f93f42e	1.1558893
154	0xbfa8a35b	-1.3174852
155	0x3f83cec3	1.0297474
156	0x3e7e52aa	0.24836221
157	0xbe4f0b7f	-0.20219229
158	0xbf02498d	-0.5089348
159	0xbea0c6cc	-0.3140167
160	0x3f0600ad	0.5234478
161	0xbec85eaf	-0.39134738
162	0xbf5ab9b2	-0.854396
163	0x3ea2bb6b	0.31783614
164	0x3efe406d	0.49658528
165	0x3f81f63f	1.0153273
166	0xbf126445	-0.5718425
167	0x3fc3cd31	1.5296994
168	0xbe2e3aac	-0.17014569
169	0x3df2808e	0.11840926
170	0x3f6f6477	0.9351267
171	0x3e96f951	0.29487088
172	0x3f78d9e5	0.9720748
173	0xbe60ef3a	-0.21966258
174	0x3f43f38d	0.76543504
175	0xbec09a17	-0.3761756
176	0xbff0f736	-1.8825443
177	0x3fa5b2e5	1.2945219
178	0xbe204566	-0.15651473
179	0x3f25e8db	0.64808434
180	0x3f15e3e7	0.58550876
181	0x3f87f366	1.0621154
182	0x3f55d891	0.8353358
183	0x3e92e603	0.2869111
184	0x3f84fc0d	1.038942
185	0xbe89f02c	-0.2694105
186	0x3e7bf339	0.24604501
187	0x3f24e8f3	0.6441795
188	0xbf2a3fad	-0.6650341
189	0xbdb17821	-0.08665491
190	0xbf1574d6	-0.583814
191	0x3f169d6d	0.5883396
192	0xbcaf6f03	-0.02141524
193	0xbfd311cf	-1.648981
194	0x3ea1ff8d	0.31640282
195	0xbf35d3e0	-0.7102642
196	0xbed43ef9	-0.41454294
197	0x3efac7a1	0.4898043
198	0xbf9bf1b0	-1.2183132
199	0xbd1b1fc5	-0.037872095
200	0x3f5ce00b	0.8627936
201	0xbf634a95	-0.8878568
202	0xbfe1d842	-1.7644122
203	0xc005d0ee	-2.090877
204	0xbf962126	-1.1728866
205	0x3d7a8ffd	0.061172474
206	0x3ea872a3	0.3289996
207	0xbfbb572a	-1.4635975
208	0xbb2f79f3	-0.0026775568
209	0x3ee6f6eb	0.45110258
210	0xbe284cc0	-0.16435528
211	0x3f7a336e	0.97734725
212	0xbedaa709	-0.42705563
213	0xbeadefac	-0.33971918
214	0x3f92c837	1.1467351
215	0xbfcbbb3e	-1.5916517
216	0xbf8e1bba	-1.1102211
217	0xbe0ffc8a	-0.1406118
218	0xbf096b88	-0.53679705
219	0x3f015061	0.50513273
220	0x3fd62e15	1.6732813
221	0x3e95779e	0.29192823
222	0xbebcf9d0	-0.36909342
223	0x3f3b9147	0.7326855
224	0x3f3b434f	0.7314958
225	0x3e819129	0.2530606
226	0xbf17d7f6	-0.59313905
227	0x3f34a9a9	0.7057138
228	0x3eb61b67	0.3556778
229	0x3fbb8bfa	1.4652092
230	0x3ef198e9	0.47186974
231	0xc024dae7	-2.5758607
232	0xbf399379	-0.7249065
233	0x3f3bf67c	0.7342298
234	0xbe3fd6ae	-0.18734238
235	0xc008b92f	-2.1363027
236	0xbf36c955	-0.7140096
237	0xbf42c8ff	-0.76087946
238	0x3ce66d86	0.028128397
239	0x3efad3d4	0.48989737
240	0xbe67e975	-0.2264765
241	0x3e8bd3ff	0.27310178
242	0x3ef5adea	0.47984248
243	0x3df542a4	0.11975601
244	0x3d581f23	0.05276407
245	0x3f17bb26	0.5926994
246	0xbf262236	-0.6489595
247	0x3e252055	0.16125615
248	0x3ef115f5	0.47087064
249	0xbece1e0b	-0.40257296
250	0xbcf5ba5c	-0.02999609
251	0x3f430d36	0.76192033
252	0xbfa1af9a	-1.2631714
253	0xbef0d9ec	-0.4704126
254	0xbd4bffdd	-0.049804557
255	0x3f1e0079	0.6171947

actor.4.bias f4 [7]
0	0x3f6e69e0	0.931303
1	0x3eb1a225	0.3469402
2	0x3eae814c	0.3408302
3	0x3eb33b9b	0.35006413
4	0x3ec0ca9d	0.37654582
5	0x3ed73519	0.42032698
6	0x3fdf1f85	1.7431494

critic.0.weight f4 [64, 20]
0	0x3f3aaa75	0.72916347
1	0x3ece17dd	0.4025258
2	0xbeaef1fb	-0.3416899
3	0xbeb2ea1d	-0.3494424
4	0xbf1575bb	-0.5838277
5	0xbe6501dc	-0.2236399
6	0xc0812613	-4.0358977
7	0xc09ce51c	-4.9029675
8	0xc09c382d	-4.8818574
9	0x3e08d7e3	0.13363604
10	0x3f655182	0.89577496
11	0x3f9335bb	1.1500772
12	0x3f878d38	1.0589972
13	0x3ece7606	0.4032442
14	0x40649a69	3.5719244
15	0x3f64b8d4	0.89344525
16	0x3fd79ec7	1.684533
17	0x3f8080f5	1.0039355
18	0xbd41686e	-0.047218733
19	0xbc922374	-0.017839171
20	0x3ee5f94b	0.44916758
21	0x3ea417d9	0.32049444
22	0xbfabbbff	-1.3416747
23	0x3d6d5beb	0.057948988
24	0x3f1b8376	0.6074747
25	0x3f0f51c9	0.5598417
26	0x40824937	4.0714374
27	0x40b9edc1	5.8102727
28	0x40de0af5	6.9388375
29	0x3c1c02b2	0.009522127
30	0xbe88c8dd	-0.26715747
31	0xbea3a2ba	-0.31960088
32	0xbe325666	-0.17415771
33	0x3e30531b	0.17219202
34	0xbfd4cf27	-1.6625718
35	0x3f87b667	1.060254
36	0xbe883a6b	-0.2660707
37	0xbf7e156f	-0.99251455
38	0xbf869583	-1.0514377
39	0xbf2b0788	-0.66808367
40	0x3fa4c878	1.2873678
41	0x3fc4ecff	1.5384825
42	0xbfc1ccbc	-1.5140605
43	0x3fa08445	1.2540365
44	0x3e714282	0.23560527
45	0xbe627f03	-0.22118764
46	0x4034384b	2.8159359
47	0xc036e509	-2.8577292
48	0xc08a09a0	-4.313675
49	0xbe443e9a	-0.19164506
50	0x3e2d66a6	0.16933689
51	0x3c30839f	0.010773568
52	0x3e4bb067	0.19891511
53	0x3fa6cea4	1.3031812
54	0x3e836415	0.25662294
55	0xbea1ee6b	-0.3162721
56	0xbf393650	-0.723485
57	0x3fa2b67e	1.2711942
58	0x3b96de3f	0.0046041305
59	0x3dd9d976	0.106371805
60	0x3d017dd7	0.03161415
61	0xbcb7c468	-0.022432521
62	0xbec7f1f7	-0.39051792
63	0x3eea38fe	0.45746607
64	0x3ef776b9	0.48332766
65	0x3f237b90	0.63860416
66	0x40bcb102	5.8966074
67	0x40db1578	6.8463707
68	0x40cc9014	6.3925877
69	0x3f3f898f	0.7481927
70	0xbd849a53	-0.064747475
71	0xbe7b503e	-0.24542329
72	0x409861f9	4.7619596
73	0x3f4992bb	0.7873952
74	0xbe61611d	-0.22009702
75	0x3f0a1150	0.53932667
76	0x3e16b98b	0.14719217
77	0xbf197e40	-0.5995827
78	0x3dd310a6	0.1030591
79	0xbeb43ef5	-0.35204282
80	0x3ff56517	1.9171475
81	0x3fdc1a6f	1.7195567
82	0xbfb67aa2	-1.4256175
83	0x3f1be254	0.60892224
84	0xbe81cd88	-0.2535212
85	0x3ea36517	0.31913063
86	0xc123f9a4	-10.248447
87	0xc0fc53e9	-7.885243
88	0xc0b1dc7d	-5.558165
89	0xbf2dc5cc	-0.6787994
90	0x3ef78360	0.4834242
91	0x3f341d75	0.7035745
92	0xbf4a3cd4	-0.78999066
93	0x3dcce4ed	0.10004602
94	0x3fa4487e	1.2834623
95	0x3c199013	0.009372729
96	0x3f5de8fa	0.8668362
97	0x3e6028ee	0.21890613
98	0x3cc62857	0.024189157
99	0xbe9e7723	-0.3095027
100	0x3f8bc3ee	1.0919168
101	0xbfc163fe	-1.510864
102	0xbef2fb5a	-0.4745739
103	0xbfbe0b68	-1.4847231
104	0x3c9227bf	0.017841218
105	0x3f1ecfa3	0.6203558
106	0xc0c56c9b	-6.1695075
107	0xc0102d6a	-2.2527719
108	0xc0055f9a	-2.08396
109	0xbe371e35	-0.17882617
110	0xbe2403b4	-0.16017038
111	0xbe46c353	-0.19410448
112	0xbf239d76	-0.6391214
113	0x3d17b1c6	0.037034772
114	0xbf030e2d	-0.51193506
115	0xbf28b8a5	-0.65906745
116	0xbf90bb86	-1.1307228
117	0x3f81123b	1.0083688
118	0x3e6fc0a2	0.23413327
119	0x3cd10c14	0.025518455
120	0xbf87ee86	-1.0619667
121	0x4033fbcd	2.8122437
122	0x3f4eab54	0.80730176
123	0x3efb0178	0.49024558
124	0xbe8cbd89	-0.27488354
125	0xbec635cc	-0.3871292
126	0x3fc53fa0	1.5410042
127	0xbea47133	-0.32117614
128	0xbf89e99b	-1.0774416
129	0xbf5aa011	-0.8540049
130	0xbf84b27b	-1.0366968
131	0xbf974409	-1.1817638
132	0x3d43c638	0.047796458
133	0x3fabcf5c	1.3422656
134	0xbfd4c4c6	-1.662255
135	0xbeeb0304	-0.45900738
136	0xbf1f196a	-0.62148154
137	0xbf162704	-0.58653283
138	0xbc2992ea	-0.010349968
139	0x3e23e7f8	0.16006458
140	0x4070ac26	3.760507
141	0x3fccc1e5	1.5996672
142	0x4030f5d7	2.7650049
143	0x3f009e5d	0.50241643
144	0xbe9028bf	-0.28156087
145	0xbe76a20b	-0.24085252
146	0x3fad0233	1.3516296
147	0x406e4c15	3.7233937
148	0x407dc631	3.9652216
149	0xbf0ff74f	-0.5623674
150	0xbee9dc35	-0.45675817
151	0xbf33f114	-0.7028973
152	0xbfcd7d4a	-1.605386
153	0xbff846a0	-1.9396553
154	0xbfd6d911	-1.6784993
155	0x3fe05d73	1.7528518
156	0xbd9f73de	-0.07785772
157	0xbf28ac1e	-0.6588763
158	0xbdb17460	-0.08664775
159	0xbdf5eb31	-0.1200775
160	0xbd98eebe	-0.074674115
161	0xbf9d4973	-1.228804
162	0xbf89df2d	-1.0771233
163	0x3f85b4ac	1.0445762
164	0x3fccb3b5	1.5992342
165	0x3fe1b9d2	1.7634833
166	0x40ee28b7	7.44247
167	0x40a20b7b	5.0639014
168	0x40480ce3	3.1257865
169	0x3fc4b725	1.5368391
170	0x3f7e9020	0.9943867
171	0x3f7a7d85	0.9784778
172	0x40346636	2.8187385
173	0xbfbc7e8c	-1.4726119
174	0xbef750c9	-0.48303822
175	0x3e77d910	0.24203897
176	0x3f2ecaad	0.6827801
177	0x3f72e034	0.94873357
178	0xbd7122e8	-0.05887118
179	0xbe4c3133	-0.19940643
180	0xbe18d49a	-0.14924851
181	0xbea2c7a0	-0.31792927
182	0x3f1d26a7	0.61387104
183	0xbf17013c	-0.5898626
184	0x3f3b0d91	0.73067576
185	0x3f2a6d80	0.66573334
186	0xc0c0d098	-6.025463
187	0xbf89ef99	-1.0776244
188	0x3d334603	0.04376794
189	0xbe063f79	-0.1311015
190	0x3de020e3	0.10943773
191	0x3d191857	0.037376728
192	0xc04b6bef	-3.1784627
193	0x3ff04a3f	1.8772658
194	0xbf06e7a8	-0.5269723
195	0x3f3d81c3	0.74026126
196	0x3e232cc1	0.15935041
197	0xbed6788d	-0.41888848
198	0xbe338e58	-0.17534769
199	0x3eae81c3	0.34083375
200	0x400b28a0	2.1743546
201	0x4033c124	2.8086634
202	0x3fb77717	1.4333218
203	0x3f3efc5c	0.7460382
204	0x3f20f29f	0.6287021
205	0x3eacef9e	0.33776563
206	0xc086761b	-4.201917
207	0xc11176ec	-9.091534
208	0xc1006587	-8.024787
209	0xc00a301e	-2.1591868
210	0xbfa70536	-1.3048465
211	0xbf52032f	-0.8203611
212	0xbf2311fd	-0.6369932
213	0xbf95714d	-1.1675202
214	0xbe6bb90a	-0.23019806
215	0x3ec2b420	0.3802805
216	0x4011e21a	2.2794251
217	0x40093e5c	2.144431
218	0xbc428264	-0.011871908
219	0xbd80f4fa	-0.062967256
220	0x3f1ac466	0.6045593
221	0x3fa2c256	1.2715557
222	0x3f68497f	0.90737146
223	0x3f858e30	1.0434017
224	0x3f8f0f49	1.117654
225	0x3f747068	0.9548402
226	0xc0cedaf1	-6.4642262
227	0xc0af3952	-5.475747
228	0xc09d72a0	-4.9202423
229	0xbf221598	-0.633142
230	0xbecbbec8	-0.39793992
231	0x3b9580d7	0.004562478
232	0xc024a1e9	-2.5723822
233	0xbf3aef3b	-0.73021287
234	0xbe324768	-0.17410052
235	0x3f07f7c5	0.5311244
236	0xbf5f7b72	-0.8729774
237	0xc0261f96	-2.5956779
238	0xbe19141b	-0.14949076
239	0x3c1cb24b	0.009563993
240	0xbe4c757d	-0.19966693
241	0xbf05b436	-0.52228105
242	0xbf9b0f88	-1.2114115
243	0xbf5c34f2	-0.8601829
244	0xbeeb632e	-0.45974106
245	0xbe83558e	-0.2565121
246	0xbf0ca5b4	-0.5494034
247	0x3e5a8621	0.21340229
248	0x3f1e62d6	0.6186956
249	0xbf7c09e0	-0.9845257
250	0xbf331269	-0.69949967
251	0xbf7618ff	-0.9613189
252	0x3ebc7c47	0.36813566
253	0xbe658796	-0.22415003
254	0xbe288fdf	-0.16461132
255	0x4011f9b5	2.280866

critic.0.bias f4 [64]
0	0x3fda4bdc	1.70544
1	0xbfa2a2d0	-1.2705936
2	0x3f055777	0.52086586
3	0xbec1b488	-0.37833047
4	0x3fa4e0ad	1.2881066
5	0x3ddf47eb	0.10902389
6	0xbf70fe0f	-0.9413766
7	0xbfa4c526	-1.2872665
8	0x3f563a19	0.836824
9	0x3bfdaea6	0.007741767
10	0xbf3ff4b7	-0.7498278
11	0x3ecb8827	0.39752313
12	0xbf778be8	-0.96697855
13	0x3efec31f	0.4975824
14	0x3f297dbe	0.6620749
15	0xbefe7a1d	-0.4970254
16	0xbf108268	-0.56448984
17	0xbf36b5ee	-0.7137135
18	0x3e6549e2	0.22391465
19	0xbf6f54bc	-0.9348867
20	0xbfbc3bad	-1.4705712
21	0x3f9129cf	1.1340884
22	0x3e971aba	0.29512578
23	0x3ec82f24	0.39098465
24	0x3c3cd99c	0.0115264915
25	0x3f2eb290	0.68241215
26	0xbd8d882d	-0.06910739
27	0xbe11bf43	-0.14233117
28	0x3f0ac985	0.54213744
29	0xbd0eb28b	-0.03483824
30	0x3fa97e6e	1.3241708
31	0x3f522c8c	0.82099223
32	0xbfe91078	-1.8208151
33	0x3f142381	0.57866675
34	0xbf05051c	-0.5196092
35	0x3ef664f4	0.48123896
36	0x3e876785	0.26446167
37	0x3f185e91	0.59519297
38	0xbf5bd202	-0.8586732
39	0x3f1c63a3	0.61089534
40	0x3f249832	0.6429473
41	0x3f30aa72	0.6901008
42	0xbedb6ea2	-0.42857844
43	0xbe99f915	-0.30072847
44	0xbda863d3	-0.08222165
45	0x3e5ed6d7	0.21761642
46	0x400c144f	2.1887395
47	0xbf16b1b5	-0.5886491
48	0xbf33389a	-0.7000824
49	0xbf6f8cc2	-0.93574154
50	0xbf80263f	-1.0011672
51	0x3fa7b571	1.3102247
52	0xbec4be51	-0.3842645
53	0x3e2ca63e	0.16860291
54	0x3f90b76b	1.1305975
55	0xbf12bb4a	-0.5731703
56	0xbf013306	-0.5046848
57	0xbe433601	-0.1906357
58	0xbf6657bc	-0.8997762
59	0xbeae75bd	-0.34074202
60	0x3e83ceab	0.25743613
61	0xbf060d95	-0.52364475
62	0xbf99ffbb	-1.2031168
63	0xbf3646cc	-0.7120178

critic.2.weight f4 [64, 64]
0	0xbeba3ebb	-0.36375985
1	0xbee9af95	-0.4564177
2	0xbebc40d7	-0.3676822
3	0x3f53f10e	0.82789695
4	0xbfbf34c9	-1.4937984
5	0xbe2e73ed	-0.1703641
6	0x3f104a07	0.56362957
7	0xbf869f6f	-1.0517405
8	0x3cdaf768	0.0267293
9	0x3ed5248c	0.41629446
10	0xbfc44811	-1.5334493
11	0xbe77015c	-0.24121612
12	0xbfb780f8	-1.4336233
13	0xbf8a833f	-1.0821303
14	0x3cef4771	0.02920887
15	0x3e83ee35	0.25767675
16	0xbf72194a	-0.9456984
17	0x3d993e8b	0.07482632
18	0xbd38b8bc	-0.04509805
19	0xbf57197f	-0.8402328
20	0xbf05411f	-0.5205249
21	0x3f43334c	0.7625015
22	0xbfd0ccc5	-1.6312491
23	0x3faedd46	1.3661277
24	0x3fcab66b	1.583692
25	0xbe04cf2c	-0.12969655
26	0x3fa19dda	1.2626297
27	0x3f92d22a	1.1470387
28	0xbe857170	-0.26063108
29	0x3eb68aee	0.3565287
30	0xbf7cfcee	-0.9882344
31	0xbea6e118	-0.32593608
32	0xbee3e825	-0.4451305
33	0x3eaa6f67	0.33288118
34	0x3fa5c0a7	1.2949418
35	0xbedfe6e4	-0.43730843
36	0x3e8bb7b0	0.2728858
37	0x3f6426dc	0.89121795
38	0x3f3d5f83	0.73973864
39	0x3efb3f48	0.49071717
40	0x3e0ff376	0.14057717
41	0x3f8d1a68	1.1023684
42	0xbf249a16	-0.64297616
43	0xbff96e1f	-1.9486731
44	0xbeae65da	-0.34062082
45	0xc01a9760	-2.4154892
46	0x3e6408cd	0.22268982
47	0xbf9ce1a7	-1.2256364
48	0x3f7c813c	0.98634696
49	0x3f653548	0.89534426
50	0xbede5ce8	-0.43430257
51	0xbf99d303	-1.2017521
52	0x3f2e6729	0.6812616
53	0xbd495719	-0.04915533
54	0xbe7c06fd	-0.24612041
55	0x3f6ea59e	0.9322146
56	0xbeedaf2e	-0.46422714
57	0xbd3abf63	-0.045592677
58	0xbea8751d	-0.3290185
59	0x3f35658f	0.7085809
60	0x3f8d44ed	1.103666
61	0x3e29fd0a	0.16600433
62	0xbeb8c875	-0.36090437
63	0x3ef65b0e	0.48116344
64	0x3e455d03	0.19273762
65	0x3e80cc83	0.2515603
66	0x3e990a9d	0.2989091
67	0xbe54650f	-0.20741676
68	0xbe32548e	-0.17415068
69	0x3f66605b	0.89990777
70	0xbe876a30	-0.26448202
71	0xbf98fccd	-1.1952149
72	0xbf175b7e	-0.5912398
73	0x3f438abc	0.76383567
74	0xbfab6030	-1.3388729
75	0x3f896ef2	1.0736983
76	0xbe9176f0	-0.28411055
77	0x3f82a811	1.020754
78	0x3f332795	0.6998227
79	0x3f2f995a	0.6859337
80	0xbeb8b677	-0.3607671
81	0xbf45d301	-0.7727509
82	0xbd0dbedb	-0.034605842
83	0xbf64c799	-0.8936706
84	0xbe7aaae8	-0.24479258
85	0x3e2c1cd1	0.16807868
86	0xbe328606	-0.17433938
87	0xbdc67fe4	-0.09692362
88	0x3d8dc70d	0.069227315
89	0xbf918aed	-1.1370522
90	0x3f5205b2	0.8203994
91	0x3fb97847	1.4489831
92	0x3e2304a4	0.15919739
93	0xbe53eeed	-0.20696612
94	0xbe36cc1d	-0.178513
95	0xbf9f7e31	-1.2460386
96	0x3d691884	0.056908146
97	0xbf7e6552	-0.9937335
98	0x3ed4882e	0.41510147
99	0x3f93ea14	1.155581
100	0x3de68e58	0.11257619
101	0xbe46eb86	-0.19425783
102	0x3e9e926b	0.30971083
103	0xbec4480f	-0.38336226
104	0x3f57f3b9	0.84356266
105	0xbdfa2330	-0.12213743
106	0xbf49405d	-0.78613836
107	0x3f28e01b	0.6596696
108	0xbf50153e	-0.81282413
109	0x3efca5a5	0.49345127
110	0xc0141e93	-2.314366
111	0xbf7747b2	-0.96593773
112	0x40069267	2.1026857
113	0xbe80809b	-0.25098118
114	0xbce0a8b6	-0.027424198
115	0xbe196e27	-0.14983426
116	0x3e8e5c7e	0.2780494
117	0x3e58510a	0.21124664
118	0xbf1c894d	-0.61147004
119	0x3e1b1d3f	0.15147875
120	0xbda51286	-0.08060174
121	0x3e8dc633	0.27690277
122	0xbda26ae4	-0.07930544
123	0x3ddd7b81	0.10814572
124	0xbf324bf9	-0.69647175
125	0xbef9819b	-0.48731694
126	0xbe190ea1	-0.14946987
127	0xbef23ae2	-0.4731055
128	0xbf8a784a	-1.0817959
129	0x3e6d0cae	0.23149368
130	0x3e1cc157	0.15308128
131	0xbf98c2c4	-1.1934438
132	0x3f11229c	0.56693435
133	0x3efbf78f	0.4921231
134	0x3fcaf625	1.5856367
135	0x3fe5ead5	1.796229
136	0xbfd21ac8	-1.6414423
137	0x3f53532f	0.82548803
138	0x400d6dcd	2.2098267
139	0x3edc7475	0.430576
140	0xbdb526c9	-0.08845288
141	0x3d486ae1	0.048930053
142	0xbf94f81c	-1.1638217
143	0xbf7be266	-0.9839233
144	0x3f811dc3	1.0087208
145	0x3e9fbc2f	0.3119826
146	0xbd8255ba	-0.06364007
147	0x3de1fb90	0.1103431
148	0xbe933cd8	-0.28757358
149	0xbed80fa3	-0.4219943
150	0x3ff9f86a	1.9528935
151	0xbf5da440	-0.8657875
152	0x3f67bf90	0.90526676
153	0xbe6b42a9	-0.22974648
154	0x3f772d5a	0.96553576
155	0xbfaa3c19	-1.329959
156	0xbf5445bf	-0.82918924
157	0xbf74e1ba	-0.9565693
158	0xbe1ccc81	-0.15312387
159	0xbe9c2c3d	-0.305025
160	0xbf2145c1	-0.6299706
161	0xc01354d6	-2.302053
162	0x3e00cc33	0.12577896
163	0xbeb87413	-0.36026058
164	0xbf1dac89	-0.6159139
165	0x3d344044	0.0440066
166	0xbf512abe	-0.81705844
167	0xbe8c0e35	-0.2735459
168	0x3fa32523	1.2745708
169	0x3f0cc02e	0.5498074
170	0xbf63bfe0	-0.88964653
171	0xbb12d49b	-0.0022404555
172	0xbe807974	-0.2509266
173	0x3ea24e83	0.31700525
174	0xbfb14dd2	-1.3851874
175	0xbe28ed3e	-0.1649675
176	0xbf1a829f	-0.6035556
177	0xbec8e79e	-0.3923921
178	0x3f0136f4	0.50474477
179	0xbf072634	-0.5279267
180	0xbf259bc8	-0.6469083
181	0x3eea62bb	0.4577845
182	0xbf14b82a	-0.5809351
183	0x3e0d536c	0.13801354
184	0x3f7c13be	0.98467624
185	0x3f1c4d6f	0.61055654
186	0x3f427f33	0.7597534
187	0x3ef4c288	0.47804666
188	0xbf545ecc	-0.8295715
189	0xbfae9afd	-1.3641049
190	0x4013b885	2.3081372
191	0xbf4d1593	-0.80111045
192	0x3f231a42	0.6371194
193	0xbdd9ac3a	-0.10628553
194	0x3d98aced	0.07454858
195	0x3e1e9f67	0.15490495
196	0x3f58d67e	0.8470229
197	0x3f487428	0.7830224
198	0xc0048dbb	-2.0711505
199	0xbfffac7d	-1.9974514
200	0x3f4caeef	0.7995443
201	0xbea7a61e	-0.32743925
202	0xbfd3bab2	-1.654135
203	0x3f34ce69	0.70627457
204	0xbf8d7e39	-1.1054145
205	0x3f41b3fd	0.75665265
206	0x3fbb8cd9	1.4652358
207	0x3fc6a281	1.5518342
208	0x3cd93435	0.026514152
209	0xbe8590b7	-0.2608697
210	0xbf845b50	-1.0340366
211	0x3fb29705	1.3952338
212	0x3b6aca0d	0.0035825998
213	0x3e8fb6ec	0.28069246
214	0xbfb2dd88	-1.3973856
215	0x3f3afc03	0.7304079
216	0x3f98bfbe	1.1933515
217	0x3e856470	0.2605319
218	0xbecde971	-0.40217164
219	0x3f86fc92	1.0545828
220	0x3fe1db42	1.7645037
221	0x3f94d52e	1.1627557
222	0xbed4eab4	-0.41585314
223	0x3e6f2a03	0.2335587
224	0xbf81bd30	-1.013586
225	0x400f098e	2.2349582
226	0xbe35f9f8	-0.17771137
227	0x3e7002fa	0.23438635
228	0xbf703f62	-0.93846714
229	0x3d71025f	0.058840152
230	0xbf3756e3	-0.71616954
231	0x3ea700c6	0.32617778
232	0x3f238c04	0.6388552
233	0xbfabce26	-1.3422287
234	0x3ede9b85	0.43478027
235	0xbea150b4	-0.31506884
236	0x3f85cef0	1.0453777
237	0xbf3bd6cd	-0.73374635
238	0x3f63bcf2	0.8896018
239	0x3ee79e5a	0.45238
240	0x3ecdb759	0.40178946
241	0xbed1a231	-0.40944055
242	0x3fa53c43	1.2909015
243	0x3f2ce82b	0.6754176
244	0x3efabe2f	0.48973224
245	0xbf77ac9a	-0.96747744
246	0x3d105542	0.03523756
247	0x3eb86430	0.36013937
248	0xbf19cf7c	-0.6008222
249	0x3ef98124	0.4873134
250	0xbf39fd39	-0.7265201
251	0x3e452707	0.19253169
252	0xbea81471	-0.32828096
253	0x3f1a9712	0.60386765
254	0xc0312b9d	-2.768287
255	0xbd69dcfa	-0.057095505

critic.2.bias f4 [64]
0	0x3f2f3f56	0.6845602
1	0xbf683324	-0.90703034
2	0xbe9b0837	-0.30279705
3	0x3ef331fb	0.4749907
4	0x3f485aa5	0.7826331
5	0x3f2e4bc5	0.68084365
6	0x3e2084d0	0.15675664
7	0x3f645440	0.89191055
8	0x3ef5df33	0.4802185
9	0x3f147da0	0.5800419
10	0xbe3bdf97	-0.18347012
11	0xbcd28c8c	-0.025701784
12	0xbe944389	-0.28957775
13	0x3f230727	0.6368279
14	0x3f24c656	0.64365137
15	0x3e3a6546	0.18202695
16	0x3f2f7aef	0.68546957
17	0x3f57ceb2	0.84299767
18	0xbe08e6e3	-0.13369326
19	0x3f081500	0.53157043
20	0x3b8f07fc	0.0043649655
21	0xbf0668d5	-0.5250371
22	0xbe3b7fd3	-0.1831048
23	0xbd3335e3	-0.043752562
24	0xbe9a979e	-0.301938
25	0xbe309bee	-0.17246982
26	0x3d09723a	0.0335562
27	0x3f308a98	0.6896148
28	0xbef202d9	-0.47267798
29	0xbcccee5a	-0.025015999
30	0x3e5ec4a4	0.217547
31	0x3d9e71cb	0.07736548
32	0xbf82ce46	-1.02192
33	0xbf51e67b	-0.8199231
34	0xbef81c93	-0.484593
35	0x3e1e4ef3	0.15459804
36	0x3ccc49f5	0.02493761
37	0xbd120a17	-0.035654154
38	0xbe572a97	-0.2101234
39	0x3e822439	0.2541826
40	0x3f512603	0.81698626
41	0x3f06ab8a	0.526055
42	0xbf3c2e3c	-0.7350805
43	0xbe9b1dfd	-0.30296317
44	0x3f5b6bcf	0.8571138
45	0xbd9f4914	-0.077776104
46	0x3ea7f213	0.32801875
47	0xbe40b1a7	-0.18817769
48	0x3e67c44f	0.2263348
49	0x3f6644a9	0.8994852
50	0x3f6904ee	0.9102315
51	0x3dfdd83a	0.123947576
52	0xbc076869	-0.008264639
53	0x3f3b53fe	0.73175037
54	0x3f5b0c96	0.8556608
55	0xbe7f2cc1	-0.24919416
56	0xbeb65a65	-0.3561584
57	0xbf3be305	-0.7339328
58	0xbde158dc	-0.11003277
59	0xbf3644a1	-0.7119847
60	0x3f13dec8	0.5776181
61	0x3ed793bb	0.42104897
62	0x3e0b6641	0.13613226
63	0x3ed1cfc4	0.40978825

critic.4.weight f4 [1, 64]
0	0xbf062e07	-0.5241398
1	0xbf32a308	-0.69780016
2	0xbdc6e9b6	-0.097125456
3	0x3e83619a	0.25660402
4	0x3eb9e588	0.3630793
5	0x3f016bf3	0.5055534
6	0x3ef32661	0.47490218
7	0x3ee2ae2b	0.44273505
8	0xbec8d97c	-0.39228427
9	0x3ee317fa	0.4435423
10	0xbedcd89d	-0.43134013
11	0x3f09e954	0.53871655
12	0xbf14bffc	-0.58105445
13	0xbe95b862	-0.29242235
14	0xbf37c2da	-0.71781695
15	0xbf5035bd	-0.81332
16	0x3ef374dc	0.47550094
17	0xbe6d30ae	-0.23163101
18	0x3ebe46e2	0.37163454
19	0x3e4ce437	0.20008932
20	0xbee5182a	-0.44744998
21	0xbe7de44e	-0.24794123
22	0xbeb589be	-0.3545665
23	0xbeb4714e	-0.35242695
24	0xbecfdade	-0.4059667
25	0xbf25daa5	-0.6478675
26	0xbe8d750e	-0.27628368
27	0x3e95271f	0.2913141
28	0x3ee1ef1f	0.44127747
29	0x3f1168cc	0.5680053
30	0x3e68ccaa	0.22734323
31	0xbf015415	-0.50518924
32	0xbef17a1a	-0.4716347
33	0x3ecfeefb	0.40612015
34	0xbeb79afd	-0.35860434
35	0xbeb9c6db	-0.36284527
36	0xbeffdc72	-0.49972874
37	0xbea3ab78	-0.31966758
38	0x3f1ee766	0.62071836
39	0xbef28839	-0.47369555
40	0x3ef2a41b	0.47390828
41	0x3dfd6b1d	0.12373946
42	0xbe9e0c2e	-0.30868667
43	0xbf03ab63	-0.5143339
44	0xbf0eb104	-0.55738854
45	0xbf1f8f30	-0.6232786
46	0xbea2f485	-0.3182718
47	0xbe24623d	-0.160531
48	0x3f2ff91f	0.68739504
49	0x3d81cafa	0.06337543
50	0x3eb88d8d	0.36045495
51	0xbed7e553	-0.42167148
52	0x3ebadba7	0.36495706
53	0xbe918360	-0.28420544
54	0x3f03b6c6	0.51450765
55	0xbef48d94	-0.47764266
56	0x3ec2c216	0.380387
57	0xbeff2d25	-0.4983913
58	0xbf056e09	-0.52121025
59	0xbedfcb7c	-0.43709934
60	0xbea40f13	-0.3204275
61	0x3e8413ea	0.25796443
62	0xbebee887	-0.3728678
63	0x3ea56dd1	0.32310346
