Model Results/ppo_sentiment_TSLA2021-12-011999.pth (torch, 50591 bytes, 11 tensors)

actor.0.weight f4 [64, 20]
000000 70 63 31 3f 27 7a 2b 3f a3 72 d0 bd f5 f1 1c 3f
       0.69292355 0.66983265 -0.10178115 0.613067
000010 c0 5e 16 3f 48 3f 8e 3f 9d 13 a1 bf 8d bb 1b bf
       0.5873833 1.1113062 -1.258411 -0.60833055
000020 44 17 b0 3e 8f d4 3e be 6f 62 63 3e 21 3e 6d 3d
       0.3439275 -0.18635772 0.22205518 0.05792058
000030 3a 8a ac bf 00 5d 9e bf 7d b6 21 3f 6a 8b 72 3e
       -1.3479683 -1.2372131 0.6316908 0.23685995
000040 ba c1 a1 3e 3d 81 f0 3e 90 ed 17 bf 92 27 05 be
       0.31593114 0.469736 -0.59346867 -0.13003376
000050 91 9c 73 bf 7b e7 20 bf a2 33 01 bf 73 2c 2b bf
       -0.95160776 -0.6285321 -0.5046941 -0.668647
000060 9b 71 2a bf 83 5f 7c bf dc a3 35 3f e2 e3 cf 3e
       -0.665796 -0.9858324 0.70953155 0.40603548
000070 e3 bb ce 3d b1 e3 7d 3d 13 d4 90 3d 4a 95 e3 bd
       0.1009443 0.06198472 0.070717 -0.11112459
000080 27 54 3b 3f f7 27 9d 3f eb 74 07 3e ea a4 40 be
       0.7317528 1.2277821 0.13228194 -0.1881291
000090 a4 5c 9a 3f 45 9b 85 be 93 1d b3 3f 98 6d a1 3d
       1.2059522 -0.26095024 1.39934 0.078822315
0000a0 3d bf cc 3e 32 2b 2b be 42 41 01 bf 7b db d1 ba
       0.39989653 -0.16715696 -0.504902 -0.0016010845
0000b0 a1 1c af bf f2 29 94 bf c5 e6 15 bf b9 77 88 bf
       -1.3680612 -1.1575301 -0.5855525 -1.0661536
0000c0 1f b5 6f bf 7b 41 0d be fd 54 eb be ca 31 3c be
       -0.93635744 -0.1379451 -0.45963278 -0.18378368
0000d0 10 f2 c9 3e 0b aa 87 3f 40 f8 bf be 08 15 86 3e
       0.39442492 1.0598768 -0.37494087 0.2618792
0000e0 c7 f3 96 3f 7a 64 b2 be 45 ba d6 3e e7 29 8a be
       1.1793145 -0.34842283 0.41938987 -0.26985094
0000f0 01 83 28 bf 24 9c 51 be 2a 00 34 be 78 f4 1a bf
       -0.65824896 -0.20469719 -0.17578188 -0.6052928
000100 b2 54 2f be 64 36 00 bf 78 4a 83 c0 f1 bd 84 c0
       -0.17122152 -0.50082994 -4.1028404 -4.148186
000110 04 ca 80 c0 a7 a8 37 bf a4 31 77 be ed ea b2 be
       -4.02466 -0.7174172 -0.2414003 -0.3494486
000120 67 37 c0 bf 1b 7e bf bf 3a 05 a1 bf 20 10 57 3f
       -1.5016907 -1.4960359 -1.257972 0.8400898
000130 0a 59 a3 be c7 07 42 bf 45 3b 87 bf 7c 84 3b bd
       -0.3190387 -0.7579312 -1.0564963 -0.045780644
000140 4a 8d ab be d8 fb 85 be 44 38 1b bf 88 04 d1 3e
       -0.33506233 -0.26168704 -0.6063273 0.4082377
000150 61 23 ca 3e 41 ce 2c 3e 09 ff ba bf e6 75 71 bf
       0.39480117 0.16875555 -1.460908 -0.94320524
000160 f6 bf 1d bf e2 75 10 3f 2c ae 52 3f c7 06 56 3f
       -0.61621034 0.56429875 0.82297015 0.8360409
000170 35 2b a6 3f a1 2e 4b 3f 33 84 37 3f 3b e4 71 be
       1.2981936 0.79368025 0.71686095 -0.2362222
000180 7c 0e 8d 3f 4e f2 0e 3f 89 53 3e 3e bd 39 12 3f
       1.1020045 0.5583848 0.18586554 0.5711935
000190 ca 5b 2f 3d b7 c7 20 bf 60 3f 24 3e ec 75 fe bd
       0.042812146 -0.6280474 0.160398 -0.124248356
0001a0 f2 0d 83 be 14 9a 86 bd 30 a1 02 40 2a 1b 9f 3f
       -0.25596577 -0.06572357 2.041088 1.2430165
0001b0 48 91 97 3f 42 be 08 3e b6 18 a0 be 60 92 e8 3c
       1.1841211 0.13353828 -0.31268853 0.02839011
0001c0 4c 86 a7 3f bd b9 a0 bf c4 83 83 3e a3 de 91 be
       1.3087859 -1.2556683 0.25686467 -0.2849017
0001d0 bb 2d 1a be b1 ad 62 3f c0 a5 d5 be 97 01 e7 be
       -0.15056507 0.8854628 -0.4172802 -0.451184
0001e0 c4 5a 13 40 ec c8 9b bd 8a 7e 97 be 3f 11 0f bf
       2.302415 -0.07606682 -0.2958873 -0.5588569
0001f0 d3 1e 87 be c1 13 df bd a6 fd a2 c0 98 ba 69 c0
       -0.26390705 -0.1089244 -5.093463 -3.6520138
000200 f1 b1 10 c0 88 e2 05 bf 97 91 6f bc 0d 7f 7e 3e
       -2.2608607 -0.52298784 -0.014622114 0.24853154
000210 be 27 e3 bf 1e 16 13 bf f4 a1 05 3f 08 e1 a4 3d
       -1.7746503 -0.57455623 0.52200246 0.08050734
000220 09 b5 3f be e6 0d d9 3d 07 7a a7 be 60 e2 fa 3e
       -0.18721403 0.10598354 -0.32710287 0.49000835
000230 ad ea 8b 3f 66 1c ad bc d8 42 11 3f 65 cf 2e 3e
       1.0930992 -0.021131705 0.5674262 0.17071302
000240 4f c2 0d be cf c5 49 be 99 24 7a 40 13 ba 7e 40
       -0.13843654 -0.19704364 3.9084837 3.980107
000250 29 25 74 40 c0 af 2d 3f 41 5f 2e 3f 33 8e c6 3e
       3.814768 0.678463 0.68114096 0.38780364
000260 5f 1d f3 3e a9 94 38 be 28 96 c8 3e 17 63 9c 3f
       0.47483346 -0.1802546 0.3917706 1.221774
000270 46 ee 95 be 0b 0c 0c 40 75 9b 7f bf 52 89 d5 3d
       -0.2928335 2.188235 -0.99846584 0.104265824
000280 41 8b 0e bd 8c d1 82 bf 56 9a 4e bf 36 cd 66 be
       -0.03480077 -1.0220199 -0.8070425 -0.2253922
000290 34 45 9e bd 22 eb 45 be c6 6c 1b 40 2e ff fb 3f
       -0.07728043 -0.19327977 2.428514 1.968725
0002a0 33 ac 03 40 03 fa 97 bd 32 a1 c2 3d ec 3f f1 bd
       2.0573852 -0.07420733 0.09503402 -0.1177977
0002b0 67 6e 81 3f f2 d8 87 bf 66 fe 8e bd ee e3 ad 3d
       1.0111817 -1.0613081 -0.069821164 0.0849074
0002c0 bc 54 80 be 21 ea 9d 3f 2e 0d 03 bf f3 bf f5 be
       -0.25064647 1.2337075 -0.51191986 -0.47998008
0002d0 1a 66 dc bf b5 04 89 bf c9 8f 2a bf 57 ce 87 be
       -1.7218659 -1.0704561 -0.6662565 -0.26524612
0002e0 28 bc 3d bf 07 d8 87 bf 07 d9 bd bf 1f 7c e0 bf
       -0.7411523 -1.0612801 -1.4831856 -1.7537879
0002f0 20 5c e0 bf ff 9a e0 be fd 87 85 be cc b4 1f bf
       -1.7528114 -0.43868253 -0.26080313 -0.6238525
000300 79 17 99 3e d0 ab bd 3e 31 5e 85 be 5c a2 ab 3f
       0.2990072 0.37045145 -0.26048425 1.3408923
000310 7f 5d ce 3f e1 f0 d8 3f 21 dd 86 3e e1 8d 98 bd
       1.6122283 1.694851 0.26340583 -0.07448936
000320 89 b9 f6 3e 51 6b e9 be de bd 1a 3f c6 10 09 3f
       0.48188427 -0.45589688 0.60445964 0.5354122
000330 62 a7 ff 3e 65 11 b5 3e f8 cd 7f bf 26 b7 78 bf
       0.4993239 0.35364833 -0.9992366 -0.9715446
000340 91 01 ed be df 1a 42 3e 9f 6d 95 3e 28 c1 d8 3e
       -0.46290258 0.18955563 0.29185197 0.42334867
000350 f4 af a3 bf 8a 7d 49 3e ce a5 81 3e 17 30 7d 3f
       -1.2788072 0.19676796 0.2532181 0.98901504
000360 ba 46 d2 be 68 83 93 be 0e 14 3c bf d3 d7 80 3e
       -0.41069585 -0.28811193 -0.734681 0.2516466
000370 b7 57 bc bd f1 db 1d 3f 8a ba 9d 3f 02 86 31 bf
       -0.09196418 0.6166373 1.2322552 -0.69345105
000380 dc d5 7c bf 6f 43 9d bf 1f 65 26 be ae f7 41 bf
       -0.98763824 -1.2286204 -0.16249512 -0.75768554
000390 53 ef 5d bf 77 6c 9d 3b 92 b3 20 3e f8 ca 0e 3e
       -0.86693305 0.00480419 0.156935 0.13944614
0003a0 f6 9e 91 bd af a3 37 3c 01 16 c3 3c bc b6 7e bf
       -0.071103975 0.011208459 0.023814203 -0.9949758
0003b0 5b 11 ab bf 28 92 85 bf 88 bd d7 be b0 8b a0 3e
       -1.3364671 -1.0435228 -0.42136788 0.31356573
0003c0 2c 8e 82 bf 7b 83 1e bf 46 64 1f bd ad 9d 63 3f
       -1.0199637 -0.61919373 -0.038913988 0.8891247
0003d0 03 fe ad 3f 4e f5 a8 3f 1c d6 db bf 12 68 3c c0
       1.3593143 1.3199861 -1.7174716 -2.943852
0003e0 b5 44 56 c0 d3 eb 17 bf 60 46 12 bf 2b 7b 77 be
       -3.3479435 -0.59344214 -0.57138634 -0.24168079
0003f0 fc 9f 88 3f 44 57 1c 3d fa 06 91 be 2e a4 25 bf
       1.0673823 0.03816916 -0.28325635 -0.64703643

actor.0.bias f4 [64]
000000 e3 d6 70 3c 55 2f 9f bb 40 bf d5 be 4c c4 6c 3e
       0.0146996705 -0.0048579373 -0.41747475 0.23121756
000010 b0 16 22 3f 91 4b b9 bd d1 d1 ce 3e ae 6c 43 bc
       0.6331587 -0.09047616 0.40394452 -0.011927767
000020 7d b1 e1 be 7f 07 14 be 27 98 e0 3e 28 e7 e3 3e
       -0.44080725 -0.14455985 0.43866083 0.44512296
000030 a9 52 dd bd 23 25 21 3f 12 e6 98 3d 03 37 03 3f
       -0.10806782 0.6294729 0.074657574 0.51255816
000040 ff b7 3b be 3b c9 05 3f b7 4e 48 3e 6e a0 ee be
       -0.18331908 0.5226018 0.19561277 -0.46606773
000050 cb b4 21 3f 9e ec 34 be 05 f4 98 3e 9e 8a 0a 3f
       0.63166493 -0.17668387 0.29873672 0.54117763
000060 89 3d f6 3e 90 e3 d5 bd b8 49 08 3e 67 02 0c 3c
       0.48093823 -0.10443795 0.13309371 0.008545495
000070 59 3f be bd 7c ad e3 be a6 76 29 bf 6a 93 d2 be
       -0.09289426 -0.44468296 -0.6619667 -0.41128093
000080 90 54 28 3d 29 c6 92 be 94 8e 56 3f 5e 7e 00 3d
       0.04109627 -0.2866681 0.83811307 0.031370513
000090 ef c1 d9 bd cc 38 a9 be dd db 7b be 0b 83 e8 be
       -0.10632693 -0.33051145 -0.2459559 -0.45412478
0000a0 40 9c 2c be d0 76 e3 3e 52 55 86 be b1 0f a5 bd
       -0.1685648 0.44426584 -0.2623697 -0.080596335
0000b0 d2 b5 25 3e 90 62 0a bf c5 d8 67 3e 6c 95 a6 3e
       0.1618264 -0.54056644 0.22641285 0.32535875
0000c0 5c 76 ce 3e c6 77 90 3e e2 bb 4d 3e 26 48 45 be
       0.40324676 0.2821638 0.20091203 -0.19265804
0000d0 41 90 23 bf e0 0c 1a 3e 37 b4 4c 3b 01 37 8b 3e
       -0.6389199 0.15043974 0.0031235346 0.27190402
0000e0 6d ae 19 3f 87 d6 43 3e b4 e0 e0 be 4b 1d 50 be
       0.6003178 0.19124804 -0.43921435 -0.20323674
0000f0 28 81 ba be 3a c9 0e be d2 6e 1a 3f 4f 21 3a 3f
       -0.36426663 -0.1394395 0.6032535 0.72707075

actor.2.weight f4 [64, 64]
000000 0e 77 89 be 9c 39 09 3f b0 98 3a 3f 62 3c b7 3f
       -0.26848644 0.5360353 0.7288923 1.4315302
000010 2a 0d 79 be 73 06 c9 3d 34 3f dd be 92 8b 6f bf
       -0.24321428 0.09815683 -0.43212283 -0.9357234
000020 db a3 27 3e 44 c9 17 bf cf 6b 36 3e e8 27 7b bd
       0.163711 -0.5929148 0.17814563 -0.061317354
000030 f0 cb e7 be 37 84 46 bf dc 52 b1 3f 9a 4f 70 be
       -0.4527278 -0.77545494 1.3853412 -0.23467866
000040 52 5c 97 3f 30 50 aa 3f dd a0 be 3d 90 df 17 3e
       1.1825049 1.3305721 0.09308026 0.14831376
000050 b0 19 ac 3d 9f 0a a9 3e f0 d2 91 be 1c 7e 2a bf
       0.08403337 0.33015916 -0.28481245 -0.6659868
000060 d0 be 3b be 06 6b 1e 3c b1 3b e4 3e 22 0a f1 3e
       -0.18334508 0.009669071 0.4457679 0.47078043
000070 b2 a2 8d bd 55 60 a9 be d9 5e c7 3e b5 65 98 3b
       -0.06915797 -0.33081308 0.3893955 0.0046507963
000080 9a 83 3f 3f 94 97 87 3e 19 f5 df bd 56 88 52 3e
       0.74810183 0.26482832 -0.109354205 0.2055982
000090 a9 6b f7 bc 9f 39 17 3f f7 23 59 bf 5a d9 dd 3f
       -0.030202704 0.590723 -0.84820503 1.7331955
0000a0 7f 07 39 bf 9b b4 4a bd 70 8a 06 3f d1 58 32 bf
       -0.72277063 -0.049488645 0.5255499 -0.69666773
0000b0 d1 bb d0 3e d6 aa ec bf 61 05 65 be 95 38 61 be
       0.40768293 -1.8489635 -0.22365333 -0.2199424
0000c0 fe 0b f4 3e 33 9a d3 3e e3 d0 7c 3f 40 8d bc 3e
       0.476654 0.41328582 0.98756236 0.36826515
0000d0 f0 ac 02 3f 04 3e c7 3e 81 dc 2d bf 4b 13 9f 3e
       0.5104513 0.38914502 -0.6791459 0.31069407
0000e0 14 8e 81 bf 37 24 c3 3e 1a 94 eb be 80 10 85 3f
       -1.0121484 0.38113567 -0.4601143 1.039566
0000f0 9d 30 fe bb 21 16 0d 3f ef 25 37 bf 3b dc 53 bf
       -0.00775726 0.5511189 -0.7154226 -0.8275792
000100 05 90 3e 3f f5 9d 29 bd 21 47 97 bf f1 d3 db 3e
       0.74438506 -0.041410405 -1.1818582 0.42935136
000110 b0 aa 7b bf ec b8 67 bf 07 85 61 3d d3 3a b4 bd
       -0.98307323 -0.90516543 0.055058505 -0.08800282
000120 1b c9 6a be fb 1e d3 bf 42 93 ec 3d 46 cc 0f 3e
       -0.22928278 -1.649383 0.11551525 0.14042768
000130 42 36 49 3f b3 ac a4 bf a1 92 3c 3e e8 08 c5 3e
       0.78598416 -1.2865204 0.1841531 0.38483357
000140 49 9a 37 3e f2 8d 2c bf e0 d9 4d 3e b9 01 69 3e
       0.17929949 -0.6740409 0.20102644 0.22754563
000150 9b 13 bc 3e 57 86 79 bf 5b 70 14 3f 94 d2 ca be
       0.36733708 -0.9747061 0.5798394 -0.39613783
000160 e3 25 b0 3e 90 b9 7c bf 05 ee 3e 3e 6a e4 ab 3f
       0.34403905 -0.98720646 0.18645485 1.3429081
000170 75 98 dd 3d 4b 16 57 be c0 65 bf be 5c 66 a5 3e
       0.108200945 -0.21004598 -0.37382317 0.32304657
000180 15 b8 ee be de fd a6 3f 18 e8 4a bf af 72 e9 bb
       -0.46624818 1.3046224 -0.79260397 -0.007124267
000190 c8 be f1 3d dd d5 a2 bd fc 3a 8c 3f 00 9b a2 3e
       0.11803967 -0.079509474 1.0955501 0.3175888
0001a0 cc 7f 4b bf bb 72 68 3d af a5 74 3f 12 ff 60 bf
       -0.7949188 0.05675004 0.95565313 -0.87889206
0001b0 ab 21 c1 bf b8 24 c5 3e 9a 4d 0f 3f d2 0b 62 be
       -1.50884 0.38504577 0.55977786 -0.22074822
0001c0 9a e4 a1 bf 1b 56 14 3e ac d2 fe be 1a 70 95 be
       -1.2647889 0.14485972 -0.49770105 -0.2918709
0001d0 91 9f 3a be 2d 7f 77 bf 95 3a 2b 3e c4 e5 19 bf
       -0.18224932 -0.9667843 0.16721566 -0.6011622
0001e0 6c 15 f5 be 0b e0 02 c0 16 0c 96 be 00 27 a6 3e
       -0.47867906 -2.0449245 -0.29306096 0.3245163
0001f0 b0 07 18 3f 93 9a d2 bd 42 32 90 be 52 98 08 bd
       0.5938673 -0.10283389 -0.28163344 -0.03334839
000200 9b c5 05 bf a3 ef ec 3f 9b 4c 23 be 1e 27 55 bf
       -0.52254647 1.8510631 -0.15947191 -0.83262813
000210 f9 48 c3 3e 2e a3 1e bd 02 40 46 bf 5f 1c 0e bd
       0.3814161 -0.03872984 -0.7744142 -0.034695026
000220 8f 02 52 be 0e 74 8d 3f 61 b5 3e bf 89 dd bc bd
       -0.20508789 1.1051042 -0.7449551 -0.09221942
000230 b9 7e 3e 3e 1a 6f 58 3f 24 6a f3 bd 81 98 c4 3f
       0.18603028 0.8454453 -0.11885479 1.535904
000240 6a ed 4a 3e 3b 40 a7 be 3e c3 1c 3f f0 8d 84 bd
       0.19817129 -0.3266619 0.61235416 -0.06472385
000250 7b 62 51 3f c1 dd 91 3d 07 0f b9 be 84 74 09 3d
       0.81790894 0.07122374 -0.36144277 0.033558384
000260 b6 5d e4 bc f7 e1 92 bf 6a 24 52 3e 0a 42 5d bf
       -0.027876716 -1.1475209 0.20521703 -0.8642889
000270 b4 37 8e 3e e1 be 04 be 14 ae 74 3e 10 76 73 3f
       0.27776873 -0.1296344 0.2389453 0.95102024
000280 bd 92 c6 be 9e 1c 23 be 42 ed aa 3e fa 90 08 3e
       -0.38783827 -0.15928885 0.33384138 0.13336554
000290 18 03 42 bf 77 6e 3a 3e f9 70 b5 be 6e 58 42 bf
       -0.7578597 0.18206201 -0.35437754 -0.75916183
0002a0 a7 70 15 be 3e a8 9a 3f f0 10 2f 3e 86 c3 eb 3e
       -0.14593755 1.2082593 0.17096305 0.4604761
0002b0 05 59 32 3f 4d fc a6 3f c4 d7 5e bf 89 7d 40 bf
       0.69667083 1.3045746 -0.8704798 -0.7519155
0002c0 0a 5a ad be 4a 7f 0f bd c1 22 b6 be 63 74 aa 3f
       -0.33857757 -0.0350335 -0.3557339 1.3316768
0002d0 a8 1a 0d 3e 91 5a 34 bf 2c dc 56 3e 39 c2 01 3f
       0.137797 -0.70450693 0.20982426 0.50686985
0002e0 63 1f 2e 3f bc 9e f1 bd 11 af a4 3c fe af dd be
       0.6801664 -0.11797854 0.02010301 -0.43298334
0002f0 7a ae a7 be e4 12 5d bf 45 bd e5 be 19 19 2d be
       -0.32750303 -0.8635695 -0.44870964 -0.16904105
000300 20 d2 b7 be 6d fa 8e 3f c1 41 84 bf 76 4e 92 3d
       -0.359025 1.1170174 -1.0332566 0.071438715
000310 72 47 67 3f c2 1a b6 be 2a ff f4 be a1 f8 02 3f
       0.9034339 -0.3556729 -0.47850925 0.5116063
000320 64 9b 78 be d2 c5 b8 3c 52 01 8f be a5 d0 12 3f
       -0.24278027 0.022555266 -0.27930695 0.57349616
000330 dc 86 30 3e 20 83 29 bf 05 47 ad bf 60 1e 75 3f
       0.17238945 -0.66215706 -1.3537298 0.95749474
000340 15 fc 03 3f ba 14 1e bf a9 80 38 3f 6a c6 7c 3f
       0.5155652 -0.61750376 0.7207132 0.98740256
000350 3a b5 b0 3f ed fd 6e 3f b9 d3 38 be 72 af 18 bf
       1.3805306 0.9335621 -0.18049516 -0.5964271
000360 b8 c3 a4 bf 3a 36 40 bc 99 c1 37 be 3c 3b 8e 3e
       -1.2872229 -0.011731679 -0.17944945 0.27779567
000370 99 b6 93 bf ff 0d 68 3d a2 83 fe 3e b1 74 2d 3e
       -1.1540099 0.056653973 0.49709803 0.16939045
000380 33 c2 f0 3e 4f fa da 3e e4 34 c7 3d 4b 70 ce 3e
       0.47023162 0.42769095 0.09726885 0.40320048
000390 e8 54 38 bf d1 65 1b 3e 4e 9f 1d 3e 17 8f fd 3d
       -0.72004557 0.15175559 0.15392801 0.12380808
0003a0 d0 88 89 3d b3 e5 c1 3f c1 d0 53 be 0a a7 14 be
       0.06715548 1.5148224 -0.20685102 -0.14516845
0003b0 36 0e 77 be 3f dc 2d 3f d7 25 04 bf 61 22 0a bf
       -0.24126515 0.67914194 -0.5162024 -0.5395871
0003c0 5b 53 ba be ee 3d 93 3e 60 a0 45 bd a6 32 86 3e
       -0.3639172 0.28758186 -0.04824865 0.26210517
0003d0 ea 97 0a 3f d0 5c 54 bf 07 4f e1 3e 82 be ae 3e
       0.5413805 -0.8295412 0.44005606 0.3412972
0003e0 cb d4 31 be af 8e 3b 3e 3e 14 ec be 94 fc 26 3f
       -0.1736633 0.18316148 -0.46109194 0.65229154
0003f0 c9 a1 5c 3f 6c 28 60 bf 31 e6 d7 3e 14 b8 b1 bf
       0.86184365 -0.8756168 0.4216781 -1.3884301

actor.2.bias f4 [64]
000000 07 58 b5 be 6a 1a a6 3e fb 5b e8 3e a2 1c 96 3e
       -0.35418722 0.32442027 0.45382676 0.2931872
000010 fd 89 0d 3f 05 d4 95 3d ad 48 be be be c1 ea be
       0.5528868 0.0731583 -0.37164822 -0.4585094
000020 ff ae 9e bd 75 52 63 3e 4c bc 26 3f 02 32 86 be
       -0.077482216 0.22199424 0.6513107 -0.26210028
000030 97 ed c4 3c a3 26 b3 3d 4a b1 72 3e 6f 17 d7 be
       0.024039073 0.08747604 0.23700443 -0.42010066
000040 91 ee 2b bf 39 9c ca 3e 4e b6 0a bf a3 e5 04 be
       -0.671609 0.39572313 -0.54184425 -0.12978224
000050 f2 f3 e0 be 9d 83 a3 3c 4d 52 90 bf 37 97 be 3e
       -0.43936116 0.019960219 -1.1275116 0.37224743
000060 88 ea ee 3d 77 d7 0a 3f b5 22 20 bf a8 e3 fd be
       0.11665827 0.54235023 -0.6255296 -0.4958775
000070 ce 4c a2 be a5 ef 28 bf c9 ee 3c 3e 0c 0f af 3d
       -0.31699222 -0.6599067 0.18450464 0.08547792
000080 4d 4f de 3e 90 6d ae bd 7c 22 c2 be c7 bd 1b 3e
       0.43419877 -0.08516991 -0.37916934 0.15209113
000090 e5 02 87 bd 9e 45 4a 3f ae 50 26 bf d6 ce ca be
       -0.06592349 0.7901248 -0.6496686 -0.39610928
0000a0 81 9b 98 3e 24 33 5f be 45 4e 9a bd 35 f2 18 bf
       0.2980614 -0.21796852 -0.0753446 -0.5974458
0000b0 c1 ee 41 3e 1b a3 de 3e b2 c0 df 3e a8 13 7b 3e
       0.18938734 0.43483815 0.43701702 0.24519217
0000c0 22 c8 04 3f dd 28 33 bf 58 9e 48 3e ea 5d b5 bd
       0.5186788 -0.6998423 0.19591653 -0.08855803
0000d0 2d d3 de be ec 8e 03 be 52 d0 b9 be a6 a7 12 3c
       -0.4352049 -0.12847489 -0.36291748 0.008951103
0000e0 94 73 99 3f 45 b5 0f bf 7a 5b 5f 3f 49 48 b0 bc
       1.1988397 -0.5613597 0.8724896 -0.021518843
0000f0 ef a9 1a bf 6f ca 74 3e 51 1a b7 be f8 9a f6 bd
       -0.6041555 0.23905347 -0.35762265 -0.12041277

actor.4.weight f4 [7, 64]
000000 d5 74 fb bf b0 c1 a7 bf 46 76 4b 40 b9 80 c3 3f
       -1.9645029 -1.3105984 3.1790938 1.5273658
000010 aa 9c 1f 3f 0a 44 6f bf ff 19 94 bf 72 b7 02 40
       0.62348425 -0.93463194 -1.1570433 2.0424466
000020 ed b5 10 c0 f4 13 31 40 41 61 2b 3f f0 46 06 c0
       -2.2611039 2.7668428 0.6694527 -2.0980797
000030 e5 c5 f2 3f a7 b8 f8 bf c9 62 59 c0 2e 08 22 c0
       1.8966643 -1.9431351 -3.3966544 -2.5317492
000040 fd f8 c1 bf 61 e1 8e bf 9c c3 e4 bf d4 0e 84 3f
       -1.515411 -1.116253 -1.7872195 1.0317025
000050 87 1a e4 3d ee 1d c6 bf 45 ee dd bf d4 f9 11 40
       0.11137872 -1.5477884 -1.7338339 2.2808733
000060 d8 3c aa bf fc ea 03 40 c8 97 ec bf 31 c0 51 c0
       -1.3299818 2.0612173 -1.848382 -3.2773554
000070 c5 1e 3e bf af 5f f0 bf 71 c6 55 bf 43 84 b9 3f
       -0.742657 -1.87792 -0.8350592 1.4493488
000080 2e b5 48 40 78 49 f2 bf e0 8a c2 3f 33 26 e6 bf
       3.1360583 -1.8928671 1.5198631 -1.7980407
000090 a5 2f 17 40 37 9e 12 3f 66 9d 00 c0 56 d9 e2 bf
       2.362283 0.57272667 -2.0096068 -1.7722576
0000a0 5e df 32 be 6f 00 22 c0 d8 df e0 3f 94 ea 39 c0
       -0.1746802 -2.5312765 1.7568312 -2.9049425
0000b0 11 56 1d c0 d7 5a 0b bf 0e 49 68 40 15 38 dd bf
       -2.458378 -0.54435486 3.629459 -1.728274
0000c0 2a 78 9a 3f 53 5d 38 bf e5 df 66 be bb 8f 37 c0
       1.2067921 -0.720174 -0.22546346 -2.8681476
0000d0 24 c8 c8 3e f5 4d 83 bf 4e b4 1d 40 43 f0 d4 3e
       0.39215195 -1.0258166 2.46413 0.41589555
0000e0 9e 61 2d 40 34 98 93 3f 48 b3 b3 3e 06 44 87 3f
       2.709083 1.1530824 0.35097718 1.0567634
0000f0 cd 7b 48 bf 2a a4 23 40 60 8e 8b 3f 24 69 df bf
       -0.78313905 2.5568948 1.0902824 -1.7453961
000100 62 cd 99 3f a3 bd 67 bf 4a b7 0c 40 11 2d f0 bd
       1.2015803 -0.9052374 2.198687 -0.11727346
000110 ef 85 a7 3f ef d0 7f bc a0 f5 c1 bf 66 d7 eb bf
       1.3087748 -0.0156137785 -1.5153084 -1.8425109
000120 5e 53 65 3f 07 cc de bf 19 71 d8 bf ab e8 11 bf
       0.89580333 -1.7406014 -1.6909515 -0.5699565
000130 0e 47 69 be 35 3f 2d 3f 9f cf 04 3d 8f a8 ac 3f
       -0.22781011 0.6767457 0.032424565 1.348894
000140 6c 24 13 3e f6 3e 2b 40 ec e4 05 40 b8 e5 7c 3f
       0.14369363 2.6757178 2.0920973 0.98788023
000150 2e 3c e6 3f 22 df a4 bc c4 53 d7 3f b1 2b 75 3e
       1.7987115 -0.02012593 1.6822438 0.23942448
000160 7a 47 1e 40 23 10 07 c0 e5 d3 7a bf f6 26 a7 3f
       2.4731126 -2.11036 -0.97979575 1.3058765
000170 5e b5 c3 3f 71 06 93 3f 95 22 8c be 6b fb ed 3c
       1.5289724 1.1486341 -0.27370134 0.02905055
000180 9b 71 92 bf a0 0f d0 3e 86 cd 17 40 29 35 c9 bf
       -1.144092 0.4063692 2.3719192 -1.5719348
000190 c5 e2 8c 3f 81 27 c6 be c9 d5 bd 3f 8e 2c 9e bf
       1.1006705 -0.38702014 1.4830867 -1.2357347
0001a0 72 79 bb 3f e7 8b a6 3f 1a 99 59 bf d2 bc f7 be
       1.4646437 1.3011445 -0.8499924 -0.48386246
0001b0 6d d2 92 3f 3c 84 8a 3f 24 df 34 bf a5 1e 81 bf
       1.1470467 1.0821605 -0.70652986 -1.0087477
0001c0 ec 70 84 bf 8d 32 ec bf bf e8 be 3f 43 f0 c6 be
       -1.0346961 -1.8452927 1.4914778 -0.3885518
0001d0 e5 62 28 3f 5c 8f 83 3e ae 5d 6f be ad 7b 08 c0
       0.657759 0.25695312 -0.2337558 -2.1325486
0001e0 0e 00 76 bf 64 9b 18 c0 cb 7e 54 3f 0c 5e 82 3f
       -0.96093833 -2.3844843 0.8300597 1.0184951
0001f0 06 fa 1d bf 5d e1 d4 be 3c 15 54 3f 1c 6a d5 3c
       -0.6170963 -0.4157819 0.828449 0.026051573
000200 64 d0 39 3f 0d 7f b1 be df a0 b5 be f9 6c 58 3f
       0.72583604 -0.34667245 -0.35474297 0.8454128
000210 13 ca ae be c6 d9 8b 3e df 4b ac be 54 51 13 bf
       -0.34138545 0.27314585 -0.33651635 -0.5754597
000220 06 f5 66 bf 19 0b 80 3f 1c 98 9b bf a8 7f 39 be
       -0.90217626 1.0003387 -1.2155795 -0.18115103
000230 1f 67 3c be 04 96 94 3e 18 74 0f bd 01 6c 3c be
       -0.18398713 0.29020703 -0.035022825 -0.18400575
000240 3b 82 31 3d 8b 2b 6a 3c ee be bd be 40 73 8f be
       0.043337088 0.014292608 -0.3705973 -0.28017616
000250 ba b6 90 3e 3d a8 22 3f 6e 5b e8 3d 7c 18 46 3e
       0.2826441 0.6353796 0.11345564 0.19345278
000260 da f9 16 3f 59 4c 94 3f 08 2e 91 be 2d 46 b2 be
       0.58974993 1.15858 -0.28355432 -0.34819165
000270 b3 d2 32 3f 23 fe bd be 14 90 77 be cd a6 1a 3f
       0.6985275 -0.37107953 -0.24176055 0.6041077
000280 a6 61 c8 be 30 56 a6 3e 05 d0 d8 3e 55 e4 d6 3e
       -0.39137 0.3248763 0.42346206 0.4197108
000290 57 6e 23 3e 53 e8 99 bf 47 97 0e 3f 82 ff 8b bd
       0.1596006 -1.2024025 0.5569958 -0.068358436
0002a0 e2 3c 8d 3d c1 eb 59 bf f6 90 37 3f 3b 38 da be
       0.06896378 -0.85125357 0.7170557 -0.42621025
0002b0 4b a5 01 3f f5 db 22 3e 3b e4 92 3e 00 06 a9 3f
       0.5064284 0.1590422 0.2868975 1.3204956
0002c0 b0 3e 00 bd 12 43 d3 be 6a 05 03 3f d6 9c c6 3d
       -0.031309783 -0.41262108 0.51180136 0.09697883
0002d0 0c 1f ac be ab e9 2d 3f d5 d1 08 be 4e 19 32 bf
       -0.33617437 0.67934674 -0.13361295 -0.6956986
0002e0 6c 94 d2 bd ae d3 83 be 33 05 55 3f 19 af d3 3d
       -0.102822155 -0.25747436 0.8321106 0.103361316
0002f0 72 9c 47 be a2 48 27 3e f1 4d ff 3d c6 3f 37 3f
       -0.19493273 0.16336301 0.12466038 0.71581686
000300 96 07 ea 3f 5d e3 0a 3f 0b da 95 bf 3d 77 e3 bf
       1.8283565 0.5425318 -1.1707166 -1.7770764
000310 e8 59 fd bf 3b 77 0d 40 85 0f 1f 40 3d b9 eb bf
       -1.9793062 2.2104023 2.4853222 -1.8415905
000320 45 b7 71 3f dd f8 a0 bf c6 7f 06 40 42 c2 01 3a
       0.9442027 -1.2575947 2.1015487 0.0004949906
000330 89 a4 e3 bf c3 53 0b 40 b9 76 22 40 08 85 c0 3f
       -1.7784587 2.1769874 2.5384963 1.5040598
000340 91 4d 45 3e 59 34 7b 3f 3b 28 b0 be c1 b2 bb bf
       0.1926787 0.9812675 -0.34405693 -1.4663926
000350 16 71 11 3e 39 a0 30 40 c7 3c 4c bf 03 b9 e2 bf
       0.14203295 2.7597792 -0.7978024 -1.7712711
000360 c8 77 8b bf 5d 3b ab bf 5f c9 85 3f d5 4c 4f bf
       -1.0895929 -1.3377491 1.0452079 -0.8097661
000370 c6 7e 5c bf 42 6e 68 bf 06 6d 06 40 8d 13 8b be
       -0.8613094 -0.9079324 2.1004043 -0.27163354
000380 29 b2 2b bf ac 7c b0 3f 66 c6 85 be a2 41 a4 3f
       -0.67068726 1.3788047 -0.26127928 1.283253
000390 4d 0c b4 bf 3d a1 8c 3f a0 ab 0d 40 1d 73 b5 3e
       -1.4066254 1.0986706 2.2136002 0.35439387
0003a0 f9 49 04 be 38 5c 02 40 1d f3 48 bf 30 5e b7 3f
       -0.12918843 2.0368786 -0.7849596 1.4325619
0003b0 6a a3 a6 3e e0 82 3e bf bc ce 1c 3e d8 2d eb 3e
       0.3254655 -0.7441845 0.15313238 0.45933414
0003c0 07 e8 93 3e 81 2a 8d 3f 90 9a bb bf ea 62 a8 3f
       0.2888796 1.1028596 -1.4656544 1.3155186
0003d0 6f 75 26 c0 1a 75 d4 bf fa 4a 32 c0 20 01 ea 3f
       -2.6009176 -1.6598237 -2.7858262 1.8281593
0003e0 ba 5a f5 3f 80 2a 41 bf 68 90 9b 3e f8 ae 6a bf
       1.9168313 -0.75455475 0.3038361 -0.9167323
0003f0 70 db 08 c0 4e 45 ed be e6 fe ae bf 45 4e f7 3f
       -2.1383934 -0.46341938 -1.3671539 1.9320761

actor.4.bias f4 [7]
000000 b6 cf d4 3f 57 d9 b3 bc ff b6 42 be 85 11 95 3f
       1.6625888 -0.021954222 -0.1901512 1.1645972
000010 a7 09 c2 3e ad d4 bf 3e 2d 1c ac 3e
       0.3789799 0.37466946 0.33615246

critic.0.weight f4 [64, 20]
000000 22 e3 29 bf 74 4d 41 3f ed 18 ff be 22 1b a5 be
       -0.663622 0.7550881 -0.49823704 -0.32247263
000010 ef 38 8c 3e ae 81 b6 3e 53 66 9c c0 d4 57 9f bf
       0.27387187 0.35645813 -4.8874907 -1.2448678
000020 0a 3e a9 3d 1d 41 19 3f 8f 5f fb 3e 8e c7 e8 3e
       0.08263786 0.5986498 0.49096343 0.45464748
000030 b2 17 7b bf 52 b4 df bf 7b 61 1c 3f 43 83 34 bf
       -0.9808303 -1.7476904 0.61086243 -0.7051279
000040 d7 2d 40 3f 18 9c a0 bd 59 4d 88 bd 83 f9 1c 3e
       0.75069946 -0.078422725 -0.06655378 0.15329556
000050 3a e3 79 3e e7 85 87 bf 36 dc 6a 3d 52 90 3c 3f
       0.24403086 -1.0587739 0.057338916 0.73657715
000060 6a 4e 11 3f e5 5a d0 3e 8a 97 f9 3f 0e c2 dc 3f
       0.56760275 0.40694347 1.9499371 1.7246721
000070 9c ab de 3f 80 40 1d 3f 8b 41 e6 3e 94 6c f3 3e
       1.7396121 0.61426544 0.4497188 0.47543776
000080 40 f9 86 3f ec 33 d5 3f 5d 4e 25 3f 9b f1 2c c0
       1.0544815 1.665647 0.645727 -2.7022464
000090 97 26 41 3e 32 aa 18 3f 1b 15 cd be 64 26 dd 3e
       0.18862377 0.596347 -0.40055165 0.43193352
0000a0 01 1b 92 3f 9c 35 2a 3d 9f a3 9a bf 08 cc c0 3f
       1.1414491 0.041555032 -1.2081183 1.5062265
0000b0 ca e9 da 3f 58 d7 cd 3f 87 92 9f c0 98 c5 91 c0
       1.7102597 1.6081343 -4.9866366 -4.5553703
0000c0 db 95 8f c0 02 b1 ce bf d9 83 7d bf 78 e1 41 bf
       -4.487043 -1.6147768 -0.9902931 -0.75734663
0000d0 21 4a f7 be dc 10 0d be 9d 02 d5 bd 73 ce ec 3e
       -0.48298743 -0.13775963 -0.10400889 0.46251258
0000e0 a6 34 a9 3f 3b 9f b1 3f f5 16 fc bd 45 b4 67 3e
       1.3219192 1.3876718 -0.12309066 0.22627361
0000f0 b9 db c6 3e df 83 0b 40 d9 02 40 be d7 ce 2d bf
       0.3883951 2.1799238 -0.18751086 -0.6789374
000100 aa 03 2a be a0 39 0b 3f 49 16 c0 3f 0f 60 68 3f
       -0.1660296 0.54384804 1.5006801 0.90771574
000110 2b 2c cc 3f b8 27 8d 3f 71 b2 4c 3f 6f 1c e4 3e
       1.5950979 1.1027746 0.7995978 0.44552943
000120 fa a0 89 3f c3 36 4f 3f 34 75 aa 3d 00 53 a1 bf
       1.0752251 0.80942935 0.08323136 -1.2603455
000130 38 66 9c bf db b4 b8 bf 59 80 bc 3f 89 15 03 3f
       -1.2218695 -1.4430193 1.4726669 0.51204735
000140 ff 69 fe 3f 3f c0 f0 3f b1 1f 11 3f 36 71 05 3e
       1.9876097 1.8808669 0.5668898 0.13031468
000150 28 bd 6f bd 00 ae aa 3e 9e e8 43 bf 4f 2e 48 bf
       -0.058530003 0.33335876 -0.7652682 -0.7819566
000160 82 98 4e bf 17 d5 87 bf 20 38 42 bf ee dc 1e bf
       -0.8070146 -1.0611905 -0.7586689 -0.6205586
000170 6a cd 4f 3f c2 69 4e be 1b 21 12 bf ac c3 e6 3f
       0.8117281 -0.20157531 -0.57081765 1.8028464
000180 de 67 8e be fa 2d a7 3e b1 f7 90 be 97 af fd be
       -0.2781362 0.32652265 -0.28313974 -0.49548027
000190 d3 2e 2c 3f 25 b2 95 bf d9 c3 d5 3f 13 46 e9 be
       0.6725895 -1.169499 1.6700393 -0.45561275
0001a0 d2 b8 52 bf b1 90 72 bf ea 10 1c 40 ac 4b 8c 3f
       -0.82313263 -0.9475203 2.4385324 1.0960593
0001b0 8d 7b 3f 3f 1b 73 ea be b8 b0 a8 bd 9c af 54 be
       0.747979 -0.45790944 -0.082368314 -0.20770115
0001c0 a9 6e a8 3f 42 4d b7 be dd b7 10 bf 8d d4 69 3f
       1.3158771 -0.3580113 -0.56530553 0.9133995
0001d0 99 34 a6 bf 77 3a 3a 3f 18 6f 00 bf ed bc 8f 3e
       -1.2984802 0.7274546 -0.50169516 0.28073826
0001e0 1b 70 db bf ea e7 06 bf a5 66 67 3f a1 0b 77 3e
       -1.7143587 -0.5269762 0.90391 0.2412553
0001f0 9b 06 d3 3e ff 72 32 3f db 11 b5 3f 91 ca 3b 3f
       0.41215977 0.6970672 1.4146074 0.73355967
000200 23 49 94 3f 4e f1 ba 3e 84 0c 61 3f c9 76 47 3f
       1.158482 0.36512226 0.8790972 0.77915627
000210 4a 75 24 3f 56 0d 22 3f 5e 8d c3 be f1 df b3 3d
       0.6424147 0.633016 -0.38193792 0.08782948
000220 76 5b 51 bf 3a 8f d5 bf cd cb d9 be e1 7b 28 3d
       -0.81780183 -1.6684334 -0.425383 0.041133765
000230 f7 04 bb bf 95 ce c2 be d9 ae 58 3f c2 13 a8 bd
       -1.461089 -0.38048235 0.84641796 -0.082068935
000240 d6 e3 f1 bd 1b 86 39 bd ae c8 32 bf ed b9 94 3f
       -0.118110344 -0.04529391 -0.6983746 1.161924
000250 ab 2a 1a 3f 07 99 21 bd db 0a 80 3d 06 1f 2c bb
       0.60221356 -0.03945258 0.062520705 -0.0026263609
000260 7d ff 03 c0 39 96 98 3e 68 6b 68 3e 28 4b 41 3e
       -2.0624688 0.2980211 0.22697222 0.18876326
000270 9a 05 04 c0 94 22 bc 3e 0f 6a 40 be 43 61 ce 3d
       -2.062842 0.3674513 -0.18790458 0.10077145
000280 01 a2 bb be 20 e4 42 3f 08 3b 36 bf 73 77 3e bf
       -0.36647037 0.7612934 -0.71183825 -0.74401015
000290 01 41 a6 3e 0a 62 5c 3e ac e5 28 40 12 5b 87 40
       0.3247147 0.21521774 2.639018 4.229867
0002a0 4e 29 c3 40 01 90 6a 3f 56 57 5f 3f eb f0 28 3f
       6.098792 0.9162598 0.8724264 0.6599261
0002b0 d3 13 52 3f 7a fa cc bf 78 46 3c 3e 79 12 f6 3e
       0.820615 -1.6013939 0.18386257 0.4806097
0002c0 3a 02 08 bf 17 cd c0 be e3 4f 2e 3f c7 0e 9c be
       -0.531284 -0.3765647 0.6809065 -0.30480024
0002d0 0e 0e 74 be c1 b0 ca 3b 89 58 e4 3e 33 a8 92 bf
       -0.23833486 0.0061856215 0.44598797 -1.145758
0002e0 bb ba 55 3e 1b f4 99 bd de ef 9a 40 93 4d 4a 40
       0.20872013 -0.075172625 4.8417807 3.1609848
0002f0 92 ef 23 40 e8 a6 77 3f 24 70 3a 3f 5b 8c 0d 3f
       2.5614972 0.96739054 0.72827363 0.5529229
000300 73 4f e1 3e 53 65 b6 bf 97 63 59 3f 6a 6b 86 bf
       0.44005927 -1.4249672 0.8491759 -1.050153
000310 6f 1a e4 3e 31 e5 b3 3f c1 6e 60 bd 84 29 47 3c
       0.44551417 1.4054319 -0.054793123 0.012155894
000320 37 ee 11 c0 96 b5 26 bf f5 8b 70 bd 07 5b 01 40
       -2.2801645 -0.6512083 -0.058727223 2.0211809
000330 9e ec ec 3f bc d7 36 3f b7 dd 35 40 69 23 7e 40
       1.850971 0.71422935 2.8416574 3.9709113
000340 85 5f 53 40 4b 18 d6 3f ce 22 bc 3f a9 0f 9b 3f
       3.302705 1.6726164 1.4698122 1.2114154
000350 d0 a2 01 bf b7 6b e3 be 6d 9e 9d 3f 60 6b a9 3e
       -0.5063906 -0.44418117 1.2313973 0.33089733
000360 8a 0c a7 3b 06 d5 9c 3f b5 e7 eb bb e8 86 c1 3e
       0.0050979303 1.225251 -0.0071992525 0.37798238
000370 fc f8 bf 3a aa 18 5c bf bf d4 3b bf 68 76 53 3f
       0.0014646347 -0.85975134 -0.733715 0.8260255
000380 8e 8d 70 3f d0 03 79 3f 10 1f f3 bf 8f b8 d0 bf
       0.93965995 0.9727144 -1.8993855 -1.6306323
000390 52 c0 f0 bf fb 1d 53 bd 7e e1 1a 3d b0 ea 99 b8
       -1.8808692 -0.051542263 0.037812702 -7.3393225e-05
0003a0 22 16 b1 3e a8 fe bb bf 21 98 eb 3e 5b 9c 0b c0
       0.34587198 -1.468709 0.46014503 -2.1814182
0003b0 98 48 c9 bf 5c 61 b1 be 25 bf bc 3d 8d e3 02 be
       -1.5725279 -0.34644592 0.092161454 -0.12782116
0003c0 f4 ee fe 3e 39 64 b9 bb ee a8 07 3e 82 c3 63 bf
       0.49791682 -0.0056576994 0.13248035 -0.88970196
0003d0 74 c5 7a bf c3 a3 ab be 5f 5b 8c c0 4c ae ae c0
       -0.9795754 -0.33523378 -4.3861537 -5.4587765
0003e0 3d 24 bb c0 21 91 2b be 6f 53 fd 3d 7e 65 94 3e
       -5.8481736 -0.16754581 0.12369429 0.28983682
0003f0 a5 b2 57 3f cd d7 83 ba e2 41 3b 3f d1 a7 ee be
       0.84256965 -0.001005882 0.73147404 -0.4661241

critic.0.bias f4 [64]
000000 5a 91 d8 3e fd 43 ba 3e ab a8 23 3e 66 85 05 3f
       0.42298394 0.36379996 0.1598231 0.52156675
000010 b8 d7 f1 be b1 79 94 3e b6 cc 46 3e 5d 1d e5 3e
       -0.47234893 0.28999093 0.19414029 0.44748965
000020 25 ae 0e bf f3 08 cb 3e df 15 31 3f 60 31 e0 bd
       -0.55734473 0.39655265 0.69174 -0.109469175
000030 b2 62 9a 3f f1 69 38 bf c8 80 5b 3f fb dd a5 be
       1.206137 -0.72036654 0.8574338 -0.3239592
000040 b4 e5 55 bf 2a 07 a6 3e bd f6 dd be c1 cc 71 bf
       -0.83553624 0.3242734 -0.4335231 -0.94453055
000050 32 e5 44 3e 6f bf 45 bf 57 09 86 be 5a fd 8a be
       0.19228056 -0.7724523 -0.26179 -0.27146417
000060 12 08 78 bd 28 ed eb bd 73 f5 09 3f 33 b9 b8 3d
       -0.06055457 -0.11519843 0.5389015 0.09019699
000070 ca f5 a7 3e fa 29 af be 35 f3 73 3f 51 b1 10 bf
       0.3280471 -0.34211713 0.9529298 -0.56520563
000080 7d eb b6 bd e1 d7 57 3f d9 5b a1 3e 9d b3 1e bf
       -0.089316346 0.8431378 0.31515387 -0.6199282
000090 3c 18 e9 3d e6 91 08 3e d8 2a 48 3d f6 19 80 3f
       0.113815755 0.13336906 0.048868984 1.0007923
0000a0 22 da e7 3e f4 d5 f0 3e 9f 1e 5c bf 08 27 9d bf
       0.4528361 0.47038233 -0.85984224 -1.2277536
0000b0 b6 62 4d be a4 fd 06 3e 42 0f e1 3e e3 8b a4 bf
       -0.20057186 0.13182694 0.43956953 -1.285519
0000c0 ef 82 25 bd e5 23 96 3e 63 27 b3 3e 80 f3 07 bd
       -0.04040807 0.2932426 0.34990987 -0.033191204
0000d0 e2 dd 98 3f aa b3 82 3e 0d a2 1b be 42 42 8c bc
       1.1942713 0.25527698 -0.15198536 -0.017121438
0000e0 da a4 a1 be e7 80 83 bc 25 f7 ba 3d fc 50 58 3c
       -0.31571084 -0.016052676 0.0912917 0.013202902
0000f0 47 0a f6 bd 1f ff e3 be ce d2 3d bf a6 da 7d 3f
       -0.12013679 -0.4453058 -0.7414979 0.99161756

critic.2.weight f4 [64, 64]
000000 f0 d1 5c bf b5 42 1b 3e 65 32 96 bf 92 56 b3 3e
       -0.8625784 0.15162165 -1.1734129 0.35026985
000010 2e e2 6f 3e 7d 00 8c 3d 01 64 4a 3f a5 c9 6d bd
       0.23426124 0.06836031 0.79058844 -0.05805363
000020 90 2a c9 3f f3 22 81 3e b1 64 9a 3e 55 83 00 40
       1.5716114 0.25221977 0.30154946 2.0080159
000030 97 4e a5 3d 10 27 46 3f b1 8d d4 3e 04 f0 19 bf
       0.080716304 0.77403355 0.41514352 -0.6013186
000040 be 5a bb bf 4b e8 70 3f 1d 7d 5b bd 5e 61 ce 3d
       -1.4637067 0.9410445 -0.053586114 0.10077165
000050 83 1e 0f bf d9 cb 3a be 8e 1f 95 3d 96 49 4f bf
       -0.5590593 -0.18241824 0.07281409 -0.8097166
000060 79 db 16 be cd 43 f5 3e 07 1b 58 bf d8 44 ba be
       -0.1473216 0.4790329 -0.8441624 -0.3638065
000070 ba 26 7b bf a4 65 5e 3e d6 65 10 bf 44 0f 26 40
       -0.9810597 0.2171846 -0.5640539 2.5946817
000080 7f 91 40 bf 92 8c 9d bf b6 fa ac bf 13 d7 98 be
       -0.7522201 -1.2308524 -1.3514011 -0.2985159
000090 e8 62 cf 3e 09 09 2e bf c6 d7 08 be c4 28 d2 3d
       0.40505147 -0.67982537 -0.13363561 0.10261682
0000a0 3d 5f 59 bf f3 d1 02 3f be 37 1d 3f df cd 9a 3f
       -0.8491095 0.5110161 0.6141318 1.2094077
0000b0 2c 98 5f bd 25 76 c2 be 49 95 89 bf ae d6 57 3e
       -0.05458848 -0.37980762 -1.0748683 0.21077988
0000c0 d1 e5 b2 bf 00 47 ae bf 47 36 a3 be 00 4a 2c 3e
       -1.3976384 -1.3615417 -0.31877348 0.16825104
0000d0 56 29 80 bf ae 2d 89 3d 6b 32 72 3d 81 52 38 be
       -1.0012615 0.06698166 0.059130114 -0.18000223
0000e0 61 f6 96 3e 4d cb 4d bf 44 1f bc 3f 38 18 b1 bf
       0.29484847 -0.8038834 1.4697042 -1.3835516
0000f0 9e 8e 41 3f bf 93 0b 3f b7 42 f5 3e b5 0c e5 3d
       0.7560824 0.5452232 0.47902462 0.11184064
000100 56 43 b6 bf 1a c7 62 bf ef ac db be 0b b3 f2 be
       -1.4239299 -0.88585055 -0.42905375 -0.47402224
000110 eb 5b e1 3d 3a c9 13 be 58 23 30 c0 f2 99 6b bf
       0.1100386 -0.1443223 -2.7521572 -0.92031777
000120 c0 d4 62 bf 6b 65 43 3f be 25 01 be da a5 c0 be
       -0.8860588 0.76326627 -0.12612054 -0.37626535
000130 a7 10 a9 3e e7 3d 0c 3f 28 f7 2f bf 37 bd c3 3f
       0.33020517 0.54781955 -0.68736506 1.5292119
000140 14 31 9f 3f 29 a7 13 3f 4c 8f c4 3f f5 21 69 3f
       1.2436852 0.5767694 1.5356231 0.9106744
000150 91 cb 8b 3f 60 a9 71 3f 1a e9 50 be db 08 83 3f
       1.0921499 0.9439907 -0.20401421 1.0237077
000160 dd 93 c4 3f ee 20 94 3f f1 66 a4 be c8 33 d8 3e
       1.5357624 1.1572549 -0.32109788 0.42227006
000170 95 bc 36 bf 2e 9d 4e bc 98 1f 92 be 95 02 14 bf
       -0.71381503 -0.012610717 -0.2853973 -0.5781644
000180 8c 0f a1 3e 0c 57 87 bf 3e 38 46 3e 3d 65 35 bf
       0.31457174 -1.057344 0.19357392 -0.708576
000190 22 33 5e 3f 2a c9 14 3f 48 ce 7b bf ea e9 2d 3e
       0.8679677 0.5811945 -0.98361635 0.16983762
0001a0 ac f0 4d 3f b9 f4 f1 3e a5 7a 72 3c d9 30 6e 3f
       0.8044536 0.4725702 0.014799749 0.93043286
0001b0 10 88 46 bf 1d 8d c8 be b1 e7 b9 bf aa a3 8c bf
       -0.77551365 -0.3917016 -1.4523832 -1.0987446
0001c0 db f4 a6 bf 8d fe 5a 3e 1b df 78 3e 1a 8c 2f 3d
       -1.3043474 0.21386166 0.24303858 0.04285822
0001d0 87 db 11 bf f8 98 1e bf fd 15 52 3e 8c 37 e8 be
       -0.569756 -0.6195216 0.205162 -0.4535488
0001e0 96 b1 c3 bf ea 47 2a 3f 1f 14 f7 3e 44 ce 3f 3f
       -1.528857 0.6651598 0.4825754 0.7492411
0001f0 d2 b5 98 3e 42 97 5e 3f 43 93 d7 3f 86 f8 43 bf
       0.29826218 0.8694955 1.6841816 -0.7655109
000200 78 03 25 bf ff 68 a1 be d3 11 a8 3f bf 6e 15 bf
       -0.6445842 -0.31525418 1.313044 -0.5837211
000210 3d 47 0d be 98 f9 2d bf 13 94 c3 3e 52 77 11 3f
       -0.13796706 -0.67958975 0.3819891 0.56822693
000220 56 ae b3 bf d4 30 d2 bf 40 4a a5 be 2d ba b0 3f
       -1.4037578 -1.6421151 -0.3228321 1.3806816
000230 98 e0 a9 3d 40 b1 63 3f 14 c9 8d 3e a6 24 4c bf
       0.08294791 0.8894234 0.27692473 -0.7974342
000240 6e 65 5b 3d d6 af a9 3d 3f 39 bd 3c 55 ee f4 3d
       0.053563528 0.08285491 0.023098586 0.11959521
000250 1d a8 d9 3f 24 9d 76 3f dc fc f9 bd b5 ea b4 be
       1.7004429 0.9633353 -0.12206432 -0.35335317
000260 ab 2a 00 40 f2 13 47 3f f4 e5 bb bf 7b 9d 49 bd
       2.0026042 0.7776481 -1.4679551 -0.04922245
000270 5a 1a 7c 3f ca 8b 9e 3e 98 f8 6e 3e a8 12 96 3e
       0.9847771 0.30966026 0.23337018 0.2931111
000280 75 b2 59 bf 14 03 96 bf 4f 80 a2 be 4b f3 86 bc
       -0.8503793 -1.1719689 -0.31738517 -0.016473433
000290 25 90 d4 be 55 e1 ad be 97 0f 2c bf d5 a1 93 bf
       -0.41516224 -0.33960977 -0.6721129 -1.1533762
0002a0 b5 82 db be cb 1b d5 3c b9 7a 10 bf 5d 21 68 3e
       -0.4287316 0.02601423 -0.5643726 0.22668977
0002b0 09 2d 48 3e 5a 75 0b bf 2c 58 2b bf 7f ca 40 3f
       0.1954843 -0.5447594 -0.66931415 0.75308985
0002c0 98 69 09 c0 76 55 4f 3f 1c 36 c8 3e d0 e3 1d 3f
       -2.14707 0.8098978 0.39103782 0.6167574
0002d0 53 e5 5d 3e 69 66 86 bf 0d 14 02 bf 6b b6 84 3f
       0.21669511 -1.0500003 -0.50811845 1.036817
0002e0 ff 56 01 3f c4 12 1a bf f9 9e 31 3d 8d 3e e5 be
       0.5052337 -0.60184884 0.0433645 -0.44774285
0002f0 40 9b 33 3e 6c 02 70 3f a6 1b af 3e 84 96 d2 be
       0.17539692 0.93753695 0.34200782 -0.4113046
000300 05 44 c5 be f0 c6 9e be ba 13 aa bf 04 fa 36 bf
       -0.38528457 -0.31011152 -1.328727 -0.71475244
000310 5d c5 ae be a6 6b 62 be cd cb 4e 3f 48 f9 c3 be
       -0.3413495 -0.22111377 0.80779725 -0.38276124
000320 7e dd 58 3f 93 8c c3 bd 48 bc 59 3d 96 22 9a 3e
       0.8471297 -0.09548297 0.053158075 0.30104512
000330 f5 d3 6a 3e 74 bd 99 3f b9 c9 e6 be 09 e3 b0 3e
       0.22932418 1.2010942 -0.45075777 0.34548214
000340 44 76 c1 bd 4c 8b 0f bf af ed 3d 3f 13 ab 31 3e
       -0.094463855 -0.56071925 0.741908 0.17350416
000350 f5 ce 10 40 8c 53 c8 bd 25 ef 5e be de ef a7 3f
       2.2626317 -0.0978156 -0.21770914 1.3120077
000360 e0 43 c6 be 1f 42 88 bf 14 20 cd bf ca 6c c9 3e
       -0.3872366 -1.0645179 -1.6025414 0.39340812
000370 cc fb ab bf 62 7c 7a 3e 90 c2 76 3f fb 36 f8 bd
       -1.3436217 0.24461511 0.9639063 -0.12119862
000380 9a 13 1a bf de d4 0b c0 99 22 54 3e 55 40 81 3f
       -0.6018616 -2.1848674 0.20716323 1.0097758
000390 46 76 cc 3f a2 06 0e 3c 8a ca f2 bf 22 d8 1f 3f
       1.5973594 0.008668574 -1.896806 0.6243917
0003a0 90 3e 74 3f da 4d 41 3f cd a6 4d bf 19 de a8 3d
       0.9540796 0.7550942 -0.8033264 0.08245487
0003b0 08 f0 c8 3e fb dc 8e be 11 42 4d bf 71 f3 e0 be
       0.3924563 -0.2790297 -0.80178934 -0.4393573
0003c0 75 03 92 3e ce f6 bb 3d 5b e6 c5 be 89 98 1c be
       0.28518263 0.09177934 -0.3865231 -0.15292563
0003d0 3e ea 81 bf 69 d2 ac bd 27 aa 54 be 62 e3 27 bf
       -1.014961 -0.0843857 -0.20768033 -0.65581334
0003e0 75 a1 34 3f 90 9f f8 be 15 c4 20 3f a9 f3 fe 3e
       0.70558864 -0.48559237 0.627992 0.49795273
0003f0 29 61 bb 3e d5 4d 8d bf 6d e7 ae 3f af 75 20 3e
       0.36597565 -1.1039377 1.3664376 0.15669893

critic.2.bias f4 [64]
000000 d6 cc c4 3e ab 8b cc bd 03 54 43 bf 11 07 79 be
       0.38437527 -0.09987577 -0.76300067 -0.24319102
000010 8e 4f dd 3e 91 84 95 3d 3f 8d fc be b9 37 d1 bd
       0.43224758 0.07300676 -0.49326512 -0.102157064
000020 d2 96 46 bf ec a4 85 3e e7 3d a3 be 97 9d ed 3f
       -0.77573884 0.26102388 -0.31883165 1.8563718
000030 d7 02 d3 be 84 a3 c1 3d 9c d2 e5 be 07 c3 3e be
       -0.41213104 0.09455016 -0.44887245 -0.18629085
000040 12 8a bc 3f e4 72 7a 3e df c2 05 bf 7b 34 0d 3f
       1.4729636 0.2445789 -0.52250475 0.55158204
000050 cc 42 6a 3f 63 98 6f 3f bc df 2a bf cf 7e 8d bd
       0.91508174 0.935919 -0.6674764 -0.069089524
000060 2d ed e8 3e be 8a ce be 55 7d c8 3d 88 c9 dd bf
       0.4549345 -0.40340227 0.0978953 -1.7327127
000070 2a fa 0b bf 67 2f b9 bf b7 3c 85 bf 62 2e e9 be
       -0.54678595 -1.4467591 -1.0409154 -0.455432
000080 11 e8 8b bf ea 37 90 3d 74 9d e7 bd 77 e6 a3 bd
       -1.0930196 0.07041915 -0.11309329 -0.08002942
000090 e0 07 d7 be 4d 2f f7 be 4a 1b 4d bf 05 0a 5c 3e
       -0.41998196 -0.48278275 -0.80119765 0.21488197
0000a0 be b6 71 3e 22 8f 3d bf a6 23 08 bf de de 6d be
       0.23604867 -0.7404653 -0.53179395 -0.23229548
0000b0 ad 97 78 be ff 81 4a 3e da a8 1e 3f 27 29 b0 bd
       -0.2427661 0.19776152 0.619764 -0.08601599
0000c0 db d1 0c bf c8 8c 02 3f ce 26 34 3e 27 7c bc 3e
       -0.55007714 0.50996065 0.17592928 0.3681347
0000d0 2b 51 0f bf 28 9d 5b be ec 50 8e be f4 75 27 bf
       -0.5598323 -0.21446669 -0.27796113 -0.6541436
0000e0 9f b2 11 3f 88 84 82 be c6 89 56 3c a9 3c 04 bd
       0.5691318 -0.25491738 0.013094371 -0.032284413
0000f0 b7 81 8a bc 36 9d a9 be 00 fe 86 3e 52 81 52 bf
       -0.016907556 -0.33127755 0.26365662 -0.8222858

critic.4.weight f4 [1, 64]
000000 22 d8 ba 3e 69 ca a6 be fe 7f de 3e cf 80 d3 3e
       0.3649302 -0.32576302 0.43457025 0.4130921
000010 65 f0 c1 be 89 cf ee 3e ec c4 cf 3e 00 dd e5 be
       -0.3787872 0.46642712 0.40579927 -0.44895172
000020 2d 00 cb 3e fc c1 f6 3e fe a4 ae be 9b 0a ef be
       0.39648572 0.48194873 -0.34110254 -0.4668778
000030 53 69 b8 3e 4b 8d 91 3e 31 93 c0 be f9 9b c8 3e
       0.36017856 0.2842811 -0.37612298 0.39181498
000040 73 2e 95 3e 76 bb cc be 2b 82 78 3e 4f 76 90 3e
       0.29137 -0.3998677 0.24268405 0.28215262
000050 8e b4 6c be 5e 8e c7 3e b5 d1 77 be cc a3 05 3f
       -0.23115751 0.38975805 -0.2420109 0.5220306
000060 b9 f2 8e 3e 99 a7 b2 be 91 f0 aa 3e 81 bc e1 be
       0.27919558 -0.34893492 0.33386663 -0.4408913
000070 bf b1 60 be 1d 00 b6 be 28 e6 a1 3e f8 14 ea 3e
       -0.21942805 -0.3554696 0.31620908 0.45719123
000080 ad df fb 3e 73 53 b7 3e 03 19 b4 3e dd 03 b9 3e
       0.4919409 0.35805854 0.35175332 0.3613576
000090 08 d3 92 be 94 ab b5 be 40 84 d8 be b0 d0 a8 3e
       -0.2867663 -0.35482466 -0.422884 0.32971716
0000a0 25 5d a1 3e 1e fd fa be bd f9 c2 be a1 97 b1 be
       0.31516376 -0.49021238 -0.3808116 -0.34685996
0000b0 d9 7b a0 3e dc 09 98 3e c2 c2 d9 3e 7b b1 ce be
       0.31344488 0.29695022 0.425314 -0.40369782
0000c0 f4 ba b1 be db 47 81 3e ad b5 91 be cb 84 a3 be
       -0.34712946 0.25250134 -0.2845892 -0.3193725
0000d0 41 4a 03 3f f0 b3 f1 3e 57 5a b4 be e3 e1 bc 3e
       0.5128518 0.47207594 -0.35225174 0.36891088
0000e0 f9 c5 22 bf 64 83 04 3f 30 91 c8 3e 77 56 9e 3e
       -0.6358333 0.51762986 0.3917327 0.30925342
0000f0 6b 98 92 be 5f 50 f2 3e 0c 52 15 3f 19 8a 8d 3e
       -0.2863191 0.47326943 0.5832832 0.27644423
