Model Results/ppo_sentiment_AMC2021-12-011999.pth (torch, 50577 bytes, 11 tensors)

actor.0.weight f4 [64, 20]
00000000: d2c2 e33e cf8e c1be 1a12 40bf 27ca 25bf
00000010: 7db2 82bf dd40 c5be f817 b23f b00d 783f
00000020: 420e 793f 0fd4 ef3e 7386 793e 3c42 833e
00000030: c7c4 33bd 8857 193e 4a36 f7be e16c 0abf
00000040: ffc6 a9bf c09c abbf a710 3e3d 2672 a23e
00000050: 6fdf d8be 0bff 9f3e d04e 82bf 8765 1b3e
00000060: 8c03 c23e 2cb2 c33e 6b6f 88c0 28c1 0ec0
00000070: 037a 3dbf ccee 623e 8b2f b73e f340 ac3e
00000080: 367c b7bf c706 3ebf 85dc a93e 492a 96be
00000090: 93d8 3ebf a95a 8cbf a34e be3e 6e4a c73d
000000a0: 244d be3e 38e1 0bbe 780d 383f b7bf 88be
000000b0: d28e dfbe 9c52 b6be e926 00c0 692b 1dc0
000000c0: f1c7 22c0 5440 2f3c 5cc1 923d 7f87 ae3e
000000d0: 5fba 273f bf33 353f 501f 303f 88c8 ce3f
000000e0: 1a31 6a3e e20a ca3f 2c0d 963e 665e f9bd
000000f0: 37db 323f 66d1 97bf 0638 383e db3a 153d
00000100: 8891 973e 9ff5 2d3f 3f61 3c3f 16e6 bf3f
00000110: ce75 bb3f c043 013e 3452 8f3e a845 1b3f
00000120: 574b 363f eb99 693f fa61 873e 720c b5be
00000130: 5801 a7bf 7c55 30bf f13e 34be 7f98 c3bd
00000140: d2d0 103e 14cf a53f 8962 5e3f a065 db3e
00000150: 2906 df3d fc29 bd3e 066e 3340 fa2c 5a40
00000160: 442d 4940 3f31 ec3e 85f5 133f 99e6 073f
00000170: c2a5 963f f68c eb3f 8fdb f13d 32a7 a73f
00000180: 5ce3 1b3c d997 03bf 09e9 1c3d cc57 9c3d
00000190: aa21 babf 9085 5bbf a1bd 34bf c9dd 453e
000001a0: 4b59 883f ce3f 6a3f 6045 c43f 35e4 f33f
000001b0: de66 0b40 8e47 50be a2cd 2e3c 2bac 6cbe
000001c0: aa7e 17be 2f32 83be 21c3 70bf c2e0 763e
000001d0: b71d 8cbf 3a64 57bf 380d a6be 06d3 7abe
000001e0: d120 963f c5f3 113f 85cb 953f f768 0f3f
000001f0: 3977 093e cfb6 e83e 858a 9c3f 30c3 b63f
00000200: 2ec2 6a3f 0d3d 823f 69b7 813f 3816 473f
00000210: eb32 343e 79a9 2b3f 0715 013f 98c5 1abf
00000220: 2177 9bbf 8e33 a6bf 0f89 ce3e d0c5 b83e
00000230: c951 bcbe 0f6c 923e 86d0 a53f fa90 c93e
00000240: 7f9e 033f 1000 4f3f b1b7 3540 4e6c 0040
00000250: 70c9 8b3f 8198 3d3d 9cef c2be 7554 0dbe
00000260: aafa 3ebe acbc 0d3e 199a e6be 9041 b7be
00000270: b09a bebf 956e 35c0 f540 903e b259 aabe
00000280: e792 0dc0 b38e 13bd b74e 33bf 95d3 f2bd
00000290: 045d 67be 9a10 443d 8086 46c0 5ba9 49c0
000002a0: aae9 1ec0 9f91 23bf faa5 8bbe c0fd 46bd
000002b0: e877 c0bf 6e81 45bf d95d 233f 56c8 62bf
000002c0: a9cd 8a3f 654d 063f acef ca3d e18b d73e
000002d0: 23f5 de3e fbc7 e33f 9503 013f 6494 a43e
000002e0: 72f9 693f f913 383f 6b04 93be 3b74 eebe
000002f0: 1553 8cbe 050c 2e3e df43 7f3e c4b0 3d3e
00000300: 7918 8a3f f4cf 833f d605 e5be 0660 dbbf
00000310: 04e7 2a3e 2c64 e9bd 1111 e53e ceb9 10be
00000320: e47e 963f 5915 c1be 2517 173f e26a c93f
00000330: 5e86 cb3f 4ed1 ba3f 52af e13f 4f7c 4540
00000340: a8a2 4540 59e7 4a3e 9e28 183e 826e 393e
00000350: ffc8 bdbe c156 be3e 1bc8 8cbf a3e2 73bf
00000360: 34af fdbe 85dd 3ebf 7348 5cbe 1343 b0be
00000370: 1981 233f 9e62 41bf 2584 833d dddd 9e3e
00000380: 3bc9 11be 3cb5 723e f6f3 8f40 fb62 c740
00000390: 06de cc40 d43a 2b3f 9a27 5d3e f0ad 903e
000003a0: a16a 5a3d f713 203f a41c 853e 616c f43e
000003b0: d28a b3be 3a95 0f3f 5c3e 94bd 49c8 3b3e
000003c0: 22ba 9ebd 9620 38bf 5887 91bf 9de0 19bf
000003d0: 3266 50bf 3ded 06bf ee71 60c0 97d0 38c0
000003e0: 78ee 08c0 6eb0 83be 1c9f f03d 4f7d 7e3d
000003f0: ee91 76be c5a5 69be c851 9dbe 88b7 d83e
0.44484574 -0.37804267 -0.7502762 -0.64761585 -1.021072 -0.3852605 1.3913565 0.96895885
0.9728738 0.46841475 0.24367695 0.2563647 -0.043888833 0.14974797 -0.48283607 -0.54072386
-1.3263854 -1.3407211 0.0464026 0.31727713 -0.42357966 0.3124927 -1.0180302 0.15175448
0.3789333 0.38221872 -4.263601 -2.2305393 -0.740143 0.22161406 0.3577846 0.33643302
-1.4334781 -0.7422909 0.33176056 -0.29329136 -0.74549216 -1.0965167 0.3716937 0.09730993
0.3716823 -0.13660133 0.7189555 -0.26708767 -0.4366365 -0.356099 -2.002375 -2.4557745
-2.5434535 0.010696489 0.071657866 0.3408775 0.65518755 0.70782083 0.6879778 1.6154947
0.22870293 1.5784571 0.29306924 -0.12176208 0.69865745 -1.1860778 0.17990121 0.036433082
0.2960322 0.67952913 0.73585886 1.4992092 1.4645326 0.12623501 0.27992404 0.6065316
0.7120871 0.91250485 0.26441938 -0.35361058 -1.3047285 -0.6888044 -0.17602135 -0.09550571
0.14142159 1.295382 0.868691 0.4285097 0.10889847 0.36946094 2.8035903 3.4089952
3.1433878 0.46131322 0.5779651 0.5308624 1.1769335 1.8402393 0.118094556 1.3097899
0.009514656 -0.51403576 0.038308177 0.076339334 -1.4541523 -0.85750675 -0.7060185 0.19322886
1.065225 0.9150361 1.5333672 1.9054018 2.1781535 -0.20339796 0.010669144 -0.23112552
-0.14794412 -0.25624225 -0.94047743 0.24109176 -1.0946568 -0.8413731 -0.3243196 -0.24494562
1.1728765 0.5701259 1.1702734 0.5601954 0.13424386 0.45451972 1.2229773 1.4278316
0.91702545 1.0174881 1.0134097 0.7776828 0.17597549 0.6705547 0.5042271 -0.60457754
-1.214573 -1.2984483 0.40338942 0.3608842 -0.36781147 0.28598067 1.2954261 0.3936842
0.5141372 0.8085947 2.8393366 2.0066104 1.0920849 0.046288017 -0.38073432 -0.13801749
-0.18650308 0.13841504 -0.45039442 -0.35792208 -1.4890957 -2.8348744 0.28174558 -0.33271557
-2.2120912 -0.03602476 -0.70041984 -0.11856762 -0.22594076 0.047867395 -3.1019592 -3.1509616
-2.4830117 -0.63894075 -0.27275068 -0.04858184 -1.5036592 -0.7715062 0.63815075 -0.8858694
1.0844012 0.52461845 0.09908995 0.42098907 0.435464 1.7795404 0.5039609 0.32144463
0.9139625 0.71905476 -0.28714308 -0.46573052 -0.27407137 0.16996773 0.24928235 0.18524462
1.0788718 1.0297837 -0.44731015 -1.7138679 0.16689688 -0.113960594 0.44739583 -0.14133379
1.1757474 -0.377116 0.5901969 1.5735743 1.5900381 1.4595125 1.7631629 3.0857122
3.0880527 0.19814815 0.14859244 0.18108562 -0.3706741 0.37175563 -1.0998567 -0.95267695
-0.49547732 -0.7455676 -0.21512012 -0.34426174 0.6386886 -0.755411 0.06421689 0.31028643
-0.1423692 0.23701948 4.4985304 6.2308326 6.4021025 0.6688664 0.21597138 0.28257704
0.053324345 0.62530464 0.25998414 0.47738937 -0.3506685 0.56087077 -0.072384566 0.18338121
-0.07750346 -0.7192472 -1.1369429 -0.6010836 -0.8140594 -0.52705747 -3.5069537 -2.8877313
-2.139555 -0.25720543 0.11749098 0.062131222 -0.24079105 -0.22817142 -0.30726457 0.42327523

actor.0.bias f4 [64]
00000000: 8767 0d3e 89f4 253f 0e44 143f a722 bb3e
00000010: 1180 3dbd 8cd5 c3be bc6c 413f 06d8 9ebe
00000020: a795 1abe 295d c43e 281f 6fbe f78a e2be
00000030: e869 433e e235 81be c17f 5a3e 17d2 b0be
00000040: 6545 54bf 4596 143e 07f7 3a3f a772 db3e
00000050: 2808 44be f41d 2fbd 8688 043f 0238 67be
00000060: 7a00 323e e85a bebe 39ae fd3d 8034 a23e
00000070: 2d98 0b3d 3b9f 09be 724b 06bf 2712 bebd
00000080: de7a b5be 5622 cfbd 6789 0dbe a406 e5bd
00000090: f1f1 34bf 9bee fb3e e3d4 05bf 6a16 883e
000000a0: 0671 06bf 5cf9 eebe e9dd 34be c06c 193e
000000b0: 2567 26be 5c84 efbe 08b3 af3c 3d15 c63e
000000c0: 56ff 41be dd81 cf3d 328d 693d 76b8 05bf
000000d0: 8b97 df3e 47b0 9a3e 1089 5fbe 14cf 553d
000000e0: 71e2 073f 11e1 583f 7251 10bf 369c 7a3e
000000f0: 4df1 eb3e a31f e23e e6b0 44be dcc9 41bf
0.13809024 0.64826256 0.57916343 0.36549875 -0.04626471 -0.3824886 0.7555654 -0.31024188
-0.1509615 0.38352326 -0.23351729 -0.44246647 0.19083369 -0.25236422 0.21337797 -0.34535286
-0.8291839 0.14510448 0.73033184 0.4286091 -0.19143736 -0.042753175 0.5177082 -0.22579959
0.17382994 -0.3717873 0.12386746 0.3168068 0.034080673 -0.13439648 -0.5245887 -0.09280806
-0.35445303 -0.10113971 -0.13821946 -0.11182907 -0.70681673 0.4920548 -0.52277964 0.265796
-0.5251621 -0.4667462 -0.17662777 0.14982891 -0.16250284 -0.4678067 0.021447673 0.3868808
-0.18945059 0.10132191 0.05701942 -0.5223459 0.43670306 0.30212614 -0.21829629 0.05219944
0.530799 0.84718424 -0.56374276 0.24473652 0.46082535 0.44164762 -0.19208106 -0.7569864

actor.2.weight f4 [64, 64]
00000000: fab3 4ebf 5367 12bf 5c39 013f 3589 273f
00000010: 941a ed3f cdb3 823d 37e5 533f af19 6bbe
00000020: 2b38 08c0 b7d2 323f 4098 633f 8321 8d3d
00000030: 0c52 bbbe fe96 973f e9ba bb3e 3f8d cf3d
00000040: 96b2 6dbf 4be9 ecbe f8f5 01be 056c 0abf
00000050: ea38 01be 6776 cfbe bcd5 ce3d c195 213e
00000060: 3af9 43be ec29 e83c 1bab 57bf e7bc 30bf
00000070: 603f 59be d7af 1fbf 0790 42be 9c02 e43e
00000080: 092e 293f 36fa 283f 5242 17bf 0824 57be
00000090: 7541 05be b9e1 c03e 24be 1c3d c8f8 0340
000000a0: 501e 8fbe 987d 81bd cd5f 15bf 2843 13bf
000000b0: 819b 7abf 48e3 103e 7078 3a3f a8ca 623f
000000c0: 4902 fcbd a4f4 3dbf c2e2 2ebf 88a9 8bbf
000000d0: 1e68 ac3e 2c0b 2bbe 0321 0cbe 79a3 903f
000000e0: 53e3 583f 470b f13e 67b0 48be d9f3 6e3f
000000f0: 052d a4be cfe2 1ebe 2740 36bd c721 a6bc
00000100: 906b ef3c 46c6 863d 387e 763f cada 233f
00000110: 2881 c4bf a233 ccbe 739c cbbf dca4 53bf
00000120: 1da6 883e bf80 e63c 5424 60bf 0dab 48bc
00000130: 905d dc3d cf2a 15bf 241b 63bf 5f1d a03d
00000140: fcb2 8f3c 6541 f7bd a77d bf3e 1447 453f
00000150: fafb 83bf dfa4 43bf 6116 793f aef6 1bbf
00000160: 3861 503e 4e5d 53bc d53b 073e b651 0d3f
00000170: c464 7f3f 4137 0e3f 9793 c13d 1141 863e
00000180: 7495 48bf 906f 00bf 67e2 b1be 08b3 9b3c
00000190: 5aca bb3e 02c6 a73e c496 293f 0573 2d3e
000001a0: ffdc a1bd 599b 883e 98ba a63e 3cb3 033f
000001b0: c88a 0c3e 66cd 233f e7d4 77bf 51d3 7cbd
000001c0: bb6f 0c3f 6f12 6c3f 6d0d 183f 3e80 d03f
000001d0: 5e64 a9bf 523f 86be af8c 13bf 9ecc b0bc
000001e0: 0728 51bd 1a18 38bf a16a 9cbe c01a 1bbf
000001f0: 9fa0 fe3f 6247 61bc 1b8b 19bf 93ea 01bd
00000200: 20cb a93e 0608 0bbe b37f e13d 1706 a83e
00000210: f8c8 91bf 5a86 96bf 4536 45bf 18ae 3d3e
00000220: 22d7 893f b0ca 15bf 64f4 a9bf a664 21bf
00000230: 36fa e03e 78eb 19bf 93ea 8dbe 1480 b63e
00000240: 24ff 213f 6df8 21bf 7e1c 63be 29c6 833f
00000250: f97c b6be 67c4 7a3f a32a 6abe b0c1 eabd
00000260: 7b28 cb3e 458c 993f 4f6a e23f 9381 e93d
00000270: b441 bd3e 3dba 163f ae22 a53d 2cc0 b43e
00000280: c8e9 0c3d 2347 55bf a130 f9bf 0f2d fc3d
00000290: dbca 953e fe8e 3cbd e2dc 90be fab0 e5be
000002a0: e71d 1e3f eacf 9e3f b36d 0b3f a655 433e
000002b0: b1a1 4e3f a3e2 5d3f d188 493f 7cfd 4abe
000002c0: d2f1 fbbe d65e db3e 59bf 063e d872 893f
000002d0: 2b2b cb3d bfc6 71bd cf23 c5be f0c0 acbf
000002e0: 1199 d83d f0ef f6bf 6995 893e be60 2bbf
000002f0: 1608 bbbe 1c1b d5bd e3ea bbbe 7a14 383f
00000300: 5f4f 193f e020 99bf 266a 26bf a836 003f
00000310: d845 c83e d1aa 0cbf b8d1 af3e 8c8d 183f
00000320: 7550 b4bf 55b2 71be adfd 08bf aa06 e0be
00000330: 4f88 3dbe e6d8 09bf 61c9 253e 1b03 943f
00000340: 9833 debe c387 0cbd 9fb8 1b3f 91ff 0cbf
00000350: 4d4b 91bf d58f 033e 4ac9 7fbf adaa 4c3e
00000360: b244 65bd 4c55 a03e 70cc f3bd c3c0 48bf
00000370: ca81 cdbf 138b 25be aee9 d03d 8f0f cd3e
00000380: f5b9 36bf 76ba aa3e a88b 973e 76ad d7be
00000390: 11df fabd 6ce9 493f d567 9fbf ab5e 373f
000003a0: ff53 31bf 24e9 39bf aa6c 62bf 7b48 8ebf
000003b0: 3355 183e 9e51 49bc b9de 2bbe 9dad c33f
000003c0: c029 c93f c4fe a9bd 2401 22bf 0cd3 2abe
000003d0: d433 ce3f 3c7f dcbe 7045 38bf 3466 2cbe
000003e0: 73d1 8dbe 436d 123f cbee 683e 04dc 113f
000003f0: 2573 2bbf a288 393d bda5 36be 7ab2 2c3d
-0.8074337 -0.5718891 0.5047815 0.65443736 1.8523736 0.063819505 0.8277163 -0.22959016
-2.1284282 0.69852775 0.8890419 0.068911575 -0.36586034 1.1842954 0.3666604 0.101343624
-0.92850626 -0.46271738 -0.12691486 -0.54071075 -0.12619367 -0.4052002 0.1009936 0.15779783
-0.19138041 0.028340302 -0.8424546 -0.6903824 -0.21215582 -0.62377685 -0.19000255 0.4453324
0.6608587 0.6600679 -0.5908557 -0.21009839 -0.13013251 0.37672213 0.03826727 2.0620594
-0.27952814 -0.06322783 -0.58349305 -0.5752435 -0.9789353 0.14149201 0.72840023 0.8859048
-0.12305123 -0.74201417 -0.68314755 -1.0911112 0.33673185 -0.1670348 -0.13684468 1.1299888
0.8472187 0.47078916 -0.19598542 0.9334083 -0.32065597 -0.15516208 -0.044494774 -0.020279778
0.029226094 0.065807864 0.96286345 0.6400572 -1.5351915 -0.39883143 -1.590712 -0.8267343
0.26689234 0.028137563 -0.8755543 -0.012247813 0.10760033 -0.58268446 -0.8871329 0.07818102
0.017541401 -0.1207302 0.37400553 0.7706158 -1.0311272 -0.7642345 0.9729977 -0.6092328
0.20349586 -0.012900664 0.13206418 0.55202806 0.9976313 0.5555306 0.09451979 0.26221517
-0.7835305 -0.5017023 -0.34743044 0.019006267 0.3667782 0.32768255 0.66245675 0.16938408
-0.0790348 0.2668102 0.32564235 0.51445365 0.13724816 0.6398529 -0.9680924 -0.061724965
0.5485799 0.9221563 0.59395486 1.6289136 -1.3233755 -0.26220185 -0.5763654 -0.021581944
-0.051063564 -0.71911776 -0.305501 -0.6058769 1.9892768 -0.013749929 -0.59977883 -0.031717848
0.33162785 -0.1357728 0.11010685 0.32817146 -1.1389456 -1.1759751 -0.77035934 0.18523443
1.0768778 -0.585124 -1.3277707 -0.630442 0.43940896 -0.6012492 -0.27718028 0.3564459
0.6327994 -0.6326969 -0.22178838 1.0294849 -0.35642222 0.97955936 -0.22867827 -0.11462724
0.39679322 1.1995932 1.7688693 0.114016674 0.3696419 0.5887793 0.08063255 0.35302866
0.03440264 -0.8331167 -1.9467965 0.12313282 0.2925633 -0.046034805 -0.2829352 -0.44861585
0.6176438 1.24072 0.5446426 0.19075641 0.8071547 0.86673945 0.7872439 -0.19823259
-0.49207932 0.42845792 0.13158931 1.0738173 0.09920343 -0.05902743 -0.38503882 -1.349638
0.1057607 -1.9291973 0.26871803 -0.6694449 -0.36529607 -0.10405561 -0.36702642 0.71906245
0.59886736 -1.1963158 -0.6500572 0.500834 0.39115787 -0.54948145 0.3433969 0.59590983
-1.4087054 -0.23603185 -0.5351208 -0.43755084 -0.18509029 -0.53846586 0.16190101 1.1563448
-0.43398738 -0.03430916 0.60828584 -0.55077463 -1.1351105 0.12847836 -0.9991652 0.19986983
-0.055973716 0.31315076 -0.11904228 -0.7841913 -1.6055233 -0.16166334 0.10200821 0.40050933
-0.713775 0.33345383 0.29598737 -0.42124528 -0.12249578 0.788718 -1.2453562 0.71628827
-0.6926879 -0.7262137 -0.8844706 -1.1115869 0.14876251 -0.012287525 -0.1678418 1.5287358
1.5715866 -0.08300546 -0.6328299 -0.1668207 1.6109567 -0.43065822 -0.71980953 -0.16835862
-0.2769886 0.5719797 0.22747342 0.5697634 -0.6697257 0.04529632 -0.17836662 0.042162396

actor.2.bias f4 [64]
00000000: b814 fc3c 20cf 3f3c 7521 9ebf b0c2 20bf
00000010: 86fa b0bd a05e 903e 03ef 33be 59d8 7b3e
00000020: f924 9a3e 3b88 83be d0ac 06bf 1439 18bf
00000030: 7bfa 003f a6b5 e43e d438 d33e ebaa 643d
00000040: 3574 76be e110 ed3d 860a 9b3e d22f 1b3f
00000050: 0431 c73e 25e5 6cbf 0867 d3bd 4077 b23d
00000060: 772a d93e 9ef8 edbe 90ee 8fbe 635a 1d3f
00000070: f972 e9be ff30 85be ad9c 4f3e 6c40 d2bd
00000080: 5e0e bf3e 96ca 48bf 7b03 05bf 2b55 b8be
00000090: d933 aa3e 2053 b03e 013b 8a3e b542 7dbd
000000a0: cef6 bebd 909e 213f 7532 77be b98a 10be
000000b0: 6033 d1be 5b2d 6e3d ed15 293e ac36 0b3f
000000c0: c12e f5be ed27 553e 5f4c 953e f3fb 9bbe
000000d0: 58a7 633d 7dcb 1dbf 43ad 053e 10e0 4e3f
000000e0: 09fa 13bf 2fb9 f83d 50ec 013f df5b 1cbe
000000f0: 3426 893f 269d fabe 61b0 96be c591 25be
0.030771598 0.011707097 -1.235396 -0.6279707 -0.086415336 0.28197193 -0.17571644 0.24594249
0.30106333 -0.25689873 -0.5260744 -0.59462094 0.503822 0.44669837 0.41254294 0.055827063
-0.24067767 0.11575485 0.30281466 0.60619843 0.38904583 -0.92537147 -0.10322386 0.087141514
0.4241521 -0.46478742 -0.28111696 0.61466044 -0.4559553 -0.26013944 0.20274611 -0.10266194
0.3731565 -0.7843412 -0.51958436 -0.36002478 0.33242682 0.3443842 0.2699814 -0.061831195
-0.09324418 0.6313257 -0.24140342 -0.14115418 -0.4085951 0.058148723 0.1651227 0.543803
-0.47887233 0.20816012 0.2915983 -0.3046566 0.055579513 -0.61638623 0.13054375 0.8081064
-0.578034 0.12144696 0.5075121 -0.15269421 1.0714784 -0.4894802 -0.2943144 -0.16168888

actor.4.weight f4 [7, 64]
00000000: 2dfa bfbf 3bb4 69bf 845a 993f 3daf da3f
00000010: 3219 99bf ddcd e3bf da5d 9f3f 302b f93e
00000020: 93b5 59bf d3b9 16bf 02e2 b73e 293c 343f
00000030: 7607 1f40 cc38 4cbf 63ea 9ebf e91f fa3f
00000040: e560 babf ba97 d7bf 7b7c 97bf bef5 9c3f
00000050: b5cd b73f 5560 3cbf 2bfc a7bf 71f1 88be
00000060: 2738 3340 ce13 ca3e 4ff7 04c0 7026 ef3f
00000070: 7338 13c0 bcd7 a0bf 99b8 1fbf da55 1e40
00000080: a79a 2340 8786 9b3f 3b67 19bf f980 fe3f
00000090: 8ba1 f23f a82d 5ebf 1391 ae3f ac61 2fbf
000000a0: 4017 ea3f 0887 6dbf eb3f f93f 9696 22c0
000000b0: 0920 1b3f 80e6 dcbf 5d80 38bf 8dd3 0a40
000000c0: 3d74 dcbf bc9d 16be 4fd6 20c0 fe4b 5ac0
000000d0: fdc9 fc3f 4e3b 193f 0634 f6bf 05e8 8a3f
000000e0: 543a f4bf 6ae8 c93f dae4 6d3f 4ff6 ec3f
000000f0: 9ac0 a93f 20b7 e53f 6420 6cbf bb54 1cbe
00000100: 9aaa ff3f 0848 0fc0 2a17 f53f 3acb 6a3f
00000110: 689f 983f 27be cdbf 2ec2 933f dfc3 1340
00000120: 8d57 ffbf 0802 1dbf 3e53 fcbe 94f1 753f
00000130: 62db ba3e 76f0 d0be dd1e 8ebf ba54 90be
00000140: b31c 203e f3cf 29bf 7efe 0dc0 dbb7 b3bf
00000150: a82c e93f 1aa9 463f f7b1 4d3d ccfd 19c0
00000160: 32bd 3bbf a744 d13f 3e47 a43f 3dbb 3cc0
00000170: aafa 11c0 98ad 66be 6d66 543f 3d85 c2bf
00000180: bc90 09bf c798 1240 5da4 c5bf 2536 e9be
00000190: f8d6 56bd a9b1 ddbf 8e06 afbf 09a2 ef3e
000001a0: c64e 35bf 9ee5 f2bf c4a6 ea3f ab0d 3bbf
000001b0: 8185 463f f9e6 203d f701 d43f 9c78 8b3f
000001c0: 1f7d 65bf e603 4bbf d124 10c0 7765 ef3d
000001d0: 76ef 663f 93c5 783f d991 8abf 5f7e aebe
000001e0: 0bd9 36bf 93d5 963f b56c 2cc0 c25d e23f
000001f0: c184 5abf 17a6 5ebe 1313 debf 189d 1640
00000200: 4094 40bf a91d 7f3e cf40 53bf 2253 41bd
00000210: f37f bbbe 357f d83e 7a6a a93f b4d0 dfbd
00000220: a5bf e33e 8177 a8bf ccbd ea3f 8123 9b3e
00000230: 28e4 a73d d521 b43f 9b47 95bf 8071 3b3f
00000240: d903 b0be bea7 86be 37cb 1b3d 57de d5bc
00000250: 4b69 8a3e 37b2 183f d52b 4cbf 047d a23e
00000260: 53c7 83bf 8551 823e 1b81 c53d f4e6 36bf
00000270: 0216 993f 200c 6abf cd79 e1bf ac91 743f
00000280: 2deb 08bf 9be4 713d 0dbd 83bf cf09 1b3f
00000290: 47a9 173e 2404 123e 59eb c63e e05e cbbe
000002a0: 039a 843f cb4b 843f a8b7 57be 483f 773f
000002b0: 1b1d 94be 8101 cfbf aaf2 543f d147 40bf
000002c0: 8503 c03f c91e 5a3f 3e9d fd3e bb90 c0bb
000002d0: 325e ddbe f02e 25bf 0dd5 6c3b 4fb3 60bf
000002e0: d404 cb3d be85 bdbf 321b 1f3e 01d1 64be
000002f0: e2b2 5abf 9a0e 9b3f a0ca ad3d 24ec 0340
00000300: ed4d c3bd 2780 623f b4f1 4b3e 8150 89bf
00000310: 50b5 823d ade8 ae3e 9497 033f 4d12 ddbe
00000320: 788b 443e 7830 c43e a853 bd3d d1fb 8b3d
00000330: a700 99be b8ea 713d e416 bcbe 85b6 c63e
00000340: f1c8 81be c1b5 aebe c291 edbe a609 ec3d
00000350: ff63 953e b9f5 78be 5641 06bf cc21 d2bd
00000360: f6e8 19be 17ee 8f3e 43d8 72bd 2f70 87be
00000370: e099 3cbf 6da6 ae3c 5ace 44bf 08de 46bf
00000380: 4479 76be 26d7 3d3e ce9e a03e 7697 ccbe
00000390: af57 883d 2167 1e3e 0227 2d3e 223a 2d3e
000003a0: f868 af3e 1d57 853d 3226 393e a046 1c3f
000003b0: df51 13be d7c2 69be 2847 443f 5b2a f9be
000003c0: 78bd 83bf 4feb d5be b878 623f 8021 5d3f
000003d0: 5eab 783e 3046 36bd 135a aa3e 550f c4be
000003e0: 3621 debe 1640 26bf 800a 88bd bab1 843f
000003f0: f8bd c1be 2c05 d2be 7310 b9be f18f 673e
-1.4998223 -0.91290635 1.1980748 1.7084728 -1.1960814 -1.77972 1.2450516 0.48665762
-0.85042685 -0.58877295 0.35914618 0.704043 2.4848304 -0.79774165 -1.2415279 1.9540988
-1.456082 -1.6843178 -1.1834863 1.2262495 1.4359652 -0.7358449 -1.312383 -0.26746705
2.8003023 0.39468235 -2.0775945 1.8683605 -2.3003204 -1.2565837 -0.6239105 2.47399
2.5563142 1.215043 -0.5992314 1.9883109 1.8955549 -0.86788416 1.3638023 -0.6850841
1.8288345 -0.92784166 1.9472631 -2.540441 0.60595757 -1.7257843 -0.72070867 2.169162
-1.7222973 -0.14708608 -2.5130804 -3.4108882 1.9749142 0.59856117 -1.9234626 1.0852057
-1.90803 1.5774052 0.92927325 1.8512667 1.3261902 1.794651 -0.92236924 -0.15266697
1.9973938 -2.2387714 1.9147694 0.9171635 1.1923647 -1.6073655 1.1543634 2.30883
-1.9948593 -0.61331224 -0.4928226 0.96071744 0.364955 -0.40808457 -1.1103169 -0.2818964
0.15635948 -0.6633293 -2.218658 -1.4040483 1.8216753 0.7760178 0.05021855 -2.4061155
-0.73335564 1.6349076 1.2834241 -2.948928 -2.2809243 -0.22527158 0.8296879 -1.5196911
-0.5373647 2.2905748 -1.5440785 -0.45549121 -0.052451104 -1.7319843 -1.3673875 0.4680331
-0.70823324 -1.8976324 1.8332143 -0.7306773 0.7754746 0.039282773 1.65631 1.0896182
-0.89644045 -0.79302824 -2.252247 0.11689275 0.9020914 0.97176474 -1.0825759 -0.34080788
-0.7142493 1.1783928 -2.694135 1.7684863 -0.85358816 -0.21743046 -1.7349571 2.3533382
-0.7522621 0.24913658 -0.82520765 -0.047198422 -0.36621055 0.4228455 1.3235619 -0.10928479
0.4448215 -1.316147 1.8339171 0.30300525 0.08197814 1.4072825 -1.1662477 0.7322006
-0.34377936 -0.26299852 0.038035598 -0.026106996 0.27033457 0.59646934 -0.7975438 0.31736004
-1.0295204 0.2545282 0.096437655 -0.71446157 1.1959841 -0.9142475 -1.7615296 0.9553478
-0.5348385 0.059055906 -1.0292069 0.6056184 0.14810668 0.14259392 0.3885143 -0.3972082
1.0359501 1.033563 -0.21066153 0.96580935 -0.28928456 -1.6172334 0.83182776 -0.75109583
1.5001074 0.85203224 0.4953403 -0.005876628 -0.43235928 -0.64524746 0.003613773 -0.87773603
0.0991303 -1.480644 0.15537718 -0.22345354 -0.85429204 1.2113831 0.08485913 2.0612879
-0.095363475 0.88476795 0.19916421 -1.0727693 0.06382239 0.34161893 0.51403165 -0.43178025
0.19193828 0.3831823 0.09244472 0.068351395 -0.2988331 0.059061736 -0.36736214 0.38811126
-0.2534862 -0.34123042 -0.46400267 0.11525278 0.29177853 -0.24312486 -0.52443445 -0.102603525
-0.15030274 0.28111336 -0.059288274 -0.26452777 -0.73672295 0.021319592 -0.7687737 -0.7768254
-0.24069697 0.18539104 0.31371158 -0.39959306 0.06657349 0.15469028 0.16909412 0.16916707
0.34259772 0.06510756 0.18080977 0.61045265 -0.143867 -0.22828232 0.76671076 -0.48665127
-1.0292196 -0.4178109 0.8846545 0.8637924 0.24284121 -0.04450053 0.33271846 -0.38292947
-0.43384713 -0.6494154 -0.06642628 1.0366738 -0.37840247 -0.4101957 -0.36145362 0.22613503

actor.4.bias f4 [7]
00000000: e33f 0040 61b0 f5bd 4866 93bf d830 a1be
00000010: ddad a9bf b38a 9dbe 2d6e 9d3f
2.0038993 -0.11996532 -1.1515589 -0.31482577 -1.3256184 -0.30769882 1.2299248

critic.0.weight f4 [64, 20]
00000000: ebac 99bf f43c fdbf b162 b4bf 57f5 a93e
00000010: 216c 8f3e d192 8d3e 85a7 1d40 45e6 a93f
00000020: 796c 743f d660 acbf 8200 9bbf 15d7 7bbf
00000030: c007 21bf e184 473f 48b8 c0be 15e4 0e40
00000040: bc40 3140 d035 cc3f d1af 9ebe 1f4b 96bf
00000050: 5e2c f93f c28c ffbd 49d1 c2bf e327 b3bf
00000060: 0f3e 96bf c0ba 2abf e222 14be 57d3 933f
00000070: ce76 ed3f e80d 5bbf a2fb 42bf 1e3d 14bf
00000080: cc9b dabe 8fa1 8f3f 73b1 02bf 7e66 0fbf
00000090: 31e0 9fbf f183 d03f ecbc ccbe 1c21 2ebe
000000a0: 33f8 0640 bf48 78bf e2d2 6cbe 8ae5 1cbf
000000b0: 2023 0dbd 6f95 42be 3e0f e9be c04b 88bf
000000c0: 255e 89bf e884 e13d a183 243f 74e5 673f
000000d0: db88 81bf 365c 16bf da52 2ebf 8f1a e83f
000000e0: 52ed a7be 0908 b3bd db7b cb3e 089b 803e
000000f0: 31ac b93f 3335 1dbf be48 adbe de2b 9f3e
00000100: b5d8 30bd 093b dd3d 0e5c 193f a0e7 1dbf
00000110: 35a4 c9bf e242 673e 6f9c 643e d321 f8bd
00000120: 4e4d d83e 634b e2bf 2e95 4f3f 5aab c9bf
00000130: d8ad 463f 494e b33f b551 403d 9a8c 98be
00000140: 08f5 0b40 b672 8a3f 268b 9a3f 30ca 75bd
00000150: b8c2 50bf 63b7 39bf 2b69 a93f 7a15 e0bf
00000160: 9a09 45c0 34d1 5bbf 32f4 58bf e48c 32bf
00000170: 95fa 39be c327 3cc0 d7ed 8fbf 6ade c13e
00000180: 3501 87bf 7b51 5c3f 8962 563c df13 d93e
00000190: 9e8e f9be 513b 37bf f072 6bbd 0155 213f
000001a0: 2cca 1d3f 4aaf 1c3f 4063 9140 15f4 9540
000001b0: a30e 9340 4d2e 6a3f e6a3 963e 4bfb 2ebc
000001c0: 0854 8cbe bfef 243f 2674 0fbd b184 ffbf
000001d0: 56f1 543f 411d d53f 58ba 67be 8671 fd3e
000001e0: 7a02 093f 2c29 9b3e efa8 f23e 0473 15bf
000001f0: a2ca 0a3f 42d4 383d d53d 6640 f5ee 4040
00000200: 7025 2840 b093 72bf 397c 8ebf 3b48 82bf
00000210: c213 de3e 18b5 ffbe 6e61 d0bd 7981 3140
00000220: d419 9a3f b370 9c3f fd34 a1bd 70a4 86bf
00000230: e560 6ebf b911 df3e dfff 04bd 0901 abbe
00000240: ca65 a63e 5c5f dfbe 6c1f 0c40 8821 12bf
00000250: 61e4 b1bf d6b3 903d de7b eabd 86e7 8bbe
00000260: 6c67 3140 c53e 0ec0 e5ae 25bf ada1 a83f
00000270: 6379 02bd 5dd6 10bf 11af 53be 926e 273f
00000280: 3c47 0f3e 6e9e debf a5d1 d0bf da3b a6bf
00000290: 9ddf a1be 19b4 babe cdfd 26c0 0ca9 52bf
000002a0: 78b5 cd3e 4d18 033e af9c c6bc b7c5 963e
000002b0: e450 bcbf 598d cfbf 6db7 a93f 9aa0 e4bf
000002c0: 2a59 903e ca9b 6abe f117 67be 47eb b63e
000002d0: 9379 023f 8712 babe 726b 763f 7bb4 cabf
000002e0: 07b5 cdbf 7220 d5bf f7dd d53f 70f8 1e3f
000002f0: d95d aa3d 7f79 c13f 1e6a 963f e486 9f3f
00000300: f338 3340 309a 973f 1b3c 853f a0f1 11c0
00000310: 1f9e 3bbf a0cf d3be b0d0 c13e a6c3 073f
00000320: 4361 bdbe 274d 85bd 427e 25bf 40e3 a13e
00000330: b5a8 e83e 8341 a4be edf0 7d40 8eab cc40
00000340: 3802 e640 8b54 933f 4134 813f 7436 1c3f
00000350: 0b57 e3bf 1366 9dbe 4ebf d73e 66ba 0e3f
00000360: a403 2e3f 3fda 0540 e882 033f 0c68 46bf
00000370: ed8c a8bf 8785 3c3f d0bf e63e 24d7 b0be
00000380: a90f 96bc 4f2b b13e f0af 84bf ef29 b6bc
00000390: fd58 edbe e660 4ebe 4468 14bb d596 973e
000003a0: 146a 32c0 950a 743f a337 0abf db57 0dbf
000003b0: 489b 09bf 5293 903f d727 e03e 04a9 9fbd
000003c0: 2dfe b13f 2f54 c63f ea3e 80bd 6369 973e
000003d0: 0300 303f b87e 763f 35a6 26c0 4670 87c0
000003e0: 0bff 86c0 9ba2 b9bf 0f17 8dbf 63ec 81bf
000003f0: 0a20 333f d4ea 03c0 a850 aebe f15a 9d3f
-1.2005895 -1.9784226 -1.4092618 0.33194992 0.28012183 0.27651075 2.4633496 1.3273398
0.95478016 -1.3467052 -1.210953 -0.98375064 -0.6290245 0.7793713 -0.37640595 2.232671
2.769576 1.5953922 -0.30993512 -1.1741675 1.9466665 -0.12478019 -1.5220119 -1.3996547
-1.1737689 -0.6669121 -0.14466432 1.1548871 1.8551881 -0.85568094 -0.7616521 -0.5790576
-0.4269699 1.1221179 -0.51052016 -0.56015766 -1.2490293 1.6290265 -0.39987886 -0.17004818
2.1088989 -0.96986 -0.2312732 -0.6128775 -0.034457326 -0.19002317 -0.4551944 -1.0648117
-1.0731856 0.11011678 0.6426335 0.9058449 -1.011989 -0.5873445 -0.6809517 1.8133105
-0.3279825 -0.08741767 0.39742932 0.2511828 1.4505674 -0.614093 -0.3384456 0.31088156
-0.043175418 0.10802276 0.5990609 -0.61681557 -1.5753237 0.22584108 0.223253 -0.121158265
0.4224648 -1.7679256 0.81087005 -1.5755417 0.77609015 1.4008266 0.046952922 -0.2979477
2.1868305 1.0816257 1.2073715 -0.060007274 -0.8154712 -0.7254545 1.323522 -1.7506554
-3.078711 -0.85866094 -0.8474761 -0.6974623 -0.18161996 -2.9399269 -1.1244458 0.37865
-1.0547243 0.8606183 0.013085016 0.42397973 -0.4874162 -0.71574885 -0.05748266 0.6302033
0.61636615 0.6120497 4.5433655 4.686045 4.5955367 0.914769 0.2942192 -0.01068003
-0.2740786 0.64428324 -0.035022877 -1.9962369 0.8318075 1.6649553 -0.22629678 0.49500674
0.53519404 0.3030485 0.4739451 -0.58378625 0.54215443 0.0451243 3.597524 3.0145848
2.627285 -0.94756603 -1.113166 -1.0178293 0.4337445 -0.4994285 -0.10174833 2.7735274
1.2039132 1.2221893 -0.07871435 -1.0518932 -0.931166 0.4356821 -0.03247058 -0.33399227
0.32499534 -0.4362744 2.1894178 -0.57082415 -1.3897821 0.07065551 -0.11449407 -0.27325076
2.7719374 -2.2225811 -0.6471999 1.317434 -0.031854045 -0.5657709 -0.20672251 0.6540309
0.13992018 -1.7392099 -1.6313978 -1.2987015 -0.31615916 -0.3646553 -2.6092408 -0.82289195
0.40177512 0.12802239 -0.024244634 0.2944772 -1.4712186 -1.6215011 1.3259102 -1.7861512
0.28193027 -0.22910991 -0.22567727 0.35726377 0.5096676 -0.3634226 0.962577 -1.5836328
-1.607087 -1.6650527 1.6708363 0.62097836 0.08318681 1.5115203 1.1751134 1.246304
2.800351 1.1843929 1.0408968 -2.2803726 -0.7328815 -0.41369343 0.37854528 0.5303291
-0.36988267 -0.06508856 -0.6464578 0.3161869 0.45441213 -0.3208123 3.96783 6.3959417
7.187771 1.1510175 1.0094072 0.6102059 -1.7760938 -0.3074194 0.4213814 0.5575317
0.67974305 2.0914457 0.5137162 -0.7750251 -1.3168007 0.73641247 0.45068216 -0.3453914
-0.018318014 0.34603354 -1.0366192 -0.022236792 -0.46356955 -0.20154151 -0.0022645155 0.29607263
-2.7877245 0.95328647 -0.53991145 -0.5521218 -0.53752565 1.1294959 0.43780395 -0.07795909
1.3905693 1.5494441 -0.06262 0.2957259 0.6875002 0.9628711 -2.6038945 -4.2324553
-4.218633 -1.4502748 -1.1022662 -1.0150265 0.6997076 -2.0612078 -0.3404591 1.2293378

critic.0.bias f4 [64]
00000000: 8987 70bf 0e0f 65bf 14de 363f 8fb9 083e
00000010: a0b4 48bf b15f 12bf b386 97bf c9e5 d8be
00000020: 889d ffbd a4c3 a23f 225a a2bd 7827 1a3f
00000030: 2d7a bcbe 63a3 0f3e 6257 553f 9dc6 81be
00000040: b449 c53f cf4e 683f bcfd b93f 216e afbe
00000050: 06e3 843f 6e13 d23f 56f7 f83e 07d3 86be
00000060: 7aac a93e 6994 8a3e 7ed2 c2bf 3031 cebe
00000070: 57b1 433f 63bf 04be 3057 973f f4bc c4be
00000080: f99f ffbe 1f6e 5f3f 775d bcbd 99b0 30bd
00000090: 15e6 363d 2563 2abf 5456 893e 8286 bdbe
000000a0: 01dc 103f 7811 82be 1093 843e e5fb 62bf
000000b0: 0b33 3d3f 8fc6 973d c5c2 803e 18c9 ab3d
000000c0: 685d b03e d433 3fbf 1ad5 9b3f e642 073f
000000d0: c8d2 9fbf 9927 04bf 6f5f b9bf 1675 d6be
000000e0: 2d97 953f cc48 9c3f 85d0 8f3f e596 87bf
000000f0: 2b17 02bf 8691 3e3f eb5a 58be 26a7 3abf
-0.9395681 -0.89476097 0.71432614 0.13352035 -0.7840061 -0.57177263 -1.1837982 -0.42362812
-0.124812186 1.2715955 -0.07927348 0.60216475 -0.36811963 0.14027171 0.8333646 -0.25346842
1.5413117 0.9074525 1.4530559 -0.3426371 1.0381782 1.641218 0.48626202 -0.26332876
0.33139402 0.27066353 -1.5220487 -0.40271902 0.76442474 -0.12963633 1.1823483 -0.3842541
-0.49926737 0.87277406 -0.091975145 -0.043137167 0.044653017 -0.6655753 0.26823676 -0.37016684
0.565857 -0.25403953 0.2589345 -0.8866561 0.7390601 0.07410919 0.25148597 0.08387965
0.34446263 -0.7468846 1.2174408 0.52836454 -1.24862 -0.5162292 -1.4482249 -0.41886204
1.168676 1.2209716 1.123551 -1.0592924 -0.508166 0.744408 -0.21128432 -0.729113

critic.2.weight f4 [64, 64]
00000000: 359a 583f 3afb 9fbf f454 d03e 073b b03f
00000010: 1ec1 acbf 40af 483f 4307 a03f 7788 9e3e
00000020: 2227 edbe f47e 36be b611 88bf 8553 2ebf
00000030: 3f4b ee3f b2b4 19c0 eb43 f73e b2ea 2abf
00000040: b91f b6be f9c6 ccbe 493c bcbc 44ab bebe
00000050: b38a 12bf 9979 3d3f 1f33 50bf 3bb3 5ebc
00000060: 7e6e 88bf ee29 7d3e a086 02be 6f81 603f
00000070: 9c4c ca3d a9ef 82be cc80 393f 5ea8 6dbd
00000080: e59c a63e deab b8bf 3946 6abf 1a05 5e3f
00000090: 0428 3fbe aae8 d2bf 9983 acbe 76c0 4f3f
000000a0: 6fb2 4abe d2a7 7abe 7ff8 af3e a8d2 c33c
000000b0: 1ba6 e53e d07d eebe f8b5 12bf 222e ab3f
000000c0: 0f0c 61bd 134d 4f3f 38e5 8ebf 6c81 e7be
000000d0: 8293 413f 6c24 743f 641f 9d3e c4e8 fa3e
000000e0: 3882 0bbc 3838 8cbf cbf0 00bf f497 d3bd
000000f0: 6dbf efbe 0722 49bf de72 9d3f 70e3 e8be
00000100: bf45 3bbf a4c9 a4be 2594 8cbf c2f4 a43f
00000110: 8dfd 1c3f 022c 13bd f3b3 ad3f 8008 1ebf
00000120: 25f6 41bf f795 f2be 4766 c13e 851f 923f
00000130: a003 a83f c8eb bebe 6207 b63e 1250 afbe
00000140: 6f87 0ebf d529 a13e 12fc 1d3f 39a1 37bf
00000150: 05e7 e5be b22d 8ebf 0888 423f 97df 83be
00000160: 0f9d 0f3e 0b69 453f bf41 1ebf b72e 89bf
00000170: c9ff 473e 0130 4c3f e595 bcbe e540 633e
00000180: e0a9 3ebe e7d9 babe fc1b dbbf 86a3 943e
00000190: 2fad 91bf a7cb 47bf 835b 133f 89f2 79bf
000001a0: f0d6 273f 372f 1fc0 d926 efbe b0b1 53bf
000001b0: e749 093d 740c 2ebf a8eb b5bf 378c afbe
000001c0: cd9a 723f e4c2 263f 731b b4bf 3e9a 85bf
000001d0: 2c9d e63e d4a5 cebd 62b6 6bbe 9208 3cbe
000001e0: f904 8e3f 0166 1abf e174 f9bd abb8 a9be
000001f0: 6825 f5bd 110e 97be aec2 b2be 961e bd3f
00000200: 5ec2 333f f804 cb3f 15ac a03f eb5d dabf
00000210: d4c5 d13f 8144 233f 2e37 2dbf 3abd adbe
00000220: e896 abbf 5b88 27bf 027a 58bf 29be 95bd
00000230: fc02 3abe 287a fc3d 7027 0e40 9173 85be
00000240: d9f8 1d3f 5758 f6be ed1d e6bf 8e5e 823f
00000250: 9a92 e83e 0821 883e 6ba9 10bf 574c 6f3f
00000260: 8cb9 8a3f 348e 10bf ad2e 383f b2db 84bf
00000270: f559 43bf 5a66 dc3e 98e7 71bf b8e9 b13f
00000280: 409a b13f 07ba 7c3e 5d29 86bf a83c 2c3e
00000290: 1bd0 2cbf d306 88bf 73c4 9d3e fc1c 0f3f
000002a0: b401 33bf 0620 0e3e 50e5 5d3f 5ad4 cb3f
000002b0: 788e 2dbf b98c 9a3f 733e 3ebe 9d4c 4dbe
000002c0: 1035 92bf 527e 69bd bf7c 333f 3949 d53e
000002d0: 154e 833e 3320 2240 86bc 723e 26c4 5b3f
000002e0: ed87 aabf e498 e6be edb0 fabf 4a87 873f
000002f0: 78bc cb3e e349 193f 25aa f63e 8ba1 2bbd
00000300: 818e a4be b612 e4bf 74cb 46bf 066f 8cbf
00000310: 5386 453f 3eac 55be 577b a43c 87a6 11be
00000320: db06 5f3d f5b9 1e3f ce91 7ebf 5580 83bf
00000330: 1c33 893d a416 cd3e 65cf e1be 999b 53bf
00000340: 29d3 803e 6898 9fbf 3555 ef3d 3b16 f5be
00000350: bc27 87be 0289 e0bc b09e 443e d167 bcbe
00000360: 5279 8dbf 23b9 42be e348 453f c46f 9c3f
00000370: 81ec 0c3e 4dea dfbd 34f9 90be c938 84bf
00000380: d5f9 32bf 2b6d 56bf 7ab2 a53f 633e 843e
00000390: 77b9 573f 9160 70bd 5a5c cb3e 2205 833e
000003a0: 0b60 16bf 4533 833f badc 58bf b9a8 703e
000003b0: 181c 1bbf aa4c 7b3f 6017 75bf 9c7c f13f
000003c0: 54d9 16bf ce8e bbbf f88e b03f 7ef5 843e
000003d0: 9893 8cbf 657d 11bf 03cc edbd 0654 6f3f
000003e0: 5e02 20bf ecf0 13bf bda7 973f 738b 5b3f
000003f0: 4e3a 893f ddcd 973f a7ee 843e b4e5 8f3d
0.846103 -1.2498543 0.40689814 1.3768014 -1.3496435 0.7839241 1.2502216 0.3096349
-0.46318918 -0.17821866 -1.0630405 -0.6809619 1.8616713 -2.4016538 0.48294005 -0.66764367
-0.35571077 -0.39995554 -0.022977965 -0.3724004 -0.5724289 0.7401367 -0.81328005 -0.013592537
-1.065872 0.24723026 -0.12746668 0.876975 0.09877893 -0.2557347 0.72462153 -0.058021896
0.32541576 -1.442745 -0.915134 0.86726534 -0.18667608 -1.6477253 -0.3369415 0.8115305
-0.1979463 -0.24478081 0.34369275 0.02390416 0.4485329 -0.46580362 -0.5730891 1.3373454
-0.05494314 0.8097698 -1.1163702 -0.4521593 0.75615704 0.95368075 0.30688012 0.4900571
-0.008514933 -1.0954657 -0.5036742 -0.10331717 -0.46825734 -0.78567547 1.230068 -0.4548602
-0.731533 -0.3218509 -1.098271 1.2887194 0.6132439 -0.03593064 1.3570541 -0.6173172
-0.7576621 -0.4738004 0.37773344 1.1415869 1.3126106 -0.37289262 0.35552508 -0.34240776
-0.55675405 0.31477228 0.61712754 -0.7173038 -0.44902816 -1.1107695 0.7598882 -0.25756523
0.14024757 0.7711341 -0.6181907 -1.0717381 0.19531168 0.7976075 -0.3683311 0.22192724
-0.1861949 -0.3649437 -1.7117915 0.29031008 -1.1380976 -0.78045124 0.5756151 -0.97635704
0.65562344 -2.4872568 -0.46709326 -0.82693005 0.033517744 -0.6798775 -1.4212542 -0.34286663
0.9476746 0.6514113 -1.4070877 -1.0437696 0.45041788 -0.10090223 -0.23018792 -0.18362644
1.1095268 -0.60311896 -0.12180496 -0.33148703 -0.11970025 -0.2950292 -0.34914154 1.4774959
0.70218456 1.5860891 1.2552515 -1.7059911 1.6388497 0.63776404 -0.6766232 -0.3393343
-1.3405428 -0.65442437 -0.8456117 -0.07311661 -0.18165201 0.12327987 2.221157 -0.26064733
0.61707836 -0.48114273 -1.7977883 1.0185106 0.45424348 0.265877 -0.5650851 0.9347586
1.0837874 -0.56466985 0.7194622 -1.0379546 -0.7630914 0.43046838 -0.9449401 1.389945
1.3875198 0.24680339 -1.0481373 0.16820014 -0.67505044 -1.0627083 0.3081394 0.559036
-0.69924474 0.13879403 0.8667803 1.592418 -0.67795515 1.2074195 -0.1857851 -0.20048757
-1.1422443 -0.057005234 0.7011222 0.41657427 0.2564551 2.5332153 0.23704728 0.85846174
-1.3322731 -0.4503852 -1.9585243 1.0588162 0.39792228 0.5987837 0.48176685 -0.041902106
-0.32139972 -1.781821 -0.77654195 -1.0971382 0.7715809 -0.20866486 0.020078344 -0.14223681
0.054449897 0.620025 -0.9944123 -1.0273539 0.066992015 0.40056336 -0.44103542 -0.826593
0.25161102 -1.2468386 0.11686174 -0.47868523 -0.26397502 -0.02740908 0.1920116 -0.36797956
-1.1052649 -0.19015937 0.7706434 1.2221608 0.13762094 -0.10933361 -0.28315127 -1.032983
-0.69912463 -0.8376033 1.2945092 0.25828847 0.8426737 -0.058685843 0.39718896 0.25589854
-0.587403 1.0250021 -0.847118 0.23501863 -0.6058974 0.98163855 -0.9573879 1.8866153
-0.58925366 -1.4652956 1.3793631 0.25968546 -1.0982542 -0.5683196 -0.11611178 0.93487585
-0.6250361 -0.5778949 1.1848065 0.8575966 1.0720918 1.18597 0.25963327 0.07026234

critic.2.bias f4 [64]
00000000: a59d 75bf 5fe3 2e3e a5cc 61be f81e 8abe
00000010: 5cd8 003f 55a4 85be 579c 533d 70a5 8bbe
00000020: c169 1f3f d84a 0abc b877 90be 8571 a03e
00000030: e44d e6be b7dd 3a3f afee 863f d6ea a53f
00000040: 9d06 833f 7fc6 a2bf ee67 1abf 0cac 27bf
00000050: e7e0 fbbe e8cb 273e 3f76 f7be abaf 2dbf
00000060: 3e27 39bf a38f f0bf 4617 09bf 8125 3cbf
00000070: 9fc3 9b3e 5a47 823e 8fb0 0e3f 9d20 9c3d
00000080: 0c2d 083f db43 8ebd 9e43 cabf 57a8 2fbf
00000090: 4b8c 63bf 5a97 2bbf 42a7 8f3f dd16 85be
000000a0: 6dd9 50bd 14d8 26bf 8b17 d7bd 9520 f0be
000000b0: f414 4b3f d9d0 1f3e 3b39 793f cfdc 12bf
000000c0: a2b1 42bf 3731 84bf 2265 08bf f0cf a33f
000000d0: 485c 60be c596 b2bf f278 cdbe 12ed 093f
000000e0: 68b2 193f b5f2 1c3f 3912 8e3c a7f9 e1be
000000f0: db8a ef3e 7a4f 553f 4938 123f 793f e5be
-0.9594367 0.17078923 -0.22050722 -0.26976752 0.5033014 -0.26101938 0.05166277 -0.27274656
0.6227074 -0.008440696 -0.28216338 0.3133661 -0.449813 0.7299456 1.054159 1.2962291
1.0236393 -1.2716826 -0.60314834 -0.654969 -0.49195024 0.16386378 -0.48332402 -0.67846173
-0.72325504 -1.8793834 -0.5355114 -0.73494726 0.30422685 0.25445062 0.5573816 0.07623408
0.53193736 -0.06946536 -1.5801885 -0.6861624 -0.88885945 -0.6702782 1.1222918 -0.25994006
-0.050988603 -0.6517346 -0.10502537 -0.46899858 0.79328847 0.15607013 0.9735295 -0.5736818
-0.76052296 -1.0327519 -0.53279316 1.2797832 -0.21910203 -1.3952261 -0.40131336 0.53877366
0.6003785 0.6130784 0.017342674 -0.44135782 0.46785626 0.83324397 0.57117134 -0.44774988

critic.4.weight f4 [1, 64]
00000000: dfbe 28be 697c f4be 3d14 b13e 337f c5be
00000010: 60db d5be 85f9 9e3e ae26 9d3e e88b ad3e
00000020: 23ac b23e 3dea cc3e 8e93 973e e439 c2be
00000030: 0c0a a73e 13ca 7d3e b03f 8c3e bf0a ac3e
00000040: 44b3 393d c5e3 8b3e 3bab c73e 426b ecbe
00000050: 1625 36be b560 713e 1b1a 95be 2e40 8cbe
00000060: 6200 d5be fa3a c8be f0f5 433e 02c3 91be
00000070: 22db 8dbe d524 85be e2a4 c1be 2d43 ee3e
00000080: 9f3d ae3e 4fb4 9fbe 649e b33e 7bca 26be
00000090: ccff c4be c3d7 c13e 5de8 a93e bf3b b5be
000000a0: aefc cfbe ba9c 57be 520b d8be 72b8 bbbe
000000b0: 5703 d33e 5926 f4be 3281 b13e 18af a2be
000000c0: 0add 8ebe 0ef7 dbbe d24f b73e 464f b73e
000000d0: 2151 bbbe 1602 cdbe b41a 4ebe 5067 c13e
000000e0: 8b72 18bf 9e4c 6fbe e9a9 a0be 0d51 a03e
000000f0: b123 813e 70f9 c2be 2ada 9dbe 95c3 e7be
-0.16479062 -0.47751167 0.34585753 -0.38573608 -0.41768932 0.31049743 0.30693573 0.33895802
0.34896955 0.4002246 0.29604763 -0.37934792 0.32624853 0.24784116 0.2739234 0.3360195
0.045336977 0.27322212 0.38997826 -0.4617558 -0.17787585 0.23572047 -0.2912148 -0.27392715
-0.41601855 -0.39107496 0.19136786 -0.28469092 -0.27706248 -0.26004663 -0.37821108 0.46535626
0.34031388 -0.31192252 0.3508178 -0.16288178 -0.38476408 0.37859926 0.33185092 -0.35397145
-0.40622467 -0.2105588 -0.42196137 -0.36664158 0.41213486 -0.47685507 0.3466888 -0.3177421
-0.27903014 -0.42961925 0.35803086 0.35802668 -0.36585334 -0.40040654 -0.20127374 0.37774134
-0.5954978 -0.23369071 -0.3137963 0.31311837 0.25222543 -0.3808093 -0.30830508 -0.45266405
