Model Results/ppo_sentiment_AMC2020-09-011999.pth (torch, 50577 bytes, 11 tensors)

actor.0.weight f4 [64, 20]
00000000: 27ef 0240 b94b 953f a96e 953f b068 5ebe
00000010: cf20 3a3f f39e d13e 97bb 9fbe a42b cebf
00000020: ceec e9bf 748b 83be ff23 29be d242 1dbe
00000030: b281 1f3d 6e3c 40bf 3c68 a53e 14b1 afbf
00000040: 0b55 97bf b153 23bf 4f45 2d3e 8016 433c
00000050: 06bd 803f 5e43 153f 58e6 cd3f a34c fdbe
00000060: 7618 e1be e030 08bf f99c 1540 3d80 ef3f
00000070: 818b 833f 6268 61be 1940 25be 65d0 8bbe
00000080: daee 08bd fe4f 7cbf c1ec 84bf 9bde 15bf
00000090: 57c7 563d f883 8cbd 1107 38bc 8365 aabe
000000a0: a670 83be 631f 46be b9a8 1abf 6c7b 0cbf
000000b0: e647 49bf db4b 08bf a1bc ab3f f38e bd3f
000000c0: 053d bc3f 0faa b7be 9eea a3bb 90aa 34be
000000d0: 49e0 c7be 9f6b 9bbf 3178 ac3f 2e53 153f
000000e0: 4599 e73f 4669 af3f 9726 5b3d bf3d 33bd
000000f0: d620 82bf e38b 02bf 4c5b b3be 6165 9d3e
00000100: 2d84 c23e 94a2 563e db60 9b3f dbdc 8bbe
00000110: d642 24bf d916 c3be 5ab8 86be b428 8cbe
00000120: 5f16 823f 7bd7 063d 39ca 383f f34b 3c3f
00000130: 4d37 cc3f 066a 0940 856a 99be 81de 6c3e
00000140: 9391 4b3f 07d4 2fbd b0fe 1fbf 9e29 1abf
00000150: bdb5 53bf cc01 44bf 08a9 7b3f ad43 0040
00000160: 456f 1740 9b17 bc3d 3890 4f3e 261e 913e
00000170: 1222 a2bf aa26 50bf 849e cb3f 900e b23e
00000180: cb67 ef3e 3e81 423f d72c f2be d14b b13d
00000190: 133c 93bf d007 b93d 83a0 8dbe f8c6 673e
000001a0: 9726 893e 6c84 cb3e 2ac9 f3bf 3658 45bf
000001b0: 34a0 3cbf ef48 343e 8f17 a03d f77d 653e
000001c0: e71c 9dbf 7c22 df3e 9002 3f3f b8be 463f
000001d0: a177 97be e834 833f f62c bb3e 322b 783d
000001e0: f5b5 993f 963c a8be 40da 1ebf 8e45 053e
000001f0: 2192 153f b86e ea3e a527 1cbf 7d56 013f
00000200: 09af dd3f e95c 2e3e 54e3 1b3d 14f0 8a3e
00000210: 7031 39bf 0d99 e0be b102 1bbf 340e cdbf
00000220: 1997 a0be 16ea adbe 0c8f cabe de88 7c3d
00000230: c593 60be 2578 953d 3bc0 103e 06b6 8fbe
00000240: 181e c03e 1684 853d 56de cbbf 3d66 f6bf
00000250: 8d93 02c0 0c60 f5be 65bc 40be 823a c6be
00000260: e0a9 89bf 175d b13d a27d 163f 9a09 94bf
00000270: b017 13c0 0915 efbf a600 c53d 3c0a 963e
00000280: f479 8e3e 0685 663f 3691 343f 7a8e 15bc
00000290: f2d6 f2bd ac12 31be 19d0 6cc0 246c 85c0
000002a0: f126 a2c0 f2ec 86bf 4760 4bbf 82e8 b9be
000002b0: 7362 d9bf ff73 9ebf 37ff e3bf c955 f03d
000002c0: 66bc 04bf cc2e 57bf bccc 653e 0825 3bbb
000002d0: 4201 703f d0c3 73be c4ea e4be 519e e73c
000002e0: fa41 29be 9564 d53e a837 81c0 1025 f5bf
000002f0: d87e fbbe 6164 d0be f60d 18bd 7675 8c3e
00000300: 9e9b 65be 3fad bd3e c4b3 ff3e ba28 37bf
00000310: 2cd8 2abe 3136 0a3f b7cc b73e 0db7 89be
00000320: c5c0 29c0 0810 bcbf 2928 1ac0 84a6 0cbe
00000330: 2bb4 b73e c8ac 373d 2b1d 823d eaf5 47c0
00000340: 9c64 4dc0 1965 6ebe 267f 28be f3d6 953e
00000350: 5c08 ddbd 2b33 55bf 9282 663e fb97 7ebe
00000360: 0a3a 383f 2807 84bf 08eb 2f3d 6267 613e
00000370: de7c e43f fe7c 2a40 31a9 3d40 cc4e d23e
00000380: 80b3 0c3f 3873 973e bff7 2a40 5183 6b40
00000390: 6ca3 8840 cbad 773e 1942 393d 0035 523e
000003a0: 3c80 ec3e 1944 703d 4cca 23bf 84f5 4dbf
000003b0: 9a76 2dbf 3d53 2e3f 70c6 77be adf8 423e
000003c0: 62a5 3a3e 1d5a 8f3c 60d9 1ebf 0b64 643d
000003d0: 30ab e83c 89f1 9fbd 384d 1c40 f91b 1740
000003e0: ac19 0c40 5472 ee3e b017 b13e 3d02 75bd
000003f0: e5e5 993f fe3e 2440 50f5 7c3f 96bb 6a3d
2.0458467 1.1663734 1.1674396 -0.21719623 0.7270631 0.4094158 -0.31197807 -1.6107068
-1.8275392 -0.25692332 -0.16517638 -0.15357521 0.038942046 -0.7509221 0.32306087 -1.3725915
-1.1822828 -0.6379958 0.1692097 0.01190722 1.0057685 0.5830592 1.608592 -0.49472532
-0.43963975 -0.5319958 2.3377059 1.871101 1.0276948 -0.22012475 -0.16137733 -0.2730743
-0.03343091 -0.9855956 -1.0384752 -0.58542794 0.0524362 -0.068611085 -0.0112321535 -0.33280572
-0.2567188 -0.1934791 -0.604137 -0.54875827 -0.78625333 -0.53240746 1.341694 1.480925
1.4706122 -0.35871932 -0.005002334 -0.1764319 -0.39038303 -1.2142218 1.347418 0.5833005
1.8093649 1.3704002 0.0535036 -0.043760058 -1.0166271 -0.509947 -0.3503059 0.30741408
0.37991467 0.20960456 1.2138933 -0.27316937 -0.64164484 -0.3810337 -0.26312524 -0.27374804
1.0163077 0.032920342 0.7218357 0.7355339 1.5954376 2.1470962 -0.2996408 0.23131754
0.79519004 -0.042926814 -0.62498 -0.6021975 -0.82699186 -0.7656524 0.98304796 2.0041306
2.3661664 0.0918419 0.20269859 0.28343314 -1.2666647 -0.81308997 1.590775 0.34776735
0.46758875 0.7597846 -0.47299835 0.08657039 -1.1502708 0.09034693 -0.27661523 0.22634494
0.26787254 0.39749467 -1.9045765 -0.77087724 -0.7368195 0.17605947 0.078169934 0.22411333
-1.2274445 0.43580997 0.74613285 0.77634764 -0.29583457 1.0250521 0.3655774 0.06058807
1.2008654 -0.32858723 -0.62051773 0.13014814 0.584261 0.45787597 -0.6099799 0.50522596
1.7319041 0.1702763 0.038058594 0.2713629 -0.7234106 -0.43866768 -0.6055098 -1.601996
-0.31365278 -0.33967656 -0.3956226 0.061653964 -0.2193137 0.072983064 0.1413583 -0.2806856
0.3752296 0.06519334 -1.5927227 -1.9249951 -2.0402558 -0.4792484 -0.18821867 -0.38716513
-1.0754967 0.086603336 0.5878545 -1.156543 -2.2983208 -1.8678294 0.09619264 0.29304683
0.27827418 0.9004673 0.70534074 -0.009128207 -0.11857404 -0.17292279 -3.7002013 -4.1694508
-5.0672536 -1.054106 -0.7944378 -0.36310202 -1.6983169 -1.2379149 -1.781226 0.11735112
-0.51849973 -0.8405578 0.22441381 -0.0028556008 0.9375192 -0.23805165 -0.44710362 0.028273733
-0.16529074 0.416783 -4.038044 -1.9151936 -0.49120212 -0.40701583 -0.03712269 0.27433366
-0.22422644 0.3704624 0.49941838 -0.7154652 -0.16684026 0.5398894 0.35898373 -0.2689747
-2.6523907 -1.4692392 -2.4087012 -0.13735396 0.35879645 0.04484251 0.063532196 -3.1243844
-3.2092657 -0.23280753 -0.16454753 0.29265556 -0.1079261 -0.832812 0.22510746 -0.24862663
0.7196356 -1.0314684 0.042948753 0.22012094 1.7850606 2.663879 2.9634516 0.41075742
0.54961395 0.29580092 2.6713712 3.67989 4.269949 0.2418739 0.04522905 0.2052803
0.46191585 0.058658693 -0.63980556 -0.8045275 -0.67759097 0.6809576 -0.24196792 0.19040175
0.18227151 0.017499024 -0.6205044 0.05575947 0.028401941 -0.07809741 2.442213 2.3610823
2.189067 0.465716 0.34588385 -0.059816588 1.2023283 2.5663447 0.9881182 0.057307802

actor.0.bias f4 [64]
00000000: b79e a5bd 7606 b7be 216c c7be 2e00 d9be
00000010: 509c d8be 2a5f 903e fcbc c1bd 6e14 1dbd
00000020: 0de5 9cbd ec35 1c3e 7dc6 f63e 39ab 4cbe
00000030: 39ef c6bd b149 eebe 9af4 9bbe 045b 4a3f
00000040: 8251 2b3e d3da 4bbf 59c9 e2be e7bb a53b
00000050: 211a 243f 54f8 7c3e 7623 43bf 1e03 f9bd
00000060: 03d3 d4be 7255 383d cb62 263f 4cf3 c63e
00000070: 5188 16bf 48e9 893e 5653 59bf dca4 403f
00000080: ff48 803e f27c cc3e 3c4a 53bf 92ae 6e3f
00000090: 5705 bcbe 0b0d 2dbe a52a bdbe 15b1 a2bd
000000a0: 86d9 c1bb 5cce 193e 6a1b 303e 70dd 0b3f
000000b0: 620c 243f e68c 263e 121e 013f 8267 a0be
000000c0: 32c0 403f bb31 c2be 68c4 8fbf 2d71 373e
000000d0: e83d 49bf fd19 7a3e e2ce b3be a039 05bf
000000e0: 2995 e33e 4f6b b0be 3dc9 47bf 2164 bbbe
000000f0: a473 ed3e 5de3 afbe d8ef 153e 05e7 dcbe
-0.08086913 -0.35747117 -0.38949683 -0.4238295 -0.42306757 0.28197604 -0.09459874 -0.03834956
-0.076608755 0.15254945 0.4819831 -0.19987191 -0.09713597 -0.46540597 -0.30460054 0.7904513
0.16730312 -0.79630774 -0.4429424 0.0050578 0.6410237 0.24704105 -0.76225984 -0.12158798
-0.4156724 0.045003362 0.64994496 0.38857496 -0.5880175 0.26935792 -0.84892786 0.75251555
0.25055692 0.39939076 -0.8253515 0.93235123 -0.36722824 -0.16899507 -0.36946598 -0.07943932
-0.0059158234 0.15020126 0.17197958 0.5463476 0.64081395 0.16264686 0.5043651 -0.3132897
0.75293267 -0.37928566 -1.1231813 0.17914267 -0.78610086 0.24423976 -0.35118777 -0.52041054
0.44449738 -0.3445687 -0.7804144 -0.3659983 0.4637729 -0.34353152 0.14642274 -0.43145004

actor.2.weight f4 [64, 64]
00000000: 9c55 f4be e59b 08bd 3aad 2a3e 2d36 583f
00000010: b0f3 dcbe 322a 2e3f 1dc1 933e cd71 82bc
00000020: 9866 6cbf 31ef 883f ca1a 44bc f267 523f
00000030: c59c 87be 5150 4ebe f298 9bbc 0e55 49bf
00000040: 4d7d 3d3f 743d 80bf 8efd 83bf 2cef 8dbf
00000050: c2ae 25bf 9efa 3c3f 85ac e33e ca33 193f
00000060: 0a7a 31bf 34f3 a53f c801 29bf d4f6 21bf
00000070: 4e3a ebbe 29de 54be e4d9 09be 59ab 9b3e
00000080: 77d2 d73e 3013 f43d 6a27 52be 5913 143d
00000090: 658e 323f c8bb dc3f 21fa 60bf 11f1 96be
000000a0: 84d0 f53e 2720 2cbf dbfd 6f3e 014e 5b3f
000000b0: 52f3 01bf 1259 46ba 3f47 0abe db8c 5ebf
000000c0: d87a ee3e aaa6 113f 0f04 923f 025d 1e3e
000000d0: 03e8 873f 3cc6 b23f dada 13bf b313 30bf
000000e0: 3c04 46bf 20cb 46bf 729f cabe 7f89 2ebf
000000f0: 596b 293f 99a8 033e e7f4 653f 4c24 1f3f
00000100: 7127 e33e fb16 4c3e 76cb 96be 3c4e 943e
00000110: 2f07 5b3e a79b 06bd 1296 c73d eb72 07be
00000120: a342 05bf 95b1 c63e 78b3 1d3f 554e 523f
00000130: 7ff1 933f 891c 38bf cc3e 7bbf c2c5 a13e
00000140: 7050 653e da52 38bd ad09 cdbe 8c86 39be
00000150: 1c35 443f b31a 793f 4971 92be 43c3 4ebe
00000160: dfa3 bcbe 652e 2e3f fd16 4a3e 84b8 35bf
00000170: 5bcd 9a3d 499f ea3e 79c2 13bf 1f74 493f
00000180: eca9 9f3c cd95 4a3f e542 4abf c17e 6f3f
00000190: c916 b5be 4178 3c3f 3f8a 923e 41d4 19be
000001a0: a2d3 9dbe 7dc5 cabe f4e9 bcbe ef23 003e
000001b0: 60c6 a2be 3e28 10bf 9b63 d23d fc3c 263f
000001c0: ed2b f7bd e287 8f3f f734 8ebf daf7 2abe
000001d0: d414 51bf 46af 4c3e 0962 55be d6b9 97be
000001e0: f466 40bf 0505 8bbe cd9b 7bbf 2a44 a83e
000001f0: 13c0 e93e 0fef 7abe 974f 283f bc25 f0bd
00000200: e833 97bf 749a a8be 23c7 dbbd bffc 5b3f
00000210: 52a0 dfbd 433b 95be bb06 8bbf 1c0d 8e3d
00000220: 9ca2 3c3f e1c7 22bf d003 6e3f e532 2abf
00000230: dcfd 363f f521 82bf ff21 733d 3815 a9be
00000240: 2bb7 84be ea4d 7e3e 259c 0b3f 797e 373f
00000250: b981 213f c21e 1fbf 9269 a1bf 7374 4dbe
00000260: 71cb eabe 667b f43e 0b15 043f a2c9 803f
00000270: 186d 3cbf 8456 3f3f 7b16 4cbe e4b4 7c3f
00000280: 47e0 de3e 79fd 043f d6c8 1bbf f740 783f
00000290: 30d0 19be d6d0 08bf 6aa7 4b3f 7bc1 7e3c
000002a0: bdb1 6cbf 1da5 4f3f f17e 1fbf 050b d2be
000002b0: 7079 073e 0c25 163f a63c de3e d0b8 1e3e
000002c0: 3993 6a3f eb40 923f 91ff 83be 5be0 603e
000002d0: 78fd 36be 22bc 15bf 18d7 45bd 9dd5 14be
000002e0: 21ff 9e3f 7f7d 8c3f 36f1 46bf 343d 923e
000002f0: c49f 50bf f357 d6bf d9b6 84be 84a3 bb3f
00000300: 4106 11bf 6404 bbbc db88 09bf 972e 643e
00000310: 2b60 463d 07d9 92be f450 aa3e f1fa d73d
00000320: 35b4 72bf 707b 8ebf 15e1 db3d d9f6 163e
00000330: cf30 ed3e e406 0ebe 2585 c1be 2ca2 09bf
00000340: 068b 1d3f a6ce f6ba 87f0 aebe 11cb adbd
00000350: e7cf 0ebf f18c 103e ffeb ac3e 19a2 9abd
00000360: c1a5 94bd 0275 a2bf 60e9 95bf 89a9 9ebd
00000370: 5707 193f 1ddd cd3e 170b f03e 7138 ddbd
00000380: 0da7 993e 932b 9ebe 2507 0dbe e531 e03b
00000390: 08a4 8f3e 4917 d23e 3203 293e 0b18 bfbf
000003a0: e02f e03e 70a3 85bf 4385 663e 9f5e 4fbe
000003b0: 49d1 093f 84c6 8cbf 32a3 153e faad b43e
000003c0: 969a 423f 2b62 b53d 96b2 193d d426 ddbe
000003d0: 2048 61be 0506 b43e c0f1 103f b781 623f
000003e0: 2ab2 98be c4f5 99bf edde 863c 653c 0fbf
000003f0: 6790 11bf 7e9b 0c40 ffe2 f2be 7cd6 ad3e
-0.47721565 -0.033351798 0.16667643 0.84457666 -0.4315467 0.68033135 0.2885827 -0.015923405
-0.92344046 1.0697995 -0.011969278 0.8218986 -0.26486793 -0.20147826 -0.018993828 -0.7864541
0.7401932 -1.0018754 -1.0311754 -1.1088614 -0.64719784 0.7381991 0.4446756 0.5984465
-0.6932684 1.2964845 -0.6601834 -0.63267255 -0.4594292 -0.20787872 -0.13462025 0.30404165
0.4215276 0.11917722 -0.20522848 0.036151264 0.69748527 1.7244806 -0.87881666 -0.29480794
0.48010647 -0.6723656 0.23436682 0.856659 -0.507619 -0.0007566373 -0.1350374 -0.8693368
0.46578097 0.56894934 1.1407489 0.15465167 1.0617679 1.3966746 -0.57755816 -0.6878006
-0.7735021 -0.77653694 -0.39574772 -0.6817855 0.66179425 0.12857284 0.89826816 0.6216476
0.4436603 0.19930641 -0.29452103 0.28965938 0.21389459 -0.032863285 0.097454205 -0.13227431
-0.52054805 0.3880736 0.6160197 0.82150775 1.1558074 -0.7191854 -0.98142695 0.3159619
0.22393966 -0.04500089 -0.40046445 -0.18117732 0.7664354 0.97306365 -0.28602055 -0.20191674
-0.36843774 0.6803954 0.19735332 -0.70984674 0.075587 0.4582465 -0.57718617 0.7869281
0.019490205 0.7913483 -0.7900832 0.93552786 -0.35368946 0.7362099 0.28621098 -0.15022375
-0.30825526 -0.39603797 -0.36897242 0.12513708 -0.31791973 -0.56311405 0.102729045 0.64936805
-0.12068925 1.1213343 -1.1109914 -0.1669611 -0.81672406 0.19988737 -0.20838179 -0.2963397
-0.75157094 -0.27152267 -0.9828461 0.32864505 0.45654353 -0.24505256 0.65746444 -0.11725947
-1.1812716 -0.32930338 -0.10731342 0.85932535 -0.109192505 -0.29146776 -1.0861429 0.06936094
0.7368562 -0.6358624 0.9297457 -0.6648391 0.7148111 -1.0166613 0.059358593 -0.33024
-0.25920996 0.2483441 0.5453513 0.71677357 0.63088566 -0.6215631 -1.2610343 -0.20063953
-0.45858338 0.47750396 0.5159461 1.0061533 -0.73603964 0.7474139 -0.1993045 0.9871352
0.43530485 0.5194927 -0.60853326 0.9697413 -0.15020823 -0.5344366 0.7955233 0.015549059
-0.9245871 0.8111132 -0.6230307 -0.41024032 0.13229918 0.5865028 0.43405646 0.15500188
0.91630894 1.1426061 -0.2578092 0.21960585 -0.17870128 -0.5849019 -0.048300833 -0.14534612
1.2421609 1.0975798 -0.7771181 0.2856232 -0.81493783 -1.674559 -0.25920752 1.4659276
-0.5665017 -0.022829242 -0.5372445 0.22283398 0.048431557 -0.28681204 0.33264887 0.1054591
-0.94806224 -1.113142 0.1073629 0.14742602 0.463263 -0.13869816 -0.37796894 -0.5376308
0.6154026 -0.0018829897 -0.34167883 -0.084859975 -0.55785984 0.14116265 0.337738 -0.07550449
-0.072581775 -1.2691958 -1.1711845 -0.0774718 0.59776825 0.4020776 0.4688346 -0.10801781
0.30010262 -0.3089262 -0.13772257 0.0068418854 0.28054833 0.4103339 0.16505125 -1.4929212
0.43786526 -1.0440502 0.22511773 -0.20250939 0.5383497 -1.0998082 0.14613035 0.35288984
0.7601713 0.08856615 0.03752383 -0.43193686 -0.2200017 0.35160843 0.5661888 0.8847918
-0.29823428 -1.2028127 0.016463721 -0.5595153 -0.56860965 2.1969905 -0.4743881 0.339527

actor.2.bias f4 [64]
00000000: 5052 5fbd c74f 323f d320 10be 3a45 bfbe
00000010: 86d1 d43e 2a5b 8238 4d30 db3e 8eaa 533f
00000020: c592 b1be 72c4 0fbd 8d5a b13e ab6b c9be
00000030: 3354 ad3e a8d7 303e 1368 ec3e 44b4 aa3e
00000040: 4147 ddbe 8584 5abf 94c7 513e e31f bf3e
00000050: 81fd 02bf fa44 333e a601 09bf ba37 7abe
00000060: 45d0 7f3e c85c 2fbd c8f8 32bf 7340 b7be
00000070: 2767 723e f4e9 14be e70f 9e3e 2427 5ebf
00000080: f253 fdbe 8825 80bf 276f 98be 188a 703e
00000090: dbae 453f 4db3 73be bddd 9a3c a789 65bf
000000a0: eebe 413f ebfd eb3e 3e5f 48bd e2e6 c8be
000000b0: 9387 a0be ba2b 3a3f da6b 2f3f 983c c3be
000000c0: 6ca1 ed3e 4bc8 27bf a591 dc3e bd28 593e
000000d0: 0729 6dbf 5354 693e 3c4e 1e3f dec5 5cbb
000000e0: de58 50be 6db6 943e 07e8 efbe 671e 15bf
000000f0: dd84 543f 97c6 d9bb 9dd6 2fbd 719f 37bf
-0.05452186 0.6965298 -0.14075021 -0.37357503 0.41566104 6.215864e-05 0.42810288 0.8268212
-0.3468229 -0.035099454 0.34639397 -0.39339957 0.338533 0.17269766 0.46173152 0.33340657
-0.43218425 -0.8535846 0.2048629 0.37329015 -0.51168066 0.17506781 -0.5351814 -0.2443532
0.24981792 -0.042813092 -0.6991086 -0.35791358 0.23672162 -0.14542371 0.30871508 -0.86778474
-0.49478108 -1.0011454 -0.29772303 0.23490179 0.77219933 -0.23798867 0.018904561 -0.89663166
0.7568196 0.46092162 -0.048918955 -0.3923865 -0.31353435 0.7272297 0.68523943 -0.38132167
0.46412218 -0.6554 0.43079868 0.21206947 -0.9264073 0.22786073 0.61838126 -0.0033687274
-0.203464 0.2904543 -0.4685671 -0.58249515 0.83015233 -0.006645988 -0.04292928 -0.71727663

actor.4.weight f4 [7, 64]
00000000: da59 0bc0 a97b e93f 3e3d b8bf 2e93 9c3f
00000010: f7bf c23e 42c2 21c0 8a32 e53f f6e1 c1bf
00000020: 2db0 26c0 db9a f9bf 8268 c33f 1359 eb3f
00000030: a8bb 16c0 20b3 e73f 1503 1a40 647b 6cbf
00000040: f832 0e40 48ff 9b3f 7c49 bebf bf94 0140
00000050: bb95 ad3f 416b 15c0 a3b6 85bf 7295 d13f
00000060: 8fb8 cc3f ac2a 0ac0 eac6 61bf 6d86 273f
00000070: 45e6 57bf e5ee a13f fc88 f63f 929b 81bf
00000080: 4727 cc3f f852 27c0 2a83 c73f 8441 cdbf
00000090: e493 e23f ac0c 653f e0e1 28bf 34e4 b7bf
000000a0: ee7f c13f d9d7 2c3e dc19 bc3f 9f5f 23c0
000000b0: d4f7 79bf 3109 c93f cc0f 0cbf ca55 62c0
000000c0: 6f2a b8bf e08b e3bf 7c7e 0440 3f51 0440
000000d0: 6d4d 1ac0 38cc 1e40 4e33 ae3f 3568 1040
000000e0: 0b7c 80bf 0c51 2640 7c05 193f 9e05 adbf
000000f0: cecd 393f 9bf2 983f bdfd cfbf 0b33 fcbf
00000100: d156 d23f 57f0 8e3f d3a7 debf 414b 0c3f
00000110: d2ee 31bf cb62 073d 94ac 10c0 8be4 febf
00000120: 62a3 cdbe 834e 87be 6bfb fe3f a975 ec3e
00000130: ca06 9abf 84d2 5fbe 482e 10bf 41b0 a3bf
00000140: d857 42bf 3eeb ec3c 07bd f9bd 6473 233e
00000150: 40e0 de3e 5a4c 813c 1560 e33e e715 9ebd
00000160: 032b 4f3d 1211 14bf 53b4 2dbe 1a61 6bbe
00000170: 164f 36bf c14b aebe bb1d e03e bc03 0d40
00000180: d4cf 7abc 2654 803d f290 933e 764c 473f
00000190: 8231 d83e 278b 153e cc68 f4bf 150a b5bd
000001a0: 4eae fdbd 77f3 af3f 0adf 0340 a6f8 4abe
000001b0: cfcc 47bf 934b 7abf 8a54 e43e ad5c be3e
000001c0: 7ca2 8fbe fd61 0abe d314 c63e 27f9 c43e
000001d0: 58fd bcbe 8199 8c3e 8d08 1bbf 5750 dd3c
000001e0: 627a 4abf ebf5 f1bd d067 383e c37d b43f
000001f0: 3a38 8d3f 65fa 1840 65fc 3d3f f723 66bf
00000200: 1a9b d33e a3e0 00c0 c581 e63e 01d8 823f
00000210: 838e d6bf b50c b03e 2f64 71bf e9c4 363f
00000220: f91f 4cbf dc68 af3e 2125 8a3f fdd6 b93e
00000230: 2802 d93e 75c3 af3d 3cfd 6fbf 2171 d03d
00000240: 3508 97bf 6eac e73e 8d0f ef3e 767c b6be
00000250: e050 0e3f 7194 69be 689d 97bf 6f0e 68bf
00000260: d82b a5be daaf 343d 018c 8e3e 27ce b73e
00000270: 34f1 b5be 990a 563f 4218 2a3f 4c48 c8be
00000280: 9e3d 7a3f 1475 d13e d137 183d 541f 1e3e
00000290: fed3 4cbf b470 9a3e ea3f 1b3f 4649 993e
000002a0: 9cc8 babe 918e 13bf 6f04 993e b008 4bbf
000002b0: ae41 343e e82c 6bbf d20d 14c0 24bb 933d
000002c0: 2086 a73e 79f5 05bf 89f3 283e e499 e9bd
000002d0: 99de 483e 706c febe 509c b6bf 66f6 943e
000002e0: 7159 a7be fac5 523d a8c5 b83e 1d0d 6e3f
000002f0: 8ea0 f8be bdab 7a3e fed9 f5be edd6 2d40
00000300: 284b c2bd bf88 9e3e 57f9 a6be f163 113f
00000310: cf66 9e3d 5a72 08be 3e7a a2be 5db1 15bf
00000320: 601f 3fbf 8b36 a13e a37b b7bf b4cf c53e
00000330: fbeb 4d3f fc08 60bf 92ab 633f 8563 3bbd
00000340: c3a8 45bf 2650 533f c5d6 7c3f 2d5f d8be
00000350: 3842 233e 3be1 a2be 370d 2cbf fa71 4fbe
00000360: 26bc 543f c8a1 19bf 525b 5f3f 2fad 953e
00000370: b39b 78bf f419 49bf f12a 65bf e136 6a3f
00000380: b45f 4c3e 1c69 b03d 2c2d 2b3e db0d 3fbf
00000390: a747 293e 4614 ebbe 9bcf bbbe f9c0 1d3f
000003a0: beec 94bf d92e 91bf e640 633e 4083 89be
000003b0: 2534 013f 91c0 efbe 7183 263e 554d a1bb
000003c0: 29aa 7d3e 2a00 813f 580e f93e 023f 973e
000003d0: 70f0 c1be 1e11 cdbe a7e8 9dbe 8b38 ea3c
000003e0: 65aa 46bf 9e02 0b3f b721 ed3e fcb4 483f
000003f0: 7c27 613f 66c7 1ebf eec4 653f b9d3 4cbf
-2.177359 1.8240863 -1.439369 1.2232416 0.38037083 -2.5274816 1.7906048 -1.5147083
-2.604503 -1.9500383 1.5266268 1.8386558 -2.3552036 1.810154 2.406438 -0.9237578
2.221861 1.2187281 -1.4866176 2.0247037 1.3561319 -2.3346713 -1.0446361 1.6373732
1.5993823 -2.1588545 -0.88194144 0.6543949 -0.8433574 1.265103 1.9260554 -1.0125601
1.5949486 -2.614439 1.5586903 -1.6035619 1.7701383 0.8947246 -0.6596966 -1.4366517
1.5117166 0.16879214 1.4695392 -2.5527112 -0.9764378 1.570593 -0.54711604 -3.5364861
-1.438795 -1.7777061 2.07022 2.0674589 -2.4109757 2.4812145 1.3609407 2.2563603
-1.0037855 2.5986967 0.59773993 -1.3517339 0.7257966 1.1949037 -1.624931 -1.9703077
1.6432744 1.1167096 -1.7394966 0.5480233 -0.69505036 0.0330532 -2.2605333 -1.9913496
-0.40163714 -0.26427087 1.9920477 0.46183518 -1.2033322 -0.21857649 -0.5632062 -1.2788163
-0.7591529 0.028920766 -0.12194257 0.15961987 0.43530464 0.015783478 0.44409242 -0.07719021
0.05057813 -0.5783855 -0.1696332 -0.2298626 -0.71214426 -0.3404217 0.43772683 2.203353
-0.015308339 0.0626605 0.28821522 0.77851045 0.4222527 0.14603864 -1.9094481 -0.088398136
-0.123867616 1.3746175 2.0604882 -0.19821414 -0.7804689 -0.9777157 0.44595748 0.3718008
-0.28053653 -0.13513942 0.38687763 0.38471338 -0.36912036 0.27460864 -0.6055992 0.027015848
-0.7909299 -0.11814483 0.18008351 1.410088 1.1032784 2.3902829 0.7421325 -0.8989863
0.4132927 -2.0137107 0.4502088 1.0222169 -1.6762241 0.34384695 -0.94293493 0.7139421
-0.79736286 0.3425969 1.0792581 0.36296836 0.42384458 0.08582202 -0.9374578 0.101778276
-1.179938 0.4524874 0.46691552 -0.3564183 0.55592155 -0.22810532 -1.1844912 -0.90647024
-0.32260013 0.044113018 0.2784119 0.3589947 -0.35535586 0.8360992 0.66443264 -0.39117658
0.9775027 0.40909636 0.037162606 0.15441638 -0.80010974 0.3016411 0.606444 0.29938716
-0.36481178 -0.57639414 0.29886195 -0.7931013 0.1760318 -0.91865396 -2.3133435 0.072134286
0.32719517 -0.52327687 0.16499151 -0.114063054 0.19616164 -0.49692106 -1.4266453 0.29094237
-0.32685426 0.051458336 0.360883 0.9298876 -0.48559994 0.24479575 -0.48017877 2.716243
-0.09486991 0.30963704 -0.32612106 0.56793123 0.07734453 -0.13324872 -0.31733888 -0.5847376
-0.7465725 0.31486925 -1.4334606 0.38635027 0.804382 -0.8751371 0.8893367 -0.045749206
-0.77210635 0.8254417 0.9876521 -0.42260113 0.15943229 -0.31812462 -0.67207664 -0.20258322
0.8309959 -0.60012484 0.8724872 0.2923369 -0.9711258 -0.78555226 -0.8951865 0.9148999
0.19958383 0.08613798 0.1671645 -0.74630517 0.1653124 -0.45913905 -0.36681828 0.6162258
-1.1634748 -1.1342422 0.22192726 -0.26857948 0.5047019 -0.46826604 0.16261078 -0.004922549
0.24771942 1.0078175 0.48643756 0.2954026 -0.37878752 -0.40052122 -0.30841562 0.028591415
-0.7760375 0.5430087 0.46314785 0.7840116 0.87950873 -0.6202301 0.89753616 -0.80010563

actor.4.bias f4 [7]
00000000: e9bb a13f efa7 a5bd 740d 373c 4146 88bd
00000010: 55ad 813c 26eb 06be 25e3 bf3f
1.2635471 -0.080886714 0.011172641 -0.06654025 0.015829721 -0.1317564 1.4991194

critic.0.weight f4 [64, 20]
00000000: ddb3 d33f 6d00 d8be 9ee3 53bf e4ce 85bd
00000010: 06e0 5b3c c7e4 cb3d 6368 e3bf bfa8 d73f
00000020: 9d73 9440 2b26 b1be 2972 bf3e 2e69 d43d
00000030: 2d84 483f 6dc8 fb3f 7566 eabe 9b26 d5bf
00000040: b795 7a3f 9f3a 4a3e fa53 d4bc b061 b0be
00000050: c310 03be 6077 483f 2e30 a7bd 36f5 b6bf
00000060: 7c2c a0bf 06b1 adbf 55a5 4040 547f 7b3f
00000070: 58ce 84bf 96ba 34be 0bf4 c8be 143e 62bf
00000080: 7470 32c0 c5b4 eebf 8a3b 5ebf 511b a93e
00000090: c566 dcbc 898b 15bf d7b8 7d3e 9f17 16be
000000a0: a005 803f 34c8 90bf be64 ba3e 3a37 5d3f
000000b0: 181e 733d 2e48 51bf 3908 6ebf bbb7 65bf
000000c0: 608c a5bf f9ae 603f 9ebe 0c3f 28cf 1f3e
000000d0: 9069 0fc0 751a 6b3f bc18 11bd 7cd6 69be
000000e0: d4ca f6be 59c0 fc3e f9bf 8abe 4d7a a8be
000000f0: 54a9 9b3f 6a4f 96bf d5de 1b3e 5a55 953e
00000100: 4c94 18be 60ca 8cbd 9d2c 24c0 80a2 723e
00000110: 31c5 3240 87b8 a9be f4c5 7e3e 2995 c73e
00000120: 3c97 e33f 6357 46bf cdfd e8bf e672 843f
00000130: 07db b23e 8cee 8dbf ff59 0bbe e13e a0bd
00000140: 90c5 e1bf 61fe 49bf 811f 26bf ea31 9cbd
00000150: e902 e13e edc3 0a3f b389 c940 9187 7a40
00000160: a41e 2140 3063 cc3e e769 06bf 796f b8be
00000170: b69d 903f 2037 293e 9517 aa3f d3a0 3340
00000180: ab91 c23f b36d 7e3f 7888 9ebe ecb4 01bf
00000190: 64a1 ff3e b1a8 ab3e 9b29 2dbf 2e13 8bbc
000001a0: 1225 393f 73e6 693f afd1 92c0 5981 c1c0
000001b0: 2b9a b1c0 2e9a a3bf b4c8 5ebf 411f 07bf
000001c0: ca01 03bf c389 2dbb 9726 da3e 9d82 0940
000001d0: a192 f5bf 5dfd 98bf a4c3 26be 30f9 69be
000001e0: cb19 c8bf dd9d dbbf 10b4 c7bf fdf7 03be
000001f0: 574c 52be 8afb c23c 1df0 8ac0 e5f9 10c0
00000200: d4ed acbf c60a 833e 0888 083d ac18 803e
00000210: 538b 9b3e a1c6 a13e fbd8 c1bf 3bd3 9bbf
00000220: ec17 6fbf 6b70 fabf 572e 203f d40c 443e
00000230: 6c44 2dbf 17ad f1bf 683d 97bf f129 413f
00000240: 1238 643f 8339 8f3f 0646 02c0 b495 b83f
00000250: cbb9 2340 7bb0 d33e ee75 293f 96c7 313f
00000260: 1f24 143f 99b1 ecbe 811a a0be 48fd 503f
00000270: 3b9f 09bf 73a0 0cbf a8ff b23f c235 603e
00000280: 8f94 8ebe 3352 e63e d883 31be f14d cbbe
00000290: c168 9f3e 8a14 913d 3817 cc3f 9ddc bf3f
000002a0: 7b72 f53f 324c 84bd 1a83 0e3f 4635 7e3e
000002b0: f074 67be 8bac 93be 17d9 95bf 8021 483d
000002c0: 45d5 f93f ee9b e7bf 85fa bdbb fc73 13be
000002d0: 8707 e83a 8cfb 4d3d b5f4 a73e 1d04 2dbc
000002e0: 6586 b03d 3e9d 3b3f 2ba8 c040 8c21 5a40
000002f0: b952 ac3f c9ee debe aa86 45bf 3444 8abf
00000300: 9cf7 da3f 814a a03f 59d2 293f a8ea f6bf
00000310: 30eb c63f 4d14 da3f 2bb0 afbd f59a 923e
00000320: 85dd bebf ddcf d13e 3a0b f13f 15ac e83e
00000330: 2a7b 843f b303 e13e d688 8840 1049 9940
00000340: d1fa 7940 6a37 a83f 8aef 783f f08d 073f
00000350: a408 22c0 319b 33bf 5085 aa3f 3ba9 1bbf
00000360: 22db 02be 04b1 333f 9096 053f 77b3 dbbd
00000370: 0a8e 3bc0 9e2e 91bf f020 503d 3304 973f
00000380: 3f69 f63e 0987 333f fe6d f93e 92f5 643c
00000390: d9e3 9dbf 08c8 9d3d 757a 1abe 1e88 babd
000003a0: 28a0 89bf 9531 a1be 1950 76bc bdc3 053f
000003b0: e14b e33e 9bb0 5e3e d401 273f e597 ac3d
000003c0: 86de ebbe a108 173f 1d9c 003f 43a8 a53f
000003d0: ef1b b43f bfa5 5c3f dbaf c33f 532f 5040
000003e0: 3485 5940 bb4a 28bf 9909 0ebf 3d77 0abf
000003f0: 60ae 2ebf 150b d43d 3a0f a9be e68f 60be
1.6539265 -0.42187825 -0.8276919 -0.06533602 0.013420111 0.09955745 -1.7766231 1.6848372
4.639113 -0.34599432 0.37391785 0.10371624 0.78326684 1.967054 -0.45781294 -1.6652406
0.97884697 0.19748925 -0.02591895 -0.3444953 -0.12799363 0.7830715 -0.081634864 -1.4293582
-1.2513576 -1.3569648 3.010091 0.9824116 -1.0375471 -0.17649302 -0.3924869 -0.88375974
-2.7881136 -1.8648916 -0.868096 0.33028653 -0.026904473 -0.5841604 0.24777542 -0.14657448
1.0001717 -1.1311097 0.36404985 0.86412394 0.05935487 -0.8175076 -0.92981297 -0.89733475
-1.2933464 0.8776699 0.5497836 0.15606368 -2.240818 0.91837245 -0.03542398 -0.22835726
-0.4820162 0.493655 -0.2709959 -0.32905808 1.216105 -1.1742985 0.15221722 0.2916668
-0.14900321 -0.068745375 -2.565223 0.23694801 2.7932856 -0.33148596 0.248802 0.38980988
1.7780528 -0.7747709 -1.8202454 1.0347564 0.3493273 -1.1088424 -0.1360855 -0.07824493
-1.7638416 -0.78903776 -0.6489182 -0.07626708 0.43947533 0.5420521 6.298059 3.9145243
2.5174952 0.39919424 -0.52505344 -0.36022547 1.129813 0.16524935 1.3288447 2.806691
1.5200704 0.9938614 -0.30963492 -0.5066669 0.4992782 0.3352714 -0.6764161 -0.016976919
0.7232219 0.9136726 -4.588096 -6.0470395 -5.5500693 -1.2781427 -0.87025 -0.52782065
-0.51174605 -0.0026479817 0.42607567 2.148597 -1.9185373 -1.195232 -0.16285568 -0.22848964
-1.5632871 -1.7157551 -1.5601826 -0.12887569 -0.20536934 0.023801584 -4.3418107 -2.2652524
-1.3510079 0.25594157 0.033332855 0.25018823 0.30379733 0.31596854 -1.5144342 -1.2173837
-0.93395877 -1.9565557 0.6257071 0.19145519 -0.6768253 -1.8880948 -1.1815615 0.7545462
0.89148057 1.1189426 -2.035524 1.4420686 2.558215 0.4134558 0.6619557 0.6944517
0.57867616 -0.46229246 -0.3127022 0.81636477 -0.5375859 -0.54932326 1.398427 0.21895507
-0.27847716 0.44984588 -0.1733545 -0.39707902 0.31134608 0.07083996 1.5944586 1.4989201
1.9175562 -0.064598456 0.55668795 0.2482501 -0.22603202 -0.28842577 -1.1706876 0.048860073
1.951821 -1.8094461 -0.0057976865 -0.14399713 0.0017702439 0.050288722 0.32803884 -0.010560063
0.08619384 0.7328681 6.0205283 3.4082975 1.3462745 -0.43541554 -0.77158606 -1.0802064
1.7106814 1.2522737 0.6633659 -1.9290361 1.5540524 1.7037445 -0.08578523 0.28633848
-1.4911352 0.409789 1.8831551 0.45443788 1.0350087 0.43948135 4.2667036 4.790169
3.9059336 1.3141911 0.9724051 0.52950954 -2.5317774 -0.7015868 1.3321934 -0.608051
-0.12778905 0.7019198 0.52182865 -0.107275896 -2.9305444 -1.1342351 0.05081266 1.1798156
0.4812717 0.7012792 0.4871673 0.013974564 -1.2335159 0.077041686 -0.15085776 -0.091079935
-1.0752001 -0.3148314 -0.015033745 0.522518 0.4439383 0.21747057 0.65237164 0.08427409
-0.4606821 0.5899754 0.5023821 1.2941974 1.4071025 0.8619041 1.5288042 3.2528884
3.398755 -0.6573903 -0.55483395 -0.54088193 -0.68234825 0.10353676 -0.3301943 -0.21929893

critic.0.bias f4 [64]
00000000: b2af 03bf d45e c7be 05d3 ce3e f104 3cbe
00000010: 4aae 48bf 5568 83bc 2939 c83e f819 053f
00000020: e6cc 8b3e 94ff 8abf b604 3e3f cfbb fd3e
00000030: 8d46 9ebe 9d36 253f 908e 33bf 0d6f 5b3f
00000040: 3377 7c3f 9e3b 8a3f cb18 91bd 37bc 8cbf
00000050: f8e7 f2bc 1516 08bd 762b 0abf 43aa 40bf
00000060: beb2 d23f 57d5 9e3c 6d3c e2bf ebff 3ebe
00000070: bc01 e23e c197 683f ef67 2dbe a12c f8be
00000080: 38b8 4bbf 06f2 023c 87f8 23bf 1ae5 b5bf
00000090: 383e ebbe 2be0 75be ed82 0b3f 0584 1abd
000000a0: 883a 24bf d21e 7a3f 8ed6 8cbc 51dc 4c3f
000000b0: cc17 4cbd 4272 a3bf b466 45bd a546 343f
000000c0: 452d 863f 126d be3e 6ad5 1ebf 27cd bc3e
000000d0: 3b9b bd3f 81f1 843f 7b29 25bf eb2c 09bf
000000e0: 5749 3fbf e73a 8e3f 0e96 7ebe 2a71 323f
000000f0: 45dc 773e f266 31bf c06d 453e 989d 023f
-0.51439965 -0.38939536 0.4039537 -0.1836126 -0.78390944 -0.01604096 0.3910611 0.5199275
0.27304763 -1.0859246 0.7422594 0.4955735 -0.309132 0.6453646 -0.7013941 0.85716325
0.98619384 1.0799444 -0.07084807 -1.0994939 -0.029651627 -0.033224184 -0.53972566 -0.752598
1.6460798 0.019388838 -1.767469 -0.18652312 0.44141948 0.9085656 -0.16934179 -0.4847155
-0.7957797 0.007992273 -0.640511 -1.4210541 -0.45945907 -0.24011295 0.5449665 -0.03772356
-0.6415181 0.9770328 -0.017192151 0.80023676 -0.049827382 -1.2769244 -0.04819365 0.70420295
1.0482565 0.3719259 -0.62044394 0.3687527 1.4812998 1.0386201 -0.6451642 -0.53584164
-0.7472128 1.1111726 -0.24861929 0.69703925 0.2420512 -0.6929771 0.19280148 0.5102172

critic.2.weight f4 [64, 64]
00000000: 8af6 d53f ae90 073f 190b 79bf aad9 aa3f
00000010: 5fd4 8abf 7240 6fbe e330 993e 9e4a a7bf
00000020: 90c0 0140 ea9a ea3e 07c0 2dbf 329e e5be
00000030: 360d 91bf ac93 c93d a666 9d3f 662a 28bf
00000040: 27b6 babe 37de 4a3d 9378 21be 70c3 11bf
00000050: 433f af3f 67ec 973f 237d be3e 9d26 523e
00000060: 172e cc3f fcfd 22bd 02c8 8fbd e953 88bf
00000070: 817a 973f 7452 333e cde7 7cbe e4ad 773f
00000080: c252 bf3e 426b db3f b0b3 583c 56ee 54be
00000090: 8dc5 ff3e 4ac0 e03e 7389 95be 86df 3a3f
000000a0: 40ee ef3f b577 f53e d522 98be 32db 0ebe
000000b0: acb1 f13b 4443 42bf 1900 c4be 90db cfbf
000000c0: f805 e73d b2a6 cd3e 8c37 b4bd f117 b63f
000000d0: fbf4 edbe 447b 39bf c5e3 813c 515d b53f
000000e0: e509 c93e 3c1d 473d 2581 01bc 7cde 4abf
000000f0: 8a19 c3ba cc65 84bf 4529 b13f dad6 07c0
00000100: d619 e23e df76 d3be 7048 babe 51de 22bf
00000110: 8c53 913f 2c25 03c0 8cd7 e43e 7655 82be
00000120: a6e5 5abf 9735 4d3f 634a 2d3f 71d6 0840
00000130: b5fa a4bd acfa 873d 281d 2d3f 4a85 5cbf
00000140: 22fa 223f 8663 623f aef3 85bf ba7b d63e
00000150: 5297 d9be 781b 0a3f e656 b73f a21c debe
00000160: 75ac 4dbe c004 a03f fb35 80bf ac8a 1fbf
00000170: eacd 04bf 9c4b 59be 2630 023e e871 493f
00000180: 288f 963e 0aba bcbe 4931 9cbe 4e79 893f
00000190: 7005 9b3f f0bc aa3f dc41 03bf ddea 98bf
000001a0: f2d0 003f 6f71 083f ac89 95be 61b2 583e
000001b0: a5ea 23bf b813 f4be 02a4 2bbf a544 58be
000001c0: 4070 af3e 9fce 823f bc56 50bf 075f 1dbe
000001d0: a71d 833f 864b 733f 6502 8dbf 4efd 26bf
000001e0: 61fb 7c3f cece c23b 946c 5ebf a7e9 22c0
000001f0: 0f5c af3f 6da4 92bf ae2e a33d 03f8 13be
00000200: 34fc 813f e5b2 babf bb80 de3f 3efa 7e3f
00000210: e234 603d 366c 4a3f bb76 293f 1ccd 70bf
00000220: 3a79 79bf 4b38 f7be f09b 4c3e bb3c 59be
00000230: 9176 e93d decc 173e 1b66 34bf 67d5 3140
00000240: a224 dabc 71ea 8a3f 64d2 c53e 80c8 aebe
00000250: dcc8 0e40 c266 5c3f 47ec 4e3f 5ab9 13bf
00000260: b9ea e33f 1def 84bf 28d4 8a3f e6ff 27bf
00000270: d96e 113f ef9e bfbe 2a11 1c3f 7f9b 223f
00000280: 531d 9abe a07c 06bf bdde 933f d613 c2bf
00000290: 0273 42be 86ea 8bbf 6fad 2bbe 3fc1 0040
000002a0: 5f93 d4be 707d 83be 2e01 8b3f fe08 7e3f
000002b0: 480d f5be 1415 f7be 760f 1cbe 4990 81be
000002c0: 8fb4 75be c6eb c9bd 0276 163f a7d8 9c3f
000002d0: 0782 053f 6ae7 0b40 2d0b 0cc0 a244 6940
000002e0: f1ce 13bf 1150 a7be d9ef 9ebf 008d 84be
000002f0: 50e2 83bf b723 20be d347 6bbe 4642 d43e
00000300: ce52 203f 0bb3 cbbf 4a43 6dbf e789 5ab9
00000310: 0971 c0bf a1bb dd3f 5c3d 10bf ed6f 1d3f
00000320: b741 e93f d845 e0be 3db0 cdbf 4c54 263d
00000330: 1cfa bf3f 447d f1be 4fca 313f 44a6 61bb
00000340: b07d 293e 00da 4ebe 79bc 2bbf 8f67 383f
00000350: 0e5b 37bf 249d c8bd 01ec 953f 77af fdbf
00000360: 1a91 0d3f 0b04 6d3f 7018 93be 2e95 e23f
00000370: 9fac 67bf b13e f1bf 4a6e 7c3f 5bb1 a5bf
00000380: e1dd f7be bffa a23f 1ad5 87bf 3333 54bf
00000390: e172 5bbf c510 1b3f ea99 78be 827f ae3f
000003a0: 378c d6bf 8095 2cbf 869d 73bf 3548 303f
000003b0: 0004 77be 8d97 903f 5366 24bf 38e5 f33e
000003c0: d953 dcbf 122a 133f 1ab6 8dbe 1f01 433f
000003d0: 38c8 06bf c20c fcbe ad24 a1be 1fe7 2bbf
000003e0: 45a5 77bf 639f c83f d36d 5cbf 6381 363f
000003f0: 79f5 20bf 45b2 bf3e c360 8ebf 9e48 c1bf
1.6715863 0.5295514 -0.9728256 1.3347676 -1.084606 -0.23364428 0.2992011 -1.3069646
2.027378 0.45821315 -0.67871135 -0.44847256 -1.1332157 0.09842619 1.2296951 -0.65689695
-0.36467096 0.049528327 -0.15768652 -0.5693884 1.3691181 1.1869019 0.37204847 0.20522542
1.5951566 -0.039793 -0.0702057 -1.0650607 1.183426 0.17511922 -0.246978 0.9674971
0.37367827 1.7142107 0.013226435 -0.20794043 0.49955407 0.43896705 -0.29206428 0.7299732
1.8744583 0.47942892 -0.29714075 -0.13950804 0.0073759165 -0.7588389 -0.38281325 -1.623888
0.11280435 0.4016624 -0.08799657 1.4226056 -0.46475968 -0.72453713 0.01585568 1.4169103
0.3926536 0.048611864 -0.007904326 -0.79245734 -0.001488493 -1.0343566 1.384072 -2.1224885
0.44160336 -0.4130163 -0.3638339 -0.6362048 1.1353621 -2.0491438 0.446957 -0.25455827
-0.85506666 0.80159897 0.6769163 2.1380885 -0.08055631 0.06639609 0.67622614 -0.8614088
0.6366292 0.8843311 -1.046499 0.4189127 -0.4249826 0.53948164 1.4323394 -0.4338122
-0.20085318 1.250145 -1.0016474 -0.6232097 -0.518767 -0.21220249 0.1271368 0.7868943
0.29406095 -0.36860687 -0.30506352 1.0740144 1.2111034 1.3338909 -0.5127237 -1.1946675
0.50318825 0.53298086 -0.29206598 0.21161796 -0.64029914 -0.47671294 -0.6704713 -0.21119936
0.34265327 1.0219306 -0.81382346 -0.15368281 1.0243424 0.95037115 -1.1016356 -0.6523026
0.98821074 0.005945063 -0.8688443 -2.545511 1.3699969 -1.1456429 0.07967888 -0.14450078
1.0155091 -1.4585844 1.7383035 0.9960059 0.054737933 0.79071367 0.66196793 -0.9406297
-0.974506 -0.48285136 0.1998136 -0.21214573 0.11399568 0.14824244 -0.704683 2.77865
-0.026628796 1.0852796 0.38637078 -0.34137344 2.2310095 0.86094296 0.8082928 -0.577047
1.7806007 -1.0385472 1.0845995 -0.65624845 0.56809765 -0.37425944 0.6096369 0.6351852
-0.30100498 -0.5253391 1.1552349 -1.5162303 -0.18989184 -1.0930946 -0.16765378 2.0117948
-0.41518685 -0.2568164 1.0859735 0.9923247 -0.47861695 -0.4825827 -0.15240273 -0.25305393
-0.23994659 -0.09859423 0.58773816 1.2253617 0.5215153 2.1859994 -2.188182 3.644814
-0.5773764 -0.32678273 -1.2416946 -0.25888824 -1.030344 -0.15638624 -0.22976618 0.41456813
0.6262635 -1.5914015 -0.926808 -0.00020841473 -1.5034496 1.7322885 -0.56343627 0.6149891
1.822318 -0.43803287 -1.6069409 0.040607736 1.4998202 -0.47165883 0.69449323 -0.0034431377
0.16551852 -0.20200348 -0.6708446 0.7203302 -0.71623313 -0.09795597 1.1712648 -1.9819173
0.5529953 0.92584294 -0.28729582 1.7701776 -0.90497774 -1.8847257 0.9860579 -1.294475
-0.48411468 1.2732772 -1.0611908 -0.82890624 -0.85722166 0.60572463 -0.24277464 1.3632662
-1.676154 -0.6741562 -0.95162237 0.6886018 -0.2412262 1.129625 -0.64218634 0.47635818
-1.7213088 0.5748607 -0.27677995 0.76173586 -0.5264926 -0.49228483 -0.31473294 -0.6714954
-0.96736556 1.5673641 -0.8610508 0.7129118 -0.6287456 0.37440696 -1.1123279 -1.5100286

critic.2.bias f4 [64]
00000000: 0a5d 57be 7b0c 8a3e b28d 5fbd 522b 3cbe
00000010: e8f0 0f3f 518b 54bf 69b5 51bf a1d5 7dbd
00000020: 3632 5d3f 7e3d a9be 102f fabe 5ec5 613f
00000030: 6ada 0a3f 8487 05bd fcd2 9cbd 02f2 f7be
00000040: 764a 633f 26be 97be 1cc4 763f 36c4 a03e
00000050: 8bc7 16be bf02 45bf f8ea a7bd ee49 82be
00000060: 5228 d73d ec29 363f 92a4 0d3e 4811 263f
00000070: a850 a5bf 76ae a3be 0b88 efbe 7102 05be
00000080: 8b2f 953f 26d4 9fbe 5e3e 03bf 0b53 263f
00000090: 10e4 be3e 2904 7c3e 8051 b2be 2edf 8bbe
000000a0: c0c9 c23e 799d a3be 1d58 1b3d 37cf 84be
000000b0: 0ddc 353d 6184 07be 393e 6f3f 0b98 cc3e
000000c0: 1327 e63e 83d4 333e a15e 7d3f ed6e 4a3f
000000d0: 4ffe 023f 9726 043f 1c19 82bf 6b45 613d
000000e0: 8018 e93e a6e6 97be be67 eabc 1bff 8fbf
000000f0: cd18 a5be 29a4 32bf e210 19bf 47ed 0c3f
-0.21031585 0.26962647 -0.05457849 -0.183759 0.5622697 -0.8302508 -0.81917435 -0.06197131
0.8640474 -0.33054727 -0.4886403 0.88191783 0.54239523 -0.03259994 -0.076574296 -0.48426825
0.88785493 -0.2963726 0.9639299 0.31399697 -0.14724557 -0.76957315 -0.081991136 -0.2544703
0.10505737 0.7115772 0.1383231 0.6487012 -1.2915239 -0.3196904 -0.4678348 -0.12989213
1.1655134 -0.31216544 -0.5126704 0.64970464 0.37283373 0.24610962 -0.34827805 -0.2731871
0.38044548 -0.3195608 0.03792583 -0.25939342 0.04439931 -0.13234092 0.9345432 0.3995975
0.44951686 0.17561536 0.9897252 0.7907551 0.51169294 0.51621383 -1.0163913 0.054997843
0.45526505 -0.29668158 -0.028613921 -1.1249727 -0.32245484 -0.6978174 -0.59791386 0.55049556

critic.4.weight f4 [1, 64]
00000000: 7b50 9fbe ccb0 b1be cf19 a33e 2b5b 67be
00000010: f8e4 ee3e ec70 acbe 5248 bbbe 2bb3 3cbe
00000020: e4bc 8abe 2647 d03e e1b8 873e f6f1 b43e
00000030: 7228 583e 9560 8cbe 3bb4 b0be 892d 91be
00000040: 7429 95be 7dc9 3abe e954 793e 9242 8b3e
00000050: 8e0d 9ebe d19c 92be a862 cfbe f935 adbe
00000060: c49d da3e 6277 863e 3c81 92be a181 8d3e
00000070: f1b0 91be b08a 90be bd6f a2be 2261 aabe
00000080: 2938 893e 116f afbe ceb1 87be dc9b b03e
00000090: f8b6 943e 5652 80be 7ad3 81be cb69 6ebe
000000a0: 7e78 753e c5fd a93e 57b6 91be 4939 5bbe
000000b0: b2ef 803e dd52 91be 9ad4 87be 53d0 b03e
000000c0: e2e8 84be 0880 943e 06be 70be 0103 aa3e
000000d0: 69ca a53e 3749 b0be c271 8dbe cbc1 acbe
000000e0: eeb4 89be 5eaf 86be c506 8a3e 7fb5 73be
000000f0: 43e4 8d3e e8bd a73e db34 b73e 3217 8f3e
-0.3111609 -0.34705198 0.31855628 -0.22593372 0.46659064 -0.33679903 -0.36578614 -0.18427722
-0.27097237 0.40679282 0.2650824 0.35340852 0.21109179 -0.27417436 -0.34512505 -0.28355053
-0.2913319 -0.18240924 0.24348797 0.27199227 -0.30869716 -0.28635266 -0.40504956 -0.3383024
0.4269849 0.26262957 -0.28614223 0.27637962 -0.28455308 -0.2823081 -0.31725875 -0.3327723
0.2680066 -0.34264424 -0.26502842 0.3449391 0.29045844 -0.25062817 -0.25356656 -0.23282544
0.23971745 0.33201423 -0.28459427 -0.21408571 0.25182873 -0.28383532 -0.2652939 0.3453394
-0.25958925 0.2900393 -0.23509988 0.33205417 0.3238099 -0.34430858 -0.27625853 -0.33741602
-0.2689585 -0.2630567 0.2695829 -0.23799704 0.27713212 0.32762074 0.35782513 0.27947384
