Model Results/ppo_sentiment_MSFT2019-09-011999.pth (torch, 50591 bytes, 11 tensors)

actor.0.weight f4 [64, 20]
0	0xbf39dbc6	-0.7260097
1	0x3d3ac846	0.045601152
2	0x3ece71a0	0.40321064
3	0x3f06dc76	0.52680147
4	0xbe157a0a	-0.14597335
5	0xbde7e191	-0.1132232
6	0x3c4617ea	0.0120906625
7	0xbf2beb30	-0.6715574
8	0xbfa09bd5	-1.2547556
9	0x3e161229	0.14655365
10	0xbcfb6fca	-0.030692954
11	0x3e7a8a78	0.24466884
12	0xbf9d54dd	-1.2291523
13	0xc00b4ba8	-2.1764927
14	0x3d81efeb	0.06344589
15	0x3f7fc02d	0.9990261
16	0xbdaefcb9	-0.08544297
17	0xbed96a2d	-0.42463818
18	0x3ea50686	0.3223154
19	0xbd1abade	-0.037775867
20	0x3f0c9d4f	0.54927534
21	0x3f22bb27	0.6356682
22	0xbe9f118e	-0.3106808
23	0x3f04f95f	0.5194301
24	0x3f29f62b	0.6639125
25	0x3f68d712	0.9095317
26	0xbf857fd3	-1.0429634
27	0x3f5a1b1e	0.8519763
28	0x3fd84e84	1.6898961
29	0x3e1bfeab	0.15233867
30	0x3f03aa20	0.51431465
31	0x3e951a24	0.29121506
32	0x3f210d13	0.62910575
33	0x3f6e76b3	0.9314987
34	0xbdd55bff	-0.104179375
35	0x3fc7f41e	1.5621374
36	0x3ee997d5	0.4562365
37	0x3fe5a67f	1.7941436
38	0xbd5799e3	-0.052636992
39	0x3d87e9d5	0.06636397
40	0xbe443f6c	-0.19164819
41	0x3e0d83a6	0.13819751
42	0x3f637e82	0.8886491
43	0xbf817ad3	-1.0115608
44	0xbf935d90	-1.1512928
45	0xbf527375	-0.82207423
46	0x406c2237	3.6895883
47	0x4055c29b	3.3400028
48	0x4042c45e	3.0432353
49	0xbdcacfcf	-0.099029176
50	0xbe8bfe81	-0.2734261
51	0xbd600a58	-0.054697365
52	0x3e906487	0.28201696
53	0xbf7d0e2c	-0.9884975
54	0xbe8eb38d	-0.2787136
55	0x3f512551	0.81697565
56	0x3f2450cb	0.6418578
57	0x3fa32cc4	1.2748036
58	0xbe264b6a	-0.16239706
59	0x3d5e70dd	0.054306854
60	0x3f253cbf	0.64545816
61	0x3f0306ee	0.5118245
62	0x3eb25a79	0.3483465
63	0xbd4cc553	-0.04999287
64	0xbee90fbd	-0.4551982
65	0xbe39bef1	-0.18139245
66	0x3dcf4042	0.10119678
67	0xbe7316fb	-0.23739235
68	0xbf23c2cc	-0.6396911
69	0x3eb27093	0.34851512
70	0x3e7cb7c7	0.2467948
71	0x3be5b7a2	0.007010416
72	0x3fb48fcf	1.4106387
73	0x3f3706bf	0.7149467
74	0x3e8433fc	0.2582091
75	0xbdd42c7b	-0.103600465
76	0xbedeb8b9	-0.43500307
77	0xbf32d447	-0.6985516
78	0x3e4ab5f1	0.19795968
79	0xbe8f7f40	-0.28026772
80	0xbf1cc9dc	-0.6124551
81	0xbfac40c7	-1.3457268
82	0xbffd434c	-1.9786162
83	0x3f73dc94	0.9525845
84	0x3f46b8eb	0.7762591
85	0x3f9353f6	1.1509998
86	0xc050b69d	-3.2611458
87	0xbfead2ef	-1.8345622
88	0xbf1f7337	-0.6228518
89	0xbf0e71d6	-0.5564245
90	0xbd945d48	-0.072443545
91	0x3e4476d2	0.19185951
92	0xbfa68d8d	-1.3011948
93	0xbe9c27ef	-0.30499217
94	0xbe21b2b4	-0.15790826
95	0xbea5c592	-0.32377297
96	0xbdf978fa	-0.121812776
97	0xbf97aafc	-1.1849055
98	0x3e781ab6	0.2422894
99	0xbd3d82ba	-0.04626725
100	0xbf90abfe	-1.1302488
101	0x3d6311cd	0.055436898
102	0x3f31e55e	0.6949061
103	0xbed8ca28	-0.42341733
104	0xbf0bd75e	-0.546255
105	0xbf03e57e	-0.5152205
106	0xbfdc343c	-1.7203441
107	0x3d699763	0.05702914
108	0x3f89d616	1.0768459
109	0xbe1829cb	-0.14859693
110	0xbc3d873a	-0.011567885
111	0x3e94c2a1	0.2905474
112	0xbffa102b	-1.9536184
113	0x3de90de4	0.113796026
114	0xbe85af96	-0.26110524
115	0x3e1a1a29	0.15049042
116	0xbca3793a	-0.019955266
117	0xbe9c28bf	-0.30499837
118	0x3e576f74	0.2103861
119	0x3d2ed86a	0.042686857
120	0x3d81deff	0.06341361
121	0xbebb273b	-0.36553368
122	0x3d2ef140	0.042710543
123	0x3f064577	0.52449745
124	0xbec0ea0d	-0.37678567
125	0x3e5841c0	0.21118832
126	0xc02e4292	-2.7228131
127	0xc03c2206	-2.9395766
128	0xc02fb3c2	-2.7453465
129	0xbe5a7ac7	-0.21335898
130	0xbda7f6a3	-0.08201339
131	0x3e2d2046	0.16906843
132	0x3bf89b65	0.007586884
133	0xbfd8dbc5	-1.6942068
134	0x3e6d53a7	0.23176442
135	0xbf27a6cc	-0.65488887
136	0x3f87a18e	1.0596178
137	0xbef1319c	-0.4710816
138	0x3e52be60	0.20580435
139	0x3cc8c84b	0.02450957
140	0xbf86b016	-1.0522487
141	0xbed4ec67	-0.4158661
142	0xbf809a4a	-1.0047085
143	0xbe30cf3d	-0.17266555
144	0x3dd2f6d2	0.103009835
145	0x3e060b7b	0.13090317
146	0x3fd0510d	1.6274735
147	0x3fd2b1e6	1.646054
148	0x3fbc48e2	1.4709742
149	0xbe3f7c27	-0.18699704
150	0x3c1e4ab5	0.009661366
151	0xbeb79c4e	-0.3586144
152	0xbe8ba36d	-0.2727312
153	0xbf04f45d	-0.5193537
154	0xbf560de0	-0.8361492
155	0x3e7878ff	0.24264906
156	0x3e34fd44	0.17674738
157	0x3f349f57	0.70555633
158	0x3e05550b	0.13020723
159	0xbde297b5	-0.11064092
160	0x3e35f541	0.17769338
161	0x3f58ac33	0.84637755
162	0x3e266821	0.1625066
163	0x3eff5ab7	0.49873897
164	0x3f33d716	0.7025007
165	0x3f70153c	0.937824
166	0x3fe4a583	1.786301
167	0x403814a2	2.8762593
168	0x40352f07	2.8309953
169	0x3de043ab	0.10950407
170	0xbe3a1c40	-0.18174839
171	0xbdbe2509	-0.09284408
172	0xbf659586	-0.8968128
173	0x3f259c94	0.64692044
174	0xbedcd6f8	-0.43132758
175	0x3f3db2d3	0.7410099
176	0x3e268141	0.16260244
177	0x3f0eab6d	0.55730325
178	0xbdc5c423	-0.09656551
179	0x3e1d89c9	0.15384592
180	0xbf92e4be	-1.1476057
181	0xbf89542f	-1.0728816
182	0xbf91dba3	-1.1395153
183	0xbf9205fd	-1.1408077
184	0xbf4b8272	-0.7949592
185	0xbf4cf740	-0.80064774
186	0x3f33560b	0.70053166
187	0x400dcd4c	2.2156553
188	0x4058f6d5	3.3900654
189	0x3e7ebd21	0.24876834
190	0x3f147db8	0.5800433
191	0x3f06ec1c	0.52704024
192	0xbf12ccab	-0.5734355
193	0xbe9af3a4	-0.30264008
194	0xbc89f084	-0.01683832
195	0xbdd75acc	-0.10515365
196	0x3e86bd52	0.26316315
197	0x3f96acb6	1.1771457
198	0x3ec534e2	0.3851691
199	0x3e476e8a	0.19475761
200	0xbf2e4738	-0.6807742
201	0x3ec5732c	0.38564432
202	0x3e9ee49f	0.310338
203	0xbe410d48	-0.18852723
204	0x3ee34f2b	0.44396338
205	0x3d1f5e5b	0.038908344
206	0xbf01a5d4	-0.5064366
207	0x3f977c8f	1.1834887
208	0x3fa5d65c	1.2956042
209	0xbcbf975c	-0.023387603
210	0x3dab6990	0.08369744
211	0xbb89b3dd	-0.0042023496
212	0xbf59ffcb	-0.85155934
213	0x3fffa8c1	1.9973375
214	0xbf19d5f7	-0.6009211
215	0x3f2a5c6b	0.6654727
216	0xbc435405	-0.011921887
217	0xbf255473	-0.64581984
218	0x3e697d59	0.22801723
219	0xbea5c013	-0.32373103
220	0x3e15fce0	0.14647245
221	0xbec24740	-0.37944984
222	0x3eb25021	0.34826759
223	0x3f759587	0.95931286
224	0x3ef94bdf	0.48690698
225	0x3f1ff55c	0.62483764
226	0x403653c5	2.848863
227	0x406728b2	3.6118588
228	0x4080a549	4.0201764
229	0x3e1ba173	0.15198307
230	0xbeade654	-0.3396479
231	0xbeee01ec	-0.4648584
232	0x3e1529f3	0.14566784
233	0x3deb6c59	0.11495275
234	0xbf0dbd7a	-0.55367243
235	0x3ea55c29	0.32296875
236	0x3f956bc8	1.1673517
237	0x3fa6efe7	1.3041962
238	0xbf15dcff	-0.5854034
239	0xbca7ef02	-0.02049971
240	0xbf7d9a39	-0.9906345
241	0xbf86efe6	-1.0541961
242	0xbf716f8a	-0.9431082
243	0xbe13108c	-0.14361781
244	0xbe93b674	-0.28850138
245	0xbf071039	-0.5275913
246	0xbfb891e9	-1.4419528
247	0xbf3c7e7e	-0.7363051
248	0xbe25fbc1	-0.16209318
249	0x3e90d497	0.28287193
250	0x3f3fe994	0.74965787
251	0x3f40ce41	0.7531472
252	0x3f7d97e5	0.990599
253	0x3e148eeb	0.14507644
254	0x3f6654b8	0.8997302
255	0x3e8ce783	0.2752038

actor.0.bias f4 [64]
0	0x3edf103e	0.4356708
1	0xbc9db970	-0.019253463
2	0xbed18b3f	-0.4092655
3	0x3ed64227	0.41847345
4	0x3e539241	0.2066126
5	0xbd440319	-0.047854517
6	0x3f0cebb7	0.5504717
7	0xbf0725c5	-0.52792007
8	0xbf05a8fb	-0.5221097
9	0x3a28e8f9	0.0006443407
10	0xbeb36125	-0.35035053
11	0xbf4e59eb	-0.80605954
12	0x3f1b502f	0.60669225
13	0x3dc3ce93	0.09560885
14	0xbe98d1dd	-0.29847613
15	0x3f6c92a6	0.9241127
16	0x3d6e77ac	0.058219597
17	0x3f0d02ed	0.5508259
18	0x3f08b002	0.53393567
19	0xbe3a1f24	-0.18175942
20	0x3efea7d1	0.4973741
21	0xbecc1370	-0.3985858
22	0x3e7196f3	0.23592739
23	0x3efd5179	0.4947622
24	0x3a7b7bd2	0.0009593341
25	0x3f3a0a9c	0.7267244
26	0xbdc9132b	-0.09818109
27	0x3caa39f9	0.020779597
28	0x3d91c844	0.07118276
29	0x3e9b0732	0.30278927
30	0x3e59fee3	0.21288638
31	0x3ed253e5	0.4107963
32	0xbe9525cb	-0.29130396
33	0x3e18eedf	0.14934872
34	0x3f07ade2	0.529997
35	0x3f1847f6	0.59484804
36	0x3d4437f4	0.047904924
37	0xbe7c2ba9	-0.2462603
38	0x3f5b0ee9	0.85569626
39	0xbda2b501	-0.0794468
40	0x3ee4e60b	0.4470676
41	0xbd341f79	-0.043975327
42	0xbf28ae04	-0.65890527
43	0xbf0db451	-0.55353266
44	0x3f001278	0.5002818
45	0x3ea3ff4f	0.32030722
46	0x3f4437e3	0.76647776
47	0xbf25ba63	-0.6473753
48	0x3f4b2888	0.7935872
49	0xbf454224	-0.7705405
50	0x3dba844a	0.091072634
51	0xbde72c1d	-0.11287711
52	0x3c9e1077	0.01929496
53	0xbf25d2a3	-0.6477453
54	0x3ead091e	0.33796018
55	0xbf865081	-1.0493318
56	0x3f00836f	0.5020055
57	0x3e95ab8d	0.29232445
58	0x3e578579	0.2104701
59	0xbeb6c181	-0.35694507
60	0xbef4fd47	-0.47849485
61	0xbd5f8d13	-0.0545779
62	0xbaf590bf	-0.0018735154
63	0x3f28dc4a	0.65961134

actor.2.weight f4 [64, 64]
0	0xbe1858fd	-0.14877696
1	0xbf3bfa18	-0.7342849
2	0x3f2e016e	0.6797093
3	0x4006564e	2.0990176
4	0xbe6471ea	-0.2230908
5	0x3e932d1f	0.28745362
6	0xbebfd1b4	-0.37464678
7	0xbfe53247	-1.7905968
8	0x3d056cf7	0.03257462
9	0xbf270904	-0.6524813
10	0x3dbcac5f	0.09212565
11	0xbe6d5123	-0.23175482
12	0xbe1f2601	-0.15541841
13	0x3fb2b3e3	1.3961147
14	0x3ebda68a	0.37041122
15	0x3f1b83fa	0.60748255
16	0x3e92e44a	0.28689796
17	0x3f682018	0.9067397
18	0x3b08520a	0.0020800852
19	0x3f19b498	0.6004119
20	0x3f03f800	0.5155029
21	0x3fcc2134	1.5947633
22	0x3f0f9c34	0.5609772
23	0x3f356c12	0.7086803
24	0x3f7915e2	0.97299016
25	0x3d37b386	0.04484894
26	0x3f3cf1e8	0.7380662
27	0xbddff407	-0.109352164
28	0x3f8254d3	1.0182136
29	0xbf1675e2	-0.58773625
30	0xbf5497d1	-0.83044153
31	0x3fb2bf3e	1.3964612
32	0x3ef1789e	0.47162336
33	0xbcbf2480	-0.023332834
34	0x3ea86e2c	0.32896554
35	0x3cff471b	0.031161835
36	0xbf161b5d	-0.58635503
37	0xbe9e38dc	-0.30902755
38	0x3e98ee87	0.29869482
39	0xbefff60e	-0.49992412
40	0xbf433ec9	-0.7626768
41	0xc0018075	-2.0234654
42	0x3e5f688c	0.21817225
43	0xbe538085	-0.20654495
44	0x3e4f700e	0.20257589
45	0xbe00cd37	-0.12578283
46	0xbece9267	-0.4034607
47	0xbf4cc99e	-0.79995143
48	0x3f31b7f1	0.694213
49	0x3ec56fae	0.38561767
50	0x3f0ca05e	0.549322
51	0xbf068822	-0.5255147
52	0xbfe50784	-1.7892919
53	0xbd9be37d	-0.07611749
54	0xbe1b9a1c	-0.15195507
55	0xba846b38	-0.0010102754
56	0xbee1ef2d	-0.4412779
57	0x3f1712f0	0.5901327
58	0x3db8d922	0.0902579
59	0xbee9d8f8	-0.45673347
60	0xbf831d26	-1.024327
61	0xbe5e54d7	-0.21712051
62	0x3f108546	0.5645336
63	0xbe673ee0	-0.22582579
64	0xbec371c6	-0.3817274
65	0xbeca8969	-0.3955796
66	0x3f6d249a	0.92633975
67	0x3e8470b3	0.25867233
68	0xbeb8ffcf	-0.36132666
69	0xbd4dc52b	-0.050236862
70	0xbc902b36	-0.01759873
71	0x3dc5ed7d	0.09664438
72	0xbded4f77	-0.11587422
73	0x3e13ec1d	0.14445539
74	0xbaea3a0f	-0.0017870086
75	0x3f24d26e	0.6438359
76	0xbfb68ee5	-1.4262358
77	0x3e508abf	0.20365427
78	0xbf300868	-0.68762827
79	0xbf67f3de	-0.90606487
80	0xbd8fe84d	-0.0702673
81	0xbefe50f6	-0.49671143
82	0xbf60ed65	-0.87862235
83	0xbf262e57	-0.6491446
84	0x3ea2354c	0.31681287
85	0x3f0d6125	0.55226356
86	0x3e027f2b	0.12743823
87	0xbfb07bfc	-1.3787837
88	0x3f1bafe4	0.6081526
89	0x3d83102b	0.06399568
90	0xbe6d83d9	-0.23194827
91	0xbe8e5dad	-0.27805844
92	0x3f5fd005	0.8742679
93	0xbfe26554	-1.7687173
94	0xbf0f5245	-0.5598491
95	0xbcf98c21	-0.030462326
96	0x3ec2772a	0.3798154
97	0xbf793ffe	-0.9736327
98	0xbea1e404	-0.31619275
99	0x3f104dcb	0.563687
100	0x3e313e58	0.17308939
101	0xbeadbf5e	-0.33935064
102	0x3f3020e8	0.6880021
103	0xbf8a8d9c	-1.0824466
104	0xbf1bd783	-0.6087572
105	0xbf0dd3b8	-0.5540118
106	0x3e5d9a35	0.21640857
107	0xbe935d0a	-0.2878192
108	0x3e93eebe	0.28893083
109	0x3d5c29d6	0.053750835
110	0xbcb036a3	-0.021510428
111	0x3f817356	1.0113323
112	0xbe63760c	-0.22213
113	0xbf0bf7c8	-0.5467496
114	0x3d8c0b71	0.0683812
115	0x3ec92117	0.39283058
116	0xbedd47ff	-0.4321899
117	0xbeffe823	-0.49981794
118	0x3f0fa1f5	0.561065
119	0x3eab5bfc	0.33468616
120	0xbf86aa7f	-1.0520781
121	0xbf1daa10	-0.6158762
122	0xbea3bc06	-0.31979388
123	0x3ef0aea5	0.47008243
124	0xbe5d8885	-0.2163411
125	0xbfc999bf	-1.5750045
126	0x3f8eae25	1.1146895
127	0xbf813e41	-1.0097123
128	0xbf1eee83	-0.6208269
129	0xbea6d0fd	-0.3258132
130	0x3eb8386a	0.3598054
131	0xbe355888	-0.17709553
132	0xbdb9775c	-0.09055969
133	0x3f071d02	0.5277864
134	0xbfb689c2	-1.426079
135	0x3ed340ee	0.41260475
136	0x3f709ea2	0.93992054
137	0x3ef5a95e	0.4798078
138	0x3fe27721	1.7692605
139	0x3f04c6ea	0.5186602
140	0xbf0d4980	-0.5519028
141	0xbf5c6df9	-0.86105305
142	0x3e3dc700	0.18532944
143	0xbfb2ad1a	-1.3959076
144	0xbeb5e2fc	-0.35524738
145	0xbf9facc7	-1.2474602
146	0xbfad7ec1	-1.3554307
147	0x3edbb9cf	0.42915198
148	0x3ecf1aaf	0.40450045
149	0x3e8c67ab	0.27422842
150	0xbe870a32	-0.26374966
151	0x3ee2d2f6	0.44301575
152	0xbe1f6a5c	-0.15567917
153	0x3e2b6f10	0.16741586
154	0x3f37cf2f	0.7180051
155	0xbf0f0443	-0.5586588
156	0xbebb0107	-0.3652422
157	0xbee950b8	-0.45569396
158	0xbfc2a7c3	-1.5207447
159	0xbd4d5427	-0.050129082
160	0xbf983d72	-1.1893752
161	0x3f08b580	0.5340195
162	0xbe8c935e	-0.27456182
163	0xbd85d1a8	-0.065341294
164	0xbf1bb5dc	-0.6082437
165	0xbefca5b7	-0.4934518
166	0xbebb9715	-0.36638704
167	0xbeb67d84	-0.35642636
168	0x3ea79e28	0.3273785
169	0xbde2eb46	-0.11080031
170	0x3f09684d	0.53674775
171	0xbe3c4a24	-0.18387657
172	0xbfe04301	-1.7520448
173	0xbfa9bfb5	-1.3261629
174	0xbf2e7011	-0.6813975
175	0x3f138e0f	0.5763864
176	0xbe973896	-0.2953536
177	0x3ea69972	0.32538944
178	0x3f187a2f	0.5956144
179	0xbe131bb5	-0.14366038
180	0x3f3ce6e1	0.73789793
181	0x3d7a64ba	0.061131217
182	0xbf6b29d9	-0.9186073
183	0xbd35305d	-0.044235576
184	0xbfb1330f	-1.3843707
185	0xbe38d939	-0.18051614
186	0xbf8789af	-1.0588893
187	0x3f0ce2fa	0.5503384
188	0xbea4b251	-0.32167295
189	0x3e949c09	0.29025295
190	0xbea6cffa	-0.3258055
191	0x3d71bed9	0.059019897
192	0xbf7a4e41	-0.97775656
193	0x3fb378dd	1.402126
194	0xbe57ffa5	-0.21093614
195	0xbefe9464	-0.49722588
196	0xbe153c20	-0.14573717
197	0xbe307f73	-0.17236118
198	0xbe571049	-0.21002306
199	0x3efca88c	0.4934734
200	0xbd8c4faa	-0.06851132
201	0x3f7f69c2	0.9977075
202	0xbefd69af	-0.49494693
203	0xbea59f97	-0.3234832
204	0x3f94fb1a	1.163913
205	0xbec2af97	-0.3802459
206	0x3f53cd1d	0.82734853
207	0xbf9b9ab1	-1.2156583
208	0x3eaf2a90	0.3421216
209	0x3da78d54	0.08181253
210	0x3f95e3f3	1.171019
211	0x3e9b2d26	0.30307883
212	0xbec4c601	-0.38432315
213	0x3ed43bb0	0.41451788
214	0xbda59b57	-0.08086269
215	0x3ed8e40f	0.42361495
216	0xbf1b84ee	-0.6074971
217	0x3f658fae	0.8967236
218	0x3db60831	0.08888281
219	0x3f06f968	0.52724314
220	0x3dad2d26	0.08455877
221	0x3e18ba76	0.14914879
222	0x3f4d4625	0.8018516
223	0x3ecad3d0	0.39614725
224	0xbf1747c3	-0.59093875
225	0x3eaa7f4a	0.3330024
226	0x3ca4b016	0.020103496
227	0x3e3acbd3	0.18241815
228	0xbe8b0270	-0.27150297
229	0xbf3741e2	-0.71584904
230	0xbfc63760	-1.5485649
231	0x3e550694	0.2080329
232	0x3eb59113	0.35462245
233	0xbc59d924	-0.013296399
234	0xbf422764	-0.75841355
235	0x3e3249ac	0.17410916
236	0xbfe6e617	-1.8038968
237	0x3e4ace16	0.19805178
238	0x3f4296f7	0.76011604
239	0x3faa58a4	1.3308301
240	0xbee5f0f5	-0.44910398
241	0xbf1300e7	-0.5742325
242	0xbeeeec8c	-0.46664846
243	0xbe877d2f	-0.26462695
244	0x3daf3e16	0.08556764
245	0x3f92dee1	1.1474267
246	0xbdb15ab2	-0.08659877
247	0xbd25487a	-0.040352322
248	0x3f3c465b	0.73544854
249	0x3f1e2ebd	0.61790067
250	0xbe78e3aa	-0.24305597
251	0xbd5fc5aa	-0.054631867
252	0xbf4f6786	-0.8101734
253	0xbf05c4fe	-0.5225371
254	0xbfa10641	-1.2580034
255	0x3ebf33a3	0.37344083

actor.2.bias f4 [64]
0	0xbd56c69e	-0.05243551
1	0xbf2d7f1b	-0.6777207
2	0xbe1cc30d	-0.15308781
3	0x3e8288d4	0.25495017
4	0x3f88a6d5	1.0675913
5	0x3dff16d6	0.124555275
6	0x3c680485	0.014161234
7	0x3f40e316	0.75346506
8	0x3ea64a2f	0.32478473
9	0x3f35db69	0.7103792
10	0xbe9dce6b	-0.30821547
11	0x3e824a5b	0.25447354
12	0x3e1f1dd0	0.15538716
13	0xbdacbc4a	-0.08434351
14	0xbf1e6d71	-0.61885744
15	0xbe68486a	-0.22683874
16	0xbe0fdfc0	-0.14050198
17	0xbf26e974	-0.6519997
18	0xbf111ad0	-0.5668154
19	0xbe9d12ca	-0.30678397
20	0xbd8acd09	-0.067773886
21	0x3e94d2f5	0.29067197
22	0xbf48b24d	-0.78397065
23	0xbf2ff61f	-0.68734926
24	0xbd454a14	-0.04816635
25	0xbdd07737	-0.101789884
26	0x3e188ba8	0.14897025
27	0x3e4fda7c	0.20298189
28	0xbed3321f	-0.41249177
29	0x3da460f9	0.080263086
30	0x3efd0bde	0.49423116
31	0x3d91c4a1	0.07117582
32	0x3ea08125	0.3134853
33	0xbf18a086	-0.5961994
34	0x3f40bb18	0.7528548
35	0xbf125623	-0.57162684
36	0xbd85d396	-0.065344974
37	0xbe58ecdf	-0.21184109
38	0xbeb414ca	-0.3517211
39	0x3eb8d3fe	0.36099237
40	0x3e9c1868	0.3048737
41	0x3e225d2e	0.15855858
42	0x3e0b36bd	0.135951
43	0xbe0f836e	-0.1401498
44	0x3f9b6368	1.2139711
45	0xbe4da3ac	-0.20081967
46	0xbe77a44a	-0.24183765
47	0xbea40c9f	-0.3204088
48	0xbdf22645	-0.118237056
49	0x3e0859b8	0.13315475
50	0xbe3b2209	-0.18274702
51	0x3eb02e88	0.344105
52	0x3e3be45b	0.1834883
53	0x3e8f689e	0.28009504
54	0x3ee7dfa0	0.452878
55	0xbe3b3f2f	-0.18285821
56	0x3ec6b5b4	0.38810503
57	0x3eb5fafc	0.35543048
58	0xbeab8b07	-0.33504507
59	0x3dec8a5b	0.11549827
60	0x3e3275a2	0.17427686
61	0xbeb6cc08	-0.35702538
62	0xbf2d181a	-0.676149
63	0x3d8e0b9f	0.0693581

actor.4.weight f4 [7, 64]
0	0x3fa09a78	1.254714
1	0xbeb2141f	-0.34780976
2	0x3f657f33	0.89647216
3	0x3f80ca26	1.0061691
4	0x3eb8756e	0.36027092
5	0x4010216a	2.2520394
6	0x3f9f3f05	1.2441107
7	0xbf72a5b1	-0.94784075
8	0xbfdc6855	-1.721934
9	0x3fcbba75	1.5916277
10	0xc01122c6	-2.2677474
11	0xbff3e07d	-1.9052883
12	0xbfdf22ef	-1.7432536
13	0x3e8e2da4	0.27769196
14	0xbf470008	-0.7773442
15	0xbf142984	-0.5787585
16	0x3ed935d4	0.4242388
17	0xbf915076	-1.135268
18	0x3f778a95	0.96695834
19	0x3f655a62	0.8959104
20	0xbcbfb47e	-0.023401495
21	0xbf91f1f5	-1.1401964
22	0x3ea6e4d9	0.32596472
23	0xbfd49e9a	-1.6610901
24	0xbf914bc3	-1.1351246
25	0x3eb179f0	0.34663343
26	0x3efbc8a8	0.49176526
27	0x3fa61248	1.2974329
28	0x3ff13f87	1.8847512
29	0x3fcded4d	1.6088043
30	0x3fe50c47	1.7894372
31	0x3f0024ff	0.5005645
32	0xbfc88210	-1.5664692
33	0x3fbab587	1.4586648
34	0x4014e252	2.3263135
35	0x3b4c6eff	0.0031194089
36	0x3f07871b	0.5294053
37	0xbf99af8c	-1.2006698
38	0x3f9a0573	1.2032913
39	0x3fbff5f4	1.4996934
40	0xbd2152a2	-0.039385445
41	0x40148530	2.3206291
42	0x401773fe	2.3664546
43	0x3f1182d8	0.56840277
44	0x3f460625	0.77353126
45	0xbfce217e	-1.6103971
46	0xbfba0520	-1.4532814
47	0xc01d65e1	-2.4593432
48	0x3ec45330	0.38344717
49	0xbe6a98c7	-0.22909842
50	0xc00725eb	-2.1116893
51	0x3fa27345	1.2691427
52	0x3ef830a3	0.48474607
53	0x3f7b27ae	0.9810742
54	0x3f9203b5	1.1407381
55	0x40176f5e	2.3661723
56	0x3e915e6b	0.28392348
57	0x401589ab	2.3365276
58	0x3fd7ba02	1.685364
59	0xc016e71e	-2.3578563
60	0x402f8a18	2.7428036
61	0xbff4d7cc	-1.9128356
62	0x3fa8f9ad	1.3201195
63	0x3f77dc93	0.96820945
64	0x3ff62d8f	1.9232653
65	0x3fdbe1f4	1.717833
66	0x3fc69126	1.5513046
67	0xbfeafe23	-1.8358806
68	0x3f6f2f52	0.9343158
69	0x3fbe369e	1.4860418
70	0x3f92954c	1.1451812
71	0x3c17ada3	0.009257707
72	0x3ea7e624	0.3279277
73	0x3f8d8761	1.1056939
74	0xbeb5ea8e	-0.35530514
75	0x3f0bd2fd	0.5461882
76	0xbfbce08e	-1.4756029
77	0x3ee34d1e	0.44394773
78	0x3d590a83	0.05298854
79	0x3f4fa8f7	0.81117195
80	0xbeeb8887	-0.460026
81	0x3f7c578e	0.985711
82	0x3f495ab8	0.7865405
83	0x3fdd51ef	1.7290629
84	0x400038fc	2.003478
85	0xbef512d9	-0.47865942
86	0xbe08cf80	-0.13360405
87	0x3faf0ea7	1.3676347
88	0xbf68993c	-0.9085882
89	0x400b56b6	2.1771674
90	0xbf6ff0a6	-0.93726575
91	0x400e326d	2.2218277
92	0x3fdd1193	1.7270988
93	0xbfe89393	-1.8170036
94	0x3f0c9971	0.54921633
95	0x3f971af4	1.18051
96	0x3f88fe5c	1.0702624
97	0xbf3e7c55	-0.74408466
98	0xbed57f13	-0.41698512
99	0x3f3b381a	0.7313248
100	0x3ffcc8f0	1.9748821
101	0xbf23fb4b	-0.6405532
102	0xbe6b4479	-0.22975339
103	0x3f2de3c1	0.6792565
104	0x3f6e4b3b	0.9308354
105	0xc00ebfd5	-2.2304585
106	0xbf30026b	-0.6875369
107	0xbfc8b771	-1.5680982
108	0xbf4b4919	-0.79408413
109	0xbdef47b0	-0.11683595
110	0xbfd42de9	-1.6576511
111	0xbf004cc5	-0.5011714
112	0x3f889a41	1.0672075
113	0x3fba0066	1.4531372
114	0x3fd121a8	1.6338396
115	0xbfb01efb	-1.3759454
116	0xc01fc661	-2.496483
117	0xbfa8cc7d	-1.3187405
118	0x3e4e8f08	0.2017175
119	0xbff6e0df	-1.9287375
120	0xbf7ab54c	-0.9793289
121	0x3fe083d7	1.7540234
122	0x3ece3214	0.40272582
123	0x3fda64b6	1.7061985
124	0x3fa5b5de	1.2946126
125	0xbf216973	-0.6305153
126	0x3f8d21c1	1.1025926
127	0xc0176f83	-2.3661811
128	0x3f219807	0.631226
129	0x3e3be2b3	0.18348198
130	0xbea7cd4f	-0.32773826
131	0x3f0ddb82	0.5541307
132	0xbc729529	-0.01480607
133	0x3e7a9b4a	0.244733
134	0x3e4e6eed	0.20159502
135	0x3d84f02e	0.06491123
136	0xbf082623	-0.5318319
137	0xbf3716fc	-0.71519446
138	0xbf42e3c3	-0.76128787
139	0x3f442e59	0.7663322
140	0xbf4904eb	-0.7852313
141	0x3efbc0c1	0.49170497
142	0x3f08a3ca	0.5337492
143	0x3f9acbfc	1.2093501
144	0x3f31b123	0.69410914
145	0x3f86e706	1.0539253
146	0x3c4e4df5	0.012591829
147	0x3ebe5421	0.3717356
148	0x3e3fe081	0.18737985
149	0x3e950b18	0.29110026
150	0xbda4d25d	-0.08047936
151	0x3f70914a	0.93971694
152	0x3c30bd48	0.010787316
153	0xbf8553ff	-1.0416259
154	0xbe85b9c0	-0.26118279
155	0xbbbc0bb2	-0.005738699
156	0xbe5f9d96	-0.21837458
157	0xbe7a40d3	-0.24438791
158	0xbf35f3c6	-0.71075094
159	0x3b77fb55	0.0037839015
160	0xbf9192d9	-1.1372939
161	0x3f0d25ca	0.55135787
162	0x3e703b33	0.23460083
163	0xbf0e597d	-0.556053
164	0xbf3052e8	-0.68876505
165	0xbe976fc0	-0.29577446
166	0xbf513152	-0.8171588
167	0x3f88947c	1.0670314
168	0x3eee3b75	0.46529737
169	0xbf90e922	-1.1321146
170	0x3ed586ae	0.41704315
171	0x3ead4cb7	0.3384759
172	0x3f345ab3	0.70450896
173	0xbf284c1f	-0.6574115
174	0xbf44b3d0	-0.7683687
175	0xbe9932cf	-0.29921576
176	0xbeca190f	-0.39472243
177	0x3eb19a99	0.3468826
178	0x3d2d8856	0.04236635
179	0xbf3e6e8c	-0.7438743
180	0xbf02d7c4	-0.5111048
181	0x3f8ead78	1.1146688
182	0xbe9201a9	-0.28516892
183	0x3e5ca7f9	0.21548451
184	0x3ee6fcb4	0.45114672
185	0x3f17de3b	0.5932347
186	0x3e76898f	0.24075912
187	0xbe0d54a7	-0.13801824
188	0x3eb7a1ed	0.35865727
189	0xbec5ba57	-0.3861873
190	0xbea514d3	-0.3224245
191	0x3e91bed0	0.2846589
192	0x3faa5673	1.3307632
193	0xbe410d9e	-0.18852851
194	0xbf386416	-0.7202772
195	0x3e74c448	0.23903
196	0xbdf1d86b	-0.118088566
197	0x3f6706fc	0.9024503
198	0xbd8953d3	-0.06705441
199	0x3dbbdfa3	0.09173515
200	0xbf44b54d	-0.76839143
201	0xbf9c9769	-1.2233707
202	0xbf72608c	-0.9467857
203	0xbcfe6775	-0.031055192
204	0xbf9ad5e1	-1.2096521
205	0xbf956385	-1.1670996
206	0x3fba2cbc	1.4544902
207	0xbef841a0	-0.48487568
208	0x3e9991cc	0.29994047
209	0x3e8aebed	0.27133122
210	0xbfbead90	-1.4896717
211	0xbd39ab3f	-0.04532933
212	0xbe9285c6	-0.28617686
213	0x3ec9f7ab	0.39446768
214	0xbeb3caf1	-0.3511577
215	0x3f699285	0.91239196
216	0xbf9337b1	-1.1501371
217	0xbf74cc0b	-0.95623845
218	0xbfac4b37	-1.3460454
219	0xbe8730f3	-0.26404533
220	0x3e583b6f	0.21116422
221	0xbef9386a	-0.48675853
222	0xbd5fed18	-0.05466947
223	0xbfab14af	-1.3365687
224	0x3f0f62c6	0.5601009
225	0xbe463b3d	-0.19358535
226	0xbf375f6c	-0.7162998
227	0x3ef74001	0.4829102
228	0xbf601702	-0.8753511
229	0xbfc9ae63	-1.5756344
230	0xbe8dd6b4	-0.27702868
231	0x3f3d4deb	0.7394702
232	0xbeef83c7	-0.46780226
233	0x3f8bcdeb	1.0922216
234	0xbef45107	-0.4771807
235	0x3f9958dc	1.1980243
236	0x3f859819	1.0437042
237	0xbedbbd71	-0.4291797
238	0xbed510e7	-0.41614458
239	0x3ed9be07	0.42527792
240	0xbfad0113	-1.3515953
241	0x3f2e0927	0.67982715
242	0x3add92cf	0.0016904714
243	0xbf526b7d	-0.82195264
244	0x3eba9cb2	0.36447674
245	0xbf3ba3e4	-0.7329695
246	0xbf041584	-0.5159533
247	0xbdb82039	-0.08990521
248	0xbec3a7ab	-0.38213858
249	0x3e351948	0.17685425
250	0xbe5a1660	-0.21297598
251	0xbf869ff9	-1.051757
252	0x3f7baf69	0.9831453
253	0xbf1ce246	-0.61282766
254	0x3e42a7e5	0.19009359
255	0x3eb8b1d4	0.36073172

actor.4.bias f4 [7]
0	0x3f93d001	1.1547853
1	0x3e997b45	0.2997686
2	0x3d80b99b	0.062854014
3	0xbdd8e598	-0.105906665
4	0x3e76e0fe	0.24109265
5	0x3f0fe02b	0.5620143
6	0x3fdef883	1.741959

critic.0.weight f4 [64, 20]
0	0x3e10c75f	0.14138554
1	0xbfaf8053	-1.3711036
2	0xbf95404f	-1.166025
3	0xbf74d508	-0.9563756
4	0xbfb03911	-1.3767415
5	0xbfd949f5	-1.6975695
6	0x40735637	3.8021371
7	0x3f9ad1bf	1.209526
8	0x3fb0cf41	1.3813249
9	0xbfe3dce3	-1.7801784
10	0xbfa297de	-1.2702596
11	0xbf88e76e	-1.0695627
12	0x3f238d78	0.6388774
13	0x3e19cb2d	0.15018912
14	0xbd38081c	-0.04492961
15	0x3f8bbb35	1.0916506
16	0xbca963b2	-0.020677421
17	0xbf5d7a11	-0.86514384
18	0xbf38b0f6	-0.7214502
19	0xbf82f337	-1.0230473
20	0xbf31d10c	-0.69459605
21	0x3f17e34b	0.59331197
22	0x3e1cee44	0.15325266
23	0xbeab4cc7	-0.33457014
24	0x3f3d5999	0.7396484
25	0x3f614368	0.8799348
26	0x3f8acd9b	1.0843996
27	0x3f87e071	1.0615369
28	0x3f666744	0.9000132
29	0xbf7f5008	-0.99731493
30	0xbf7eada6	-0.99483716
31	0xbf8b8cd0	-1.0902348
32	0xbf94c46b	-1.1622442
33	0x3e6aa8c5	0.22915943
34	0xbf61b4ce	-0.8816651
35	0xbee82858	-0.4534328
36	0xbebfc7a2	-0.37456995
37	0xbf0ebeb6	-0.5575975
38	0xbef38cb5	-0.47568288
39	0xbefd481b	-0.49469075
40	0xc00df2a1	-2.217934
41	0xc0102b8a	-2.2526574
42	0xc0591f80	-3.3925476
43	0x3df08a42	0.117451206
44	0x3f2fdc53	0.68695563
45	0x3f45c5d2	0.77254975
46	0x40843227	4.131122
47	0x4032941c	2.7902899
48	0x4013ac3e	2.3073878
49	0x3f2acb4a	0.66716444
50	0x3f80264a	1.0011685
51	0x3f8590ff	1.0434874
52	0xbf40d514	-0.7532513
53	0xbfea5ed3	-1.8310188
54	0x3fb6d936	1.4285038
55	0x3d8996b4	0.067181975
56	0x3eeeea19	0.46662977
57	0x3f573cb1	0.8407698
58	0x3e351c0a	0.17686477
59	0x3e344421	0.17604114
60	0x3f367c01	0.71282965
61	0x3f3e06b3	0.7422897
62	0xc027c053	-2.6211135
63	0x3c1eb54a	0.009686777
64	0x3db88973	0.09010591
65	0x3e690b8b	0.2275831
66	0xc1379475	-11.473744
67	0xc12cf1f4	-10.809071
68	0xc10fd18b	-8.988658
69	0xbfa71db2	-1.3055937
70	0xbe4e00aa	-0.20117441
71	0x3ef37d69	0.47556618
72	0xbf9bc486	-1.2169349
73	0x3ebbf33e	0.36709017
74	0x3e2f625b	0.17127363
75	0x3dbb58e8	0.09147817
76	0x3f60bc7d	0.8778761
77	0xbe940594	-0.28910506
78	0x3e4d6e2b	0.20061557
79	0x3e314280	0.17310524
80	0xbe44605a	-0.1917738
81	0x3ea8fef2	0.33007008
82	0xbf5f14fc	-0.87141395
83	0xbf0ad05f	-0.542242
84	0x3fe342ce	1.7754762
85	0x40447660	3.069725
86	0x3e654ebe	0.22393319
87	0xc0a4e425	-5.1528497
88	0xc0e8a29f	-7.269851
89	0xbfa741a7	-1.306691
90	0xbf98f061	-1.1948358
91	0xbf5db9eb	-0.86611813
92	0x4026f128	2.608469
93	0xbecc5502	-0.39908606
94	0xbdf447ea	-0.11927779
95	0xbf0c031a	-0.5469223
96	0x3f87f16f	1.0620555
97	0x3ca2c318	0.019868419
98	0x3e0523a1	0.13001873
99	0x3e81017b	0.25196442
100	0xbf86ff80	-1.0546722
101	0x3ef3e109	0.47632626
102	0xbfab52d5	-1.3384653
103	0xc000736a	-2.0070443
104	0xbf38c95c	-0.7218225
105	0xbf290e18	-0.6603713
106	0xc0517b83	-3.2731636
107	0xbf493378	-0.7859416
108	0x4015fa4c	2.343402
109	0xc0178bc7	-2.3679063
110	0xbf94608d	-1.1591965
111	0xbeceb30b	-0.40370974
112	0xbf4dd98d	-0.8041008
113	0xbf2ee39f	-0.6831607
114	0x3f070021	0.5273457
115	0x40298f8b	2.6493862
116	0x3fe869bd	1.8157269
117	0x3f520c90	0.8205042
118	0xbe96c6e9	-0.2944863
119	0x3e08f85e	0.13375995
120	0xbf112a16	-0.56704843
121	0x3eb8d74a	0.36101753
122	0xbf8702aa	-1.0547688
123	0xbed49543	-0.41520128
124	0x3ec2f077	0.38074085
125	0x3db25446	0.0870748
126	0xbfc71591	-1.5553457
127	0xbf9a5709	-1.2057811
128	0xbfb19e08	-1.3876352
129	0xbdd4bc48	-0.10387474
130	0x3f1a0882	0.6016923
131	0x3f40bac5	0.7528499
132	0xc06395bf	-3.5560148
133	0xbee886a0	-0.4541521
134	0x3f6a9c0e	0.9164437
135	0x3dace62d	0.0844234
136	0xbf5dd80e	-0.866578
137	0xbef2575c	-0.47332275
138	0x3e94a038	0.29028487
139	0xbb2dce9d	-0.0026520856
140	0x403d5a28	2.9586277
141	0x3e03dffd	0.12878413
142	0x3ee866fc	0.4539107
143	0xbe857f78	-0.26073813
144	0xbc9c89d2	-0.019108687
145	0x3ec34dc8	0.3814528
146	0xc036742e	-2.850841
147	0xbf11e03c	-0.5698278
148	0x3f5ebd32	0.8700744
149	0x3f700e16	0.93771493
150	0x3f9e9b3d	1.2391125
151	0x3f8df296	1.1089656
152	0xbf36a3cc	-0.71343684
153	0x3ee92459	0.45535544
154	0x3f72335b	0.9460961
155	0x3f8d48d5	1.1037852
156	0x3f22a866	0.63538206
157	0x3f81e0f0	1.014677
158	0x3f4f008a	0.808602
159	0xbf0f9113	-0.5608074
160	0xbfa7094b	-1.3049711
161	0x3f3175a4	0.6932013
162	0xc022e206	-2.5450454
163	0x40186902	2.3814092
164	0x40374659	2.8636687
165	0x402ab71f	2.6674268
166	0xc0187def	-2.3826864
167	0xc072db5f	-3.7946393
168	0xc04112ab	-3.0167644
169	0xbf24fbc7	-0.6444668
170	0xbd9173d0	-0.071021676
171	0x3d7f8971	0.062386934
172	0xc0208b35	-2.5084965
173	0xbedab85f	-0.4271879
174	0xbe5443d3	-0.20728998
175	0x3eee3f89	0.46532848
176	0x3e2934b7	0.16524015
177	0xbfedaa2c	-1.8567557
178	0xbd399cb7	-0.04531547
179	0x3e42863c	0.18996519
180	0x4005d11d	2.0908883
181	0xbff46aa4	-1.9095044
182	0xc03f3a29	-2.9879248
183	0x3e090987	0.1338254
184	0xbc0a80bb	-0.008453543
185	0xbde57472	-0.11203851
186	0x3f79e46a	0.9761416
187	0x40a4a832	5.1455317
188	0x40b43a1c	5.6320934
189	0x3f43799b	0.7635743
190	0x3ef28681	0.47368243
191	0x3e955f4c	0.29174268
192	0x3f073bd7	0.52825683
193	0x3fece92f	1.8508662
194	0xbed912cd	-0.42397156
195	0x3fa05b28	1.2527819
196	0xbd3ab30d	-0.045580912
197	0x3f4b6dbc	0.79464316
198	0x3d92b57a	0.0716352
199	0x3e9c8260	0.30568218
200	0x3e12df0f	0.14342903
201	0xbeffa89d	-0.4993333
202	0x3f518562	0.8184415
203	0xbe900252	-0.2812677
204	0x3f1c909f	0.61158174
205	0xbeec9bb7	-0.4621255
206	0x3faa089f	1.3283881
207	0xbf658af2	-0.8966514
208	0xc04aea3d	-3.1705468
209	0xbf05de50	-0.52292347
210	0xbee0298b	-0.43781695
211	0xbeb5909b	-0.35461888
212	0xbfa12239	-1.2588569
213	0x40091aca	2.14226
214	0x3dc765db	0.09736224
215	0xbffe9913	-1.9890465
216	0x3ecbbada	0.39790994
217	0x3f934e10	1.1508198
218	0xbc7b1b3b	-0.0153263165
219	0xbd04543a	-0.032306887
220	0x3d791bf2	0.060817666
221	0x3f7316d9	0.9495674
222	0x3e83bfb9	0.2573221
223	0x3f8eea30	1.1165218
224	0xbdce0d07	-0.100610785
225	0xbecd31cc	-0.40077055
226	0xbfd40dff	-1.6566771
227	0xc0028056	-2.039083
228	0xc00218e9	-2.0327704
229	0x3e9b1f66	0.30297393
230	0x3eedc3b0	0.4643836
231	0x3ea14c91	0.31503728
232	0xbdab6e16	-0.083706066
233	0xbfdafd0a	-1.7108471
234	0x3f85775b	1.0427049
235	0x4011616c	2.2715712
236	0xbd89a9a3	-0.06721809
237	0xbf984173	-1.1894974
238	0x3f253fe4	0.64550614
239	0x3ec66edb	0.3875645
240	0x3fa6d270	1.303297
241	0x3f37c293	0.7178127
242	0x4002b1bb	2.0420978
243	0xbf182414	-0.5943005
244	0x3e7e7e4e	0.24852869
245	0x3e2bb2c2	0.1676741
246	0xbfb27338	-1.3941412
247	0x40210ded	2.516475
248	0x40920947	4.5636325
249	0x3ee19266	0.44057006
250	0x3ea805e1	0.32816985
251	0x3efed2e2	0.49770266
252	0x4026b618	2.6048641
253	0x4011c719	2.277777
254	0xbd8f28da	-0.06990214
255	0x3f1f572c	0.6224239

critic.0.bias f4 [64]
0	0xbfe33aa9	-1.7752277
1	0xbf55aeaf	-0.8346967
2	0x3f3e4876	0.74329317
3	0x3f8bb447	1.0914391
4	0x3e9398ee	0.28827614
5	0xbf5a1c6a	-0.85199606
6	0x3f8d71e8	1.1050386
7	0x3faddb4f	1.3582553
8	0xbb964a94	-0.004586527
9	0xbf0d332e	-0.5515622
10	0x3e187843	0.14889626
11	0x3ee2cc95	0.4429671
12	0xbf36e221	-0.71438795
13	0xbf8d05a1	-1.1017343
14	0x3ef17f31	0.47167352
15	0xbe50ea15	-0.20401795
16	0x3d2855ee	0.041097574
17	0xbe292a4b	-0.1652004
18	0xbe8a8606	-0.27055377
19	0xbf94b060	-1.1616325
20	0x3f935d43	1.1512836
21	0x3ef6a210	0.4817052
22	0x3f5641fb	0.8369443
23	0x3ef8624d	0.48512498
24	0xbdb9a3e1	-0.090644605
25	0xbece77f1	-0.40325883
26	0x3e901402	0.28140265
27	0x3f8a7941	1.0818254
28	0xbf0f1c18	-0.5590224
29	0x3edc99ce	0.43086094
30	0x3e0edb25	0.13950785
31	0x3eb569e8	0.35432363
32	0xbf9cfe30	-1.2265072
33	0x3f9d0fe0	1.227047
34	0x3f55be87	0.83493847
35	0xbf4aa64a	-0.79159987
36	0x3d27948d	0.040913153
37	0xbf3bb2c6	-0.7331966
38	0x3f9260e4	1.1435819
39	0x3f85d451	1.0455419
40	0xbf0be0d7	-0.54639953
41	0x3fa27f0f	1.2695025
42	0xbe2b6ce6	-0.1674076
43	0x3f5e5022	0.8684102
44	0xbe30e368	-0.17274249
45	0xbf2620aa	-0.6489359
46	0xbe4d6a38	-0.2006005
47	0x3ef0c343	0.47023973
48	0xbf04a8cc	-0.51820064
49	0xbdc7aa6e	-0.09749304
50	0x3fa65d66	1.2997253
51	0x3f0d2aa3	0.55143183
52	0x3f346001	0.7045899
53	0xbfa63b3c	-1.2986827
54	0x3e24a65d	0.16079088
55	0xbf83ac8a	-1.028703
56	0x3d90d717	0.07072275
57	0xbece44db	-0.40286908
58	0x3fcd40e8	1.6035433
59	0x3fa3da18	1.2800932
60	0x3f7bc4ed	0.9834736
61	0x3fd20997	1.6409177
62	0xbfded65f	-1.7409171
63	0x3f1bb243	0.6081888

critic.2.weight f4 [64, 64]
0	0x3f486440	0.7827797
1	0x3f09e1be	0.5386008
2	0x3ef0493f	0.46930882
3	0x3e740aec	0.23832291
4	0x3e56394f	0.20920299
5	0xbfcc97cb	-1.5983824
6	0xbf544f24	-0.8293326
7	0x3e8b9f9c	0.2727021
8	0xbe4a766f	-0.19771741
9	0xbf19bb1f	-0.6005115
10	0x3e361627	0.17781888
11	0xbf8a65aa	-1.0812275
12	0xbe99c8c1	-0.30035976
13	0x3f98691d	1.1907078
14	0xbe433582	-0.1906338
15	0x3f7289a3	0.94741267
16	0xbfa9e9d8	-1.3274488
17	0x3cb7be90	0.022429734
18	0xbef88614	-0.48539793
19	0xbf5d19f4	-0.86367726
20	0xbf01f9d6	-0.50771844
21	0x3e640276	0.22266564
22	0x3edebdcb	0.43504176
23	0x3f476b27	0.77897877
24	0x3f2c49cc	0.67300105
25	0xbe7b5086	-0.24542436
26	0xbf185ba5	-0.5951484
27	0xbe5c8c0f	-0.21537803
28	0x3fbb74d4	1.4645028
29	0x3f9c8c00	1.2230225
30	0x3e847d95	0.2587706
31	0x3eaad937	0.33368847
32	0xbeb5768f	-0.35442016
33	0xbb27f0f2	-0.0025625792
34	0x3f60628f	0.8765039
35	0x3e5eab0b	0.21744935
36	0x3f9fea1d	1.2493321
37	0xc007c900	-2.121643
38	0x3f263edb	0.6493966
39	0xbf35dbd7	-0.71038574
40	0x3f904340	1.1270523
41	0xbedbecbf	-0.4295406
42	0xbda61e09	-0.081111975
43	0x3d3fd0a1	0.046829823
44	0x3e885971	0.26630738
45	0x3f695b21	0.91154677
46	0xbfc74007	-1.5566415
47	0x3faf1087	1.3676919
48	0x3f0d9fac	0.55321765
49	0x3f642af4	0.8912804
50	0xbe4e5910	-0.20151162
51	0x3e95f285	0.2928659
52	0x3e6f61cb	0.23377149
53	0x3ed2ee71	0.4119754
54	0x3e8ce706	0.27520007
55	0x3e4c5b5f	0.1995673
56	0x3f452447	0.7700848
57	0x3f297c2b	0.6620509
58	0xbf27c2e8	-0.6553178
59	0xbff1b548	-1.8883448
60	0xbf9a6ce5	-1.2064482
61	0xbe429662	-0.19002679
62	0x3f43bdf1	0.764617
63	0x3f4d14bf	0.8010978
64	0xbf0ac7e5	-0.54211265
65	0x3dc9f2da	0.098607734
66	0x3e9f8fcd	0.311644
67	0x3f8fb96f	1.1228465
68	0xbe937ccf	-0.2880616
69	0x3de61a87	0.112355284
70	0x3ef9e1f0	0.4880519
71	0x3dea542f	0.11441838
72	0xbf3c1806	-0.73474157
73	0xbf27bcb5	-0.6552232
74	0x3f7dd44f	0.9915208
75	0xbf13c83b	-0.577274
76	0x3dafd3ff	0.08585357
77	0x3f90aaef	1.1302165
78	0x3e7492b6	0.23884091
79	0x3f8d60ea	1.1045201
80	0xbf0db6c0	-0.5535698
81	0xbe04b91b	-0.12961237
82	0xbfa883ac	-1.3165183
83	0x3f881c54	1.0633645
84	0xbe274333	-0.16334228
85	0xbf06a59c	-0.5259645
86	0x40089644	2.1341715
87	0x3d4e78b2	0.050408073
88	0xbf3825e6	-0.7193283
89	0x3e703098	0.23456037
90	0xbec6cd4e	-0.3882851
91	0x3e8f4bdc	0.27987564
92	0x3eac7a99	0.33687285
93	0x3e3aaf03	0.18230824
94	0xbfc8f189	-1.5698711
95	0x3f48c482	0.7842485
96	0xbedaaf01	-0.42711642
97	0xbe6e0b3e	-0.23246476
98	0x3ec305cc	0.3809036
99	0x3f2f8019	0.68554837
100	0x3d5423ce	0.05179196
101	0xbfdafc9e	-1.7108343
102	0x3f916638	1.135932
103	0xbec51880	-0.38495255
104	0x3ebe83bf	0.3720989
105	0xbf222b13	-0.63346976
106	0xbef519cc	-0.47871244
107	0x3d2e8f00	0.042616844
108	0x3e156e59	0.14592876
109	0x3e67986e	0.22616741
110	0x3e97b53d	0.2963046
111	0x3f47833f	0.7793464
112	0xbe8d5656	-0.27604932
113	0x3f0e97ec	0.55700564
114	0xbe294cd1	-0.1653321
115	0x3f8d3b2e	1.1033685
116	0xbf749992	-0.9554683
117	0x3dbc43a4	0.09192589
118	0x3fd7c3de	1.6856649
119	0x3e871f3f	0.26391026
120	0xbd1e9490	-0.0387159
121	0xbf8a6598	-1.0812254
122	0xbf0e0f13	-0.5549175
123	0xbf7a8b9e	-0.9786929
124	0x3f027385	0.5095752
125	0xbf536bfa	-0.82586634
126	0x3eb4b73f	0.35296056
127	0x3fcd5897	1.604266
128	0x3e749141	0.23883535
129	0xbe876c32	-0.26449734
130	0xbf79dd63	-0.97603434
131	0xbf9e3a28	-1.2361498
132	0xc0116b25	-2.2721646
133	0x3fac7e91	1.3476125
134	0xbf0bc92e	-0.5460385
135	0x3fa0e392	1.2569449
136	0xbffe833b	-1.9883798
137	0xbf48d444	-0.7844889
138	0xbfbcef94	-1.4760613
139	0xbdf0803e	-0.1174321
140	0x3f2bf27d	0.6716688
141	0xbe153007	-0.14569102
142	0x3faf8b39	1.3714362
143	0xbfa4d7e4	-1.2878385
144	0xbf5560dc	-0.8335092
145	0xbe2f160f	-0.17098258
146	0xbfe89f39	-1.8173591
147	0x3fb9bab1	1.4510099
148	0x3e366b7a	0.17814437
149	0xbf8a2fca	-1.0795834
150	0x3ea5a6ec	0.32353914
151	0xbf57208a	-0.84034026
152	0xbfcafe3f	-1.585884
153	0x3f73440b	0.950257
154	0xbf5662e7	-0.83744663
155	0x3f99e923	1.2024273
156	0xbfd35045	-1.6508871
157	0x3f94940a	1.1607678
158	0xbf0e4f8b	-0.5559012
159	0xbc3a6422	-0.011376413
160	0x3fb308fa	1.3987114
161	0x3f4ba9a9	0.79555756
162	0xc034618d	-2.818454
163	0xbfa658b4	-1.299582
164	0xbf838deb	-1.0277685
165	0xbe70729b	-0.23481219
166	0xbfc3e463	-1.5304073
167	0x3f2fc349	0.68657357
168	0xbf0406ab	-0.51572675
169	0x3eca1802	0.39471442
170	0x3e818d59	0.25303152
171	0x3fca8bd0	1.5823917
172	0xbfd3236d	-1.6495186
173	0xbf94be27	-1.162053
174	0x3e15724a	0.14594379
175	0xbef54252	-0.4790216
176	0xc01a5b1a	-2.4118104
177	0x3ef13fc2	0.47118956
178	0xbeaf9f4a	-0.34301215
179	0x3fb614eb	1.4225134
180	0x3e910130	0.28321218
181	0xbeb09a7a	-0.34492856
182	0xbf59e537	-0.8511538
183	0xbdcc0d79	-0.09963507
184	0x3f18ea3d	0.5973242
185	0xbee8ac9d	-0.45444193
186	0x3ecb4c1f	0.39706513
187	0xbdbafe6d	-0.09130559
188	0x3f2aa9e6	0.66665494
189	0x3e0eeced	0.13957568
190	0xbf2035ee	-0.6258229
191	0xbdf2d4a3	-0.118569635
192	0x3ef61218	0.4806068
193	0x3f618e65	0.881079
194	0x3f2d47ae	0.676875
195	0xbc9a1678	-0.018809542
196	0x3e2dca45	0.16971691
197	0xbc860c05	-0.016363153
198	0x3f11f894	0.57019925
199	0xbe81c140	-0.2534275
200	0xbef63867	-0.48089907
201	0x3eb607a7	0.35552713
202	0x3efe92fd	0.49721518
203	0xbf3043d3	-0.6885349
204	0x3c8d2795	0.017230788
205	0x3ea843bc	0.32864177
206	0xbfa56d72	-1.2924025
207	0x3f51984f	0.8187303
208	0x3d5ae154	0.053437546
209	0x3ddf16f0	0.10893047
210	0xbed9e889	-0.42560223
211	0x3f3e783d	0.7440222
212	0xbe7e1c16	-0.24815401
213	0xbeb7633d	-0.358179
214	0x3dae6b76	0.0851659
215	0x3f67d961	0.9056607
216	0x3f9054e0	1.1275902
217	0x3d6a8ffd	0.057266224
218	0xbe9b2f1c	-0.3030938
219	0xbdbf0350	-0.09326804
220	0x3dde66b2	0.10859431
221	0x3ff585f0	1.91815
222	0xbfc7e15e	-1.5615652
223	0x3fa18431	1.2618467
224	0x3e966b2f	0.2937865
225	0xbe960b3f	-0.29305455
226	0x3f920ac6	1.1409538
227	0x3f0ebcd9	0.5575691
228	0x3ead4648	0.33842683
229	0xbf2f7ba5	-0.6854804
230	0x3f9d269e	1.227741
231	0xbf083646	-0.53207815
232	0x3f90ee98	1.1322813
233	0xbf6cfe22	-0.92575276
234	0xbe90c774	-0.2827717
235	0x3eb99202	0.36244208
236	0x3d96e7bf	0.07368421
237	0xbd23af1b	-0.039961915
238	0x3c930347	0.017945899
239	0x3fde6ebc	1.7377543
240	0xbfeb46ed	-1.838102
241	0x3f011956	0.50429285
242	0x3e0e0504	0.13869101
243	0x3e9ce729	0.3064511
244	0xbd029191	-0.031877104
245	0x3f14637b	0.57964295
246	0x3f5f57ac	0.8724315
247	0xbf75c54b	-0.9600417
248	0x3e684e93	0.22686224
249	0x3f5fefcf	0.87475294
250	0xbd6b6863	-0.057472598
251	0xbf33e6d7	-0.7027411
252	0x3e59ce06	0.21269998
253	0x3d0d6272	0.034517713
254	0x3e9536da	0.2914341
255	0x3fd65553	1.6744789

critic.2.bias f4 [64]
0	0xbf604c4a	-0.8761641
1	0xbf5dc0e3	-0.86622447
2	0x3ef37c81	0.47555926
3	0xbf5e70f4	-0.868911
4	0xbe6e153a	-0.23250285
5	0x3e2dc4aa	0.16969553
6	0xbf0b545d	-0.54425603
7	0xbd36eb4c	-0.04465799
8	0x3e6e5b70	0.23277068
9	0x3f77271e	0.96544063
10	0xbdc7aedf	-0.09750151
11	0xbd7753ae	-0.060382538
12	0xbebb4720	-0.36577702
13	0xbebfade9	-0.3743737
14	0xbe15a0f7	-0.14612184
15	0x3e942deb	0.28941283
16	0x3e34e521	0.1766553
17	0xbc89cc5e	-0.016821083
18	0x3e9b0bb0	0.30282354
19	0xbf0bc6cc	-0.54600215
20	0x3daa1a6e	0.08305822
21	0xbdab1d27	-0.0835517
22	0xbf90ab3a	-1.1302254
23	0x3f16575e	0.5872706
24	0xbeed576c	-0.4635576
25	0x3db6285d	0.088944174
26	0x3df06f1d	0.11739943
27	0xbe18e802	-0.14932254
28	0xbe28264a	-0.16420856
29	0x3f0bb903	0.5457918
30	0x3e1857f5	0.14877303
31	0xbe9822e3	-0.29714116
32	0x3f4d8f8f	0.8029718
33	0x3f014333	0.5049316
34	0x3deb11d9	0.114780135
35	0xbf751d4f	-0.95747846
36	0xbeb8f70a	-0.36125976
37	0xbea8a394	-0.329373
38	0x3f04c3a9	0.51861054
39	0xbe48f9dd	-0.19626565
40	0x3f71653a	0.94295084
41	0x3e8aaca6	0.27084845
42	0xbe8bfcb1	-0.27341226
43	0xbdb9a74a	-0.09065111
44	0xbf6cdc65	-0.92523795
45	0x3ef1c16e	0.47217888
46	0x3e694e10	0.22783685
47	0x3f344108	0.7041173
48	0x3f15531c	0.5832994
49	0xbf24152f	-0.64094824
50	0x3ec3925e	0.38197607
51	0xbf7efa90	-0.9960108
52	0xbe2fbc67	-0.17161714
53	0x3e24550e	0.16048071
54	0xbf192aac	-0.5983074
55	0xbc4b0316	-0.012390872
56	0x3eaecd5f	0.3414106
57	0xbf0816b2	-0.5315963
58	0xbe85016e	-0.25977653
59	0x3eb8e9f2	0.36115986
60	0x3f233f83	0.63768786
61	0xbef304c9	-0.47464588
62	0x3e9f46eb	0.31108794
63	0x3f68305d	0.90698797

critic.4.weight f4 [1, 64]
0	0xbec7cef4	-0.3902508
1	0xbee880ee	-0.45410866
2	0xbf091949	-0.5355421
3	0xbe2aa7a7	-0.16665517
4	0x3f04fd51	0.5194903
5	0x3e6f5738	0.23373115
6	0xbe8d1bc8	-0.27560258
7	0x3eb5d5a3	0.35514554
8	0x3f1df80c	0.61706614
9	0x3e7f55b3	0.24935035
10	0x3ea1baa4	0.31587708
11	0x3ee9f3a9	0.4569371
12	0xbf01af5d	-0.5065821
13	0x3e93a45d	0.28836337
14	0x3eff99e6	0.49922103
15	0xbf4c7c5f	-0.79877275
16	0xbe4ba199	-0.19885863
17	0xbed3adef	-0.41343638
18	0xbeb8fc52	-0.36130005
19	0xbe5d279f	-0.21597145
20	0xbeca9fea	-0.3957513
21	0xbf0ddf0a	-0.55418456
22	0xbe119b2a	-0.14219347
23	0xbecf5c47	-0.4050009
24	0x3e28f150	0.16498303
25	0x3ee0bb91	0.43893102
26	0x3ec13f91	0.3774381
27	0xbe89292d	-0.26789227
28	0xbf10d797	-0.56578964
29	0x3ee1f63d	0.44133177
30	0xbf2c6971	-0.6734839
31	0x3ec96e50	0.39341974
32	0x3f07c3c8	0.53033113
33	0x3f0a2b24	0.5397208
34	0xbeef3bbf	-0.4672527
35	0xbec9df41	-0.39428142
36	0x3ed988dd	0.4248723
37	0xbec6cf4d	-0.38830033
38	0x3ebbbcfc	0.3666762
39	0x3f0fd277	0.5618052
40	0x3ebf4fe0	0.37365627
41	0x3f08dc05	0.53460723
42	0xbe8d9f9f	-0.27660844
43	0x3e9e90d8	0.30969882
44	0x3efff211	0.4998937
45	0xbf23aca7	-0.6393532
46	0x3f139754	0.57652783
47	0x3e18a482	0.14906505
48	0x3ef6d1c3	0.4820691
49	0xbed9b175	-0.425182
50	0x3f1b96c3	0.6077692
51	0xbe9b298d	-0.30305138
52	0x3f06716c	0.5251682
53	0xbe8691cc	-0.2628311
54	0x3f03eadd	0.5153025
55	0xbedab3c5	-0.42715278
56	0xbea0f864	-0.31439507
57	0xbf000a74	-0.5001595
58	0xbe9462cd	-0.2898163
59	0x3e88d44e	0.26724476
60	0xbee8b564	-0.4545089
61	0x3f0c8d6c	0.5490329
62	0xbec43df4	-0.38328516
63	0x3ee16aec	0.44026887
