Model Results/ppo_sentiment_MSFT2020-12-011999.pth (torch, 50591 bytes, 11 tensors)

actor.0.weight f4 [64, 20]
0	0x3f8bbb62	1.091656
1	0x3ea9bb52	0.33150727
2	0x3f619811	0.8812266
3	0xbe91806d	-0.28418294
4	0xbf2bcdda	-0.6711098
5	0xbf2f2279	-0.68411976
6	0xc039f19d	-2.905372
7	0xc03c697e	-2.9439387
8	0xc0368c81	-2.8523257
9	0xbf143223	-0.57889
10	0xbd553bb9	-0.05205891
11	0x3d1efcf5	0.038815457
12	0xbf495b26	-0.78654706
13	0xbdd14eff	-0.102201454
14	0x3e17bf33	0.1481903
15	0x3fccf287	1.6011513
16	0x40124322	2.2853475
17	0x3f679a72	0.9047004
18	0x3df3a4ff	0.11896705
19	0x3e3db2c0	0.18525219
20	0x3f3fae52	0.74875367
21	0xc0080d56	-2.125814
22	0xbfd524b7	-1.665183
23	0xbea6e77c	-0.32598484
24	0xbeb9ab79	-0.36263636
25	0xbf00b9dd	-0.50283605
26	0xc0729597	-3.7903802
27	0xbf00e839	-0.50354344
28	0x3f9cdd7a	1.2255089
29	0x3eb66bfe	0.35629267
30	0x3f71f40d	0.94513017
31	0x3f66a61d	0.9009722
32	0xbfb11629	-1.3834888
33	0xbe4af3d8	-0.19819582
34	0x3f241f37	0.6411013
35	0xbf1a9a4e	-0.603917
36	0x3e9cd4da	0.30631143
37	0x3e8726a6	0.26396674
38	0x3eb40154	0.35157263
39	0x3f09314c	0.53590846
40	0x3e55e50c	0.20888156
41	0x3e6a724b	0.22895162
42	0x3f2d84dd	0.6778086
43	0x3ef347c9	0.47515705
44	0x3ecc07bf	0.3984966
45	0x3e96627a	0.29372007
46	0x3f158778	0.58409834
47	0xbd49368a	-0.049124278
48	0xbeaee374	-0.34157908
49	0x3f2f2256	0.6841177
50	0x3ef61107	0.48059866
51	0x3e89e322	0.269311
52	0xbe6ea077	-0.233034
53	0xbe7a6655	-0.24453099
54	0x3f359b88	0.70940447
55	0x3f93572a	1.1510975
56	0x401f029e	2.4845347
57	0x3f24a3df	0.6431255
58	0x3f25b569	0.64729935
59	0x3ed04143	0.4067479
60	0xbf2876ec	-0.6580646
61	0xbf28c690	-0.6592798
62	0x3f72ddc2	0.94869626
63	0x3f0d6fe8	0.5524888
64	0x3f7c478a	0.9854666
65	0x3f64290d	0.8912514
66	0xbf903242	-1.1265337
67	0xbfb1406e	-1.3847787
68	0xbfefe81a	-1.8742707
69	0x3ebd8fa9	0.37023667
70	0x3ef88528	0.4853909
71	0x3ef9f087	0.4881632
72	0xbf75aaa5	-0.9596351
73	0xbee89275	-0.45424238
74	0x3e87d1e7	0.2652733
75	0xbe278f0b	-0.1636316
76	0xbe9e3adc	-0.3090428
77	0xbfbf0fd1	-1.4926702
78	0x3ee8b9e7	0.45454332
79	0xbd35d2fc	-0.044390664
80	0xbdfaafb0	-0.12240541
81	0xbe9058b2	-0.2819267
82	0x3e77049e	0.24122855
83	0x3fe3ed37	1.7806767
84	0x3fd2ee9d	1.6479069
85	0x3fad9b6a	1.3563054
86	0xbf9b4c38	-1.2132635
87	0xc002b12c	-2.0420637
88	0xc01d9e4c	-2.4627867
89	0x3ed40b31	0.41414788
90	0x3f286025	0.65771705
91	0x3ecd4185	0.4008905
92	0xbcb53826	-0.0221215
93	0x3eae33b9	0.34023836
94	0x3f7630e3	0.96168345
95	0xbd795d0e	-0.06087976
96	0x3e60196e	0.218847
97	0x3d90260b	0.07038506
98	0x3ec8577a	0.3912924
99	0x3e95b2e1	0.29238036
100	0x3f2b0202	0.6679994
101	0x3f4b1d2c	0.7934139
102	0xbe2c8458	-0.1684736
103	0x3f38a9a8	0.72133875
104	0x3ee9efa3	0.4569064
105	0x3f2b6ae8	0.6696
106	0x3ea1e955	0.3162333
107	0xbd9ecf2b	-0.07754358
108	0xbee0a3f2	-0.4387508
109	0xbebe56d7	-0.3717563
110	0xbe89484d	-0.26812974
111	0xbef75a0e	-0.48310894
112	0xbeaa68a7	-0.33282968
113	0x3f12bcce	0.57319343
114	0x3e1e3b4d	0.15452309
115	0x3eb6f4ed	0.3573374
116	0x3f16091d	0.58607656
117	0x3e00be0a	0.12572494
118	0x3cf2cad1	0.029637726
119	0xbe6d25c2	-0.23158935
120	0xc0134579	-2.3011153
121	0xbfa46472	-1.2843153
122	0xc0139fb1	-2.3066218
123	0xbf794408	-0.9736943
124	0xbe62c5aa	-0.22145715
125	0x3e2f1263	0.17096858
126	0x4037575f	2.8647077
127	0x400596bf	2.0873258
128	0x3feac32e	1.8340814
129	0x3ec33dc0	0.3813305
130	0x3d911b37	0.07085269
131	0x3d93612d	0.07196269
132	0x3f6ccc3b	0.9249913
133	0xbef7c225	-0.48390308
134	0x3f0477b1	0.51745135
135	0x3ead1107	0.33802053
136	0x3d957689	0.072979994
137	0x3f214e2c	0.63009906
138	0x3d64d633	0.05586834
139	0x3ee86ed3	0.45397052
140	0xbe563ef2	-0.20922449
141	0xbe6902b1	-0.22754933
142	0x3f2a1f24	0.66453767
143	0x3f0b4966	0.5440887
144	0x3ef79e10	0.4836278
145	0x3eedd68f	0.46452758
146	0x3fefc905	1.8733221
147	0x4004848d	2.0705903
148	0x400c2b65	2.1901486
149	0x3f484cb4	0.7824204
150	0x3f1c6a5c	0.6109979
151	0x3f03f8c6	0.51551473
152	0xbc204517	-0.009782097
153	0x3f6e6aa2	0.9313146
154	0x3ee16d0f	0.44028518
155	0x3ea5aac9	0.3235686
156	0x3d759f95	0.059966642
157	0x3e984d31	0.29746392
158	0x3d99d18b	0.0751067
159	0xbe63543a	-0.22200099
160	0x3f3a4e7d	0.72776014
161	0x3f1180cc	0.56837153
162	0xbe5de003	-0.21667485
163	0x3e231a8b	0.15928094
164	0xbb082118	-0.0020771679
165	0xbdc1077e	-0.09425257
166	0x3fb816d7	1.438197
167	0x3fb3e629	1.4054614
168	0x3f068f58	0.52562475
169	0x3e00ce6b	0.12578742
170	0xbe7b041e	-0.2451329
171	0xbdb84b20	-0.08998704
172	0x3c50c8ee	0.012743218
173	0x3ef2aa7b	0.4739569
174	0xbe18e89b	-0.14932482
175	0xc068a3f8	-3.6350079
176	0xbf6a94f5	-0.9163354
177	0x3fbcfe15	1.476504
178	0x3e1bbe8c	0.15209407
179	0x3db512c5	0.08841471
180	0xbf04e122	-0.51906025
181	0xbeb0bf52	-0.34520966
182	0xbf42d9bb	-0.7611348
183	0xbf11dd7e	-0.56978595
184	0xbf468ea4	-0.775614
185	0xbf417cd2	-0.75581086
186	0xbf61fda8	-0.88277674
187	0x3ecffc3f	0.40622136
188	0x3f20ea69	0.6285768
189	0xbe8da475	-0.27664533
190	0xbe4a91b7	-0.19782148
191	0xbd9656d1	-0.07340778
192	0xbf199b4d	-0.60002595
193	0x3ea212c7	0.3165495
194	0xbf01c46c	-0.5069034
195	0xbffb591d	-1.963657
196	0xbe8906c3	-0.2676297
197	0xbea4857c	-0.3213309
198	0xbe1294ae	-0.1431453
199	0x3eb654c0	0.35611534
200	0x3f5fafec	0.8737781
201	0x3e9148f7	0.2837598
202	0xbe4c658c	-0.19960612
203	0x3fc783c0	1.5587082
204	0x3ff423fc	1.9073482
205	0x3f842a2f	1.0325373
206	0x401b450f	2.42609
207	0x404f85db	3.242545
208	0x406c36c6	3.690843
209	0xbd920490	-0.071297765
210	0xbe25cb61	-0.16190864
211	0xbe23d3a6	-0.15998706
212	0xbf0d227a	-0.5513073
213	0xbd9aa64d	-0.075512506
214	0xbf020b0b	-0.507981
215	0xbf22fdc8	-0.6366849
216	0x3f5e931e	0.86943233
217	0x3fa4173a	1.2819588
218	0xbe152c6f	-0.14567731
219	0xbf261498	-0.64875174
220	0xbf130b09	-0.57438713
221	0xbf839ae3	-1.0281643
222	0xbf4db954	-0.80360913
223	0xbfd0f27c	-1.6324
224	0xbfad03c9	-1.351678
225	0xbf726da1	-0.9469853
226	0xc00c75ca	-2.1946893
227	0xbf7c5277	-0.9856333
228	0xbe3e1d90	-0.18565965
229	0x3eea1f87	0.45727178
230	0x3f1fab9e	0.6237124
231	0x3ed1d2a7	0.40981027
232	0xbfad5f24	-1.354466
233	0xbfab0e99	-1.336383
234	0x3f004d3f	0.5011787
235	0xbf2fb6e4	-0.68638444
236	0xbf2f40d5	-0.684583
237	0xbe90543f	-0.28189275
238	0x3ccee314	0.025254764
239	0x3f0fa911	0.5611735
240	0xbf8baf5a	-1.0912888
241	0x3c6ba893	0.014383453
242	0x3fa8ade5	1.3178068
243	0xbc382136	-0.011238387
244	0xbd23677a	-0.039893605
245	0xbe5110df	-0.20416592
246	0x40484be6	3.1296325
247	0x3fc88ab0	1.5667324
248	0x3f1a3b9b	0.602472
249	0x3e956fb5	0.29186788
250	0xbce3f0d3	-0.027824795
251	0xbde9c82f	-0.11415135
252	0xbf1223d6	-0.5708593
253	0xbf10e661	-0.5660153
254	0x3dd23f3e	0.10265969
255	0x3f2eb45a	0.68243945

actor.0.bias f4 [64]
0	0xbd766f7c	-0.060164914
1	0x3ec3c2d7	0.38234589
2	0x3ef0f048	0.4705832
3	0x3e7f780a	0.24948135
4	0x3f49e0e7	0.788588
5	0xbeacd0c9	-0.3375304
6	0x3e39bc8a	0.18138328
7	0x3ea9982c	0.3312391
8	0xbe4f7dbb	-0.20262806
9	0xbd93ca62	-0.07216336
10	0xbe82d002	-0.25549322
11	0x3f33e9b8	0.702785
12	0x3e062432	0.13099745
13	0xbcd60f59	-0.026130365
14	0xbe94bd4c	-0.29050672
15	0x3e368676	0.1782473
16	0xbe215e5c	-0.15758651
17	0x3e030dc6	0.12798223
18	0xbe038f17	-0.12847553
19	0x3eddd410	0.43325853
20	0xbf297f02	-0.66209424
21	0x3e955396	0.29165334
22	0x3f051fef	0.5200185
23	0x3e9f5cf8	0.31125617
24	0x3c4bcbcc	0.012438726
25	0x3ea4da53	0.32197818
26	0x3f166a76	0.58756196
27	0xbf732bf8	-0.94988966
28	0x3e1cf474	0.15327626
29	0xbf0f827e	-0.5605849
30	0xbf577ffc	-0.84179664
31	0x3dcb42da	0.0992486
32	0x3f0705c6	0.52743185
33	0x3eb715ec	0.35758913
34	0x3eb02339	0.34401873
35	0xbdf4c02a	-0.11950715
36	0xbeda90a8	-0.4268849
37	0xbdd2aee0	-0.10287261
38	0x3f3e99ff	0.7445373
39	0xbdc7b9a5	-0.09752206
40	0xbe916e85	-0.28404632
41	0xbef6156d	-0.48063222
42	0xbe690f07	-0.22759639
43	0x3f3c3bdb	0.7352883
44	0xbf1c485e	-0.61047924
45	0xbf7d1b80	-0.98870087
46	0xbec4457f	-0.3833427
47	0x3ed66264	0.4187194
48	0x3eab3dc7	0.3344557
49	0xbd0db1a1	-0.03459323
50	0x3d5765f4	0.052587464
51	0xbed0c343	-0.40773973
52	0xbed3da08	-0.41377282
53	0xbf13c974	-0.5772927
54	0xbe59dda2	-0.21275952
55	0x3f89e8e2	1.0774195
56	0x3ec8c526	0.39212912
57	0x3ddc6de1	0.10763145
58	0x3f267ff6	0.65039
59	0xbdd7d98f	-0.10539543
60	0xbee69057	-0.45031998
61	0xbf6c05d3	-0.9219639
62	0x3eaa56ab	0.33269247
63	0x3d4b2590	0.04959637

actor.2.weight f4 [64, 64]
0	0xbef54720	-0.47905827
1	0x3ddb716e	0.10714994
2	0xbf4a6dbf	-0.7907371
3	0x3f5c0b07	0.85954326
4	0x3f8a5d96	1.080981
5	0x3f4d25a8	0.80135584
6	0x3e125b6e	0.1429269
7	0xbee5881a	-0.448304
8	0xbe9d6f8b	-0.30749163
9	0x3b3a7956	0.002845367
10	0x3ec994ff	0.39371487
11	0x3e8164b3	0.2527214
12	0x3dc768e2	0.09736802
13	0x3f41e818	0.7574477
14	0x3f82ad0f	1.0209063
15	0x3e6a6ad4	0.22892314
16	0x3e9df23a	0.30848867
17	0xbf28daa4	-0.6595862
18	0xbf184f98	-0.5949645
19	0xbe8b5310	-0.2721181
20	0x3f2aec87	0.6676716
21	0xbf01ab85	-0.50652343
22	0xbba8edaf	-0.005155287
23	0xbd95e281	-0.07318593
24	0x3fa63c92	1.2987235
25	0x3ed93f38	0.42431045
26	0x3ead418e	0.33839077
27	0xbfb34b74	-1.4007401
28	0x3f45f2d1	0.77323633
29	0x3ed822ae	0.42213959
30	0xbd41d9ae	-0.047326736
31	0x3f88539c	1.0650516
32	0x3eef586c	0.46747148
33	0x3d5399ce	0.05166035
34	0x3dc71e3b	0.09722563
35	0x3c6d1023	0.014469179
36	0xbf5c1ae6	-0.85978544
37	0x3eaa6825	0.3328258
38	0xbf1e8b1a	-0.61931
39	0xbf903451	-1.1265966
40	0xbe954093	-0.2915083
41	0xbf3f1419	-0.7464004
42	0xbe7ef4dd	-0.24898095
43	0x3e4f6a17	0.20255314
44	0xbedd0d5c	-0.43174255
45	0xbe92464c	-0.28569257
46	0xbe8e34f7	-0.27774784
47	0xbe23aa6c	-0.1598298
48	0x3d8267a3	0.063674234
49	0x3c3f37d5	0.011671026
50	0x3f87eb54	1.0618691
51	0x3e4f6136	0.20251927
52	0xbc57d790	-0.013173953
53	0x3ddfa591	0.10920251
54	0x3f1c8402	0.6113893
55	0x3fb3b581	1.4039766
56	0xbeaa52b8	-0.33266234
57	0xbf90ed00	-1.1322327
58	0xbe8cb414	-0.2748114
59	0xbe7d7c4c	-0.24754447
60	0xbf028c0f	-0.5099496
61	0xbe394d0c	-0.18095797
62	0x3fa232a6	1.2671707
63	0xbe28ae8a	-0.16472831
64	0xbf2d8670	-0.6778326
65	0xbedceb1a	-0.43148118
66	0xbfa527d9	-1.2902786
67	0x3fd7bdf0	1.6854839
68	0x3f16eb8d	0.5895317
69	0x3f5f0e31	0.8713103
70	0xbbd4e39f	-0.006496861
71	0xbf1e8c19	-0.6193252
72	0xbf0e40ed	-0.5556782
73	0x3ed48979	0.41511133
74	0x3eeb24af	0.45926425
75	0xbe2099bc	-0.15683645
76	0xbe7c1826	-0.24618587
77	0xbe9c4e39	-0.3052843
78	0x3fd8b54d	1.6930329
79	0x3e7f8f27	0.24956952
80	0x3eee1670	0.46501493
81	0xbf05ea6b	-0.5231082
82	0xbebe0688	-0.37114358
83	0xbf268829	-0.65051514
84	0xbea28432	-0.31741482
85	0xbf26615e	-0.6499232
86	0xbe8fedc8	-0.281111
87	0xbed235a2	-0.41056544
88	0x3f49969d	0.7874544
89	0x3ed1f26d	0.4100527
90	0x3f434bea	0.7628771
91	0xbfb00e21	-1.3754312
92	0xbb7fb4f3	-0.0039017766
93	0x3f6de109	0.929215
94	0x3e35dd48	0.17760193
95	0x3f375cac	0.7162578
96	0x3e1cd176	0.15314278
97	0xbed704ac	-0.41995752
98	0x3d9b691d	0.07588408
99	0x3efbdc92	0.4919172
100	0xbec85193	-0.39124736
101	0x3ebac331	0.36477044
102	0xbef9f570	-0.48820066
103	0xbfe73115	-1.8061854
104	0x3e641944	0.22275263
105	0xbf0da5e5	-0.5533126
106	0x3d0af472	0.033924527
107	0x3e42ad74	0.1901148
108	0x3c970619	0.018435525
109	0x3ec7e0c4	0.3903867
110	0x3ed5e571	0.41776612
111	0xbf02ae19	-0.510469
112	0x3e406126	0.18787059
113	0x3e16d564	0.1472984
114	0xbc8765dc	-0.016528063
115	0x3b8a854b	0.0042273155
116	0x3dd7a166	0.10528831
117	0x3f399400	0.72491455
118	0x3f179663	0.59213847
119	0x3fad58be	1.3542707
120	0xbff19927	-1.8874863
121	0xbf0fb122	-0.5612966
122	0xbe8fb1d5	-0.28065363
123	0xbbccb6f0	-0.006247394
124	0x3ec1b6b1	0.37834695
125	0x3f1f6fa6	0.62279737
126	0x3f59e9b4	0.8512223
127	0xbdf75c22	-0.1207812
128	0x3ea58bca	0.32333213
129	0x3e694b21	0.22782566
130	0x3f587a79	0.8456188
131	0xbe63eb6f	-0.2225778
132	0xbf3019d1	-0.6878939
133	0x3ed3a068	0.41333318
134	0xbca991c5	-0.020699391
135	0x3e9319f5	0.2873074
136	0x3ba180fd	0.0049287067
137	0xbe36973e	-0.17831132
138	0x3ce8ccbc	0.028417937
139	0xbe7c7498	-0.24653852
140	0x3e8fb3c0	0.28066826
141	0xbe960748	-0.2930243
142	0xbfc81e5f	-1.5634269
143	0xbf058c1d	-0.5216692
144	0xbeb2a82d	-0.34893933
145	0x3ea7d224	0.32777512
146	0xbe53b8ba	-0.20675936
147	0x3e0ef313	0.13959913
148	0x3f2a0326	0.66411054
149	0x3f0b5d8a	0.54439604
150	0x3eccc052	0.3999048
151	0x3df2b7c9	0.118514605
152	0xbec3ec0c	-0.38266027
153	0x3f430120	0.7617359
154	0xbe6731e9	-0.22577633
155	0xbefc4f47	-0.49279234
156	0xbf4023e1	-0.75054747
157	0x3bbd2697	0.0057724225
158	0x3db60195	0.088870205
159	0xc018dade	-2.3883586
160	0xbf464d29	-0.7746149
161	0x3e48a7ed	0.19595309
162	0x3e2b50a8	0.16729987
163	0x3e0e7cf1	0.13914849
164	0xbf306ff2	-0.68920815
165	0xbf2baf88	-0.67064714
166	0x3f28db36	0.6595949
167	0x3fc053ed	1.5025612
168	0x3f4decf9	0.80439717
169	0x3f51b357	0.81914276
170	0xbe649ec5	-0.22326191
171	0xbe0761ae	-0.13220856
172	0x3cb36de9	0.021902995
173	0x3d5a318d	0.05326991
174	0x3f2ab47e	0.6668166
175	0x3f174dda	0.5910317
176	0x3ebada35	0.36494604
177	0x3dcbff5f	0.099608175
178	0xbea7565e	-0.3268308
179	0xbf824426	-1.0177047
180	0x3e60cb79	0.21952619
181	0xbed4eec7	-0.41588423
182	0xbf844988	-1.033494
183	0x3ecec9da	0.40388376
184	0x3f21e23b	0.63235825
185	0x3f75d826	0.9603294
186	0x3ea887f0	0.32916212
187	0xbe2cff59	-0.16894282
188	0xbf383a30	-0.7196379
189	0xbdb94dec	-0.090480655
190	0xbeb85384	-0.36001217
191	0x3e1761ab	0.14783351
192	0xbe802dde	-0.25034994
193	0x3eff992b	0.49921545
194	0xbd937a7c	-0.072010964
195	0xbec54b6b	-0.38534102
196	0x3ecff533	0.4061676
197	0x3f00d747	0.5032849
198	0xbea78d85	-0.32725158
199	0x3d64c962	0.055856116
200	0xbed23c1b	-0.41061482
201	0xbd7746f4	-0.0603704
202	0x3ff03dc3	1.8768848
203	0xbf216370	-0.63042355
204	0xbecc65ba	-0.3992136
205	0x3f11243a	0.566959
206	0x3f35bd68	0.70992136
207	0xbf51f617	-0.8201613
208	0xbf005bd5	-0.50140125
209	0xbfbb4a85	-1.4632117
210	0xbf0a8f2a	-0.541247
211	0x3ec8a821	0.39190772
212	0x3ee259e8	0.44209218
213	0x3e483e7b	0.19555084
214	0xbfd7ff4b	-1.6874784
215	0x3ed7ae3f	0.42125127
216	0x3fa943ee	1.3223855
217	0xbe6d7c8f	-0.23192047
218	0xbeac3d3e	-0.33640474
219	0x3cc6d0c4	0.02426947
220	0x3e89eccb	0.2693847
221	0x3ecb5c6f	0.3971896
222	0x3e93e55f	0.28885934
223	0x3f90ae6b	1.1303228
224	0x3e8de1d9	0.2771137
225	0xbe440c8c	-0.19145411
226	0x3ef82f11	0.4847341
227	0x3f08c651	0.53427607
228	0xbeef8d92	-0.46787697
229	0x3f1dbca4	0.6161597
230	0x3e596c76	0.21232781
231	0xbf3ba029	-0.7329126
232	0xbeb96ceb	-0.3621591
233	0xbfcc70c0	-1.5971909
234	0xbf26cd29	-0.651568
235	0x3dc5cf1c	0.096586436
236	0xbf560a8e	-0.83609855
237	0x3d6ce263	0.057833087
238	0x3ef93936	0.4867646
239	0x3ec687fd	0.38775626
240	0xbfae3b74	-1.3611894
241	0xbe7dd2d3	-0.24787454
242	0x3e18c153	0.14917497
243	0xbdb26f78	-0.08712667
244	0xbcbe31da	-0.02321713
245	0x3f05cbfa	0.5226437
246	0x3f0fd252	0.561803
247	0x3de17a10	0.1100961
248	0xbef235bc	-0.4730662
249	0xbec92850	-0.39288568
250	0xbe6b4bc0	-0.22978115
251	0x3f2819d2	0.656644
252	0x3e1ba912	0.15201214
253	0xbdbdb82a	-0.09263642
254	0xbf5e5b5e	-0.86858165
255	0x3e71a290	0.23597169

actor.2.bias f4 [64]
0	0x3cd6b11f	0.026207505
1	0xbf7295b0	-0.94759655
2	0x3e864a2c	0.26228464
3	0xbdb071a3	-0.086154245
4	0x3d0d86dc	0.03455244
5	0x3d8fcbf9	0.070213266
6	0xbef47bee	-0.477508
7	0xbe25de51	-0.16198088
8	0xbea10ae8	-0.31453633
9	0xbeba2ed1	-0.36363843
10	0xbd8bca91	-0.06825746
11	0xbe5551f9	-0.20832051
12	0x3e4cc378	0.1999644
13	0x3cf3316c	0.029686652
14	0x3e899f83	0.2687951
15	0xbf1c2d1d	-0.6100634
16	0xbda198b3	-0.07890453
17	0x3d7fb8e2	0.062432177
18	0x3f22177e	0.63317096
19	0x3ef6178f	0.4806485
20	0x3f0b3c41	0.54388815
21	0xbe938b64	-0.28817284
22	0xbe98a97d	-0.2981681
23	0x3ea1b4bd	0.31583205
24	0xbd0ed1f5	-0.0348682
25	0x3dadaa52	0.08479752
26	0xbc67499b	-0.01411667
27	0x3f04919c	0.5178468
28	0x3d6835a4	0.05669178
29	0x3f1bcb4a	0.6085707
30	0x3f151c31	0.5824614
31	0xbee02259	-0.43776205
32	0x3f37f8c3	0.71863955
33	0xbeacdcca	-0.337622
34	0xbeba929a	-0.36439973
35	0x3ea6f895	0.32611528
36	0xbe9addc3	-0.30247316
37	0x3e05196f	0.12997983
38	0xbefcb142	-0.49353987
39	0x3eec7b89	0.46188
40	0xbf4a74a1	-0.7908421
41	0xbe78792e	-0.24264976
42	0x3e996b76	0.299648
43	0x3e9f2636	0.3108384
44	0xbe640148	-0.22266114
45	0x3ebca2a7	0.36842844
46	0x3e443f04	0.19164664
47	0xbf49cd3b	-0.7882878
48	0xbe341863	-0.17587428
49	0x3ee48fa0	0.44640827
50	0x3e8979eb	0.2685083
51	0x3e4bc600	0.1989975
52	0xbf395647	-0.72397274
53	0x3e79cf75	0.24395545
54	0xbe9681c3	-0.29395875
55	0x3d8efb80	0.069815636
56	0xbe57608b	-0.21032922
57	0xbee6356a	-0.44962627
58	0x3ef04794	0.4692961
59	0x3e55f064	0.20892483
60	0xbe7f8678	-0.2495364
61	0xbedd268a	-0.43193465
62	0xbe9d6984	-0.30744565
63	0x3ee67f08	0.45018792

actor.4.weight f4 [7, 64]
0	0x3ebefa4f	0.37300345
1	0xbfb123e2	-1.3839076
2	0x3f7a6630	0.97812176
3	0x400732b3	2.1124694
4	0x3ec1b7c4	0.37835515
5	0xbfcbb90a	-1.5915844
6	0xbff965a7	-1.9484147
7	0xbe22f111	-0.15912272
8	0xbfa20471	-1.2657605
9	0xc00b04a6	-2.1721587
10	0x3e0be964	0.1366325
11	0x3fc05bc7	1.5028008
12	0xbdb93585	-0.09043411
13	0xbfb1a674	-1.3878922
14	0xc01d5aaf	-2.45866
15	0x3fcd8604	1.6056523
16	0xbf5d3266	-0.86405027
17	0x3ffa2df1	1.954527
18	0xbff5bdd0	-1.9198551
19	0xc02b1783	-2.67331
20	0x3faef02f	1.3667048
21	0x3f8a23fa	1.0792229
22	0xc0269823	-2.6030357
23	0x404d3688	3.2064533
24	0x3ff49067	1.9106568
25	0x3f981340	1.1880875
26	0x40036bd5	2.0534565
27	0x3f2f1c7c	0.6840284
28	0xbed992bb	-0.4249476
29	0x40073858	2.112814
30	0x4010abe3	2.2604911
31	0x3fa6acf3	1.302153
32	0xbf8103a7	-1.007924
33	0xbfd7e3a4	-1.6866345
34	0xbff2dcba	-1.897361
35	0x4018e932	2.389233
36	0xbfaa9aee	-1.3328531
37	0x40296f73	2.6474273
38	0x3f2e9781	0.68199927
39	0xc000bd4a	-2.0115533
40	0x3f7525e9	0.9576097
41	0xc00adbdd	-2.1696694
42	0xbfe6ef32	-1.8041747
43	0x3f869ab8	1.0515966
44	0x3fe88b61	1.8167535
45	0xbf15ddcf	-0.5854158
46	0xbfde0baa	-1.734731
47	0xbfced411	-1.6158468
48	0xbf4eed21	-0.8083058
49	0x3c369b7c	0.011145469
50	0x401795a4	2.3685083
51	0x400ea4d6	2.2288108
52	0xc00054a2	-2.0051656
53	0x3f16467a	0.5870129
54	0xbfe78d62	-1.8090022
55	0x3efbeb4c	0.49202955
56	0x3ffe32b1	1.985922
57	0xc01e33b6	-2.4719062
58	0xbf9e9b8f	-1.2391223
59	0x3f544260	0.8291378
60	0xbfd66a7c	-1.6751246
61	0xbf598f8c	-0.8498466
62	0xbfb02c7a	-1.3763573
63	0x40061d43	2.095536
64	0x3fbc2b4a	1.4700711
65	0x4011e13a	2.2793717
66	0xbe599357	-0.21247612
67	0x3fd60162	1.6719172
68	0xbd817732	-0.06321563
69	0x4009ffe8	2.1562443
70	0xbe9d6d9a	-0.30747682
71	0x3f2caa5d	0.67447454
72	0xc00962bc	-2.1466513
73	0xbe7ffee0	-0.24999571
74	0x3fb26672	1.3937514
75	0xbf97c236	-1.1856143
76	0xc041eb76	-3.0299964
77	0xbf7012f7	-0.9377894
78	0x3e2d5fc1	0.16931058
79	0xbd398e5a	-0.045301773
80	0xbf21d76f	-0.6321935
81	0x3f87abbd	1.0599285
82	0xbf0b8dce	-0.5451325
83	0xbf848b13	-1.0354942
84	0xbf863001	-1.04834
85	0xc01bddbf	-2.4354093
86	0xbeacdb53	-0.3376108
87	0x3f605736	0.87633073
88	0x3f0cd60d	0.55014116
89	0x3fdd7f9e	1.7304571
90	0x3f368199	0.712915
91	0xbfb8fad9	-1.4451553
92	0x401b1514	2.4231615
93	0x3d2fc5bc	0.042913184
94	0xc0148788	-2.3207722
95	0x3d7bcc5b	0.061474185
96	0xbfa16081	-1.2607576
97	0xbf0b5739	-0.54429966
98	0x3f7e3973	0.9930641
99	0x3f10da63	0.5658323
100	0xc017f193	-2.3741195
101	0x3fe83dfd	1.8143917
102	0x3fcdee97	1.6088437
103	0xbfa8949b	-1.3170351
104	0xbf68650c	-0.90779185
105	0xbf0be907	-0.54652447
106	0xbf676c43	-0.9039957
107	0xbe27819f	-0.1635804
108	0x3db4300f	0.08798229
109	0x401d1413	2.4543502
110	0xbda32617	-0.079662494
111	0x3f9acffa	1.209472
112	0xbfb90b82	-1.4456637
113	0x3fabcb09	1.3421336
114	0x3e4878d3	0.19577341
115	0x3e790fc2	0.24322417
116	0x3f07d61a	0.5306107
117	0x3fc085dc	1.5040851
118	0x3f338ca3	0.7013647
119	0x3efb793f	0.4911594
120	0xbdc1e2cf	-0.094670884
121	0xbed4361a	-0.41447526
122	0xbf41dc28	-0.75726557
123	0x3f302cbc	0.6881826
124	0x3f63887e	0.88880146
125	0xbf1df784	-0.61705804
126	0x3fdbaa4d	1.7161347
127	0xbeba99b1	-0.36445382
128	0xbf13d867	-0.5775208
129	0x3be2d757	0.006922643
130	0x3ee3b35b	0.44472775
131	0x3e0e0f0c	0.13872927
132	0xbf10e9f1	-0.56606966
133	0xbf0fcf26	-0.5617546
134	0xbf87a929	-1.0598499
135	0x3e9989c0	0.29987907
136	0x3fbafb0d	1.4607865
137	0xbead32fa	-0.33827955
138	0x3f934f0e	1.15085
139	0xbe47fd3a	-0.19530192
140	0xbe472872	-0.19449022
141	0xbf0743b7	-0.528377
142	0xbf05f5c1	-0.52328116
143	0xbf00c15c	-0.50295043
144	0x3e8c7a19	0.27436903
145	0xbf142896	-0.5787443
146	0xc00bba18	-2.1832333
147	0xbe346369	-0.17616047
148	0x3ea5b6fa	0.32366163
149	0x3f5df8aa	0.86707556
150	0x3eca7c35	0.39547887
151	0x3e8a7400	0.27041626
152	0xbf025dae	-0.50924194
153	0x3f3bfb6f	0.7343053
154	0x3deff40d	0.11716471
155	0x3e97b6a7	0.2963154
156	0x3f413bba	0.7548176
157	0xbeec5b91	-0.4616361
158	0xbe1962a2	-0.14979032
159	0xbf2cb1dd	-0.674589
160	0xbe68c2a9	-0.22730507
161	0x3e616484	0.22011
162	0x3f2312c5	0.63700515
163	0xbeb41da4	-0.35178864
164	0x3f03096a	0.5118624
165	0xbe79a8b5	-0.24380763
166	0xbc25d5f3	-0.01012181
167	0xbe5dd638	-0.21663749
168	0xbec3af52	-0.38219696
169	0xbe0a92fc	-0.13532633
170	0xbdbf2442	-0.093330875
171	0x3e815c5f	0.25265786
172	0x3f567ad4	0.8378117
173	0xbe0f7e3d	-0.14013
174	0xbce91e67	-0.02845688
175	0xbeb8dbf5	-0.36105314
176	0x3eb3cb50	0.35116053
177	0xbf1f4529	-0.62214905
178	0x3deb4dbd	0.11489437
179	0x3f4b72a0	0.7947178
180	0x3e2b9351	0.16755415
181	0x3edb5446	0.42837733
182	0xbe8b6a9c	-0.27229774
183	0xbece4781	-0.40288928
184	0xbf237076	-0.63843477
185	0x3d9cf507	0.07663923
186	0xbf819ffc	-1.0126948
187	0x3d92ae0f	0.07162105
188	0x3f118bb5	0.568538
189	0xbf70f2bc	-0.94120383
190	0x3e4bdc7d	0.19908328
191	0xbcec82a4	-0.028870888
192	0xbd1833b6	-0.03715869
193	0xbdfcd2fc	-0.123449296
194	0x3dcab406	0.09897618
195	0xbe0297d5	-0.12753232
196	0x3e98d322	0.29848582
197	0x3cc9b565	0.024622628
198	0xbe896d83	-0.26841363
199	0x3d4774a9	0.04869524
200	0x3e48311b	0.19549982
201	0x3e0b4cd1	0.13603522
202	0xbffb9a29	-1.9656421
203	0x3ea3eb6b	0.32015547
204	0x3ddc3dc1	0.10753966
205	0xbf77d84d	-0.96814424
206	0xbd47e3ee	-0.048801355
207	0xbfb44d3c	-1.408607
208	0xbdaaa81b	-0.08332845
209	0xbed3ec9f	-0.41391465
210	0xbe7d4aa6	-0.24735507
211	0xbf9649dc	-1.174129
212	0xbd17ae9a	-0.037031747
213	0x3e754946	0.23953733
214	0x3e5e540f	0.21711753
215	0xbe83fa6b	-0.2577699
216	0x3f4737cb	0.7781951
217	0x3dcb37e4	0.0992277
218	0xbd9b97d9	-0.07597322
219	0x3fcd038d	1.6016709
220	0xbd942f0d	-0.07235537
221	0xbf64d52d	-0.8938778
222	0xbf3859e6	-0.72012174
223	0x3e89e69f	0.26933762
224	0xbf04ec69	-0.51923233
225	0x3fbd427c	1.4785914
226	0x3f8078ce	1.0036867
227	0xbe5fcc90	-0.21855378
228	0x3e8c805e	0.27441686
229	0x3d84480d	0.06459055
230	0x3f0e8a4b	0.5567977
231	0x3f828a1e	1.01984
232	0x3f807818	1.003665
233	0xbe4da561	-0.20082618
234	0x3d3428bd	0.043984164
235	0xbdc39b18	-0.09551066
236	0xbe2d6e39	-0.16936578
237	0xbe32b90d	-0.17453404
238	0xbe162416	-0.14662203
239	0x3f1b1fa1	0.60595137
240	0xbe85c30b	-0.26125368
241	0x3e4f242d	0.20228644
242	0xbea0976e	-0.31365532
243	0x3f059a86	0.5218891
244	0xbf82a74d	-1.0207306
245	0xbdc59fed	-0.09649644
246	0xbd62eacc	-0.0553997
247	0xbe9794bc	-0.29605663
248	0xbfe4aeb2	-1.7865813
249	0xbe1178fc	-0.14206308
250	0xbec3a367	-0.38210604
251	0x3f1e6f45	0.61888534
252	0x40145c58	2.3181362
253	0x3f578fe2	0.8420392
254	0xbefb4a7e	-0.4908027
255	0xbd4e978a	-0.050437488

actor.4.bias f4 [7]
0	0x3fa23d86	1.2675025
1	0xbdb96163	-0.09051778
2	0xbd9b580e	-0.075851545
3	0xbe5d09e8	-0.2158581
4	0xbeeae394	-0.45876753
5	0x3f1a172b	0.601916
6	0x3fa0c2da	1.2559464

critic.0.weight f4 [64, 20]
0	0xbd0c455a	-0.034245826
1	0xbea4871c	-0.3213433
2	0x3ed2ee3b	0.4119738
3	0x3ed03f60	0.4067335
4	0xbea2dca6	-0.31808966
5	0x3c062417	0.008187315
6	0xc0f01e98	-7.5037346
7	0xc125b8fd	-10.357663
8	0xc140573d	-12.021298
9	0xbf984e36	-1.1898868
10	0xbf5f7902	-0.8729402
11	0xbf2c1154	-0.6721394
12	0xbbafa69a	-0.0053604366
13	0x3e061683	0.13094525
14	0x3faaa9e2	1.3333094
15	0xbf5b8e4d	-0.8576401
16	0x3f5e1141	0.8674508
17	0xbe384671	-0.17995621
18	0x3e497106	0.19672021
19	0xbebdbf6d	-0.3706011
20	0x3f76ad48	0.96358156
21	0x3f808a7c	1.0042262
22	0x3f7e4611	0.9932566
23	0xbefed069	-0.4976838
24	0xbfa7b1f7	-1.3101186
25	0xbf4da397	-0.80327743
26	0x4008070e	2.1254306
27	0x40162f45	2.346635
28	0x401100f0	2.2656822
29	0x3f5f7749	0.8729139
30	0x3f842d49	1.032632
31	0x3f4d82ce	0.8027772
32	0x40127050	2.288105
33	0x401b976e	2.4311175
34	0x3f88736c	1.0660224
35	0xbf918e35	-1.1371523
36	0xbf77ba05	-0.9676822
37	0xbda3407c	-0.07971284
38	0x3d8ed044	0.06973317
39	0x3f319847	0.6937298
40	0xbfb11555	-1.3834635
41	0xbef4da51	-0.47822812
42	0xbfd31153	-1.6489662
43	0xbfb2355a	-1.3922532
44	0xbf5ba8e3	-0.85804576
45	0xbfa54766	-1.2912414
46	0xbfa0491c	-1.2522311
47	0xbfd9bca0	-1.7010689
48	0xc01b6f05	-2.428651
49	0xbef78679	-0.48344782
50	0xbf32cfb5	-0.69848186
51	0xbf16ead3	-0.58952063
52	0xbe487c4f	-0.1957867
53	0xbfe8687a	-1.8156884
54	0xbdc0ea98	-0.09419745
55	0x3d5454d6	0.05183872
56	0x3f61776d	0.88072854
57	0x3effd296	0.49965352
58	0xbe5b396f	-0.21408628
59	0xbc572d34	-0.013133336
60	0x3e05fe77	0.13085352
61	0xbed47915	-0.41498628
62	0x3ebe93b6	0.3722207
63	0xbe1e84f3	-0.15480404
64	0xbdb68695	-0.08912388
65	0x3e95620f	0.29176375
66	0x3fa212d5	1.2661997
67	0x3f7235d9	0.94613415
68	0x3e311f57	0.17297111
69	0x3f2d13c9	0.67608315
70	0x3dcb78f0	0.09935176
71	0x3db6788e	0.08909713
72	0xbeeee183	-0.46656427
73	0xbead5e92	-0.33861214
74	0xbee9ac5b	-0.4563931
75	0xc014d461	-2.3254626
76	0xbf023aff	-0.5087127
77	0x4003a683	2.057038
78	0x3e8facb2	0.28061444
79	0x3ebc19a9	0.36738327
80	0xbf3558cd	-0.70838624
81	0x3f38756d	0.7205418
82	0xbfaf7906	-1.3708808
83	0xbfe2dee8	-1.7724276
84	0xbfa13dd6	-1.2596996
85	0xbf9b4555	-1.2130533
86	0xbf4492c2	-0.76786435
87	0x3f4a8753	0.7911274
88	0x3fc18425	1.5118452
89	0xbdba7704	-0.09104732
90	0x3de0b7df	0.10972571
91	0x3ec945c8	0.3931105
92	0x3fd3a172	1.6533644
93	0x3ff11970	1.8835888
94	0x3f235933	0.6380798
95	0x3e13ff17	0.14452778
96	0x3f2d7be1	0.6776715
97	0x3fee9470	1.863905
98	0xbdb22101	-0.08697701
99	0x3d850c73	0.06496515
100	0x3f6eca44	0.9327738
101	0xbeb13268	-0.3460877
102	0xbf8a65bd	-1.0812298
103	0xbe3d05b7	-0.18459211
104	0x3e24742e	0.16059944
105	0xbc29098a	-0.010317216
106	0x403ecf46	2.981401
107	0xbe191698	-0.14950025
108	0xbe8530b7	-0.2601373
109	0x3d98b2a8	0.07455951
110	0x3d2b38ac	0.041802093
111	0x3e57cb79	0.21073712
112	0x402961c6	2.6465926
113	0xbfed3094	-1.853045
114	0x3e342219	0.17591132
115	0xbf8d8079	-1.1054832
116	0xbd35479a	-0.044257738
117	0x3f854794	1.0412469
118	0xbee5f91c	-0.44916618
119	0xbdf4761d	-0.11936591
120	0x3fa01a17	1.2507962
121	0xbea9d5db	-0.3317097
122	0xbf5be6b5	-0.85898906
123	0xbf926005	-1.1435553
124	0x3f3566eb	0.70860165
125	0x3f966542	1.1749651
126	0xc039ac28	-2.9011326
127	0xc0238df7	-2.5555398
128	0xc0056e9a	-2.0848756
129	0xbf17ef8c	-0.59349895
130	0xbe8b354b	-0.27189097
131	0x3df99545	0.12186674
132	0xbe6ebdb3	-0.23314552
133	0xbfc54865	-1.5412718
134	0x3dea52b7	0.11441558
135	0x3f6c715a	0.9236046
136	0xbe6a25d8	-0.22865999
137	0xbefcd9e2	-0.4938498
138	0x3e9a27e8	0.3010857
139	0x3ee476c5	0.44621864
140	0x3e95ef86	0.29284304
141	0xbeaa2cf6	-0.33237427
142	0xbf820922	-1.0159037
143	0xbf5c4178	-0.860374
144	0xbf37f4c9	-0.7185789
145	0xbe3a1505	-0.18172081
146	0xbfff1aa4	-1.9930005
147	0xbfde1441	-1.7349931
148	0xc016ca8e	-2.356113
149	0xbe0bcfb3	-0.1365345
150	0xbecc4064	-0.39892876
151	0xbea6928a	-0.32533675
152	0xc01aff8f	-2.421848
153	0x3d9e80c0	0.07739401
154	0xbd17ea99	-0.037088964
155	0xbfac3275	-1.3452898
156	0x3f755aa6	0.95841444
157	0x3ea944c9	0.3306029
158	0x3d9f2f7c	0.07772729
159	0x3df2b8a8	0.11851627
160	0xbf8b8dd1	-1.0902654
161	0x3f70f288	0.94120073
162	0x4020c570	2.5120506
163	0xbfdf0909	-1.7424632
164	0xbf022385	-0.5083545
165	0xbf4177c9	-0.755734
166	0xc00f13cc	-2.2355833
167	0xc0083227	-2.128061
168	0xc019e04c	-2.404315
169	0x3e7eaf3a	0.24871531
170	0xbddce63d	-0.10786102
171	0xbd812e01	-0.06307603
172	0xbfc05c20	-1.5028114
173	0xbf497556	-0.78694665
174	0x3eba5544	0.36393178
175	0x3eceb47a	0.40372068
176	0xc02b4499	-2.6760619
177	0xbe790619	-0.24318732
178	0x3dddbf00	0.10827446
179	0x3e59274b	0.21206395
180	0xbdbf376f	-0.09336745
181	0x3e249ec9	0.16076197
182	0xbf137683	-0.5760271
183	0x3ea5d955	0.32392374
184	0x3d87e684	0.06635764
185	0x3f2c5d66	0.67330015
186	0xc097af81	-4.740174
187	0xc0b29571	-5.5807424
188	0xc0b60a4c	-5.688757
189	0xbf838278	-1.0274191
190	0xbd44154c	-0.047871873
191	0x3e4382e3	0.19092898
192	0xc098bdb9	-4.7731595
193	0xc004d555	-2.0755208
194	0x3ef0f32a	0.4706052
195	0x3dedaa42	0.1160474
196	0xbf9919af	-1.1960963
197	0xbfc8bd1d	-1.5682713
198	0x3c046d8e	0.0080827605
199	0xbef651aa	-0.4810918
200	0x3c0846e3	0.008317682
201	0x3f2057c7	0.6263394
202	0x3f546c5e	0.82977855
203	0xbf3dc12a	-0.7412287
204	0xbe0f2f10	-0.13982797
205	0xbd1d8e44	-0.038465753
206	0x3f92b032	1.146002
207	0xbf217a40	-0.63077164
208	0xbfa80082	-1.3125155
209	0xbeb8ceb7	-0.3609521
210	0xbe50c92d	-0.20389242
211	0xbf07d342	-0.5305673
212	0xbe38596a	-0.18002859
213	0x40100c45	2.2507489
214	0xbf828860	-1.0197868
215	0xbfb84259	-1.4395248
216	0x3fbf93fd	1.4967037
217	0x3f2b8d77	0.67012733
218	0xbecd7fcc	-0.40136564
219	0xbf567c02	-0.8378297
220	0x40064638	2.0980358
221	0x3f25b63f	0.6473121
222	0xbf7b10ee	-0.9807271
223	0xbdd8b7dd	-0.10581944
224	0x3edaf5bc	0.42765605
225	0xbd02bb93	-0.031917166
226	0xbfcc5919	-1.596469
227	0xbe6f8891	-0.2339194
228	0x3ffb8949	1.9651271
229	0x3bc5a12b	0.0060311756
230	0x3dc159a7	0.09440928
231	0x3f26273a	0.64903605
232	0x40107732	2.257275
233	0x3ecbd762	0.39812762
234	0x3f0fa2b2	0.5610763
235	0xbf6e8d56	-0.9318441
236	0xbfb24290	-1.3926563
237	0x3f955add	1.1668354
238	0xbcf2a198	-0.02961807
239	0xbe689c33	-0.22715835
240	0x3e4f2454	0.20228702
241	0xbe353258	-0.17694986
242	0x3e11ef55	0.14251454
243	0xbdbcb4fa	-0.09214206
244	0xbe78b60a	-0.24288192
245	0xbe48f7d8	-0.19625795
246	0x403366fa	2.8031602
247	0x401bb744	2.4330606
248	0x4008290c	2.1275053
249	0x3f7332d0	0.9499941
250	0x3f22b4df	0.6355724
251	0x3f005b51	0.5013934
252	0xbf095941	-0.53651816
253	0xbf6eb7fc	-0.9324949
254	0x3f325306	0.69657934
255	0x3fa73238	1.30622

critic.0.bias f4 [64]
0	0x3f68429d	0.90726644
1	0x3f57f1ae	0.8435315
2	0xbea51962	-0.32245928
3	0xbe9c3b77	-0.30514118
4	0x3f44ba7f	0.7684707
5	0x3f00a2ae	0.5024823
6	0xbab19295	-0.0013547713
7	0xbe9d1e65	-0.30687252
8	0x3e61fce5	0.22069128
9	0x3f2ebd4e	0.68257606
10	0xbe0cf74b	-0.1376621
11	0xbed4c985	-0.41559997
12	0x3eceb83e	0.4037494
13	0xbf8aa597	-1.0831784
14	0xbb1ed1a3	-0.002423384
15	0xbf80dfda	-1.0068314
16	0xbee111a3	-0.43958768
17	0xbf1ee17f	-0.6206283
18	0x3f13d136	0.57741106
19	0x3d0e28a7	0.034706738
20	0x3e639962	0.2222648
21	0xbefd37f6	-0.49456757
22	0x3ea5065e	0.3223142
23	0x3ebadea9	0.36498
24	0xbf9cc878	-1.2248678
25	0xbef77b2e	-0.48336166
26	0x3fa10cdf	1.2582053
27	0x3f13610f	0.57569975
28	0xbf174349	-0.59087044
29	0x3ef61895	0.4806563
30	0xbe80d8e0	-0.25165462
31	0x3f8e441a	1.1114533
32	0x3e845ba2	0.2585116
33	0x3f4453b3	0.76690215
34	0xbf423cf5	-0.75874263
35	0x3e812885	0.25226226
36	0xbf72082c	-0.9454372
37	0xbf4530e7	-0.77027744
38	0x3dfee19f	0.124453776
39	0x3d79f6d3	0.061026406
40	0x3f337d9b	0.70113534
41	0xbf3a0c19	-0.7267471
42	0xbf0d443b	-0.55182236
43	0x3f8949d6	1.0725658
44	0xbf0215c6	-0.50814474
45	0xbe606f88	-0.21917546
46	0x3e953e18	0.29148936
47	0xbf8668bf	-1.0500716
48	0xbf0c2cd2	-0.5475589
49	0xbe569cea	-0.20958295
50	0xbfd40bd9	-1.6566116
51	0xbf650097	-0.89454025
52	0xbedb35a8	-0.42814374
53	0xbed7ea3e	-0.421709
54	0x3f1e0a15	0.61734134
55	0x3eb9069a	0.3613785
56	0xbed3ee48	-0.41392732
57	0xbfc810ef	-1.5630168
58	0x3f426bca	0.75945723
59	0x3ecaf6fe	0.39641565
60	0xbf1d76fc	-0.6150968
61	0xbd2116e2	-0.039328463
62	0x3f8e3b62	1.1111872
63	0xbe87a3d3	-0.26492175

critic.2.weight f4 [64, 64]
0	0xbf85aeb4	-1.044394
1	0xbf9f0905	-1.2424628
2	0xbeb8da17	-0.3610389
3	0x3e7278fe	0.23678967
4	0xba1dc334	-0.0006018162
5	0x3f6d902d	0.9279812
6	0x3fa53ff5	1.2910143
7	0xbe6953bf	-0.22785853
8	0xbec951f9	-0.39320353
9	0x3f4186ef	0.7559652
10	0x3fa0e10d	1.256868
11	0x3db88639	0.09009976
12	0xbd76e811	-0.06027991
13	0xc01313b2	-2.298077
14	0xbe0c5161	-0.13702919
15	0x3e06644a	0.13124195
16	0xbe505db0	-0.20348239
17	0x3fed2a7b	1.8528589
18	0x3ec97feb	0.39355406
19	0xbe2d206a	-0.16906896
20	0x3eda5456	0.42642468
21	0xbf616e63	-0.8805906
22	0x3f54b6e5	0.83091575
23	0x3dd7c415	0.105354466
24	0x3f58266c	0.8443363
25	0x3fa75a55	1.3074442
26	0xbe2613d7	-0.16218506
27	0xbe731a9e	-0.23740622
28	0x3e868844	0.26275837
29	0x3e5dd26f	0.21662305
30	0x3eefc959	0.46833304
31	0xbfa473c1	-1.2847825
32	0xbfa97a54	-1.3240457
33	0x3f912590	1.1339588
34	0x3dd6599d	0.10466311
35	0xbcbcd644	-0.023051389
36	0xbdfdb6cf	-0.123883836
37	0x3edffc37	0.43747112
38	0xbf36921f	-0.71316713
39	0xbf860816	-1.0471218
40	0xbf37ec79	-0.71845204
41	0xbc2f6735	-0.010705759
42	0x3f586eb6	0.8454393
43	0xbee7900e	-0.45227093
44	0x3f2340a1	0.6377049
45	0x3fa11877	1.2585591
46	0x3f4e0a03	0.80484027
47	0xbe7506f1	-0.23928429
48	0x3fa62408	1.2979746
49	0x3f1a864c	0.6036117
50	0x3f3216a3	0.6956579
51	0xbe7e6e38	-0.24846733
52	0x3eb40063	0.35156545
53	0xbf90dbad	-1.131704
54	0xbf2be505	-0.6714633
55	0x3eafea11	0.34358266
56	0x3f18328d	0.59452134
57	0x3f857208	1.0425425
58	0x3e381675	0.17977317
59	0xbf7e1640	-0.992527
60	0x3ffbfecb	1.9687132
61	0x3fb2de3d	1.3974072
62	0xbe884e90	-0.26622438
63	0xbe833e6e	-0.25633568
64	0x3f8314fd	1.024078
65	0x3c18a837	0.009317449
66	0x3f8029ee	1.0012796
67	0x3f4c0bda	0.79705584
68	0x3f106ee5	0.5641921
69	0x3f86ac86	1.05214
70	0xbfa8aed3	-1.3178352
71	0x3f2c2c7f	0.67255396
72	0xbef898c3	-0.48554048
73	0x3ea46724	0.3210994
74	0x3d206bb4	0.039165214
75	0xbfaffd87	-1.3749245
76	0x3e1997b1	0.14999272
77	0x3f090156	0.53517663
78	0xbf4b918a	-0.7951895
79	0x3e3e997d	0.18613239
80	0x3fb168e7	1.3860139
81	0x3f917b8d	1.136583
82	0xbfa3ea22	-1.2805827
83	0xbeb8dab9	-0.36104372
84	0x3e3570f0	0.17718863
85	0x3d317108	0.043320686
86	0x3fe3e53e	1.7804334
87	0x3f468457	0.77545685
88	0xbb94270c	-0.0045212563
89	0x3dadf08b	0.084931456
90	0xbe943a23	-0.28950605
91	0xbf4d70b4	-0.80250096
92	0x3fcd7c00	1.6053467
93	0x3f7143de	0.9424418
94	0x3f15b9fe	0.58486927
95	0xbe3bceca	-0.18340603
96	0x3ead4678	0.33842826
97	0x3fbbf5d8	1.46844
98	0x3df27475	0.11838619
99	0x3dc83f38	0.09777683
100	0xbf54937d	-0.8303755
101	0xbe27b881	-0.16378976
102	0xbf2792eb	-0.65458554
103	0x3d48b592	0.049001284
104	0xbdd0351b	-0.10166379
105	0x3f43efe3	0.76537913
106	0xbf4601fd	-0.77346784
107	0x3f2867ff	0.65783685
108	0xc002ff69	-2.046839
109	0x3f24f15f	0.64430803
110	0x3f3ba6b3	0.7330124
111	0x3e8695c3	0.26286134
112	0xbf41af35	-0.7565797
113	0xbe11e927	-0.14249097
114	0x3e6341dc	0.22193092
115	0xbf080965	-0.53139335
116	0x3db78aaa	0.08961995
117	0xbef2550f	-0.4733052
118	0xbf4fe05f	-0.8120174
119	0x3eb2509a	0.3482712
120	0x3b1da4dd	0.0024054565
121	0x3f0579a8	0.5213876
122	0x3f39291f	0.7232837
123	0x3e2a52c0	0.16633129
124	0xbf360017	-0.7109389
125	0x3fb4e71d	1.413303
126	0x3ef72ebd	0.48277846
127	0xbfec13d5	-1.8443552
128	0x3f7d9882	0.99060833
129	0x3ef01285	0.4688913
130	0xbe516d65	-0.20451887
131	0xbebac8b6	-0.36481255
132	0x3ea9904b	0.331179
133	0xbd6485ee	-0.055791788
134	0xbf74239f	-0.95366853
135	0xbf9be7b9	-1.2180091
136	0x3fd962ad	1.6983238
137	0xbe57de54	-0.21080905
138	0xbf1c74b2	-0.6111556
139	0xbe3f649b	-0.18690722
140	0x3f63810e	0.88868797
141	0xbf854215	-1.0410792
142	0x3e82d0ca	0.25549918
143	0xc0018a0a	-2.0240502
144	0x3ec710ea	0.38880092
145	0xbdf87052	-0.121307984
146	0x3e86959e	0.26286024
147	0xbbd0a040	-0.0063667595
148	0xbf5f8b15	-0.873216
149	0x3c9a1643	0.018809443
150	0x400c9302	2.1964726
151	0xbf6e8043	-0.9316446
152	0xbedf1087	-0.43567297
153	0xbea6352f	-0.3246245
154	0xbf04216c	-0.516135
155	0x3f15b0cd	0.584729
156	0x3e80cb86	0.25155276
157	0xbf4bfb02	-0.7967988
158	0x3d310905	0.043221492
159	0x3fa2ec86	1.2728431
160	0x3ee1ed3f	0.44126317
161	0x3fa71dd7	1.3055981
162	0x3f1bc59d	0.6084841
163	0xbfc996df	-1.5749167
164	0xbf4124a9	-0.75446564
165	0xbf62e34f	-0.88628095
166	0x3f046e13	0.5173046
167	0x3e962b1a	0.2932976
168	0xbddf9aa0	-0.10918164
169	0x3eb513eb	0.3536676
170	0xbf90480a	-1.1271985
171	0xbe54c006	-0.20776376
172	0xbfdf49fa	-1.7444451
173	0xbf0be850	-0.54651356
174	0x3e96e981	0.29475024
175	0xbf3fba78	-0.74893904
176	0xbe305cae	-0.17222854
177	0xbf556b9b	-0.8336732
178	0xbe143161	-0.14471962
179	0xbfbd9d2e	-1.4813592
180	0xbe87158f	-0.26383635
181	0xbf5f49e0	-0.872221
182	0x4014f2c0	2.3273163
183	0x3f997e91	1.199175
184	0xbec24351	-0.37941983
185	0x3ecbdc2a	0.3981641
186	0xbe0a7ac9	-0.13523401
187	0xbf05c733	-0.5225708
188	0xbf78cc10	-0.97186375
189	0x3f2360e3	0.6381971
190	0x3ff7f1ed	1.9370705
191	0xbe3f0cfb	-0.18657295
192	0xbde0940e	-0.10965739
193	0x3f5d5c34	0.86468816
194	0xbeb8d098	-0.36096644
195	0xbfdb0604	-1.7111211
196	0xbdc2df63	-0.09515264
197	0xbe9ff456	-0.312411
198	0xbf929ca9	-1.1454059
199	0x3e6deee3	0.2323566
200	0x3fdb213a	1.7119515
201	0x3ea48508	0.32132745
202	0xbecf0468	-0.4043305
203	0x3e512ba4	0.20426804
204	0x3f2ecab8	0.68278074
205	0xbf1a1587	-0.601891
206	0xbf0e2fef	-0.5554189
207	0xbf188571	-0.59578615
208	0x3fb5cdc7	1.4203423
209	0xbcc1cca3	-0.023657149
210	0xbf0c8ce9	-0.5490251
211	0xbea6b20e	-0.3255772
212	0x3e79b491	0.24385287
213	0xbed6cd1e	-0.41953367
214	0xbed14544	-0.40873158
215	0xbf770cc4	-0.96503854
216	0xbf4c758c	-0.7986686
217	0xbfe44c92	-1.7835867
218	0x3e9539c5	0.29145637
219	0xbdbcf9ea	-0.09227355
220	0x3f13911f	0.5764331
221	0x3eab2e29	0.33433655
222	0x3ea0ae42	0.31382948
223	0xbca0e717	-0.019641442
224	0x3d45a960	0.04825723
225	0xbde11551	-0.10990394
226	0xbf89d3b4	-1.0767732
227	0x3ec00334	0.37502444
228	0x3e04f708	0.1298486
229	0xbef704a2	-0.48245722
230	0x3f27db8a	0.65569365
231	0x3f47eaf6	0.78092897
232	0x3f702ee4	0.9382155
233	0x3ec2b5a0	0.38029194
234	0xbf726201	-0.9468079
235	0x3e28d474	0.16487294
236	0x3f7741e6	0.9658493
237	0xbfde0c95	-1.734759
238	0x3e7c0ea4	0.2461496
239	0xbf83b58d	-1.028978
240	0x3f433eee	0.762679
241	0xbe9f2d15	-0.31089082
242	0xbf680234	-0.9062836
243	0xbf2bfa3f	-0.6717872
244	0x3ff52109	1.9150707
245	0x3f85d290	1.0454884
246	0x3f85b50e	1.0445879
247	0x3e002ce1	0.1251712
248	0xbf3e2a6d	-0.74283487
249	0xbe963582	-0.29337698
250	0x3fbcc138	1.4746466
251	0xbf1c7c98	-0.61127615
252	0xbdf31c48	-0.118706286
253	0xbf7dfdc3	-0.99215335
254	0x3f3f74db	0.7478768
255	0xbeea8298	-0.4580276

critic.2.bias f4 [64]
0	0xbf2121f5	-0.6294244
1	0x3f64d77a	0.8939129
2	0x3e5ec834	0.21756059
3	0x3f714568	0.9424653
4	0x3f073295	0.5281156
5	0x3e85f48b	0.26163134
6	0x3f60f3a7	0.87871784
7	0x3e1e9ce9	0.15489544
8	0xbf21343d	-0.62970334
9	0x3e860b18	0.2618034
10	0xbfb40002	-1.4062502
11	0xbe37ab66	-0.17936477
12	0x3f11630d	0.56791764
13	0xbf8c2fac	-1.0952048
14	0x3df515b9	0.11967034
15	0x3d11a229	0.03555504
16	0xbd73192a	-0.05935017
17	0x3e7e9ad6	0.24863753
18	0x3f2b0edf	0.66819566
19	0x3e05a0b1	0.1304958
20	0xbf411d63	-0.75435466
21	0xbec6f28c	-0.38856924
22	0x3cb6f7fb	0.022335043
23	0xbf26b1d3	-0.6511509
24	0xbf2f351f	-0.6844043
25	0x3f6d7c23	0.9276754
26	0xb815fc08	-3.575909e-05
27	0xbf8520d7	-1.0400647
28	0xbdb5c17d	-0.088747956
29	0xbe1a7c8f	-0.15086578
30	0xbf8feb96	-1.124377
31	0x3e8dc46f	0.2768893
32	0xbe323b57	-0.17405449
33	0xbf93e65c	-1.1554675
34	0x3f0956eb	0.5364825
35	0x3e2aef54	0.16692859
36	0xbdcda13d	-0.100405194
37	0xbf0bcdfb	-0.54611176
38	0x3f01be93	0.5068142
39	0x3dc16662	0.09443356
40	0x3ec3666c	0.3816408
41	0xbdfcaff6	-0.123382494
42	0x3f8e210c	1.1103835
43	0xbe0ca594	-0.13735038
44	0x3dfb308b	0.12265118
45	0xbe894d72	-0.268169
46	0xbf1d0287	-0.6133198
47	0xbee269b2	-0.44221264
48	0x3e91d1f0	0.28480482
49	0x3ed89bd5	0.4230639
50	0xbd756f4d	-0.059920598
51	0x3e328b3f	0.1743593
52	0x3cfb5ae0	0.030682981
53	0xbe7a5a47	-0.244485
54	0xbf8e8559	-1.1134444
55	0xbdb255b6	-0.08707754
56	0xbf293988	-0.6610341
57	0x3f56567f	0.8372573
58	0xbe7f31d7	-0.24921356
59	0x3f36f7df	0.7147197
60	0xbd882f5c	-0.06649658
61	0xbf25f53d	-0.6482733
62	0xbeebef55	-0.46081033
63	0x3ef7c3fe	0.48391718

critic.4.weight f4 [1, 64]
0	0x3e9dd65e	0.30827612
1	0xbeaa9ec2	-0.33324248
2	0xbe9fcdad	-0.31211606
3	0x3e9aaacc	0.30208433
4	0xbe9e90c1	-0.30969813
5	0x3e97b239	0.2962816
6	0x3ebcfce9	0.36911705
7	0xbea2a80c	-0.31768835
8	0xbebadcc7	-0.36496565
9	0xbe883717	-0.2660453
10	0xbea3d45d	-0.31997958
11	0xbebbc9d7	-0.3667743
12	0x3ee8cd0d	0.4546894
13	0xbec57c4f	-0.38571402
14	0x3eafe139	0.3435152
15	0x3e56a2c7	0.20960532
16	0x3eeb5e5f	0.45970437
17	0xbec3bba8	-0.38229108
18	0x3e834484	0.2563821
19	0xbec053b9	-0.37563875
20	0xbe3eaf3a	-0.18621531
21	0xbf175325	-0.59111243
22	0x3e72610b	0.23669831
23	0x3eceaa90	0.40364504
24	0x3e814027	0.25244257
25	0x3ee24aa0	0.4419756
26	0x3ef4ec8e	0.47836727
27	0xbee7f4e9	-0.4530404
28	0xbe9245d5	-0.28568903
29	0x3ed9dc1d	0.42550746
30	0xbe6f8403	-0.23390202
31	0xbeb988e5	-0.36237255
32	0x3e8790dd	0.2647771
33	0xbe985f89	-0.29760388
34	0xbebd90cf	-0.37024543
35	0x3e9f4b8e	0.3111233
36	0xbea0fb9b	-0.3144196
37	0x3eb4201c	0.35180748
38	0x3e83ccee	0.25742286
39	0x3ecd699c	0.40119636
40	0xbef4e047	-0.4782736
41	0xbecc86b5	-0.39946523
42	0x3eb0a044	0.34497273
43	0xbe90874a	-0.28228217
44	0x3eb7cad4	0.35896933
45	0xbe95faad	-0.29292813
46	0xbde7f925	-0.113268174
47	0xbec30897	-0.3809249
48	0xbe804e0d	-0.25059548
49	0x3eb78558	0.3584392
50	0x3edb5b66	0.4284317
51	0x3eaf640e	0.34256023
52	0xbf03cebe	-0.5148734
53	0xbec9a427	-0.3938305
54	0xbeed0c8b	-0.46298632
55	0x3e9d0717	0.30669472
56	0xbe881f6f	-0.26586482
57	0x3ecdeeaf	0.40221164
58	0xbe8a3dfe	-0.2700042
59	0x3ea83794	0.32854903
60	0xbef86417	-0.48513862
61	0x3e835194	0.25648177
62	0xbee85d7b	-0.4538382
63	0x3ea45b27	0.32100794
