Model Results/ppo_sentiment_AMC2021-06-011999.pth (torch, 50577 bytes, 11 tensors)

actor.0.weight f4 [64, 20]
-1.6858512 -0.91094786 -0.17720439 0.23868403 0.7911197 0.55630976 -0.78560376 -0.15404555
0.16521694 -0.10024211 -0.5068245 -0.7352588 0.55079085 0.045989294 -0.20243587 -0.15637626
0.7717621 0.9356201 -0.5758948 0.008038391 1.0673956 0.7183579 0.9115272 0.61114264
0.49949852 0.83154774 -4.11022 -4.5174336 -4.338933 -0.52083445 0.23600762 0.21812692
0.191306 1.2478983 0.39372352 0.82817847 1.0114721 0.3340385 0.39967847 -0.52812356
0.3077669 0.5981409 -0.6440553 -0.015748892 -0.3940343 -0.1413155 -4.4005075 -3.8188138
-3.5304625 -0.031819344 0.4272219 0.35226876 -0.45898825 -1.0432322 0.7347845 0.08407287
0.941497 -1.0398325 0.21329013 0.12616971 -0.801707 -0.11876857 0.9640512 0.43423176
0.49400163 0.22319792 2.0443037 0.7856362 0.0174919 0.093001775 0.16437691 0.089740895
-0.13013336 0.7735113 -0.18736973 0.4858847 -1.3111358 0.6669035 0.15079954 -0.41553003
0.2401708 0.031955823 -0.5353861 0.18003266 0.12415736 0.17684653 -0.25157255 -2.6483526
-3.282468 -0.5038431 -0.06734029 -0.061360724 0.8716707 -0.7553618 -0.06084327 -1.0280373
0.67244786 0.33244577 0.106346056 -0.51712304 0.5809163 0.5313309 0.23649944 -0.29207507
0.06416936 -0.31545976 2.0206184 3.7227707 4.088892 0.43619713 0.029536126 -0.35924876
0.24614055 1.0509326 -0.46271488 1.0121665 0.050206874 -0.6012467 0.16264796 -0.16671918
-0.33534053 0.425808 0.09311641 -0.537319 -0.030077845 0.042950038 -0.10638966 -0.22554547
0.20879667 0.3492793 0.263238 0.30665603 1.1562645 0.99336785 -0.3269039 -0.50257874
-2.3818898 -1.4705076 0.35993317 0.056311198 -0.94302547 -0.7662433 -1.0283395 0.30639714
1.0371978 0.83997643 -0.21115324 1.1360213 1.6072712 -0.50972253 -0.6453251 -0.64873296
-0.8451435 -0.52871245 -0.75967133 0.57287824 0.7071697 -0.6340559 -0.62599146 0.061699424
-1.0020189 -0.28812107 0.20859145 0.33047482 0.5005392 0.50685304 -0.3099162 -1.2360692
-1.9211249 0.5529468 0.32523546 0.4089191 0.21232948 0.3878781 1.0346884 1.4015789
1.7415098 1.1751679 0.23646875 0.25002772 -0.8980674 -0.6256387 -1.3648739 -0.14900997
-0.27903238 0.0052024196 -0.56254846 -2.335817 -2.4406912 -0.30332324 -0.3270995 -0.23014088
-0.8099601 -0.8863561 0.24686675 0.93262607 -0.040648766 -0.30275387 0.18328731 -0.15618576
0.8692107 0.40931305 -0.5425017 -0.6468843 -1.167146 -0.84699917 -0.8033001 -0.675543
-0.09297248 -0.4317404 -0.31114414 -0.31083646 -0.7782852 -0.8809297 -0.3417236 -0.53087896
-1.3765249 -1.7484468 -0.22128099 -0.011593884 0.7427135 0.2992294 1.2167646 0.8379329
0.5190896 0.6759647 -1.5000103 -0.7623024 -1.4370677 -0.23944184 -0.23050697 -0.25599718
-1.0256951 -0.46732876 0.20833755 0.04164375 0.34949154 1.0160134 0.18006186 0.07934201
-1.6940914 0.57355624 -0.5130611 0.02444619 -0.3499861 0.018602908 0.2573039 -1.7123526
-1.805706 -0.2787009 -0.28622416 -0.1489496 0.3070727 -0.851641 -0.30221286 -1.8925683
00000000: f9c9 d7bf e133 69bf 1175 35be 9669 743e
00000010: d286 4a3f 516a 0e3f 541d 49bf 1ebe 1dbe
00000020: a12e 293e bc4b cdbd 40bf 01bf ec39 3cbf
00000030: a100 0d3f 455f 3c3d 594b 4fbe 1921 20be
00000040: 3392 453f cd84 6f3f d76d 13bf 75b3 033c
00000050: 6ba0 883f 4ee6 373f d959 693f d873 1c3f
00000060: 45be ff3e 50e0 543f ec86 83c0 d18e 90c0
00000070: 8ad8 8ac0 6855 05bf fbab 713e aa5c 5f3e
00000080: b8e5 433e 22bb 9f3f 2196 c93e 8103 543f
00000090: eb77 813f 1807 ab3e a8a2 cc3e 1b33 07bf
000000a0: a093 9d3e c31f 193f cfe0 24bf d203 81bc
000000b0: ddbe c9be 03b5 10be f5d0 8cc0 7267 74c0
000000c0: 19f3 61c0 0055 02bd d4bc da3e 925c b43e
000000d0: 8200 ebbe a288 85bf d61a 3c3f 662e ac3d
000000e0: f305 713f 3b19 85bf ba68 5a3e a232 013e
000000f0: ac3c 4dbf f03c f3bd 0fcc 763f a053 de3e
00000100: c8ed fc3e ff8d 643e dfd5 0240 741f 493f
00000110: 2c4b 8f3c b777 be3d 6c52 283e 13ca b73d
00000120: ae41 05be d604 463f dadd 3fbe e1c5 f83e
00000130: 4cd3 a7bf 30ba 2a3f 326b 1a3e 5ac0 d4be
00000140: 56ef 753e 1ce4 023d 100f 09bf 7b5a 383e
00000150: 3746 fe3d 4217 353e 1ece 80be 9c7e 29c0
00000160: f513 52c0 ddfb 00bf b5e9 89bd 6255 7bbd
00000170: d025 5f3f 645f 41bf cb36 79bd ba96 83bf
00000180: 8b25 2c3f 5536 aa3e f6cb d93d 2d62 04bf
00000190: eeb6 143f 4d05 083f e92c 723e dd8a 95be
000001a0: 3a6b 833d f183 a1be d051 0140 e041 6e40
000001b0: 34d8 8240 3b55 df3e bff5 f13c 74ef b7be
000001c0: 450c 7c3e f684 863f f7e8 ecbe ac8e 813f
000001d0: b9a5 4d3d 4eeb 19bf 308d 263e 6fb8 2abe
000001e0: c1b1 abbe 8203 da3e d1b3 be3d bd8d 09bf
000001f0: d065 f6bc 61ec 2f3d d2e2 d9bd 64f5 66be
00000200: cbce 553e bdd4 b23e 22c7 863e 0502 9d3e
00000210: 7a00 943f 5b4d 7e3f f35f a7be 00a9 00bf
00000220: e270 18c0 9839 bcbf 2949 b83e 92a6 663d
00000230: 1e6a 71bf 8528 44bf a1a0 83bf 16e0 9c3e
00000240: e6c2 843f b208 573f 8e38 58be 2569 913f
00000250: 10bb cd3f 2d7d 02bf 0734 25bf 5d13 26bf
00000260: 535b 58bf b359 07bf d279 42bf 26a8 123f
00000270: 1309 353f 7d51 22bf fa40 20bf 89b8 7c3d
00000280: 2842 80bf 9b84 93be ff98 553e ff33 a93e
00000290: 5623 003f 1fc1 013f 56ad 9ebe 8437 9ebf
000002a0: 6ce7 f5bf ec8d 0d3f 4385 a63e d85d d13e
000002b0: e66c 593e f597 c63e ab70 843f f066 b33f
000002c0: cbe9 de3f e76b 963f dd24 723e a203 803e
000002d0: bfe7 65bf dc29 20bf 30b4 aebf 1296 18be
000002e0: 55dd 8ebe 0f79 aa3b 2d03 10bf 077e 15c0
000002f0: 4934 1cc0 2f4d 9bbe 9679 a7be 0daa 6bbe
00000300: 8c59 4fbf 3ce8 62bf a3ca 7c3e 95c0 6e3f
00000310: 527f 26bd 8e02 9bbe abaf 3b3e 29ef 1fbe
00000320: 9884 5e3f 7b91 d13e 64e1 0abf 369a 25bf
00000330: 0a65 95bf f0d4 58bf 13a5 4dbf 63f0 2cbf
00000340: 5b68 bebd 140d ddbe 494e 9fbe f525 9fbe
00000350: b33d 47bf 9c84 61bf 65f6 aebe afe7 07bf
00000360: f831 b0bf 1bcd dfbf 7c97 62be 46f4 3dbc
00000370: 7922 3e3f 9934 993e f1be 9b3f c582 563f
00000380: 0ee3 043f 060c 2d3f 5600 c0bf 4026 43bf
00000390: d6f1 b7bf 3e30 75be 050a 6cbe 1012 83be
000003a0: fa49 83bf b745 efbe 7056 553e a392 2a3d
000003b0: 8ef0 b23e ba0c 823f 2362 383e 107e a23d
000003c0: fdd7 d8bf 95d4 123f f957 03bf 6043 c83c
000003d0: 6131 b3be 2065 983c 56bd 833e 5f2e dbbf
000003e0: 6021 e7bf e2b1 8ebe f98b 92be 3e86 18be
000003f0: a238 9d3e 2505 5abf a5bb 9abe ae3f f2bf

actor.0.bias f4 [64]
-0.6030772 0.44272795 0.7235934 0.094331436 0.39827102 -0.5203116 0.53864694 -0.6349494
0.5811416 0.08870055 -0.3784208 0.17289768 0.11758723 0.5898526 -0.24918517 -0.504249
0.35311082 0.5271617 0.07609168 0.09346806 0.5694967 -0.11317967 0.0027248221 -0.029969998
0.2675342 -0.5366473 -0.5741968 0.026748976 0.79588723 -0.33090323 -0.018944817 -0.41006452
-0.102244124 -0.50345236 -0.010376905 0.6226963 0.3129362 0.00574329 0.611869 0.4336285
0.42267016 0.219661 -0.9249989 -0.009085325 0.4630006 0.140429 -0.026697708 -0.69629294
-0.27345842 -0.53299934 -0.14567284 0.41192368 0.74734974 -1.0508136 -0.0038833201 0.7294148
0.05911346 -0.13092177 0.18841538 -0.21020651 -0.21758083 0.0442067 0.19896762 -0.045710925
00000000: 4463 1abf 3dad e23e 6b3d 393f d730 c13d
00000010: 2eea cb3e 2433 05bf c4e4 093f 0b8c 22bf
00000020: b2c5 143f a2a8 b53d 5fc0 c1be 170c 313e
00000030: 93d1 f03d 9400 173f 662a 7fbe 7616 01bf
00000040: f1ca b43e 12f4 063f f4d5 9b3d 2f6c bf3d
00000050: 89ca 113f beca e7bd ee92 323b a483 f5bc
00000060: 3efa 883e b861 09bf 90fe 12bf ab20 db3c
00000070: 44bf 4b3f 266c a9be 2932 9bbc faf3 d1be
00000080: 5e65 d1bd 41e2 00bf e503 2abc 0669 1f3f
00000090: 2c39 a03e 3532 bc3b 72a3 1c3f 8e04 de3e
000000a0: 3968 d83e d0ee 603e bacc 6cbf 9dda 14bc
000000b0: 6a0e ed3e 9fcc 0f3e 27b5 dabc 4140 32bf
000000c0: be02 8cbe a572 08bf 432b 15be a9e7 d23e
000000d0: 5052 3f3f 0f81 86bf 4d7f 7ebb eeba 3a3f
000000e0: f520 723d 5b10 06be f6ef 403e 6040 57be
000000f0: 82cd 5ebe 1612 353d 2bbe 4b3e 613b 3bbd

actor.2.weight f4 [64, 64]
-0.28419688 1.2878306 0.107488185 0.5888666 0.25565997 0.8617992 0.36001754 -0.18126567
-0.32940924 -1.4720441 -0.29532412 0.13006279 -0.36566868 0.086428285 0.11743271 0.79657835
-0.38765717 -0.046201933 -0.72220415 -0.11247073 -1.2373517 -0.27873048 -0.14231792 -0.29893804
1.4579692 1.1135237 -0.12859419 1.5202281 -0.28290933 -0.031203007 1.0394042 0.42753968
-0.56265527 0.18383257 -0.4977149 -1.596775 -0.33149648 0.57791567 0.83594316 -0.8385147
0.46061656 -0.96580654 -0.29722744 -0.23179717 -0.24352647 0.5262544 -1.6682861 -0.5733412
-0.35021228 -0.5948758 -0.37695092 0.8979416 0.5042864 -0.13731557 -0.713572 0.010855456
0.45752 0.8638993 0.40513873 -0.7872004 -0.18958601 -0.2849703 0.3562567 0.18387431
0.3453095 -0.18852009 -1.2655468 1.9657717 -0.54200023 0.1704447 -0.8866214 0.3692336
0.47471052 0.42674515 -0.3196651 0.23414938 -0.3674151 0.06934259 -0.040059347 -0.20969152
0.66714257 0.44183612 1.2180386 0.30972955 -0.80153084 -0.8989082 1.2987012 0.64740884
0.8660066 -0.006750808 -0.52838415 0.10163299 -0.27258977 0.23915476 -1.1230055 -0.5183749
-0.53116596 0.45005766 0.121295154 0.3862996 -0.12837403 -0.62118334 -1.6477412 0.40832382
-0.3740724 0.93455786 -0.35930702 0.55587226 0.38704002 -0.16551618 -0.14436288 0.6962805
0.7693646 0.8249881 -1.3361062 -0.56762713 -1.5686699 1.1186961 -0.8064001 -0.13327181
-0.16809666 -0.6980285 0.5172844 0.7856646 -0.2436119 0.2800202 -1.7668594 0.8332268
-0.42528114 -0.17503154 1.4590786 -0.5856289 0.36326605 -0.9328214 -0.59649223 -0.21685256
-0.61621594 -0.0035610953 1.3247744 -0.6079651 -0.30419806 -0.22931108 1.1733692 -0.87376434
0.56255686 0.2770376 0.9900762 0.036728878 0.9635004 -0.4336111 0.26230568 -0.682763
0.051243506 -0.3013388 0.25922814 0.32666484 -0.94806844 1.1833385 -0.63934976 -0.10143208
0.47908023 0.27568364 0.66505426 1.0346602 -0.7209505 0.13277595 -0.04722293 0.71749467
0.22122735 -0.04333532 -0.20737085 -0.8706997 -0.30778924 0.93735105 -0.2339753 -0.5911164
-0.45717415 0.31232738 0.34979197 0.15845719 0.04345135 -0.41055062 -0.28131232 -0.38227233
-0.5985761 0.20830981 -1.0526903 0.32841095 -0.2744235 0.17546724 -1.1228687 -1.0541568
0.55498 -1.1512631 -0.7475644 -0.091549635 0.45916793 -0.15390623 0.2454693 0.14835866
-0.7576146 -0.7909541 0.62076706 -0.47985503 0.17118284 0.01614656 0.44936997 1.5499499
0.7730514 0.6237195 1.425027 0.118507 -0.54469174 -1.2626457 0.70243126 0.54560494
1.2204797 -0.23143363 -0.2721582 -0.13578835 0.13326995 -0.54609835 0.5394267 -0.73164517
-0.24687865 -0.26243708 -1.0009105 -0.3422566 -0.18478647 0.5728339 -0.20931782 0.16740926
-1.9458594 0.3549591 0.6476303 -0.12889634 0.111284696 0.7907069 0.082420334 0.3830589
-0.29828796 1.0085906 -0.39820948 0.16823816 -0.19748497 0.49337125 0.34186253 -0.17459704
0.27679935 -0.58352435 -0.80896163 0.7528013 -0.46643358 -1.2349821 -1.1544728 -0.8138567
00000000: 4182 91be a2d7 a43f c422 dc3d f6bf 163f
00000010: dde5 823e df9e 5c3f 3854 b83e b59d 39be
00000020: 54a8 a8be f16b bcbf b934 97be 2e2f 053e
00000030: ed38 bbbe 5001 b13d 9080 f03d 8fec 4b3f
00000040: 007b c6be 3d3e 3dbd 5fe2 38bf 0e57 e6bd
00000050: 8a61 9ebf c3b5 8ebe cabb 11be 680e 99be
00000060: bc9e ba3f f287 8e3f 32ae 03be d696 c23f
00000070: 7ed9 90be 739d ffbc 320b 853f 7be6 da3e
00000080: 2d0a 10bf 9b3e 3c3e 7dd4 febe 2063 ccbf
00000090: e8b9 a9be 48f2 133f 5f00 563f e6a8 56bf
000000a0: efd5 eb3e 193f 77bf 322e 98be 3d5c 6dbe
000000b0: 015f 79be 9cb8 063f 668a d5bf 7dc6 12bf
000000c0: 064f b3be c849 18bf b6ff c0be 80df 653f
000000d0: ea18 013f 749c 0cbe a8ac 36bf 15db 313c
000000e0: 1040 ea3e 8128 5d3f 586e cf3e f785 49bf
000000f0: d622 42be a1e7 91be 4767 b63e 8c49 3c3e
00000100: 68cc b03e 690b 41be 70fd a1bf 689e fb3f
00000110: 87c0 0abf 0e89 2e3e 9ff9 62bf 300c bd3e
00000120: 420d f33e 577e da3e 25ab a3be dbc4 6f3e
00000130: d51d bcbe 7d03 8e3d 4515 24bd 60b9 56be
00000140: dbc9 2a3f 5838 e23e b0e8 9b3f df94 9e3e
00000150: 2031 4dbf d91e 66bf d73b a63f 96bc 253f
00000160: 9cb2 5d3f e235 ddbb 2f44 07bf f524 d03d
00000170: e390 8bbe fce4 743e a5be 8fbf 38b4 04bf
00000180: 7efa 07bf f56d e63e 9869 f83d 10c9 c53e
00000190: 7b74 03be df05 1fbf 2fe9 d2bf d20f d13e
000001a0: 6b86 bfbe 2f3f 6f3f 17f7 b7be a54d 0e3f
000001b0: 1c2a c63e 137d 29be ddd3 13be 703f 323f
000001c0: 14f5 443f 6c32 533f 8705 abbf 0350 11bf
000001d0: 2dca c8bf 6f31 8f3f 3d70 4ebf 6878 08be
000001e0: 8821 2cbe ffb1 32bf c06c 043f 5121 493f
000001f0: 6675 79be cf5e 8f3e 7328 e2bf 5a4e 553f
00000200: 73be d9be 783b 33be 16c3 ba3f c7eb 15bf
00000210: 02fe b93e 62cd 6ebf b7b3 18bf 990e 5ebe
00000220: 54c0 1dbf 4461 69bb 3592 a93f 9aa3 1bbf
00000230: d9bf 9bbe 86d0 6abe f630 963f 05af 5fbf
00000240: ba03 103f dfd7 8d3e a275 7d3f 0571 163d
00000250: f6a7 763f 4602 debe ee4c 863e 8ec9 2ebf
00000260: b6e4 513d 1449 9abe 8db9 843e 9d40 a73e
00000270: 9db4 72bf a377 973f 6dac 23bf 9fbb cfbd
00000280: 014a f53e 6826 8d3e ff40 2a3f bf6f 843f
00000290: 3690 38bf 6bf6 073e d56c 41bd bbad 373f
000002a0: 6c89 623e 6080 31bd 0659 54be 2de6 5ebf
000002b0: 8d96 9dbe 3df6 6f3f 3997 6fbe 6853 17bf
000002c0: bb12 eabe 60e9 9f3e ef17 b33e 9a42 223e
000002d0: 0bfa 313d b133 d2be 2b08 90be 33b9 c3be
000002e0: 493c 19bf 2b4f 553e 8ebe 86bf 7b25 a83e
000002f0: 3d81 8cbe afad 333e 29ba 8fbf 9cee 86bf
00000300: 2b13 0e3f 975c 93bf 6160 3fbf 607e bbbd
00000310: 0f18 eb3e 9899 1dbe 4e5c 7b3e 55eb 173e
00000320: 08f3 41bf f87b 4abf 97ea 1e3f 8faf f5be
00000330: 8e4a 2f3e ca45 843c d213 e63e c264 c63f
00000340: b2e6 453f 15ac 1f3f 4967 b63f ccb3 f23d
00000350: eb70 0bbf 609e a1bf 89d2 333f c4ac 0b3f
00000360: ae38 9c3f f0fc 6cbe 5258 8bbe 1a0c 0bbe
00000370: eb77 083e 1acd 0bbf de17 0a3f 194d 3bbf
00000380: c2cd 7cbe 275e 86be d61d 80bf 423c afbe
00000390: aa38 3dbe 3ea5 123f 6957 56be 556d 2b3e
000003a0: ec11 f9bf 33bd b53e 19cb 253f 67fd 03be
000003b0: 3be9 e33d c46b 4a3f fecb a83d 4c20 c43e
000003c0: 33b9 98be 7f19 813f 1de2 cbbe a046 2c3e
000003d0: 8039 4abe 289b fc3e 9b08 af3e 91c9 32be
000003e0: a5b8 8d3e da61 15bf 1c18 4fbf 96b7 403f
000003f0: 62d0 eebe e513 9ebf c4c5 93bf ea58 50bf

actor.2.bias f4 [64]
-0.22982429 0.18148993 -0.2779344 0.31801113 -1.1794738 -0.31992537 -0.35097146 0.3513684
0.16046873 0.27109337 0.25340953 0.3663246 0.55452085 -0.6683445 -0.12128803 -0.31269258
-0.6754273 -0.18846536 0.7371224 0.22090417 0.7955688 0.3156679 -0.0046008877 0.19576669
-0.35397306 0.5118891 -0.5306386 0.7270387 -0.3207567 -0.4527182 -0.17679384 0.22137304
0.5855541 0.33497554 0.16285601 0.6310519 -0.3955083 -0.49793306 -0.21317737 -0.43770263
-0.08972332 -0.0573289 -0.7572931 -0.15030678 -0.21669242 -0.33815238 0.070185706 0.21401082
-0.08454001 -0.23508777 0.55078954 0.4872724 -0.048810225 -0.034971006 0.34919715 -0.2382777
0.35266426 -0.12270508 -0.083088376 -0.10024832 -0.27316475 -0.0690295 -0.17337687 -0.7096549
00000000: 0f57 6bbe 7fd8 393e 6b4d 8ebe 5bd2 a23e
00000010: fff8 96bf 42cd a3be 88b2 b3be 8fe6 b33e
00000020: ea51 243e c0cc 8a3e e5be 813e e68e bb3e
00000030: 14f5 0d3f a018 2bbf dc65 f8bd 3e19 a0be
00000040: cee8 2cbf 10fd 40be 0eb4 3c3f b434 623e
00000050: 66aa 4b3f 399f a13e 0bc3 96bb 1077 483e
00000060: f53b b5be 2a0b 033f eed7 07bf 351f 3a3f
00000070: 393a a4be aeca e7be 7209 35be 9daf 623e
00000080: e0e6 153f ea81 ab3e bac3 263e 9e8c 213f
00000090: 1080 cabe 15f1 febe 2b4b 5abe 8f1a e0be
000000a0: dcc0 b7bd b5d1 6abd f6dd 41bf 05ea 19be
000000b0: 9ee4 5dbe 4f22 adbe 86bd 8f3d a725 5b3e
000000c0: 5023 adbd d9ba 70be 8b00 0d3f c57b f93e
000000d0: 3bed 47bd c23d 0fbd f8c9 b23e 12ff 73be
000000e0: 6990 b43e cd4c fbbd 3d2a aabd fe4e cdbd
000000f0: 40dc 8bbe 575f 8dbd b589 31be f2ab 35bf

actor.4.weight f4 [7, 64]
-0.70729434 2.5997856 1.3017648 1.5552449 -1.7308384 2.6639915 -2.1102333 -1.9639835
-0.057823185 -0.5019301 2.1390717 2.4304316 1.0961075 0.85568684 0.5049472 -1.9356868
-2.1313772 -2.966923 1.3506866 -3.0001116 1.5988655 -1.7961376 2.2162988 0.50293285
2.128736 0.2834202 1.3927543 -0.010395738 -1.8065689 1.2619462 0.86926836 -1.7320929
1.8362103 0.0744039 -2.317023 -1.5775632 -1.6463995 1.9590611 -1.2923912 -1.3318758
-2.632056 0.7774656 -1.8299248 0.33652997 0.41109478 0.31881467 2.6688888 -1.5901469
0.26638165 -1.6495745 0.79207104 -0.009692005 -4.0818443 -0.7742458 1.6701267 -2.2385216
-2.010785 -1.0957769 -0.3922637 0.6519004 -0.8881269 0.7932207 1.365277 -3.2232218
0.9984824 -0.1306132 -0.48620257 1.2962103 -0.98290205 0.66525036 0.35460928 0.15479483
1.2959921 0.22170764 -0.19925806 -2.742391 -1.1752712 1.6269698 0.099834785 -0.49927148
1.0526702 -0.3143536 0.93398696 0.66051644 0.704895 -0.5658595 -0.040592473 0.8407767
-0.40961978 -0.41155717 -0.6014531 -2.101981 2.1686108 1.7991992 0.38233423 -0.18901135
-1.4385048 -0.3904202 -0.3884684 -0.0028432456 0.02765527 -1.3742187 -1.079987 -0.3774774
-0.22498669 -1.2140396 -0.33304232 0.078329906 0.1413855 -0.024547404 1.8095195 0.14030528
-1.5444652 0.35861307 2.33737 1.5147665 -1.2883533 -0.1600009 1.316588 0.9085719
0.0593323 -1.2435925 0.067554094 -0.82673246 -1.538127 -2.2371094 -1.5593529 -1.0362645
-2.289335 -1.9004999 -0.02752588 0.6458057 0.85988784 -1.6061438 0.6130623 0.8304056
-2.3322458 -1.0369447 -0.02314328 -0.87869626 1.3991638 1.1519283 -0.09236352 0.6674464
1.2477084 0.7129021 0.4130267 0.5292249 -0.984639 -0.66141677 -2.2269638 -0.7627594
-0.16754438 1.6568586 1.4978238 -1.163894 1.7901273 2.1791816 1.2739962 1.396332
-1.2770005 -0.6999945 -0.4936202 0.11182093 1.0211277 0.28845626 0.58628345 0.0011124128
-0.5361237 0.62673414 -1.5926633 -0.0705966 -1.8579153 0.17744398 -0.45639026 -1.0130098
-0.90275365 1.7645625 3.1561072 -0.7131766 -0.98686653 1.227278 0.6945167 0.060848895
0.63630354 2.2626002 -1.6260778 0.12663713 -1.4912928 -1.7906815 -0.094156645 0.85807264
-0.37178913 -0.43536282 -0.45171425 0.8096065 -0.16804187 0.25193238 -0.48217207 1.0100259
-0.16159222 0.1850019 0.4845555 -0.4787638 0.13713834 -0.2388013 0.48538435 0.3529247
0.5579924 0.005096828 -0.12909152 0.042005736 0.2380822 -0.39210886 -0.09154842 -0.8792965
-0.41492906 -0.4218307 -0.09999271 0.13280436 0.66343623 -0.2005913 0.44250542 -0.17543413
-0.01568309 0.07227799 -0.5768613 0.12174789 0.7650799 -0.2195288 0.13750267 -0.10656974
-0.019941898 0.19030683 0.4078729 0.3447792 0.2579213 -0.05939035 -0.27610698 0.53512913
-0.32217145 0.27389154 -0.187576 -1.2387217 0.3465519 0.68039423 -0.66657394 0.019839328
0.2704164 0.054829963 0.70205045 -0.26765963 -0.29518995 1.0302168 0.06958438 0.028254965
00000000: 3e11 35bf e362 2640 3ba0 a63f 4412 c73f
00000010: 1d8c ddbf d67e 2a40 100e 07c0 d063 fbbf
00000020: 01d8 6cbd 7e7e 00bf 8de6 0840 318c 1b40
00000030: 404d 8c3f 4b0e 5b3f 3844 013f 96c4 f7bf
00000040: 7c68 08c0 11e2 3dc0 4ce3 ac3f d401 40c0
00000050: a0a7 cc3f d6e7 e5bf d7d7 0d40 35c0 003f
00000060: 363d 0840 741c 913e c645 b23f e352 2abc
00000070: a63d e7bf 7487 a13f 5f88 5e3f 38b5 ddbf
00000080: f008 eb3f 1261 983d 1b4a 14c0 97ed c9bf
00000090: 38bd d2bf 84c2 fa3f 136d a5bf e87a aabf
000000a0: 9b73 28c0 fc07 473f fa3a eabf a84d ac3e
000000b0: 047b d23e ad3b a33e 13cf 2a40 ef89 cbbf
000000c0: 2d63 883e 4225 d3bf 2bc5 4a3f 37cb 1ebc
000000d0: 789e 82c0 f934 46bf b6c6 d53f f043 0fc0
000000e0: b4b0 00c0 6b42 8cbf cad6 c8be f2e2 263f
000000f0: 495c 63bf 8310 4b3f 66c1 ae3f 4449 4ec0
00000100: 8b9c 7f3f 77bf 05be 8bef f8be 38ea a53f
00000110: 789f 7bbf d94d 2a3f 598f b53e 8982 1e3e
00000120: 12e3 a53f 5407 633e 4e0a 4cbe 5683 2fc0
00000130: 496f 96bf 8c40 d03f 2e76 cc3d 83a0 ffbe
00000140: e6bd 863f f4f2 a0be c519 6f3f 9b17 293f
00000150: 0074 343f 2bdc 10bf 4b44 26bd 243d 573f
00000160: afb9 d1be 9fb7 d2be d5f8 19bf db86 06c0
00000170: 85ca 0a40 294c e63f 50c1 c33e 318c 41be
00000180: ed20 b8bf 28e5 c7be 55e5 c6be bf55 3abb
00000190: 4e8d e23c 66e6 afbf 043d 8abf b844 c1be
000001a0: e962 66be a665 9bbf 8684 aabe 6e6b a03d
000001b0: 5cc7 103e a317 c9bc 569e e73f 30ac 0f3e
000001c0: 09b1 c5bf 229c b73e 7897 1540 dee3 c13f
000001d0: c3e8 a4bf 47d7 23be f585 a83f 2b98 683f
000001e0: 6d06 733d 0a2e 9fbf cd59 8a3d bda4 53bf
000001f0: 58e1 c4bf cd2c 0fc0 e098 c7bf 51a4 84bf
00000200: 7784 12c0 9543 f3bf f47d e1bc 8653 253f
00000210: 9c21 5c3f 1f96 cdbf a7f1 1c3f 7695 543f
00000220: 8443 15c0 9bba 84bf fa96 bdbc 3df2 60bf
00000230: cd17 b33f 6372 933f 1629 bdbd c4dd 2a3f
00000240: e9b4 9f3f c180 363f 3c78 d33e 487b 073f
00000250: 4d11 7cbf 9c52 29bf 9386 0ec0 3344 43bf
00000260: c190 2bbe f113 d43f b1b8 bf3f 7bfa 94bf
00000270: e422 e53f b677 0b40 4f12 a33f 02bb b23f
00000280: c174 a3bf d732 33bf c9bb fcbe 5f02 e53d
00000290: 50b4 823f 8ab0 933e ac16 163f 61ce 913a
000002a0: 673f 09bf a671 203f 64dc cbbf f394 90bd
000002b0: 2bd0 edbf e0b3 353e fcab e9be 4eaa 81bf
000002c0: dd1a 67bf 2fdd e13f a9fd 4940 be92 36bf
000002d0: 49a3 7cbf 7217 9d3f d9cb 313f b13c 793d
000002e0: cae4 223f 71ce 1040 5123 d0bf 2aad 013e
000002f0: afe2 bebf 0d35 e5bf 33d5 c0bd a6aa 5b3f
00000300: 255b bebe e0e7 debe 1747 e7be 5f42 4f3f
00000310: 2b13 2cbe 48fd 803e 42df f6be 8748 813f
00000320: 6e78 25be 2371 3d3e a917 f83e 8720 f5be
00000330: fe6d 0c3e 5488 74be 4c84 f83e 8cb2 b43e
00000340: 97d8 0e3f 4b03 a73b 9130 04be 350e 2c3d
00000350: d2cb 733e 7ec2 c8be bd7d bbbd 9319 61bf
00000360: 9571 d4be 32fa d7be fac8 ccbd defd 073e
00000370: f5d6 293f ce67 4dbe 1290 e23e 01a5 33be
00000380: d379 80bc 7c06 943d 2fad 13bf f556 f93d
00000390: 47dc 433f 28cc 60be 80cd 0c3e 3c41 dabd
000003a0: 315d a3bc cbdf 423e b7d4 d03e e686 b03e
000003b0: 430e 843e 4c43 73bd e55d 8dbe 39fe 083f
000003c0: a8f3 a4be 833b 8c3e ec13 40be 6f8e 9ebf
000003d0: 406f b13e 512e 2e3f 97a4 2abf 1686 a23c
000003e0: 0574 8a3e 6295 603d 94b9 333f af0a 89be
000003f0: 2323 97be 25de 833f 4182 8e3d f576 e73c

actor.4.bias f4 [7]
1.2784413 0.053159595 -1.2105078 -0.22649133 -0.90744257 0.9822805 1.4135523
00000000: f7a3 a33f e0bd 593d ebf1 9abf 58ed 67be
00000010: 284e 68bf bc76 7b3f 48ef b43f

critic.0.weight f4 [64, 20]
1.3462305 0.8090262 -1.2353129 1.1720802 0.588528 0.5509401 -6.552276 -6.059642
-4.1444736 -0.7717448 0.47106296 0.38728938 -1.2169309 1.3180991 0.08386747 -0.050204925
0.38103497 0.09261525 -0.4468037 -0.032157406 -0.054159164 0.22742566 -0.14807889 0.6520756
-0.58336276 -0.23498006 -2.7805185 -4.253953 -3.234852 -0.819634 -0.19341815 0.17809734
-1.1899011 1.3875345 -0.14779545 0.6614865 -1.4390575 0.5679641 -0.53832644 0.32631138
2.449941 -1.2437855 -1.496469 -0.22179216 -0.38096464 -0.07882014 -1.0170774 1.2317511
3.2080433 -0.5370651 0.5305198 0.8659811 0.11921213 0.13774055 0.25772545 0.09724052
-0.6374231 -1.6194718 -0.30196 -0.021224268 1.2626518 -0.113261275 1.2010201 0.7387759
0.25074887 0.46790907 4.6708837 0.6497806 -1.2396109 0.9209322 0.5370242 0.58246064
1.605004 1.7460588 0.85022163 0.6334267 -0.4018372 -1.2877818 -0.14467672 0.031435125
0.578355 -0.18877609 -0.8144218 0.6540834 0.14251557 0.15114465 -11.2855 -12.18285
-8.12196 -0.9749356 -0.23649399 0.118763745 0.16029955 0.6414098 -1.102587 -0.30962935
0.051785428 0.6677484 -0.15746729 -0.45719352 -0.5784727 -0.13965113 0.37433463 -0.07071065
-0.027213676 0.30827993 1.1884662 0.17188789 -0.44670257 0.61142945 1.0365872 0.9954571
-1.4743792 -2.5109413 1.1828614 0.52187806 -0.4538237 0.27468428 -0.39239487 -0.16052817
-1.0207429 -0.7998179 0.48925394 4.3233557 2.7897353 2.9037097 2.7197163 0.9376386
0.110628635 0.1773378 0.24427924 0.57568395 -0.43221328 1.2162522 1.0903472 -0.34336734
-0.8035386 -0.09239684 0.26136103 -0.05367941 0.44391373 -0.26440504 0.35167772 0.69403815
1.3638971 1.9800036 -0.029786156 2.0375643 3.7155972 1.4171693 1.616658 1.5187047
1.5943378 1.082998 1.2440449 2.7126431 0.95937943 1.2050228 0.3751492 0.20782478
-1.5936447 -0.12742956 0.012957224 0.62036836 0.6940557 0.492298 -1.1608506 -4.3190436
-4.5870123 0.36926526 0.5740827 0.73854834 -0.36812842 -0.7230436 0.51703215 0.20531861
-0.8382835 0.9550222 0.358101 0.5013515 -1.8156594 -2.4482265 -0.98500896 0.7155308
0.409889 0.52828807 -1.0003598 -1.0228565 -1.6593195 0.424532 0.2979123 0.6143638
-0.8006401 1.2281725 0.32899222 0.07512697 -0.4235853 -1.0816435 0.0060991696 0.329514
0.12113162 -0.8121614 0.9304309 0.28555366 -0.5129751 0.020674074 -0.062996745 0.09233676
0.44737247 0.42481977 -0.01510234 0.09351368 -0.38101813 -1.086111 1.3453534 -1.2653543
-0.8382444 2.5144417 -0.16951568 -0.19438453 0.3603304 -0.4195748 0.25003615 -1.0189613
-0.43545383 -0.56759363 -0.006663098 -3.322389 -3.5565305 -0.5254673 0.21786284 0.5541337
1.6279445 1.7265849 0.055351567 1.2770166 -0.8835707 -0.92011553 0.19296196 0.39427665
-0.43002984 1.8737968 1.0880041 -0.35306236 -1.0142834 -1.2625911 -0.18765162 1.056909
1.7420216 0.48319557 0.15841037 0.18762188 0.05532065 -1.6120187 -0.59130615 1.1892194
00000000: 4851 ac3f 571c 4f3f bc1e 9ebf b906 963f
00000010: c5a9 163f 690a 0d3f 3fac d1c0 96e8 c1c0
00000020: 879f 84c0 1191 45bf 2a2f f13e cb4a c63e
00000030: 64c4 9bbf 79b7 a83f b5c2 ab3d aea3 4dbd
00000040: 0417 c33e 10ad bd3d 74c3 e4be 7cb7 03bd
00000050: 00d6 5dbd 46e2 683e fea1 17be 6dee 263f
00000060: 4357 15bf 9d9e 70be 04f4 31c0 6220 88c0
00000070: d107 4fc0 89d3 51bf 680f 46be 265f 363e
00000080: ae4e 98bf bb9a b13f b157 17be 2e57 293f
00000090: 0933 b8bf 1866 113f c3cf 09bf 4912 a73e
000000a0: d5cb 1c40 5d34 9fbf 4c8c bfbf 7c1d 63be
000000b0: cc0d c3be 746c a1bd 982f 82bf 05aa 9d3f
000000c0: 9550 4d40 197d 09bf 25d0 073f f0b0 5d3f
000000d0: 7d25 f43d dc0b 0d3e 97f4 833e 0a26 c73d
000000e0: 292e 23bf da4a cfbf 809a 9abe 84de adbc
000000f0: 939e a13f 87f5 e7bd 07bb 993f 6b20 3d3f
00000100: 2862 803e c791 ef3e e177 9540 0558 263f
00000110: 92ab 9ebf 36c2 6b3f 6b7a 093f 241c 153f
00000120: c570 cd3f db7e df3f 20a8 593f 4128 223f
00000130: 9bbd cdbe 09d6 a4bf 2226 14be 1ec2 003d
00000140: 130f 143f 854e 41be f27d 50bf 0272 273f
00000150: 9aef 113e aac5 1a3e 6891 34c1 f4ec 42c1
00000160: 8cf3 01c1 6195 79bf 7b2b 72be 683a f33d
00000170: 9125 243e 6f33 243f 9221 8dbf bd87 9ebe
00000180: f51c 543d 8ff1 2a3f 1b3f 21be 4515 eabe
00000190: c916 14bf b500 0fbe caa8 bf3e bfd0 90bd
000001a0: 37ef debc ded6 9d3e a91f 983f 6103 303e
000001b0: 33b6 e4be a486 1c3f e4ae 843f 47d6 7e3f
000001c0: 75b8 bcbf 43b3 20c0 0168 973f cd99 053f
000001d0: 945b e8be 6ba3 8c3e fbe7 c8be 7f61 24be
000001e0: b4a7 82bf dec0 4cbf 7e7f fa3e ee58 8a40
000001f0: 068b 3240 61d6 3940 d50f 2e40 1509 703f
00000200: 4491 e23d 0a98 353e 5624 7a3e 0660 133f
00000210: 0f4b ddbe 27ae 9b3f 7f90 8b3f d8cd afbe
00000220: b5b4 4dbf 8e3a bdbd 1dd1 853e f1de 5bbd
00000230: a948 e33e 1960 87be 1a0f b43e 7cac 313f
00000240: 2e94 ae3f c270 fd3f 1902 f4bc 7467 0240
00000250: 58cc 6d40 ce65 b53f a6ee ce3f ea64 c23f
00000260: 4313 cc3f ae9f 8a3f dd3c 9f3f f29b 2d40
00000270: e499 753f 303e 9a3f 8e13 c03e 05d0 543e
00000280: 8dfc cbbf e57c 02be 894a 543c 76d0 1e3f
00000290: a2ad 313f 7c0e fc3e c196 94bf 9b35 8ac0
000002a0: cec8 92c0 5610 bd3e 15f7 123f 8111 3d3f
000002b0: 547b bcbe 6319 39bf 385c 043f 0b3f 523e
000002c0: bf99 56bf 567c 743f 0459 b73e 9258 003f
000002d0: 8767 e8bf beaf 1cc0 8c29 7cbf 072d 373f
000002e0: f9dc d13e e33d 073f ca0b 80bf f6ec 82bf
000002f0: 9564 d4bf 425c d93e f687 983e f246 1d3f
00000300: c0f6 4cbf c234 9d3f ab71 a83e 2bdc 993d
00000310: 2ce0 d8be 4b73 8abf 8bdb c73b 0fb6 a83e
00000320: db13 f83d cfe9 4fbf b830 6e3f 1734 923e
00000330: 5652 03bf ad5c a93c 7004 81bd 0e1b bd3d
00000340: 010e e53e fa81 d93e ce6f 77bc 1a84 bf3d
00000350: cf14 c3be af05 8bbf 8a34 ac3f 21f7 a1bf
00000360: 2f97 56bf 9dec 2040 8595 2dbe bd0c 47be
00000370: 3a7d b83e 82d2 d6be bd04 803e 536d 82bf
00000380: cef3 debe d14d 11bf 1e56 dabb 05a2 54c0
00000390: 329e 63c0 0685 06bf 7017 5f3e b5db 0d3f
000003a0: 7c60 d03f bc00 dd3f 53b8 623d 4875 a33f
000003b0: b031 62bf b18c 6bbf d297 453e a1de c93e
000003c0: df2c dcbe 93d8 ef3f b843 8b3f 97c4 b4be
000003d0: 0ad4 81bf 969c a1bf bf27 40be cb48 873f
000003e0: 90fa de3f 6965 f73e 5436 223e f31f 403e
000003f0: e897 623d a156 cebf d75f 17bf 5738 983f

critic.0.bias f4 [64]
0.45289266 0.6451816 -0.09374552 0.7727965 0.5636244 1.3580515 0.8548947 0.445717
1.0034734 0.5995954 0.24496494 0.9009265 -0.22455183 -1.3578366 -0.7180166 -0.6708146
-0.5271125 -1.1887878 -0.4539609 -0.19737904 -0.8288367 -0.89003575 0.7313878 0.54260933
-1.256211 -1.0049944 -0.76134264 0.40078348 0.8713658 0.6987907 0.62294155 -0.80441326
-0.954817 -0.036942896 -0.17541082 -0.27567694 0.28827816 -0.47568604 0.21924235 -0.28843296
-0.3128904 -0.83033967 -0.39570513 -0.437614 0.97981447 -0.54051703 0.28693807 -0.72142726
-1.079612 0.47313255 -0.05565808 0.32235777 0.52347547 -0.7927397 0.14812164 0.66199803
-0.46476534 -0.46723577 -1.3162537 -0.08836315 -0.34220886 0.14061941 -0.41981286 -0.50038564
00000000: 8ce1 e73e 9f2a 253f a7fd bfbd fed5 453f
00000010: b049 103f a2d4 ad3f 61da 5a3f 0535 e43e
00000020: d171 803f 167f 193f 17d8 7a3e 1ea3 663f
00000030: eaf0 65be 97cd adbf f0cf 37bf 81ba 2bbf
00000040: d8f0 06bf 332a 98bf 906d e8be bb1d 4abe
00000050: a42e 54bf 62d9 63bf 3b3c 3b3f 72e8 0a3f
00000060: 86cb a0bf a8a3 80bf 5ae7 42bf 7e33 cd3e
00000070: d411 5f3f f3e3 323f 1979 1f3f 07ee 4dbf
00000080: e36e 74bf 6f51 17bd e59e 33be 8725 8dbe
00000090: 3299 933e 1f8d f3be 1181 603e 7cad 93be
000000a0: 2c33 a0be 2491 54bf dd99 cabe f10e e0be
000000b0: 1fd5 7a3f 535f 0abf 8ce9 923e 75af 38bf
000000c0: ba30 8abf 6e3e f23e baf9 63bd 140c a53e
000000d0: 7d02 063f fdf0 4abf 33ad 173e b478 293f
000000e0: b9f5 edbe 8739 efbe 007b a8bf bdf7 b4bd
000000f0: 0036 afbe 89fe 0f3e b6f1 d6be 4619 00bf

critic.2.weight f4 [64, 64]
0.010548132 0.085118055 0.9857518 0.16458501 -1.0241008 0.6386742 -0.9385981 -0.47206143
-0.6918857 1.2711331 1.3913416 -0.36955875 -0.07752018 0.74330443 0.42315838 -0.27990294
1.2533059 0.43630823 -1.3097169 -1.003195 -0.32183892 0.37707844 -1.032546 -0.4944854
0.45638952 1.0818846 0.8231003 1.1966203 0.3223077 0.45950094 0.37119702 -0.7384015
-2.1503448 0.6577332 0.79392266 -1.6642222 -0.15879615 -0.014611772 -0.013857377 0.15531093
-0.734686 0.35153738 -1.0950289 -0.011896803 -0.11839766 -0.08683432 -0.4355372 0.24287994
-0.24103786 0.112944104 2.5841117 -0.50512 1.0198934 -1.0042017 0.1927318 1.2640356
0.7564807 0.2867791 -0.6299975 0.3935614 2.010096 -1.4521271 -1.887397 1.4988943
-1.2845092 1.1384387 -0.50195575 -0.14476639 -0.51392466 0.78698087 -0.25829226 -1.1719953
-0.42681777 0.8717017 -2.071621 0.18773119 0.38847166 1.5891159 -0.86762387 0.15334582
-0.032994017 0.3337315 1.8537362 0.24606238 1.1569088 -0.20162718 0.25374392 -1.9062318
1.0866338 0.17220354 1.7089648 -1.7830243 -0.15752581 -0.5676671 -0.24094816 -0.23287132
0.56669843 -0.9322073 0.8025834 0.94643027 -2.040362 -0.4222585 -2.0789328 -0.03984713
-0.76392645 1.1812922 0.8722921 1.890984 -0.21715218 -0.6646666 0.48938578 -1.2505791
1.4724095 0.14113383 1.1120533 -0.14929692 -1.2869614 -1.6718583 -0.62229246 -0.08260206
0.32093933 0.33770326 0.68726516 1.0719746 1.5688845 -0.80331755 0.23131946 -0.48595747
-0.10916926 0.63739043 -0.8616981 -0.8196936 -0.8921877 -0.19127725 -1.082949 1.0467153
-0.71123016 -0.15980771 -0.09164956 0.046908677 2.0269039 0.28587326 0.007154196 -1.9077045
0.59700185 -0.2006699 -0.42678255 -0.23184006 -0.4635571 0.14537933 -0.8071022 -0.24755898
-0.088519454 -0.5551326 -0.31189147 -0.4556169 -0.9946723 0.20764911 -0.21164185 0.32420468
1.1924165 -1.0640826 -0.6093951 -0.8950944 -0.59772164 0.3261947 -0.7262569 -2.4559505
-0.22214736 0.86555547 0.72127193 -0.9772766 0.2004065 0.57777196 0.2689781 0.42111164
0.9607652 -1.4235471 -0.79979646 0.344455 0.49114174 -0.5756557 -1.2565792 0.17581794
-1.791415 -0.4477201 -1.4894606 0.078072816 -1.191281 0.6647347 0.80095214 -1.0371251
0.63518137 -1.1262581 0.15293658 -0.79954416 -1.2965493 -0.65228355 1.2343796 -1.2232897
-1.4362475 -1.2927262 -0.17028515 -1.1432949 0.007057863 1.0340923 0.46904564 -1.3129643
0.34206614 0.9508404 -0.9623329 -0.9004955 0.5432491 0.44488728 -0.082423635 -1.3654743
0.5809356 -0.578254 0.40136188 -0.36476305 -1.1133238 0.4780553 0.911799 0.18946451
-0.6083872 0.91493225 0.43091387 0.528608 -0.6050641 -1.05676 -0.010682219 -0.75866556
-0.4083206 1.049661 0.2644712 -0.020677092 -0.662956 0.6130832 0.35915676 -1.3961077
-0.93935794 -1.4675416 -0.15063438 -0.4518692 -0.7449348 0.88810754 -0.54389364 -1.1250395
-0.08094062 0.79540175 -0.36040208 -0.55819076 0.34330177 -0.05951203 -0.91298336 0.5137632
00000000: 12d2 2c3c 6052 ae3d 3b5a 7c3f f988 283e
00000010: bc15 83bf 2780 233f f747 70bf 09b2 f1be
00000020: 6c1f 31bf 7db4 a23f 7b17 b23f ce36 bdbe
00000030: e6c2 9ebd 3349 3e3f 37a8 d83e 704f 8fbe
00000040: 546c a03f cb63 df3e cea4 a7bf b268 80bf
00000050: 12c8 a4be 6d10 c13e 782a 84bf 312d fdbe
00000060: e3ab e93e 327b 8a3f b4b6 523f db2a 993f
00000070: 8405 a53e b543 eb3e 890d be3e e107 3dbf
00000080: 409f 09c0 3461 283f 843e 4b3f 3c05 d5bf
00000090: 759b 22be 3766 6fbc 0d0a 63bc d409 1f3e
000000a0: 6214 3cbf b5fc b33e e829 8cbf cfea 42bc
000000b0: 797a f2bd 31d6 b1bd bbfe debe 85b5 783e
000000c0: a1d2 76be 3d4f e73d 1662 2540 8b4f 01bf
000000d0: de8b 823f ae89 80bf 7c5b 453e ebcb a13f
000000e0: b8a8 413f b6d4 923e 8447 21bf e180 c93e
000000f0: 6aa5 0040 4ddf b9bf 3a96 f1bf c5db bf3f
00000100: cc6a a4bf 5cb8 913f 2c80 00bf a43d 14be
00000110: 9190 03bf 9477 493f e23e 84be f103 96bf
00000120: dc87 dabe d827 5f3f 7095 04c0 9b3c 403e
00000130: c2e5 c63e 2668 cb3f 991c 5ebf b006 1d3e
00000140: bc24 07bd dbde aa3e 3a47 ed3f c7f7 7b3e
00000150: 9615 943f 5b77 4ebe b9ea 813e 67ff f3bf
00000160: d116 8b3f 2056 303e 5cbf da3f 243a e4bf
00000170: 724e 21be a252 11bf 1dbb 76be d275 6ebe
00000180: 2613 113f 23a5 6ebf 1b76 4d3f 4149 723f
00000190: 4a95 02c0 4432 d8be 3c0d 05c0 bf36 23bd
000001a0: af90 43bf 9534 973f 894e 5f3f c40b f23f
000001b0: 245d 5ebe 9727 2abf c690 fa3e fa12 a0bf
000001c0: ea77 bc3f 6385 103e c357 8e3f 4be1 18be
000001d0: 27bb a4bf 74ff d5bf 8f4e 1fbf 452b a9bd
000001e0: 2952 a43e 71e7 ac3e 9cf0 2f3f 7736 893f
000001f0: 35d1 c83f 38a6 4dbf 02df 6c3e 6bcf f8be
00000200: 2294 dfbd 052c 233f 3f98 5cbf 71d7 51bf
00000210: 6a66 64bf 2fde 43be 139e 8abf c4fa 853f
00000220: 2e13 36bf a2a4 23be c4b2 bbbd 5023 403d
00000230: cbb8 0140 fb5d 923e bf6d ea3b a92f f4bf
00000240: 1dd5 183f 697c 4dbe 3e83 dabe 7b67 6dbe
00000250: 5b57 edbe 52de 143e 409e 4ebf 1a80 7dbe
00000260: b049 b5bd 2c1d 0ebf 3db0 9fbe 9e46 e9be
00000270: d8a2 7ebf f8a1 543e a4b8 58be 28fe a53e
00000280: 1ba1 983f dc33 88bf 5101 1cbf e824 65bf
00000290: 4904 19bf fe02 a73e f9eb 39bf 4b2e 1dc0
000002a0: 997a 63be 0b95 5d3f 47a5 383f cd2e 7abf
000002b0: 5d37 4d3e dde8 133f 7fb7 893e f29b d73e
000002c0: b5f4 753f cb36 b6bf 76bf 4cbf 685c b03e
000002d0: ee76 fb3e 2c5e 13bf 96d7 a0bf 9e09 343e
000002e0: 164d e5bf 923b e5be a5a6 bebf a4e4 9f3d
000002f0: e57b 98bf 0e2c 2a3f 330b 4d3f 84c0 84bf
00000300: 3f9b 223f 3a29 90bf 689b 1c3e edae 4cbf
00000310: 54f5 a5bf 0efc 26bf 2700 9e3f c294 9cbf
00000320: f5d6 b7bf 0d78 a5bf 3b5f 2ebe 7d57 92bf
00000330: a545 e73b 235d 843f c026 f03e 370f a8bf
00000340: 4b23 af3e 476a 733f 735b 76bf e086 66bf
00000350: 5f12 0b3f 44c8 e33e b9cd a8bd ddc7 aebf
00000360: 32b8 143f 7408 14bf 4e7f cd3e 39c2 babe
00000370: 6581 8ebf aac3 f43e a96b 693f fc02 423e
00000380: 43bf 1bbf 0039 6a3f bea0 dc3e db52 073f
00000390: 7be5 1abf e943 87bf 7904 2fbc e837 42bf
000003a0: 660f d1be 4b5b 863f c568 873e 0163 a9bc
000003b0: 7cb7 29bf 05f3 1c3f 65e3 b73e a8b3 b2bf
000003c0: c379 70bf 67d8 bbbf e63f 1abe 665b e7be
000003d0: 0cb4 3ebf 045b 633f 9d3c 0bbf 4b01 90bf
000003e0: 32c4 a5bd 739f 4b3f 9f86 b8be 97e5 0ebf
000003f0: 40c5 af3e e3c2 73bd 47b9 69bf fc85 033f

critic.2.bias f4 [64]
0.19001582 0.10880412 -0.21846238 -1.0734574 0.20345436 -1.4275312 -0.045306347 -0.66993386
-0.6054839 -1.0219796 0.01745323 -0.49512488 -0.34465098 0.5478552 0.90218896 0.119249016
0.2737936 0.545297 -0.15789291 -0.09566535 0.015406344 0.73723066 0.16115324 0.99415106
0.16258354 0.3301356 0.5012532 -1.0842373 0.44430515 -0.2790395 -1.0226078 -0.22340977
-0.8269853 0.24791399 -0.98866683 0.5993412 0.31018284 0.8605757 0.16842662 -0.6356347
-0.26296505 -0.49930692 0.4200257 -0.23471741 0.5070021 -1.0167569 0.48799205 0.7968517
-0.08152756 -0.9131321 0.32149076 -0.6123102 0.64052004 -0.2158316 -0.02207544 -0.2442255
1.100614 -0.93997175 0.09179935 -0.26437926 0.08926859 -0.31394958 -0.8556962 0.40869743
00000000: 8293 423e b2d4 de3d 9ab4 5fbe 0d67 89bf
00000010: 5756 503e 58b9 b6bf 2693 39bd c980 2bbf
00000020: fe00 1bbf 3ad0 82bf 14fa 8e3c 0281 fdbe
00000030: 1876 b0be 3d40 0c3f dbf5 663f d438 f43d
00000040: ad2e 8c3e 9698 0b3f aeae 21be 32ec c3bd
00000050: e46a 7c3c 26bb 3c3f 5b05 253e af80 7e3f
00000060: 4d7c 263e 8907 a93e 2152 003f 4ac8 8abf
00000070: f77b e33e 44de 8ebe d0e4 82bf 88c5 64be
00000080: 4fb5 53bf 2add 7d3e 4519 7dbf 6d6e 193f
00000090: 49d0 9e3e b04e 5c3f 0778 2c3e f5b8 22bf
000000a0: 5ba3 86be 28a5 ffbe 9c0d d73e c359 70be
000000b0: e4ca 013f 1725 82bf 18da f93e 79fe 4b3f
000000c0: ecf7 a6bd 06c3 69bf 709a a43e 5cc0 1cbf
000000d0: 1ff9 233f f502 5dbe 8ed7 b4bc 4016 7abe
000000e0: ebe0 8c3f fda1 70bf 4c01 bc3d b85c 87be
000000f0: 73d2 b63d 00be a0be e80e 5bbf ca40 d13e

critic.4.weight f4 [1, 64]
-0.24070652 -0.31327856 -0.40909863 0.29974368 0.31389454 -0.30619588 0.34419468 -0.23716258
-0.111584686 0.3687534 0.3916732 0.331818 -0.2380397 -0.4080036 0.3530298 -0.360537
-0.2690581 0.3120888 -0.36263263 -0.35622597 0.25971916 0.35390475 -0.31451476 0.31349146
0.31138217 0.21694276 -0.2799416 0.23889607 0.38113907 -0.1997524 -0.29255816 -0.26323798
0.26173958 0.3388794 -0.38570863 0.3525058 -0.1695407 0.31367865 -0.33761314 -0.35368878
0.44660425 0.41365707 0.38627994 0.32091954 -0.3309854 -0.18520457 -0.2984097 -0.3052764
-0.35393152 -0.31533104 0.37304056 -0.3451576 -0.24073206 0.40703595 0.33870593 -0.299846
0.37335745 -0.23677436 -0.2616249 -0.31711543 -0.3225876 0.26336208 -0.35071677 -0.3043298
00000000: c57b 76be 0c66 a0be 6075 d1be 0178 993e
00000010: c9b6 a03e b5c5 9cbe 493a b03e bfda 72be
00000020: 8386 e4bd 3fcd bc3e 6489 c83e 0de4 a93e
00000030: aec0 73be d9e5 d0be 52c0 b43e 4e98 b8be
00000040: fcc1 89be 1aca 9f3e fcaa b9be 4063 b6be
00000050: e9f9 843e 0133 b53e 1408 a1be f481 a03e
00000060: 7c6d 9f3e 3e26 5e3e 8154 8fbe 2ca1 743e
00000070: a924 c33e e58b 4cbe 2fca 95be 21c7 86be
00000080: bb02 863e 9a81 ad3e 9a7b c5be a47b b43e
00000090: 149c 2dbe 7d9a a03e a1db acbe b216 b5be
000000a0: 50a9 e43e dcca d33e 7cc6 c53e 914f a43e
000000b0: eb76 a9be 44a6 3dbe 28c9 98be 304d 9cbe
000000c0: 8336 b5be 1273 a1be 2cff be3e 7fb8 b0be
000000d0: 7782 76be 0467 d03e dd6a ad3e 6a85 99be
000000e0: b528 bf3e fa74 72be b3f3 85be f45c a2be
000000f0: 342a a5be 65d7 863e 2691 b3be 1ed1 9bbe
