Model Results/ppo_sentiment_TSLA2020-03-011999.pth (torch, 50591 bytes, 11 tensors)

actor.0.weight f4 [64, 20]
0	0xbf9dd0e2	-1.2329371
1	0xbebbefdf	-0.36706445
2	0xbe2cc211	-0.16870905
3	0xbebc6e7b	-0.3680304
4	0xbe6feb53	-0.23429613
5	0xbf1423a4	-0.57866883
6	0x3f2876c1	0.65806204
7	0xbeca730c	-0.395409
8	0xbf589557	-0.84602875
9	0xbe264f0b	-0.1624109
10	0xbed8612d	-0.4226164
11	0xbdec3a3d	-0.115345456
12	0x3f80ea4d	1.0071503
13	0xbd722478	-0.05911681
14	0xbe437e00	-0.19091034
15	0x4015b789	2.339327
16	0x3f78840e	0.970765
17	0xbd4c2b0d	-0.049845744
18	0xbf731673	-0.9495613
19	0xbec6f18d	-0.38856164
20	0x401822ee	2.377132
21	0xbf5f29c5	-0.8717311
22	0xbed64e39	-0.41856554
23	0xbf04651a	-0.5171677
24	0xbed9ca1d	-0.42537013
25	0x3dc6b324	0.09702137
26	0xc0649f22	-3.5722127
27	0xc001f186	-2.0303664
28	0xbfcbf154	-1.5933022
29	0x3bbaac8b	0.0056968383
30	0xbd99bbad	-0.075064994
31	0xbc8d5fda	-0.01725762
32	0xbf2f7480	-0.6853714
33	0xbf57d3c9	-0.84307534
34	0xbe4651e9	-0.19367184
35	0x3e9c5994	0.30537093
36	0x3da5c57e	0.08094309
37	0xbe359a91	-0.17734744
38	0xbd19c2cd	-0.037539292
39	0x3ec1da78	0.3786199
40	0x3de06c5f	0.1095817
41	0x3e32eee0	0.17473936
42	0x3e55c639	0.20876397
43	0xbd242d47	-0.040082242
44	0xbe63709d	-0.22210927
45	0xbd2cec0e	-0.042217307
46	0xbf99a1b8	-1.2002478
47	0xbf22dde3	-0.6361982
48	0xbe997ca1	-0.29977897
49	0xbebffdc1	-0.37498286
50	0x3e1ee65c	0.15517563
51	0x3e8b4da7	0.27207682
52	0xbf447862	-0.7674619
53	0xbda94f52	-0.08267082
54	0x3efa6e80	0.4891243
55	0xbfdce1b3	-1.7256378
56	0x3f442736	0.7662233
57	0x3f7bc354	0.9834492
58	0xbf94e1c9	-1.1631404
59	0x3efec0a3	0.49756345
60	0x40032e59	2.0497038
61	0x402d6d11	2.709782
62	0x40103c4c	2.2536802
63	0xbea0ca0a	-0.31404144
64	0x3e49fa1a	0.19724312
65	0x3da577c9	0.08079488
66	0x3fc83506	1.5641181
67	0x3ebbd5f7	0.3668668
68	0x3ee6a51f	0.45047852
69	0xbebb1438	-0.36538863
70	0xbf176900	-0.5914459
71	0xbf0c1d1f	-0.54731935
72	0x3d92c734	0.07166901
73	0x3e87cb8a	0.26522475
74	0xbcc22daf	-0.023703424
75	0xbdee37c7	-0.116317324
76	0x3e4903ae	0.1963031
77	0xbe3290c1	-0.17438032
78	0x3f0f4249	0.5596052
79	0xbe5ca659	-0.21547832
80	0xbf0a9520	-0.54133797
81	0xbe230f35	-0.1592377
82	0xbf801eb3	-1.0009369
83	0x3edeb2b1	0.43495706
84	0x3e523819	0.20529212
85	0xbf159545	-0.5843089
86	0x3fc12825	1.5090376
87	0x3faf9744	1.3718038
88	0x3f8beac1	1.0931016
89	0x3f2e618d	0.681176
90	0x3f308e6c	0.6896732
91	0x3e7972a0	0.24360132
92	0xbebe10ff	-0.37122342
93	0xbf04b737	-0.51842064
94	0x3f25c736	0.64757097
95	0xbf43df55	-0.7651265
96	0xbe856f5b	-0.2606152
97	0x3f8120cd	1.0088135
98	0x3f98d234	1.1939149
99	0x3d1c3b9f	0.038142797
100	0xbe6ea5e1	-0.23305465
101	0xbefdf324	-0.49599564
102	0x3cfed424	0.031107016
103	0x3f2938b9	0.66102177
104	0x3f04cdca	0.5187651
105	0x3ee3cec9	0.44493702
106	0xbfa37791	-1.2770864
107	0xbfdd8515	-1.7306238
108	0xbffa8610	-1.9572163
109	0xbf5a2216	-0.8520826
110	0xbee73f94	-0.45165694
111	0xbe9efd6f	-0.3105273
112	0xbf8e0587	-1.1095437
113	0xbef0fa6a	-0.4706605
114	0xbdf701ad	-0.120608665
115	0xbf070ff5	-0.52758723
116	0xbfe44ff2	-1.7836897
117	0xc03396d3	-2.8060806
118	0xbf0f877c	-0.5606611
119	0xbdbee011	-0.09320081
120	0x3f71bd06	0.9442905
121	0x3f9f003f	1.242195
122	0x3ffb9d64	1.9657407
123	0xbf7ca20e	-0.98684776
124	0xbf782364	-0.96929
125	0xbf09b19a	-0.53786623
126	0x402e38bf	2.7222135
127	0x4063dbe0	3.560295
128	0x405bf61e	3.4368968
129	0x3d18a313	0.037264895
130	0xbc437306	-0.011929279
131	0xbeddd14c	-0.43323743
132	0xbf184bda	-0.5949074
133	0x3f4b1b30	0.7933836
134	0xbefde32b	-0.49587378
135	0x3e927cfe	0.28610986
136	0xbf29790a	-0.66200316
137	0xbf90580b	-1.1276869
138	0xbd2077d9	-0.039176796
139	0xbdb81474	-0.08988276
140	0xbf87c1fd	-1.0606076
141	0xbeb57a59	-0.35444906
142	0x3ed24a1b	0.41072163
143	0xbefb3e8f	-0.49071166
144	0xbcccca60	-0.024998844
145	0xbceceac6	-0.028920542
146	0xbf0f8f40	-0.5607796
147	0xbf9d0c0c	-1.2269301
148	0xbfbb922c	-1.4653983
149	0xbd9b4a88	-0.07582575
150	0xbefe5af5	-0.4967877
151	0xbf08a336	-0.5337404
152	0x3dca88cc	0.09889373
153	0xbd62f7fc	-0.055412278
154	0xbeca1fb9	-0.39477327
155	0x3ff71b25	1.9305159
156	0x3f67f0b1	0.9060164
157	0xbec9b4ea	-0.3939584
158	0x3e15a07b	0.14612
159	0xbe82220f	-0.2541661
160	0x3e496712	0.19668224
161	0x3eca8a14	0.3955847
162	0xbef759bb	-0.48310646
163	0xbf41bbb6	-0.7567705
164	0xbfadfef9	-1.3593436
165	0xbfbef005	-1.4916998
166	0xbf1a0bed	-0.6017445
167	0xbe8a50c9	-0.2701476
168	0xbf4bc2d9	-0.7959419
169	0x3dd139d1	0.10216106
170	0x3e8d73c4	0.27627385
171	0x3e80e58f	0.2517514
172	0xbc2ab946	-0.010420149
173	0xbf812459	-1.0089217
174	0x3d7e967c	0.06215523
175	0xbf246d70	-0.6422949
176	0xbfb3cdaf	-1.4047145
177	0xbf1fa26f	-0.6235723
178	0xbd933ca6	-0.07189302
179	0x3ea9e530	0.3318267
180	0x3fb9de69	1.4520999
181	0xbe706930	-0.23477626
182	0x3defd1ad	0.11709914
183	0x3e3c6dad	0.18401213
184	0x3ef6579a	0.4811371
185	0x3ed61b24	0.41817582
186	0xc0220162	-2.5313344
187	0xbf7696cb	-0.9632384
188	0xbec245dc	-0.37943923
189	0xbc947ad1	-0.01812497
190	0x3e2e381b	0.1701359
191	0xbe0249e3	-0.12723498
192	0xbdd03746	-0.101667926
193	0x3e8f2183	0.27955255
194	0x3c706641	0.014672817
195	0x3e6c0e9f	0.23052453
196	0xbf1c978c	-0.6116874
197	0xbf4bd6b3	-0.7962448
198	0x3fe4ad57	1.7865399
199	0xbed89057	-0.42297623
200	0xbf1f5a2d	-0.6224697
201	0xbf08d93c	-0.53456473
202	0xbed4338f	-0.41445586
203	0xbe29f842	-0.16598609
204	0x3e053523	0.13008551
205	0xbe34f54f	-0.17671703
206	0x3fbb2708	1.4621286
207	0x3fa54ad4	1.2913461
208	0x3f912899	1.1340514
209	0x3f1de054	0.6167042
210	0x3eca4413	0.39505062
211	0x3e9081d5	0.28224054
212	0x3f464631	0.77450854
213	0x3d814dae	0.06313644
214	0x3e1fbcef	0.15599416
215	0x3de162c8	0.11005169
216	0x3e815d93	0.25266704
217	0x3e2e3337	0.17011724
218	0x3e811da5	0.2521793
219	0x3e8a866e	0.27055687
220	0x3fa5776b	1.2927068
221	0xbf9a489d	-1.205341
222	0xbf898cbf	-1.0746077
223	0xbfdf7c9a	-1.74599
224	0xbf947143	-1.1597065
225	0xbf65fcdc	-0.8983896
226	0xc029c231	-2.6524775
227	0xbfe85076	-1.8149555
228	0xbf6431e9	-0.89138657
229	0xbedf362b	-0.43596014
230	0xbe55853a	-0.20851603
231	0xbe2f182f	-0.17099069
232	0xbcdf774a	-0.027278561
233	0x3f06a914	0.5260174
234	0xbe0d101e	-0.1377568
235	0xbf3df9ff	-0.7420959
236	0xbe2ec8b8	-0.17068756
237	0xbf2b0ca9	-0.6681619
238	0x3e89596e	0.26826042
239	0xbe0bb1a8	-0.13641989
240	0x3ed45d0a	0.41477233
241	0xbf375152	-0.7160846
242	0x3e18ee06	0.14934549
243	0xbb64623d	-0.0034848594
244	0xbf1542df	-0.5830516
245	0xbf174e48	-0.5910382
246	0xc002b701	-2.0424197
247	0xc0409a5f	-3.009422
248	0xc062d659	-3.5443327
249	0x3e4816a7	0.19539891
250	0xbe21e77a	-0.15810958
251	0xbc0313f5	-0.008000364
252	0xbf800732	-1.0002196
253	0xbf618318	-0.8809066
254	0x3ecd0606	0.40043658
255	0xbf4a006a	-0.7890688

actor.0.bias f4 [64]
0	0xbdee4d79	-0.116358705
1	0x3ecec363	0.40383443
2	0x3f0d9ac5	0.55314285
3	0xbdafafff	-0.085784905
4	0x3eb18bb3	0.34676895
5	0x3ea9adf9	0.33140543
6	0xbeb62847	-0.35577604
7	0xbe964fa0	-0.29357624
8	0x3dd8c9ad	0.105853416
9	0xbeb25a07	-0.3483431
10	0x3eaf6381	0.34255603
11	0xbed11452	-0.40835816
12	0x3f34eb34	0.7067139
13	0xbdcff5b6	-0.101542875
14	0x3f2f15a2	0.68392384
15	0x3ed319a2	0.41230494
16	0xbe40d92d	-0.18832846
17	0x3dc7d4d0	0.09757388
18	0xbf1546e2	-0.58311284
19	0xbe270673	-0.16311054
20	0x3e8c582b	0.27411017
21	0xbf246ddd	-0.6423014
22	0x3e871eed	0.26390782
23	0xbe32e4e3	-0.17470126
24	0x3dc714a6	0.09720735
25	0x3dc0c6e1	0.09412933
26	0x3e7c9a3a	0.24668208
27	0x3ed7dddf	0.42161462
28	0x3f0df4b5	0.5545152
29	0x3e93c370	0.28860044
30	0xbf0ce13a	-0.5503117
31	0x3f1d7d6a	0.6151949
32	0xbea1e916	-0.31623143
33	0x3e4bc723	0.19900183
34	0xbeb99ebd	-0.3625392
35	0x3ef87b11	0.48531392
36	0x3f74fc75	0.9569772
37	0xbe8cc9c9	-0.274977
38	0xbeaf183c	-0.34198177
39	0xbc455719	-0.0120446915
40	0xbe7258d4	-0.23666698
41	0xbeb3ea89	-0.35139874
42	0xbbcfe936	-0.0063449396
43	0x3e294b44	0.16532618
44	0x3f185919	0.5951095
45	0x3ee9de08	0.4567721
46	0x3ec5d070	0.38635588
47	0xbd1af086	-0.037827037
48	0xbdbddb1c	-0.092703074
49	0x3ed723d8	0.42019534
50	0xbdd62150	-0.104555726
51	0x3e1016e3	0.1407123
52	0xbeacad1a	-0.33725816
53	0x3f2350ef	0.6379537
54	0xbe926531	-0.28592828
55	0x3d0ea39c	0.034824
56	0xbe21855a	-0.15773526
57	0xbca85237	-0.020547016
58	0xbe324d79	-0.17412366
59	0xbecb09c6	-0.39655894
60	0xbebe6fbb	-0.3719462
61	0x3f571f8a	0.840325
62	0xbea3b4ba	-0.3197382
63	0x3ed41cd0	0.41428232

actor.2.weight f4 [64, 64]
0	0x3e3c1f12	0.18371227
1	0xbf2b8e49	-0.67013985
2	0x3e41230b	0.18861024
3	0xbe9350be	-0.2877254
4	0x3e3c5902	0.18393329
5	0xbf202a0d	-0.62564164
6	0xbf5b549d	-0.85675985
7	0x3f10f07c	0.5661695
8	0x3ebd03f6	0.36917084
9	0xbf0411d1	-0.51589686
10	0x3ecd17d3	0.4005724
11	0x3f9d02fa	1.2266533
12	0xbfa2a349	-1.2706081
13	0x3eb5d00d	0.35510293
14	0x3d801de6	0.06255703
15	0xbd0b9a2a	-0.03408257
16	0xbd8eff9d	-0.06982348
17	0x3fb74fa6	1.4321182
18	0xbe93113a	-0.2872408
19	0x3ed52046	0.41626185
20	0x3edea0da	0.43482095
21	0xbdabeada	-0.08394404
22	0xbf7adfbe	-0.97997653
23	0xbe2a5d2e	-0.16637108
24	0x3e7fdf90	0.24987626
25	0xbea93bf0	-0.3305354
26	0x3e428ed5	0.18999799
27	0xbef2c56b	-0.47416243
28	0x3f39fd1d	0.72651845
29	0xbcc1a736	-0.023639303
30	0xbef7e656	-0.4841792
31	0x3e9c87ca	0.3057235
32	0x400f5576	2.2395911
33	0x3e1131fa	0.14179221
34	0x3f6f803c	0.93555045
35	0xbc433edb	-0.011916841
36	0x3e6b775f	0.22994755
37	0x3f1a69e1	0.6031781
38	0x3ece0136	0.402353
39	0x3f0526d6	0.52012384
40	0xbef3ad5f	-0.4759321
41	0x3eb30c6c	0.34970415
42	0x3dc0adab	0.094081245
43	0x3ee019ee	0.43769783
44	0xbe679a4b	-0.22617452
45	0x3e97c218	0.2964027
46	0xbeec683a	-0.4617327
47	0xbede77f9	-0.43450907
48	0x3ed07d53	0.40720615
49	0x3f2f1c23	0.6840231
50	0xbfcba9a6	-1.5911148
51	0x3e9d0c63	0.30673513
52	0xbeed49b4	-0.46345294
53	0xbd38dbca	-0.045131482
54	0x3f256a24	0.6461508
55	0xbeeef090	-0.4666791
56	0x3d9cb331	0.076513655
57	0x3f956463	1.167126
58	0x3f528d5a	0.82246935
59	0xbfb5fd63	-1.4217952
60	0x3e81da28	0.25361753
61	0xbf1131ef	-0.5671682
62	0xbdf010bf	-0.11721944
63	0x3dafd5ca	0.08585699
64	0x3e2d8b67	0.16947709
65	0xbf9dca46	-1.2327354
66	0x3fc724e0	1.5558128
67	0xbeae64f8	-0.34061408
68	0x3f91eb23	1.1399883
69	0x3e8929f1	0.2678981
70	0x3ede3a1a	0.43403703
71	0xbf5ac47d	-0.8545607
72	0x3e035c4a	0.12828174
73	0xbf788b5a	-0.97087634
74	0x3d384b79	0.04499385
75	0x3db2fa56	0.08739154
76	0xbf2fe78c	-0.6871269
77	0x3ee7ecb9	0.45297793
78	0xbeadeaa4	-0.3396808
79	0xbf101db8	-0.5629535
80	0x3e4c6b4a	0.19962803
81	0xbde0fea5	-0.109860696
82	0xbe3ff050	-0.18744016
83	0x3fa82686	1.3136756
84	0xbea6c5d6	-0.32572812
85	0x3f2dff8f	0.67968076
86	0x3f164494	0.5869839
87	0xbe9a12a2	-0.3009234
88	0x3ed9532c	0.42446268
89	0x3ff915a7	1.9459733
90	0xbe758c0d	-0.23979206
91	0xbf8276f8	-1.0192556
92	0xba2b53a3	-0.0006535595
93	0x3e528ff5	0.20562728
94	0xbd046c3b	-0.03232978
95	0xbd5123c2	-0.051059492
96	0xbf19effd	-0.6013182
97	0x3f2bbd00	0.67085266
98	0x3f8844da	1.0646012
99	0x3f145358	0.5793967
100	0x3db39d78	0.08770269
101	0x3f319701	0.6937104
102	0xbea94e9d	-0.3306779
103	0xbeacad42	-0.33725935
104	0x3e6c9b40	0.23106098
105	0xbeff6ab8	-0.49886107
106	0x3f301b9c	0.6879213
107	0xbeb5fbf3	-0.35543784
108	0xbe0444ca	-0.12916866
109	0x3f940588	1.1564188
110	0xbfa19703	-1.262421
111	0x3ecb17b3	0.3966652
112	0x3ee4ef71	0.4471393
113	0x3e7b68e8	0.24551737
114	0xbf297454	-0.6619313
115	0x3f658527	0.896563
116	0xbe5e5994	-0.21713859
117	0xbf7cbd8a	-0.98726714
118	0xbba2d2bb	-0.0049689687
119	0x3ea334a5	0.31876102
120	0x3f22b588	0.63558245
121	0x3ed3cdf3	0.41368064
122	0xbf9c08e8	-1.2190218
123	0x3ee062d1	0.4382539
124	0x3fc6f0b2	1.5542204
125	0xbe9c20f0	-0.3049388
126	0xbf79c873	-0.97571486
127	0x3f511c05	0.8168338
128	0x3eda0618	0.42582774
129	0x3f9f55ce	1.244806
130	0xbf6ded55	-0.92940265
131	0x3e08c8f9	0.13357915
132	0xbe1b1e2c	-0.15148228
133	0x3f140917	0.5782637
134	0x3f684da5	0.90743476
135	0x3f270891	0.65247446
136	0xbd1d0ed9	-0.038344238
137	0x3f4235a5	0.75863105
138	0xbd8cb7d4	-0.06871
139	0x3cb5fefa	0.022216309
140	0x3efc1fe7	0.4924309
141	0xbe01dc64	-0.12681729
142	0xbfeee503	-1.8663639
143	0x3f00b56a	0.50276816
144	0x3e065af4	0.13120633
145	0x3f30036b	0.68755215
146	0xbe660e70	-0.22466445
147	0x3ded064c	0.11573467
148	0xbfbbc52e	-1.466955
149	0x3f8ac50d	1.0841385
150	0x3ec6577a	0.38738614
151	0x3f738981	0.9513169
152	0x3f280958	0.6563926
153	0xbf320c3e	-0.6954993
154	0xbf965ab9	-1.1746436
155	0xbf026c0e	-0.5094613
156	0xbeb68b9c	-0.35653389
157	0xbe34539d	-0.17610021
158	0x3e8e4dd4	0.27793753
159	0xbe9c97c4	-0.30584538
160	0x3f7ec957	0.9952597
161	0xbf297909	-0.6620031
162	0x3e01bcc4	0.12669665
163	0xbeac893b	-0.3369845
164	0xbefd574f	-0.49480674
165	0xbd8e6c6f	-0.06954276
166	0x3f3a72a4	0.7283118
167	0xbeb6dc66	-0.35715026
168	0x3f8722e5	1.0557524
169	0x3e9da052	0.30786377
170	0xbef85feb	-0.4851068
171	0xbf356ad9	-0.7086616
172	0xbf6ab869	-0.9168764
173	0xbf7384b7	-0.9512438
174	0x3e24fe29	0.1611258
175	0xbf5994a7	-0.8499245
176	0x3e7445ab	0.23854701
177	0xbebaab33	-0.3645874
178	0x3ef98f16	0.48741978
179	0x3e584b42	0.21122459
180	0x3f3cac47	0.73700374
181	0xbd9fd877	-0.07804959
182	0xbe807729	-0.25090912
183	0x3e9f79aa	0.3114751
184	0xbf4ab175	-0.7917703
185	0x3f97f694	1.1872125
186	0x3e3be4fd	0.18349071
187	0x3e88e55c	0.26737487
188	0xbf5971a7	-0.84939045
189	0x3da9cb30	0.08290708
190	0xbe475fc2	-0.19470122
191	0xbe9a9a69	-0.3019593
192	0xbf58ded9	-0.8471504
193	0xbdb25b72	-0.08708848
194	0x3ee13b19	0.439904
195	0xbe8f250d	-0.27957955
196	0xbded6e10	-0.115932584
197	0x3f019da6	0.5063118
198	0xbec2bc9a	-0.38034517
199	0xbf2ff2bd	-0.68729764
200	0xbe342c93	-0.17595129
201	0xbe8097e1	-0.25115874
202	0x3ea35a59	0.31904867
203	0xbeee8a60	-0.46589947
204	0x3db24464	0.08704451
205	0xbee54447	-0.44778654
206	0x3f815200	1.010315
207	0xbf455d74	-0.77095723
208	0xbf818611	-1.0119039
209	0xbf5da668	-0.8658204
210	0x3d8ddf76	0.069273874
211	0xbd046290	-0.03232056
212	0x3f9481f8	1.1602163
213	0x3edc1dbd	0.42991439
214	0x3f1de285	0.61673766
215	0xbf4f785f	-0.81043047
216	0xbfbf95d3	-1.4967598
217	0xbe8f43f1	-0.27981523
218	0x3d96c478	0.07361692
219	0x3e77b77b	0.24191086
220	0x3da24bd2	0.07924618
221	0x3eb4b293	0.3529249
222	0xbe710970	-0.23538756
223	0x3f83b440	1.0289383
224	0xbe89232c	-0.26784647
225	0x3f7b6783	0.9820482
226	0x3e469e22	0.1939626
227	0x3e14e006	0.14538583
228	0x3ea1f5a4	0.3163272
229	0xbd8e9d44	-0.0696359
230	0xbf2f0626	-0.68368757
231	0x3e41c0a0	0.18921137
232	0xbf397393	-0.7244198
233	0xbf938db1	-1.1527616
234	0xbfbef235	-1.4917666
235	0x3f04abce	0.51824653
236	0xbf36bdb7	-0.7138323
237	0xbeb67f46	-0.35643977
238	0x3da53b9a	0.08068009
239	0x3ef8f5a0	0.48624897
240	0xbea650af	-0.32483432
241	0x3f337500	0.701004
242	0xbf0518fe	-0.5199126
243	0x3de09283	0.10965445
244	0xbf3a822f	-0.72854894
245	0x3f262689	0.6490255
246	0x3f0fecb7	0.56220573
247	0xbf2cf9dd	-0.6756876
248	0x3f0849b0	0.5323744
249	0xbf9e4637	-1.2365178
250	0x3eb394ff	0.35074612
251	0xbed678f4	-0.41889155
252	0xbd59528d	-0.053057242
253	0xbe1692b9	-0.14704408
254	0xbf0226a2	-0.508402
255	0x3f181930	0.59413433

actor.2.bias f4 [64]
0	0xbe4e08e2	-0.20120576
1	0x3d5488f8	0.051888436
2	0xbf03244f	-0.5122728
3	0x3ed09973	0.40742072
4	0xbbbc385f	-0.0057440246
5	0xbee2b1ce	-0.4427628
6	0x3cda50fc	0.026649944
7	0x3d278d8c	0.040906474
8	0xbee29724	-0.44255936
9	0xbf089fcd	-0.53368837
10	0x3f4fbe29	0.81149536
11	0xbe01f0d6	-0.12689528
12	0x3ee8fcc0	0.45505333
13	0xbef90ad4	-0.48641074
14	0x3ee90afb	0.4551619
15	0xbeb7ec8c	-0.35922658
16	0x3e70dd95	0.23522027
17	0x3ec7378d	0.3890957
18	0x3e47ebe3	0.19523577
19	0xbdecc19b	-0.11560365
20	0x3b5e76fc	0.0033945432
21	0x3e2cb0aa	0.16864267
22	0xbecdf1c2	-0.4022351
23	0xbe50f65e	-0.20406482
24	0xbeb9927d	-0.36244574
25	0x3e7f4064	0.24926907
26	0x3e72d3e0	0.23713636
27	0xbe9dd6d8	-0.30827975
28	0xbebe54a7	-0.3717396
29	0x3c869834	0.016429998
30	0x3e565de6	0.20934257
31	0x3e93f34e	0.28896564
32	0x3f381565	0.71907645
33	0xbeecade1	-0.4622641
34	0x3f2da05b	0.6782281
35	0x3e69104b	0.22760122
36	0xbe54abf8	-0.20768726
37	0x3e5220ce	0.20520326
38	0x3f0fbb85	0.5614551
39	0x3ca318de	0.019909319
40	0x3e608458	0.21925485
41	0xbe93b638	-0.2884996
42	0xbe167c12	-0.14695767
43	0x3ec13962	0.37739092
44	0x3f1b6749	0.60704476
45	0x3ee9c27a	0.45656186
46	0xbead68fd	-0.33869162
47	0x3ecff61f	0.40617463
48	0x3e72d73f	0.23714922
49	0xbd851e23	-0.06499889
50	0x3ea3cb92	0.3199125
51	0x3f198ace	0.59977424
52	0x3d53aeb9	0.0516803
53	0xbeb18eee	-0.3467936
54	0x3d73fbd0	0.05956632
55	0x3e628017	0.22119175
56	0xbe8d2826	-0.27569693
57	0x3ca36243	0.019944316
58	0x3e11b2e6	0.142284
59	0xbebcd5be	-0.36881822
60	0x3ef9ae0b	0.48765597
61	0xbf641152	-0.8908893
62	0xbead061b	-0.3379372
63	0xbdc2d477	-0.09513181

actor.4.weight f4 [7, 64]
0	0x400f87ec	2.242671
1	0xbf48c89a	-0.78431094
2	0x3e61807e	0.22021672
3	0xbf84d3e0	-1.0377159
4	0xbf643a45	-0.8915141
5	0x3fa17a8b	1.2615522
6	0xbf8becdf	-1.0931662
7	0x3f69ca02	0.91323864
8	0x3e350467	0.1767746
9	0x3f3cc49f	0.7373752
10	0x3f0acf19	0.54222256
11	0x3f59c3d5	0.8506444
12	0xbe959598	-0.29215693
13	0x3f17f590	0.59359074
14	0x3f43e15a	0.76515734
15	0xc017b927	-2.3706758
16	0xbd875fa1	-0.06610037
17	0x4050363e	3.2533107
18	0x4018026e	2.3751483
19	0xbf191a87	-0.598061
20	0x3fba1348	1.4537134
21	0x3f318fc1	0.69359976
22	0xbfe68782	-1.8010104
23	0x3ebaea5f	0.36506936
24	0xbff9e2b5	-1.952231
25	0xbfe62ec9	-1.7983028
26	0xbfa3a237	-1.2783879
27	0xbf86d8fd	-1.053497
28	0x3d075894	0.03304346
29	0x3f5bfc01	0.859314
30	0x3f361de7	0.7113938
31	0x40009913	2.009343
32	0x3fba6135	1.4560915
33	0xc01a4aee	-2.4108233
34	0xbf3bd9a8	-0.7337899
35	0xc00dc533	-2.215161
36	0xbf7745da	-0.9659096
37	0xbfa7275f	-1.305889
38	0xbd317a52	-0.043329544
39	0xbf100eec	-0.5627277
40	0x3dcef0f9	0.10104556
41	0xbf352ad1	-0.7076846
42	0xbe626d64	-0.22112042
43	0x4028f6f9	2.640074
44	0xc0195e45	-2.3963788
45	0xbf3f015d	-0.74611455
46	0x3df608ad	0.120133735
47	0x3e83f7c5	0.2577497
48	0x3fdef880	1.7419586
49	0xbf63c39c	-0.8897035
50	0xbce3b77f	-0.027797459
51	0x407c95c6	3.9466414
52	0x3f47644b	0.7788741
53	0xbf642c79	-0.8913036
54	0xbe32027e	-0.17383763
55	0x3f9cd68a	1.2252972
56	0xbfac47ed	-1.345945
57	0x3f827005	1.0190436
58	0x3f2f1d54	0.68404126
59	0xbf15e8b4	-0.585582
60	0xbe917bf9	-0.28414896
61	0xc045d63a	-3.0912004
62	0x3f39855e	0.7246913
63	0xc01245ca	-2.2855096
64	0x3f82a1f9	1.020568
65	0xbff2eaa2	-1.8977854
66	0x3f551c50	0.83246326
67	0x3f18c092	0.5966884
68	0xbeb029a4	-0.3440677
69	0xbdd29611	-0.10282529
70	0xbffccf79	-1.9750816
71	0x3feb48d3	1.8381599
72	0x3e8837b2	0.26604992
73	0x3fc44fce	1.5336854
74	0xbfff07b2	-1.9924223
75	0xbe879105	-0.2647783
76	0xbf067367	-0.5251984
77	0xbf661b5a	-0.89885485
78	0x3ee4cce8	0.4468758
79	0xbec86679	-0.3914068
80	0xbf770686	-0.9649433
81	0x3f433c44	0.76263833
82	0xbf4f3d8c	-0.8095329
83	0x40079233	2.1182983
84	0x3fb1a15c	1.3877368
85	0x3f9f6499	1.2452575
86	0xbe51ebdf	-0.20500134
87	0x3d5a806c	0.05334513
88	0xc01772ad	-2.3663743
89	0xbf7e2e96	-0.99289834
90	0x3f6ab5a5	0.9168342
91	0x3f1e73b8	0.6189532
92	0xbf107ae3	-0.5643751
93	0x4011d4d1	2.2786143
94	0xbf7be6c6	-0.9839901
95	0x3f8ca563	1.0987972
96	0x3d9a5192	0.075350896
97	0xbf4bbe7d	-0.7958754
98	0xbf1701e3	-0.58987254
99	0xbfd2ebeb	-1.6478246
100	0xbea7b598	-0.32755733
101	0xbf32b19f	-0.6980228
102	0xbfe581de	-1.7930257
103	0xbfbc6558	-1.4718428
104	0xbe0e635f	-0.13905095
105	0xbfb2bce8	-1.39639
106	0x3ffd82f2	1.9805586
107	0xbde702c5	-0.11279825
108	0xbffffe83	-1.9999546
109	0xbfeabc09	-1.8338634
110	0x3f326e92	0.69699967
111	0x4000ffc7	2.0156114
112	0x3e284097	0.16430889
113	0xbff9f670	-1.9528332
114	0xbe93b803	-0.28851327
115	0x3ed61491	0.41812566
116	0x3f919238	1.1372747
117	0x3f882bb8	1.0638342
118	0xbfd6f761	-1.6794244
119	0x3f98bbd7	1.1932324
120	0xbf06fbdb	-0.5272805
121	0xbfeb8cc6	-1.8402336
122	0xbfc143a3	-1.5098766
123	0xbf8a3832	-1.07984
124	0xbf4c5c3e	-0.7982825
125	0x3ed7b254	0.4212824
126	0x3f02f46c	0.5115421
127	0xbfd004c0	-1.625145
128	0x3f24c252	0.6435901
129	0xbfbad81d	-1.4597203
130	0xbf9da05d	-1.2314564
131	0xbdd74294	-0.10510746
132	0xbf511ec6	-0.8168758
133	0x3f86f27a	1.0542748
134	0x3f4c4a27	0.7980065
135	0xbf63c6c2	-0.88975155
136	0xbf0f6fb8	-0.56029844
137	0x3e98a20b	0.2981113
138	0xbfd46ca6	-1.6595657
139	0x3e26c19a	0.1628479
140	0x3d30b1c3	0.043138277
141	0x3f4b1c51	0.7934008
142	0x3f12fdb7	0.5741839
143	0x3f91527a	1.1353295
144	0x3defde2d	0.117122985
145	0x3f65e694	0.8980496
146	0x3f9dc761	1.2326471
147	0x3e2980d2	0.16553047
148	0x3f6d28b1	0.92640215
149	0xbf55e43a	-0.8355137
150	0x3c576734	0.013147164
151	0xbfb7841f	-1.4337195
152	0xbf4d7c71	-0.8026801
153	0x3f0f1a06	0.55899084
154	0xbfa829e5	-1.3137785
155	0xbec7ec96	-0.39047688
156	0xbe0b8d5f	-0.13628148
157	0xbf64350c	-0.89143443
158	0x3ef9b175	0.487682
159	0x3eb11b3a	0.34591085
160	0xbfc743d7	-1.5567578
161	0xbf837625	-1.027043
162	0x3e7927fb	0.24331658
163	0x3fdaf9e5	1.7107512
164	0x3edec054	0.4350611
165	0x3ef50896	0.47858113
166	0x3e1b4433	0.15162735
167	0xbeb2c5a6	-0.3491642
168	0x3e3eef1f	0.18645905
169	0xbfde9f80	-1.7392426
170	0x3f883435	1.0640932
171	0xbec546dd	-0.38530627
172	0xbef61c43	-0.48068437
173	0xbee7f6d2	-0.45305496
174	0x3ee1be3f	0.4409046
175	0xbf418b98	-0.7560363
176	0x3f7fb666	0.9988769
177	0xbfbd46ea	-1.4787266
178	0x3f329833	0.6976349
179	0x3fb0b166	1.3804138
180	0x3fa146d7	1.2599744
181	0x3ffd51c1	1.9790574
182	0xbe8e5ae5	-0.27803722
183	0x3f5d2124	0.86378694
184	0x3f2d83fd	0.67779523
185	0xbd4e9418	-0.050434202
186	0x3f93ff4f	1.1562289
187	0xbf94c706	-1.1623237
188	0x3ee012e2	0.43764406
189	0x3f5f5176	0.87233675
190	0x3f0625be	0.5240134
191	0xbe004e07	-0.12529765
192	0xbf93dd34	-1.1551881
193	0x40037bad	2.0544236
194	0xbfea50a0	-1.8305855
195	0x3fb33e37	1.4003361
196	0x4025fd55	2.5935872
197	0xbfd93483	-1.696915
198	0x4000937a	2.0090013
199	0xbff272ff	-1.8941344
200	0xbfac9648	-1.3483362
201	0xc043b07c	-3.0576468
202	0x4016dbac	2.3571577
203	0xbfc86d3a	-1.5658333
204	0x4040ecab	3.014445
205	0xc0090862	-2.1411366
206	0xbf931734	-1.1491456
207	0x3f0bf459	0.5466972
208	0x3fc66416	1.5499294
209	0xbfb6227d	-1.4229275
210	0xbfbecf60	-1.4907036
211	0xbd5d4385	-0.05401947
212	0xbfed62c0	-1.8545761
213	0xbff43c76	-1.9080951
214	0x401341a8	2.3008823
215	0xbfb54708	-1.4162302
216	0x40358612	2.836308
217	0x3fe0cbbf	1.7562178
218	0x3f3d6190	0.73976994
219	0xbfcb112b	-1.5864614
220	0xbf84c482	-1.037247
221	0xc008f7f7	-2.1401346
222	0x3fda63de	1.7061727
223	0xbfc57a9d	-1.5428044
224	0x3f69cb8c	0.9132621
225	0x3fa9f61d	1.3278233
226	0x40171f66	2.3612914
227	0x3fcd6168	1.6045351
228	0x3fbabcc2	1.4588854
229	0x40078b8a	2.1178918
230	0x40258b5c	2.5866308
231	0x40819947	4.0499606
232	0x3f9a2319	1.2041961
233	0x3fb6824b	1.4258512
234	0xc04da6fd	-3.2133172
235	0x3f63d6ab	0.8899943
236	0x405093ee	3.259029
237	0x40441a1a	3.064093
238	0xc021ad99	-2.5262206
239	0x3f4fa8e3	0.81117076
240	0xbf62541a	-0.8840958
241	0x404bbaf6	3.1832862
242	0x3fbfe06d	1.4990364
243	0xbf1bca7f	-0.6085586
244	0xbfd223f7	-1.6417226
245	0xbfa31646	-1.2741172
246	0x3efaaf31	0.48961785
247	0xbfc31e41	-1.5243608
248	0x3f9d8e26	1.2309005
249	0xbeadee80	-0.33971024
250	0xbdb40c58	-0.08791417
251	0x3fd3ffce	1.656244
252	0x400d6e06	2.2098403
253	0xbe165d9c	-0.14684147
254	0xbff36858	-1.9016218
255	0x3fd4eaec	1.6634192

actor.4.bias f4 [7]
0	0x4003eada	2.0612092
1	0xbeb5b870	-0.35492277
2	0xbe93f98f	-0.28901336
3	0x3f83e1fb	1.0303339
4	0x3f013545	0.5047191
5	0x3d526df7	0.051374402
6	0x3f047bdc	0.51751494

critic.0.weight f4 [64, 20]
0	0x3de9fc94	0.114251286
1	0xbf0c4b2b	-0.548022
2	0x3eeb0a18	0.45906138
3	0x3fa6e0ed	1.3037392
4	0x3fe07ea4	1.7538648
5	0x3f20c8d7	0.6280646
6	0xbcbed2aa	-0.023293812
7	0xc08aef62	-4.3417215
8	0xc0e37ba6	-7.108844
9	0xbf391c37	-0.7230868
10	0xbf876745	-1.057839
11	0xbf833aff	-1.0252379
12	0xbfcbe946	-1.5930564
13	0xbeb2438a	-0.34817153
14	0x3f823b55	1.0174357
15	0x3f41944d	0.75616914
16	0x3f822beb	1.0169653
17	0x3fa867b0	1.3156643
18	0xbe966ad4	-0.29378378
19	0x3f84674f	1.0344027
20	0xbf8e7004	-1.1127934
21	0x3d389e34	0.04507275
22	0x3f258167	0.6465058
23	0xbffe9072	-1.9887831
24	0xc0230235	-2.5470097
25	0xc00056c7	-2.0052965
26	0xbeea5310	-0.45766497
27	0x402d1b58	2.704794
28	0x4067a209	3.6192648
29	0x3eb0298b	0.34406695
30	0x3e8cfaff	0.27535245
31	0xbe6d1678	-0.23153102
32	0x401d7010	2.4599648
33	0xbec5fa0a	-0.38667327
34	0xc0199836	-2.3999152
35	0x3fa2c7ee	1.2717264
36	0xbe5f5578	-0.21809947
37	0xbd9cfd9d	-0.076655604
38	0xbf936756	-1.1515911
39	0xbfb387ea	-1.4025853
40	0xbfab98fb	-1.3406061
41	0xbfc1d763	-1.5143856
42	0xc01421ee	-2.314571
43	0x3f5ba5b4	0.8579972
44	0x3f301db9	0.68795353
45	0x3f8767eb	1.0578588
46	0xc08fd564	-4.4947987
47	0xbfd702df	-1.6797751
48	0xbedda1dc	-0.4328755
49	0x3d4a9787	0.049460914
50	0x3c26314f	0.010143592
51	0x3e0f70a6	0.14007816
52	0xbfa58198	-1.2930174
53	0xbd8f9b93	-0.07012095
54	0x3e1aaec6	0.15105733
55	0xbff960f3	-1.9482712
56	0xbfdd25b9	-1.7277137
57	0xbed4ab46	-0.4153692
58	0x3fb65300	1.424408
59	0xbe9f0b9b	-0.31063542
60	0xbfad0f0b	-1.3520216
61	0xbe1f13f7	-0.1553496
62	0x3f821bec	1.0164771
63	0x3e9d064b	0.30668864
64	0x3e60da4e	0.21958277
65	0xbeb48f92	-0.35265785
66	0x3f85a635	1.0441347
67	0x401c5e39	2.443251
68	0x4028c5f7	2.6370828
69	0x3ea9a615	0.33134523
70	0x3c629da6	0.013831532
71	0x3db69d8a	0.08916767
72	0x3f566c3e	0.83758914
73	0xbff6e3c9	-1.9288265
74	0x3e936d75	0.28794447
75	0xbe0a31b2	-0.1349552
76	0xbf7976c9	-0.97446877
77	0x3f60e924	0.87855744
78	0x3efb4a88	0.490803
79	0x3e20168a	0.15633598
80	0xbfb77f72	-1.4335768
81	0x3ece9178	0.4034536
82	0xbf1db160	-0.6159878
83	0x3fa67303	1.3003849
84	0x3f82a086	1.0205238
85	0x3ebbf65f	0.36711404
86	0x401d8265	2.4610837
87	0x3e99c14a	0.3003028
88	0xbf12430f	-0.57133573
89	0xbd392368	-0.04519978
90	0x3cd68a00	0.02618885
91	0x3e4f1fef	0.20227025
92	0x3f50ec10	0.816102
93	0x3f564be9	0.8370958
94	0x3f5e84b6	0.8692125
95	0x3fb0329e	1.3765447
96	0x3f99782e	1.1989801
97	0x3f4402e5	0.76566917
98	0x40395f41	2.8964388
99	0x3f6adef3	0.91746444
100	0xbe9c992a	-0.30585605
101	0x3ff11ef3	1.883757
102	0x3f3ed33f	0.74541086
103	0xbc740d20	-0.014895707
104	0x3f4a45f2	0.7901298
105	0x3fc8c02e	1.5683649
106	0x3fdac558	1.7091475
107	0x4091bf20	4.5545807
108	0x40c8bf7a	6.2733736
109	0x3fcb7f72	1.5898268
110	0x3fabfc12	1.3436301
111	0x3f6621cb	0.89895314
112	0x3e93380c	0.28753698
113	0xbeb36916	-0.35041112
114	0xbb9bdbef	-0.0047564427
115	0x3f01921e	0.5061358
116	0x3fd18d95	1.6371332
117	0x3f317e1a	0.6933304
118	0xbff7ce2e	-1.9359796
119	0xbf251fa0	-0.6450138
120	0x3fa3043e	1.273567
121	0x3ee9a668	0.4563477
122	0x3f209ea1	0.6274205
123	0x3ddb3d84	0.107050925
124	0x3e806081	0.25073627
125	0x3dda3a45	0.10655645
126	0xc02c5c6c	-2.693141
127	0xbfcbe14b	-1.5928129
128	0xbf1500bf	-0.58204263
129	0xbee69975	-0.45038953
130	0xbea5f798	-0.32415462
131	0xbdb76a52	-0.08955826
132	0xbfc6c744	-1.5529561
133	0xbf92cb49	-1.1468288
134	0xbd854166	-0.065066144
135	0xbfacd2be	-1.3501813
136	0x3f2fd4d5	0.6868413
137	0xbee5dbc0	-0.44894218
138	0xbfa2ab6f	-1.2708567
139	0x3e7b1c59	0.24522533
140	0xbedd27a3	-0.43194303
141	0x3de7124c	0.11282787
142	0x3e97baa7	0.29634592
143	0xbf824163	-1.0176204
144	0x3ee12584	0.43973935
145	0x3f4c73f5	0.79864436
146	0x3faffa8e	1.3748338
147	0x3d791988	0.060815364
148	0x3c32b067	0.010906315
149	0xbe8c9306	-0.2745592
150	0x3e69dc8b	0.22838037
151	0x3ec01c48	0.37521577
152	0x3f08552b	0.53254956
153	0xbfa01457	-1.2506207
154	0xbd9ee4fc	-0.07758519
155	0x3fd715f6	1.6803577
156	0xbf536f70	-0.82591915
157	0xbf2b0a5b	-0.66812676
158	0xc00da6fb	-2.2133167
159	0x3e51c291	0.20484377
160	0xbf82169f	-1.0163153
161	0xbe6c993b	-0.23105328
162	0xbedb0b9a	-0.4278229
163	0x3eee63c0	0.46560478
164	0x3eb91733	0.36150512
165	0xbf04112d	-0.5158871
166	0x3e20c69d	0.15700765
167	0x3ef5c169	0.47999123
168	0x3ef02c32	0.46908718
169	0x3ead95d3	0.3390337
170	0x3f5e4044	0.8681681
171	0x3f3b1f21	0.73094374
172	0x3f2150a3	0.63013667
173	0xbe8acef4	-0.27111018
174	0x4026e5aa	2.6077676
175	0x3fb09cc7	1.3797845
176	0x3fbb9c8d	1.465715
177	0x3f9ebc80	1.2401276
178	0x4015be3a	2.3397355
179	0x3f8f5e13	1.1200584
180	0xbcc2664a	-0.023730416
181	0xbf20376b	-0.6258456
182	0xc00451da	-2.0674958
183	0x3f55c432	0.83502495
184	0x3f51f42a	0.8201319
185	0x3e508e39	0.20366754
186	0x3eb309b0	0.34968328
187	0xc02f8b29	-2.7428687
188	0xc07c9602	-3.9466558
189	0xbf070987	-0.5274891
190	0xbf434c42	-0.76288235
191	0xbf249ce9	-0.64301926
192	0x3f867791	1.0505239
193	0x3e7915c1	0.24324705
194	0x3f145fd7	0.5795874
195	0x3e993e26	0.29930228
196	0xbf1cd469	-0.6126161
197	0xbe637c76	-0.22215447
198	0x40025f67	2.037073
199	0x3f4af55b	0.7928063
200	0xbea583ea	-0.32327205
201	0x3efc39f0	0.49262953
202	0x3f58df47	0.84715694
203	0xbed51c3f	-0.41623113
204	0xbd888183	-0.066653274
205	0xbe291863	-0.16513209
206	0x3fe8cf6e	1.8188303
207	0x3fbdd215	1.4829737
208	0x3f6abbbc	0.9169271
209	0xbf659f0a	-0.896958
210	0xbf23ca91	-0.63980967
211	0xbed11b9e	-0.40841383
212	0xbeb32e14	-0.34996092
213	0x3de220ea	0.11041434
214	0xbf8041b8	-1.0020056
215	0xbf001a71	-0.50040346
216	0xbef05256	-0.46937817
217	0xbef66098	-0.4812057
218	0xbf3e968e	-0.7444848
219	0xbf69f91c	-0.91395736
220	0x401d68ca	2.4595208
221	0xbfaa2ac4	-1.3294301
222	0xbf74e30a	-0.95658934
223	0x3f6d6d0c	0.9274452
224	0x3f321e10	0.6957712
225	0x3e3bb646	0.1833125
226	0x408e323d	4.4436326
227	0x400ef020	2.233406
228	0x3fe32c83	1.7747959
229	0x3f81c0b0	1.0136929
230	0x3f288441	0.65826803
231	0x3f0756eb	0.52867
232	0x3fe0f09a	1.7573426
233	0x3e8c3d14	0.2739035
234	0x3e63e93a	0.22256938
235	0x3e756390	0.23963761
236	0x3e96584e	0.29364246
237	0x3faf3c0d	1.3690201
238	0xbf0caa1d	-0.5494707
239	0xbc3b4a46	-0.011431282
240	0xbdf02c80	-0.11727238
241	0xbcb82efb	-0.02248334
242	0x3f42eeb5	0.7614549
243	0xbe7052d0	-0.2346909
244	0x3f61f669	0.8826662
245	0x3bfde77d	0.007748543
246	0x402a3293	2.6593368
247	0x402f98ce	2.7437015
248	0x403e6f53	2.9755447
249	0xbd218b50	-0.0394395
250	0x3ed47083	0.4149209
251	0x3ee8c0be	0.4545955
252	0xbec1166c	-0.3771242
253	0x3eaa718a	0.33289748
254	0xbc141d98	-0.009040259
255	0x3f2ddbb8	0.6791339

critic.0.bias f4 [64]
0	0x3fab4442	1.3380206
1	0xbfa8006a	-1.3125126
2	0xbe2ece8e	-0.17070982
3	0x3e43cb6c	0.19120568
4	0x3f7cc574	0.9873879
5	0xbf6e1b2f	-0.9301023
6	0x3ee983c8	0.45608354
7	0x3eb43a06	0.35200518
8	0x3f7a1bf6	0.97698915
9	0x3f2c50c2	0.67310727
10	0xbf631e41	-0.8871804
11	0xbde87dea	-0.11352141
12	0x3e64806a	0.22314611
13	0xbb0b9de3	-0.0021303825
14	0x3da330d7	0.079683
15	0x3ceb8aba	0.028752673
16	0x3f1c6c3e	0.61102664
17	0xbeb7a6fb	-0.35869583
18	0x3e8c3f70	0.2739215
19	0x3d75b0a9	0.05998293
20	0xbe10c643	-0.14138131
21	0x3e6398d0	0.22226262
22	0xbd9fb43d	-0.077980496
23	0x3eb82d53	0.3597208
24	0x3bbe2ea2	0.005803899
25	0xbedfea7a	-0.4373358
26	0x3db79533	0.08964004
27	0xbf9f858b	-1.2462629
28	0xbf8ffd38	-1.1249151
29	0x3f026c61	0.50946623
30	0x3e0ba7d6	0.13638243
31	0xbf050fdf	-0.5197734
32	0x3ed1aa3d	0.40950194
33	0xbf5d072c	-0.8633907
34	0x3e942e1a	0.28941423
35	0xbf3a4b32	-0.7277099
36	0x3f4b1c76	0.793403
37	0xbf4c0313	-0.7969219
38	0x3ec7dc61	0.39035323
39	0x3f1a1abf	0.6019706
40	0xbd9593ac	-0.07303557
41	0x3eb2e7ba	0.34942418
42	0x3ecb4541	0.39701274
43	0x3f04e845	0.51916915
44	0x3eb1fa56	0.34761304
45	0xbed456c5	-0.4147245
46	0xbdcc90bb	-0.09988543
47	0xbf87e0fb	-1.0615534
48	0xbf1f37b0	-0.6219435
49	0x3f9899d3	1.1921943
50	0xbe8aa80e	-0.2708134
51	0xbf17d9ff	-0.5931701
52	0xbf1e4a13	-0.6183178
53	0xbf7edf5f	-0.9955959
54	0x3f02afa7	0.51049274
55	0xbf310d97	-0.6916136
56	0xbf72fa13	-0.9491283
57	0xbe9e2881	-0.30890277
58	0xbeef99b2	-0.46796948
59	0xbe438585	-0.19093902
60	0x3f4c157f	0.797203
61	0x3fb4f503	1.4137272
62	0xbecf8b36	-0.40535897
63	0xbeedf5a7	-0.4647648

critic.2.weight f4 [64, 64]
0	0xbe1fb957	-0.15598045
1	0x3fef6bb5	1.8704745
2	0xbfa96023	-1.3232464
3	0xbe8fef2e	-0.28112167
4	0x3ef9d66f	0.48796412
5	0x3fbb94f3	1.4654831
6	0x3e343705	0.17599113
7	0x3f4d27b0	0.80138683
8	0xbdb1c928	-0.08680946
9	0xbce19b7d	-0.027539963
10	0x3e389cf0	0.18028617
11	0x3ebdd27e	0.37074655
12	0x3f3167c1	0.6929894
13	0xbf83cfa0	-1.0297737
14	0x3fa5bd06	1.294831
15	0x3d8df89f	0.06932186
16	0x3f0c0c9e	0.5470675
17	0x3fdea64a	1.7394497
18	0x3fa570c5	1.292504
19	0xbf0e8029	-0.55664307
20	0x3f993741	1.1969987
21	0x3f94d7ea	1.1628392
22	0xbe9be873	-0.30450782
23	0xbf37d116	-0.71803415
24	0xbf48c541	-0.78425986
25	0x3efa1e58	0.48851275
26	0x3f8cba5f	1.0994376
27	0xbe460bfc	-0.19340509
28	0x3e1ec4b4	0.15504724
29	0xbebf6294	-0.37379897
30	0x40114950	2.2700996
31	0x3db91cfe	0.09038733
32	0x3e05e768	0.13076556
33	0x3f855686	1.041703
34	0xbfa705b4	-1.3048615
35	0x3f24b414	0.6433728
36	0x3f8474ca	1.0348141
37	0x3e2f0fa2	0.17095807
38	0xbe6dd8b5	-0.23227198
39	0x3d6a5d80	0.057218075
40	0xbea59cb3	-0.32346115
41	0xbe8de27f	-0.27711865
42	0xbf92c02e	-1.1464899
43	0x3eb49612	0.35270745
44	0xbf85ccf0	-1.0453167
45	0x3ea5526d	0.32289448
46	0xbed39fd7	-0.41332886
47	0xbf36067b	-0.7110364
48	0x3eb6341e	0.35586637
49	0xbf7c6f21	-0.9860707
50	0x3c202d66	0.009776449
51	0x3de9f56a	0.11423762
52	0xbf027ef0	-0.5097494
53	0x3e1a1287	0.1504613
54	0xbfa887c5	-1.3166434
55	0x3e6caf2a	0.23113695
56	0xbf816bc7	-1.0111016
57	0xbda55e16	-0.08074586
58	0x3dc12b74	0.09432116
59	0xbf5e46a3	-0.86826533
60	0xbf169e08	-0.58834887
61	0xbf13a36c	-0.57671237
62	0xbf56b68d	-0.838723
63	0x3fb926e5	1.4464995
64	0x40249996	2.5718741
65	0x3f439e56	0.76413476
66	0x4022a58f	2.541355
67	0x3f0ae52d	0.54255944
68	0xbf5a8780	-0.85363007
69	0xbfb099c1	-1.3796922
70	0xbf59aa02	-0.85025036
71	0xbf172a20	-0.5904865
72	0x3e87c82f	0.26519915
73	0x3ebe49d8	0.37165713
74	0xbe2d866f	-0.16945814
75	0xbdbf0784	-0.09327605
76	0xbfb73e43	-1.4315876
77	0xbf02050e	-0.5078896
78	0x3dca48c7	0.098771624
79	0x3dfac356	0.122442886
80	0x3f658e06	0.89669836
81	0xbf9d17ac	-1.2272849
82	0xbd0bf1c7	-0.034166124
83	0x3f950da8	1.1644793
84	0x3e37d342	0.17951682
85	0x3fa718d3	1.3054451
86	0x3f2b5a32	0.669345
87	0xbb461d00	-0.0030229688
88	0xbe3e24e2	-0.18568757
89	0xbf05a1c2	-0.5219995
90	0x3f59243e	0.84820926
91	0x3e960684	0.29301846
92	0xbe0a2a8d	-0.13492794
93	0x3fa3063d	1.2736279
94	0x3f587e8c	0.84568095
95	0xbed7977a	-0.42107755
96	0x3fb3c4c3	1.4044422
97	0x3f128c6f	0.57245535
98	0x3ec1ec59	0.3787563
99	0xbf5e2815	-0.8677991
100	0x3ee2f879	0.44330195
101	0xbd9431c6	-0.07236056
102	0x3e1188b7	0.14212309
103	0x3fe22e46	1.7670372
104	0x3f3081b5	0.6894792
105	0x3f8bc719	1.0920135
106	0x3e390e16	0.1807178
107	0x3f979cc9	1.1844722
108	0xbf4eb8bf	-0.8075065
109	0x3f2493e1	0.64288145
110	0x3e3e1091	0.18561007
111	0x3eaf0f28	0.3419125
112	0xbfcdc1ed	-1.6074806
113	0x3f120459	0.57037884
114	0x3ef1811b	0.47168812
115	0x3d2963c9	0.04135493
116	0xbf803100	-1.0014954
117	0x3daa072f	0.083021514
118	0x4030e403	2.7639167
119	0xbde9c13f	-0.11413812
120	0x3f18a551	0.5962725
121	0xbe295b5a	-0.16538754
122	0xbf7d09af	-0.988429
123	0xbfaafd53	-1.3358558
124	0x3f0b989a	0.54529727
125	0xbf769399	-0.96318966
126	0x3e9dc8a9	0.30817154
127	0xbf10f798	-0.566278
128	0x3e49fbd2	0.19724968
129	0xbeb094f8	-0.34488654
130	0xbed6e3e5	-0.41970745
131	0x40027f20	2.039009
132	0xbef85abb	-0.48506722
133	0x3f24d4f3	0.64387435
134	0x3f087106	0.5329746
135	0x3e436205	0.1908036
136	0xbec8a26e	-0.39186424
137	0x3e868ac7	0.26277754
138	0xbeb2c30c	-0.34914434
139	0xbec8689d	-0.39142314
140	0x3f9387c2	1.1525805
141	0x3f429c94	0.7602017
142	0xbfcbfce5	-1.5936552
143	0x3e83bea1	0.25731376
144	0xbf3bda05	-0.73379546
145	0xbed5b0ac	-0.41736352
146	0xbff37238	-1.9019232
147	0x3d8af285	0.06784538
148	0x3de451d1	0.11148418
149	0xc003960e	-2.0560336
150	0x3e97edc0	0.29673576
151	0x3edb339f	0.4281282
152	0x3dc5781c	0.0964205
153	0x3d838cfa	0.064233735
154	0xbf2ff65d	-0.68735296
155	0x3ebe7021	0.37194923
156	0xbe5c06dc	-0.21486992
157	0xbf43ca8a	-0.76480925
158	0xbf2c841a	-0.6738907
159	0x3fd6104a	1.6723721
160	0xbfac9e2d	-1.3485771
161	0x3e12ecfa	0.14348212
162	0xbdc652d4	-0.09683767
163	0x3f3d74b3	0.74006194
164	0x3ff02481	1.876114
165	0xbc88914a	-0.016670842
166	0x3df78990	0.12086785
167	0xbfe6644c	-1.7999358
168	0xbebf87f3	-0.3740841
169	0xbf2d67d6	-0.67736566
170	0x3f2b7cfd	0.6698759
171	0xbf80f400	-1.0074463
172	0x3f2a7f84	0.66600823
173	0xbecbfe45	-0.3984243
174	0x3e23fb38	0.16013801
175	0x3e2f64cc	0.17128295
176	0xbf12dca6	-0.5736793
177	0x4005fcb5	2.093549
178	0x3eca8e96	0.3956191
179	0x3eef4edf	0.4673986
180	0x3d6e3c94	0.05816324
181	0x3d53d9dd	0.051721442
182	0x3ecdbb0c	0.40181768
183	0xbee18e95	-0.44054094
184	0x3f55f757	0.83580536
185	0xbe1154d7	-0.1419252
186	0x3e9a839e	0.3017854
187	0x3f4fe049	0.81201607
188	0x3e4fee85	0.20305832
189	0x3fa73948	1.3064356
190	0xbec3acef	-0.38217875
191	0xbd373e0d	-0.04473691
192	0xbbfee75a	-0.007779044
193	0x3f3e022f	0.7422208
194	0x3fa46cc6	1.2845695
195	0x3ec06f78	0.37585044
196	0xbf9455c4	-1.1588674
197	0x3e0fb865	0.14035185
198	0x3c19503c	0.009357508
199	0x3f8cecc5	1.1009756
200	0x3f1e16f4	0.61753774
201	0xbf5b5175	-0.8567117
202	0x3f370472	0.7149116
203	0xbf61e452	-0.88239014
204	0x3f9f5c2a	1.2450001
205	0x3ed35114	0.41272795
206	0xbf045935	-0.5169862
207	0x3cfadbc7	0.030622376
208	0xbf29571b	-0.6614854
209	0xbf554f82	-0.83324444
210	0xbf9923ff	-1.196411
211	0xbef541ea	-0.4790185
212	0xbecb088e	-0.39654964
213	0x3df9aadd	0.12190793
214	0xbef71e54	-0.48265326
215	0x3f917401	1.1363527
216	0xbeda7cc4	-0.42673314
217	0xbfbdb9eb	-1.4822363
218	0xbe548ff5	-0.2075804
219	0x3e653266	0.22382507
220	0x3f519f0e	0.81883323
221	0x3f9e73ed	1.2379128
222	0xbed087a4	-0.40728486
223	0x3fbf4818	1.4943876
224	0xbf271877	-0.65271705
225	0xbe04a86c	-0.12954873
226	0x3f896427	1.0733689
227	0x3e261ee7	0.16222726
228	0x3f2b73c5	0.66973525
229	0x3efb91e5	0.49134746
230	0xbf1657f2	-0.58727944
231	0x3f18b8d8	0.5965705
232	0xbe7e4fd4	-0.2483514
233	0xbf6243cb	-0.88384694
234	0xbcbbe7e9	-0.022937732
235	0xbf68a2f8	-0.9087367
236	0x3d4c4c9f	0.04987776
237	0xbf8a1774	-1.0788407
238	0xbd4b5752	-0.049643822
239	0x3fcc569e	1.5963933
240	0xbef8a8e3	-0.4856635
241	0xbf75c02a	-0.95996344
242	0xbd5871c4	-0.05284287
243	0xbed6d1a8	-0.4195683
244	0x3f7e097a	0.9923321
245	0xbea2108a	-0.31653243
246	0xbf49f19d	-0.788843
247	0x3f363eba	0.71189463
248	0x3e47430a	0.19459167
249	0x3e935305	0.28774276
250	0xbfab855d	-1.3400074
251	0xbe97fcb7	-0.29684994
252	0xbe9aa2ab	-0.3020223
253	0xbf9c16c8	-1.2194452
254	0xbfbb4b8c	-1.463243
255	0x3f969bf8	1.1766348

critic.2.bias f4 [64]
0	0xbec2664b	-0.37968668
1	0x3e0dfde6	0.13866386
2	0x3f092688	0.5357442
3	0xbebce246	-0.36891383
4	0x3f3b8235	0.73245555
5	0xbedcda26	-0.43135184
6	0xbe1f1240	-0.15534306
7	0x3dbbb2dc	0.09164974
8	0x3e2625c4	0.16225344
9	0xbee1c87c	-0.4409827
10	0xbf0ccb25	-0.54997474
11	0xbf0ec8ae	-0.5577496
12	0xbecbc4f8	-0.39798713
13	0xbf584437	-0.8447909
14	0x3dcf8b19	0.10133953
15	0x3f22a2f7	0.63529915
16	0x3e88c7b5	0.26714864
17	0xbf80f7ff	-1.0075682
18	0x3b3a2e4b	0.002840894
19	0xbf2e88e1	-0.6817761
20	0x3e3e7d05	0.18602379
21	0xbecb08fc	-0.39655292
22	0xbf5c21e6	-0.85989225
23	0xbd56f544	-0.052479997
24	0x3e7e8cad	0.24858351
25	0x3f18fd8f	0.597619
26	0xbea1980f	-0.31561324
27	0xbf76bcba	-0.96381724
28	0xbf2a561f	-0.6653766
29	0xbf5b53f3	-0.8567497
30	0xbf35a44c	-0.7095382
31	0x3f34f5ee	0.7068776
32	0xbea291fc	-0.31752002
33	0x3f87b214	1.060122
34	0x3eecc94a	0.4624732
35	0xbd945a50	-0.07243788
36	0x3e535522	0.20637944
37	0x3ea7c36a	0.32766277
38	0xbe69c38c	-0.22828501
39	0xbeef391a	-0.46723253
40	0xbd650e2f	-0.05592173
41	0xbeb9f0cb	-0.36316523
42	0x3ed29639	0.41130236
43	0x3e8247f3	0.25445518
44	0xbef6d7f0	-0.48211622
45	0x3e7986d5	0.2436784
46	0x3f242a92	0.6412746
47	0xbefea141	-0.49732402
48	0x3e59d8be	0.21274087
49	0xbec6872f	-0.38775012
50	0x3e897c93	0.26852855
51	0x3eda599b	0.4264649
52	0xbe3cdd33	-0.18443756
53	0xbf842f93	-1.0327018
54	0xbf4eedbb	-0.808315
55	0x3ed08a1a	0.40730363
56	0xbe8b37c3	-0.2719098
57	0xbf4eea2c	-0.8082607
58	0x3ef8fc51	0.48630002
59	0x3f1b6029	0.60693604
60	0x3f5bdd90	0.8588495
61	0xbeca52c7	-0.3951628
62	0xbe96499a	-0.2935303
63	0x3f346f27	0.70482105

critic.4.weight f4 [1, 64]
0	0xbf122d0a	-0.57099974
1	0x3ee6cf7a	0.45080167
2	0x3f1b799e	0.6073245
3	0xbf026d50	-0.5094805
4	0x3eeb036a	0.45901042
5	0xbe9d8623	-0.307664
6	0x3ebd6a3d	0.36995116
7	0xbeee62e1	-0.46559814
8	0xbf030e47	-0.5119366
9	0x3f690868	0.9102845
10	0x3ecc27e0	0.39874172
11	0x3ef95b94	0.4870268
12	0xbeca6219	-0.39527968
13	0x3f0c9e5d	0.54929143
14	0x3f060a93	0.52359885
15	0xbf0cb2e0	-0.5496044
16	0xbeda379d	-0.42620555
17	0xbebd90ab	-0.37024435
18	0x3edadd80	0.42747116
19	0x3ec1c7d0	0.37847757
20	0x3f1fcc5e	0.62421215
21	0x3ec76fde	0.38952535
22	0xbe4c9a83	-0.19980817
23	0x3ee1185e	0.43963903
24	0xbf247f96	-0.6425718
25	0x3e95c70c	0.29253423
26	0xbec98cc7	-0.39365217
27	0x3f1044ea	0.56355155
28	0x3f12bbbb	0.57317704
29	0xbefbf3bd	-0.49209395
30	0xbf28c607	-0.65927166
31	0xbf1f238d	-0.6216362
32	0xbed2efce	-0.4119858
33	0x3ecd7276	0.4012639
34	0x3f1b7632	0.60727227
35	0xbed7e2d9	-0.4216526
36	0xbf257e17	-0.6464552
37	0x3ef0f9ba	0.47065526
38	0x3eecfa89	0.46284893
39	0x3ec0a058	0.37622333
40	0xbf08d700	-0.53453064
41	0xbed9effa	-0.425659
42	0xbf250d40	-0.6447334
43	0x3eb0a2bc	0.34499156
44	0xbe99d0fa	-0.3004225
45	0xbed7f108	-0.4217608
46	0xbf0e2567	-0.5552582
47	0xbf0875db	-0.53304833
48	0x3ec591ef	0.385879
49	0xbecf8c8a	-0.4053691
50	0xbecec59a	-0.40385133
51	0x3e9e85fc	0.30961597
52	0x3e8013fc	0.25015247
53	0xbeea2d13	-0.45737514
54	0x3f0ee133	0.55812377
55	0xbe81eec7	-0.25377485
56	0x3e6a459f	0.22878121
57	0x3ef586b4	0.47954333
58	0x3f31cb0b	0.69450444
59	0xbeb4a10f	-0.35279128
60	0x3ecd8d42	0.40146834
61	0x3ec064ca	0.37576896
62	0x3f379ae2	0.7172071
63	0xbf03a7cc	-0.5142791
