Model Results/ppoAMC2021-06-011999.pth (torch, 48311 bytes, 11 tensors)

actor.0.weight f4 [64, 16]
0	0xbf93d7e5	-1.1550261
1	0xbf783aa2	-0.96964467
2	0xbfa775a1	-1.3082772
3	0x3e58d1f1	0.21173836
4	0x3f6a7d45	0.91597396
5	0x3f510661	0.8165036
6	0x3ddbf6fa	0.107404664
7	0x3e1ce5e9	0.15322079
8	0x3ed3aeea	0.41344386
9	0x3f6fcb1d	0.936693
10	0x3f450981	0.76967627
11	0x3f3988be	0.72474277
12	0x3fa07f1e	1.2538793
13	0xbebda325	-0.37038532
14	0x3f31b84b	0.69421834
15	0x3eb2e489	0.34939983
16	0xbf474e2f	-0.77853674
17	0x3f5d7740	0.86510086
18	0xbe8363c7	-0.25662062
19	0xbdc5c986	-0.09657578
20	0x3cbafcd3	0.022825634
21	0x3f07f390	0.5310602
22	0xc09b845e	-4.859908
23	0xc0cd5a56	-6.4172773
24	0xc0a25ce1	-5.0738378
25	0xbf147948	-0.5799756
26	0xbe45ca90	-0.19315553
27	0x3ed90679	0.4238775
28	0xbda033dd	-0.07822392
29	0xbfe580be	-1.7929914
30	0x3e82a3b7	0.2551553
31	0x3f321822	0.69568074
32	0x3ebe6965	0.37189785
33	0x3f09c9c5	0.538235
34	0x3f116c35	0.56805736
35	0x3e7ab143	0.24481682
36	0x3e99bcbd	0.30026808
37	0x3edd610a	0.43238097
38	0xbdade29a	-0.084904864
39	0x3f58a0b7	0.8462023
40	0x3f8f1cec	1.1180701
41	0x3f22891c	0.6349046
42	0x3f74dd90	0.9565058
43	0x3f4c4658	0.79794836
44	0xbfb77819	-1.4333526
45	0xbe4afb12	-0.19822338
46	0x3dafd986	0.08586411
47	0x3f2aa4ee	0.6665791
48	0xc003ef1b	-2.0614688
49	0xbf91bba9	-1.1385394
50	0xbf835d49	-1.0262843
51	0x3f274dc4	0.65353036
52	0x3f2328e9	0.637343
53	0x3e911e7c	0.2834357
54	0xbe9a2262	-0.30104357
55	0xbfb35973	-1.4011673
56	0xc001b8b2	-2.026898
57	0xbd8c80e1	-0.06860519
58	0xbe309bcd	-0.17246933
59	0xbe842917	-0.258126
60	0x3f1c0780	0.60948944
61	0xbe31d66f	-0.17366956
62	0xbf828db0	-1.019949
63	0x3e53f99c	0.20700687
64	0xbf2c31a2	-0.67263234
65	0x3f6041bb	0.87600297
66	0x3f0d4922	0.55189717
67	0xc080c805	-4.0244164
68	0xc09b8b80	-4.860779
69	0xc0980966	-4.7511473
70	0x3e73940a	0.23786941
71	0x3eb3b0d1	0.35095838
72	0x3e34cf47	0.17657195
73	0xbd75009c	-0.059815034
74	0x3df2128e	0.11819945
75	0x3e1a1f52	0.1505101
76	0x3f91758e	1.1364
77	0x3f13d396	0.5774473
78	0x3e91bc4f	0.2846398
79	0xbe215e7f	-0.15758704
80	0xbeb23e18	-0.34813
81	0x3e10164b	0.14071004
82	0x3ef9bbf4	0.4877621
83	0xbfde75b9	-1.7379676
84	0xbfb95694	-1.4479547
85	0xbfa1882e	-1.2619684
86	0xbf9d0508	-1.226716
87	0xbf9e907e	-1.2387846
88	0xbf5016bc	-0.8128469
89	0xbed6a580	-0.4192314
90	0xbeb04963	-0.3443099
91	0xbde55427	-0.111976914
92	0xbedae90e	-0.42755932
93	0xbe4c08f3	-0.19925289
94	0x3dac838b	0.08423527
95	0x3dc5552d	0.096353866
96	0xbecf34ed	-0.40470067
97	0x3e17823a	0.14795771
98	0xc00cf347	-2.2023485
99	0xbe7d1d8b	-0.24718301
100	0xbda5fdf8	-0.08105081
101	0xbf48b139	-0.7839542
102	0xbd5ff1f8	-0.05467412
103	0x3e847ea2	0.25877863
104	0x3eb0a000	0.3449707
105	0xbe299b62	-0.1656318
106	0xbe094112	-0.13403729
107	0xbf0c048f	-0.54694456
108	0xbeba6ec1	-0.36412624
109	0xbe24f2fa	-0.16108313
110	0x3e1b11e2	0.1514354
111	0xbf1ebab1	-0.6200362
112	0x3ecae4a9	0.3962758
113	0x3f28c747	0.65929073
114	0x3f70ce44	0.94064736
115	0xbecb1f9a	-0.39672548
116	0xbf3f18d6	-0.7464727
117	0xbecdc8de	-0.40192312
118	0x3eb56211	0.3542638
119	0xbf762296	-0.96146524
120	0xc00216ec	-2.032649
121	0xbdcd18f9	-0.10014529
122	0x3e134379	0.14381208
123	0x3d41206e	0.047150068
124	0x3f388f18	0.72093344
125	0x3ec5f417	0.38662788
126	0x3e4b2a4c	0.19840354
127	0x3f0d21a6	0.5512947
128	0xbfa2a439	-1.2706367
129	0xbe838641	-0.25688365
130	0x3dd99e26	0.106258675
131	0x3e967a87	0.29390356
132	0x3ed380ae	0.41309112
133	0x3f3bcf9e	0.73363674
134	0x40076272	2.1153836
135	0x4026d96b	2.6070201
136	0x40321b88	2.7829304
137	0x3d764f71	0.060134355
138	0x3c9771b5	0.018486837
139	0xbde75ec4	-0.11297372
140	0xbf164dde	-0.58712566
141	0xbf2493f2	-0.64288247
142	0x3ea73388	0.32656503
143	0xbde509dc	-0.11183521
144	0x3cec4077	0.028839333
145	0xbc846c2f	-0.016164867
146	0x3e25e252	0.16199616
147	0xbf8bebda	-1.0931351
148	0xbfb78cd8	-1.4339857
149	0xbfb434d1	-1.4078618
150	0x3f80d0ba	1.0063698
151	0xbdb2f716	-0.08738534
152	0xbf0c2ab0	-0.54752636
153	0xbe6579a7	-0.22409688
154	0xbee54e0c	-0.44786108
155	0xbef18859	-0.47174338
156	0xbf2397c8	-0.63903475
157	0xbfacb708	-1.3493357
158	0x3f364831	0.71203905
159	0xbde8d874	-0.1136941
160	0x3de16854	0.11006227
161	0xbda5b273	-0.08090677
162	0xbd9d3848	-0.076767504
163	0xbeb9fc3b	-0.3632525
164	0xbe221689	-0.15828909
165	0x3ed35334	0.41274416
166	0xc058fec0	-3.3905487
167	0xc0411c30	-3.0173454
168	0xbffe158a	-1.9850323
169	0xbe3a71e4	-0.18207508
170	0xbe091d5d	-0.13390107
171	0xbe0b7565	-0.13619001
172	0x3fa96bf4	1.323607
173	0xbfdc6c7d	-1.7220608
174	0xbf122203	-0.5708315
175	0x3e0700d6	0.13183913
176	0x3f013487	0.50470775
177	0xbf494e4e	-0.7863511
178	0x3f1eb171	0.61989504
179	0xbf7271d4	-0.9470494
180	0xbfa3b323	-1.2789043
181	0xbf4e2643	-0.8052713
182	0x3ea97fbe	0.33105272
183	0x3bc68dc6	0.006059381
184	0xbee2c532	-0.44291073
185	0xbe820261	-0.2539244
186	0xbf00d3e0	-0.50323296
187	0xbf5ba7c3	-0.8580286
188	0x3f38e585	0.7222522
189	0x3d79f5e0	0.0610255
190	0x3e9bff8f	0.30468413
191	0xbf4865dc	-0.78280425
192	0x40030082	2.046906
193	0x3e6895fc	0.22713464
194	0xbf5fa7c2	-0.87365353
195	0xbeaa074a	-0.33208686
196	0xbf067589	-0.52523094
197	0xbd7c498b	-0.061593574
198	0xbf807f69	-1.0038882
199	0xbf97ee0a	-1.1869519
200	0xbf419bc9	-0.75628334
201	0xbeb8608d	-0.36011162
202	0x3d11ca33	0.035593223
203	0xbe20d467	-0.15706025
204	0x3f3b60b8	0.73194456
205	0x3e681ecf	0.22668003
206	0x3e1b308f	0.15155242
207	0xbc3bf2d3	-0.011471468
208	0xbe2437e7	-0.1603695
209	0x3e870e10	0.26377916
210	0xbf0be3a8	-0.5464425
211	0xbed592ae	-0.4171347
212	0xbcf0b272	-0.029381964
213	0xbe748692	-0.2387946
214	0x3ea9e64e	0.3318352
215	0xbe6cffee	-0.23144504
216	0xbec8fa53	-0.39253482
217	0x3dc48859	0.09596319
218	0xbef1c1fd	-0.47218314
219	0xbf0685ba	-0.525478
220	0x3f6b7caf	0.9198713
221	0xbfcf2686	-1.6183631
222	0x3f81b296	1.0132625
223	0xbe45f9c2	-0.19333556
224	0x3e1e716f	0.15472959
225	0x3ee99bb8	0.45626616
226	0xbf0fe357	-0.5620627
227	0xbe4680c7	-0.19385062
228	0xbf08e170	-0.5346899
229	0xbdb3c4bb	-0.08777758
230	0xbfa613b9	-1.2974769
231	0xc02525d7	-2.5804346
232	0xc046f94b	-3.1089656
233	0x3d027223	0.03184713
234	0x3e0c2e50	0.13689542
235	0xbbac3849	-0.005255733
236	0x3d5ea250	0.054354012
237	0x3ed9a841	0.4251118
238	0x3f1f3037	0.62182945
239	0x3f5219a1	0.82070357
240	0xbf8daa91	-1.1067678
241	0xbf2fc440	-0.6865883
242	0x3f72cabf	0.94840616
243	0x3e84f7dd	0.25970355
244	0x3ead8980	0.33893967
245	0x3ec537f2	0.38519245
246	0x3ed10ad2	0.40828568
247	0x3f894a7c	1.0725856
248	0x3f87d93b	1.0613168
249	0x3d63dcf0	0.055630624
250	0x3d3c8363	0.046023738
251	0x3d0dc11c	0.03460799
252	0xbfb9cd65	-1.4515806
253	0xbec362b1	-0.38161233
254	0x3f8f1645	1.1178671
255	0x3d896e32	0.06710471

actor.0.bias f4 [64]
0	0x3f1ed73c	0.6204717
1	0x3ee16b8e	0.4402737
2	0x3f3ce438	0.73785734
3	0x3eac6c84	0.3367654
4	0xbe218ea0	-0.15777063
5	0xbe94b6fc	-0.29045856
6	0xbf13e1e8	-0.5776658
7	0x3f182c2b	0.59442395
8	0xbea50a71	-0.3223453
9	0xbd083b77	-0.033259835
10	0x3e80b5ad	0.25138608
11	0xbf254a0c	-0.6456611
12	0xbe850040	-0.25976753
13	0xbec31569	-0.38102272
14	0x3f26c501	0.65144354
15	0xbe0e66d8	-0.1390642
16	0x3e3a55de	0.18196818
17	0x3f03424b	0.5127303
18	0x3ebcff73	0.36913642
19	0xbe71b7d4	-0.23605281
20	0x3ea54cf1	0.32285264
21	0x3f4ba96e	0.79555404
22	0x3ea3cfb3	0.319944
23	0xbe3f789b	-0.18698351
24	0xbe532980	-0.206213
25	0x3f3779b5	0.71670085
26	0xbe70e8b2	-0.23526266
27	0x3e76da5b	0.24106734
28	0xbe65ecf9	-0.22453679
29	0x3ee74747	0.45171568
30	0xbf068bac	-0.5255687
31	0xbf3d2fc5	-0.73901016
32	0xbd06b1da	-0.032884456
33	0x3ea3e234	0.32008517
34	0xbe24b7dd	-0.16085763
35	0xbdd208c7	-0.102555804
36	0xbeaf49c9	-0.3423598
37	0x3ef42bf4	0.47689784
38	0xbefb34f5	-0.4906384
39	0x3e2c127c	0.16803926
40	0x3f1657f0	0.5872793
41	0xbdf8aa9d	-0.12141917
42	0x3e958e92	0.29210335
43	0x3ef73583	0.48283014
44	0xbec6345a	-0.38711816
45	0x3e9170c2	0.2840634
46	0xbf01b990	-0.5067377
47	0xbeb9157c	-0.36149204
48	0x3f0f0ddb	0.55880517
49	0x3e54ec51	0.20793273
50	0x3e83a1f8	0.2570951
51	0x3ee54f3f	0.44787022
52	0xba393cf7	-0.00070662744
53	0xbe9a32db	-0.30116925
54	0x3d7e1e80	0.062040806
55	0x3ef16d4c	0.471537
56	0xbf7a696c	-0.9781711
57	0x3ca852a8	0.020547226
58	0xbe7ec0db	-0.24878256
59	0xbec12568	-0.3772385
60	0x3f2c166b	0.6722171
61	0x3c9f4941	0.01944411
62	0xbed6bee5	-0.41942516
63	0xbf127572	-0.5721046

actor.2.weight f4 [64, 64]
0	0xbe772cd9	-0.24138202
1	0xbf44a7de	-0.76818645
2	0x3d0ee7c7	0.03488901
3	0xbe91cc81	-0.28476337
4	0xbf6c2f25	-0.92259437
5	0x3e749f10	0.23888803
6	0xc013a339	-2.3068373
7	0x3f7d93e5	0.99053794
8	0xbf4f7931	-0.810443
9	0xbdf77634	-0.12083092
10	0xbf241f3e	-0.6411017
11	0x3ea2ee0d	0.31822243
12	0x3e3a236b	0.18177573
13	0xbf284daa	-0.65743506
14	0xbed94320	-0.42434025
15	0xbd6a32e7	-0.05717745
16	0xbea1034c	-0.31447828
17	0x3ed3ec76	0.41391343
18	0x40069757	2.102987
19	0xbdc093a7	-0.094031624
20	0x3f1f1d46	0.6215404
21	0xbe08bcee	-0.13353321
22	0xbe11881c	-0.14212078
23	0x3fbe8337	1.4883794
24	0xbf6d4456	-0.926824
25	0xbe12cb15	-0.14335282
26	0x3f426083	0.75928515
27	0x3f82d977	1.0222615
28	0xbe652aa6	-0.2237955
29	0xbf210313	-0.62895316
30	0x3f218fe4	0.63110185
31	0xbf920578	-1.1407919
32	0x3e9f7fb0	0.31152105
33	0x3fc5073d	1.5392834
34	0x3f7c382f	0.9852323
35	0x3f5f2e85	0.8718036
36	0xbea49e06	-0.32151812
37	0x3dadabe2	0.0848005
38	0x3b41318b	0.0029478993
39	0xbf9d36b7	-1.2282323
40	0x3e78bb43	0.24290185
41	0x3f264b1d	0.64958364
42	0x3f92b592	1.1461661
43	0x3cd4b025	0.025962899
44	0x3f97e6ff	1.186737
45	0x3e8a4ca5	0.270116
46	0xbe6cdae2	-0.23130372
47	0x3fbd1e40	1.4774857
48	0xbf196855	-0.59924823
49	0xbf5580a7	-0.8339943
50	0x3e222fbc	0.15838522
51	0x3e053a8f	0.1301062
52	0x3f92c673	1.1466812
53	0x3f1d1796	0.61364114
54	0xbe714bf0	-0.23564124
55	0xbdf0ab2a	-0.11751397
56	0xbee7cfe9	-0.4527581
57	0xbf311c25	-0.6918357
58	0x3eb1adf7	0.34703037
59	0x3f26a088	0.650887
60	0xbf20eb94	-0.62859464
61	0x3f062ea6	0.5241493
62	0xbf78a8d9	-0.9713264
63	0xbf6b4260	-0.91898155
64	0xbe16effb	-0.14739983
65	0x3f741843	0.9534952
66	0xbe495c0f	-0.19664024
67	0x3f53591b	0.8255784
68	0x3f79c118	0.9756026
69	0xbe968def	-0.29405162
70	0x3f8ae53d	1.0851208
71	0x3e85a38d	0.26101342
72	0xbe98fdf4	-0.2988125
73	0x3ea63d3f	0.32468602
74	0x3f9b27a9	1.2121478
75	0x3eac0fff	0.33605954
76	0xbf1fedd8	-0.62472296
77	0x3f2909ea	0.6603075
78	0x3f04ef0b	0.5192725
79	0x3ebda659	0.37040976
80	0x3f29b70d	0.6629494
81	0xbe22ba7c	-0.1589145
82	0xbf58c842	-0.8468057
83	0xbf842db7	-1.0326451
84	0xbf6d0366	-0.9258331
85	0x3f03c66b	0.51474637
86	0xbec5a5fe	-0.38603204
87	0xbf01934d	-0.5061539
88	0x3ddf65c0	0.10908079
89	0xbe8c493f	-0.27399632
90	0xbf962b4c	-1.1731963
91	0xbd787b1b	-0.060664278
92	0xbee1ec13	-0.44125423
93	0x3e964219	0.29347304
94	0xbf488741	-0.7833138
95	0xbd8c308f	-0.06845199
96	0xbfebdbbc	-1.8426433
97	0xbf1daaeb	-0.61588925
98	0xbf229262	-0.6350461
99	0x3e9424bb	0.28934273
100	0x3f01aef6	0.50657594
101	0xbf18728a	-0.5954977
102	0xbebf96eb	-0.3741983
103	0x3f799eff	0.97508234
104	0xbe21db1d	-0.15806241
105	0xbfa36172	-1.2764113
106	0xbe9da7b4	-0.3079201
107	0x3ed8afc7	0.42321607
108	0xbf7255e0	-0.94662285
109	0x3f4e9aca	0.8070494
110	0x3e92010c	0.28516424
111	0xbfe0825e	-1.7539785
112	0xbda10d13	-0.07863822
113	0x3f9eb612	1.2399313
114	0x3f8f169b	1.1178774
115	0x3f8c70ee	1.0971963
116	0xbffbeb3f	-1.9681166
117	0xbe58ce47	-0.21172439
118	0xbe45e089	-0.19323935
119	0x3eabdbc7	0.33566114
120	0x3e2d8d58	0.1694845
121	0x3e864676	0.26225632
122	0xbf75f535	-0.9607728
123	0xbf019239	-0.50613743
124	0xbe75faa2	-0.2402139
125	0xbf96986f	-1.1765269
126	0xbc602a65	-0.013681983
127	0x3e989355	0.29799905
128	0xbf467490	-0.7752161
129	0xbf0567b9	-0.52111393
130	0xbe51ff24	-0.20507485
131	0xbf1b7921	-0.60731703
132	0xbf0854c3	-0.53254336
133	0x3f0b184d	0.54333955
134	0xbd045298	-0.03230533
135	0xbefd358b	-0.49454913
136	0x3dccc705	0.099988975
137	0x3eddb223	0.4329997
138	0xbf76c196	-0.9638914
139	0x3f0a051b	0.5391404
140	0x3e5432e0	0.20722532
141	0x3e8fe57d	0.28104773
142	0x3f33d94f	0.7025346
143	0x3dacf281	0.084446914
144	0xbef93f20	-0.48680973
145	0xbe3450e8	-0.17608988
146	0xbe08f1cf	-0.13373493
147	0x3e7c9103	0.24664693
148	0xbe0f1609	-0.1397325
149	0xbf886a96	-1.0657527
150	0x3f5f1944	0.8714793
151	0xbdd9d757	-0.10636776
152	0x3ffa550b	1.9557203
153	0xbea623ba	-0.32449132
154	0x3dbd2a5e	0.092365965
155	0x3f25cc00	0.64764404
156	0x3fdbf9f0	1.718565
157	0xbf05c9f9	-0.5226131
158	0x3ebecd35	0.37265936
159	0x3f07e6b0	0.53086376
160	0x3f5cf437	0.8631014
161	0x3ef4fe12	0.4785009
162	0xbf31ec28	-0.6950097
163	0xc04553d1	-3.0832407
164	0x3eeade91	0.4587293
165	0x3f1591a2	0.58425343
166	0xbf3a985e	-0.72888744
167	0xbdc41619	-0.09574527
168	0xbfafb57c	-1.372726
169	0x3f28be87	0.6591572
170	0x3e145f12	0.14489391
171	0x3df52ffd	0.11972044
172	0x3efa0886	0.48834628
173	0xbf63e94a	-0.89027846
174	0x3f973339	1.1812507
175	0xbea9271e	-0.33037657
176	0x3f15cab8	0.5851245
177	0xbe2ce54a	-0.16884342
178	0xbf1ac3a6	-0.60454786
179	0xbecdf741	-0.40227702
180	0x3b328a3e	0.0027243043
181	0x3f9840f9	1.1894828
182	0x3f072b07	0.5280003
183	0xbd287f95	-0.041137297
184	0x3f0b1468	0.5432801
185	0xbe538fd6	-0.20660338
186	0x3f574136	0.8408388
187	0x3f0aa86a	0.5416323
188	0xbebc53b0	-0.36782598
189	0x3f49baa6	0.7880043
190	0xbed38561	-0.41312698
191	0x3f559e78	0.8344493
192	0x3cd943a1	0.026521506
193	0x3e914225	0.28370777
194	0xbf084df4	-0.5324395
195	0xbdf081d4	-0.11743513
196	0xbeb7a558	-0.35868335
197	0xbeb88d45	-0.3604528
198	0x3fe6e353	1.8038124
199	0xbeaae14a	-0.33375007
200	0x3f042a18	0.5162673
201	0xbe280e4a	-0.16411701
202	0x3f84d162	1.0376399
203	0x3e263c3b	0.16233914
204	0xbe9c50ee	-0.30530494
205	0x3e22a355	0.15882619
206	0xbe1e46b3	-0.15456657
207	0x3ef297d8	0.47381473
208	0xbe05d82b	-0.13070743
209	0xbf83619c	-1.0264163
210	0xbfadf89c	-1.3591495
211	0xbf6837a3	-0.90709895
212	0xbf5320a5	-0.82471687
213	0x3f3dfafc	0.74211097
214	0x3f1f402e	0.62207305
215	0xbf90b34a	-1.1304715
216	0x3e803268	0.25038457
217	0x3ec0883c	0.3760394
218	0x3d537a76	0.05163046
219	0xbf012300	-0.5044403
220	0x3d305f21	0.043059472
221	0x3f3c391e	0.73524654
222	0xbf22a559	-0.6353355
223	0x3f43fff6	0.7656244
224	0x3e551b32	0.20811155
225	0xbf6b599e	-0.9193362
226	0x3d9266ae	0.07148491
227	0xbfb10454	-1.3829446
228	0x3e488a95	0.19584115
229	0x3e2116a1	0.15731288
230	0x3ec22e59	0.37925985
231	0x3e3b1efe	0.18273541
232	0x3e18f2b7	0.14936338
233	0xbf4ddc24	-0.8041403
234	0xbf28b5a6	-0.65902174
235	0x3e86aed3	0.26305255
236	0xbfc00d8b	-1.5004133
237	0xbc7d152a	-0.01544694
238	0xbea13f74	-0.31493723
239	0xbf0b3afc	-0.5438688
240	0x3db19789	0.08671481
241	0x3f73bc05	0.9520877
242	0x3eea3ae1	0.45748046
243	0x3e150b50	0.14555097
244	0xbfc62581	-1.5480195
245	0xbeb5ea1e	-0.3553018
246	0x3e485a4e	0.19565699
247	0x3cad22e0	0.021134794
248	0x3f5d7de1	0.865202
249	0x3f92362c	1.1422782
250	0x3e60559b	0.21907656
251	0xbfcc45b0	-1.5958767
252	0x3fcac2cd	1.5840698
253	0x3ef35b5b	0.47530636
254	0x3ec8758c	0.3915218
255	0x3e38ee18	0.18059576

actor.2.bias f4 [64]
0	0x3de75686	0.112958
1	0xbd1464d1	-0.03622896
2	0xbe896678	-0.2683599
3	0x3dfbbea4	0.12292221
4	0x3f1cff8c	0.61327434
5	0x3ef9ea8a	0.48811752
6	0xbf012415	-0.5044568
7	0x3e3ad271	0.1824434
8	0xbf057731	-0.52134997
9	0xbf2018ac	-0.62537646
10	0xbf0cad1b	-0.5495164
11	0xbf0ecf48	-0.55785036
12	0x3cbe359e	0.023218926
13	0xbf323199	-0.6960693
14	0x3e94d4a2	0.29068476
15	0xbea2640e	-0.3171696
16	0x3ea9b157	0.33143112
17	0xbf4d1014	-0.8010266
18	0xbf2a3108	-0.66481066
19	0xbf3e69eb	-0.7438037
20	0x3f7b6ca3	0.9821264
21	0xbe5d2920	-0.21597719
22	0x3f4642af	0.774455
23	0xbce62af9	-0.028096663
24	0xbeb7500d	-0.3580326
25	0x3eb5544c	0.35415876
26	0x3e3611f2	0.17780283
27	0x3e769408	0.24079907
28	0xbe26bf8c	-0.16284007
29	0xbdd31823	-0.10307338
30	0xbdce8596	-0.10084073
31	0xbe18972a	-0.14901415
32	0x3cbe613c	0.023239724
33	0x3ef8c3da	0.48586923
34	0x3e33dd19	0.17564811
35	0x3e9ab4bc	0.30216014
36	0xbe2de02d	-0.16980048
37	0xbf487e25	-0.7831748
38	0x3f09b417	0.5379042
39	0xbe161647	-0.14656936
40	0x3e8d3798	0.27581477
41	0x3d0bf055	0.034164745
42	0x3eb619f7	0.35566685
43	0x3f0e45b9	0.5557514
44	0xbd378874	-0.044807866
45	0x3eb74679	0.35795954
46	0xbe1b557e	-0.15169331
47	0x3ea02e92	0.3128553
48	0x3f0e0c21	0.5548726
49	0xbba674b1	-0.0050798287
50	0x3d3ae324	0.045626774
51	0x3f261faa	0.64892066
52	0xbe8e6d28	-0.27817655
53	0xbec341c1	-0.38136104
54	0x3f39a9f3	0.72524947
55	0xbdd11891	-0.10209764
56	0xbed96070	-0.42456388
57	0xbe4dd2aa	-0.20099893
58	0x3f04e1b1	0.5190688
59	0xbebcb427	-0.36856195
60	0xbf013d21	-0.504839
61	0x3eb6fb66	0.35738677
62	0x3e3c8af8	0.18412387
63	0x3e088a0c	0.1333391

actor.4.weight f4 [7, 64]
0	0x3f728ced	0.94746286
1	0xbfbd2f8f	-1.4780139
2	0xbf7f0a57	-0.9962515
3	0x400a3de0	2.1600266
4	0x400a4253	2.160298
5	0x3fcdb0a5	1.6069533
6	0xc02238ff	-2.5347288
7	0x3fb75c61	1.4325067
8	0xbfe9c8a1	-1.8264352
9	0x3f41010e	0.75392234
10	0xbfd5bc5d	-1.6698109
11	0xbdfed8d5	-0.12443701
12	0xbfe778e3	-1.8083767
13	0x4005c36d	2.0900528
14	0xc002df8c	-2.0448942
15	0xbfa3c05c	-1.2793078
16	0x3eb32906	0.34992236
17	0xc01baee6	-2.43255
18	0xbf3cc7ee	-0.7374257
19	0xbffb24f9	-1.9620658
20	0xbfd638ce	-1.6736085
21	0xbed49ee1	-0.41527465
22	0xbf19659c	-0.5992067
23	0xc000a691	-2.0101664
24	0xc00f91a3	-2.243264
25	0xbf83e587	-1.0304421
26	0xc011a300	-2.2755737
27	0xbf9b4152	-1.2129309
28	0xbfb2f4dd	-1.3980976
29	0x3f87da23	1.0613445
30	0x3f66a988	0.90102434
31	0x3fbe23e5	1.4854704
32	0x3fb4008b	1.4062666
33	0x400c9814	2.196782
34	0xc003eac5	-2.0612042
35	0x4019eb6a	2.4049935
36	0x3fb74446	1.431771
37	0xc02eb0a6	-2.7295318
38	0x4029a766	2.6508422
39	0x400b3dbe	2.1756434
40	0x3fc1c40d	1.5137955
41	0x3fd9fc98	1.703021
42	0xbfcf5c7c	-1.6200099
43	0x3ea83d83	0.3285943
44	0xbf7349b9	-0.95034367
45	0x40091d77	2.1424234
46	0x3f633121	0.8874684
47	0x3ff335a0	1.900074
48	0x3fb9c199	1.4512206
49	0xc033d9d7	-2.810171
50	0xbf753af3	-0.95793074
51	0xbfc33d7a	-1.5253136
52	0xbfcdebcd	-1.6087586
53	0xbfb37203	-1.4019169
54	0xbec82e82	-0.39097983
55	0xc024fa49	-2.5777762
56	0x3fe955a6	1.8229263
57	0xc007ee01	-2.1239016
58	0xbf4ad519	-0.7923141
59	0xc00b1b8b	-2.173556
60	0xbff20df9	-1.8910514
61	0x3f9c4772	1.2209303
62	0x4005cda2	2.0906758
63	0x3ff69168	1.9263124
64	0x3fd7302b	1.6811575
65	0x3f2fd8d3	0.6869022
66	0xbfa10e32	-1.2582457
67	0xbf06a9d1	-0.5260287
68	0xbea00879	-0.31256464
69	0x3eabdf81	0.33568957
70	0x3f8c9208	1.0982065
71	0xbe2770c4	-0.1635161
72	0x3fce1776	1.610091
73	0x3e2887f2	0.16458109
74	0xbec0ae4a	-0.37632972
75	0x3e45aa78	0.1930331
76	0x3f0b983b	0.5452916
77	0x3f8be7c9	1.093011
78	0xbdd6f301	-0.10495568
79	0x3d278234	0.040895656
80	0xbfe76a14	-1.8079247
81	0x3d0435ee	0.032277994
82	0x3bffdd46	0.0078083603
83	0xbef240e0	-0.4731512
84	0xbf3a9ba2	-0.72893727
85	0xbf7db848	-0.99109316
86	0xbf608cdd	-0.8771494
87	0x3dbbda42	0.09172489
88	0x3d12258b	0.035680335
89	0x3d469319	0.048480127
90	0x3f8c7f43	1.0976337
91	0xbfb1d912	-1.389437
92	0xbfc37d36	-1.5272586
93	0xbe8d6885	-0.27618805
94	0x3e81c379	0.25344446
95	0xbf12dfdb	-0.57372826
96	0x3f5b01e5	0.85549766
97	0x3e0a2e87	0.13494311
98	0x3f09a9af	0.5377454
99	0xbfab7a54	-1.3396707
100	0xbe9fb1fe	-0.31190485
101	0x3dc1327c	0.09433457
102	0x3e5e432c	0.21705312
103	0x3db8b2b0	0.09018457
104	0xbf3c9b75	-0.7367471
105	0xbf2328cf	-0.63734144
106	0xbf6a58b5	-0.91541606
107	0xbfaf08a2	-1.367451
108	0xbeabc846	-0.33551234
109	0xbf822087	-1.0166177
110	0xbef5704d	-0.4793724
111	0x3f9a76fc	1.2067561
112	0x3f3ba790	0.73302555
113	0x3e04374e	0.12911722
114	0xbf93c67e	-1.154495
115	0x3f446e61	0.76730925
116	0xbf9f24ef	-1.2433146
117	0x3f1cb6f4	0.61216664
118	0x3ed0eb2c	0.40804422
119	0xbf9dc404	-1.2325444
120	0x3ff232f1	1.8921796
121	0xbf29aa64	-0.6627562
122	0xbf8a75d4	-1.0817208
123	0xbe6c4422	-0.23072866
124	0xbef033b7	-0.46914455
125	0xc000e392	-2.0138898
126	0xbdce761b	-0.100811206
127	0xbf1757aa	-0.5911814
128	0xbea07d20	-0.31345463
129	0xbd4b29dd	-0.04960047
130	0x3e9cf5cd	0.3065628
131	0xbe2824ae	-0.16420242
132	0x3eb9209a	0.36157686
133	0xbeb388ef	-0.3506541
134	0xbea83435	-0.3285233
135	0xbe4714bf	-0.19441508
136	0x3e43965f	0.19100331
137	0x40203753	2.5033767
138	0xbf689407	-0.9085087
139	0xbf41bf19	-0.75682217
140	0xbf8540f8	-1.0410452
141	0xbe2ebff2	-0.17065409
142	0x3d5626dd	0.052283157
143	0x3e946d11	0.2898946
144	0xbebbf5ac	-0.3671087
145	0xbee38dfd	-0.44444266
146	0xbf149591	-0.5804072
147	0x3f9f3d33	1.2440552
148	0x3ffd7703	1.9801944
149	0xbe9af1fb	-0.3026274
150	0xbfced67c	-1.6159205
151	0xbd717e3b	-0.058958273
152	0x3f0e84cd	0.5567139
153	0x3daa1c4e	0.0830618
154	0x3ed57bc5	0.4169599
155	0xbeb10e09	-0.3458102
156	0x3dbc7895	0.09202687
157	0xbe792f70	-0.24334502
158	0xbe80708d	-0.2508587
159	0xbd8bda7e	-0.068287835
160	0xbe53587b	-0.20639221
161	0xbed3d4c9	-0.4137328
162	0x3e2db4c3	0.16963486
163	0xbe92c3f1	-0.28665116
164	0x3f033027	0.5124535
165	0xbdb9cfa2	-0.09072806
166	0x3d43c56c	0.047795698
167	0xbf101a18	-0.56289816
168	0x3ee3da09	0.44502285
169	0xbf0eadf7	-0.557342
170	0x3e51ff4f	0.20507549
171	0xbeaabd78	-0.33347678
172	0x3d0cdc05	0.034389514
173	0x3eb1e480	0.34744644
174	0xbc0b160f	-0.008489146
175	0xbeb5cd1d	-0.35508052
176	0xbf157932	-0.58388054
177	0xbeb4f48d	-0.35342827
178	0x3d46fdfc	0.048582062
179	0x3fcb40f6	1.58792
180	0x3fec3e27	1.8456467
181	0x3e880335	0.26564947
182	0xbfb6943d	-1.4263989
183	0xbe6c26de	-0.23061702
184	0x3e58709b	0.21136706
185	0xbdc1236d	-0.09430585
186	0xc029f52e	-2.6555896
187	0x3fa9627c	1.323318
188	0x3e9f1774	0.3107258
189	0xbe59f7ab	-0.21285884
190	0x3edb8946	0.4287817
191	0xc01b0952	-2.4224439
192	0xbf8f9b66	-1.1219299
193	0x3fb7bbe8	1.435422
194	0xbfe7b2e4	-1.8101468
195	0xbeaae76a	-0.3337968
196	0x3f7a7d69	0.9784761
197	0xbf414817	-0.75500625
198	0x3f9250b9	1.1430885
199	0xbf83b5f5	-1.0289904
200	0x3f8931dd	1.0718342
201	0xbff80346	-1.9375999
202	0x3f417aac	0.7557781
203	0xbfcd1e4f	-1.6024874
204	0x3fe6c17d	1.8027798
205	0xc0042c93	-2.0652206
206	0x3f985725	1.1901594
207	0x3fca8137	1.5820683
208	0x3faef4f0	1.3668499
209	0x3e5d3939	0.2160386
210	0xbfa139f4	-1.2595811
211	0xbdaf673f	-0.085646145
212	0x403f9b98	2.9938717
213	0x3fc13dab	1.5096945
214	0x3fb2c967	1.3967713
215	0x3fad95a2	1.3561289
216	0x3eb62057	0.35571548
217	0x3fd0c6c3	1.6310657
218	0x3ff896d2	1.9421027
219	0x4010f9b1	2.26524
220	0x3f29e50b	0.66365117
221	0x3e986ff0	0.29772902
222	0xbfd60dc9	-1.6722957
223	0xbfbc2243	-1.4697956
224	0x3b510ad6	0.0031897328
225	0xbed66560	-0.41874218
226	0x4012b3ca	2.2922235
227	0x3f318f9a	0.69359744
228	0xbfcf7ced	-1.6209999
229	0x3f97b505	1.1852118
230	0xbf546eaa	-0.8298136
231	0xbff35449	-1.9010097
232	0x3fa4d6ef	1.2878093
233	0xc0246f24	-2.5692835
234	0x3fc9f97b	1.577926
235	0x3f33a585	0.7017444
236	0x3ff57034	1.9174867
237	0xbf451c6e	-0.76996505
238	0xbfb022c7	-1.3760613
239	0x3f489df4	0.7836602
240	0xbe644bf7	-0.22294603
241	0x3fcdc702	1.6076357
242	0x3fd2ee12	1.6478903
243	0x3ec97b0e	0.39351696
244	0xbf0dca70	-0.5538702
245	0x3fada7a0	1.356678
246	0x401455e1	2.3177416
247	0x3f353ca9	0.70795685
248	0xbf0129fb	-0.5045468
249	0x3f8d3cab	1.1034139
250	0x3fc13ac9	1.5096065
251	0x3f3f92d4	0.74833417
252	0xbe8aec2c	-0.2713331
253	0xbdbe2a88	-0.09285456
254	0xbff11c7a	-1.8836815
255	0xc006d023	-2.1064537

actor.4.bias f4 [7]
0	0x3f0e50c8	0.5559201
1	0x3e062655	0.1310056
2	0x3decae05	0.11556629
3	0x3fc2d550	1.5221348
4	0x3ec787cf	0.389708
5	0x3f231627	0.63705677
6	0x3f205fc0	0.626461

critic.0.weight f4 [64, 16]
0	0x3e65c237	0.22437368
1	0x3e0a0522	0.1347852
2	0x3ed8df38	0.42357802
3	0xbf23ab7f	-0.6393356
4	0xbeb020b5	-0.34399953
5	0x3f484a0c	0.78237987
6	0x4037d872	2.8725858
7	0xbf27debe	-0.6557425
8	0xc042a633	-3.041394
9	0xbd5d8574	-0.05408235
10	0xbe91be7f	-0.2846565
11	0xbf0187c6	-0.505978
12	0xbe138be3	-0.14408831
13	0x3fb24976	1.3928668
14	0xbe1ba5e6	-0.15200004
15	0xbd916c5a	-0.071007445
16	0x40986773	4.762628
17	0x4016a42c	2.3537703
18	0x40ea2b57	7.3177905
19	0x3e2163fd	0.15760799
20	0x3f67dea0	0.90574074
21	0x3f2ec52f	0.6826963
22	0x408cdf54	4.4022617
23	0x3fdd5375	1.7291094
24	0x3ff2c4de	1.8966329
25	0x3f46dd82	0.77681744
26	0x3ea7be33	0.32762298
27	0x3f0a4145	0.54005843
28	0x3fc5e3b1	1.5460111
29	0x4004ab25	2.0729458
30	0xbd1b6df1	-0.037946645
31	0xbec7cc85	-0.39023224
32	0xbfebfb56	-1.8436077
33	0x401d1118	2.4541683
34	0x4020e747	2.514116
35	0xbcc5070d	-0.024051214
36	0x3c2525d3	0.010079819
37	0x3f3a8995	0.72866184
38	0xbf8b084a	-1.0861905
39	0xbeb78590	-0.35844088
40	0x3f8e78e0	1.1130638
41	0x3f8e247c	1.1104884
42	0x3f6d5a6a	0.92716086
43	0x3f77c389	0.9678274
44	0xbfa9f632	-1.3278258
45	0xbd1c4d6d	-0.038159776
46	0x3d810958	0.0630061
47	0x3dcc6252	0.099796906
48	0xbe143b1c	-0.14475673
49	0xbf65fa33	-0.898349
50	0x3ef3f978	0.47651267
51	0x3f36088c	0.7110679
52	0xbf0ea65f	-0.5572261
53	0xbe2462b7	-0.16053282
54	0x40464c9e	3.0984263
55	0x3f8397b2	1.0280669
56	0xbeb4b13c	-0.3529147
57	0xbd051e72	-0.032499738
58	0xbc48502b	-0.012226145
59	0x3d40e26c	0.047090933
60	0xc0032acc	-2.049487
61	0x3f70d56c	0.94075656
62	0x3e86e7ea	0.2634881
63	0x3e8d12b8	0.27553344
64	0x3ed6991d	0.4191369
65	0xbe63995e	-0.22226474
66	0xbd69d6bc	-0.057089552
67	0xbfbf5343	-1.4947284
68	0x3f85a06e	1.0439584
69	0x3ef10121	0.47071174
70	0x3f452234	0.77005315
71	0xbfaa7005	-1.3315436
72	0xc0021e25	-2.0330899
73	0x3f504773	0.8135902
74	0xbf11b8c2	-0.56922543
75	0xbf00dfac	-0.50341296
76	0x3f4cff83	0.8007738
77	0xbf4224ef	-0.75837606
78	0x3d39097a	0.045175053
79	0x3e3cac18	0.18425024
80	0xbfc66a47	-1.5501183
81	0x3f4705f3	0.7774345
82	0x3f5464e4	0.82966447
83	0xbecf2e34	-0.40464938
84	0xbee25d2d	-0.44211712
85	0x3eea9e21	0.45823768
86	0xc0869e77	-4.206844
87	0xbf5ef4f4	-0.8709252
88	0x3f22abd4	0.6354344
89	0x3c87a696	0.016558927
90	0x3e7a43f3	0.24439983
91	0x3d9dcf08	0.07705504
92	0xbfaae663	-1.3351558
93	0x3f6c3f9d	0.92284566
94	0x3e7cf2c0	0.24701977
95	0x3e08e2d1	0.13367774
96	0x3f0ef844	0.55847573
97	0x3e268c7d	0.1626453
98	0xbedc6750	-0.4304757
99	0xbd88692f	-0.06660687
100	0xbf2827ae	-0.65685546
101	0xbfe8a417	-1.8175076
102	0xbfa82696	-1.3136775
103	0xbf043f77	-0.5165934
104	0xbf0c3cbb	-0.5478017
105	0x3fee9588	1.8639383
106	0x3f8e5185	1.1118628
107	0x3f4b9129	0.7951837
108	0xbfb17d01	-1.3866273
109	0xbfd1c57a	-1.638839
110	0x3e257c63	0.16160731
111	0x3f6cb5d0	0.92464924
112	0xbfda324b	-1.7046598
113	0xc0914295	-4.5393777
114	0xc04cbe97	-3.1991327
115	0xbef4b0af	-0.4779105
116	0xbeb6bab2	-0.35689312
117	0xbfc07d2a	-1.5038197
118	0x3e99a573	0.3000904
119	0x403e230c	2.970889
120	0x40a16f7a	5.044858
121	0x3eaa6a16	0.33284062
122	0x3f8922d8	1.0713758
123	0x3f40a173	0.7524635
124	0xbf740507	-0.9532017
125	0x3f28d378	0.65947676
126	0xbd80aa38	-0.06282467
127	0x3f95018b	1.1641096
128	0x3f85684b	1.0422453
129	0x3fe07dd7	1.7538403
130	0x3ec26e69	0.3797486
131	0x3f908c39	1.1292793
132	0x3f6002e6	0.8750442
133	0x3faee0cf	1.3662356
134	0xc05093a3	-3.259011
135	0xc00c4eb2	-2.1923032
136	0xbf11b855	-0.56921893
137	0xbf3963a8	-0.7241769
138	0xbf542c3c	-0.82879996
139	0xbef5341e	-0.47891325
140	0x3f95d57f	1.1705779
141	0x3f4ffbcd	0.8124359
142	0xbdc60c41	-0.09670306
143	0xbfa4a3c0	-1.2862473
144	0xbf10531f	-0.5637683
145	0xbea35eca	-0.31908256
146	0x3e6a326d	0.22870798
147	0xbf3b63ff	-0.73199457
148	0x3f3e9189	0.7444082
149	0x3f299a8f	0.6625146
150	0xbe8af4b7	-0.27139828
151	0xc05e61d9	-3.4747221
152	0xc0896611	-4.2937093
153	0x3c63aec3	0.013896647
154	0x3e61e412	0.22059658
155	0xbe38d01d	-0.18048139
156	0xc01e26c9	-2.4711173
157	0xc0555a5d	-3.3336403
158	0x3d726f5e	0.05918824
159	0x3f640d09	0.8908239
160	0x3d7e772e	0.062125377
161	0xbf3cbf9f	-0.7372989
162	0x3f6d0c68	0.92597055
163	0xbe5f0c16	-0.21781954
164	0xbe611ad9	-0.21982898
165	0x3f1beb6d	0.60906106
166	0xc0baeaa3	-5.841142
167	0xbf5ce0e3	-0.8628065
168	0x4035c4e4	2.8401423
169	0xbd63eae1	-0.05564392
170	0x3f3f002d	0.74609643
171	0x3f892e38	1.071723
172	0xbf649758	-0.8929343
173	0x3f01c773	0.5069496
174	0x3e9d01b4	0.30665362
175	0xbef5638a	-0.47927505
176	0xbfe30daa	-1.7738545
177	0x3ef0832b	0.46975073
178	0x3e1938fe	0.14963147
179	0xbea58880	-0.32330704
180	0x3e2868b0	0.16446185
181	0x3fb0f4ee	1.3824747
182	0xbfddebca	-1.7337582
183	0xbf0e2d4a	-0.55537856
184	0x3d1b5503	0.03792287
185	0x3d57f1e4	0.05272092
186	0x3e9ea19f	0.30982682
187	0x3ee138ec	0.4398874
188	0xbf4ff3b7	-0.81231254
189	0x40061a65	2.095361
190	0x3e001490	0.12507844
191	0xbe211d61	-0.15733863
192	0xbf1f0bc8	-0.6212735
193	0xbee0e00b	-0.4392093
194	0xbfaf925b	-1.3716539
195	0x3f95e98d	1.1711899
196	0x4016b17e	2.3545833
197	0x40224826	2.5356536
198	0xc057cc79	-3.371855
199	0xc0066e94	-2.1004992
200	0xc02399cf	-2.5562627
201	0xbf81fa69	-1.0154544
202	0xbf8db20f	-1.1069964
203	0xbf83d8cb	-1.0300535
204	0xbfe2ddf8	-1.772399
205	0xbfaf2de6	-1.3685882
206	0xbe1a1324	-0.15046364
207	0xbecdc3cf	-0.40188453
208	0xbf6acbb7	-0.91717094
209	0x3f10d720	0.56578255
210	0xbf03e71f	-0.5152454
211	0xbf44173b	-0.76597947
212	0xbefd7d43	-0.4950963
213	0x3f7f72a5	0.9978431
214	0xbea9dcbd	-0.33176222
215	0xbeec0393	-0.46096477
216	0x3ddc962d	0.10770831
217	0x3f45ee8e	0.7731713
218	0x3e8901b1	0.26759103
219	0x3f268cd5	0.6505864
220	0xbf9b9356	-1.2154338
221	0x3fb51691	1.4147512
222	0x3e2351b7	0.1594914
223	0xbed33db6	-0.4125802
224	0x3f4ed8d5	0.8079961
225	0x3f3b3453	0.73126715
226	0x3f17fb5d	0.59367925
227	0xbe819dbc	-0.25315654
228	0x3f44dab8	0.7689624
229	0x3fa177ea	1.261472
230	0xbf30ff8a	-0.6913992
231	0xc037a9b9	-2.869734
232	0xc003c554	-2.058919
233	0xbee6d559	-0.45084646
234	0xbf7037be	-0.93835056
235	0xbed954d0	-0.4244752
236	0xbe8ea1ff	-0.27857968
237	0xc030c7d6	-2.762197
238	0xbed22d1f	-0.4105005
239	0xbf7f2183	-0.9966051
240	0x3f3b3bbf	0.7313804
241	0x3fc2e037	1.5224675
242	0xbfb853a2	-1.4400523
243	0xbe742a05	-0.23844154
244	0xbc17c6ec	-0.009263735
245	0x3f02cfe1	0.5109845
246	0xc0809ca6	-4.019122
247	0xbeb6b03e	-0.35681337
248	0x3f991961	1.196087
249	0xbe43afb8	-0.1911
250	0x3e9c0d22	0.3047877
251	0x3e96ae5c	0.294299
252	0xbf392e70	-0.72336483
253	0x3f98c40b	1.1934828
254	0xbc970abd	-0.018437738
255	0xbd953f9b	-0.072875224

critic.0.bias f4 [64]
0	0xbe3df16e	-0.1854913
1	0xbeb0b924	-0.3451625
2	0xbe567c32	-0.20945814
3	0x3d325d46	0.043545984
4	0x3e4b1ab6	0.19834408
5	0xbc915f78	-0.017745718
6	0x3f533977	0.8250956
7	0x3f7f54e0	0.99738884
8	0xbfafabc1	-1.372429
9	0x3f288504	0.65827966
10	0xbf141a5c	-0.5785272
11	0xbee35da1	-0.4440737
12	0xbf0b49e6	-0.54409635
13	0x3d99bd74	0.075068384
14	0xbf43c2fa	-0.76469386
15	0x3cd1efac	0.02562698
16	0x3f82c7f7	1.0217274
17	0xbe65ea8a	-0.22452751
18	0x3f2caa4b	0.67447346
19	0x3e071c17	0.13194309
20	0x3d4d7169	0.050156984
21	0xbe53329c	-0.20624775
22	0x3efec53c	0.49759853
23	0x3e96466c	0.29350603
24	0xbec345d7	-0.3813922
25	0xbf74a318	-0.9556136
26	0xbfb31ff6	-1.3994129
27	0x3e3f169f	0.18660973
28	0xbe5cab52	-0.21549729
29	0x3f0864c4	0.53278756
30	0xbf99835d	-1.1993214
31	0xbefb64e1	-0.49100402
32	0xbd52c9e7	-0.05146208
33	0xbe998e9b	-0.29991612
34	0x3edea0d3	0.43482074
35	0x3e46ca27	0.19413052
36	0xbf07e093	-0.5307705
37	0x3d2482c1	0.04016376
38	0xbeeab675	-0.4584233
39	0xbf477bf2	-0.779235
40	0x3e3df316	0.18549761
41	0x3ed32733	0.41240844
42	0x3e130bab	0.1435992
43	0xbeb341dc	-0.35011184
44	0xbf1b1fc6	-0.6059536
45	0x3ef3f6cf	0.47649238
46	0x3ed6a86a	0.41925365
47	0x3ede1fa5	0.43383518
48	0x3f6c2dcf	0.922574
49	0xbd2a6785	-0.04160263
50	0x3ed35bf7	0.412811
51	0xbf831830	-1.0241756
52	0xbe1c074f	-0.15237163
53	0xbee58a37	-0.44832012
54	0xbee31d47	-0.44358274
55	0x3fbcb76e	1.4743478
56	0x3ef1b7ae	0.4721045
57	0xbf00a5fc	-0.5025327
58	0x3eb71be9	0.3576348
59	0xbfc981a6	-1.574269
60	0x3b67d5b1	0.0035375173
61	0xbf638b5a	-0.8888451
62	0xbf5166f2	-0.8179771
63	0xbf26ae03	-0.6510927

critic.2.weight f4 [64, 64]
0	0x3f034890	0.51282597
1	0x4006f055	2.1084187
2	0x3fe6e901	1.8039857
3	0x3edf75b7	0.43644497
4	0x3e1634e8	0.1466862
5	0xbe8ba6cb	-0.2727569
6	0x3e6824a8	0.22670233
7	0xbfad7f60	-1.3554497
8	0xbf14a480	-0.5806351
9	0xbe9de595	-0.3083922
10	0x3f71fc1a	0.945253
11	0x3f66cfa1	0.90160567
12	0x3e4f3bf1	0.2023771
13	0x3eee5601	0.4654999
14	0x3e13869a	0.14406815
15	0x3f1155c5	0.567715
16	0xbf69aa25	-0.91275245
17	0xbebefb55	-0.37301126
18	0xbe38ba7f	-0.18039893
19	0x3f21ee4f	0.63254255
20	0x3ebcc5ed	0.36869755
21	0x3f316d26	0.6930717
22	0xbd36ef00	-0.044661522
23	0xbed00fe1	-0.40637115
24	0x3f122d76	0.5710062
25	0x3f845cc9	1.0340816
26	0x3ef791af	0.48353335
27	0xbe94b2cc	-0.2904266
28	0x3f667d7b	0.9003522
29	0xbf842002	-1.0322268
30	0x3e4ed398	0.20197904
31	0xbf21978e	-0.6312188
32	0x3dbf444a	0.09339197
33	0x3f21ce71	0.6320563
34	0x3f0ed714	0.55796933
35	0x3a536ff0	0.0008065691
36	0xbd409de3	-0.047025573
37	0xbe824851	-0.25445798
38	0xbf2f865f	-0.6856441
39	0x3f63e177	0.8901591
40	0x3e4ca641	0.19985296
41	0xbf1f466e	-0.6221684
42	0x3ead145a	0.3380459
43	0x3e220fe9	0.15826382
44	0x3f5ebca9	0.8700662
45	0xbf080506	-0.53132665
46	0xbf7610b8	-0.9611926
47	0x3eea8918	0.4580772
48	0x4006ed8e	2.1082492
49	0x3f167f48	0.58787966
50	0xbeedaadc	-0.46419418
51	0x3fb39f14	1.4032922
52	0x3fcd2eea	1.6029942
53	0x3e216b12	0.157635
54	0x3f1e0fb1	0.61742693
55	0xbea26700	-0.31719208
56	0xbe8ed8fa	-0.27899915
57	0x3ed31467	0.41226503
58	0x3f054006	0.52050817
59	0x4040d079	3.0127242
60	0x3f7d4004	0.98925805
61	0xbda5b61b	-0.080913745
62	0x3f459d82	0.7719346
63	0xbf6c27b3	-0.92248076
64	0x3ede9b1e	0.4347772
65	0x3fbeb48a	1.4898846
66	0xbf5d9d1e	-0.86567867
67	0x3dcd0587	0.1001082
68	0x3ea48024	0.32129014
69	0xc0144f4c	-2.31734
70	0xbe2eda74	-0.17075521
71	0xbe690e5b	-0.22759382
72	0x3ea87c42	0.329073
73	0x3f029e98	0.51023245
74	0xbeff054b	-0.49808726
75	0xbf906402	-1.128052
76	0x3ecc9fcf	0.39965674
77	0xbff06052	-1.8779395
78	0xbe4b4a45	-0.1985255
79	0xc023c9f9	-2.5592024
80	0xbf02791a	-0.50966036
81	0x3dfd9080	0.12381077
82	0xbeb7be7f	-0.35887524
83	0x3e4362a8	0.19080603
84	0xbf40db9d	-0.75335103
85	0x3e8c252e	0.27372116
86	0x3f84eeda	1.0385392
87	0xbee4d4af	-0.44693515
88	0xbf39d4a1	-0.7259007
89	0x3f083c43	0.5321695
90	0xbe1580f1	-0.14599968
91	0xbf7b77dd	-0.9822977
92	0x3e986f15	0.2977225
93	0x3f4cbb45	0.7997325
94	0x3f2933f5	0.66094905
95	0xbe8441d7	-0.25831482
96	0xbe5f15a0	-0.21785593
97	0xbf4a32e0	-0.7898388
98	0xbf848135	-1.0351931
99	0xc00f4d3e	-2.2390895
100	0xbe8c39c1	-0.27387813
101	0x3fecf81b	1.8513216
102	0xbdaab62e	-0.08335529
103	0x3f8a1894	1.0788751
104	0x3f666fcc	0.9001434
105	0xbe08c669	-0.13356937
106	0xbfa4d41a	-1.2877228
107	0x3f70d35a	0.94072497
108	0xbe082e5f	-0.13298939
109	0xbed704c5	-0.41995826
110	0xbf6dbe82	-0.92868817
111	0xbff292cf	-1.8951052
112	0x3f773da8	0.96578455
113	0xbe9348bc	-0.2876643
114	0xbf0c71da	-0.54861224
115	0x3eb0dd92	0.34544045
116	0x3e367092	0.1781638
117	0xbefaa83b	-0.48956475
118	0x3ee698a3	0.45038328
119	0x3f0747ab	0.5284373
120	0xbe3ad41e	-0.18244979
121	0xbf777942	-0.966694
122	0xbf4090c8	-0.7522092
123	0x3e858879	0.26080683
124	0xbec76a80	-0.3894844
125	0x3ffa04c3	1.9532703
126	0x3e3babdd	0.1832728
127	0x3fc4cceb	1.5375036
128	0xbf84b1ba	-1.0366738
129	0xbe8877e5	-0.26653972
130	0xbfef90f6	-1.8716114
131	0xbf1e9bfa	-0.6195675
132	0x3eea4a1b	0.45759663
133	0xbfaee55e	-1.3663747
134	0xbd5dade8	-0.054120928
135	0x3f329a1e	0.69766414
136	0xbe125bd7	-0.14292847
137	0x3ea5983e	0.32342714
138	0x3f7eabe2	0.9948102
139	0xbee37d20	-0.444314
140	0xbed476fe	-0.41497034
141	0xbf8f1d48	-1.1180811
142	0xbe986054	-0.29760993
143	0x3f0b1860	0.5433407
144	0xbe508c8d	-0.20366116
145	0xc02ca432	-2.6975217
146	0x3faa4196	1.3301265
147	0x3ebc36c0	0.3676052
148	0x3e980e54	0.29698431
149	0xbf3c7a75	-0.73624355
150	0x3fddbb98	1.7322874
151	0xbf7026b6	-0.9380907
152	0xbe752440	-0.2393961
153	0x3da48c86	0.08034615
154	0xbe8e0e12	-0.2774511
155	0x3e37db80	0.17954826
156	0xbf03af53	-0.514394
157	0x3f2fc2ab	0.68656415
158	0xbe8dd000	-0.27697754
159	0xbe053677	-0.13009058
160	0x3e639ac8	0.22227013
161	0xbe85a3ae	-0.2610144
162	0x404c9a98	3.1969357
163	0xbeed46b8	-0.46343017
164	0x3e396ff9	0.1810912
165	0xbdff5e25	-0.124691285
166	0xbe7681f3	-0.24073009
167	0x3f6c91d2	0.92410004
168	0x3f2418e8	0.64100504
169	0x3f7d9af2	0.9906455
170	0x3f0ff532	0.56233513
171	0x3e3a2f83	0.18182187
172	0xbe8e4776	-0.27788895
173	0xbf961794	-1.1725945
174	0x3f881415	1.0631129
175	0x3f1ccfed	0.6125477
176	0xbefa7864	-0.48919976
177	0xbeb59c7e	-0.35470957
178	0xbed4bd22	-0.41550547
179	0x3e08a954	0.13345844
180	0xbefbef04	-0.49205792
181	0xbeb06470	-0.34451628
182	0xbf6c9352	-0.9241229
183	0x3f8fc1cd	1.1231018
184	0x3eb203e0	0.3476858
185	0x3e8a1804	0.26971447
186	0x3fab40f4	1.3379197
187	0xbfce53b7	-1.6119298
188	0x3f388dc2	0.72091305
189	0x3e8a4e2a	0.2701276
190	0xbf3bdcda	-0.7338387
191	0x3f0777e5	0.5291732
192	0x3f484738	0.7823367
193	0xbfd27f1d	-1.6445042
194	0x3f76a131	0.9633971
195	0x3e149b87	0.14512454
196	0x3e56c759	0.20974483
197	0x3f07d52d	0.53059655
198	0x3d35d048	0.044388086
199	0xbf7a1e6a	-0.9770266
200	0x3d6112fd	0.05494975
201	0xbefafb0d	-0.49019662
202	0x3f10fd2b	0.56636304
203	0x3e87f9bf	0.2655773
204	0x3f20ed10	0.6286173
205	0x3f696628	0.91171503
206	0x3d7be581	0.06149817
207	0xbe17eaaf	-0.14835618
208	0xbd5f1982	-0.054467686
209	0x3f6b01da	0.917997
210	0xbfa1e3c4	-1.2647634
211	0xbe82d54b	-0.25553355
212	0x3d9d6485	0.07685188
213	0xbe3c9881	-0.1841755
214	0xbf100093	-0.56250876
215	0x3f14e0fb	0.5815579
216	0x3f18960e	0.59603965
217	0x3f9737ea	1.1813939
218	0x3e781bac	0.24229306
219	0xbeb8c4c7	-0.3608763
220	0xbd9ec055	-0.07751528
221	0x3edba322	0.42897898
222	0x3f3abbff	0.7294311
223	0xbe9992d9	-0.29994848
224	0xbe925cdb	-0.28586468
225	0x3ef2f682	0.47453696
226	0xbfa28f47	-1.2699975
227	0xbf445610	-0.7669382
228	0xbf0e0f02	-0.5549165
229	0x3e7e8818	0.24856603
230	0x3d539dc3	0.051664125
231	0xbe689be6	-0.2271572
232	0x3f777e11	0.9667674
233	0xc01eeaa6	-2.4830718
234	0xbeab9e4e	-0.33519214
235	0x3f0c44c3	0.5479242
236	0x3f464aa8	0.77457666
237	0x3f35e932	0.7105895
238	0xbf1d1a76	-0.613685
239	0xbf53acfd	-0.82685834
240	0xbed57f27	-0.41698572
241	0xbf2134d9	-0.62971264
242	0xbe156f09	-0.14593138
243	0xbf26be6b	-0.65134305
244	0xbfb48dcd	-1.4105774
245	0x3cf6b2e6	0.030114602
246	0x3f0504d8	0.51960516
247	0xbf920fbf	-1.1411055
248	0xbf399ad0	-0.7250185
249	0xbfa4470d	-1.2834183
250	0xbf93423b	-1.1504587
251	0xbfb826d2	-1.4386847
252	0xbeed4d7e	-0.46348184
253	0xbf0029fb	-0.5006406
254	0xbe2db547	-0.16963683
255	0x3c7705f2	0.015077101

critic.2.bias f4 [64]
0	0xbf605dcb	-0.87643117
1	0xbf627186	-0.88454473
2	0x3f43460f	0.76278776
3	0x3e9affa1	0.30273154
4	0x3d14f4fe	0.036366455
5	0xbf2d050f	-0.67585844
6	0x3ee252c7	0.4420378
7	0x3ee4e961	0.44709304
8	0xbf213737	-0.62974876
9	0xbe5f8796	-0.21829066
10	0x3e89c1a1	0.2690554
11	0xbd3fee21	-0.046857957
12	0xbce6b61d	-0.02816301
13	0xbefdb19d	-0.4954957
14	0x3f82cfd3	1.0219673
15	0xbe79a0bc	-0.24377722
16	0xbdb1e47b	-0.08686157
17	0x3f25db56	0.64787805
18	0xbf86ba5a	-1.052562
19	0x3efe7be4	0.49703896
20	0xbf1034c8	-0.5633054
21	0x3f12f0a7	0.57398456
22	0x3ede79a9	0.43452194
23	0x3e5dba7c	0.2165317
24	0x3e41a69e	0.18911216
25	0xbf30bf87	-0.6904225
26	0x3c934f04	0.017982014
27	0x3f144c18	0.5792861
28	0x3e9e5efb	0.3093184
29	0xbefd0c8a	-0.4942363
30	0x3e7bacc6	0.24577627
31	0xbe8db9b5	-0.27680746
32	0x3dcf0f70	0.10110366
33	0xbe3e137e	-0.18562123
34	0x3e302d5b	0.17204802
35	0xbef73960	-0.4828596
36	0x3f083151	0.5320025
37	0xbed4a007	-0.4152834
38	0x3ed0c63c	0.4077624
39	0xbf05fe86	-0.52341497
40	0x3f3cd197	0.7375731
41	0x3e17d8dd	0.1482882
42	0xbe40805c	-0.18798965
43	0x3e6f8d1a	0.2339367
44	0xbf4930fe	-0.7859038
45	0xbf0ddabd	-0.55411893
46	0xbd548463	-0.051884066
47	0xbdc1248c	-0.09430799
48	0xbdd67b8f	-0.10472786
49	0x3ca6e64f	0.020373492
50	0xbd9c1af0	-0.076223254
51	0xbef56c09	-0.47933987
52	0xbd17c0b9	-0.03704903
53	0x3ef8577f	0.48504254
54	0x3f01f0a3	0.5075781
55	0x3dbdbec6	0.09264903
56	0xbef02be1	-0.46908477
57	0x3f1fd54a	0.6243483
58	0xbb9f3cea	-0.0048595564
59	0x3f0a28d4	0.5396855
60	0xbe7e17db	-0.24813788
61	0x3e3acbaf	0.18241762
62	0xbd660c06	-0.05616381
63	0x3d867b02	0.06566431

critic.4.weight f4 [1, 64]
0	0x3f571fb2	0.8403274
1	0xbf52050f	-0.8203897
2	0xbf0fc550	-0.5616045
3	0xbf14019e	-0.5781497
4	0xbf3ac3de	-0.7295512
5	0x3f075bc9	0.5287443
6	0xbf81d65c	-1.0143542
7	0xbf19400e	-0.59863365
8	0xbf4b4216	-0.79397714
9	0x3f2414ce	0.64094245
10	0x3f215acb	0.63029164
11	0xbee2ee34	-0.4432236
12	0x3e4d91e3	0.20075183
13	0xbea6bb64	-0.32564843
14	0xbf29945b	-0.66242
15	0x3ec614f0	0.3868785
16	0xbeb48fef	-0.35266063
17	0xbf145fcb	-0.5795867
18	0x3edb5c57	0.42843887
19	0x3ef84a51	0.484942
20	0xbf4afdce	-0.79293525
21	0x3ede8dac	0.43467462
22	0xbf215e8f	-0.6303491
23	0x3e829e62	0.25511461
24	0xbefb5fe6	-0.49096602
25	0x3f3f5176	0.74733675
26	0x3ef1113a	0.47083455
27	0x3f52e2d0	0.8237734
28	0xbf00fe8e	-0.5038842
29	0xbf260052	-0.6484424
30	0x3ecdccc0	0.40195274
31	0x3f297ae1	0.66203123
32	0xbf2b864f	-0.67001814
33	0x3ed7b612	0.42131096
34	0xbed9a876	-0.42511338
35	0x3f3adec9	0.72996193
36	0x3f4c18de	0.79725444
37	0x3f03fc7d	0.5155714
38	0xbefd892f	-0.49518725
39	0xbed7b51b	-0.4213036
40	0xbf05c2db	-0.5225045
41	0xbf0aa0cb	-0.541516
42	0x3f579e59	0.84225994
43	0x3ede8c4b	0.4346641
44	0x3f3481a0	0.7051029
45	0x3f1449d8	0.57925177
46	0xbf447133	-0.7673523
47	0x3eca0816	0.39459294
48	0xbf0902f2	-0.5352012
49	0xbf01a29d	-0.50638753
50	0x3ebfc11a	0.37452012
51	0x3f483a2f	0.7821378
52	0x3ef08b8d	0.4698147
53	0xbee1e48f	-0.4411969
54	0x3edc24c4	0.429968
55	0x3ec68081	0.38769916
56	0xbf2a8a84	-0.6661761
57	0xbf17e0d2	-0.59327424
58	0xbf4123e1	-0.7544537
59	0xbf12bc95	-0.57319003
60	0x3ed18b5d	0.40926638
61	0xbe451fa1	-0.19250347
62	0xbe938409	-0.28811672
63	0xbebc0e23	-0.36729535
