Model Results/ppoAMC2021-12-011999.pth (torch, 48311 bytes, 11 tensors)

actor.0.weight f4 [64, 16]
0	0x3fdb205a	1.7119248
1	0x3f293996	0.66103494
2	0x3e039ddc	0.12853187
3	0x3f1afb11	0.60539347
4	0x3ebdffcc	0.3710922
5	0x3ebb5908	0.36591363
6	0x3fa4d899	1.28786
7	0xbd996dcc	-0.07491645
8	0xbf211b60	-0.62932396
9	0xbeb6dc5a	-0.3571499
10	0xbeb5129b	-0.35365757
11	0xbe526f7b	-0.20550339
12	0xbf959561	-1.1686212
13	0xbe857ced	-0.26071873
14	0x3efdc488	0.49564004
15	0x3e595884	0.21225172
16	0x3f581ca2	0.8441869
17	0x3f893a30	1.0720882
18	0x3f0ff5f9	0.562347
19	0xbd1f332f	-0.03886717
20	0xbefe1401	-0.49624637
21	0xbd32b848	-0.043632776
22	0x3fcc1341	1.5943376
23	0xbfa6562b	-1.2995046
24	0xc0298d8b	-2.649264
25	0x3e5b4345	0.2141238
26	0x3e1faee9	0.15594067
27	0x3e9be89c	0.30450904
28	0x3ec65391	0.3873563
29	0xbe911b5d	-0.2834119
30	0xbf72e956	-0.9488729
31	0x3f4134e6	0.7547134
32	0x3fb335ba	1.4000771
33	0x3efb8d2e	0.4913115
34	0x3f129a67	0.5726685
35	0x3eb816ac	0.35954797
36	0x3e33b64f	0.17550014
37	0x3e15a4d5	0.1461366
38	0x3fc41eff	1.5321959
39	0x3f3c593a	0.7357365
40	0x3f9260eb	1.1435827
41	0x3f00e546	0.50349844
42	0x3f2976fb	0.66197175
43	0x3ef469f4	0.47737086
44	0xbe87c4f3	-0.26517448
45	0x3f512079	0.81690174
46	0xbf737c89	-0.951119
47	0x3eb48db0	0.3526435
48	0xbefed292	-0.49770027
49	0x3eca462b	0.3950666
50	0x3f1166cd	0.56797487
51	0x3f353ce8	0.7079606
52	0x3f18c6a8	0.59678125
53	0x3bf183e7	0.0073704603
54	0x404378f3	3.0542572
55	0x4082fea8	4.093586
56	0x40a20941	5.0636296
57	0x3f9828ee	1.1887491
58	0x3f4a38d0	0.7899294
59	0x3f78d751	0.97203547
60	0xbd8fb791	-0.070174344
61	0xbf85fb02	-1.0467227
62	0x3d0a65ff	0.033788677
63	0x3e2bd859	0.16781749
64	0x3fc037cc	1.5017028
65	0x3ec41b94	0.3830229
66	0xbd8eb2d4	-0.069677025
67	0xbe70daac	-0.23520917
68	0x3d9a7f8a	0.075438574
69	0xbefce803	-0.4939576
70	0x402a6bf4	2.662839
71	0x3ecc9ed9	0.3996494
72	0xbed3cbc8	-0.4136641
73	0x3e91d72f	0.28484485
74	0xbdf75cb7	-0.12078231
75	0xbe3e1a42	-0.18564704
76	0x3faf77c6	1.3708427
77	0xbf3f5833	-0.74743956
78	0xbf101e43	-0.56296176
79	0x3eb82725	0.35967365
80	0xbdb66877	-0.08906644
81	0xbf3c0f16	-0.7346052
82	0x3ec26a6d	0.3797182
83	0x3e1d0d88	0.15337193
84	0xbe2b4d93	-0.16728811
85	0xbf16aded	-0.5885914
86	0x3fe7073a	1.804908
87	0x404bf00f	3.186527
88	0x407b8e30	3.9305534
89	0x3eadaa99	0.33919218
90	0x3ea7b8b3	0.32758102
91	0xbcfed3c5	-0.031106839
92	0xbeeb9594	-0.46012557
93	0x3fddb4b6	1.7320774
94	0xbd8b5631	-0.06803549
95	0xbe217403	-0.15766911
96	0xbf71bfdc	-0.9443338
97	0xbe7972c7	-0.2436019
98	0xbf44031b	-0.7656724
99	0xbf61e6c1	-0.8824273
100	0xbe8eb15d	-0.27869692
101	0x3e220601	0.15822603
102	0x402a5c16	2.6618705
103	0x3ffdb846	1.9821861
104	0x3fdbedef	1.7181987
105	0x3f92c276	1.1465595
106	0x3f90d7ec	1.1315894
107	0x3f892c48	1.0716639
108	0x3fc99e79	1.5751487
109	0xbf6ed8e4	-0.932997
110	0x3f71d776	0.9446939
111	0x3f53c82e	0.82727325
112	0x3dfbbf81	0.12292386
113	0xbe17fea7	-0.14843236
114	0xbf95825f	-1.1680411
115	0x3c9be67b	0.0190308
116	0x3f9610ae	1.172384
117	0x3f400323	0.75004786
118	0xbf046a98	-0.5172515
119	0x3eff3e23	0.49852094
120	0x3f69d480	0.91339874
121	0xbe63d479	-0.2224902
122	0xbe676cc1	-0.2260008
123	0xbd336102	-0.043793686
124	0x3ff02580	1.8761444
125	0xbee9dfaf	-0.4567847
126	0xbee5cd1d	-0.44883052
127	0xbe841153	-0.25794467
128	0x402f87db	2.742667
129	0x3f14614d	0.5796097
130	0xbfad23b6	-1.3526523
131	0x3eaf0da8	0.34190106
132	0x3e7e06e0	0.2480731
133	0x3dc181eb	0.09448608
134	0x3f89172b	1.0710195
135	0x3cf0503d	0.029335136
136	0x3dbdcecb	0.09267958
137	0xbe84fecc	-0.25975645
138	0xbcb65b02	-0.022260193
139	0xbd6caacd	-0.057780076
140	0x3eaf82f0	0.34279585
141	0xbe797b67	-0.2436348
142	0x3e67f8ed	0.22653551
143	0xbe3ae5c3	-0.1825171
144	0xc0245adb	-2.5680454
145	0xc024aaa6	-2.5729156
146	0xbfdba679	-1.7160178
147	0xbf05fa80	-0.5233536
148	0x3dc0f8b6	0.09422438
149	0x3dccea33	0.100056075
150	0xc03031db	-2.753043
151	0x3fa1b6c1	1.2633897
152	0x40590cab	3.3913982
153	0x3dc782af	0.09741723
154	0x3eba1041	0.36340526
155	0x3ee43abf	0.4457607
156	0xbf24cb62	-0.6437284
157	0xbe099637	-0.13436209
158	0x3e0da159	0.1383108
159	0xbeb9e183	-0.36304864
160	0x3e17b6cd	0.14815827
161	0x3f936b42	1.1517107
162	0x3f27442c	0.653384
163	0x3f685a12	0.90762436
164	0x3f69b968	0.9129853
165	0x3f213709	0.629746
166	0x3ec434c0	0.38321495
167	0x3f9b5d65	1.2137877
168	0x3ffac2d2	1.9590704
169	0x3ed97562	0.42472368
170	0x3c66e507	0.01409269
171	0x3ed85f32	0.42260128
172	0x3f466965	0.7750457
173	0x3f045b80	0.5170212
174	0xbd87e5ad	-0.06635604
175	0x3d4e0744	0.050299898
176	0x3f65d579	0.8977886
177	0xbf0649b9	-0.5245624
178	0xbe2c2d00	-0.16814041
179	0x3e331adc	0.17490715
180	0x3d4c7e89	0.04992536
181	0xbf11bb22	-0.56926167
182	0x3f91010c	1.1328444
183	0x4054a14c	3.3223448
184	0x408e2ef7	4.443233
185	0x3f19daa0	0.6009922
186	0x3f076a3b	0.5289647
187	0x3f271775	0.6527017
188	0xbfa69559	-1.3014327
189	0x3e1eec29	0.15519775
190	0x3e8ee801	0.2791138
191	0xbd8c3f12	-0.06847967
192	0x3ed4f735	0.41594854
193	0xbd808d1c	-0.062769145
194	0xbe9ea9ec	-0.30989015
195	0x3e31461c	0.17311901
196	0xbd924318	-0.07141703
197	0xbf0f45b9	-0.55965763
198	0x3fdabff8	1.7089834
199	0x4006a2f5	2.103696
200	0x402bce30	2.6844597
201	0x3e99f2c0	0.30068016
202	0x3e998454	0.2998377
203	0x3e64175d	0.22274537
204	0x3f10f914	0.56630063
205	0x3ecd27f0	0.40069532
206	0xbecd647b	-0.40115723
207	0x3db1db66	0.08684425
208	0x3d1e59cd	0.03865986
209	0xbe413a44	-0.18869883
210	0xbdab586c	-0.083664745
211	0xbe69376c	-0.22775048
212	0x3edae09e	0.42749494
213	0xbbab6386	-0.00523037
214	0x400118a2	2.0171285
215	0x40886c16	4.263194
216	0x40ababc6	5.3647184
217	0x3f1a72bc	0.6033132
218	0x3f3bdc0e	0.7338265
219	0x3f343731	0.70396715
220	0xbf9c9a85	-1.2234656
221	0x3efa3df0	0.4887538
222	0xbf868838	-1.0510321
223	0xbe1b2566	-0.15150985
224	0x3e3c6b35	0.18400271
225	0x404154cc	3.0208006
226	0x406b5b3f	3.6774442
227	0x3c1207e4	0.008913014
228	0xbebfa849	-0.3743308
229	0xbec0edac	-0.3768133
230	0x40cd60f6	6.418086
231	0x40216ce6	2.5222716
232	0x3f27f0c4	0.65601754
233	0x3e1f5c9e	0.15562674
234	0xbf0108d0	-0.5040407
235	0xbefa8bb9	-0.48934725
236	0x3f51cf43	0.8195688
237	0xbea94bdb	-0.33065686
238	0xbef5ffc7	-0.48046705
239	0xbe6f9fb6	-0.23400769
240	0xbd9a2968	-0.07527429
241	0xbd509253	-0.050920796
242	0x3f056b09	0.5211645
243	0xbedbfaf6	-0.42964906
244	0x3d947692	0.07249178
245	0xbd98e9d3	-0.074664734
246	0x40bf2b98	5.9740715
247	0x40d86550	6.7623672
248	0x40ca1f3c	6.316313
249	0x3eb31cbb	0.34982857
250	0xbc987e7d	-0.018615002
251	0xbe2377ea	-0.15963712
252	0x3f8955c1	1.0729295
253	0x3f801410	1.0006123
254	0xbefab448	-0.4896567
255	0xbf339dea	-0.7016283

actor.0.bias f4 [64]
0	0x3e0d6f37	0.13811956
1	0x3ed12f3f	0.40856358
2	0x3ed9aa91	0.42512944
3	0x3ea05d78	0.3132131
4	0x3ef5dd6b	0.4802049
5	0xbebfac14	-0.37435973
6	0x3f42e066	0.76123655
7	0xbeacb583	-0.33732232
8	0x3c6b2447	0.014351911
9	0xbde03e11	-0.10949338
10	0xbe0f768c	-0.14010066
11	0xbbd251dc	-0.00641845
12	0x3df99b6d	0.12187848
13	0xbe03c4d9	-0.1286806
14	0xbe20a7c2	-0.15688995
15	0xbefda5c7	-0.4954054
16	0x3f4a06dc	0.78916717
17	0x3f0103b1	0.5039626
18	0xbee47a80	-0.4462471
19	0xbe227c6c	-0.15867776
20	0xbec93f06	-0.39305896
21	0x3e70e78f	0.23525833
22	0xbe99eceb	-0.30063567
23	0xbf4c702d	-0.79858667
24	0x3e465e7d	0.19371982
25	0x3e8f584c	0.27997053
26	0xbeea304c	-0.45739973
27	0xbee7a532	-0.45243222
28	0x3d8c8971	0.06862152
29	0x3edaeb6f	0.42757747
30	0x3c5126a5	0.012765561
31	0xbedef6c9	-0.43547657
32	0xbe1a5ebf	-0.15075205
33	0xbdb01190	-0.085971
34	0x3ebc02bd	0.3672084
35	0xbeed48ce	-0.46344608
36	0xbee79c31	-0.45236352
37	0x3da79758	0.081831634
38	0xbf1066d5	-0.5640691
39	0xbe75cbda	-0.24003544
40	0x3dc3f176	0.095675394
41	0xbf0d02df	-0.55082506
42	0x3e8ee8f6	0.2791211
43	0x3f205bb3	0.6263992
44	0x3dea5a74	0.11443034
45	0xbdd5701f	-0.10421776
46	0xbe01e461	-0.12684776
47	0x3eed7ca9	0.4638417
48	0xbf53bf56	-0.8271383
49	0x3ee1a2d6	0.44069546
50	0xbe2a5367	-0.16633378
51	0x3e9dfc11	0.30856374
52	0xbe8c89ba	-0.27448827
53	0x3e974fc5	0.29553047
54	0x3eb4193b	0.351755
55	0xbe135793	-0.14388876
56	0xbf08e081	-0.53467566
57	0xbdc3e209	-0.09564597
58	0x3df20e88	0.11819178
59	0xbef0e5ee	-0.47050422
60	0x3daf5eb8	0.08562988
61	0x3f00ed61	0.5036221
62	0x3e6752b2	0.2259014
63	0xbef98818	-0.48736644

actor.2.weight f4 [64, 64]
0	0xbe1fbdfd	-0.15599819
1	0xbf84c166	-1.037152
2	0xbf204b00	-0.6261444
3	0xbe843f96	-0.25829762
4	0xbf8348a9	-1.0256549
5	0xbe225c2f	-0.15855478
6	0xbe1cff2e	-0.15331718
7	0xbf94c77b	-1.1623377
8	0xbe59004d	-0.21191521
9	0xbdf26969	-0.11836512
10	0xbf25ea96	-0.64811075
11	0xbf289741	-0.65855795
12	0xbf0b9517	-0.5452437
13	0xbeaa0985	-0.33210388
14	0x3e9587b7	0.29205105
15	0xbf1735ac	-0.5906627
16	0x3e9c503d	0.30529967
17	0xbf062224	-0.52395844
18	0x3f79668c	0.974221
19	0x3f043ce1	0.51655394
20	0x3e64bffc	0.22338861
21	0xbf66b514	-0.90120053
22	0x3eec1ea5	0.4611713
23	0x3f8b6ef9	1.0893241
24	0x3d371fde	0.044708125
25	0xbfec23bb	-1.8448404
26	0x3f000b64	0.5001738
27	0x3f7d4c43	0.9894449
28	0x3f3b192f	0.730853
29	0xbe8f56b4	-0.27995837
30	0x3a0145d9	0.00049313676
31	0x3e21669e	0.15761802
32	0x3f2845b1	0.6573134
33	0x3d9352f2	0.07193555
34	0x3ed89dd8	0.42307925
35	0x387825f8	5.916317e-05
36	0x3d3ff9f9	0.046869252
37	0x3da360cf	0.07977449
38	0x3f2b6cb4	0.6696274
39	0xbef94d60	-0.48691845
40	0x3ed67726	0.41887778
41	0x3f72ddd6	0.94869745
42	0xbdfb57b1	-0.12272585
43	0x3d808ad4	0.06276479
44	0xbf0f471b	-0.55967873
45	0x3dcc646d	0.09980092
46	0xbf969c12	-1.1766379
47	0xbcfc1225	-0.03077037
48	0x3f9b7752	1.2145789
49	0xbe68618f	-0.22693466
50	0xbe577fc5	-0.21044834
51	0xbfaf2728	-1.3683825
52	0xbe71c34a	-0.23609653
53	0x3de11e3b	0.10992094
54	0xbf358689	-0.7090841
55	0x3f31f276	0.6951059
56	0x3d42a903	0.047524463
57	0xbe15287f	-0.1456623
58	0x3f534b96	0.8253721
59	0x3e9e2cf6	0.30893677
60	0x3e0db097	0.13836895
61	0xbef8d279	-0.48598078
62	0xbf021b3d	-0.5082281
63	0x3ecfc544	0.4058019
64	0xbf13abd7	-0.5768408
65	0x3cb400ba	0.021973003
66	0xbee18bcd	-0.44051972
67	0xbf48a7be	-0.78380954
68	0xbf06de2f	-0.52682775
69	0x3fc64b36	1.5491703
70	0x3f0b85d9	0.5450111
71	0xbf8a32e1	-1.0796777
72	0x3d1a46d3	0.0376652
73	0xbe8d5908	-0.27606988
74	0xbf96f64c	-1.1793914
75	0xbe08920e	-0.13336965
76	0x3ea0290f	0.31281325
77	0xbfc5224e	-1.5401094
78	0x3ec34dad	0.381452
79	0x3f493bfd	0.7860716
80	0xbfc2d359	-1.5220748
81	0xbbdb3635	-0.0066898116
82	0xbfc19631	-1.512396
83	0xbf61c7f1	-0.8819571
84	0x3e9e9579	0.30973414
85	0x3facf671	1.3512708
86	0x3d96c8ef	0.07362544
87	0x3e9679dc	0.29389846
88	0x3ea61fa1	0.32446006
89	0x3ec46724	0.3835994
90	0x3eb43477	0.35196277
91	0xbf3fc580	-0.74910736
92	0xbf999f54	-1.2001748
93	0xbeef517a	-0.4674185
94	0x3eaae85b	0.33380398
95	0x3d34b31f	0.044116136
96	0x3e2c411e	0.16821715
97	0x3eec794d	0.46186295
98	0xbf6bbca2	-0.92084706
99	0x3e0bdf16	0.1365932
100	0xbf98d37a	-1.1939538
101	0x3d7679bc	0.06017469
102	0x3f5f4ae8	0.8722367
103	0xbdd1e6ef	-0.10249125
104	0xbd3e0cd7	-0.046398964
105	0x3e9b3a32	0.30317837
106	0xbd1826a7	-0.037146237
107	0xbe1ac21d	-0.15113111
108	0xbf110b53	-0.56657904
109	0xbf006c01	-0.501648
110	0x3fac6165	1.3467222
111	0x3e158cbf	0.14604472
112	0xbd906637	-0.07050746
113	0xbf0e4fc0	-0.5559044
114	0xbec2cd8a	-0.3804744
115	0x3ecfd4f2	0.40592152
116	0x3f8d8c2a	1.10584
117	0xbf65c64e	-0.89755714
118	0x3f002e69	0.50070816
119	0x3f9615b7	1.1725377
120	0x3ec0ab8d	0.37630883
121	0xbd8ef530	-0.069803596
122	0xbfd1189f	-1.6335639
123	0xbec49bc8	-0.38400102
124	0x3e94e5be	0.2908153
125	0x3f4b73d2	0.794736
126	0xbf7d90c1	-0.99049
127	0x3d900ae2	0.07033326
128	0x3f44f79c	0.7694032
129	0xbdef94c7	-0.11698299
130	0x3dc101d1	0.094241746
131	0xbe5bedc8	-0.21477425
132	0xbf2e95dc	-0.6819742
133	0xbf4bd609	-0.79623467
134	0xbd1577f6	-0.036491357
135	0xbe9a4d64	-0.3013717
136	0x3f05c819	0.5225845
137	0xbdd67236	-0.10471003
138	0xbdfa73b4	-0.122291
139	0xbed9625a	-0.4245785
140	0xbf4228ab	-0.75843304
141	0xbd74874d	-0.059699345
142	0xbef67302	-0.4813462
143	0xbf947c93	-1.1600517
144	0x3e3f3ffa	0.18676749
145	0xbf62d1c8	-0.8860135
146	0x3f460ebb	0.77366227
147	0x3fad0fce	1.3520448
148	0x3f7f72f1	0.9978476
149	0xbf15930b	-0.58427495
150	0xbe8798d9	-0.264838
151	0x3e491e11	0.19640376
152	0x3fee6d2a	1.8627064
153	0xbeba0182	-0.36329275
154	0x3e8b15c1	0.27165034
155	0x3f81b794	1.0134149
156	0x3f1f65a5	0.6226447
157	0x3e1b07c4	0.15139681
158	0xbd9b56c8	-0.075849116
159	0x3e63d386	0.22248659
160	0xbeca57bc	-0.3952006
161	0xbe8d4653	-0.27592716
162	0xbeff0a10	-0.49812365
163	0x3f0317bb	0.51208085
164	0x3efc3550	0.49259424
165	0x3e80ee52	0.25181824
166	0xbe285a05	-0.1644059
167	0xbf533071	-0.8249579
168	0x3fc5261e	1.5402257
169	0x3f3e4c40	0.743351
170	0xbe5c65cb	-0.21523206
171	0x3ea7e0f2	0.32788807
172	0xbebd0446	-0.36917323
173	0x3e9294b0	0.28629065
174	0xbeae6d19	-0.3406761
175	0x3e5af765	0.21383436
176	0x3f7ee136	0.99562395
177	0x3e21a457	0.15785347
178	0x3f19a826	0.600222
179	0xbf6012e3	-0.8752882
180	0xbf1b0a8f	-0.60562986
181	0x3f2a0e30	0.664279
182	0xbf19f700	-0.6014252
183	0xbe136b34	-0.14396363
184	0x3f3fe09d	0.7495211
185	0x3c13fc36	0.0090323
186	0x3e8ae16b	0.27125105
187	0x3fafd471	1.3736707
188	0xbe836548	-0.2566321
189	0xbea4e9ae	-0.32209533
190	0xbf92bddb	-1.1464189
191	0x3e69e8ef	0.22842763
192	0xbe786a09	-0.24259199
193	0x3f359868	0.7093568
194	0x3fea42ed	1.8301674
195	0x3f031709	0.51207024
196	0x3f923314	1.1421838
197	0x3f076801	0.5289307
198	0xbe77beb1	-0.24193837
199	0xbf3f4d0d	-0.74726945
200	0x3c817113	0.015800988
201	0xbe612190	-0.2198546
202	0x3e41023b	0.18848507
203	0x3f0d2fe3	0.55151194
204	0x3ebce828	0.3689587
205	0x3fec7469	1.8473026
206	0x3ee8f65f	0.45500466
207	0x3fb2ac8d	1.3958908
208	0xbfcca2cf	-1.5987185
209	0x3de3d141	0.111238964
210	0xbc882a87	-0.016621841
211	0xbf2afa17	-0.66787857
212	0x3d0da9a7	0.03458562
213	0x3f03dff0	0.51513577
214	0xbf887459	-1.0660506
215	0xbe39e2c0	-0.18152905
216	0xbeb76f82	-0.3582726
217	0x3f9b5b77	1.2137288
218	0xbe8a7441	-0.2704182
219	0xbec97e25	-0.39354053
220	0xbf3da2d9	-0.7407661
221	0x3f96299b	1.1731447
222	0xbe5ecd2d	-0.21757956
223	0x3dcf36a1	0.101178415
224	0xbf847b2a	-1.0350087
225	0xbd662ae9	-0.056193266
226	0xbf6d6582	-0.92733014
227	0x3d9fe1e0	0.07806754
228	0x3daf9c32	0.08574714
229	0xbf36501a	-0.71215975
230	0xbf1df82f	-0.61706823
231	0xbe08ed05	-0.13371666
232	0x3f74931f	0.9553699
233	0xbee42a5e	-0.44563574
234	0x3f4b6338	0.7944827
235	0xbe46cf0c	-0.1941492
236	0x3ede276a	0.43389446
237	0x3ca7c9b7	0.020481927
238	0x3fcab4e4	1.5836453
239	0x3e3b8bdf	0.18315075
240	0xbece2b30	-0.40267324
241	0x3fd46b30	1.6595211
242	0xbd082a92	-0.033243723
243	0x3ec5a4bc	0.38602245
244	0x3f88778a	1.066148
245	0xbfbec601	-1.4904176
246	0x3ef461d6	0.47730893
247	0xbf8993ff	-1.074829
248	0x3db86c87	0.09005075
249	0x3d8c826a	0.06860812
250	0xbe8365dd	-0.25663653
251	0xbf144f03	-0.5793306
252	0xbd96db99	-0.07366104
253	0x3eaef462	0.34170824
254	0xbe981662	-0.29704577
255	0x3bcf3a3e	0.0063240817

actor.2.bias f4 [64]
0	0xbf1b2178	-0.60597944
1	0x3edef19a	0.43543702
2	0xbb372684	-0.002794654
3	0x3e2b33d6	0.16718993
4	0xbd4c8c65	-0.04993858
5	0xbe0589b6	-0.13040814
6	0xbebb9c24	-0.36642563
7	0x3d9c8abd	0.0764365
8	0xbd958b6e	-0.07301985
9	0xbe9461d6	-0.28980893
10	0x3ecd09ac	0.40046442
11	0x3f157abc	0.583904
12	0x3f0b0818	0.54309225
13	0xbf110198	-0.56643057
14	0xbe6554b3	-0.22395591
15	0xbeb8b729	-0.3607724
16	0xbe8a3992	-0.26997048
17	0x3f1c3ff6	0.61035097
18	0xbed69cfe	-0.4191665
19	0xbcdae4f5	-0.026720503
20	0x3f3e23bd	0.7427328
21	0xbea64327	-0.32473108
22	0xbf00aad5	-0.5026067
23	0xbdb6e542	-0.08930446
24	0xbea03a66	-0.31294554
25	0xbe3c0355	-0.18360646
26	0x3e54d0eb	0.20782821
27	0xbd139107	-0.03602698
28	0x3ef2252f	0.47293994
29	0xbed4c8a2	-0.4155932
30	0xbefb8891	-0.4912763
31	0xbdc2337d	-0.09482477
32	0xbe5741ac	-0.21021146
33	0x3ed75129	0.42054108
34	0xbdd35fd2	-0.10321011
35	0x3edb21cc	0.42799222
36	0xbf13dc38	-0.577579
37	0xbeabb721	-0.33538154
38	0x3e71107c	0.23541445
39	0xbdddea6b	-0.10835727
40	0x3eb91213	0.36146602
41	0xbe8d8ca3	-0.2764636
42	0x3edf4464	0.43606865
43	0xbe51d937	-0.20493017
44	0x3d9ebf17	0.07751291
45	0xbe23df1a	-0.16003075
46	0xbe8032eb	-0.25038847
47	0x3e9e0f59	0.30871084
48	0x3e4ef4cd	0.20210572
49	0xbe9d3a82	-0.307087
50	0xbf1865bd	-0.5953024
51	0xbd3a5af9	-0.045496915
52	0xbed914b2	-0.42398602
53	0x3ee091ab	0.43861136
54	0xbd6d2d2c	-0.057904407
55	0xbd589e03	-0.052885067
56	0xbd45c2fd	-0.04828166
57	0x3d6f2e27	0.058393624
58	0x3ca1952c	0.019724451
59	0x3e9ccd54	0.30625403
60	0x3ee56016	0.4479987
61	0x3ecbaf23	0.39782056
62	0xbeb36491	-0.35037664
63	0xbdfc8f31	-0.12331999

actor.4.weight f4 [7, 64]
0	0x3f9cb6a8	1.2243242
1	0x3f7b76ea	0.98228323
2	0xbe776064	-0.24157864
3	0xbf4915c2	-0.78548825
4	0x3fede4ab	1.8585409
5	0xc0147a56	-2.3199668
6	0x3f6b2301	0.91850287
7	0xc0054cbc	-2.0828085
8	0xc013ffc7	-2.3124864
9	0x40094228	2.1446629
10	0x3ff3f5eb	1.9059423
11	0x3f05c4c4	0.52253366
12	0x402f5640	2.7396393
13	0xbfcd175a	-1.6022751
14	0xbf9d4efd	-1.228973
15	0x3f2226b6	0.6334032
16	0xbf6da7fa	-0.92834437
17	0xbf44d625	-0.7688926
18	0xbfd35b36	-1.651221
19	0xbfe4b3a1	-1.7867318
20	0x3fc854de	1.56509
21	0x3fc4bb59	1.5369674
22	0xc003ff39	-2.0624526
23	0xc013f0e9	-2.311579
24	0xbf823a23	-1.0173992
25	0xbf9c140e	-1.219362
26	0x3fe17109	1.761262
27	0x3f2d174f	0.6761369
28	0xbfe311bc	-1.7739787
29	0xbf52b2f8	-0.82304335
30	0xbfa07733	-1.2536377
31	0x3fe3ec63	1.7806515
32	0x40015304	2.0206919
33	0xbf1453e4	-0.57940507
34	0x3fbb2eda	1.4623673
35	0xbf76d9c0	-0.9642601
36	0xbf570a43	-0.84000033
37	0x3f39e706	0.7261814
38	0xbe687f70	-0.22704864
39	0xbf189b5a	-0.5961205
40	0xbfbff7f8	-1.4997549
41	0xbfe5ca6a	-1.7952397
42	0x3fdc0548	1.7189112
43	0xbfb181d8	-1.386775
44	0x3fee8421	1.8634073
45	0xc013d057	-2.309591
46	0x3ff37a41	1.9021684
47	0xbfc80dd7	-1.5629224
48	0x3f9c50f2	1.2212203
49	0xc00d8ec2	-2.2118382
50	0x3fe2f352	1.7730505
51	0x3fc85b49	1.5652858
52	0xbf881cd1	-1.0633794
53	0xbf154288	-0.58304644
54	0x4023e87e	2.5610652
55	0x401bdf73	2.4355133
56	0xbfe1bc3e	-1.7635572
57	0xbfd70a92	-1.6800101
58	0xc01f20ae	-2.4863696
59	0xbff32299	-1.8994933
60	0xc01045e3	-2.2542655
61	0x3fe6c3f9	1.8028556
62	0x3f32d3a5	0.69854194
63	0x3fcd04e3	1.6017116
64	0xbeff4acc	-0.49861753
65	0xc038fe79	-2.8905318
66	0x3ffbfbce	1.968622
67	0xbf31fd7c	-0.6952741
68	0xbf27bc07	-0.6552128
69	0x3f18c80c	0.5968025
70	0x3f507455	0.8142751
71	0xbeadd5b1	-0.33952096
72	0xbf294440	-0.66119766
73	0xbf77bc23	-0.9677145
74	0xbfa33af0	-1.2752361
75	0xbf81e938	-1.0149298
76	0xbf12c433	-0.57330626
77	0xbdd703d9	-0.10498781
78	0x3e139e6b	0.144159
79	0x3e658b30	0.22416377
80	0x3faf1dc6	1.3680961
81	0x3e184212	0.14868954
82	0x3f338258	0.70120764
83	0x3f9fb9ba	1.2478554
84	0x3f3c8a1c	0.7364824
85	0xbef07124	-0.4696132
86	0xbe41ed9b	-0.18938296
87	0x3f35d555	0.71028644
88	0xbf49de9c	-0.788553
89	0x3fb3b9ad	1.4041039
90	0x3f487034	0.7829621
91	0xbff10a8e	-1.8831346
92	0x3fef8c00	1.87146
93	0x3ef0a150	0.46998072
94	0x3f8433e5	1.0328337
95	0xbfbfe309	-1.4991161
96	0xbe084fed	-0.1331174
97	0x3f090745	0.5352672
98	0xbf0e4f35	-0.5558961
99	0xbf04147b	-0.5159375
100	0x3ef9919c	0.48743904
101	0xbf50cc7a	-0.81562006
102	0x3e89971c	0.268731
103	0x3fc97ba9	1.5740863
104	0x3f30601e	0.68896663
105	0x3a9c30ee	0.0011916438
106	0xc01268b6	-2.287641
107	0xbc2c73f2	-0.01052569
108	0xbeb5f752	-0.35540253
109	0xbcde1ab2	-0.027112339
110	0xbf89335c	-1.0718799
111	0xbf18a2c1	-0.5962334
112	0x3da99c0e	0.08281718
113	0xbf3a2c02	-0.727234
114	0xbf001735	-0.5003541
115	0xbf02a3df	-0.510313
116	0x3eee50c2	0.46545988
117	0x3ead6995	0.33869615
118	0xbfad8e50	-1.3559055
119	0x3e8294b8	0.25504088
120	0xbfb92ff4	-1.4467759
121	0xbe342363	-0.17591624
122	0x3e71ff88	0.23632634
123	0x3f46862d	0.77548486
124	0x3fae6f18	1.3627653
125	0xbe6b8bf3	-0.23002605
126	0x3f255ce2	0.6459485
127	0x3cb9c26b	0.022675714
128	0xbf323e75	-0.6962655
129	0xbd652631	-0.055944625
130	0x3f691809	0.910523
131	0xbfa16f25	-1.2612044
132	0x3df96bbc	0.12178752
133	0x3f1f636c	0.6226108
134	0xba80b542	-0.0009819644
135	0xbecd0e9b	-0.40050206
136	0xbf1f65c7	-0.62264675
137	0x3fab58db	1.3386492
138	0xbee737cc	-0.45159757
139	0xbfa2d6a8	-1.2721758
140	0x3f6cbfb3	0.9248001
141	0x3d684e81	0.056715492
142	0x3fa9aec2	1.3256457
143	0xbebcb320	-0.36855412
144	0x3faacdc9	1.3344051
145	0x3e7bd41b	0.2459263
146	0x3f39b45c	0.7254083
147	0xbe07591b	-0.13217585
148	0xbfaa9b05	-1.3328558
149	0xbe3646e8	-0.17800486
150	0xbefbbcac	-0.49167383
151	0xbed77077	-0.4207799
152	0x3d691352	0.05690319
153	0x3fa84c81	1.3148347
154	0xbf94b336	-1.1617191
155	0x3ee37ee9	0.44432762
156	0x3db1c936	0.08680956
157	0x3fd871f9	1.6909782
158	0xbfcbb836	-1.5915592
159	0xbcb6b31e	-0.022302207
160	0xbf5abcd9	-0.8544441
161	0xbeca50c9	-0.3951476
162	0x3daf5ad2	0.085622445
163	0xbf36375c	-0.7117822
164	0xbf78054c	-0.9688308
165	0x3de1c6e4	0.110242635
166	0x3d8c834c	0.068609804
167	0xbf3c918e	-0.736596
168	0x3e861bee	0.26193184
169	0x3eaa1feb	0.33227476
170	0x3f991f1c	1.1962619
171	0xbf67e21a	-0.9057938
172	0x3ed9a516	0.42508763
173	0xbeb48e7a	-0.3526495
174	0x3b8ac0aa	0.004234393
175	0xbec0b97c	-0.37641513
176	0xbfa62620	-1.2980385
177	0xbf10cc4b	-0.56561726
178	0xbc72c63a	-0.014817769
179	0x3ecba6f2	0.39775807
180	0x3ed8b90b	0.42328677
181	0xbf480274	-0.78128743
182	0x3e8028ad	0.25031033
183	0x3c76c9b9	0.015062743
184	0xbd6af699	-0.05736408
185	0x3e877e42	0.26463515
186	0x3efc7f76	0.49315995
187	0x3e32ee51	0.17473723
188	0xbea26019	-0.31713942
189	0xbf4bac85	-0.7956012
190	0x3ed4a6a9	0.41533402
191	0xbe82b48a	-0.25528365
192	0xbfc22712	-1.5168173
193	0xbe2a0392	-0.16602924
194	0xbe24f9cb	-0.16110913
195	0x3fe66cbd	1.8001934
196	0xc0075457	-2.1145227
197	0x3fca0212	1.5781882
198	0xbfb89f78	-1.4423666
199	0x401ce6b3	2.4515808
200	0x4033b515	2.8079274
201	0xc00463ee	-2.0685992
202	0xbf902375	-1.1260821
203	0x3f78145d	0.9690607
204	0xc01f1261	-2.4854968
205	0x3f2c60be	0.67335117
206	0xbe42269d	-0.18960042
207	0xc002d90b	-2.0444973
208	0xbf1b6a9e	-0.6070956
209	0x3fe5d3ee	1.7955301
210	0x3f843228	1.0327806
211	0x3f961e5e	1.1728017
212	0xbf0e2292	-0.555215
213	0xbfcfd94a	-1.6238186
214	0x3fc541ef	1.5410746
215	0x3fb30405	1.3985602
216	0x3f0d8cdb	0.55293053
217	0xbe10a719	-0.14126243
218	0xbfea2649	-1.8292934
219	0x3e214344	0.15748316
220	0x3fe45580	1.7838593
221	0xbf306021	-0.6889668
222	0x3ed25153	0.4107767
223	0xbfbb36df	-1.462612
224	0xc0054228	-2.0821629
225	0x3fa1c132	1.2637084
226	0xbfa9fc91	-1.3280202
227	0x3fe357ce	1.7761171
228	0xbee61ecb	-0.44945368
229	0xbfa35219	-1.2759429
230	0x3f030984	0.51186395
231	0xbe0c141c	-0.13679546
232	0x3f9c76d5	1.2223765
233	0x40115291	2.2706645
234	0xbf7b2b12	-0.98112595
235	0xbdf60961	-0.12013508
236	0xbf9fc659	-1.2482406
237	0x3fb7fe83	1.4374546
238	0xbfbd61ea	-1.4795506
239	0x401a0f30	2.407177
240	0x3f253e0e	0.6454781
241	0x3ffa3dcd	1.955011
242	0xc00929d3	-2.1431777
243	0xbf4537ab	-0.7703807
244	0xbf126852	-0.5719043
245	0x3fd269a3	1.6438488
246	0xbfc6ebae	-1.5540674
247	0xbfae8b8e	-1.3636339
248	0x400bfa2f	2.187145
249	0x4003615f	2.052818
250	0x400455e1	2.0677416
251	0x4016a60e	2.3538852
252	0x402040a9	2.5039465
253	0xbf30bae2	-0.6903516
254	0xbfc09551	-1.5045568
255	0xbff9e88c	-1.9524093

actor.4.bias f4 [7]
0	0x3f35581f	0.7083759
1	0x3dbad272	0.091221705
2	0x3ef8fd43	0.48630723
3	0x3ecd1d29	0.4006131
4	0x3f48d09c	0.7844331
5	0x3eb51414	0.3536688
6	0x3f481bf1	0.78167635

critic.0.weight f4 [64, 16]
0	0xbf0199f1	-0.5062552
1	0x3eb5a506	0.35477465
2	0xbf7d1adc	-0.9886911
3	0xbfd947ae	-1.6975
4	0x3f766d09	0.96260124
5	0xbf2a70ef	-0.66578573
6	0xc047d3c3	-3.1223
7	0xc04a1b9d	-3.1579354
8	0xc07e3344	-3.971879
9	0xbf0c4696	-0.54795206
10	0xbeb1db98	-0.3473785
11	0xbf373512	-0.71565354
12	0xbfa003f2	-1.2501204
13	0xbf089d81	-0.5336533
14	0xbec4d0a1	-0.3844042
15	0x3e77a3b1	0.24183537
16	0xc0129d9d	-2.29087
17	0x3eb29ed8	0.34886813
18	0x3f867796	1.0505245
19	0xbf16f4f5	-0.58967525
20	0x3f67fed0	0.9062319
21	0x3eaaf49b	0.33389744
22	0x3fff9a8d	1.996904
23	0xbf2c2a39	-0.67251927
24	0xc00b4726	-2.1762176
25	0xbeffac15	-0.49935976
26	0xbf7159e8	-0.9427781
27	0xbf71bdaf	-0.9443006
28	0x3fd48f94	1.6606317
29	0x400056f4	2.0053072
30	0x3f792abb	0.97330827
31	0xbf26b22d	-0.65115625
32	0x3ee2fe0c	0.44334447
33	0x3ecee441	0.4040852
34	0xbecf0769	-0.4043534
35	0x3e265ac7	0.16245566
36	0x3e9fd1a7	0.3121464
37	0x3f5a4ada	0.85270464
38	0xc0e2d4eb	-7.088491
39	0xc09ad514	-4.8385105
40	0xc06f23bf	-3.7365568
41	0x3ed24b04	0.41072857
42	0x3f16ee94	0.5895779
43	0x3e98faee	0.29878944
44	0xc03bec9d	-2.9363167
45	0xc00e7286	-2.22574
46	0x3ee4fc3e	0.44723696
47	0x3f3a519c	0.72780776
48	0xbf756aed	-0.9586628
49	0xbe10c616	-0.14138064
50	0x3f3b2b6a	0.7311312
51	0xbf926d76	-1.1439655
52	0x3ea7566d	0.32683125
53	0x3f0010d2	0.50025666
54	0x4023d7b0	2.5600395
55	0x4081f1b5	4.0607553
56	0x40802a0e	4.0051336
57	0x3eec8c53	0.4620081
58	0x3f188616	0.595796
59	0x3f658051	0.8964892
60	0xbf8e3469	-1.1109744
61	0xbf77a481	-0.9673539
62	0xbc4f1572	-0.01263939
63	0x3e24936d	0.16071863
64	0xbf2f866c	-0.68564487
65	0x3f9ecd59	1.2406417
66	0xbf8aead4	-1.0852914
67	0x3ff774c1	1.9332505
68	0xbef914b5	-0.4864861
69	0xbe6ce0c6	-0.2313262
70	0x3fb3906c	1.4028449
71	0xbf575061	-0.84107023
72	0xbfc0c757	-1.5060834
73	0xbea56dac	-0.32310236
74	0xbd3bed55	-0.045880634
75	0x3d5a2e73	0.053266954
76	0x3f566d22	0.83760273
77	0xbeee706d	-0.4657015
78	0xbd3cedcf	-0.04612523
79	0x3e8660ea	0.26245815
80	0xbf77029a	-0.96488345
81	0xbf246934	-0.6422303
82	0x3f9a2a03	1.2044071
83	0xbe7919d7	-0.24326263
84	0x3eeb012f	0.4589934
85	0x3e7a4582	0.24440578
86	0xc0167bea	-2.351313
87	0xc0b8d022	-5.775407
88	0xc0f04942	-7.5089426
89	0xbe17eb63	-0.14835887
90	0xbf043ad8	-0.5165229
91	0xbf06a586	-0.5259632
92	0x3da5c427	0.08094054
93	0xbf8969a8	-1.0735369
94	0x3d2c5f97	0.04208335
95	0x3f60d13c	0.87819266
96	0xbff03fde	-1.8769491
97	0x3d048396	0.032352053
98	0x3f430cc7	0.7619137
99	0xbcfc46ac	-0.030795418
100	0xbefd4636	-0.4946763
101	0x3f24dd29	0.64399964
102	0x40ab8fd3	5.3613067
103	0x3ff92b7c	1.9466395
104	0x3eaf3b88	0.34225106
105	0x3e680f4a	0.22662082
106	0x3cc95978	0.024578795
107	0x3ecffaf0	0.40621138
108	0xbe786985	-0.24259003
109	0xc00b897a	-2.180266
110	0xbedf3453	-0.43594608
111	0x3f1cee59	0.6130119
112	0x3fbc76db	1.4723772
113	0x3f899df2	1.0751326
114	0xc00cd1fc	-2.2003164
115	0xbee447b2	-0.4458595
116	0x3f76ce5f	0.9640865
117	0x3f748482	0.9551469
118	0xbf9f2011	-1.2431661
119	0xbf331262	-0.69949925
120	0x3d4d4a21	0.050119523
121	0x3e77b01d	0.24188276
122	0x3e9b15a9	0.30289963
123	0x3e34bb9e	0.17649695
124	0x3f150b4b	0.58220357
125	0xbf64bc07	-0.89349407
126	0xbe9f63f5	-0.3113095
127	0x3e984ffd	0.29748526
128	0x3e734c27	0.23759519
129	0x3ee129e5	0.43977275
130	0x3f9a0d47	1.2035302
131	0xc06111a5	-3.516702
132	0xbf9278d4	-1.1443124
133	0xc006633c	-2.0998068
134	0xbef513b5	-0.47866598
135	0xbf84a0ba	-1.036155
136	0xbfee2499	-1.8604919
137	0x3eb24137	0.3481538
138	0x3e3d1043	0.18463235
139	0xbec1f51b	-0.37882313
140	0xbf5e7aae	-0.86905944
141	0x3fd381eb	1.6524023
142	0xbe9d6a59	-0.307452
143	0x3ed7c26e	0.42140526
144	0xbe3b180d	-0.18270893
145	0x3f16b512	0.5887004
146	0x3f772c8d	0.96552354
147	0x3f9c9b5d	1.2234913
148	0x3fa270c1	1.269066
149	0x3f97116f	1.1802195
150	0xc0a3fa65	-5.1243157
151	0xc0aa8e42	-5.3298655
152	0xc0d28c00	-6.57959
153	0x3e8e1e07	0.27757284
154	0x3e66e33a	0.22547618
155	0x3d653219	0.05595598
156	0xbf679017	-0.9045424
157	0xbfa4dd7d	-1.2880093
158	0x3ef63c25	0.48092762
159	0x3f9f1d0d	1.243074
160	0xbf1464fd	-0.57966596
161	0xbd93250d	-0.07184801
162	0x3fd9a073	1.700209
163	0x3eefed01	0.46860507
164	0xbf6370ee	-0.8884419
165	0xbd98b133	-0.07455673
166	0x4012edf0	2.2957726
167	0xbee5d7f2	-0.44891316
168	0xc02aca44	-2.6685953
169	0xbe49f1a8	-0.19721091
170	0xbefb757b	-0.49113068
171	0xbf97e5ca	-1.1867001
172	0x3c4cfe96	0.01251187
173	0x3f9ed53e	1.2408826
174	0xbee9b10f	-0.45642897
175	0xbe79d45b	-0.24397413
176	0xbfc9b23f	-1.5757521
177	0x3f3ff666	0.7498535
178	0x3e603881	0.21896555
179	0x3c14607f	0.00905621
180	0xbf09696c	-0.53676486
181	0xbeeb2992	-0.45930153
182	0x404af44d	3.171161
183	0x40a066f4	5.0125675
184	0x40bee8bd	5.9659104
185	0x3f728263	0.94730204
186	0x3f47e684	0.78086114
187	0x3f6ffffb	0.9374997
188	0x3f3ebd35	0.74507457
189	0xbf9f977e	-1.2468107
190	0xbda1a0c6	-0.07891993
191	0xbf0b95f5	-0.5452569
192	0xbffd397c	-1.9783168
193	0xbff94f8f	-1.9477404
194	0x3f38285b	0.7193658
195	0x3f31c718	0.6944442
196	0xbf40b1f6	-0.75271547
197	0xbec7ca15	-0.39021364
198	0x40cc97aa	6.3935137
199	0x40d89b4b	6.7689567
200	0x409da875	4.9268136
201	0x3eea503e	0.45764345
202	0xbe0f1b8a	-0.13975349
203	0xbf311327	-0.6916985
204	0x4013f9d1	2.3121226
205	0x400f7d47	2.2420213
206	0xbe887414	-0.2665106
207	0xbf3c95ca	-0.7366606
208	0xbf8c769e	-1.0973699
209	0x3e8091d1	0.2511125
210	0x3f813020	1.0092812
211	0x3ed8bf07	0.42333242
212	0x3dfc0817	0.123062305
213	0x3c506663	0.012719723
214	0xbffd4bc7	-1.978875
215	0xc0c3a6d5	-6.114115
216	0xc0ea0491	-7.3130574
217	0x3c979c14	0.018507041
218	0xbeef39a0	-0.46723652
219	0xbf0e42b8	-0.55570555
220	0x3fdb61ea	1.7139256
221	0x3ef8ab98	0.48568416
222	0xbecac1f5	-0.39601102
223	0xbbf95127	-0.007608551
224	0x3ffe4313	1.986422
225	0x40060930	2.0943108
226	0x3fbd1c39	1.4774238
227	0x3fc2caf0	1.5218182
228	0x3f5985b6	0.8496965
229	0x4008518b	2.129977
230	0x409e65ce	4.9499273
231	0x40112c80	2.268341
232	0x4034bf20	2.8241653
233	0x3f1419b3	0.57851714
234	0x3f215c7a	0.63031733
235	0x3f3b72ef	0.7322225
236	0x3f8a902e	1.082525
237	0x3f2a7e5c	0.6659906
238	0xbd3b8ff2	-0.045791574
239	0x3e96c77d	0.29449072
240	0xbf1be157	-0.60890716
241	0xbf4aee95	-0.792703
242	0x3fa28f44	1.2699971
243	0x3f9c730b	1.2222608
244	0xbf0f8302	-0.5605928
245	0xbf02f890	-0.51160526
246	0x3e728f3c	0.23687452
247	0x4041916a	3.0245004
248	0x409f8c39	4.985867
249	0x3e9ffb41	0.3124638
250	0x3f2ce89c	0.67542434
251	0x3f76a440	0.96344376
252	0x3f02fcdd	0.5116709
253	0x3e3cbc13	0.1843112
254	0xbe973b4e	-0.29537433
255	0xbed1088a	-0.40826827

critic.0.bias f4 [64]
0	0x3ebae40b	0.36502108
1	0xbf15af69	-0.5847078
2	0x3f999250	1.1997776
3	0x3e884081	0.26611713
4	0x3de0f41f	0.109840624
5	0x3f61869f	0.8809604
6	0x3f0895cd	0.5335358
7	0x3e1966fe	0.14980695
8	0x3e69e657	0.22841774
9	0x3f818b70	1.0120678
10	0xbeecfb3e	-0.46285433
11	0xbde3d307	-0.11124235
12	0xbf636126	-0.8882011
13	0x3ec64f1a	0.38732225
14	0x3d1cd469	0.038288508
15	0xbe9b1395	-0.30288377
16	0x3e96fe3a	0.29490834
17	0x3df75f9a	0.120787814
18	0xbe90ab66	-0.28255767
19	0xbe0ad029	-0.1355597
20	0xbe91ce4c	-0.28477705
21	0x3d50a0d4	0.050934628
22	0x3e23bb2b	0.15989368
23	0x3d290874	0.041267827
24	0x3f0bc2f0	0.54594326
25	0xbf58d850	-0.84705067
26	0xbf64c170	-0.8935766
27	0xbde0bf5f	-0.10974001
28	0xbe7a0034	-0.2441414
29	0xbe93bb6b	-0.28853926
30	0x3f21ef86	0.6325611
31	0xbed58f95	-0.41711107
32	0x3d2e0cc8	0.042492658
33	0xbf0d98c9	-0.55311257
34	0xbf34aa7e	-0.7057265
35	0xbe9f6dd8	-0.31138492
36	0x3db9c13d	0.090700604
37	0xbea09c9a	-0.31369478
38	0xbe75c462	-0.24000695
39	0xbeb23a90	-0.34810305
40	0xbeb7a770	-0.35869932
41	0xbf52c4ff	-0.8233184
42	0x3e9ec674	0.31010783
43	0xbefc0809	-0.4922488
44	0xbf02e5c6	-0.51131856
45	0xbeee1b3e	-0.4650516
46	0x3f45c55b	0.77254266
47	0x3e591fde	0.21203563
48	0x3f942476	1.1573627
49	0x3f0d3bb8	0.5516925
50	0xbf3d8d65	-0.74043876
51	0xbec0bd47	-0.37644407
52	0x3fa6f435	1.3043276
53	0x3e381648	0.1797725
54	0x3e45e2b5	0.19324763
55	0x3e16d5c9	0.1472999
56	0xbf6cd3ae	-0.925105
57	0x3ec2e691	0.38066533
58	0xbe6eef3b	-0.23333447
59	0xbe6dccad	-0.23222609
60	0x3ea0a410	0.3137517
61	0x3d9e3b36	0.07726137
62	0x3e951adf	0.29122064
63	0x3e151b78	0.1456126

critic.2.weight f4 [64, 64]
0	0xbca83cd5	-0.02053682
1	0xbfeba44f	-1.8409518
2	0xbf844688	-1.0334024
3	0xbf9833bb	-1.1890787
4	0x3eaaada8	0.33335614
5	0xbea79a43	-0.3273488
6	0xbf8ea6b9	-1.114463
7	0x3ead7ba2	0.33883387
8	0x3ee81934	0.45331728
9	0xbfad260e	-1.3527238
10	0xbe91e55d	-0.28495303
11	0xbf0945e1	-0.5362225
12	0x3fea53c3	1.8306812
13	0xbf9743ad	-1.1817528
14	0x3e4bf2f4	0.19916898
15	0x3e5dd4b1	0.21663167
16	0xbf9099b1	-1.1296903
17	0x3df6be34	0.12047997
18	0x3e0e15d3	0.13875513
19	0xc00039d4	-2.0035295
20	0x3f8e47da	1.1115677
21	0xbf96651c	-1.1749606
22	0xbf97aa8b	-1.184892
23	0x3e39ff77	0.18163858
24	0xbf34f742	-0.70689785
25	0x3e3e6c49	0.18595995
26	0x3e3ae4ff	0.18251418
27	0xbf5d625e	-0.8647822
28	0x3d9c20ee	0.07623468
29	0x3f3b472c	0.73155475
30	0x3f81e5ab	1.0148214
31	0xbf29fdae	-0.6640271
32	0x3f92c4c5	1.1466299
33	0x3c8033e2	0.01564974
34	0x3fb18007	1.3867196
35	0xbfd9617f	-1.6982878
36	0xc02c700e	-2.6943393
37	0xbf3a5b4b	-0.7279555
38	0x3eac6c9b	0.3367661
39	0x3ec7e237	0.39039776
40	0xbf58c741	-0.8467904
41	0x3f15c939	0.58510166
42	0xbff0d78c	-1.881578
43	0xbf0a9126	-0.5412773
44	0x3fa5d4d5	1.2955576
45	0x3f168f88	0.5881276
46	0x3bacfc71	0.005279117
47	0x3f80c7d7	1.0060986
48	0xbe45394f	-0.19260143
49	0x3e971bab	0.29513296
50	0x3d751a53	0.059839558
51	0x3eefc4e2	0.46829897
52	0xbf994a15	-1.1975733
53	0x3fe16ab8	1.7610693
54	0xbe8f3b4c	-0.27974927
55	0xbedc56c5	-0.4303495
56	0xbe8d5ef6	-0.27611512
57	0xbefb658f	-0.4910092
58	0xbf2ede4a	-0.68307936
59	0x3f8c70a5	1.0971876
60	0xbe6cebe5	-0.23136862
61	0x3f3dcb58	0.741384
62	0xbe836272	-0.25661045
63	0xbebb6b68	-0.36605382
64	0x3e874ea6	0.26427191
65	0xbfc74b91	-1.5569936
66	0xbdd07ab4	-0.10179654
67	0x3e2f5e14	0.17125732
68	0xbd670d29	-0.056409035
69	0xbfbc5df4	-1.4716172
70	0xbd11de25	-0.035612244
71	0x3fb4d1c8	1.412652
72	0x3f7eb94f	0.9950151
73	0x3fbef12f	1.4917353
74	0xbf791500	-0.9729767
75	0x3eee9e12	0.46604973
76	0xbf295cc1	-0.66157156
77	0xbfbdfe79	-1.4843284
78	0xbf4e8f06	-0.80686986
79	0xbe3bac9e	-0.18327567
80	0xc0115f1d	-2.2714303
81	0x3df909d1	0.121600755
82	0xbeb11896	-0.3458907
83	0x3d7ffcc4	0.062496915
84	0xbf0a112b	-0.53932446
85	0xbe8f0d10	-0.27939653
86	0x3d3d79b4	0.046258643
87	0x3fa0bfca	1.2558529
88	0x3f151321	0.58232313
89	0xbfe37482	-1.776993
90	0xbf58bb6c	-0.84660983
91	0x3d8f88ee	0.07008539
92	0xbdb28e3e	-0.08718537
93	0xbf4e41d0	-0.8056917
94	0x3f81bf0b	1.0136427
95	0xbf491f52	-0.78563416
96	0xbfa79826	-1.3093307
97	0x3ee10d32	0.4395538
98	0xbfc3fbb8	-1.5311193
99	0x3f1bdf37	0.60887474
100	0xbea240d1	-0.31690076
101	0xbedcdaf2	-0.43135792
102	0x3f17a30c	0.59233165
103	0x3fd19e70	1.6376476
104	0x3ef6a4e3	0.48172674
105	0x3f8c9da4	1.0985608
106	0x3f1eb112	0.6198894
107	0xbed0ea16	-0.40803593
108	0x3f89482b	1.0725149
109	0xbefef32e	-0.49794906
110	0x3fba0f9a	1.4536011
111	0x3fbf732d	1.4957024
112	0x3fd092ef	1.629484
113	0xbed66f78	-0.4188192
114	0xbf3eab96	-0.7448057
115	0x3fc82b8a	1.5638287
116	0x3e802047	0.25024626
117	0x3dc56c41	0.096397884
118	0xbecd05f0	-0.40043592
119	0x3e6eb811	0.23312403
120	0xbf961132	-1.1723998
121	0x3ef102c7	0.4707243
122	0xbe9c0fb3	-0.30480728
123	0xbf88ffe0	-1.0703087
124	0x3f47c2ac	0.7803142
125	0xbebd2c07	-0.36947653
126	0x3ecdd3d2	0.4020067
127	0x3f54009d	0.82813436
128	0xbf459a53	-0.77188605
129	0x3f996bac	1.1985984
130	0xbf429455	-0.76007587
131	0xbd9d9782	-0.076949134
132	0x3e9fe72c	0.31231058
133	0x3ee8b165	0.4544784
134	0xbe076c37	-0.13224874
135	0xbf5b58f5	-0.8568261
136	0xbd267554	-0.040639237
137	0xbd93afcb	-0.07211264
138	0x3f58c2be	0.84672153
139	0x3f4b8e0b	0.79513615
140	0x3eaaf8a8	0.33392835
141	0xbcddc310	-0.027070552
142	0xc0203cdd	-2.5037148
143	0x3fa8f61b	1.3200105
144	0x3e9863e7	0.2976372
145	0xbf032dcf	-0.51241773
146	0x3f4bcf43	0.7961313
147	0xbeb4812f	-0.3525481
148	0xbe91d89a	-0.28485566
149	0x3ea0df38	0.31420302
150	0x3ea95d4f	0.33079
151	0xbf65228e	-0.8950585
152	0xbef283d1	-0.47366193
153	0xbcc21da6	-0.023695778
154	0x3f670ba0	0.90252113
155	0x3f2bc292	0.67093766
156	0xbe7dac83	-0.24772839
157	0x3ca6757b	0.02031969
158	0x3e7590dc	0.2398104
159	0xbee95d86	-0.45579165
160	0x3f09ea99	0.5387359
161	0xbf885189	-1.0649883
162	0xbf46d69b	-0.7767121
163	0xbeb4c015	-0.35302797
164	0xbe8fbe86	-0.28075045
165	0xbd96adbe	-0.073573574
166	0x3f3e86b2	0.7442428
167	0x3e67e698	0.22646558
168	0x3e707951	0.23483779
169	0xbf6c4e12	-0.92306626
170	0xbf93d209	-1.1548473
171	0x3e70a740	0.23501301
172	0x3e57ee5f	0.21087025
173	0xbea44fcb	-0.32092127
174	0x3f63f354	0.89043164
175	0x3dd5ea80	0.10445118
176	0x3e6ae97b	0.22940628
177	0xbdfe6cd8	-0.12423104
178	0x3eca0624	0.3945781
179	0xbf4b8280	-0.79496
180	0xbf3ad7f3	-0.7298576
181	0xbeb58110	-0.3545003
182	0xbff951ac	-1.9478049
183	0x3ddc2e1e	0.10750984
184	0x3f0a8024	0.5410178
185	0xbe9680ef	-0.29395244
186	0xbe36d10f	-0.17853187
187	0x3db48983	0.08815291
188	0xbf20bfb9	-0.62792546
189	0x3f2e486e	0.6807927
190	0x3f04df65	0.51903373
191	0x3f312e97	0.69211715
192	0xbec72b52	-0.38900238
193	0x3ea49d70	0.32151365
194	0x3f8d0963	1.101849
195	0x3d64d276	0.055864774
196	0x4001fd07	2.0310686
197	0x3f283790	0.6570978
198	0x3e92001a	0.28515702
199	0x3db28185	0.0871611
200	0xbebbd96a	-0.3668931
201	0x3f862310	1.047945
202	0xbf622f54	-0.88353467
203	0x3fb0cb9c	1.3812137
204	0x3e5faecc	0.21844023
205	0x3e49547f	0.19661139
206	0x3edc5e1e	0.43040556
207	0x3e0a453f	0.13502978
208	0xbf0d0b13	-0.5509502
209	0x3fafeef3	1.3744797
210	0xbfa25a12	-1.2683737
211	0x3f011406	0.5042118
212	0xbf7daf06	-0.9909519
213	0xbeaea7f7	-0.34112522
214	0xbe8f4687	-0.27983496
215	0x3ed9dab6	0.42549676
216	0xbf73bc0c	-0.9520881
217	0xbf4f29a5	-0.8092292
218	0xbec5cff0	-0.38635206
219	0xbfd7d2e8	-1.6861238
220	0xbe74dd55	-0.23912556
221	0xbf30396c	-0.6883762
222	0x3f65e769	0.8980623
223	0xbf752f9c	-0.9577577
224	0xbf90a6a9	-1.1300861
225	0xbf2072d2	-0.626752
226	0x3ed7076b	0.41997847
227	0xbf86852b	-1.050939
228	0xbf8641a5	-1.0488783
229	0xbf441bca	-0.766049
230	0xbf36dd55	-0.71431476
231	0x3efd069c	0.49419105
232	0xbfc025ae	-1.5011499
233	0x3f027cf6	0.50971925
234	0x3f2ccc36	0.674991
235	0xbf2ee945	-0.6832469
236	0xbe16f97c	-0.14743608
237	0xbae54574	-0.0017492012
238	0xbeb60cd3	-0.3555666
239	0xbfa5895e	-1.2932546
240	0xbed82e26	-0.42222708
241	0x3eaf1119	0.34192732
242	0xbec2c87c	-0.38043582
243	0x3f2d014a	0.6758009
244	0xbef6e585	-0.48221985
245	0x3eedd438	0.46450973
246	0x3e04d5ce	0.12972185
247	0xbe912fda	-0.2835682
248	0x3eac5d22	0.33664805
249	0xbeffdde7	-0.49973986
250	0x3bc0e6dd	0.005886896
251	0x3e6d8c9b	0.23198168
252	0xbdfbcdcf	-0.12295114
253	0x3fad39c6	1.3533256
254	0x3f0304ea	0.51179373
255	0xbf465779	-0.7747722

critic.2.bias f4 [64]
0	0x3f6061a4	0.8764899
1	0x3f34f1fe	0.7068175
2	0x3cb7647c	0.022386782
3	0xbd8a802a	-0.067627266
4	0xbe63dc49	-0.22252001
5	0x3dc47709	0.09593017
6	0xbed96972	-0.4246326
7	0xbeea1685	-0.45720306
8	0x3f27d0ba	0.65552866
9	0xbf0cace0	-0.54951286
10	0xbe313d9f	-0.17308663
11	0x3dbb0bce	0.09133111
12	0x3d30df4e	0.04318171
13	0x3e928368	0.2861588
14	0xbe8e9ba8	-0.2785313
15	0x3e71d803	0.23617558
16	0x3e05fcb0	0.13084674
17	0x3dda13d4	0.10648313
18	0x3eb3dfa7	0.3513157
19	0xbdbf652b	-0.09345468
20	0x3ef1762d	0.47160473
21	0xbee8a00f	-0.45434615
22	0xbd7fdffb	-0.062469464
23	0x3ee1b101	0.44080356
24	0x3cc0dd1d	0.023542935
25	0x3e57ea7c	0.21085542
26	0xbf60c9c7	-0.8780789
27	0x3e807108	0.25086236
28	0xbe86dfb2	-0.2634254
29	0xbecfd056	-0.40588635
30	0x3e2c4f47	0.16827117
31	0xbdfbf6e6	-0.123029515
32	0xbf4f546e	-0.80988204
33	0xbf0809d0	-0.5313997
34	0x3e0269db	0.12735693
35	0x3cf24f50	0.029578835
36	0xbe9634d4	-0.2933718
37	0xbeb3d11f	-0.35120484
38	0xbddbbda3	-0.1072953
39	0x3f08c802	0.5343019
40	0xbefa45a0	-0.48881245
41	0xbedf777c	-0.43645847
42	0x3ee7f85c	0.4530667
43	0x3f30baa6	0.690348
44	0xbeefb7fc	-0.46820056
45	0xbcbd71bb	-0.02312552
46	0xbeb62678	-0.35576224
47	0xbe7561d2	-0.23963097
48	0xbe13219f	-0.14368294
49	0x3c200b35	0.009768297
50	0xbe23c5e5	-0.1599346
51	0x3fa1c278	1.2637472
52	0xbe4b447c	-0.19850343
53	0xbf518d02	-0.81855786
54	0xbedfb07b	-0.4368933
55	0xbe5bc3db	-0.21461432
56	0x3e0d4a5e	0.137979
57	0x3fc501fa	1.5391228
58	0x3f001d30	0.50044537
59	0xbe9d9068	-0.30774236
60	0xbe587113	-0.21136884
61	0xbeae08fc	-0.3399123
62	0xbdc1067a	-0.094250634
63	0x3e2b2695	0.16713937

critic.4.weight f4 [1, 64]
0	0x3efd84df	0.49515435
1	0xbedf5c75	-0.43625227
2	0x3f37726d	0.71658975
3	0xbf192038	-0.59814787
4	0x3ea87eb1	0.32909158
5	0x3ef23468	0.47305608
6	0xbea60ceb	-0.3243173
7	0xbf077df2	-0.5292655
8	0x3f314a41	0.6925393
9	0xbf20df4f	-0.6284074
10	0x3f17049a	0.58991396
11	0xbf121f7e	-0.57079303
12	0x3ea58671	0.32329133
13	0x3ef6db0d	0.48213997
14	0xbf259061	-0.6467343
15	0x3f08e1d7	0.53469604
16	0x3f1ec7ea	0.62023795
17	0x3e98a7b1	0.29815438
18	0x3eed43dc	0.46340835
19	0xbf004dd9	-0.50118786
20	0x3f0a7794	0.5408871
21	0xbecafbff	-0.39645383
22	0xbef4830f	-0.4775624
23	0x3f26aa6a	0.6510378
24	0xbef2cd37	-0.47422192
25	0xbeea385c	-0.45746124
26	0xbf1a95b8	-0.603847
27	0x3eb9c62d	0.3628401
28	0xbf397979	-0.7245098
29	0x3e963576	0.29337662
30	0x3f1abd3d	0.60445005
31	0xbeca5913	-0.39521083
32	0x3f2d280f	0.6763925
33	0xbf100aa4	-0.56266236
34	0x3ec16f2d	0.37780133
35	0xbe548a64	-0.20755917
36	0x3f00b3b1	0.5027419
37	0x3f0da06a	0.553229
38	0xbe93a89a	-0.2883957
39	0xbf041bbe	-0.5160483
40	0xbf1b7fa8	-0.6074166
41	0xbeeacc35	-0.45858923
42	0x3f283b10	0.6571512
43	0x3f249490	0.6428919
44	0x3f1dddf7	0.61666816
45	0x3f072032	0.527835
46	0xbec158d1	-0.37763074
47	0xbf2ac3ed	-0.6670521
48	0x3f45e20c	0.77298045
49	0x3f2e0d2b	0.6798884
50	0x3eed8af1	0.46395066
51	0x3f1437e4	0.5789778
52	0x3ecbc310	0.39797258
53	0x3f107040	0.5642128
54	0xbee59c2e	-0.44845718
55	0x3f11fe5b	0.5702874
56	0x3ece0c15	0.40243593
57	0xbf3035a6	-0.6883186
58	0xbed26aaf	-0.41097018
59	0x3f0a2131	0.53956896
60	0xbe8bd152	-0.27308136
61	0xbeb07fa6	-0.34472388
62	0xbf1b8f96	-0.6076597
63	0x3f59c9d8	0.85073614
