Model Results/ppoAMC2020-12-011999.pth (torch, 48311 bytes, 11 tensors)

actor.0.weight f4 [64, 16]
000000 5b 90 da 3f d7 84 b2 3f 7d 23 72 40 73 7d eb 3e
       1.7075304 1.394679 3.783416 0.45994148
000010 90 57 ed 3e b3 de 54 3e 88 64 36 3f b8 24 48 be
       0.46355867 0.20788078 0.7124715 -0.19545257
000020 34 b6 0d bf 05 eb 79 3c ed 18 7e be 94 7b 39 be
       -0.55356145 0.015253787 -0.24814196 -0.18113548
000030 48 00 a0 be 7a 52 27 bf 79 3f 86 bf 93 af 13 be
       -0.31250215 -0.65360224 -1.048812 -0.14422445
000040 7d d8 98 be f2 03 16 40 1a 48 fa 3f 9a ec 11 3f
       -0.29852667 2.3439908 1.9553254 0.5700165
000050 e6 8d 0c 3e 81 ed b5 be 4a 66 e7 bf e7 50 84 bf
       0.13726005 -0.35532764 -1.8078091 -1.033719
000060 5d 83 0d bf 3c 1e 67 3e ed 2c f1 3c 7a 12 be bc
       -0.5527857 0.22570127 0.029440368 -0.02320217
000070 e6 3a 87 be f6 d2 16 bf 52 4f 7a 3f d8 8b aa 3d
       -0.26412123 -0.5891565 0.97777283 0.08327454
000080 2e fc a0 3f c4 ff 5a bf e2 83 6b 3f 91 79 90 3d
       1.2576959 -0.8554652 0.9199811 0.07054437
000090 3a 9e ce be 38 81 5c be d1 d6 04 3d 73 03 ac 3e
       -0.40355092 -0.21533668 0.032431427 0.33596382
0000a0 0d 87 b4 be 04 36 38 bc c1 29 bc 3d f8 17 a7 be
       -0.35259286 -0.011243347 0.091876514 -0.32635474
0000b0 b5 fb ac bf 1a a9 43 3f 97 75 7e 3f 3d 57 95 be
       -1.3514315 0.76429904 0.9939818 -0.2916812
0000c0 0e 95 26 3f 09 9a fa be 0a 9e 60 3c 5b 5a 0c 3f
       0.6507119 -0.48945644 0.013709554 0.5482537
0000d0 ac db 89 be c1 fb 36 be 4b 68 1d 40 93 51 b4 3f
       -0.2692541 -0.17869474 2.4594905 1.4087394
0000e0 8b e2 f3 3e f1 f8 33 3e 5a 3c 16 be fa 2d eb be
       0.47633776 0.17575432 -0.1467146 -0.45933515
0000f0 56 72 05 40 8c 2a cf 3e b3 80 d6 3d 20 28 66 be
       2.0851035 0.40462148 0.10473766 -0.22476244
000100 4f f0 27 40 f0 e5 38 3f b6 d2 2b 40 26 6d 5c 3f
       2.6240423 0.72225857 2.6847358 0.8610405
000110 ac 1d 05 3f 86 17 cb 3d 8c 25 97 3e c0 6f 1b bf
       0.519984 0.09916596 0.29520833 -0.6071739
000120 69 59 31 bf 1d d1 0f 3e d3 c5 18 be 88 2a 41 be
       -0.69277054 0.14044614 -0.14919214 -0.1886388
000130 78 64 58 bf f3 f2 21 bf 62 3d b3 bf 9e 3f ac be
       -0.84528303 -0.63261336 -1.4003108 -0.33642286
000140 36 03 4f 3f 6b c3 a5 3f 21 17 97 3b 9d ba cd be
       0.80864275 1.2950262 0.0046109115 -0.40181437
000150 4d 9b 1d bf 7f 2c 4a bf 19 62 26 c0 d3 21 0c c0
       -0.61565095 -0.78974146 -2.5997374 -2.1895645
000160 5a bf 0f c0 bd 65 67 3d 67 71 02 be 91 15 46 be
       -2.2460542 0.05649351 -0.12738572 -0.19344164
000170 95 80 9a be bf 87 45 3f 0c 2d 93 bf 71 d1 df 3e
       -0.30176225 0.7716026 -1.1498122 0.4371448
000180 48 93 12 3f 4f 63 9d bf 84 2c 0d 3f 00 94 79 3e
       0.57255983 -1.2295932 0.5514605 0.24372864
000190 e6 73 92 be 65 0d a8 bd 4b 6b 19 40 aa fc a7 3f
       -0.28604048 -0.0820568 2.3971736 1.3123982
0001a0 a1 bc 3f 3f f1 db 1d be 21 6a 96 3c f2 af a9 be
       0.748972 -0.15415932 0.018361153 -0.33142048
0001b0 d5 1d a1 3f 93 13 9e 3f 0f d2 86 be c6 46 4b be
       1.2587229 1.2349724 -0.26332137 -0.19851217
0001c0 e2 cc 1e bf 5d aa 08 bf e2 73 5c 3f ea 22 ea 3d
       -0.62031376 -0.53384954 0.86114323 0.114324406
0001d0 13 47 a7 3d d2 08 e0 3b 7a 9d d7 bf f2 db 3d bf
       0.08167853 0.006836989 -1.6844933 -0.74163735
0001e0 37 ae bc bc 3d b5 2f 3e 20 d4 19 3e fb 34 ff 3e
       -0.02303229 0.1715898 0.15022326 0.49845108
0001f0 39 bb fe bf c4 5b e4 be 90 05 0d 3e 85 e1 83 3e
       -1.9900886 -0.44601262 0.13771653 0.25757995
000200 be a7 ef 3f ae 47 08 3f 39 1d c0 3f c3 c8 47 3e
       1.8723066 0.53234375 1.5008918 0.19510178
000210 3e b8 a2 be f5 62 83 be 9e 62 ec 3e 73 0b 50 3f
       -0.3178119 -0.25661436 0.4616899 0.8126747
000220 9f f5 32 3f d1 a5 e9 3e f7 2e 01 3f 1a f7 ae 3e
       0.6990604 0.4563432 0.5046229 0.341729
000230 8c 5b 70 bf f6 de 87 3e 63 2d f9 bf 2b 62 f3 3e
       -0.9388969 0.26537293 -1.9466976 0.47535834
000240 6f 73 e2 be 3a e9 33 3d a0 cd 1b be 4d c2 a0 bf
       -0.44228694 0.043923594 -0.15215158 -1.2559296
000250 64 7c b0 bf d0 ea b1 bf eb 44 d0 bf 26 35 2c c0
       -1.3787961 -1.3899784 -1.6271032 -2.690744
000260 9f 9f 41 c0 8c e3 1a bf 7c 00 22 bf 48 91 a6 be
       -3.0253675 -0.6050346 -0.6328199 -0.32532716
000270 29 0f c8 be 81 38 81 bf d5 4c 6b 3f ef da 83 3d
       -0.39074066 -1.0095369 0.9191411 0.06438243
000280 ee 1c 8e bf fe 86 89 be 29 72 60 bf 9f 7a 7e 3f
       -1.1102579 -0.26860803 -0.87674195 0.99405855
000290 07 5e d7 3e ff f1 ea 3d f8 cf 7a c0 ab ee 2f c0
       0.42063925 0.11471938 -3.9189434 -2.7489421
0002a0 ae 5b 98 bf c4 71 c2 bd fc 32 69 3d 44 59 ef 3e
       -1.1902978 -0.09494355 0.056933388 0.46747792
0002b0 1e e7 48 bf 4c 80 b3 3e bc f1 14 bf 86 1f 5c 3e
       -0.78477657 0.3505882 -0.5818136 0.214964
0002c0 a0 68 60 3f 69 d8 b6 3e 03 9f d1 bf b7 4a a3 be
       0.87659645 0.35711983 -1.6376652 -0.3189294
0002d0 d2 39 c0 3c 1c 27 1f 3e f2 16 63 c0 28 2c 32 c0
       0.02346507 0.15542263 -3.5482755 -2.783945
0002e0 44 ad bf bf 22 45 1b bf e4 8e fc be 4d 03 34 be
       -1.4974751 -0.60652363 -0.49327767 -0.17579384
0002f0 e2 b5 68 3f 3e 91 2d 3e 1c 59 06 c0 c7 3a 56 3d
       0.9090253 0.16949937 -2.0991888 0.05230215
000300 25 1a e5 bd 1a c6 71 3f 92 7e f4 be 54 d4 ab 3e
       -0.11186627 0.94442904 -0.47752815 0.3356043
000310 33 f8 9e 3e f1 4b 19 3d 27 5c 1b c0 32 9c b5 bf
       0.31048736 0.03742594 -2.4274995 -1.4188292
000320 1f 93 81 bf 95 fd d7 bd 73 ef fc 3e f8 b9 f7 3e
       -1.0123023 -0.10546414 0.49401435 0.4838407
000330 97 95 e1 bf f2 cb bd bf 03 3d 64 3f 59 ce ce 3e
       -1.7623776 -1.4827864 0.89155596 0.40391806
000340 62 1e 80 bf be d7 09 3f 94 a7 48 bf a5 2f 80 bf
       -1.0009272 0.5384482 -0.78380704 -1.001454
000350 06 a4 ac bf 97 f5 aa bf d3 ef 9a 3f a1 bd 00 40
       -1.3487556 -1.3356198 1.2104439 2.011574
000360 a9 0d 14 40 77 7b f6 be 4e 58 a3 be 47 62 21 bc
       2.3133337 -0.4814107 -0.3190331 -0.009850091
000370 f0 e0 02 be c9 fa df 3e 1b b3 02 be c2 b0 ad be
       -0.1278112 0.4374602 -0.12763636 -0.33923918
000380 54 d1 c2 3f ee 0d 44 3f 55 06 a2 bf 2b 04 fc 3e
       1.5220132 0.76583755 -1.2658182 0.4922193
000390 ca bc d3 bd 3a fd 1f bf 3a 28 50 c0 a5 19 18 c0
       -0.10338743 -0.6249577 -3.2524552 -2.3765652
0003a0 4f 9a f1 bf 27 ff d9 be b9 05 e8 be 8b be 41 bf
       -1.8875216 -0.42577478 -0.45316866 -0.7568137
0003b0 15 14 51 bd ab bc 2c 3e 56 af 4a 3f d6 30 33 be
       -0.051044542 0.16868846 0.7917379 -0.17499098
0003c0 78 bc a1 3c 36 9c 7c bf dd ce c5 bb f8 11 96 be
       0.01974319 -0.9867586 -0.006036623 -0.29310584
0003d0 94 38 0f be e7 06 80 3b 07 c7 13 3f a6 f3 f2 3e
       -0.13986427 0.003907073 0.57725567 0.47451514
0003e0 ea 5f f1 3c 08 76 97 3e de ed d1 3e 1c 71 27 3e
       0.02946468 0.29582238 0.4100179 0.16351742
0003f0 3e fe f6 bf 07 7a 3d bf 02 68 cc 3f bc 76 4b be
       -1.9296339 -0.74014324 1.5969241 -0.19869512

actor.0.bias f4 [64]
000000 1b e2 d5 bd e2 60 1e 3e c3 5e 36 be 80 a8 c2 bd
       -0.10443517 0.15466645 -0.17809586 -0.09504795
000010 97 d2 87 be 8d 8a 8b 3e 74 75 92 be 23 89 ab 3d
       -0.26527855 0.27254143 -0.28605235 0.08375766
000020 7b fe 2c 3f 0c 11 a8 3d 1a 30 20 be ed 88 c0 3d
       0.67575806 0.082063764 -0.1564335 0.094011165
000030 95 ea bc 3e 31 76 18 bf a1 29 ce be 60 04 91 be
       0.36897722 -0.59555346 -0.40266135 -0.2832365
000040 e0 df 0c be 15 b4 36 be 9d 5a d9 3e 61 4f 86 bd
       -0.13757277 -0.17842133 0.42451945 -0.06558109
000050 68 77 a7 3e 0d 03 19 3e b5 ca 59 3e 41 19 8b 3e
       0.32708287 0.1494257 0.21268733 0.27167705
000060 a8 d5 71 3e da fc 96 be de 66 ff 3d 3a 2d 75 bf
       0.2361666 -0.29489785 0.12470792 -0.95772135
000070 c3 55 83 3f 5d 6a 12 bf 67 b0 dd 3e 67 0b 08 3e
       1.0260547 -0.5719355 0.43298647 0.132856
000080 59 24 fd 3e 9a 19 43 bd 58 32 67 3f 2c 22 08 3d
       0.49441794 -0.047631837 0.90311193 0.033235714
000090 8d 16 58 3f 70 3d a5 be b5 d4 19 3e f1 10 ab 3e
       0.8440941 -0.32273436 0.15022548 0.33411363
0000a0 f2 ed a8 3e d3 f6 10 bf 5f a1 ce 3e 86 b4 0e be
       0.32994038 -0.56626624 0.4035749 -0.13936052
0000b0 94 ed 24 bf 38 44 d3 3e fe 76 0a bf 0c b1 3d be
       -0.64425015 0.41262984 -0.5408782 -0.1852457
0000c0 ba cb 0b bf e2 be 98 3e b4 27 b3 be 77 b3 63 3f
       -0.5460774 0.29833132 -0.3499123 0.88945717
0000d0 ff dc 06 bf e5 a9 2c bf ed 70 db bc c4 13 13 bf
       -0.52680963 -0.6744674 -0.026787246 -0.57452035
0000e0 38 ed b2 3e dd 66 33 bd f3 16 a2 be fd 75 d9 3e
       0.3494661 -0.04379927 -0.31658134 0.4247283
0000f0 37 a8 05 3e 3a 9e 21 3f 1f 81 16 bf 14 f8 2b bf
       0.1305245 0.6313206 -0.58790773 -0.6717541

actor.2.weight f4 [64, 64]
000000 32 91 6f 3f ab 3f f1 3e 12 24 90 be 15 c3 f0 3e
       0.93580925 0.47118887 -0.2815252 0.47023836
000010 04 9e ab 3e 0e 92 24 be 9d bf 72 3f 44 d7 cc be
       0.33518994 -0.1607134 0.9482363 -0.40007985
000020 45 97 bb 3c 0f 3e e5 bf 68 c9 c3 3e 41 06 fa 3e
       0.02289928 -1.7909564 0.38239598 0.48832896
000030 cc 92 9c be 56 b1 5e 3e a6 a6 2e bf bd d1 59 bf
       -0.30580747 0.21747336 -0.68223035 -0.8508566
000040 48 b9 f8 3f fe e3 ca 3e 03 35 c7 3f db be 44 3e
       1.9431543 0.3962707 1.5563053 0.1921343
000050 c1 84 b3 3e 64 67 a7 bf 78 d7 10 3f 5e b9 43 3f
       0.3506222 -1.3078427 0.5657878 0.7645472
000060 71 ee 5f 3f 38 8c cb 3f 83 cb 1b bf 8b 8c 83 3c
       0.8747321 1.5902166 -0.6085741 0.016058227
000070 5b 08 ae 3d c5 ca 24 c0 ee 35 3a bf d9 df 33 bf
       0.084976874 -2.574876 -0.7273854 -0.7026344
000080 a4 2c f2 3e 90 04 17 bf 68 6d 6d 3e 12 4d 43 3e
       0.47299683 -0.58991337 0.23186266 0.19072369
000090 4c e5 48 3f 0f 30 53 3d 5e c5 c0 3f 3d ab 15 be
       0.7847488 0.051559504 1.5060232 -0.14616103
0000a0 69 8a 80 bf ad 1f 40 bf ec 97 25 3f 18 bc 36 3f
       -1.004224 -0.75048333 0.6468494 0.7138076
0000b0 73 fb 21 bf 2d 61 60 3e 45 e5 13 c0 71 cc 8f be
       -0.63274306 0.2191207 -2.3108685 -0.28085664
0000c0 40 75 99 bf c5 40 6d 3f 80 59 73 3f c1 7d ec bd
       -1.1988907 0.92676955 0.9505844 -0.11547423
0000d0 1c 3c ad be c3 1e 00 3e e2 17 90 3d 22 eb 83 3e
       -0.33834922 0.12511735 0.07035805 0.2576533
0000e0 19 15 ba bd c6 77 57 bf 67 40 c9 bd 68 e4 31 3f
       -0.09086055 -0.84167135 -0.09826737 0.69489145
0000f0 3f 50 10 3f 0a d2 fd bc c5 a7 1f 3e 8e c5 5b 3e
       0.56372446 -0.030983943 0.15591343 0.2146208
000100 dd 91 e4 3f fc b4 a3 3f e6 ae 1c be 49 36 1e bd
       1.7857014 1.2789607 -0.15301093 -0.03862599
000110 51 40 d8 3f 51 81 10 3f ac 1e 16 bf ba 6d 19 3e
       1.6894628 0.5644732 -0.5864055 0.14983264
000120 b3 40 b9 3f e8 d9 24 3d f3 4c 1c be c1 3b 69 3e
       1.447287 0.040246874 -0.15263729 0.227767
000130 b3 a7 b1 3f 17 73 fa bb d2 c5 3a 3f 78 68 04 bf
       1.3879303 -0.0076431143 0.729581 -0.51721907
000140 0f c8 94 bd 86 3d 9d 3f 6e e9 43 3f 9b 73 db bd
       -0.07264721 1.22844 0.7652806 -0.10715409
000150 44 aa 4e be 7d 5d e2 be d7 44 2a bf 35 b3 97 3f
       -0.20182139 -0.4421195 -0.6651129 1.1851565
000160 a2 db 2b be 23 7a a0 3d ab e8 58 bf 4b a7 e7 be
       -0.16783002 0.07835796 -0.84730023 -0.45244822
000170 94 48 e0 3e 39 e5 ec bd d0 b5 82 3f 2c fb 7d 3e
       0.43805373 -0.11567158 1.0211735 0.24802846
000180 3e 4a dd 3e 37 4f 47 3e 59 7f 29 3f e7 7c c4 be
       0.43220705 0.19463812 0.6620994 -0.38376543
000190 3f 39 9b 3f 4d 15 42 3e f0 2c d3 3e 37 c2 20 3e
       1.2126845 0.18953438 0.41245222 0.15699087
0001a0 c6 5f 5a be 56 fb d4 be dc 95 82 be 9b b3 87 3f
       -0.21325597 -0.41598004 -0.2550496 1.0601686
0001b0 78 66 88 bf 98 4d 38 3f 8f f2 ee 3d 89 91 e2 be
       -1.0656271 0.719934 0.11667358 -0.4425166
0001c0 9a b3 fb be 71 08 76 bf 7e dd 33 bf a1 0a e4 3d
       -0.49160463 -0.9610663 -0.70259845 0.1113484
0001d0 ca d0 4b bf 3b 4c a3 3e 2c 4a 62 bd 0f f5 86 3f
       -0.7961546 0.31894097 -0.055246517 1.0543536
0001e0 60 07 65 3e ae f0 d2 bd f0 30 05 3f a5 68 7b bf
       0.22366095 -0.10299812 0.520278 -0.9820655
0001f0 75 f5 c7 be a8 43 39 bd 4f dc 6e bf 3e 39 9f be
       -0.39054456 -0.045230538 -0.93304914 -0.3109836
000200 f5 02 9b be 9d 5e 7a be 93 22 98 3d b7 1b c6 3f
       -0.30275694 -0.24450155 0.074284695 1.5477208
000210 64 26 6a be 39 b8 76 bd 52 25 14 3f a8 05 d7 bf
       -0.22866207 -0.060234282 0.57869446 -1.6798601
000220 a4 b4 16 bd 3b 4a 7e 3e 53 7d 9d bf 12 77 71 3d
       -0.036793366 0.24833004 -1.2303871 0.058951445
000230 de d5 4d bf ec 5f 2f 3f cd 2e 90 be 82 c5 8f be
       -0.8040446 0.6850574 -0.28160706 -0.28080374
000240 a0 40 98 bd e9 bc 22 bd 73 a7 32 be 40 5d cf 3e
       -0.07434201 -0.03973094 -0.1744669 0.40500832
000250 14 a2 df be 45 98 29 3e 47 8e 26 be f1 fd e6 bd
       -0.43678343 0.16561992 -0.16265212 -0.11278904
000260 fa e4 e7 3f ec f2 97 3e f2 8c 85 3e 6d b5 3f bf
       1.8116753 0.29677522 0.26084095 -0.7488621
000270 7e 87 80 3f 1b 84 93 3e 88 8f 72 3f f8 c6 48 3e
       1.0041349 0.28811726 0.9475026 0.1960715
000280 77 f5 2a 3f 36 01 b0 3e e2 10 a1 3f 35 78 f0 be
       0.667808 0.34375924 1.2583277 -0.4696671
000290 b3 5d 7f 3e 3b 25 e7 be fb 71 87 bd fb 3e 1d bf
       0.24938087 -0.45145592 -0.06613537 -0.61424226
0002a0 bb 22 b6 be b1 9d 46 3f 68 e1 36 be 18 dd 13 3e
       -0.35573372 0.7758437 -0.17859423 0.1443981
0002b0 22 3d c7 3d 03 7f 88 3e 7d d2 8a 3e 18 9e 40 3f
       0.09728457 0.26659402 0.27113715 0.7524123
0002c0 69 3d af 3e c4 15 6d 3f 8f a0 db 3f 1b 9d c8 3f
       0.3422654 0.92611337 1.7158374 1.5672945
0002d0 5f 3a 81 bf 41 53 b2 3c 76 2d 12 c0 1d 64 3d be
       -1.0095938 0.021768214 -2.2840247 -0.18495221
0002e0 5f 83 25 3f b4 bf 1c 3f d1 dc a3 3e ab f4 a5 3f
       0.6465358 0.61230016 0.32004407 1.2965292
0002f0 b5 d6 aa 3e 41 f7 b1 3f 8f 46 2d bf a3 b9 7c bf
       0.33366933 1.3903581 -0.6768579 -0.9872076
000300 e5 ad 76 3e 29 7f e2 3e d3 2e ba bf 15 0b a7 be
       0.24089773 0.4423764 -1.454554 -0.32625642
000310 30 40 02 be c6 21 dd bd 09 39 24 c0 41 bb 00 bf
       -0.12719798 -0.107974574 -2.5659811 -0.50285727
000320 93 dc 0b 3f 69 5e 8e 3e 10 2d 45 be 72 33 b5 3f
       0.54633445 0.27806404 -0.19255471 1.4156325
000330 41 e7 bd 3f 58 fd 24 3f 3f 39 93 3d cc 5d 40 be
       1.4836198 0.6444907 0.07188653 -0.1878578
000340 19 5c e8 be 4a 94 0d bd c0 d2 48 bf 1e b1 b3 3d
       -0.45382765 -0.034565248 -0.7844658 0.08774017
000350 e1 07 80 be 98 14 12 bf 25 a4 bb 3d c2 fb 99 3e
       -0.2500601 -0.57062674 0.091621675 0.30074888
000360 15 bf b4 bc 4d 7c 68 bf e1 54 d3 be 89 59 2f 3f
       -0.022063771 -0.9081467 -0.41275695 0.68495995
000370 52 3b e7 be 0f f2 ff be eb 7b 1f 3e 81 9b 8f 3e
       -0.45162445 -0.49989364 0.15574615 0.28048328
000380 52 1a 8b be ad bf 04 3e 1d 11 59 bf 96 ad 9d 3c
       -0.27168518 0.12963744 -0.8479174 0.019247811
000390 42 2c f2 be 60 eb ca 3e 7a 8d e9 3e fe cb 12 3f
       -0.4729939 0.39632702 0.4561575 0.5734252
0003a0 db 7b de 3f f4 26 36 bf a8 7b 74 bf c7 be 0e bf
       1.7381548 -0.7115319 -0.95501184 -0.55759853
0003b0 40 57 5c bf 8b df 52 3f c6 9f 24 bf 8a 16 37 bf
       -0.8607063 0.8237235 -0.64306295 -0.71518767
0003c0 46 26 94 3f 9b 88 a1 bd 0f 90 01 bf b9 14 19 bf
       1.157418 -0.078873836 -0.5061044 -0.59797245
0003d0 f3 24 38 3f cc 02 e5 3e a9 2d 09 3f 93 43 a8 be
       0.7193138 0.44728696 0.53585297 -0.32864055
0003e0 28 5a 62 3d 0f d5 71 bf 83 19 b6 3d 8c 8e 93 bc
       0.05526176 -0.94465727 0.08891585 -0.018012308
0003f0 a6 df 6a bf 08 17 a7 bf 2b be c2 3e b9 c5 88 3e
       -0.9174751 -1.3053904 0.38035712 0.2671335

actor.2.bias f4 [64]
000000 83 70 8c 3e f4 ed 04 3e e5 b5 31 3e bd 35 02 bd
       0.2742959 0.12981397 0.17354544 -0.03178953
000010 8d 06 3a bc c4 7b db be 1b 36 57 be 74 7c fb 3e
       -0.011354101 -0.42867863 -0.21016733 0.49118388
000020 e3 e0 5a 3d 3b d3 cc be 3c 63 66 3d 26 c4 e5 3d
       0.053437125 -0.40004906 0.05624698 0.11219053
000030 12 ce 7a be 85 09 df 3c 7b 1f f3 3e fb 02 ca 3d
       -0.24492672 0.027226219 0.47484955 0.0986385
000040 24 b9 83 3e 0c 96 75 3f 21 0e b1 3d 4b 5a 15 be
       0.2572719 0.9593208 0.08645273 -0.14585225
000050 02 11 16 3d 42 28 c6 3c 85 6e 43 3e ad b6 38 3f
       0.036637314 0.024189118 0.19085129 0.7215374
000060 b1 fd 11 3e 39 be 6a bf 05 cc bf bd 6a e2 05 3f
       0.14256932 -0.91696507 -0.093650855 0.52298605
000070 f2 4d 1f 3f a0 15 d1 3e 9e d6 80 be f5 6c be bd
       0.6222831 0.4083681 -0.2516374 -0.09298126
000080 b3 ba bc bd 3c 64 ec 3d 49 60 30 bf 4d 17 0a bf
       -0.092152975 0.11542556 -0.6889692 -0.53941804
000090 63 07 85 3f 89 5c 9a 3e 67 51 1d 3f 81 c9 f6 be
       1.0392879 0.30148724 0.61452335 -0.4820061
0000a0 db 53 3e 3f 05 15 48 be 57 27 28 3e 95 19 9e be
       0.74346703 -0.19539268 0.16421257 -0.30878893
0000b0 fc 21 e5 be ef 12 50 be dc e1 58 3f e8 29 e5 be
       -0.4475249 -0.20319723 0.84719634 -0.44758534
0000c0 7e 06 39 bf 34 c1 aa be b1 03 87 3e 54 12 2a 3f
       -0.7227553 -0.33350527 0.26370004 0.66434216
0000d0 ce a9 2f 3e 67 02 77 3e c0 a4 20 3f fc 07 7d 3e
       0.17154619 0.2412201 0.6275139 0.24710077
0000e0 1f d5 45 be 59 e3 74 3e 19 49 b2 be 96 3d 7b 3e
       -0.1931958 0.23914851 -0.34821394 0.24535212
0000f0 c0 4c bf bd 1f 44 26 bf 51 dc cf 3e a6 af 1c be
       -0.09340811 -0.64947695 0.40597776 -0.1530138

actor.4.weight f4 [7, 64]
000000 34 72 ad bf de 55 bf 3f 23 1d 03 c0 5b eb 23 c0
       -1.3550477 1.494808 -2.0486534 -2.56124
000010 2f 2e d5 3f 21 8b 01 40 4a 23 05 c0 90 8c 39 be
       1.6654719 2.0241168 -2.0802789 -0.18120027
000020 a0 8c 09 40 78 71 ed 3f 97 d3 00 c0 25 65 0b c0
       2.149208 1.8550253 -2.0129144 -2.1780484
000030 84 5f 6f 3f b1 22 1c c0 c2 5a c6 bf 0b 42 1b c0
       0.9350512 -2.4396174 -1.5496447 -2.425906
000040 27 93 23 40 b0 54 28 40 f7 4f 9a 3f f2 99 2d 40
       2.5558565 2.630169 1.2055653 2.712521
000050 e1 39 a3 3f 03 3b 9e 3f c7 8d 1e 40 6f a8 ec bf
       1.2752038 1.2361759 2.4774034 -1.8488902
000060 4a ab 56 bf 33 32 38 c0 31 6b ca 3f 5b 31 43 40
       -0.83855116 -2.878064 1.5813962 3.0498874
000070 c8 08 4b bf 5a 2f dd bf f6 c5 ae 3f 66 e2 0a c0
       -0.79310274 -1.7280076 1.3654163 -2.1700683
000080 9a 4e a3 3f 1a 65 09 40 1e a7 ea be ab 27 b2 bf
       1.2758362 2.1467957 -0.45830625 -1.3918356
000090 6a a7 c0 3f a3 5f 4d 3f 58 fa 2c 3e cb f8 26 c0
       1.5051091 0.80224055 0.16892374 -2.608935
0000a0 64 9f 78 3f e9 40 1c c0 c5 9e 07 c0 b2 a3 0e c0
       0.9711821 -2.4414618 -2.1190655 -2.2287412
0000b0 5b 7d c0 be 91 91 bf 3f 13 35 e1 3f aa 32 c7 3f
       -0.3759564 1.4966298 1.7594322 1.5562336
0000c0 25 38 11 3f 88 80 fb 3f ba d6 9d bf 0a 85 64 bd
       0.56726295 1.96486 -1.2331154 -0.05579094
0000d0 04 80 21 3f 08 b5 84 bf 28 67 b7 3f 22 6c 0a 40
       0.6308596 -1.0367746 1.4328356 2.16285
0000e0 58 81 bc 3f 54 46 a3 3f db 7d a6 3f 05 9c a9 bf
       1.4726973 1.2755837 1.3007158 -1.3250738
0000f0 6a 1e f4 3f 8e 52 a1 bf ca 61 38 3f 73 7a 93 bf
       1.9071782 -1.2603319 0.72024214 -1.1521744
000100 0b 6e ee 3e c9 f8 1e 3f c9 9e 3f 3f 60 ee 3c bf
       0.4656833 0.62098366 0.7485166 -0.7380123
000110 9e e7 0b 3f 5d df 60 be 30 59 11 3f 44 f1 d8 3e
       0.54650295 -0.21960206 0.56776714 0.4237157
000120 bf e3 58 3f 21 22 5d 3d bc 19 84 3e da 0a 76 3e
       0.8472251 0.053987626 0.25800884 0.24027577
000130 fb 09 f4 3f 39 9b be be b2 d9 d2 3d 32 5c a5 bf
       1.9065546 -0.372278 0.10295428 -1.2918761
000140 7c b0 98 be 2c 6e 1c 3e 31 9d 04 bf cc 2d 98 be
       -0.29822147 0.15276402 -0.51802355 -0.2972244
000150 6d 9c 38 bf 4f 71 85 bf f0 03 80 3e 63 d7 30 3e
       -0.72113687 -1.0425204 0.25003004 0.17269664
000160 41 3b 26 3e 64 35 93 3c 69 48 81 3f b3 13 75 3e
       0.16233541 0.017969795 1.0100223 0.23933296
000170 5c b3 86 bf f1 ba b7 3e b3 c6 4b 3e a4 22 dc 3f
       -1.0523486 0.35884812 0.19900016 1.7198071
000180 35 3f db 3e 58 50 b3 3f be 12 bf 3f dc 8c 46 be
       0.4282166 1.4008894 1.4927595 -0.19389671
000190 e6 9f cd 3e 7c 02 71 3f e7 a0 0e bf 67 5a d8 be
       0.40161055 0.94144416 -0.5571427 -0.42256472
0001a0 6c b7 71 bf d8 54 87 bf 59 48 fc bd 80 ed e3 3d
       -0.94420505 -1.0572767 -0.12318487 0.11129284
0001b0 10 17 90 3f f9 51 b2 3f ab 55 0f 3d 81 ff 91 bf
       1.1257038 1.3931266 0.03499381 -1.1406099
0001c0 85 c6 81 3e 83 26 a5 bf 50 36 f3 3e bd 7e 87 3e
       0.2534677 -1.2902378 0.47502375 0.2646388
0001d0 ec 57 c2 bf 9a 3f 13 40 dc 30 3d 3e ce 0d 43 3e
       -1.5183082 2.300757 0.1847567 0.19048235
0001e0 4d c4 e9 bd 43 0c 08 bf a9 16 de 3e 04 28 9d bf
       -0.114143945 -0.5314371 0.43376663 -1.2277837
0001f0 52 aa 45 3e 95 79 14 bf e1 7f 0e be df c4 d3 be
       0.19303253 -0.5799802 -0.1391597 -0.41361138
000200 19 0c 00 3f b1 29 bf be 57 8d b8 3f ad be ff be
       0.5001846 -0.37336496 1.4418133 -0.49950162
000210 91 b4 3e bf bf 72 29 bf b3 5b d1 be 88 56 80 3f
       -0.7449427 -0.66190714 -0.40890273 1.0026407
000220 bf 4f 32 3f 65 e7 e1 be 23 56 cd 3e ba df 84 be
       0.6965293 -0.44121853 0.4010478 -0.2595194
000230 ec 39 92 3e f5 a6 b6 3e 56 e4 a9 3e 17 ab 15 bf
       0.28559816 0.35674253 0.3318202 -0.5846419
000240 72 e5 c0 3c 31 a7 ce 3e ce 36 ed be c9 de 53 be
       0.023546908 0.40361932 -0.46330875 -0.20690455
000250 e0 0b 7d bf 41 aa d1 bf 9f 85 87 bf 77 bd c8 be
       -0.98846245 -1.6380082 -1.0587653 -0.3920705
000260 71 71 bf bf 24 04 d0 be 72 57 af bf 77 fd bc 3e
       -1.4956495 -0.4062816 -1.3698561 0.36912128
000270 6d 65 93 bf b1 11 a6 3f b5 3e d4 be 7d 99 a3 3e
       -1.1515328 1.2974149 -0.41454092 0.3195304
000280 55 07 61 bc ed 2b 29 3d 10 d1 a9 be c2 b1 52 3f
       -0.013734658 0.041301657 -0.33167315 0.82302487
000290 68 a7 d2 3e 74 10 f0 3d b5 df 89 3e 7d d4 7b be
       0.41143346 0.11721888 0.26928487 -0.24592777
0002a0 21 59 98 be 64 34 95 3e 2e eb a1 bf de 29 f0 3e
       -0.297555 0.29141533 -1.2649896 0.46906942
0002b0 7b 47 d0 be 64 e6 78 3f 39 20 a2 3e 89 42 2e bf
       -0.40679535 0.9722655 0.3166521 -0.68070275
0002c0 de 50 38 3f 08 3e 9b bf c7 e1 2e 3f 22 03 9e 3d
       0.71998394 -1.2128305 0.6831326 0.07715441
0002d0 a4 6b a0 3e f3 db 96 3f ea 4e 98 3e 67 30 c4 bd
       0.31332123 1.1785873 0.29747707 -0.095795445
0002e0 92 2b 76 bd 86 e8 7b bf c7 68 32 3f c4 48 dd bc
       -0.060100146 -0.9840168 0.6969113 -0.027012236
0002f0 16 a4 81 be d7 5b e8 3f f1 ab 8c 3f 4b 2f 77 3f
       -0.253205 1.8153027 1.0989972 0.9655654
000300 b9 03 04 40 b1 cf 8c bf 46 70 3f 3f a3 b0 72 3f
       2.0627272 -1.1000882 0.7478069 0.94800776
000310 ea 71 c2 bf fd 55 d0 bf fc 55 8d 3f f2 d7 02 3f
       -1.5191014 -1.6276242 1.1041865 0.51110756
000320 82 ca 68 bf ea c6 2b 3e 40 f2 01 40 e6 1a 53 3f
       -0.90934 0.16775098 2.0304108 0.8246292
000330 e4 54 ed bf 1c 72 98 3f 82 02 fc 3f 26 85 e1 3f
       -1.8541532 1.1909823 1.9688265 1.7618759
000340 fa 95 63 bf b8 aa 41 bf 5a 02 dc bf 63 df bf bf
       -0.8890072 -0.7565112 -1.7188218 -1.4990047
000350 9e 7f 9c bf 39 2d a3 bf 7a eb e5 bf 00 05 03 40
       -1.2226446 -1.2748176 -1.7962487 2.0471802
000360 91 41 01 40 c1 75 54 3f cd ce d4 bf d7 55 17 bf
       2.0196269 0.8299218 -1.662561 -0.59115356
000370 78 7b c2 3f bc a0 ef 3f 37 ad ec bf bb 0a b6 3e
       1.519393 1.8720927 -1.8490361 0.35555062
000380 25 d9 c5 bf 90 25 b8 bf 61 4e dc bf 2c b8 27 3f
       -1.5456892 -1.4386463 -1.7211419 0.655154
000390 e4 cf d9 3f 13 3a ab 3f 56 6a 0f 40 47 0f 06 3f
       1.7016568 1.3377098 2.2408652 0.5236706
0003a0 b4 fc c3 3f d4 03 97 3f ab 90 b0 3f 85 eb 8f 3e
       1.5311494 1.1798043 1.3794149 0.28109375
0003b0 f4 e5 c0 bf d1 bb c4 bf ed 56 ae 3f e9 89 21 c0
       -1.5070176 -1.5369817 1.3620278 -2.5240424
0003c0 23 61 32 c0 48 7b c6 bf 63 08 b7 3f cb af 25 40
       -2.7871788 -1.5506372 1.4299434 2.5888546
0003d0 1f 90 d3 be c3 93 d2 3f 8c 5b 9f 3f cd c4 80 bf
       -0.41320893 1.6451343 1.2449813 -1.0060059
0003e0 03 73 1b c0 bd 8e af bf ac 00 8f bf 94 e5 91 3f
       -2.4288948 -1.3715435 -1.117208 1.1398187
0003f0 4c 86 ee bf e2 26 2a 3f f9 f7 a2 3f d6 ac a1 3f
       -1.8634734 0.6646558 1.2731925 1.263087

actor.4.bias f4 [7]
000000 6e 60 c2 3f a7 fe c8 3d 71 37 09 be f8 f1 a1 3f
       1.5185678 0.09814196 -0.13400055 1.2651968
000010 4c 5e 0f 3f 21 8f 88 3e 2b ec 86 3e
       0.5600326 0.266717 0.26352057

critic.0.weight f4 [64, 16]
000000 bf 1e 92 40 5f 66 26 40 d9 60 73 3f 50 00 0c 40
       4.566253 2.5999982 0.9506965 2.187519
000010 2f 0a 52 3f 78 6a 71 3f cf b0 2b bf 53 78 f1 3f
       0.8204679 0.94303083 -0.67066664 1.8864845
000020 75 ba a3 3f 37 cb 5e 3f b3 97 93 3f 11 10 81 3f
       1.2791277 0.8702883 1.153067 1.0083028
000030 28 82 da 3f b2 53 54 bf 1b f1 39 3f e3 21 34 3f
       1.707097 -0.8294021 0.7263352 0.7036421
000040 2e e4 23 be c5 4f 98 bf b9 cf 37 3f a4 4b 2e bd
       -0.16005012 -1.1899344 0.71801335 -0.042552605
000050 2f eb 10 bd 6b d5 91 be f7 37 fd 3e f0 fb cf be
       -0.03538054 -0.28483137 0.4945676 -0.406219
000060 5e 8d 7f bd 9c 1d 5c 3f 22 a0 22 3f a6 c8 b7 3e
       -0.062390678 0.8598268 0.63525593 0.3589527
000070 23 3d 76 3f 01 40 27 c0 85 76 48 bf be e4 6e 3e
       0.9618704 -2.6132815 -0.78305846 0.23329446
000080 31 73 54 3e df 62 e5 3d 71 bd 8d be 2b 8d 90 3e
       0.20747067 0.11200499 -0.27683595 0.28232703
000090 f5 95 b8 3e a1 e7 24 bf 5a 58 94 40 98 6b ed be
       0.36051908 -0.6441594 4.635785 -0.4637115
0000a0 6d df f1 bf d1 45 97 be 30 5f 3c bf d3 e3 41 bf
       -1.8896309 -0.29545453 -0.73582745 -0.7573826
0000b0 64 37 e7 3f 08 bb 8d 3e d8 e8 5b bc 6a f2 7b be
       1.8063779 0.27681756 -0.0134222135 -0.24604192
0000c0 71 5b 96 bf 40 a3 92 3f 4c c6 0c bf a6 c9 bd 3e
       -1.1746656 1.145607 -0.54990077 0.37067908
0000d0 ee fe 94 bf f3 8d 19 c0 35 da 42 bf 9c 8d a2 be
       -1.1640298 -2.399289 -0.7611421 -0.31748664
0000e0 be 64 c7 3f 75 a4 92 bf 5f 4f a8 be 3a 6e e2 bc
       1.5577619 -1.1456438 -0.32873055 -0.02764045
0000f0 44 00 77 3f b0 b2 c8 3d d5 38 71 3f a7 3f 11 3f
       0.9648478 0.09799707 0.94227344 0.5673775
000100 28 55 01 be 85 86 0d bf 9c 67 0d c0 17 d8 95 bf
       -0.12630141 -0.55283386 -2.2094488 -1.170657
000110 83 0d c1 bf f6 05 a0 bf b3 e2 28 c0 d4 ab 93 bf
       -1.5082248 -1.2501819 -2.6388366 -1.1536813
000120 24 ba 9a bf 7c bf a9 3e 99 25 1e 3f 41 45 3c 3e
       -1.2088056 0.33153903 0.6177612 0.18385793
000130 f0 d8 4e bf 8e 52 21 40 d7 55 f0 be 72 57 b3 3e
       -0.8079977 2.5206637 -0.4694049 0.35027653
000140 09 1e ba c0 b0 8b 3b c0 55 50 30 c0 d4 f4 29 bf
       -5.8161664 -2.9304008 -2.754903 -0.66389203
000150 45 a6 48 3f eb 71 aa 3f 56 1a c9 3f 42 64 e6 be
       0.7837871 1.3316015 1.5711162 -0.44998366
000160 6c 91 9a bf 4c cb 25 be 59 0d 54 bf 5b e0 30 bf
       -1.2075629 -0.16190833 -0.82832867 -0.6909234
000170 19 50 d7 3e 64 af 0d 3e d4 cb e7 bd 9b b2 08 bf
       0.42053297 0.13836437 -0.11318174 -0.5339753
000180 6b 6f 55 3f 12 44 da bf ba 2a 89 3e 4d 4b db be
       0.83373135 -1.7052023 0.2679041 -0.42830887
000190 09 86 80 3b 52 99 d6 bd 4e cc 10 c0 85 0d 08 be
       0.0039222282 -0.10478462 -2.2624698 -0.13286407
0001a0 54 62 dd 3f 2c a4 bf 3e 8f e8 85 3f a0 08 85 3f
       1.7295632 0.3742994 1.0461596 1.0393257
0001b0 81 eb 38 be 2d 0b 5c bf ff 49 b0 bf c6 2d 0d bd
       -0.18058588 -0.8595455 -1.3772582 -0.03446748
0001c0 af 5e 04 3f 90 4a 03 40 55 97 a1 3f 08 6e dc 3f
       0.51706976 2.051426 1.2624308 1.7221079
0001d0 fc ca df 3e d2 49 39 40 3e ae d4 bf c2 90 94 3f
       0.43709552 2.8951306 -1.6615674 1.1606677
0001e0 97 d3 f4 3f b3 d7 b9 3f d0 33 a9 3f f2 6c 86 3f
       1.9127072 1.4518951 1.3218937 1.0501997
0001f0 b4 32 ef bb bd 17 41 bf c2 13 8f bf f5 a5 93 3c
       -0.0072997455 -0.75426847 -1.1177905 0.01802347
000200 67 64 8c be fb fc a2 be 51 07 b2 bf 1c 25 42 3f
       -0.2742035 -0.31833634 -1.3908483 0.75837874
000210 d5 96 e5 3e ee e6 8a 3e f6 47 cc be 62 07 80 bf
       0.44841638 0.2712931 -0.39898652 -1.0002253
000220 61 25 8e 3f 61 3b 0a 3f 20 dc 58 3f 0c 23 49 3f
       1.1105157 0.53996855 0.84710884 0.785691
000230 f0 78 77 40 e4 a7 b7 be 31 91 a9 bd 68 61 51 bf
       3.8667564 -0.35870278 -0.08279646 -0.81789255
000240 f2 58 20 c0 f8 a0 b0 3f d6 4a 91 3f 0a 54 f3 bd
       -2.5054288 1.3799124 1.1350963 -0.118812636
000250 30 cb bf 3e db 7f 25 3d a7 39 fd be 74 2a 5d c0
       0.37459707 0.040405136 -0.49458048 -3.4557161
000260 a4 06 95 c0 af 67 3a 3e a5 a4 ca be 96 4b d5 be
       -4.6570606 0.18203615 -0.3957874 -0.4165923
000270 87 7e 99 bf 5e c1 74 3f e0 5f 15 be 50 22 0a 3f
       -1.1991738 0.95607555 -0.14587355 0.53958607
000280 6a c7 c3 be 5a d0 0b bd 2f 5d 28 3f 93 3b 76 3f
       -0.38238078 -0.034134246 0.65767187 0.96184653
000290 a5 ec 9f bf ec a4 db 3e 21 c5 c0 c0 65 d9 81 3f
       -1.2494093 0.42899263 -6.0240636 1.0144469
0002a0 f8 8e 78 40 27 38 c6 3d 0f 51 21 3f 34 67 68 3f
       3.8837261 0.09678679 0.6301431 0.90782475
0002b0 28 b7 c2 bd 2d 51 ed bf 9a 26 81 3b c9 45 67 3d
       -0.095075905 -1.8540398 0.0039413692 0.056463037
0002c0 8c f5 de 3e 03 e6 9a 3d e6 6f ba bd 51 01 ab be
       0.43546712 0.075634025 -0.09103374 -0.33399442
0002d0 f8 1c 51 3f 36 43 c3 be e7 2d 1f 40 38 3b 04 c0
       0.8168483 -0.38137215 2.4871767 -2.0661144
0002e0 2c 60 27 c0 46 db bb be b9 4b 0b bf 79 92 35 bf
       -2.6152449 -0.3669073 -0.5441242 -0.70926625
0002f0 46 d8 05 40 65 c0 a2 3e 96 e9 b2 3b fd 7f cf be
       2.0913253 0.3178741 0.0054599745 -0.40527335
000300 c7 66 a2 3d 42 68 5a bf 69 9e 80 3f 11 30 06 3c
       0.079297595 -0.85315335 1.0048343 0.008190171
000310 6e 9e 9a bc 5d 33 30 bd 10 d3 4e c0 50 4c 1b 3f
       -0.018874373 -0.043017734 -3.2316322 0.6066332
000320 5d f7 f0 3f 40 59 cc bd d4 85 cd 3d 1d 36 53 be
       1.8825489 -0.099779606 0.10035291 -0.20626111
000330 31 de ba bf 8b fa 8c 3e 5f 15 8b 3f 36 59 16 3f
       -1.4599057 0.275349 1.0865897 0.58729875
000340 6e 68 51 bf a7 3d 89 be af 12 a6 3f 20 df 4b be
       -0.8179997 -0.2680485 1.2974452 -0.19909334
000350 22 d2 c9 bd 14 19 9c 3f c6 1d 57 3f 91 62 ac bf
       -0.09854533 1.2195153 0.84029806 -1.346758
000360 8b a0 20 3f b7 8c 06 bf b0 07 b4 3d 11 63 4b 3e
       0.6274497 -0.52558464 0.08790529 0.1986201
000370 72 b4 4a 40 b9 08 1f 40 1b e9 c2 3f 9f 64 af be
       3.1672635 2.4849074 1.5227388 -0.34256455
000380 70 61 91 be 31 c7 92 3e 0d 7a ee bc 9d 8b 1a bf
       -0.2839465 0.28667596 -0.029110933 -0.6036928
000390 82 23 69 bd 96 70 ae 3e 2c 63 d3 bf f6 b0 ad 3e
       -0.05691863 0.3407027 -1.651464 0.33924073
0003a0 c1 bd d4 bf 45 b9 9d 3e 7b fd 32 bf 9f 77 92 bf
       -1.6620408 0.30805412 -0.6991803 -1.1442755
0003b0 7c cd 8a be b0 db 4e 40 68 8f ed 3a 84 30 b1 bd
       -0.27109897 3.2321587 0.0018124403 -0.08651832
0003c0 63 e0 49 be 9f 01 34 3f 0b 15 55 3f 45 45 de 3e
       -0.19714503 0.70314974 0.83235234 0.43412223
0003d0 ea 8f 83 bf 0a d2 d4 be e4 bc 22 41 36 15 65 40
       -1.0278294 -0.41566497 10.171116 3.5794196
0003e0 65 4f 7b be 07 c1 98 3d 46 79 fa be e9 cb 11 bf
       -0.24542005 0.07458692 -0.4892065 -0.5695177
0003f0 7d 5a 18 3f 53 33 03 40 f2 77 d8 be 44 ce 22 be
       0.59513074 2.0500076 -0.4227901 -0.15898997

critic.0.bias f4 [64]
000000 c1 6c 43 3f c8 63 4b be 5d 3c 66 3d 17 da 17 3f
       0.7633782 -0.19862282 0.05620991 0.59317154
000010 b6 d4 c2 3e 3a 9a 02 bf bb d5 e4 3d d0 28 46 be
       0.3805291 -0.5101658 0.11173578 -0.19351506
000020 96 35 51 bf 3c e5 8e 3e 32 93 f6 3c 65 e6 79 be
       -0.8172239 0.27909267 0.030099485 -0.24404295
000030 32 3b da 3e 31 65 ff be 91 e0 59 be 73 84 36 3c
       0.42623287 -0.4988189 -0.21277072 0.011139977
000040 1e 68 0f 3f 25 65 2f 3e d3 5b 24 3e 06 53 0b bf
       0.56018245 0.17128427 0.16050653 -0.5442356
000050 64 33 da 3d fe f6 5a bf 13 a8 85 3f 40 b1 02 bf
       0.10654333 -0.8553313 1.0441917 -0.5105171
000060 1c 47 27 be 53 de 46 bf d6 fe 67 3f 3a 5f 91 3c
       -0.1633572 -0.7768299 0.90623224 0.017745603
000070 60 17 02 3d c5 8a f5 3e 2b 7d 0b 3c 32 ab bc 3e
       0.031760573 0.47957435 0.008513729 0.36849362
000080 40 70 06 3f 65 ea 6a 3f e8 39 e0 3d cb d0 80 3e
       0.5251503 0.9176391 0.10948545 0.25159296
000090 0e d5 b0 3d 11 05 d0 3d de 61 f4 be e9 3e 25 bf
       0.08634387 0.10157216 -0.47730917 -0.6454912
0000a0 24 4d 0c bf 7e f0 40 3e 9f 46 9a 3c a9 71 af 3e
       -0.5480521 0.1884174 0.018832503 0.34266403
0000b0 16 c9 32 bf 1f 27 ae 3e a6 0d 00 bf c0 21 23 3f
       -0.6983808 0.34014222 -0.50020826 0.63723373
0000c0 de 8d 8c be 63 34 82 3e d8 32 ab 3e 7f 96 a9 3f
       -0.27451986 0.25430593 0.33437228 1.3249053
0000d0 55 1e 23 be 2b 11 77 bc d1 d3 72 bf 52 6d fb 3e
       -0.1592954 -0.015079777 -0.94854456 0.49106842
0000e0 c6 18 2a 3f 26 74 93 be 17 82 b7 3e a5 8d 86 3e
       0.6644405 -0.28799552 0.35841438 0.2627994
0000f0 21 82 d7 be 89 17 63 3f c1 37 b4 3f f7 32 3a 3e
       -0.42091468 0.88707787 1.4079515 0.18183504

critic.2.weight f4 [64, 64]
000000 d6 6d 3d be 7a 00 ae be bb 25 8e bf a5 6b b4 bd
       -0.1849893 -0.3398474 -1.1105264 -0.08809594
000010 d1 71 b2 3d 0d 9b bf 3e 67 12 be 3e 97 51 9b 3f
       0.08713115 0.37422982 0.37123415 1.2134274
000020 5b 51 0a bf 4c c0 32 3f 4e e4 cd 3e f9 07 4e bf
       -0.5403039 0.6982467 0.40213245 -0.80480915
000030 3c 37 38 3f c9 76 34 3e f8 84 81 3e a5 33 b8 be
       0.7195928 0.17623438 0.2529676 -0.35976902
000040 97 2d c0 3f eb e5 26 3f fc 86 41 3e bc b4 08 bf
       1.5013913 0.65194577 0.18899149 -0.5340078
000050 ef 45 59 3e 5a f8 a0 bf 61 3a 1f bf cd 6c 2d be
       0.21218084 -1.2575791 -0.62198454 -0.16936035
000060 85 b8 e5 3f bb 6a 13 bf 97 d0 5f be 53 c5 f5 be
       1.7946936 -0.5758473 -0.21856914 -0.4800211
000070 63 af c3 be aa 84 8a 3f 3a 97 5f bf cf 14 bc 3f
       -0.38219747 1.0821736 -0.8734013 1.469385
000080 31 8b a5 bf ed 32 e7 be c7 68 d5 bc 9a c4 39 bf
       -1.2933103 -0.4515604 -0.026050938 -0.72565615
000090 ac a8 a4 3d df 82 34 3e 55 0b 2a bd b2 fc 83 bf
       0.08039984 0.17628048 -0.041514713 -1.0311491
0000a0 da 76 ac bf 4c a1 d7 be ee 72 80 bf 50 5e 2f bf
       -1.3473771 -0.42115247 -1.0035074 -0.68503284
0000b0 4d af 58 be 97 ba e9 3d 60 61 b4 be 01 c9 7e 3f
       -0.21160622 0.11412542 -0.3523054 0.9952546
0000c0 f2 fa 43 bf 6d e6 8c 3f 39 16 8a 3f 81 50 2a 3f
       -0.7655479 1.100782 1.0788032 0.6652909
0000d0 b8 78 ce 3f 69 bd 7e 3f 22 f3 a6 bf 73 81 80 3e
       1.613059 0.99507767 -1.3042948 0.25098762
0000e0 2e d1 eb 3e 41 86 20 c0 bd e3 66 3f 96 5e 75 3f
       0.4605803 -2.5081942 0.9019125 0.9584745
0000f0 1d 3d aa bf 13 23 ff be 6f 82 89 3e af 3e ec bd
       -1.32999 -0.49831447 0.26857325 -0.115353934
000100 71 07 e2 3d 82 e8 8d 3f f1 e2 83 bd 54 8e 89 be
       0.110365756 1.1086581 -0.0643977 -0.268664
000110 01 ad 79 bf d0 69 8c 3e e1 d3 50 bd 66 63 01 bf
       -0.9752961 0.2742448 -0.050983313 -0.50542295
000120 6d 83 d3 3e fe d5 34 bf 5b db fe 3f f4 ac 23 be
       0.41311207 -0.70639026 1.9910692 -0.15983945
000130 1b 99 8f bc a6 80 96 3f ea 6e dd bf 22 62 ea be
       -0.017529061 1.175801 -1.7299473 -0.45777994
000140 9c 90 bc bc ab bc 63 3e f0 fa 2e bf 2f 12 b6 3f
       -0.023018174 0.2223994 -0.6835165 1.4224299
000150 c7 25 0f 3f 25 b6 7f be c0 dc 0b bf 0c 53 74 3f
       0.5591702 -0.24971826 -0.5463371 0.9543922
000160 05 2b b2 be f2 6e 86 be ce 6b 67 bf 0c 96 34 bf
       -0.34798446 -0.2625652 -0.9039887 -0.70541453
000170 63 9d b2 3f 9a e9 12 3e 9b ba 28 bf 5c 8e ef be
       1.3954281 0.14346924 -0.6590974 -0.467883
000180 9f 81 be bf 57 ff 95 be 41 12 c6 3f 7b 0e ae 3e
       -1.4883307 -0.2929637 1.5474321 0.33995423
000190 a7 88 3a 3f 00 52 95 3f e7 fd 42 3f c1 dc 4a 3f
       0.72864765 1.166565 0.76168674 0.79243094
0001a0 f4 8d 46 3f 14 72 80 bf a9 48 4b 3f 1e 66 fb 3e
       0.77560353 -1.0034814 0.79407746 0.49101347
0001b0 71 40 4d 3f 87 16 80 bf 29 29 6d bf 0a 07 d0 bc
       0.80176455 -1.0006875 -0.9264093 -0.025393981
0001c0 a8 4d 28 3d 7d 5c 09 bf 16 15 b1 3e 1f de 98 bf
       0.041089684 -0.5365675 0.345864 -1.1942786
0001d0 bd 55 c5 bf f8 71 4b be b3 33 a9 3e 61 b7 16 be
       -1.541679 -0.19867694 0.33047256 -0.14718391
0001e0 55 4e 3e 3f fe db 18 40 27 3b 9d bf 31 08 f1 be
       0.74338275 2.3884273 -1.2283677 -0.47076562
0001f0 4e 92 b4 3f 76 8b b2 bf 0a 31 e7 bf 3c 44 c3 be
       1.4107149 -1.394881 -1.806184 -0.38137996
000200 89 40 db 3e 7e b6 c1 be 4a 89 2f bf 9f cb c9 bd
       0.42822674 -0.37834543 -0.6856886 -0.09853291
000210 fb dc 72 3e 14 0c b7 3e cd 13 1f bf b9 51 cf bf
       0.2371711 0.35751402 -0.6213959 -1.6196815
000220 8f 8b 3a 3f 0f 19 90 3f fa b3 6a 3e 41 75 c7 be
       0.728692 1.1257647 0.22920218 -0.38956645
000230 5f e3 b7 3d 4e 96 69 3e 15 3f 7d be 4f e1 67 bd
       0.089789145 0.22811243 -0.24731095 -0.056611355
000240 ac be 4f 3f 0b ec 06 3f 28 b7 19 3f 2c 98 a1 3d
       0.8115032 0.52703923 0.600451 0.078903526
000250 65 eb 95 3f 0a 4c c7 3d e3 3f 53 3f 8c 86 c8 3c
       1.1712462 0.097313 0.8251936 0.02447822
000260 41 20 83 3f c6 2d e1 bd b7 59 74 be 51 d5 89 be
       1.0244218 -0.10995059 -0.23862348 -0.2692056
000270 26 6d 96 3f 16 5a d0 3e bf 55 b7 bf 7c 89 37 3f
       1.175206 0.4069373 -1.4323043 0.7169416
000280 a1 38 07 bf 02 28 b1 3e 18 cd 51 bf c5 4f 02 3e
       -0.52820784 0.34600836 -0.81953573 0.12725742
000290 36 09 a7 3d 53 87 a1 3d b3 a8 99 bd e2 76 b1 bd
       0.08156054 0.07887139 -0.0750288 -0.08665253
0002a0 f0 88 72 be f8 7c 8d 3e bb 37 f9 3e 1b d9 08 bf
       -0.2368505 0.27634406 0.4867533 -0.53456277
0002b0 09 90 b8 3e 2c 96 99 bf f6 26 db be 32 da a3 3e
       0.3604739 -1.1998954 -0.42803162 0.32002407
0002c0 69 8e c3 be b8 43 77 3e ae 2b 49 3f d4 63 50 3c
       -0.38194588 0.24146926 0.78582275 0.012719113
0002d0 a6 6e 18 bd af 26 cd bf 36 16 a0 3e 86 c0 b0 be
       -0.037214898 -1.602743 0.31266946 -0.34521884
0002e0 8d 63 8a be 0e 00 44 3e d6 0f 33 3e 66 0d b5 be
       -0.27029076 0.19140646 0.1748651 -0.35361785
0002f0 f4 b8 05 be bb b2 fd be 7a 19 e7 be a1 89 53 bd
       -0.13058835 -0.49550423 -0.45136625 -0.051644925
000300 1e 63 e3 3e db 88 8b bf b9 3b e7 3c 0b 01 8d 3d
       0.44411558 -1.090114 0.02822672 0.068849646
000310 15 e5 f2 be b1 ff 4f bf 55 31 39 be e1 5b 91 bd
       -0.474404 -0.8124953 -0.18085225 -0.07097603
000320 cd af 37 be a8 de 34 3f e2 10 e7 3c d1 f3 b9 bc
       -0.17938156 0.70652246 0.028206293 -0.022699269
000330 61 3c 8f 3d dc 01 96 be 48 78 49 3f 2e ca d0 3d
       0.06993938 -0.29298294 0.7869916 0.10194813
000340 e8 11 9c be dd f8 74 3f 5c 77 e6 3d f2 a7 3b bf
       -0.3048241 0.95692235 0.11253235 -0.7330314
000350 e1 57 0b c0 12 61 95 3e 82 9c 40 bf a9 ea a6 3e
       -2.1772387 0.2917562 -0.7523881 0.32600906
000360 97 1c 78 be 67 28 c4 bc 5c d2 17 bf e3 57 18 be
       -0.24229656 -0.023945047 -0.5930536 -0.14877276
000370 d3 4f a9 3e 67 87 9b be 17 6d 97 be 24 cc 6b 3e
       0.33068714 -0.3037674 -0.29575416 0.23027092
000380 65 39 62 bf 26 54 b8 be 07 1b 81 be 98 aa 82 be
       -0.8836883 -0.360017 -0.25215933 -0.25520778
000390 c0 ba 08 bf 12 36 31 3e 83 1b 0f bf 50 11 26 3d
       -0.5340996 0.17305782 -0.55901355 0.040543854
0003a0 0f bd b3 be 4e aa e4 be 98 72 69 be a7 f5 e6 be
       -0.35105178 -0.44661182 -0.2279762 -0.45109293
0003b0 b4 34 b6 be 6f cf 65 3e 9f a4 04 3e 01 d7 08 bf
       -0.35587084 0.22442411 0.12953423 -0.5345307
0003c0 0f 75 cc bd 10 78 19 3e ff e6 d7 be 5b 82 e6 be
       -0.09983265 0.14987206 -0.42168424 -0.45021328
0003d0 c1 d5 af 3f bd 3c ab be 27 c6 54 be 15 2e 18 3f
       1.3737108 -0.33444777 -0.20778714 0.59445316
0003e0 8e fe 2d 3f 84 3a 26 bf d0 33 2a 3e c6 ac a3 be
       0.67966545 -0.6493304 0.16621327 -0.31967753
0003f0 1c f7 ab 3f 1b 84 aa 3e e5 54 4a bf 1c a3 8e 3e
       1.3434787 0.33303913 -0.7903579 0.27858818

critic.2.bias f4 [64]
000000 c4 1e 99 3e f7 88 63 3f 81 5e 39 3d 44 9a 8b 3d
       0.29906285 0.88880867 0.04525614 0.06816533
000010 27 ee 11 3e d3 8b 15 bf 16 27 3b 3d a8 0d 43 3e
       0.14251004 -0.5841648 0.045691572 0.19048178
000020 39 e6 87 3e a0 bb f4 3e e6 f4 16 bf bb 4a 78 3d
       0.26542833 0.47799397 -0.58967435 0.060618144
000030 be a4 58 be a6 4e 44 be 73 96 28 3e 21 39 ef 3d
       -0.21156594 -0.19170627 0.16463642 0.11680818
000040 b4 9f ff be 8d 10 ac bf 6b 19 24 be 73 6c e0 ba
       -0.4992653 -1.3442551 -0.16025321 -0.0017122164
000050 d4 6f 68 be b6 c4 c1 3d e5 f9 99 3d cf e6 74 3f
       -0.22698909 0.09461348 0.07518367 0.95664686
000060 9f a0 9e be 94 b1 2e be af c8 7e be a9 f4 18 be
       -0.3098192 -0.17059928 -0.24881242 -0.1493708
000070 e2 d9 c4 be 10 be de bd 70 96 bd 3e db a3 e2 3c
       -0.3844748 -0.10876095 0.37028837 0.027666023
000080 7c 8c 14 3f 4a a6 2a bf 73 ce 7e bf 16 0b c4 be
       0.5802686 -0.66659987 -0.99533767 -0.38289708
000090 47 07 17 3e a5 de ff 3e 43 54 71 be 13 21 b2 be
       0.1474887 0.49974552 -0.235673 -0.3479086
0000a0 a4 21 dd 3d 8b 67 11 be 5f 5b dc 3c b2 91 1f bf
       0.10797432 -0.14199655 0.026899038 -0.6233169
0000b0 32 b5 22 3e 83 3e 6f be a2 98 10 bf da fc 18 bf
       0.15889433 -0.2336369 -0.564829 -0.5976082
0000c0 28 0a f4 be cb 93 70 3e e6 d5 ca be 9e e4 36 3f
       -0.47664 0.23493879 -0.39616317 0.7144259
0000d0 d0 51 01 be e8 4a 3d 3f 85 7b 2b be 50 d4 84 3d
       -0.12628865 0.7394242 -0.16746338 0.06485808
0000e0 fb b8 35 3e 32 51 e1 3d d0 7d ff bd c3 aa a7 3e
       0.17746346 0.11001815 -0.12475169 0.32747468
0000f0 d6 2e 2e 3e 7c e7 e1 be c9 8e fb bd b4 bb 2f bf
       0.17010054 -0.4412192 -0.122830935 -0.6864579

critic.4.weight f4 [1, 64]
000000 9d 69 0c bf 4f 0d 2a bf f9 9e 95 be 04 d6 22 3e
       -0.54848653 -0.6642656 -0.2922285 0.15901953
000010 5f 8f 4d 3e 9a 16 29 bf 31 21 24 bd d9 9e e9 3e
       0.20074223 -0.6605011 -0.040070716 0.45629004
000020 c2 bc f2 3e 8b fc 03 bf 4d c2 f6 3e 6b 9a 14 bf
       0.47409636 -0.51557225 0.48195115 -0.58048123
000030 3a 18 2d 3f de bb b8 be cf d5 e2 be 06 b1 df 3e
       0.6761509 -0.3608083 -0.44303748 0.43689746
000040 42 dc 56 bf 46 3d 1f 3f 65 f5 bc bd d4 f8 8e bd
       -0.83929837 0.6220287 -0.09226493 -0.06981054
000050 57 1a ae be 0d e0 21 3f fa 2b 32 bf 53 59 f4 3e
       -0.3400447 0.632325 -0.6959835 0.477244
000060 35 0c 96 3e ad f9 9d be 11 f4 a0 3e c2 07 32 bf
       0.29306188 -0.3085455 0.31436208 -0.6954309
000070 06 d4 17 3f 0b 47 e9 be da f7 ea be 54 79 0a 3f
       0.593079 -0.45562014 -0.4589222 0.5409138
000080 41 52 fb be 92 35 0e 3f f0 c0 f1 3e af 64 1e bf
       -0.49086192 0.5555049 0.47217512 -0.6187238
000090 5b ec 55 be 33 2b 22 3f 46 0c 3e 3f ce f4 9d 3b
       -0.20890944 0.63347167 0.7423748 0.0048204428
0000a0 6c f1 f8 3b 6c 0a 16 3f 9d ef cb 3e f3 1e 01 3f
       0.007597139 0.5860965 0.39831248 0.5043785
0000b0 4f df 14 be aa 99 49 be 70 b4 79 bf 83 38 08 3f
       -0.1453831 -0.19687524 -0.9754095 0.5321123
0000c0 05 05 14 3f b4 d9 74 3e 9e bb 19 bf 4f 2a 35 3f
       0.5782016 0.23911172 -0.60051906 0.7076768
0000d0 73 c2 2f 3f cc c5 8c be db a9 1c 3e 0e 03 c0 3e
       0.6865608 -0.27494657 0.1529917 0.3750233
0000e0 ab db 1b bf 00 15 f2 3e ca bd 97 3e f9 d6 e5 3e
       -0.6088206 0.47281647 0.29636985 0.44890574
0000f0 44 31 1a 3f ed c8 10 bf 6c 21 97 be 0e e0 13 3f
       0.60231423 -0.5655659 -0.29517686 0.57763755
