Model Results/ppoAMC2020-06-011999.pth (torch, 48311 bytes, 11 tensors)

actor.0.weight f4 [64, 16]
000000 d4 9e 18 40 49 0a a5 3f a9 f1 4d be be 2b 1d 3e
       2.384694 1.2893764 -0.20111717 0.15348718
000010 55 29 08 3e fe e4 6d 3e 6c 43 6a c0 76 33 7f c0
       0.13297017 0.23231885 -3.660365 -3.987516
000020 f4 e3 72 c0 c1 00 27 bf 25 df cf be 85 1d 36 bf
       -3.7951632 -0.65235525 -0.40599933 -0.71138793
000030 08 53 f4 3e 33 20 eb bd 3c 3c 2a 3f a1 65 3c 3d
       0.47719598 -0.11480751 0.6649816 0.04599536
000040 27 f7 3a bf 85 d8 60 be 4c 33 03 be b5 d7 f7 bc
       -0.73033375 -0.21957596 -0.12812537 -0.030254224
000050 13 60 35 3e 6c 53 af 3d 57 8a ec bd 00 af 3f bf
       0.1771243 0.08560833 -0.11549824 -0.74876404
000060 1a 28 96 bf d5 02 10 3e 0c 40 ca 3c 89 32 52 be
       -1.1730988 0.1406358 0.024688743 -0.2052709
000070 69 43 09 c0 1b 93 da be 75 d3 5e 3d fc 3a 4c 3b
       -2.1447394 -0.42690358 0.05440088 0.0031163087
000080 31 f3 e5 be ae fe b4 bf ac 75 bd bf 60 c9 10 3f
       -0.44912103 -1.4140222 -1.4801536 0.56557274
000090 97 5f 24 3e ce 32 f6 3d f0 41 03 bf a1 f2 3e 3f
       0.1605209 0.12021409 -0.5127249 0.7458897
0000a0 22 f2 12 40 f6 89 c8 be f8 a8 ca bc fe c0 44 bd
       2.2960286 -0.39167756 -0.024738774 -0.048035614
0000b0 3f c8 d6 3e eb d4 04 bf ba 84 73 3f 9e 88 02 bf
       0.4194965 -0.5188739 0.951244 -0.5098971
0000c0 67 ba 84 3f a8 56 85 3d 6b 92 b2 be 26 bb 2d 3e
       1.0369385 0.06510669 -0.34877333 0.16965923
0000d0 7f 64 59 3b 8f 41 aa bd 1c 05 2f bf ea 70 f7 3e
       0.0033171473 -0.083132856 -0.6836717 0.48328334
0000e0 f7 5e f7 3e 50 e8 5a bd f0 c7 35 be ce c5 35 3b
       0.4831464 -0.053444207 -0.17752051 0.002773631
0000f0 51 8b 05 40 18 f5 58 3f 06 a8 7d 3f 2f e9 a0 be
       2.0866282 0.84748983 0.9908451 -0.31427905
000100 e5 24 dd be 46 71 d3 3e 30 5f 72 3f 1e 29 2b bf
       -0.4319221 0.41297358 0.94676495 -0.66859615
000110 e4 6b da be f8 48 33 bf 30 92 2f 40 99 ad 53 3f
       -0.4266044 -0.70033216 2.7432976 0.82686764
000120 4f 0d 6c 3e fc c8 3b be bb 5b 7f be db ef 91 bb
       0.23051952 -0.18338388 -0.24937336 -0.004453642
000130 d1 07 e0 3f 8d af f1 3d bd 2d ad bd 71 0d 2d 3e
       1.7502385 0.11801062 -0.084559895 0.16899659
000140 06 c2 11 bf 9e ac f8 bf 6c e0 8d bf 25 66 9e 3f
       -0.5693668 -1.9427679 -1.1084113 1.2374922
000150 92 81 26 3f 16 e9 04 3f 82 61 49 3f 9b c1 7c 3f
       0.6504146 0.5191816 0.7866441 0.9873292
000160 42 8b 23 3e 85 4e 2e 3f 35 8d 0c bc f6 b7 64 bd
       0.15971091 0.6808856 -0.008578588 -0.0558395
000170 2c d0 62 3f eb 28 54 3f a4 21 c5 3e 73 5b ad be
       0.88598895 0.82874936 0.38502228 -0.33858833
000180 7b fd ab 3f 92 81 d3 be 66 7f bf 3e 9e a2 16 bf
       1.3436731 -0.41309792 0.37401885 -0.58841884
000190 38 d1 f5 3e 00 e8 c0 3e 57 ae 01 40 00 92 a2 3f
       0.48011184 0.37677002 2.0262659 1.2700806
0001a0 58 25 be 3e 4c ec af bd 46 cd a0 bd ed 8f 62 be
       0.37137866 -0.08589992 -0.07851653 -0.22125216
0001b0 5c 38 43 3c 1e 30 07 bf 5d ab 45 c0 e0 16 50 bd
       0.011915293 -0.52807796 -3.0885842 -0.050803065
0001c0 80 65 ea bf 5d 19 2d 3d 44 aa b9 bf 4a b8 c0 bd
       -1.8312225 0.042260516 -1.4505086 -0.0941015
0001d0 be a3 33 be f0 29 63 3e ca 79 43 3f 0a 47 ba bf
       -0.17542931 0.22183967 0.7635771 -1.4552929
0001e0 91 32 20 c0 a8 85 fa 3e 05 10 29 bd 3f ff 8f be
       -2.5030863 0.48930097 -0.041275043 -0.28124425
0001f0 0d 12 82 bf 9e e8 65 be cc c6 9a 3e bf 40 d1 bd
       -1.0161759 -0.22452018 0.30229795 -0.102174275
000200 0b 56 d4 bd 99 c3 6a be 8a 8a 5d 3f c0 47 5b bf
       -0.10367974 -0.22926177 0.8653952 -0.85656357
000210 cd 2b d1 be b3 dd e2 bd ca 54 ad 3f 9b 88 44 3f
       -0.4085373 -0.11077442 1.35415 0.76770943
000220 1e 0d 03 3e d5 ac ce 3e e8 05 cd 3e fe ac d6 3e
       0.12797973 0.40366235 0.4004357 0.41928858
000230 d6 0f 07 3f 8d 25 d9 3f c9 96 59 bf aa fd 9e 3c
       0.5275854 1.6964585 -0.84995705 0.019408066
000240 c3 f3 ac be ea 4d a0 3c 9b b4 84 3e 33 d9 9b 3b
       -0.33779725 0.019568402 0.2591904 0.004756117
000250 de cd c3 3e d6 01 70 bd 51 8c ae 3f 1c fa ae 3f
       0.38243002 -0.0585955 1.3636571 1.3670077
000260 c8 26 d3 3f 1c 70 20 3f a0 c4 bf 3e ea e9 51 3f
       1.649621 0.62671065 0.374547 0.8199755
000270 d0 6f 34 3e c1 3b 48 3f 4a e0 9a 3e aa 3b 7c 3e
       0.17620778 0.7821618 0.30249244 0.24632135
000280 1a a5 46 40 94 8b ce 3f 05 eb 33 3f 07 8f fb 3e
       3.103827 1.6136346 0.70280486 0.4913256
000290 ad c0 e7 3e ad 6c 30 3f b5 33 d6 be bb f6 4b be
       0.45264187 0.68915826 -0.41836324 -0.19918339
0002a0 ff bd 0e bf d5 b0 c0 3d 32 64 8b bc 00 1a a2 bd
       -0.5575866 0.09408728 -0.01701555 -0.07915115
0002b0 0d 63 21 bf 56 34 23 be 5d 3b b2 3d 31 82 b3 3e
       -0.63041764 -0.15937933 0.08702729 0.35060266
0002c0 29 a6 19 40 86 ae cd 3f 97 44 39 3d 2c fc 36 3f
       2.4007666 1.6068885 0.045231428 0.71478534
0002d0 a1 9f 35 3f 04 21 34 3f e8 52 2a be 46 15 9c be
       0.709467 0.7036288 -0.16633189 -0.3048498
0002e0 c9 be 66 bf 76 d2 83 3a 45 9c 92 bd 4b c0 9f be
       -0.90134865 0.0010057229 -0.07158712 -0.31201395
0002f0 80 1a 1f bf 25 90 90 be 97 e5 27 3d 33 a1 50 be
       -0.6214981 -0.28234974 0.04099044 -0.20373993
000300 b6 93 97 3f 65 87 bd 3f bc 92 a2 3f 35 a3 15 bf
       1.1841953 1.4806944 1.270103 -0.5845216
000310 69 8c 68 be 57 e6 27 bf ca f5 58 3f 03 ab f6 3f
       -0.22709812 -0.65585846 0.84750044 1.9270939
000320 7e a1 26 40 e2 d6 a9 3e e7 14 cb 3e 7c 54 18 3f
       2.6036067 0.33171755 0.39664385 0.5950391
000330 f3 ae 27 3f 91 16 4c 3f 25 a8 33 3f e1 81 ed be
       0.65501326 0.79721934 0.70178443 -0.46388152
000340 e3 fb 79 3f d2 4a c5 bf fa 5c 47 bf 4c e7 15 3f
       0.97649974 -1.5413458 -0.77876246 0.58556056
000350 ef ca 84 3e 5c 88 e8 3d 80 68 69 40 01 9d 51 40
       0.25936076 0.113541335 3.6470032 3.2752078
000360 1c 57 1f 40 fe d3 ca 3e 51 e4 b9 3e b9 f2 34 bc
       2.4896917 0.39614862 0.36307004 -0.011044198
000370 7f b9 1b bd 5a 94 bc 3f 9c 40 a3 be 92 60 b6 be
       -0.0380187 1.4732773 -0.3188523 -0.35620552
000380 f2 9d 28 3e 42 ca 40 3f 24 d6 b6 3e 6e fd 9e 3f
       0.16466501 0.7530862 0.3571025 1.2421091
000390 1e 45 cf 3f 9b e4 df 3f 97 24 6b c0 72 b7 1e c0
       1.6192968 1.749164 -3.6741083 -2.4799466
0003a0 ea 8b be bf 54 0b 9f 3e e3 7b 2a 3f ca 7f c3 3e
       -1.4886448 0.3106333 0.66595286 0.38183433
0003b0 57 35 c4 3e 3c ad ce 3e 21 ec 1c 3f 86 99 74 3f
       0.38321945 0.40366542 0.61297804 0.9554676
0003c0 be 19 1d 3e bd ca e4 3e 44 b9 fa 3e 2b 1e 0f be
       0.15341851 0.44685927 0.4896947 -0.13976352
0003d0 73 c0 a0 be a1 71 2a bf c6 e9 ba c0 48 c5 80 c0
       -0.31396827 -0.66579634 -5.841037 -4.024082
0003e0 86 5d 1f c0 6b 51 4e be 78 a7 bc 3e 41 f1 a2 3e
       -2.4900832 -0.20148246 0.3684652 0.31824687
0003f0 a9 3a de bf 5d e3 18 c0 3d 91 60 bf 56 0c 0b 3f
       -1.7361652 -2.3888772 -0.87721616 0.543157

actor.0.bias f4 [64]
000000 65 6f 18 3d 48 e7 b4 3e 44 20 cb be 5a 56 ca 3d
       0.03721561 0.35332704 -0.39673054 0.098797515
000010 62 1d ed 3d 6d 5b d0 be 62 11 10 3e 37 a8 30 3e
       0.1157787 -0.40694752 0.14069131 0.17251669
000020 e7 9c 8c be 3d bd c1 3e 8d 75 04 be a2 d8 0d 3e
       -0.27463457 0.3783969 -0.12935467 0.1385217
000030 a2 14 65 be 1d 06 55 bd 04 cd 80 3f c6 73 73 3e
       -0.22371152 -0.052007783 1.0062566 0.23774633
000040 97 0f 83 3d e9 29 a9 be 8c 6d ff bc 36 11 cf 3e
       0.06399458 -0.33039787 -0.031180166 0.40442818
000050 98 e0 d7 bc ce 62 47 3c e9 04 14 3e 74 89 b2 3d
       -0.026352212 0.012169553 0.14454998 0.08717623
000060 37 28 b6 3e 11 93 21 3e e6 0c a0 bd 0b c0 58 3e
       0.35577556 0.15778758 -0.0781496 0.21167009
000070 3a 35 24 3d c3 5f a3 3e 0a af 9d 3e 08 6a de be
       0.040089823 0.31908998 0.30797607 -0.4344027
000080 ff 9e 32 3e 52 f0 dc 3c 68 09 5e 3e f9 b9 72 3e
       0.17443465 0.026970062 0.21683276 0.23703755
000090 83 04 9c bc 1c 45 e3 3e e4 d5 fe 3e 1f 85 4b 3e
       -0.01904512 0.44388664 0.4977256 0.19875
0000a0 ed 02 bd be 53 d8 9b be d8 69 3d be 8b 50 16 bf
       -0.36916295 -0.3043848 -0.18497407 -0.5871665
0000b0 39 7a e0 3e b0 6e 13 bf 7b ec 22 3e 4c cb ef 3e
       0.43843248 -0.5759077 0.15910523 0.4683479
0000c0 e9 e0 53 be 80 30 24 bf 32 0e cc 3e 1d 35 a4 3d
       -0.20691265 -0.64136505 0.3985458 0.08017943
0000d0 4e c3 ac 3d 72 c1 cf be 7f 5b 92 3e 16 3a 86 be
       0.08435689 -0.40577275 0.2858543 -0.2621619
0000e0 1e b7 b0 be 8b 8c b9 be a7 eb db 3d 71 f8 48 3e
       -0.34514707 -0.36240038 0.107383065 0.19626023
0000f0 a7 09 ac be d6 a8 de 3e 80 b7 0b bf d9 39 49 bc
       -0.33601114 0.43488187 -0.54576874 -0.012281858

actor.2.weight f4 [64, 64]
000000 2e da 03 bf ad f3 79 bf 39 bb 29 3e 30 19 20 3f
       -0.5150479 -0.97637445 0.16575326 0.62538433
000010 a3 89 3f bf 40 90 3d bf b6 78 ad bc 8b 8f 23 bf
       -0.7481939 -0.74048233 -0.021175724 -0.63890904
000020 15 9a 9e 3e 2b 76 d2 3d 91 31 32 3e 24 ec 8b 3d
       0.3097693 0.10276445 0.1740172 0.068321496
000030 a1 2a e6 3f 7c d2 34 3f a9 d9 2d be 84 54 30 bf
       1.7981759 0.70633674 -0.16977562 -0.6887896
000040 e8 31 81 bf 80 c3 f2 3e d9 83 1e 3e 4a 29 29 bf
       -1.0093355 0.4741478 0.15479983 -0.6607863
000050 cb cb e8 bf 1f 2e 2b 3f 8e 25 35 be 61 9b 73 3f
       -1.8187193 0.6686725 -0.17690107 0.95158964
000060 8a 24 97 bf 61 2b a4 be 14 8d 06 40 a5 b3 ce 3d
       -1.1808026 -0.32064345 2.1023607 0.10092858
000070 c2 c4 88 3e 11 28 1a bf e4 c7 e4 3d 7b ea 5f bf
       0.26712614 -0.60217386 0.111709386 -0.87467164
000080 5e c4 d4 be 8a 86 36 be ec b4 e4 be f7 99 20 3f
       -0.41556066 -0.1782476 -0.44669282 0.6273493
000090 82 4e 9f 3e fa 1d 6e 3e 78 d8 03 be 7d 9f 9d bf
       0.31114584 0.23253623 -0.12875545 -1.2314297
0000a0 c6 52 d5 be 15 f3 06 c0 70 ad a3 3e 48 9f ae be
       -0.41664714 -2.1085865 0.3196826 -0.34105897
0000b0 f8 9a 95 be df b2 e8 3e cf e1 9c be f9 ee 82 3d
       -0.29219794 0.45448968 -0.30641028 0.06393237
0000c0 77 6f 99 3e c5 2d ce 3d 54 bc 75 bf 78 8d bd bf
       0.29967853 0.100673236 -0.9599049 -1.4808798
0000d0 42 dd 26 be 0a 2d b8 3e 20 59 ca be a4 3f 07 bd
       -0.1629534 0.35971862 -0.39521122 -0.033019677
0000e0 2b 22 17 3f ea 9b b0 3f 66 b4 8b be a0 2f 04 40
       0.5903651 1.3797581 -0.2728607 2.0654068
0000f0 3f de b8 be 3d b5 3f bd aa a2 87 3e 03 dd 3a bf
       -0.3610706 -0.0468037 0.2649129 -0.7299349
000100 89 ea d8 bc 69 42 5d 3e 7d 3d 63 3f 61 70 ad be
       -0.026479023 0.21607365 0.887657 -0.338748
000110 00 2d 4b bf 63 f9 ac 3d 61 0a af be 72 e7 d0 3e
       -0.7936554 0.08446004 -0.34187606 0.4080158
000120 c8 f2 64 bf 80 67 fb 3d a1 e8 86 3d cc ec 4f 3e
       -0.89432955 0.122756004 0.06587339 0.20305175
000130 33 63 04 bf 50 40 c9 3b a8 42 db bd 0d 46 87 be
       -0.51713866 0.0061417 -0.10706073 -0.26420632
000140 25 05 8d 3f f7 ad 61 be de 09 35 bf 59 5b a7 bf
       1.1017195 -0.22039019 -0.7071818 -1.3074752
000150 42 85 6b 3e bc 29 f0 bd 7a 6a 23 3f 71 74 1f bf
       0.23000053 -0.1172671 0.63834345 -0.6228705
000160 74 ad f7 3d d5 04 68 3e 92 61 e7 be e3 4a 30 bd
       0.120936304 0.22658093 -0.45191628 -0.043040168
000170 dc cc 8d be d3 0b 61 be af ae 8f bf 7c af f6 3e
       -0.27695358 -0.21977167 -1.1225184 0.4818076
000180 7c 5b 89 3f a0 b3 6c be 5c d7 60 bf e3 b7 bf 3c
       1.0731044 -0.23115396 -0.8782861 0.023403114
000190 9d c3 a2 bc 84 21 a4 bd e0 25 db be 06 75 05 3f
       -0.019868666 -0.08014205 -0.42802334 0.5213169
0001a0 d2 ab 24 3f 57 24 d2 bf 81 32 01 3f 37 b2 0b bf
       0.64324677 -1.641734 0.5046769 -0.5456881
0001b0 62 b9 15 3d 53 a6 95 bf bd 89 68 be aa 08 a8 3c
       0.036553748 -1.1691383 -0.22708793 0.020511944
0001c0 5d 9d 44 3e 56 2e bf 3e aa fb 22 3f 33 92 3d 3e
       0.19200654 0.3734004 0.6366526 0.18512802
0001d0 7e 94 96 3e 51 ce 1a 3f 56 82 05 3f 1f da 23 40
       0.29410166 0.60471064 0.52152 2.560188
0001e0 f5 f0 9c bf 2e 49 a3 3f 41 46 72 3e 2d d5 18 be
       -1.2261034 1.2756708 0.23659612 -0.1492507
0001f0 15 9d de 3f 23 f4 68 bf 0f b3 13 bf bf 6d be be
       1.7391688 -0.90997523 -0.57695097 -0.37193105
000200 29 42 7b 3e e5 24 79 be e4 2b fa 3e 9f c4 4b 3f
       0.24536957 -0.2433048 0.4886161 0.79596895
000210 50 5b af bf f2 65 89 3e 20 a6 c2 be 4f 36 66 be
       -1.3699741 0.2683559 -0.38017368 -0.22481655
000220 89 8a 22 bf ad 15 44 bf 53 6c 0a 3e 1c be 11 3f
       -0.6349264 -0.76595575 0.13517885 0.5693071
000230 96 5a a2 3e 33 67 cb be c4 64 0c 3f c0 9d 2b 3f
       0.31709737 -0.39727172 0.54841256 0.6703758
000240 e9 c8 6f be b1 03 7a 3f 56 ac 27 3f 68 cc b9 bf
       -0.23416485 0.9766188 0.6549734 -1.4515505
000250 61 6d cd 3f d2 df 84 bd fe 68 ea 3f 8f d7 89 3f
       1.6049005 -0.06488003 1.8313291 1.0768908
000260 c0 a2 0b bf ed 36 96 bf e3 2d 59 3e b0 84 99 3f
       -0.5454521 -1.1735512 0.2120891 1.1993618
000270 62 ad 39 bf 26 e5 b6 3f 93 02 0a bf fb 1d 3f bf
       -0.72530186 1.428868 -0.5391018 -0.7465512
000280 06 49 6d 3f 6f 26 07 bf de ab 94 3e 04 16 27 bf
       0.9268955 -0.5279302 0.29037374 -0.6526797
000290 3a 76 c4 3f ba 5a b7 be 18 a7 d6 be f3 ea 28 3f
       1.534858 -0.35811406 -0.41924357 0.65983504
0002a0 af c4 f8 3e b8 39 9d bf db c6 4b 3f 0b 91 91 3e
       0.48587558 -1.2283239 0.79600304 0.28430972
0002b0 34 4d d2 be 48 00 ab 3e 19 79 fa 3e 47 49 f6 be
       -0.41074526 0.33398652 0.48920515 -0.4810278
0002c0 38 c8 05 be b5 a3 6e be 98 81 71 3e 3a 28 05 bf
       -0.13064659 -0.23304637 0.23584592 -0.52014506
0002d0 cb 9c 8b 3e fd c6 a2 3f 2d 68 8d 3f b7 91 24 be
       0.2726806 1.2716976 1.1047417 -0.16071211
0002e0 42 a4 1d 3e d0 2b d9 3f b8 b4 f8 3e 91 c6 89 3e
       0.1539469 1.6966496 0.48575377 0.26909307
0002f0 79 11 bd 3f bc 65 64 3f e5 77 4c be fd 23 a7 bf
       1.4770957 0.89217734 -0.19967611 -1.3057858
000300 68 12 85 be ac 0b 1b bf 10 55 a2 bf 3f f5 24 3f
       -0.25990605 -0.60564685 -1.2682209 0.64436716
000310 6a 92 35 3f 1c 68 23 bf c4 71 08 3e 9c 95 6c bf
       0.70926535 -0.63830733 0.13324648 -0.92415786
000320 7b 39 83 3f 05 dc 18 bc ec 8a 5a be 57 91 cf be
       1.0251917 -0.0093298005 -0.21342057 -0.40540573
000330 61 6e da 3f a4 4d 00 3e f5 ac 26 3e 05 3a 00 bf
       1.7064935 0.12529618 0.16276915 -0.5008853
000340 ad ff db bf 0e 74 ab 3d 2e 3a 3c be d9 f8 55 3f
       -1.7187401 0.08371745 -0.18381569 0.83582836
000350 6f 73 30 bf 2e f3 98 3f 7d 3c b4 3e c8 10 b2 3f
       -0.6892614 1.1949213 0.352024 1.3911371
000360 56 be a8 bf 22 1b 8d bf 98 dd c8 3f cb aa 6e bd
       -1.3183086 -1.1023905 1.5692625 -0.05826835
000370 74 89 85 3e 53 40 53 be 5d 4a 5e 3f 87 ca 00 3e
       0.2608143 -0.20630006 0.8683222 0.12577258
000380 29 11 98 bd ce a5 58 be c5 fc da 3e 8b c6 00 3f
       -0.07425148 -0.21157 0.42770973 0.5030295
000390 72 88 19 bf f3 6f 98 3e 87 33 a4 3f 3e 50 64 3f
       -0.59973824 0.2977291 1.2828225 0.8918494
0003a0 41 56 6d be 9b 5d 92 3f 37 7f f7 be 60 d0 4e 3e
       -0.23177435 1.1434816 -0.48339245 0.20196676
0003b0 54 9d 11 be b7 ec 86 3e fe 64 ae 3c 1c 11 8d 3e
       -0.14220172 0.26352474 0.021288391 0.27552116
0003c0 98 9b d0 be b4 0f a8 bf 00 99 94 bf 80 5d 71 be
       -0.4074371 -1.3129792 -1.1609192 -0.23570824
0003d0 66 46 81 3e 91 82 86 bf 7c 14 99 be 7e 27 93 bf
       0.25249022 -1.0508596 -0.2989844 -1.1496427
0003e0 0d d5 17 3f dc e4 35 bf 2f 39 cf 3d 92 65 0e 3f
       0.59309465 -0.71052337 0.10118329 0.55623734
0003f0 a3 c0 65 bf 51 2e 7b 3f 87 17 73 3e 64 ec 82 3f
       -0.89747065 0.9811755 0.23739444 1.0228391

actor.2.bias f4 [64]
000000 3c 6b 0f 3e ec c2 a1 3e 64 ee b4 be 8b bd 8c 3e
       0.1400575 0.31594026 -0.35338128 0.2748836
000010 6d fd a3 bd 63 d6 3b 3e 23 b1 f6 3e 07 32 54 be
       -0.080073215 0.18343501 0.4818202 -0.20722209
000020 cd 81 1c be 82 10 65 3e d9 ae e8 bd 28 2c 23 be
       -0.1528389 0.22369578 -0.113614745 -0.15934813
000030 be 7c ba bd d3 b4 8e 3d 76 63 f1 3d 56 45 07 3e
       -0.09105824 0.06968083 0.11786549 0.13210043
000040 8f d0 ce be b2 87 44 3e 5d 2b 1c be fe 4f c8 bd
       -0.40393493 0.19192389 -0.15250917 -0.09780882
000050 fa 66 f2 3d e7 69 d0 bd 83 6c 52 3d 28 ca d2 3e
       0.118360475 -0.10176449 0.051373016 0.41169858
000060 42 0a 17 bf 23 14 c8 be b2 ba e2 3c f0 09 b6 3e
       -0.5900003 -0.39077863 0.027676914 0.35554457
000070 08 61 24 3f a5 e4 b9 3e 78 9f 45 3e bb c5 aa 3d
       0.6421056 0.36307254 0.19299114 0.08338495
000080 11 cb 54 3d 0e 12 8a 3c 6d f4 53 be 4e 41 29 3e
       0.05195147 0.016854312 -0.2069871 0.16528818
000090 7e df 3e bf 9c 68 58 3f c2 88 df bd 3d 5e 99 3e
       -0.7455977 0.8453462 -0.10914756 0.2995471
0000a0 c2 94 30 bf d9 14 9a 3d d6 0c 0f 3f 86 53 3f be
       -0.68976986 0.075235076 0.5587896 -0.18684205
0000b0 0b f7 21 3f 0a d9 78 3e e9 c7 b9 3e f4 2c 15 be
       0.6326758 0.24301544 0.36285332 -0.1456793
0000c0 1f 76 42 be 49 50 60 bd 20 69 81 3d 03 0b 84 3d
       -0.18990372 -0.054764066 0.06318879 0.06447413
0000d0 b8 91 c3 be e8 5c 88 3e c3 db 4d 3e fc 46 c5 3e
       -0.38197112 0.26633382 0.20103364 0.3853072
0000e0 50 3d 13 3e c1 26 92 3d 94 3b 11 3f 99 4b cd be
       0.14378858 0.07136298 0.56731534 -0.4009674
0000f0 c9 49 0b 3f 22 c0 cb bc e4 2d 37 bd 98 6b 16 3f
       0.5440946 -0.02487189 -0.0447215 0.58757925

actor.4.weight f4 [7, 64]
000000 a0 90 1d c0 88 84 98 3f 6c 5c 2c c0 94 e8 7f bf
       -2.4619522 1.1915445 -2.693141 -0.9996426
000010 d0 ec a6 3e e2 23 e9 bf d0 7c a6 bf a8 9c b0 3f
       0.3260255 -1.8214076 -1.300684 1.3797808
000020 49 1b ae bf 2f 89 32 c0 e1 df 69 3f fe 48 95 3f
       -1.3602077 -2.789623 0.9135724 1.16629
000030 51 7a 15 bf 17 bc d8 3f 69 53 1a c0 43 3b 45 40
       -0.58389765 1.69324 -2.411341 3.081742
000040 ba 8e b9 bf a9 bf 04 40 99 04 d8 bf 8a 19 fa 3f
       -1.4496682 2.074198 -1.6876403 1.9539044
000050 83 1e c1 3f ac 4c 9c bf b3 df 89 3f 1e f6 a5 be
       1.5087436 -1.2210898 1.0771393 -0.32414335
000060 60 9d 89 bf 6a c3 6b be 4d 76 14 c0 a9 c0 ae bf
       -1.0751152 -0.23023763 -2.3197205 -1.3652545
000070 ff a2 a9 bf a6 5d 18 40 d8 68 91 3f 0b d9 0c 40
       -1.3252867 2.3807158 1.1360121 2.2007473
000080 11 59 5e bf ec 18 96 3f 5a b5 f4 bf a6 fa 32 40
       -0.86854655 1.1726356 -1.9117844 2.7965484
000090 5c 0b e2 3f 96 0f ba 3f d0 ec da bf bd 01 81 3f
       1.7659717 1.4536006 -1.710352 1.0078655
0000a0 3f 48 ac bf 23 6e 3e bf 2d 1f 2c 40 be 86 b3 3f
       -1.3459548 -0.74386805 2.6894028 1.4025495
0000b0 de 8d 25 bf e4 fd af 3e 59 43 b9 3f e3 3e ee 3f
       -0.646696 0.3437339 1.4473678 1.8612942
0000c0 e8 00 ee 3f 3a e4 a7 3f 4e be 2d c0 14 f3 a3 bf
       1.8594027 1.3116524 -2.7147403 -1.2808557
0000d0 2c da 2b bf 63 0d 01 40 2f 99 1c c0 f5 bd ac 3f
       -0.6712978 2.016442 -2.4468496 1.349547
0000e0 6b da 36 c0 07 69 a9 bf 7e 2b e4 3f e9 8d 0c 40
       -2.8570812 -1.3235177 1.7825773 2.1961615
0000f0 fb 05 0e 40 fd ad b8 3f 53 0a a2 3f e9 94 10 40
       2.219115 1.4428097 1.2659401 2.2590888
000100 ff 77 83 be 56 ea 51 3f f6 ce 1a 3f 6a 13 12 bf
       -0.25677487 0.81998193 0.6047205 -0.57060874
000110 fa 32 a8 be b8 17 4d 3e 05 24 c4 bf 46 6b 89 be
       -0.32851392 0.20028579 -1.5323492 -0.26839656
000120 1c 34 e0 3e 29 93 ae be 57 bd 11 3c 74 15 0c bd
       0.43789756 -0.3409665 0.00889524 -0.034200147
000130 20 30 bf 3f ee 65 e5 3d 24 55 45 3d 2e aa 0b 3d
       1.4936562 0.11201082 0.0481769 0.034097843
000140 be 0a 17 bf 9c c8 cd 3f 56 86 f6 bd a6 87 07 3f
       -0.59000766 1.6076846 -0.12037341 0.5294136
000150 39 b1 b3 bf 0b e2 87 3d 74 8d 90 3e fa 4e 31 3f
       -1.4038459 0.06634911 0.2823292 0.69261134
000160 52 c7 95 3d 8d bc d7 3f 90 39 6d 3e 3b fb 45 bf
       0.07313408 1.6854416 0.2316649 -0.7733647
000170 41 89 70 3e 65 00 d1 bf d4 2e c3 bd 68 cf 59 bf
       0.23489858 -1.6328245 -0.09530416 -0.850821
000180 a6 e6 87 3e 99 f4 1b be 10 92 59 3e 21 91 a7 be
       0.26543158 -0.15230025 0.21247125 -0.32727912
000190 c4 78 16 bf 45 d3 87 bc c5 c1 fd 3f cb 30 08 be
       -0.58778024 -0.016580233 1.9824759 -0.13299863
0001a0 8e c1 e6 be 0f 5a 8c 3e f8 d0 8a bf 5d 6c fa 3e
       -0.45069546 0.2741246 -1.0845022 0.489108
0001b0 ec f7 af bd 21 12 19 3d ad 94 29 3f 49 1a 97 be
       -0.08592209 0.037370805 0.66242486 -0.2951224
0001c0 56 12 bc bd c7 33 3f 3e e0 9e c7 be 15 cd ae 3e
       -0.09183185 0.18672095 -0.389884 0.3414084
0001d0 5c 94 04 40 af a8 08 bf 2c 6f 91 3e ee 36 7c bf
       2.0715551 -0.5338239 0.2840513 -0.98521316
0001e0 26 92 84 3d ed 3b ef 3e e6 8b 3e 3f 51 67 da 3e
       0.06473188 0.46725407 0.7443222 0.4265695
0001f0 47 b0 18 bd ca fb 0f 3e a5 2b cf be 9e b1 d0 bb
       -0.037277486 0.14060894 -0.40462986 -0.00636883
000200 5a bf 18 be 15 f3 c4 3e 5f 32 6d 3f a0 ad af be
       -0.14916745 0.38466707 0.92654985 -0.34312153
000210 8a e9 39 bf 36 77 fe 3e bb df ec 3f a7 ac 87 bd
       -0.7262198 0.49700326 1.8505777 -0.06624728
000220 86 9a 70 3f 87 83 72 3f 1f 8a c3 3e fc 55 32 be
       0.93985784 0.94731945 0.38191316 -0.17415613
000230 a6 1e 09 3e 4f e2 84 be 34 93 29 bc 63 f1 0e be
       0.13390598 -0.2595391 -0.010350037 -0.13959269
000240 af 1c 96 3e f9 c6 4a 3f 87 ac 66 bf de a1 6e 3e
       0.2931876 0.7920986 -0.90107006 0.23303935
000250 2b 40 ba be 04 fb 6f be 26 1b 24 3e 75 bf 0b 3f
       -0.3637708 -0.23435599 0.16025981 0.54589015
000260 f3 79 af 3e b1 25 cb 3f ae 20 5f bf 50 61 c2 be
       0.34272727 1.5870878 -0.8715924 -0.3796487
000270 69 7f 5d 3f 89 ac 7e bf ac 1b e2 be eb 07 84 3f
       0.8652254 -0.9948202 -0.44161737 1.0314916
000280 d6 60 3d 3f 3d 9d cc 3e 40 e9 cc be 96 27 d1 3d
       0.73975885 0.39963713 -0.40021706 0.102126285
000290 b7 82 00 3f 0f c5 f1 3f dc 5c 46 bf 01 ba 46 bf
       0.50199455 1.8888263 -0.7748544 -0.7762757
0002a0 a2 ad 9d 3e 42 39 3e 3f 4c ea 7f bf 87 8d 37 3f
       0.30796534 0.7430612 -0.99966884 0.7170033
0002b0 fb 61 85 3e 7b 09 3a 3e c1 82 b9 be d4 fb b3 bd
       0.26051316 0.18167679 -0.3623257 -0.08788267
0002c0 2b 66 fa be a9 d0 04 3f a7 07 4e be 0c 5e 62 3f
       -0.48906073 0.5188089 -0.20120107 0.88424754
0002d0 3c 91 fa be 82 fb b9 3e 4b c0 fd 3f cd 94 37 3f
       -0.4893893 0.36324698 1.9824308 0.71711427
0002e0 76 51 16 3e d3 e6 8f 3f f9 0e 98 bd e1 56 14 bd
       0.14679512 1.1242317 -0.07424731 -0.036215667
0002f0 30 88 a4 3e 3e 9b 20 bd 82 db 34 bf 41 db 3e 3e
       0.32135153 -0.03921055 -0.7064744 0.18638326
000300 45 d8 df 3f 28 88 fc bf 3f d1 ef 3f 49 3c c7 3f
       1.7487875 -1.9729052 1.8735732 1.5565273
000310 69 42 ba bf 46 cc e8 3f e5 cf db 3f 04 e2 eb bf
       -1.4551517 1.8187339 1.7172819 -1.842835
000320 5c 46 92 3f c7 78 20 40 f2 c3 c0 bf 4b 4a 07 c0
       1.1427722 2.5073717 -1.5059798 -2.1139095
000330 f3 87 af bf c0 40 b2 bf 4a c0 14 40 79 9b ce bf
       -1.3713363 -1.392601 2.3242364 -1.6141196
000340 23 8b 94 bf 60 5e dc bf 99 82 14 3f fc 50 c2 bf
       -1.1604961 -1.7216301 0.58011776 -1.5180964
000350 be 9d 8d bf 1c 06 d6 3f 58 d9 05 c0 a2 63 8d 3f
       -1.1063764 1.6720614 -2.0913906 1.104603
000360 54 33 6d 3f 2f d1 c4 bf 7a dd cb 3f 4e 0f 03 40
       0.92656446 -1.5376338 1.5926964 2.0478091
000370 75 55 8b 3f a8 e4 cf 3d b4 8c c6 bf 38 db 79 bf
       1.0885454 0.101510346 -1.5511689 -0.97600126
000380 40 b5 8c 3f 43 4c 56 bf 23 2c a9 3f 3a 4e 85 bf
       1.0992813 -0.83710116 1.3216594 -1.0414498
000390 da 80 a2 bf 59 41 8b bf e1 44 78 be 8b 31 6a bf
       -1.2695572 -1.0879318 -0.24245025 -0.91481847
0003a0 6b 57 af bf 59 f2 78 3f a6 d9 a9 bf 0d cc e2 bf
       -1.3698553 0.97244793 -1.3269546 -1.7718521
0003b0 00 3d c0 3f 5a 7e b5 3f 5d 09 80 3f 33 cc 12 c0
       1.5018616 1.4179184 1.0002857 -2.2937133
0003c0 6a 92 00 c0 58 03 f4 bf 44 20 7c 3f 73 6d 8c 3f
       -2.0089364 -1.906352 0.98486733 1.0970901
0003d0 b6 61 bb bf da 1a f9 bf 75 36 a9 3f 77 66 16 bf
       -1.4639194 -1.946132 1.3219744 -0.587501
0003e0 8d 23 ea 3f 0f 00 26 3f 4e 46 21 3f 36 9e fd bf
       1.8292099 0.6484384 0.629979 -1.9813907
0003f0 1c c3 c5 bf 45 c1 d9 bf df 86 c6 bf 7a db cd bf
       -1.5450168 -1.7012106 -1.5509909 -1.6082604

actor.4.bias f4 [7]
000000 eb 66 51 3f a5 64 20 3e 0e 4c e8 bc f7 07 3c 3f
       0.81797665 0.15663393 -0.028356578 0.73449653
000010 ae 70 d9 3e 31 57 df bc ac 51 32 3f
       0.4246878 -0.027263256 0.6965587

critic.0.weight f4 [64, 16]
000000 21 c8 f3 be e1 0e 2a 3f 66 d1 fe 3e d7 80 2a be
       -0.47613624 0.66428953 0.49769133 -0.16650711
000010 93 ec 12 3e e9 ac c3 be 5c b3 ee bf 45 58 7c bf
       0.14348058 -0.38217857 -1.8648486 -0.9857219
000020 9b bf da 3f 81 db c4 bf 9c f7 05 3c 30 3a 5e 3f
       1.7089723 -1.5379487 0.00817671 0.8680754
000030 9d 22 5e 3f e6 ef 0f bf ec 79 c1 bf f6 89 b9 3d
       0.86771566 -0.5622543 -1.5115333 0.09059517
000040 0f b2 56 bf ee 0d 44 40 2a d1 0a 40 34 42 ac 3e
       -0.83865446 3.0633502 2.1690164 0.3364426
000050 27 c1 8f 3f 1e b5 5c 3f 67 37 14 bf 9c d5 42 bf
       1.123082 0.8621386 -0.5789704 -0.7610719
000060 d8 6f 28 3e 24 c6 3d be f6 65 95 3e 3d cd 65 3d
       0.16448915 -0.18532616 0.29179353 0.056103934
000070 16 c5 3d be 4f 2c 83 3f b2 0f 4c be b3 c9 d6 3e
       -0.18532214 1.0247897 -0.19927862 0.4195076
000080 3f ce fe bf 23 e7 70 be a6 b3 a8 3f 1b d9 c6 be
       -1.9906691 -0.23525672 1.3179824 -0.38837513
000090 f5 61 df bd 5c ca 92 be 09 5b 53 c0 38 37 e1 be
       -0.10907356 -0.28670013 -3.3024313 -0.4398744
0000a0 76 4f 26 40 5f cb 0a be 6f 98 2e 3f 97 e0 75 3f
       2.5986 -0.13554142 0.68201345 0.9604582
0000b0 77 87 f0 be 26 b5 d7 be 45 24 26 be b4 d5 85 be
       -0.4697835 -0.42130393 -0.16224773 -0.26139605
0000c0 56 17 5e 3e 89 d4 f3 bc 07 b9 8c 3e 56 d3 83 bf
       0.2168859 -0.02976443 0.27484915 -1.029887
0000d0 0d d7 7b 3f 6c 93 89 3e 93 b0 8c bf 0d 35 b3 3f
       0.98375016 0.26870286 -1.0991386 1.4000565
0000e0 59 8f 4f 40 16 a2 21 bf 76 18 b8 3c 0f 62 f6 3e
       3.2431242 -0.6313795 0.022472601 0.48121688
0000f0 5d 78 db 3f 59 f0 02 c0 98 0d 48 bb ad 27 bc 3d
       1.7146107 -2.0459197 -0.003052568 0.09187255
000100 b8 be 97 3f 42 2a 15 be 46 72 19 c0 f1 25 d0 3e
       1.1855078 -0.14566901 -2.3975997 0.40653947
000110 0f 9f 24 3f 91 c5 ac 3e d1 3a 46 3f 15 fc d5 bf
       0.64305204 0.3374448 0.77433497 -1.6717554
000120 90 fb 1f c0 06 0c 6e 3f e0 49 66 3f c2 ea cf 3e
       -2.4997292 0.92987096 0.89956474 0.40608793
000130 82 96 fa bf 2f 65 d5 bf 08 38 0f bd 22 47 ec 3d
       -1.9577181 -1.6671504 -0.034965545 0.11537005
000140 91 a4 ed bf bc c0 e2 bf cd 31 fc be 6d 2e 27 3f
       -1.8565847 -1.7715068 -0.49256745 0.65305215
000150 df c3 e0 bc 2a 1b 98 3f 7e c7 2c 40 7d 57 98 3f
       -0.027437149 1.188329 2.699676 1.1901699
000160 bd 03 e1 be f0 bc 83 3f cd e1 a9 3e f9 28 57 be
       -0.43948165 1.0292034 0.33180085 -0.21011724
000170 aa d7 94 3f 22 1c aa bf b3 5a 8e bd 24 8c a5 bd
       1.1628315 -1.3289835 -0.06950893 -0.0808337
000180 ce b5 58 3e b5 63 e4 3d 87 c8 28 3c 58 b9 06 3f
       0.21163103 0.1115183 0.010301716 0.5262656
000190 14 58 38 3e a6 03 44 bf d5 51 47 c0 a2 a0 2e bf
       0.18002349 -0.7656807 -3.1143696 -0.68213856
0001a0 a6 b5 1a 40 1a 1b 29 bf 40 ef 59 3d e5 68 7b 3f
       2.417337 -0.6605698 0.053206682 0.9820693
0001b0 0c d3 a7 3e 8a 85 07 3f 27 fc 02 40 37 c0 83 be
       0.32778203 0.5293814 2.0466402 -0.25732586
0001c0 93 6c 7d 40 0c 3d 6e 3e 34 4a 0d 40 99 dd 2f bf
       3.9597518 0.23265475 2.207654 -0.68697506
0001d0 13 46 9a be d6 1a 35 bf 84 b7 a1 c0 71 d8 2f c0
       -0.30131587 -0.70744073 -5.053652 -2.7475855
0001e0 4a 19 09 c0 2f ce 8d 3e 48 98 b5 3e 52 4b 11 3f
       -2.1421685 0.27696368 0.35467744 0.56755555
0001f0 af 92 32 be db 83 67 3f 22 49 ef bf 23 42 5c be
       -0.17438768 0.9043557 -1.8694193 -0.21509604
000200 cd 3f c7 bf 2a 03 e1 be b3 5b 7a 3f 72 84 ad be
       -1.5566345 -0.43947726 0.9779617 -0.3389011
000210 6a 88 9f be 81 9e b5 be 35 b7 88 c0 ce f0 d0 be
       -0.31158763 -0.3547249 -4.272364 -0.4080872
000220 c9 f8 3d 3f eb ed 3f bf c5 58 1e bf 6a 02 d4 be
       0.7420774 -0.7497241 -0.618542 -0.41408092
000230 82 91 dd be c6 07 90 3f a8 b4 e8 3f 06 72 5f be
       -0.43275076 1.1252372 1.8180132 -0.2182084
000240 91 27 92 3f 9b bd 70 bf 16 31 08 3f 5e 08 7a bf
       1.1418325 -0.94039315 0.531999 -0.9766902
000250 f2 44 4a 3f 19 31 06 bf db c4 78 bf 2c 38 22 3f
       0.7901145 -0.5241867 -0.9717538 0.6336696
000260 a9 f1 98 3f 59 4b 53 bf d7 c8 a4 bc 11 0e b3 3e
       1.1948749 -0.82536846 -0.0201153 0.3497167
000270 54 63 a5 3e 2b d5 89 bf 82 8b e1 3f 6a 6f 2a bb
       0.32302344 -1.0768179 1.76207 -0.002600635
000280 fd 89 e2 bb 01 31 3a 3d 49 40 df be 04 a6 1b 3e
       -0.006913422 0.04545689 -0.43603733 0.15200049
000290 bf 13 04 3e 4d 69 0b 3e 65 00 4e 40 5a 70 69 3f
       0.12898158 0.13614388 3.218774 0.9118706
0002a0 a6 2a 80 3f 8f 17 a8 bf 85 a9 0d bd 6c 01 aa 3e
       1.0013015 -1.313219 -0.034585495 0.3320421
0002b0 93 73 83 3f bc 23 30 c0 63 da 76 3f da 66 92 3e
       1.0269645 -2.752181 0.9642698 0.28594095
0002c0 1d 09 94 3f 31 8a 84 3f dd 2f 4b bf 58 bc 96 3c
       1.1565281 1.0354673 -0.7936991 0.018400356
0002d0 82 f1 81 bf c6 52 59 bf cc 2d c5 3e d3 16 93 3e
       -1.0151827 -0.8489193 0.38511503 0.2872835
0002e0 2a b1 ec 3f 15 b0 bb be 9e 61 3c 3f 01 91 99 3f
       1.8491566 -0.36657777 0.7358645 1.1997377
0002f0 48 9a 33 3d 27 5e e3 bf 34 fd 8b 3f d8 91 29 3f
       0.043848306 -1.7763108 1.0936646 0.66238165
000300 46 fe e6 3e 07 ab 65 bf c8 83 79 3e 9f 08 4e be
       0.4511587 -0.8971409 0.24366677 -0.20120476
000310 f3 2c f3 3e ac d8 fb be 5c f6 79 40 09 8a 95 3f
       0.4749523 -0.49188745 3.9056616 1.168275
000320 79 da f1 3f de f4 09 bf ed 94 95 3e 3b 92 23 3f
       1.8894798 -0.5388926 0.29215184 0.63895005
000330 9f 73 23 bf e2 43 c3 be 58 19 06 be e9 98 51 be
       -0.638483 -0.38137728 -0.13095605 -0.20468487
000340 b8 b9 13 3f 7b be c7 3f fc 12 04 40 35 f5 28 c0
       0.5770526 1.5605005 2.0636587 -2.6399662
000350 fa 90 cf bf 57 52 15 c0 f8 2f 6c 3f cc 28 03 40
       -1.6216118 -2.3331506 0.92260695 2.049365
000360 ad 24 11 40 c6 37 84 be 34 bb 42 3e 3a 3c b5 3c
       2.2678635 -0.25823802 0.19016725 0.022123445
000370 db 2b b3 3e 84 08 04 3f 3d 00 f9 3e 6c 36 9c 3e
       0.34994397 0.51575494 0.48632994 0.3051027
000380 3a 21 26 40 b2 53 da 3e 0a 05 a2 3f e8 b0 14 bf
       2.595778 0.4264198 1.2657788 -0.5808244
000390 a9 2d ac be ec 9c 39 be a7 3e e8 bf f2 80 26 3f
       -0.33628586 -0.18126267 -1.814412 0.65040505
0003a0 46 ce f2 3f 1a 3a a5 be 79 32 70 3e fe 93 2d be
       1.89692 -0.3227089 0.23456754 -0.16950986
0003b0 23 3b 73 bf ea 59 d2 bf 7c f9 0f c0 ed 68 1d bf
       -0.9501211 -1.643369 -2.2496023 -0.6148823
0003c0 9f e4 26 bf 52 50 a2 bf c6 cb c3 bf 0b 30 90 3f
       -0.651926 -1.2680762 -1.5296562 1.1264662
0003d0 84 b4 37 3f 84 8f 94 3f ae 26 35 c0 db 39 96 c0
       0.7175982 1.1606297 -2.8304858 -4.6945624
0003e0 3a 2b 7e c0 ff 4b cb 3d 12 06 28 3f a2 56 19 3f
       -3.9713883 0.099266045 0.6563426 0.59897816
0003f0 bb f1 c9 bf 25 b0 9d bf 37 64 91 be e8 25 a5 3f
       -1.5776895 -1.231938 -0.2839677 1.2902193

critic.0.bias f4 [64]
000000 55 e1 8d bd 09 46 cf 3e 31 7d 6f be 30 de c7 3d
       -0.06927744 0.4048312 -0.233876 0.09759176
000010 1c 51 32 3e 4f 9f 68 3e 1c ae 6c be 21 96 71 be
       0.17413753 0.22717021 -0.23113292 -0.23592426
000020 d8 2e 9c be 12 84 8f 3c c4 e9 13 3f 1c 2c 04 3f
       -0.3050449 0.01751903 0.57778573 0.51629806
000030 58 ef 48 be 55 cc 61 3e 88 63 e4 be 97 de 9c 3f
       -0.19622552 0.22050603 -0.44607186 1.2255429
000040 ee 90 8f 3f a6 b6 c5 be f7 b2 ce 3e b1 96 c9 3e
       1.1216104 -0.38615912 0.40370914 0.3937278
000050 e9 13 d7 3d 1b ec 2b bf 27 e7 90 3f 76 d1 8d 3e
       0.105018444 -0.67157143 1.1320542 0.2769887
000060 9e 13 41 bf 80 19 56 be 8a b7 67 bf 9a d9 c5 3c
       -0.7542056 -0.20908165 -0.90514433 0.024151612
000070 99 1b 30 3e bb 97 06 be 47 79 78 be 16 b2 a1 3e
       0.17198028 -0.13143818 -0.24265014 0.3158118
000080 6d 9b 15 3f 31 23 dd 3e 2a 1b ac bb 73 79 1c be
       0.58440286 0.4319091 -0.0052522616 -0.15280704
000090 da 12 0d 3e df 64 47 bd a8 4f 30 3e 21 81 68 3e
       0.13776723 -0.048680183 0.17217886 0.22705509
0000a0 5c 9c d1 be fe 48 01 bf 63 95 66 3d 8c ae 06 bb
       -0.40939605 -0.50502 0.05629481 -0.0020550815
0000b0 98 ba 3a bf db be 05 3e 07 7a 2a bf 47 6d bb be
       -0.7294097 0.13061087 -0.6659245 -0.3660681
0000c0 02 d7 23 be 07 98 82 3e f0 a6 6f be c2 57 10 bf
       -0.15999988 0.25506613 -0.23403525 -0.5638391
0000d0 8f f9 93 bd 09 a5 a6 be b7 98 61 3c 16 0d 83 be
       -0.07225334 -0.32547787 0.01376932 -0.2559592
0000e0 6a 2f 78 bd e6 de 76 3e ba df 6b 3f 92 4d e1 be
       -0.060592093 0.24108467 0.92138255 -0.44004494
0000f0 5f 47 b0 3d bf 68 04 bf 8f d6 53 3f 48 c9 18 3f
       0.08607363 -0.5172233 0.82749265 0.5968213

critic.2.weight f4 [64, 64]
000000 9b 02 b0 bf c2 97 06 3e 45 25 a3 bf d7 ea 8a bc
       -1.3750795 0.13143829 -1.2745749 -0.016957683
000010 38 10 ff 3e 99 89 4d bf cb ab 0e be 4a b6 98 be
       0.4981706 -0.8028808 -0.13932721 -0.29826576
000020 9a 9f 71 be ca 4d 41 bf 25 55 2a 3f 6c 0e ad be
       -0.2359604 -0.7550932 0.6653617 -0.33800066
000030 30 fc 4e 3e 78 25 fb be 73 b5 aa be df 24 35 3f
       0.2021339 -0.49052024 -0.3334156 0.70759386
000040 5d 3c 38 3e 32 a4 b5 bf 54 4f 3f bd 1f da 90 bf
       0.17991777 -1.4190733 -0.046706513 -1.1316565
000050 c0 1a f3 be 0c 4d af 3e 8c f9 8d 3f 7f fe 61 bf
       -0.47481346 0.3423847 1.1091781 -0.88278955
000060 a2 1e 0a 3f df 44 16 3e a2 37 0e bf 09 3d 89 be
       0.5395299 0.1467471 -0.5555364 -0.2680438
000070 fb 46 8b be 88 e9 d4 be 9d 19 21 bf 73 48 31 3e
       -0.2720259 -0.4158442 -0.6292971 0.17312793
000080 0a 8a 15 3e 7d fa 1e 3f 32 84 0e 3f d9 a4 b8 3e
       0.14603439 0.62100965 0.55670464 0.3606327
000090 5f 3a 81 3e f0 3f ad be 2e c2 14 3f 4f d8 da 3e
       0.25239846 -0.33837843 0.58108795 0.42743155
0000a0 b6 1f a8 bc 8d 6d 01 3f 2e 84 0b bf 16 bf b9 3e
       -0.020522933 0.50557786 -0.54498565 0.362786
0000b0 bd b0 17 3e 0d c0 51 bf 63 2b ed be b9 1d 77 bf
       0.14813514 -0.8193367 -0.46322164 -0.9652973
0000c0 4c f9 bc be 3b 7c a4 3e a9 36 84 be d9 2f 31 3f
       -0.36908948 0.3212603 -0.25822952 0.69213635
0000d0 fc d3 10 bf 2e 06 55 3e 6a d2 51 3e 77 01 40 3e
       -0.5657346 0.20803139 0.20490423 0.18750559
0000e0 36 84 c2 3e fa 26 a7 bf 28 65 dd 3b 4b 0a 38 3f
       0.37991494 -1.305877 0.0067564435 0.71890706
0000f0 06 61 19 bd 7a 61 48 be 98 4b 08 bf f6 cf 2b 3e
       -0.037446044 -0.19568434 -0.53240347 0.1677855
000100 85 e2 3c bf 50 ba f5 bd f2 7a 4c 3f 9b 52 7c bf
       -0.7378314 -0.11998427 0.798751 -0.98563546
000110 2c 38 e8 39 1a a2 a9 3c 09 2a d9 bd c7 09 ca 3f
       0.0004429234 0.020707179 -0.10603721 1.5784234
000120 6c da 77 3e 89 43 02 3f 8a 75 9c bf 75 62 80 bf
       0.24204415 0.508843 -1.222337 -1.0030047
000130 10 50 eb 3e 9f 2a 33 3e 09 7f ea 3d d1 56 1a be
       0.4595952 0.17496727 0.11450011 -0.1507218
000140 6d f7 fb be 8f a0 ca be d9 40 4b be d7 a0 18 3f
       -0.49212208 -0.3957562 -0.19848956 0.5962042
000150 c0 bd b7 3f 35 42 e9 3e d8 75 8f bf 32 79 46 bf
       1.4354782 0.45558324 -1.1207838 -0.7752868
000160 a7 f3 30 3e d5 60 0f bf 6b 99 08 3f a9 e4 41 bd
       0.17280446 -0.5600713 0.533591 -0.047337208
000170 ff 6f 51 3f 85 a2 00 bf d3 a0 05 bf b3 68 49 bf
       0.8181152 -0.50247985 -0.52198523 -0.78675383
000180 32 74 8d be 8d 7d b4 bf 4f 4d 8e bf 96 bd 49 3d
       -0.27627712 -1.4100815 -1.1117343 0.04925307
000190 97 dd cc bd a3 44 70 3f b6 06 8c 3e 21 26 71 bd
       -0.100032024 0.9385473 0.2734887 -0.058874253
0001a0 a4 c8 a7 3e 8d 2f c0 3e 0b f1 ab be 38 78 83 3e
       0.32770264 0.37536278 -0.3358234 0.25677657
0001b0 2e 43 e2 3f 04 d1 06 40 75 db be be bb 74 9a 3f
       1.7676752 2.1065073 -0.37276807 1.2066873
0001c0 16 e0 8f bd c5 26 ac 3e 0b d8 7f be cd 6d 16 bf
       -0.07025163 0.3362333 -0.24984758 -0.5876129
0001d0 c4 b2 bc 3f cd da a8 3f 72 24 71 be 2a 2f d0 3e
       1.4742055 1.3191773 -0.23549059 0.40660983
0001e0 f4 ce f7 3e bf 48 a7 3e 0f bf 5d bf e5 02 7e 3e
       0.4840008 0.32672688 -0.8661966 0.24805792
0001f0 bf 75 b2 3e 9d 79 34 3e b9 6f 78 bf ba 1f 39 3f
       0.34855458 0.17624517 -0.97045475 0.72314036
000200 f5 38 88 be 04 da 4d 3f 71 cf 53 3e 9f 76 c4 3f
       -0.26605955 0.8041079 0.20684601 1.53487
000210 30 59 07 bf 66 cf 13 bf 98 62 4c 3e 5f 8c 26 3f
       -0.52870464 -0.5773834 0.19959486 0.6505794
000220 c8 fc e0 be 09 e2 26 3f de 33 7e 3f 58 7d 71 bf
       -0.43942857 0.6518865 0.99297893 -0.94331884
000230 f0 48 8c 3c df be 45 be 60 94 93 3e 29 70 ba bc
       0.017124623 -0.19311093 0.2882414 -0.02275856
000240 58 1d 35 3f ce 5e 8a bd 98 bc 0d 3f b6 99 4f 3f
       0.707479 -0.06756364 0.55365896 0.8109392
000250 97 96 c4 3d b1 1f 51 3f e6 0e 4c 3f 60 d2 a0 be
       0.09599035 0.8168898 0.79710233 -0.31410503
000260 94 04 32 3f 47 62 50 3f 5e 0c ac be 4f 7f e0 be
       0.69538236 0.8139996 -0.33603185 -0.4384713
000270 16 6b 95 3d 44 20 b3 3e c1 68 de be 47 26 04 be
       0.07295816 0.34985554 -0.43439296 -0.12905227
000280 7f bc 91 be 76 88 9a 3e 6a a5 0d bf 0a ac ce bf
       -0.28464124 0.30182236 -0.55330527 -1.6146252
000290 ba ea 1a 3d bc a5 5b 3f 1b 29 1e bf 8e 27 af be
       0.03782151 0.85799766 -0.6178147 -0.34209865
0002a0 d5 05 11 3f 1d 96 ab be d6 76 7b 3f d7 34 6a 3f
       0.56649524 -0.33512965 0.98228204 0.9148688
0002b0 4a 76 1a bf 39 48 15 3d 34 af 18 bf 30 80 0a be
       -0.60336745 0.03644583 -0.5964234 -0.13525462
0002c0 3a 4c fa be a8 cc b6 bf 23 e5 84 3f b6 45 4e bf
       -0.4888628 -1.4281206 1.0382427 -0.8057512
0002d0 7a c4 ea be c4 91 35 bf 36 3b e0 bc 31 eb 07 3f
       -0.45853025 -0.70925546 -0.027371984 0.5309325
0002e0 cb c8 b1 3e f4 2f ca be e8 83 44 bf 61 7e 98 3e
       0.34723505 -0.3948971 -0.7676377 0.2978392
0002f0 f0 8b e2 be a9 25 66 3e e4 90 89 be 7f dc 07 bf
       -0.4424739 0.22475304 -0.26868355 -0.53070825
000300 f0 40 b4 3e 46 a7 ae be d8 cb 67 bc 88 4a 13 bf
       0.35205793 -0.34111995 -0.014147721 -0.575356
000310 67 e3 be be a8 9e 19 3b e0 9e ce 3e e0 2b 2b bf
       -0.3728287 0.0023440514 0.40355587 -0.6686382
000320 2c 16 0a 3f 47 5d a1 bf 5c 70 8e bf 19 91 c7 bf
       0.5394008 -1.2606591 -1.1128039 -1.5591155
000330 63 24 84 3d 09 28 92 bf 14 53 c3 be 35 cd fe 3e
       0.06452253 -1.1418468 -0.3814932 0.49765936
000340 e1 a7 f9 3c c5 d6 f2 3e f1 34 da be e4 0f 90 bf
       0.030475559 0.4742948 -0.42618516 -1.125485
000350 6f 1a 02 3f a3 4d e3 be 9a 4e e7 be f2 d8 91 3f
       0.50821584 -0.4439517 -0.45177156 1.1394331
000360 c9 84 e8 3f aa fb 8d be f2 dc 89 3e 81 f7 14 3f
       1.8165523 -0.27731067 0.2692638 0.5819016
000370 9b b1 64 bf c9 bf eb bd c8 b9 1b bf d0 a6 94 3f
       -0.89333504 -0.115111895 -0.60830355 1.1613407
000380 ee 1d 9b bd f4 56 3e 3f 1c c5 95 3f 52 e6 5f 3f
       -0.07574068 0.7435143 1.1700778 0.87460816
000390 f9 b2 9d 3e a3 1f ce 3e 14 53 69 bd 85 d2 74 3f
       0.30800608 0.40258512 -0.056963995 0.9563373
0003a0 84 05 c3 be 58 b9 aa be 7d 99 0d bf b4 1c df 3d
       -0.38090146 -0.3334453 -0.5531233 0.108941466
0003b0 80 c0 e6 3e 91 45 93 bf ef 83 b4 3e 71 cd 18 bf
       0.4506874 -1.1505605 0.35256907 -0.5968848
0003c0 a3 d5 07 40 3b 1b b9 3f 98 ff 6b 3f 70 9c fd bd
       2.1224144 1.4461435 0.9218688 -0.12383354
0003d0 09 1b d9 3f 38 27 aa 3e 0c 4e 76 bf 05 19 22 bf
       1.6961375 0.33233047 -0.9621284 -0.63319427
0003e0 31 37 08 c0 35 cf 10 3e 66 bf 51 bd 0f f8 21 bf
       -2.1283686 0.14141543 -0.051207922 -0.6326913
0003f0 72 e4 97 3e 78 13 82 3e e3 d1 71 3c 33 b1 88 3e
       0.29666477 0.25405478 0.014759514 0.26697692

critic.2.bias f4 [64]
000000 0a db 0d 3f f6 f4 53 be dc 2b 7f 3e f8 81 fe 3d
       0.5541235 -0.20698914 0.24919075 0.12427133
000010 16 10 ac 3d d5 1f 43 be b6 e4 c8 be 0f 1a 57 3e
       0.08401506 -0.19055112 -0.39236993 0.21006034
000020 17 a8 04 bf 34 07 90 3e ec 31 b7 bd d6 1d 08 bf
       -0.51818985 0.28130496 -0.08945069 -0.53170526
000030 82 9a 5e be 38 e4 ad be 3e f6 80 3f 9d fd 3e bf
       -0.21738628 -0.3396318 1.0075147 -0.74605733
000040 93 90 e7 3e ef 45 1e bf d6 2f c6 be 5a f9 3b bf
       0.4522749 -0.6182546 -0.3870837 -0.73427355
000050 af 82 93 be b2 cc 73 3f 7e 09 89 3e 17 34 ee 3d
       -0.2881064 0.95234215 0.26765054 0.11631029
000060 17 d1 e4 be 6b 9e 1b 3f d2 0a 15 bf a9 cb 03 bf
       -0.44690773 0.607886 -0.58219635 -0.51482636
000070 5f a9 48 bf 0c c2 7e 3e f5 43 9e bf 46 99 42 3d
       -0.7838344 0.2487871 -1.2364489 0.047509454
000080 e4 86 c3 3c ec 9b 07 bd 33 53 21 3f ce ee 99 3e
       0.023868032 -0.033107683 0.63017577 0.30065006
000090 a0 8e 3e 3f 12 98 b3 be d4 6c ec 3d 80 01 07 be
       0.7443638 -0.35076958 0.11544195 -0.13184166
0000a0 b0 91 56 be cd 5b a2 bf fe 4f 00 3f 45 dd 75 3e
       -0.20954013 -1.2684265 0.5012206 0.24010189
0000b0 33 38 40 3f ea 13 47 bf ed 1e 27 bf 24 80 24 3d
       0.75085753 -0.7776476 -0.65281564 0.040161267
0000c0 4d d8 84 bd e9 1b 34 3e e2 45 3d 3e 65 b4 b1 be
       -0.064865686 0.17588772 0.1848369 -0.34707943
0000d0 bf d3 a5 3e 2e fb 28 be 0d b7 80 3e 48 7b 82 be
       0.32388112 -0.16502067 0.25139657 -0.2548468
0000e0 ab a7 89 be 3a 68 49 be 0c 11 87 be 59 e4 1e bf
       -0.26885733 -0.19668666 -0.26380193 -0.6206718
0000f0 9e b6 a2 3d aa c2 d0 3d 46 1a cb 3e fd 83 14 be
       0.07944988 0.10193379 0.39668483 -0.14503475

critic.4.weight f4 [1, 64]
000000 1d 43 10 3f ea cd dd 3e 8f c7 2a bf 7a f7 e7 3e
       0.56352407 0.43321162 -0.6671075 0.45305997
000010 fb 71 f0 3d a3 15 f1 3e 30 fa 1c 3f f2 08 19 bf
       0.1174049 0.4708682 0.61319256 -0.59779274
000020 fc e8 e9 3e 4e 89 91 3e 87 5e e6 be 08 90 de be
       0.45685565 0.28425068 -0.44993994 -0.43469262
000030 fa a3 da be 80 33 9d 3e 1a 2a 82 be 28 96 2b bf
       -0.4270323 0.30703354 -0.25422746 -0.67025995
000040 31 45 28 3f 5e ef 8d be 9d 97 23 bf ad 3c c8 be
       0.6573058 -0.27721685 -0.6390322 -0.39108792
000050 47 33 f8 3e 9c f2 3a 3f 92 b3 39 bf e8 cf 8e be
       0.48476622 0.7302644 -0.7253963 -0.27892995
000060 82 71 97 be 22 be b9 3e 72 8f 1f bf d0 d5 16 3f
       -0.29578787 0.36277872 -0.62328255 0.5892
000070 ba 03 01 3f 44 6c dd 3e 61 6a f9 be e7 a1 10 bf
       0.5039631 0.43246663 -0.48713973 -0.56497043
000080 25 2d b7 be 1e 65 1a bf ae ba 22 3f c2 69 96 3e
       -0.3577663 -0.6031054 0.635661 0.29377562
000090 76 06 22 bf 3a 33 08 bf 38 a2 08 3f fa f6 b1 be
       -0.6329111 -0.53203166 0.53372526 -0.3475874
0000a0 ec 05 27 3f 3b 46 e4 3e 2c 0c f0 3e 8f fe e5 3e
       0.6524341 0.44584832 0.46884286 0.44920775
0000b0 af d8 06 3f fe aa ae 3e 59 da d2 be 85 90 9f 3e
       0.5267438 0.34114832 -0.4118221 0.31164947
0000c0 a5 8f e4 3e 1c 5e 13 bf a5 25 d3 3e 24 39 a9 be
       0.44640842 -0.57565475 0.41239658 -0.33051407
0000d0 b3 a8 26 be c6 7c a0 be b4 db 13 3f 9c e3 02 3f
       -0.16275291 -0.31345195 0.57757115 0.51128554
0000e0 c3 c7 99 be 06 76 03 3f 62 02 f2 be 4c 1f 16 3f
       -0.3003522 0.51351964 -0.47267443 0.58641505
0000f0 50 1f f1 be 06 45 1a 3f 2c 96 6d be 84 f8 ae be
       -0.47094202 0.6026157 -0.23201817 -0.34173977
