Model Results/ppoMSFT2019-12-011999.pth (torch, 48325 bytes, 11 tensors)

actor.0.weight f4 [64, 16]
0.37442613 0.333844 0.27440834 -0.59604484 -0.61772907 -0.73424023 0.0005198049 -0.17501639
-0.1780976 0.033071417 0.20667127 0.1937681 -0.26475072 -0.07294398 -0.68215615 0.7396942
0.40849882 0.41206196 0.5131049 0.3604321 0.1358571 -0.12215842 -0.12308034 0.03137933
0.16846733 -0.07053543 0.1152784 -0.21129571 -0.37888646 -0.11836125 -0.28293693 0.38322675
-0.4178472 -0.50099576 -0.21257807 0.59080327 0.23169777 0.66073114 0.15654834 0.10468614
-0.13333538 -0.034127828 0.19802909 0.02756879 0.27589142 0.119169146 0.05387105 0.1627076
-1.5534235 -1.6664132 -1.7039572 -0.20733358 -0.26182088 -0.349244 0.14679845 -0.00094139925
0.0637946 -0.060950212 -0.16498172 0.19214264 -0.27935073 0.05331035 0.44198084 0.028625252
-1.0598602 -1.38108 -1.1274418 -0.39769638 0.053761587 0.009938506 0.31369987 0.18366809
0.044388063 -0.0821993 -0.07162636 -0.041286528 -0.037258822 0.2283488 0.06373758 -0.63353413
1.2365144 1.3829086 1.2778784 -0.109165855 -0.00012049651 0.29249102 -0.00709221 0.26248312
0.073784076 -0.07797366 0.22150853 -0.051656075 -0.35425478 -0.06088485 0.41383204 -0.042926118
-0.40528184 -0.34934235 -0.42928833 -0.40136415 -0.36888403 -0.5695257 0.22611184 0.033021692
0.057416774 0.28838435 0.21663655 0.05055516 -0.01407261 -0.10718265 -0.09256652 0.31259653
-0.48848745 -0.44481307 -0.73117685 0.043719694 0.5957087 0.26133168 -0.029020969 0.16788551
0.0705303 -0.3513165 -0.024229746 0.15258934 0.2880013 -0.1717969 1.0649117 -0.521933
-0.68269575 -0.83795565 -0.85012037 0.29331896 -0.0996625 -0.018134803 0.16813721 0.17290927
0.078245476 0.26606113 0.26822376 -0.094738066 0.17454425 -0.18636167 -0.41452575 0.07528725
1.0518631 1.2360748 1.275506 0.7867169 0.49633574 0.6474595 -0.15894753 -0.12300792
-0.088737555 -0.0446365 0.05206017 0.14789282 -0.3210448 0.12798914 -0.9356549 0.24591221
-0.2370516 -0.44280037 -0.5915414 -1.0866668 -1.0128452 -1.0768238 -0.28127828 0.09254025
-0.016250549 -0.080546595 -0.06848577 -0.16720636 0.2169499 0.057226248 -0.75593686 0.5205426
-1.041288 -1.025794 -1.4365253 0.91305697 1.0350909 0.6407805 -0.20987731 0.19895601
0.243095 0.100423545 -0.08519695 -0.13367346 0.4012699 0.13727295 0.50450826 0.030118858
-0.027769804 -0.038164586 0.1647161 0.20541301 0.1245904 0.20841062 0.053263575 0.18303812
0.090234846 -0.064175814 -0.12130651 -0.21238622 0.03845352 -0.24186975 -0.060996413 -0.14141843
0.5413872 0.7295025 0.4560207 -0.3414474 0.35488492 0.09173255 0.018398283 -0.23108135
-0.08901527 0.13043548 -0.032822534 0.18686916 -0.37796268 -0.08019955 0.8290734 -0.7271259
-1.3730437 -1.045211 -0.73028886 1.6002961 1.0921016 1.5365123 -0.17789118 -0.2955555
-0.2167045 0.04162226 -0.14969413 0.0377942 0.12304343 0.019642837 0.6881414 0.28529328
1.2217681 1.181824 1.1748312 -1.2596315 -1.4570507 -1.0597454 0.1384071 0.20540878
0.00163021 -0.16669457 -0.029715648 0.071519114 0.29878673 0.09753434 0.5561195 -0.29050544
00000000: c8b4 bf3e 9aed aa3e 407f 8c3e 6596 18bf
00000010: 7e23 1ebf 2bf7 3bbf 8443 083a 7f37 33be
00000020: 385f 36be e575 073d a2a1 533e 256b 463e
00000030: 688d 87be a763 95bd c9a1 2ebf 995c 3d3f
00000040: c226 d13e c9f9 d23e d85a 033f 8e8a b83e
00000050: 201e 0b3e 322e fabd 8c11 fcbd 9d87 003d
00000060: b382 2c3e e174 90bd 1517 ec3d e75d 58be
00000070: 68fd c1be 6267 f2bd 1cdd 90be 4c36 c43e
00000080: 11f0 d5be 4241 00bf 11ae 59be e23e 173f
00000090: 2e42 6d3e ad25 293f 354e 203e b065 d63d
000000a0: 1289 08be 9fc9 0bbd 23c8 4a3e f1d7 e13c
000000b0: a441 8d3e f40e f43d e4a7 5c3d d29c 263e
000000c0: 95d6 c6bf 074d d5bf 451b dabf 414f 54be
000000d0: 630d 86be 1cd0 b2be 5552 163e 3cc8 76ba
000000e0: bea6 823d eea6 79bd f8f0 28be 0ac1 443e
000000f0: 0f07 8fbe f45b 5a3d 504b e23e 817f ea3c
00000100: 80a9 87bf 3bc7 b0bf 0350 90bf dc9e cbbe
00000110: 1c35 5c3d 1ed5 223c 459d a03e 7d13 3c3e
00000120: 42d0 353d 1b58 a8bd d7b0 92bd 101c 29bd
00000130: b59c 18bd 45d4 693e d988 823d 4b2f 22bf
00000140: 1b46 9e3f 2603 b13f 8591 a33f 5992 dfbd
00000150: 12b3 fcb8 62c1 953e c565 e8bb 3064 863e
00000160: 1b1c 973d a7b0 9fbd 22d3 623e 5295 53bd
00000170: e260 b5be 6462 79bd cbe1 d33e 4cd3 2fbd
00000180: 1a81 cfbe 00dd b2be aecb dbbe 9a7f cdbe
00000190: 5ede bcbe 70cc 11bf dd89 673e c141 073d
000001a0: da2d 6b3d 1da7 933e f9d5 5d3e ed12 4f3d
000001b0: ce90 66bc 9482 dbbd 8493 bdbd a70c a03e
000001c0: 071b fabe 8abe e3be 682e 3bbf 6c13 333d
000001d0: 5e80 183f 44cd 853e 62bd edbc 2eea 2b3e
000001e0: 3172 903d c2df b3be 767d c6bc 6140 1c3e
000001f0: e874 933e 87eb 2fbe 074f 883f 679d 05bf
00000200: 26c5 2ebf 4384 56bf 7da1 59bf e72d 963e
00000210: da1b ccbd 708f 94bc 292c 2c3e 210f 313e
00000220: 2a3f a03d 2a39 883e a054 893e 0806 c2bd
00000230: babb 323e 98d5 3ebe b83c d4be 3430 9a3d
00000240: 73a3 863f b337 9e3f c843 a33f 4766 493f
00000250: b81f fe3e e8bf 253f 24c3 22be 94eb fbbd
00000260: 09bc b5bd c3d4 36bd 0b3d 553d 3771 173e
00000270: fc5f a4be 960f 033e 1487 6fbf 69d0 7b3e
00000280: a8bd 72be bbb6 e2be 426f 17bf e617 8bbf
00000290: e9a4 81bf 5dd5 89bf b503 90be be85 bd3d
000002a0: df1f 85bc 9df5 a4bd 4442 8cbd 2538 2bbe
000002b0: 1d28 5e3e 1266 6a3d 1485 41bf 4842 053f
000002c0: ed48 85bf 384d 83bf 10e0 b7bf 1abe 693f
000002d0: dc7d 843f 310a 243f 14ea 56be 20bb 4b3e
000002e0: e5ed 783e dcaa cd3d bd7b aebd b2e1 08be
000002f0: 4073 cd3e 4891 0c3e 7427 013f d3bb f63c
00000300: 807d e3bc 7852 1cbd 56ab 283e ca57 523e
00000310: 4029 ff3d 9869 553e e82a 5a3d 586e 3b3e
00000320: 0ccd b83d 9c6e 83bd 8c6f f8bd c67b 59be
00000330: 7081 1d3d b4ac 77be 60d7 79bd fecf 10be
00000340: 5a98 0a3f adc0 3a3f 8c7b e93e 32d2 aebe
00000350: 7ab3 b53e 46de bb3d ffb7 963c 97a0 6cbe
00000360: a34d b6bd e190 053e ec70 06bd a15a 3f3e
00000370: 5384 c1be a93f a4bd 283e 543f ec24 3abf
00000380: e5bf afbf 79c9 85bf 36f4 3abf 81d6 cc3f
00000390: fcc9 8b3f 6fac c43f 1b29 36be 0d53 97be
000003a0: c9e7 5dbe 1a7c 2a3d 6b49 19be 17ce 1a3d
000003b0: 32fe fb3d 04ea a03c 092a 303f f611 923e
000003c0: e662 9c3f 0246 973f de60 963f 9b3b a1bf
000003d0: a380 babf bda5 87bf 97ba 0d3e ae56 523e
000003e0: c5ac d53a fbb1 2abe 3b6e f3bc 9d78 923d
000003f0: 93fa 983e 16c0 c73d d95d 0e3f 21bd 94be

actor.0.bias f4 [64]
-0.16213898 -0.21643944 0.14079838 -0.10187663 -0.14285354 -0.0030413552 0.16182522 0.11201391
0.20899531 0.040921297 -0.118162274 0.2241352 0.11786327 0.2091275 0.07574197 -0.21857437
0.26961553 0.27417296 0.20493907 0.12130934 0.02075043 0.1441433 0.3760483 0.057110462
0.3527081 -0.11819445 -0.08888374 -0.10738505 -0.01786363 0.060747843 0.06772162 -0.03585742
0.05241728 -0.06981358 -0.10773211 -0.18439862 0.12310991 0.21959949 -0.31893614 -0.019404024
-0.15083563 -0.17875215 0.113598175 -0.21086717 0.07382706 0.10266992 -0.09571347 0.14791673
-0.1542486 0.03834117 -0.22856839 0.1225406 -0.035378043 0.04904907 -0.037006255 0.31287402
0.00073841214 -0.16831896 0.09545139 0.07331296 -0.12072814 0.14143486 0.18258193 -0.06015884
00000000: c307 26be 4da2 5dbe 732d 103e b2a4 d0bd
00000010: 3348 12be 7951 47bb 83b5 253e 8d67 e53d
00000020: de02 563e 179d 273d 10ff f1bd b383 653e
00000030: 4c62 f13d 8525 563e 9b1e 9b3d f6d1 5fbe
00000040: 0c0b 8a3e 6660 8c3e 8cdb 513e 0871 f83d
00000050: cefc a93c 4d9a 133e 6789 c03e a9ec 693d
00000060: 2896 b43e ef0f f2bd ae08 b6bd b1ec dbbd
00000070: bf56 92bc bbd2 783d a2b1 8a3d 3bdf 12bd
00000080: 80b3 563d 6cfa 8ebd a7a2 dcbd fed2 3cbe
00000090: 0c21 fc3d b0de 603e 994b a3be 30f5 9ebc
000000a0: a874 1abe ce0a 37be 29a6 e83d 90ed 57be
000000b0: a432 973d 9b44 d23d 6c05 c4bd 7c77 173e
000000c0: 58f3 1dbe a10b 1d3d d50d 6abe 91f6 fa3d
000000d0: 91e8 10bd ade7 483d df93 17bd 0631 a03e
000000e0: 0092 413a ce5b 2cbe 057c c33d 1b25 963d
000000f0: 5140 f7bd 4dd4 103e c2f6 3a3e 1e69 76bd

actor.2.weight f4 [64, 64]
0.3384438 -0.048101086 -0.21977986 -0.52453643 0.45758468 -0.25143385 0.07487386 -0.30269474
-0.006681312 0.27920225 -0.22452283 -0.29743117 0.1673696 0.7321392 -0.18303984 -0.13155773
-0.08056842 -0.039739646 -0.16118982 -0.18898386 -0.08858367 -0.0072130165 0.43117824 -0.16086406
-0.07631057 0.15222335 -0.046603028 -0.22147235 -0.2814035 -0.18611923 0.3459787 -0.02921593
0.087059356 -0.120541 -0.22124235 0.22070451 0.044401858 0.62474424 -0.5669918 -0.09622636
-0.07055601 0.16064636 -0.07173396 -0.44786802 0.67297935 -0.47652563 -0.24355695 -0.4324074
-0.47923908 -0.1442268 -0.14984672 -0.251694 -0.601943 -0.0011111442 0.17857508 0.10941561
0.23246813 0.20931554 0.6093849 0.26661378 -0.97287536 0.65436256 -0.42610267 -0.51612437
-0.5305525 -0.30932906 -0.35394937 -0.63762015 0.7458245 -0.39555424 -0.15263201 0.6863651
-0.19592878 -0.379998 -0.25233793 0.3356461 0.08803675 -0.23042615 0.1293112 -0.08150891
-0.04611324 0.21903548 -0.19677286 -0.103451185 0.2534393 -0.38673604 0.33103216 -0.15523027
0.1416716 -0.054640505 -0.08363962 -0.48114306 -0.6825086 0.072770685 0.15021874 -0.057247236
0.0971914 -0.24012549 -0.19094317 -0.056649875 0.06430097 0.41196972 -0.25986078 -0.28105062
0.39928392 0.053092267 -0.0016082173 -0.07465467 0.14131355 -0.93738157 -0.15880828 -0.64807594
-0.47124144 -0.45131418 -0.46514353 -0.2358967 -0.58268785 -0.075623676 0.12730873 -0.38029134
0.27781823 0.09011819 0.6138926 0.2687983 0.13067965 0.23867883 -0.25434905 -0.3891157
0.56978416 -0.23836626 -0.031920597 -0.27878177 0.8592479 -0.8592862 0.1593137 -0.06760516
0.14693992 0.70371175 0.35147128 0.38190544 -0.10093216 0.06753783 -0.32352158 -0.008435734
-0.040864095 0.10800391 0.042464077 0.0711828 -0.28499985 -0.07975794 0.55206037 -0.0651683
-0.19538099 0.07340717 -1.0341394 -0.8442619 -0.35831982 -0.024658969 0.4927691 -0.013564152
0.019192412 0.0153715685 0.42715085 -0.05847965 0.09212228 -0.24378711 -0.5528088 0.09028367
0.3692642 0.06813146 0.0027471771 0.47153348 0.37021786 -0.15923025 -0.06764233 -0.48309147
-0.15362342 0.398516 0.27135554 -0.16624121 0.32428485 -0.088278614 -0.25476927 0.106361605
-0.00052959216 0.10733186 0.1498739 -0.6406417 0.010885415 -0.32193795 -0.56696266 0.2773598
0.26398227 0.03612293 0.3265884 0.6269116 -0.5957426 0.34255975 0.1285777 -0.4326231
-0.31438446 0.28253 0.20634913 0.043579973 0.040702973 -0.318975 0.8433073 -0.14143969
-0.029823188 -0.18240173 0.20672587 0.15177183 -0.343155 0.0003940173 -0.5976245 0.09002457
-0.23828636 0.35901183 -0.0070703556 0.26777148 0.14874789 -0.010880956 -0.46000412 -0.020602426
-0.024391837 -0.019699063 0.25308806 0.10546482 -0.047429554 -0.47342715 0.56292653 -0.013168132
0.016782178 -0.18158364 0.081910804 -0.14801323 -0.36533436 0.6280948 0.026445452 0.30247223
0.1768178 0.3419132 0.27707097 -0.14640492 0.44748282 0.2407968 -0.31615537 0.37914523
-0.046503223 -0.081943065 -0.42732513 -0.009536 0.4731227 -0.61988175 0.07523759 0.5124422
00000000: 8148 ad3e a505 45bd f90d 61be 0548 06bf
00000010: 8a48 ea3e f0bb 80be 7757 993d cefa 9abe
00000020: e8ee dabb 99f3 8e3e 50e9 65be e648 98be
00000030: f062 2b3e 7a6d 3b3f cc6e 3bbe 12b7 06be
00000040: 0e01 a5bd 0ac6 22bd f20e 25be fc84 41be
00000050: 5b6b b5bd 2b5b ecbb 65c3 dc3e 8cb9 24be
00000060: b748 9cbd 70e0 1b3e d1e2 3ebd a6c9 62be
00000070: 1f14 90be 0a96 3ebe 1f24 b13e 3f56 efbc
00000080: 2d4c b23d 33de f6bd 5b8d 62be 5d00 623e
00000090: b9de 353d 3def 1f3f 6026 11bf 5312 c5bd
000000a0: ab7f 90bd 7b80 243e 41e9 92bd f54e e5be
000000b0: 6048 2c3f 2bfb f3be fe66 79be 8164 ddbe
000000c0: d35e f5be 31b0 13be 6b71 19be 09de 80be
000000d0: f018 1abf d0a3 91ba 63dc 363e 4b15 e03d
000000e0: 200c 6e3e d056 563e a600 1c3f 9a81 883e
000000f0: 5c0e 79bf 4e84 273f 212a dabe ba20 04bf
00000100: 4ad2 07bf 6160 9ebe da38 b5be 133b 23bf
00000110: 5bee 3e3f 1686 cabe 914b 1cbe a0b5 2f3f
00000120: 8ea1 48be 198f c2be 7032 81be ced9 ab3e
00000130: 9d4c b43d d5f4 6bbe 286a 043e 25ee a6bd
00000140: 3de1 3cbd d64a 603e d37e 49be 37de d3bd
00000150: ccc2 813e 4402 c6be 0c7d a93e aff4 1ebe
00000160: 5c12 113e b9ce 5fbd 404b abbd 6258 f6be
00000170: e2b8 2ebf cc08 953d f1d2 193e 147c 6abd
00000180: 490c c73d 75e3 75be 9b86 43be b309 68bd
00000190: 3ab0 833d b2ed d23e 790c 85be dee5 8fbe
000001a0: f16e cc3e 4777 593d d1ca d2ba 8ce4 98bd
000001b0: 80b4 103e 3df8 6fbf a39e 22be 4ee8 25bf
000001c0: 8f46 f1be a712 e7be 4b27 eebe e88e 71be
000001d0: 082b 15bf 96e0 9abd 385d 023e 8cb5 c2be
000001e0: 313e 8e3e e38f b83d 1128 1d3f ee9f 893e
000001f0: e3d0 053e 3968 743e 0a3a 82be 2c3a c7be
00000200: 60dd 113f 4916 74be 2cbf 02bd 7cbc 8ebe
00000210: acf7 5b3f 2efa 5bbf 2123 233e 9374 8abd
00000220: 6b77 163e 7426 343f 0bf4 b33e 1c89 c33e
00000230: 85b5 cebd 4651 8a3d 9fa4 a5be 0836 0abc
00000240: 1c61 27bd 2731 dd3d d0ee 2d3d 4ac8 913d
00000250: 80eb 91be 2158 a3bd d453 0d3f f576 85bd
00000260: f411 48be 8056 963d ae5e 84bf 8c21 58bf
00000270: b275 b7be 9b01 cabc 3b4c fc3e 2d3c 5ebc
00000280: 6839 9d3c 08d9 7b3c 84b3 da3e 5c88 6fbd
00000290: 9baa bc3d 54a3 79be e184 0dbf a5e6 b83d
000002a0: 3210 bd3e 8288 8b3d fc09 343b d66c f13e
000002b0: 328d bd3e 410d 23be 1088 8abd c457 f7be
000002c0: 754f 1dbe 4a0a cc3e 1def 8a3e 233b 2abe
000002d0: aa08 a63e 6bcb b4bd 1e71 82be 1dd4 d93d
000002e0: 54d4 0aba ced0 db3d 8b78 193e 1801 24bf
000002f0: bd58 323c 0dd5 a4be 7724 11bf 1b02 8e3e
00000300: af28 873e a3f5 133d 9836 a73e 477d 203f
00000310: 9682 18bf fe63 af3e dfa9 033e c680 ddbe
00000320: 00f7 a0be c6a7 903e 304d 533e ea80 323d
00000330: 29b8 263d b150 a3be fde2 573f 91d5 10be
00000340: c24f f4bc 85c7 3abe f2af 533e 136a 1b3e
00000350: 03b2 afbe 1b94 ce39 ebfd 18bf cd5e b83d
00000360: 5701 74be 66d0 b73e 71ae e7bb 5819 893e
00000370: 5e51 183e 0a46 32bc a985 ebbe 6bc6 a8bc
00000380: 64d1 c7bc ee5f a1bc c294 813e f1fd d73d
00000390: 7e45 42bd 0b65 f2be f41b 103f 26bf 57bc
000003a0: c77a 893c 10f1 39be dac0 a73d c890 17be
000003b0: 1b0d bbbe d2ca 203f 22a4 d83c a4dd 9a3e
000003c0: ba0f 353e 3f0f af3e 3fdc 8d3e 2ceb 15be
000003d0: 781c e53e 7093 763e 1edf a1be 531f c23e
000003e0: 2a7a 3ebd c4d1 a7bd 5cca dabe e23c 1cbc
000003f0: 233d f23e 92b0 1ebf 2a16 9a3d 692f 033f

actor.2.bias f4 [64]
-0.13725007 -0.052844714 -0.08124335 0.131552 0.12211066 0.16589 0.047813706 0.024260873
0.06594375 -0.20714761 0.15801589 0.07466856 0.12703332 -0.08411392 -0.16550279 -0.084329955
0.0645591 -0.063520186 -0.12821868 -0.17808385 -0.048379336 0.029511077 0.16208367 -0.018580852
0.008875328 0.20239109 0.045525026 -0.23304997 0.18353227 0.2761223 -0.13308498 -0.02362986
0.16898416 -0.13033108 -0.009600068 0.11311189 0.050794296 -0.034666844 0.06542115 0.010254554
0.22467972 0.18662083 -0.0070888046 -0.0066858344 0.021150634 0.04540211 -0.15327547 -0.009285691
-0.0064106467 0.10063018 -0.021770446 0.02134831 -0.07396618 -0.17479838 0.15671815 -0.17230354
0.065683365 0.09827414 0.16601072 0.06299184 0.03626086 0.002548179 -0.0075941267 -0.060984354
00000000: 488b 0cbe b373 58bd ea62 a6bd 91b5 063e
00000010: 2715 fa3d 11df 293e 4ed8 433d bdbe c63c
00000020: 840d 873d 811e 54be ebce 213e d4eb 983d
00000030: 0615 023e eb43 acbd 9079 29be 2fb5 acbd
00000040: 9037 843d df16 82bd c24b 03be 9d5b 36be
00000050: 6929 46bd 37c1 f13c 43f9 253e df36 98bc
00000060: d369 113c 9c3f 4f3e 7378 3a3d a7a4 6ebe
00000070: e2ef 3b3e e75f 8d3e 6e47 08be 6893 c1bc
00000080: 2f0a 2d3e 8375 05be 9b49 1dbc 35a7 e73d
00000090: ae0d 503d d2fe 0dbd 86fb 853d b802 283c
000000a0: 7112 663e 8819 3f3e 3449 e8bb d814 dbbb
000000b0: 1844 ad3c 90f7 393d 3ff4 1cbe 0323 18bc
000000c0: 6710 d2bb 3217 ce3d ef57 b2bc a7e2 ae3c
000000d0: 957b 97bd 59fe 32be b97a 203e 5770 30be
000000e0: 0085 863d f443 c93d b7fe 293e de01 813d
000000f0: 4486 143d 59ff 263b 27d8 f8bb bbca 79bd

actor.4.weight f4 [7, 64]
0.21048829 0.3154529 0.34505042 -0.7303698 0.15466705 0.9383229 -0.33508754 0.77503926
-0.6991028 0.9226628 -1.1417912 -0.72931963 0.060555562 0.6853671 0.68045413 -0.8179507
1.501594 0.73903185 0.98275936 0.59123725 0.26951277 -0.71777755 -0.022210583 0.8500353
1.1630532 -1.4810556 -0.5611406 0.71562445 1.834474 -1.1981933 -0.024393754 0.26646352
-0.6657901 -0.21289589 -0.77075064 0.51389784 0.7422438 -0.052772637 -1.2311676 -1.2075218
-0.025094382 -1.7441897 0.25427684 -1.4353023 0.70422393 -0.27676746 0.9052835 0.4941319
0.7450128 0.86496836 -0.9577647 -0.51401275 0.41820577 0.61177355 0.41259944 0.6903693
0.54641515 0.15451786 0.43673372 -0.64035904 -0.11228724 -1.3449503 -0.1481621 -1.9266651
-0.6729573 -1.0821353 0.5595912 0.49688682 0.18181969 0.6888542 0.15320435 -1.3683292
0.87442744 -0.8049719 -0.40344203 -1.2320173 -0.20131943 0.8305073 -0.096999824 -0.8265439
0.34964508 -0.7133452 -0.8251876 1.1286421 0.7010614 -1.0116686 0.41151983 -1.1806489
0.700505 1.6383595 0.9949627 -0.7009915 0.6334851 1.3083605 1.504351 0.21666329
-0.46180046 -1.1669369 -1.4656748 -0.9459492 0.9097816 0.98177475 -1.294575 1.0884203
1.8648627 1.3260317 0.5111858 1.3170801 0.3184197 -1.0420278 0.6995472 0.33013994
-0.8752428 0.12878464 -0.79753864 0.53308415 -0.10423255 1.4258264 -1.2813562 0.013984978
0.8089237 -0.0471908 1.0687019 0.6473304 0.0905501 -0.31288457 0.9089781 -0.3840058
-0.13592772 -1.1677125 -0.18572064 2.3502078 1.4702618 -0.35394317 1.719068 -0.9419732
2.6444528 -0.5096052 -1.5802704 1.2464063 -0.4467608 2.8210585 2.1235921 0.65511227
-0.6274673 -1.4595195 -0.22430764 1.1814451 3.6266844 -0.7551872 0.3436859 -1.1196027
2.5114179 0.5598628 1.5000305 -0.6388427 2.2795255 -1.0712141 1.5288391 -0.6405911
-0.07665064 -0.9229133 -3.1984408 -0.59075147 1.2149234 0.9575978 -3.0548127 0.78602993
1.0951471 0.27840063 0.09996941 0.76552314 -0.070663586 -1.3797084 0.22197929 -0.73190236
-2.312556 -0.21145283 -2.4524767 2.63858 0.011616738 2.340715 -1.3541704 0.30665976
-0.11040247 0.9081339 3.0111816 1.6645118 0.15724391 -1.0443577 0.5989706 -0.82243466
0.10045329 0.27848884 0.5110252 -1.4662212 -0.073165 0.3218883 -1.1032696 -0.70230085
-0.43960437 0.26722145 1.4981691 -0.8429433 0.3389179 -0.67713255 -1.1060282 -0.16967179
-0.44345513 1.0789311 -1.2756575 0.21643391 -1.5063533 0.38311088 -0.6047915 -1.399395
-0.5435048 1.1555138 0.35502398 -0.5520806 -1.5849574 0.95756954 1.1971917 -0.2747876
-0.4020307 -1.2349395 1.5907153 1.0152804 0.4821985 -0.49857304 1.8983756 0.6336477
0.4094781 0.81736046 1.0235943 1.5212203 0.9623022 -0.8015601 0.38798216 1.7158774
1.1516874 -1.0370654 1.8059832 -1.7904848 -0.11565302 -0.2896637 -0.67917603 0.4066584
0.1539739 0.26477125 -1.4762764 -1.1777358 0.65843767 1.7396312 1.358749 1.6083871
00000000: 3e8a 573e 0b83 a13e 73aa b03e 84f9 3abf
00000010: 0a61 1e3e ee35 703f 9890 abbe f968 463f
00000020: 67f8 32bf a133 6c3f 3726 92bf b1b4 3abf
00000030: 1c09 783d 3874 2f3f 3e32 2e3f 3865 51bf
00000040: 3b34 c03f 3131 3d3f 1e96 7b3f 535b 173f
00000050: 94fd 893e 45c0 37bf f8f2 b5bc ea9b 593f
00000060: edde 943f 3b93 bdbf e9a6 0fbf 2a33 373f
00000070: 0bd0 ea3f 665e 99bf 69d5 c7bc e86d 883e
00000080: 3871 2abf 6101 5abe ea4f 45bf cf8e 033f
00000090: b103 3e3f 1f28 58bd e696 9dbf 1390 9abf
000000a0: bc92 cdbc 9c41 dfbf 9330 823e fcb7 b7bf
000000b0: 0548 343f 77b4 8dbe a9c0 673f dbfe fc3e
000000c0: 29b9 3e3f 916e 5d3f 1130 75bf 5796 03bf
000000d0: 111f d63e 319d 1c3f 3c40 d33e 0bbc 303f
000000e0: dde1 0b3f ee39 1e3e 909b df3e 92ee 23bf
000000f0: daf6 e5bd 5527 acbf ceb7 17be f69c f6bf
00000100: ee46 2cbf 6983 8abf 5e41 0f3f f367 fe3e
00000110: f12e 3a3e c058 303f 9ae1 1c3e 6925 afbf
00000120: 7ada 5f3f a312 4ebf f48f cebe beb2 9dbf
00000130: ae26 4ebe 209c 543f d8a7 c6bd 6298 53bf
00000140: ae04 b33e cb9d 36bf 7f3f 53bf 5877 903f
00000150: c378 333f 5b7e 81bf bab2 d23e 811f 97bf
00000160: 4c54 333f c4b5 d13f e0b5 7e3f 2e74 33bf
00000170: 142c 223f 5b78 a73f 938e c03f fbdc 5d3e
00000180: 1c71 ecbe 305e 95bf 3b9b bbbf ba29 72bf
00000190: 72e7 683f 9755 7b3f a2b4 a5bf 5b51 8b3f
000001a0: d2b3 ee3f 68bb a93f 13dd 023f 1596 a83f
000001b0: e807 a33e 2b61 85bf 8615 333f 1a08 a93e
000001c0: ea0f 60bf 1fe0 033e 7e2b 4cbf 3478 083f
000001d0: e077 d5bd 7b81 b63f 7b03 a4bf 4021 653c
000001e0: a015 4f3f 244b 41bd 39cb 883f 72b7 253f
000001f0: 5572 b93d 6832 a0be cab2 683f 699c c4be
00000200: a330 0bbe 9a77 95bf 8d2d 3ebe ce69 1640
00000210: 8a31 bc3f 0a38 b5be 6c0a dc3f 2825 71bf
00000220: b73e 2940 7d75 02bf 4d46 cabf 3e8a 9f3f
00000230: d5bd e4be 398c 3440 efe8 0740 70b5 273f
00000240: b2a1 20bf 89d1 babf e7b0 65be 9839 973f
00000250: 991b 6840 f353 41bf 99f7 af3e 244f 8fbf
00000260: 12bb 2040 2b53 0f3f 0001 c03f 328b 23bf
00000270: bfe3 1140 8b1d 89bf 00b1 c33f c7fd 23bf
00000280: 03fb 9cbd 0c44 6cbf 41b3 4cc0 7d3b 17bf
00000290: 9c82 9b3f 2125 753f 0d82 43c0 4239 493f
000002a0: c82d 8c3f 878a 8e3e c3bc cc3d 53f9 433f
000002b0: 12b8 90bd 499a b0bf 8a4e 633e f45d 3bbf
000002c0: eb00 14c0 1787 58be 61f5 1cc0 7fde 2840
000002d0: 2154 3e3c 46ce 1540 7555 adbf 8202 9d3e
000002e0: b11a e2bd 777b 683f 33b7 4040 b90e d53f
000002f0: 8c04 213e 83ad 85bf 2356 193f 148b 52bf
00000300: 74ba cd3d 1796 8e3e 8cd2 023f 23ad bbbf
00000310: 88d7 95bd 8bce a43e f037 8dbf fdc9 33bf
00000320: d313 e1be 40d1 883e 01c4 bf3f 22cb 57bf
00000330: a686 ad3e 8f58 2dbf 5592 8dbf 71be 2dbe
00000340: 8d0c e3be 6a1a 8a3f bf48 a3bf daa0 5d3e
00000350: 2fd0 c0bf 1c27 c43e 9ed3 1abf 601f b3bf
00000360: 2123 0bbf e0e7 933f b4c5 b53e 2755 0dbf
00000370: e2df cabf 4723 753f 943d 993f f6b0 8cbe
00000380: f8d6 cdbe 7f12 9ebf 8f9c cb3f b5f4 813f
00000390: b9e2 f63e f744 ffbe f9fd f23f bc36 223f
000003a0: 1da7 d13e 893e 513f 2305 833f 59b7 c23f
000003b0: 7059 763f 0b33 4dbf 99a5 c63e dfa1 db3f
000003c0: 7e6a 933f 8fbe 84bf 752a e73f 9b2e e5bf
000003d0: 7edb ecbd cd4e 94be 7bde 2dbf 8835 d03e
000003e0: 56ab 1d3e 1990 873e a0f6 bcbf 0cc0 96bf
000003f0: 5f8f 283f 3cac de3f 7deb ad3f a1df cd3f

actor.4.bias f4 [7]
0.6703396 1.0998082 -0.2202693 0.28342724 0.042271517 0.6279239 0.05264984
00000000: 609b 2b3f 84c6 8c3f 468e 61be 601d 913e
00000010: e624 2d3d 9fbf 203f 5ca7 573d

critic.0.weight f4 [64, 16]
-0.2441043 0.004468918 0.10124916 0.06137541 0.01702565 0.21131873 -0.08860636 0.12753811
0.12447697 0.19798088 0.11029184 0.12593684 0.073357016 0.13947257 0.08491254 0.24027207
0.25118014 -0.19388586 -0.14313705 0.23675047 -0.10449539 0.05218263 0.029761901 -0.3760468
0.10699371 -0.25735986 -0.079765365 -0.084132336 -0.11693806 0.18113959 -0.40933037 -0.42984027
0.22793895 0.094406724 -0.1981835 -0.16935661 -0.21383187 -0.0248563 -0.14213344 0.06816769
0.1391195 0.043334156 -0.16089386 -0.15788755 -0.09021923 0.09066659 -0.025806308 0.10918045
0.7099112 -0.045859553 -0.1477667 0.054652482 0.051899612 -0.21186909 0.26794836 0.4263923
-0.07381011 -0.14524281 -0.15716732 -0.11308091 0.0881549 -0.025880069 -1.2420379 0.7835836
-0.9620789 -0.5170087 -0.028360195 -0.27250814 -0.104440324 0.42257917 -0.22172996 -0.5225513
-0.22764766 0.057136614 0.17387263 -0.07049408 -0.37400883 0.33137769 0.55698913 0.045962866
0.43269277 0.34036824 0.4213248 0.16413115 0.036191244 0.2793331 -0.18329895 -0.2054901
-0.23575863 -0.0021135807 -0.02385532 -0.34155187 -0.017129002 0.035083458 -0.099227026 -0.4826307
0.036850855 0.065042846 0.0273888 0.12448263 -0.09324647 -0.07790967 -0.27199838 -0.12395124
-0.02174224 -0.37915716 -0.07518119 0.10802082 0.14687474 -0.20393689 -0.004118579 0.1343363
0.20325172 0.18035263 0.12878832 0.026603043 0.24252987 -0.11867672 -0.06276482 0.21617159
0.12566105 -0.24205402 -0.22061321 -0.18019018 -0.19716254 -0.21016029 0.06122166 -0.058223575
-0.009534568 -0.12709266 -0.03455946 0.10870212 0.20403728 -0.03766483 0.008918613 0.2083596
-0.18849894 0.16964927 0.2124911 0.19496557 0.095909804 0.11074379 0.15916634 -0.13890576
-0.10415542 -0.18611915 0.13269079 0.12049542 0.1903577 0.108020104 -0.05510457 0.21739943
-0.117471166 -0.21674377 0.22089641 0.15285654 0.06216957 0.16834965 -0.34983578 -0.20663877
-0.7536125 0.19579925 0.28954297 0.04026159 -0.13263385 0.10717353 -0.3435455 -0.17182863
-0.35915145 0.20370677 -0.06151255 -0.34621242 -0.015781173 0.01448245 0.566226 -0.5754271
-0.16913071 -0.11870569 -0.027601302 -0.004259944 0.13930541 0.23410437 -0.09909174 0.12773302
-0.1607759 -0.027959734 -0.23986283 -0.1795556 -0.1966309 0.1632793 0.096760094 0.16943502
0.1446345 -0.07702212 -0.31317326 -0.020051714 0.023572272 0.061941504 0.14750898 -0.020970542
-0.13479073 -0.24738191 0.10936987 -0.1978833 -0.25602674 0.11033571 -0.44193456 -0.10257576
-0.09211189 -0.038710937 0.07545847 0.39654252 0.3279198 0.70307386 0.0011411546 -0.21928775
-0.094492726 0.046775993 -0.13649526 -0.30056387 -0.08249547 0.035583492 0.27681825 0.016870247
0.62635183 0.29897973 -0.21207426 0.47794572 -0.20276333 0.08096979 0.23214799 0.1853808
0.15126328 0.15634991 0.16252874 0.07324632 0.30399233 -0.16788954 -0.18931083 -0.052696113
-1.1446558 0.16314512 0.1660292 -0.38531643 0.012808843 0.19862212 -0.8198837 -0.5222849
-0.57414526 0.07802596 -0.00432002 0.024993327 -0.43237683 -0.017822256 0.62256944 -0.7141181
00000000: 7af6 79be 0070 923b b85b cf3d c864 7b3d
00000010: 6079 8b3c f063 583e 4077 b5bd 5a99 023e
00000020: c8ed fe3d 80bb 4a3e b0e0 e13d 96f5 003e
00000030: 343c 963d e6d1 0e3e a0e6 ad3d e209 763e
00000040: af9a 803e 048a 46be 8592 12be b76e 723e
00000050: ae01 d6bd 74bd 553d 3bcf f33c 3589 c0be
00000060: 851f db3d acc4 83be 065c a3bd 934d acbd
00000070: 397d efbd a87c 393e c093 d1be 0614 dcbe
00000080: d468 693e 5058 c13d 9ef0 4abe d26b 2dbe
00000090: bef6 5abe 709f cbbc 6e8b 11be 809b 8b3d
000000a0: 5875 0e3e 287f 313d 5cc1 24be 46ad 21be
000000b0: dcc4 b8bd 68af b93d c067 d3bc 009a df3d
000000c0: bebc 353f 3ad7 3bbd 2750 17be 48db 5f3d
000000d0: b094 543d 36f4 58be 8730 893e 1750 da3e
000000e0: c129 97bd 88ba 14be 78f0 20be f796 e7bd
000000f0: 8e8a b43d 7002 d4bc 19fb 9ebf ef98 483f
00000100: ce4a 76bf af5a 04bf a453 e8bc 3086 8bbe
00000110: cfe4 d5bd 4c5c d83e 2e0d 63be ecc5 05bf
00000120: 781c 69be 1508 6a3d ab0b 323e 335f 90bd
00000130: 167e bfbe 56aa a93e d796 0e3f 8f43 3c3d
00000140: e889 dd3e bf44 ae3e e2b7 d73e ff11 283e
00000150: 453d 143d c004 8f3e b8b2 3bbe ff6b 52be
00000160: b66a 71be 0084 0abb 3b6c c3bc e3df aebe
00000170: 1f52 8cbc acb3 0f3d 8a37 cbbd 5f1b f7be
00000180: ecf0 163d 2f35 853d 7a5e e03c c0f0 fe3d
00000190: 01f8 bebd 1b8f 9fbd 5f43 8bbe 26da fdbd
000001a0: c81c b2bc e320 c2be 99f8 99bd 053a dd3d
000001b0: 5566 163e d5d4 50be 25f5 86bb 748f 093e
000001c0: 3821 503e 5cae 383e 16e1 033e a0ee d93c
000001d0: c059 783e c80c f3bd d88a 80bd 165c 5d3e
000001e0: 4aad 003e 02dd 77be 6ee8 61be c683 38be
000001f0: fae4 49be 4234 57be 90c3 7a3d d87b 6ebd
00000200: e036 1cbc 9424 02be 388e 0dbd 389f de3d
00000210: 26ef 503e 7046 1abd 601f 123c 385c 553e
00000220: de05 41be 8ab8 2d3e 4497 593e 0ea5 473e
00000230: 5c6c c43d a4cd e23d 80fc 223e 503d 0ebe
00000240: 704f d5bd 0596 3ebe 18e0 073e 4ec6 f63d
00000250: 21ed 423e a539 dd3d 54b5 61bd f59d 5e3e
00000260: b994 f0bd 14f2 5dbe ab32 623e 6d86 1c3e
00000270: 85a5 7e3d da63 2c3e ad1d b3be 1d99 53be
00000280: c0ec 40bf 997f 483e fa3e 943e 56e9 243d
00000290: 2bd1 07be cc7d db3d 32e5 afbe d8f3 2fbe
000002a0: b3e2 b7be 8298 503e 95f4 7bbd c142 b1be
000002b0: 8547 81bc cc47 6d3c 30f4 103f 314f 13bf
000002c0: 9a30 2dbe f81b f3bd 201c e2bc 0097 8bbb
000002d0: 14a6 0e3e 0eb9 6f3e 9cf0 cabd 72cc 023e
000002e0: 70a2 24be d00b e5bc 9a9e 75be 6cdd 37be
000002f0: 9c59 49be b032 273e 282a c63d 6080 2d3e
00000300: 111b 143e c6bd 9dbd 3f58 a0be 7e43 a4bc
00000310: a31a c13c 60b6 7d3d 980c 173e 6aca abbc
00000320: 9506 0abe af51 7dbe 4ffd df3d eba1 4abe
00000330: f015 83be b0f7 e13d 3f45 e2be 3d13 d2bd
00000340: 29a5 bcbd 5c8f 1ebd f889 9a3d 9f07 cb3e
00000350: 1be5 a73e a6fc 333f cb92 953a f88c 60be
00000360: 6785 c1bd 2f98 3f3d 6ac5 0bbe 82e3 99be
00000370: 63f3 a8bd ffbf 113d 1fbb 8d3e 7933 8a3c
00000380: 9858 203f df13 993e ff29 59be 4db5 f43e
00000390: 31a1 4fbe 7dd3 a53d 34b8 6d3e 77d4 3d3e
000003a0: c3e4 1a3e 311a 203e ef6d 263e 2b02 963d
000003b0: e2a4 9b3e 3ceb 2bbe b3da 41be e1d7 57bd
000003c0: 1584 92bf 840f 273e 8f03 2a3e 3248 c5be
000003d0: 2edc 513c 9963 4b3e e6e3 51bf 77b4 05bf
000003e0: 2ffb 12bf 13cc 9f3d f48e 8dbb cebe cc3c
000003f0: 7f60 ddbe fbff 91bc b660 1f3f 72d0 36bf

critic.0.bias f4 [64]
0.2239314 -0.097231016 -0.03287503 0.39181423 -0.27354032 0.13032545 -0.25674886 0.21787295
-0.23472819 0.2236904 -0.5569593 0.21649605 -0.116101086 -0.3017746 0.4432959 -0.79866654
-0.030215926 0.7206662 -0.2639955 -0.18022613 0.13865067 -0.07170203 0.23503451 -0.2578157
-0.41842026 0.105532266 -0.42697158 0.27208245 0.050036937 -0.06061202 0.15334173 -0.005075383
0.4173356 0.37160617 -0.061007176 -0.54618347 0.055026658 0.12247816 -0.16298872 0.1958454
0.55900687 0.14690219 -0.32459277 0.18285196 -0.4514307 -0.35025248 0.33453006 0.8329633
0.25794712 -0.10800361 0.23490517 0.034447733 0.17797518 -0.016972313 0.12238542 0.07430871
-0.12268698 0.3411963 -0.038173914 0.24378893 -0.45375437 0.19689018 -0.83988667 0.42497805
00000000: 464e 653e 0e21 c7bd f8a7 06bd e09b c83e
00000010: 7a0d 8cbe 0974 053e 9674 83be 161a 5f3e
00000020: 965c 70be 190f 653e e294 0ebf 24b1 5d3e
00000030: 68c6 edbd 3382 9abe aef7 e23e 6975 4cbf
00000040: 6487 f7bc 957d 383f 6b2a 87be 338d 38be
00000050: 71fa 0d3e 84d8 92bd e3ac 703e 6b00 84be
00000060: 2e3b d6be 4d21 d83d 059c dabe 644e 8b3e
00000070: 88f3 4c3d 4f44 78bd 9d05 1d3e 664f a6bb
00000080: 03ad d53e 2a43 be3e a9e2 79bd aed2 0bbf
00000090: a263 613d d4d5 fa3d 84e6 26be b28b 483e
000000a0: 131b 0f3f 876d 163e 0631 a6be 8b3d 3b3e
000000b0: ed21 e7be 4b54 b3be 8647 ab3e 153d 553f
000000c0: a511 843e ff30 ddbd fb8a 703e 1119 0d3d
000000d0: 203f 363e 8509 8bbc 35a5 fa3d 2a2f 983d
000000e0: 5043 fbbd 48b1 ae3e 405c 1cbd cea3 793e
000000f0: 7e52 e8be 949d 493e d002 57bf b996 d93e

critic.2.weight f4 [64, 64]
0.09838644 0.083447665 0.063889444 0.0772361 0.8488052 -0.05009464 -0.14721432 -0.047257915
0.11370072 -0.089960374 0.15892546 0.086353034 0.092160344 0.37978625 -1.0292578 -0.5472714
-0.0483436 1.5392381 -0.11576781 0.086186424 0.07446609 0.0038489036 0.0016549386 0.038503166
-1.6126394 0.043270614 0.5821297 -0.3613837 0.037554923 0.0766228 0.21719316 -0.12901375
0.9947331 -0.08271318 -0.53882104 0.42034566 -0.1265199 0.2534541 0.058067128 0.13832474
-0.12427564 -0.13304354 -0.86712384 -0.8656934 -0.7397131 -0.6241293 1.3110601 0.7882499
-0.09661697 0.39030325 -0.339398 0.105315536 0.03883126 -0.26357532 0.05083427 1.2129729
-0.6749086 0.68468094 0.06838647 0.08247209 0.40273872 0.0448799 0.060003124 0.5754172
-0.12798831 0.04451539 0.06644192 0.107820585 0.3694817 0.37342942 -0.0739811 0.12213539
0.030505622 0.2401935 0.35380453 0.0064236363 0.043208234 -0.24375506 -0.3785234 -0.20715491
-0.08637661 1.0660552 0.18750976 0.10965646 0.89734024 0.11063183 0.15369214 0.26670486
-0.64411867 -0.08701935 -0.357792 0.22145402 0.03410976 -0.04344368 0.13219453 -0.12459081
0.76123965 2.0903273 -0.036829926 1.0744039 0.01960464 0.047526367 0.08809297 0.46917394
0.3986253 -0.009387241 -0.5440474 0.51457787 -1.4171599 -0.2523726 -0.68689525 -1.0047294
-0.11903035 -0.19386885 1.6553739 0.5450687 -0.01154302 -1.2235914 -0.015218229 -0.48267952
-0.19024123 0.8577734 0.047257613 -0.06418997 0.2709517 0.054653816 -0.57148874 0.1383575
-0.0031957212 -0.19172049 0.018783174 -0.16474196 0.88220716 -0.31780344 -0.19254766 -0.083303764
0.137472 0.13591306 0.51666677 -0.06765005 -0.1670305 -0.08670801 -0.5631049 1.7792836
-0.62177026 -1.8317252 -0.05218552 0.08156265 0.027381686 -0.16703224 -0.025846817 -0.07824058
-0.2851847 -0.18998851 -0.326992 0.35703745 0.18754318 0.07221538 -0.48097554 0.091156356
-0.5847415 0.10487001 -0.018391458 0.43449014 0.30937406 -0.18355021 -0.10468291 -0.011655691
-1.7187209 -0.007915964 0.8203669 -0.27356154 0.8665865 0.04196013 0.99333954 0.51034737
0.20226659 0.091949165 0.4726474 0.039709166 -0.14708507 0.5529068 -0.13560186 -0.5137569
1.101182 0.13772035 -0.12557709 -0.20079844 0.5706743 0.072809435 0.78071755 -0.6002802
-0.08041836 0.070732236 0.03456607 0.9760939 -0.37604156 -0.50093806 -0.28083798 -0.05509669
-0.057527915 0.20918213 -0.12810318 0.020515116 -0.14155985 0.021414304 -0.9882813 0.47361252
0.10260146 0.24731155 -0.11301338 0.20193425 0.032691356 0.04751893 -0.096194535 0.004789011
0.72229654 -0.13637947 0.36326414 -0.30548292 0.023585515 0.020360224 0.23620743 -0.11179634
0.048163384 -0.8799605 -0.35653666 -1.3083689 -0.29420185 -0.01570235 0.15403147 -0.08693283
0.29655156 -0.045766596 -0.6043718 0.64843893 0.78024817 -1.1540638 0.38700637 0.3402211
0.05937538 0.09068512 0.62566894 -0.36237583 -0.029597018 -1.6122383 0.08238811 1.6529474
0.2169088 0.26372686 0.09655503 0.00261752 0.26083186 0.03390121 -0.50568503 -0.2413394
00000000: d47e c93d 9ce6 aa3d 78d8 823d f62d 9e3d
00000010: 4c4b 593f 0a30 4dbd 5abf 16be 8491 41bd
00000020: ecdb e83d 253d b8bd 5bbd 223e dcd9 b03d
00000030: 90be bc3d 5873 c23e b8be 83bf fa19 0cbf
00000040: f003 46bd c105 c53f ac17 edbd 8282 b03d
00000050: ad81 983d e33d 7c3b 86ea d83a 7fb5 1d3d
00000060: f86a cebf 873c 313d 7406 153f 4907 b9be
00000070: 31d3 193d 6aec 9c3d e267 5e3e 2e1c 04be
00000080: d4a6 7e3f 8765 a9bd 2df0 09bf 8c37 d73e
00000090: 6f8e 01be bcc4 813e ccd7 6d3d 00a5 0d3e
000000a0: 3a84 febd 913c 08be d4fb 5dbf 159e 5dbf
000000b0: d65d 3dbf f0c6 1fbf d1d0 a73f bfca 493f
000000c0: 1edf c5bd d4d5 c73e 93c5 adbe acaf d73d
000000d0: 870d 1f3d 58f3 86be 9837 503d b242 9b3f
000000e0: cfc6 2cbf 4047 2f3f 350e 8c3d 21e7 a83d
000000f0: c533 ce3e fcd3 373d d6c5 753d 8b4e 133f
00000100: 5e0f 03be c555 363d b412 883d 0ad1 dc3d
00000110: b52c bd3e 2432 bf3e 6783 97bd 1f22 fa3d
00000120: ede6 f93c 49f5 753e de25 b53e 5e7d d23b
00000130: 1efb 303d ed9a 79be d2cd c1be 6b20 54be
00000140: 38e6 b0bd 7f74 883f 8f02 403e 9193 e03d
00000150: 17b8 653f f192 e23d 7961 1d3e 8a8d 883e
00000160: f6e4 24bf 3337 b2bd 8330 b7be d8c4 623e
00000170: adb6 0b3d 00f2 31bd 015e 073e 7729 ffbd
00000180: 9ae0 423f ecc7 0540 fada 16bd 1186 893f
00000190: e999 a03c 02ab 423d 166a b43d 9137 f03e
000001a0: 9e18 cc3e f1cc 19bc b146 0bbf 60bb 033f
000001b0: 7f65 b5bf fb36 81be 5ed8 2fbf f99a 80bf
000001c0: 2fc6 f3bd 8e85 46be 4be3 d33f 9f89 0b3f
000001d0: ef1e 3dbc a59e 9cbf e155 79bc c521 f7be
000001e0: 99ce 42be 0a97 5b3f 3391 413d 0876 83bd
000001f0: 2eba 8a3e aedc 5f3d 164d 12bf 97ad 0d3e
00000200: 4e6f 51bb 6052 44be 2cdf 993c 1eb2 28be
00000210: 54d8 613f 22b7 a2be 372b 45be 2a9b aabd
00000220: 76c5 0c3e cb2c 0b3e 4644 043f 1c8c 8abd
00000230: 0b0a 2bbe f893 b1bd a527 10bf 91bf e33f
00000240: 562c 1fbf f975 eabf 7cc0 55bd 520a a73d
00000250: 8f4f e03c 800a 2bbe b4bc d3bc 993c a0bd
00000260: bb03 92be 598c 42be 7f6b a7be 9dcd b63e
00000270: 520b 403e a8e5 933d 6d42 f6be 2fb0 ba3d
00000280: 9eb1 15bf 16c6 d63d afa9 96bc 7e75 de3e
00000290: 4766 9e3e 96f4 3bbe fe63 d6bd 83f7 3ebc
000002a0: 0cff dbbf f6b1 01bc 9103 523f 4210 8cbe
000002b0: 9dd8 5d3f 63de 2b3d 804b 7e3f 20a6 023f
000002c0: f91e 4f3e d84f bc3d d7fe f13e 14a6 223d
000002d0: 789d 16be 4d8b 0d3f 37db 0abe 9285 03bf
000002e0: 88f3 8c3f 9006 0d3e 4897 00be 1b9e 4dbe
000002f0: b617 123f 1d1d 953d 1bdd 473f f7ab 19bf
00000300: 62b2 a4bd 10dc 903d 2795 0d3d 4ae1 793f
00000310: 8588 c0be 7a3d 00bf ffc9 8fbe 11ad 61bd
00000320: 64a2 6bbd d733 563e 7b2d 03be 510f a83c
00000330: 11f5 10be 0d6d af3c 0100 7dbf 577d f23e
00000340: b720 d23d 3d3f 7d3e 8f73 e7bd dac7 4e3e
00000350: 5fe7 053d 36a3 423d a401 c5bd 23ed 9c3b
00000360: 6de8 383f 0fa7 0bbe c2fd b93e 4268 9cbe
00000370: 6936 c13c 7cca a63c 5ce0 713e 7bf5 e4bd
00000380: f846 453d 1745 61bf f98b b6be a278 a7bf
00000390: a0a1 96be 37a2 80bc 6dba 1d3e d709 b2bd
000003a0: 9bd5 973e c175 3bbd 1cb8 1abf 1800 263f
000003b0: 58be 473f 5db8 93bf b325 c63e 7631 ae3e
000003c0: 9933 733d 1fb9 b93d d72b 203f 5389 b9be
000003d0: 7275 f2bc d35d cebf 19bb a83d c893 d33f
000003e0: 571d 5e3e 3507 873e a5be c53d b38a 2b3b
000003f0: c18b 853e ffdb 0a3d 9374 01bf ad21 77be

critic.2.bias f4 [64]
0.08602003 0.048776116 0.093808 0.056358006 -0.029026128 0.20144874 -0.14177553 -0.0018104375
0.15018417 0.0028407562 0.15082559 -0.16846777 0.33937588 0.05128907 0.08764514 -0.12155676
-0.045000475 0.34249184 -0.19090128 -0.038677543 0.2697687 0.028994428 0.031128002 -0.32546362
-0.024038391 -0.12358636 0.03395193 -0.113695934 -0.1129319 0.17933843 0.10767199 0.1505185
0.23680356 -0.09767929 0.047760405 -0.17567618 0.040716417 -0.07103758 -0.10680072 0.003580268
0.01626684 0.009509685 -0.111708336 0.10442758 -0.18771936 -0.03182004 0.09131175 0.070471175
-0.15068164 -0.08504605 -0.014487266 -0.022006184 0.12723067 0.058326375 -0.04491747 -0.09051387
0.16993785 -0.13678113 0.03354777 -0.22180568 -0.039176628 0.16007881 -0.096154094 0.07351662
00000000: 452b b03d 77c9 473d 691e c03d a7d7 663d
00000010: 34c8 edbc 9448 4e3e 9b2d 11be 344c edba
00000020: e1c9 193e fb2b 3a3b 0672 1a3e d182 2cbe
00000030: adc2 ad3e 7d14 523d 4c7f b33d c0f2 f8bd
00000040: 6b52 38bd 175b af3e a07b 43be 586c 1ebd
00000050: 1f1f 8a3e b985 ed3c 2700 ff3c 2ba3 a6be
00000060: 29ec c4bc d81a fdbd 2e11 0b3d 6ad9 e8bd
00000070: d748 e7bd 7ea4 373e 2283 dc3d 8621 1a3e
00000080: a27c 723e 140c c8bd 6aa0 433d 75e4 33be
00000090: 42c6 263d 277c 91bd 56ba dabd eea2 6a3b
000000a0: 0942 853c 83ce 1b3c 57c7 e4bd 21de d53d
000000b0: 8139 40be bb55 02bd a801 bb3d 3153 903d
000000c0: 4a4c 1abe a02c aebd ff5b 6dbc 5046 b4bc
000000d0: c248 023e a3e7 6e3d 62fb 37bd 565f b9bd
000000e0: 3004 2e3e 5a10 0cbe 6369 093d 0721 63be
000000f0: ac77 20bd b3eb 233e 70ec c4bd e28f 963d

critic.4.weight f4 [1, 64]
-0.10735608 -0.09694669 0.07816118 0.04916064 0.11471476 -0.01549386 0.03358594 0.14839536
-0.034055118 -0.0014262937 -0.04853618 0.081413366 0.10533668 -0.16722803 0.04758315 -0.09204084
-0.054388087 0.046106976 -0.17287065 0.11027634 0.013199432 -0.28648067 -0.07517216 -0.04038828
0.18693334 0.040853437 0.121438526 0.16764277 -0.19330259 -0.06780581 0.053498924 -0.18770787
0.047204714 -0.219423 0.019997926 -0.050421793 -0.06826492 0.11296 -0.07892538 0.05235835
-0.16382143 -0.04490397 -0.13981734 0.114611045 0.09852394 -0.24446279 -0.06868604 -0.050367244
0.23258951 -0.20742391 -0.0332851 -0.07413953 0.15331818 -0.1542856 0.08763441 -0.015923828
-0.084215105 0.004262266 0.062262382 0.11169633 0.03852745 0.066400714 -0.09567175 -0.05626529
00000000: 81dd dbbd fc8b c6bd f812 a03d ab5c 493d
00000010: 92ef ea3d f5d9 7dbc 6991 093d f4f4 173e
00000020: 617d 0bbd 7af2 baba e0cd 46bd 0dbc a63d
00000030: c2ba d73d d33d 2bbe 8de6 423d e87f bcbd
00000040: 0bc6 5ebd abda 3c3d 0105 31be 90d8 e13d
00000050: 6e42 583c 98ad 92be ddf3 99bd 2e6e 25bd
00000060: 746b 3f3e ef55 273d c3b4 f83d 8caa 2b3e
00000070: 1df1 45be c6dd 8abd b021 5b3d 7e36 40be
00000080: bb59 413d 6cb0 60be b1d2 a33c 1587 4ebd
00000090: 7ace 8bbd 9357 e73d a1a3 a1bd b675 563d
000000a0: cec0 27be 3aed 37bd 472c 0fbe 32b9 ea3d
000000b0: ebc6 c93d 7454 7abe 44ab 8cbd e24d 4ebd
000000c0: f22b 6e3e ef66 54be f555 08bd 77d6 97bd
000000d0: 71ff 1c3e 0bfd 1dbe ab79 b33d b072 82bc
000000e0: f878 acbd 7baa 8b3b d706 7f3d 0cc1 e43d
000000f0: f6ce 1d3d 19fd 873d 8def c3bd 6f76 66bd
