Model Results/ppoMSFT2020-06-011999.pth (torch, 48325 bytes, 11 tensors)

actor.0.weight f4 [64, 16]
000000 7a 11 d4 be 4c 66 28 bf 0f d8 45 bf f0 1f 43 3f
       -0.41419584 -0.6578109 -0.77282804 0.7622061
000010 41 02 05 3f e2 e5 ed 3e 4c e6 02 3e 7d 8d 6f 3e
       0.51956564 0.4646445 0.12783164 0.23393817
000020 5b fe 8e 3e 3a 41 37 be 42 a8 c3 3c 8b be 70 3e
       0.27928433 -0.17895976 0.023883943 0.23510186
000030 79 da f8 3d e9 f9 99 be 02 a0 16 3f 52 fc 5f be
       0.12151045 -0.3007348 0.588379 -0.21873596
000040 d8 0d a9 3f 70 7d 9c 3f 81 dc bd 3f 35 cf d7 be
       1.320735 1.222578 1.4832917 -0.42150274
000050 4e a3 8c 3e 4b 78 20 3e f7 68 cf be c1 2e bd be
       0.27468342 0.15670888 -0.4050977 -0.36949733
000060 aa a6 39 be 45 d3 d0 bb 1f 1f 21 be f3 72 83 bc
       -0.18129984 -0.0063728415 -0.15734528 -0.016046023
000070 ee 67 87 be 6e a2 80 be cd 19 43 bf 25 a2 fd 3c
       -0.2644648 -0.25123924 -0.76211244 0.030961106
000080 15 9e 63 3f 9a 4f 39 3f b5 43 1d 3f ab 97 9c bc
       0.8891309 0.7238709 0.6143144 -0.01911529
000090 93 8a c8 3e 19 4b f7 3e 4b 40 d4 3a 45 5d c4 be
       0.39168224 0.48299482 0.0016193477 -0.3835241
0000a0 2f 6c 40 be 65 e9 14 be 9b 2e 2f 3e 9d 18 85 be
       -0.18791269 -0.14542158 0.17107622 -0.2599534
0000b0 d4 65 68 3e 0a f2 bb 3e ff 59 97 be 8d ec 83 3e
       0.22695094 0.367081 -0.2956085 0.2576641
0000c0 b6 0d 0c 3e 30 9c 0f be 98 2c a6 bd 38 6c bc 3d
       0.13677105 -0.14024425 -0.08113974 0.092003286
0000d0 36 42 1b 3e 52 27 54 3e 98 de 3b 3e 32 38 67 3e
       0.15161976 0.20718125 0.18346632 0.2258003
0000e0 74 6e 02 be 70 bf 9b bd f0 6b 1e bd be f9 37 be
       -0.12737447 -0.07604873 -0.038677156 -0.17966363
0000f0 9e 29 17 3e 8a 2a 73 be 40 71 c6 3c 20 38 0d be
       0.1476197 -0.23746696 0.024223924 -0.13790941
000100 d1 d4 59 3f 5a 34 67 3f 6a bd 78 3f d3 27 de be
       0.8509036 0.9031426 0.9716402 -0.43389758
000110 64 d3 8a be 28 d9 99 bd a9 10 3b be 8e 7b 60 be
       -0.27114403 -0.075121224 -0.18268074 -0.21922132
000120 6d f1 80 bd 90 3d b4 be f4 38 4a be 77 af 9b 3d
       -0.06296048 -0.35203218 -0.19748288 0.07601827
000130 9d a4 6d 3c 54 09 17 3c a9 0c 4e bf 55 01 73 bd
       0.014504579 0.009218533 -0.8048807 -0.059327442
000140 ea 7c 68 3f 69 99 c4 3f 99 c0 ba 3f 62 24 fe be
       0.90815604 1.5359317 1.4590026 -0.49637133
000150 ce de 3e bf cd 6b b0 be 47 72 26 be 0c fd 62 3c
       -0.7455872 -0.34457245 -0.16254531 0.013854276
000160 1e 59 4a be 89 1d e0 bb be f8 9a bd 80 30 19 bd
       -0.19760558 -0.0068394584 -0.07566975 -0.03739977
000170 6f d0 22 3e a9 b9 43 3d fc c8 25 3f 61 30 e2 be
       0.15899824 0.04778448 0.647598 -0.44177535
000180 37 4b 81 be a3 15 01 3e 0b 6e 13 3c b0 aa 89 bf
       -0.25252697 0.1260591 0.008998404 -1.0755215
000190 09 53 9a bf ed 3d 8c bf f9 7d bb 3c 5e ff 3d bb
       -1.205659 -1.0956398 0.022887217 -0.0028991322
0001a0 dc 63 48 be 85 d5 5f bd 74 d8 84 be e3 ce 9c bd
       -0.19569343 -0.054646987 -0.2594639 -0.07656648
0001b0 26 0e bd 3c 0b 70 b4 3c bd 22 de 3e 5a 7c d9 be
       0.023078036 0.022026083 0.43385878 -0.42477685
0001c0 80 86 df 3d 2e d2 60 3e b2 2e 36 be ae 41 1d be
       0.10914326 0.21955177 -0.1779125 -0.15357086
0001d0 f6 b2 21 3e 10 ad 3a 3d 38 f5 67 be 04 ca 2b 3e
       0.15790924 0.0455752 -0.22652137 0.16776282
0001e0 d0 22 02 bd ec 77 1c 3e b4 a4 15 3e a6 1c 19 3e
       -0.03177148 0.15280122 0.1461361 0.14952335
0001f0 10 86 9a 3c 26 e3 09 3e 10 22 92 3d d0 a9 b4 bd
       0.018862754 0.13465557 0.07135403 -0.08821452
000200 bd 43 3d 3f a4 c7 96 3e cb 1b 98 3e 93 5e 71 3e
       0.73931485 0.2944919 0.29708704 0.23571233
000210 4b 33 65 3f a4 33 3a 3f e8 80 1a 3e f8 1d 1f be
       0.8953139 0.7273505 0.15088236 -0.15538776
000220 43 47 e6 3d 3d c0 85 be 7c 00 9e 3d 88 bc a9 3d
       0.11244061 -0.2612323 0.07714936 0.082879126
000230 79 21 86 3e 60 6b 06 3e 3a c5 a6 be 74 0a 8c bd
       0.26197413 0.13126898 -0.32572347 -0.06837931
000240 1d ab 92 bf 24 fb 53 bf c6 16 98 bf ba c0 8a 3f
       -1.145847 -0.82805085 -1.188195 1.0840065
000250 bc 11 63 3f fe 3d 51 3f be b5 32 bd e3 84 c3 bd
       0.88698936 0.8173522 -0.043630354 -0.095468305
000260 2d 17 08 be a6 e5 05 be 32 30 00 3d 75 b8 c1 bd
       -0.13290091 -0.13075885 0.031295963 -0.094590105
000270 14 77 86 3e 02 de 02 3e bb 74 35 3f 45 1e 6c be
       0.26262724 0.12780002 0.7088124 -0.23058422
000280 4c 9b 10 3e 0c c1 93 bd b0 ae bd bd 38 12 41 3e
       0.14121741 -0.07214555 -0.092618346 0.18854606
000290 d0 cd 07 3d 58 e1 94 3d 60 04 cf 3d cc 4c ed 3d
       0.033155262 0.072695434 0.10108256 0.115869135
0002a0 86 29 24 3e 62 29 00 3e 74 f3 96 bd 02 5f 5b 3e
       0.16031465 0.12515786 -0.07370654 0.21422961
0002b0 90 d4 92 3d 40 98 c0 bb 94 73 3a be 12 91 06 be
       0.07169449 -0.0058775246 -0.18208152 -0.13141277
0002c0 14 2b a7 3b ef 67 33 be 8a d4 5e be 67 a0 1b be
       0.005101571 -0.17520116 -0.21760765 -0.15197907
0002d0 8f 1c 95 be cc 82 8e be 86 62 57 3e ef fb c6 bd
       -0.2912335 -0.27834165 0.21033677 -0.09716021
0002e0 bd 08 c3 3d 61 9a 83 3e 9e 50 57 3e 1b ce d0 bd
       0.09523151 0.2570372 0.21026847 -0.101955615
0002f0 db 91 03 be a3 aa e8 3d c1 e2 f0 bd aa b8 40 3e
       -0.12848608 0.11360671 -0.11762 0.18820444
000300 bb 3f a5 be 89 e0 ef be f7 78 3b bf 75 f7 08 3e
       -0.32275185 -0.46850994 -0.7323145 0.13375647
000310 78 96 a1 3d e5 83 b0 be 45 e2 f1 bd 62 22 68 3b
       0.07890028 -0.34475628 -0.118107356 0.0035420884
000320 47 11 63 be 10 c6 90 be 32 f5 90 be 4c f1 59 be
       -0.2217456 -0.2827611 -0.2831207 -0.21283454
000330 24 ed 3c 3e 85 2d cb 3d a3 db 42 be f4 32 91 bd
       0.18449837 0.099207915 -0.19029097 -0.07089797
000340 3e a0 10 bf a7 52 9b be 03 9d 05 bf c8 29 68 bf
       -0.5649451 -0.30336496 -0.52192706 -0.90688753
000350 01 43 94 bf a5 fd 6d bf 36 b4 62 3d 4f bc 89 3e
       -1.1582948 -0.92965156 0.055347644 0.2690148
000360 85 7b a2 3d d7 a2 09 be cf bc 91 3e f5 a9 a6 3c
       0.07933716 -0.13441025 0.28464362 0.020344714
000370 07 d8 49 be aa 18 85 be b2 13 42 3f 5f d8 85 be
       -0.19711314 -0.2599538 0.758113 -0.2614164
000380 d8 d8 19 3e a0 60 80 bc 1a 6f 0d be 10 ac dd 3d
       0.15024126 -0.015671074 -0.13811913 0.10823834
000390 34 3d 32 be 7c ab e2 3d b8 84 af 3d 62 05 3e be
       -0.1740616 0.11067864 0.08570236 -0.18556741
0003a0 dc 70 44 be 00 56 2c 3b 84 34 5a be ca 9f 49 be
       -0.19183677 0.0026296377 -0.21309096 -0.19689861
0003b0 7c ac 35 be 30 c0 8b bd 22 ab 2e be 68 c0 3f be
       -0.17741579 -0.06823766 -0.1705747 -0.18725741
0003c0 d4 ff 31 3e 6b fc 05 be 97 46 16 3e 40 27 33 be
       0.17382747 -0.13084571 0.14675365 -0.17495441
0003d0 74 45 3b ba ef f5 38 bd 23 f7 d3 bd fd 94 10 be
       -0.0007143833 -0.045156416 -0.10349872 -0.14119335
0003e0 a1 a1 e6 bd 04 90 05 3e 46 0a d2 bd a3 12 60 be
       -0.11261297 0.13043219 -0.10255866 -0.2188211
0003f0 ec 15 e1 bd 81 f2 c2 3c ca 1e 08 3d 56 88 cd bd
       -0.109905094 0.023797275 0.033232488 -0.1003577

actor.0.bias f4 [64]
000000 52 16 40 3e 13 fa 85 be cb 62 90 bd 50 97 2f be
       0.18758515 -0.26167354 -0.07050093 -0.17147565
000010 97 08 bf 3d e3 38 49 3e 62 eb 5e 3d 50 c7 73 3e
       0.0932781 0.19650607 0.054423697 0.238065
000020 e7 a9 95 be 14 10 1b 3b 5a cd 04 3e b6 59 a1 bd
       -0.29231188 0.0023660706 0.1296896 -0.07878439
000030 54 b6 05 be 90 56 76 3e f4 50 3d be c0 0d 32 3d
       -0.13057834 0.24056458 -0.18487912 0.043470144
000040 32 db 70 3e 7c 4c f3 bd f1 e0 0b 3e 5d a7 a7 3a
       0.23521116 -0.118798226 0.13660027 0.0012790967
000050 f3 ff 15 3e bb d6 fd bd fa a2 49 3e 30 86 ad 3d
       0.14648418 -0.12394472 0.19691077 0.0847286
000060 41 cd 40 3e a0 cd 51 3d 02 a2 38 be fc 74 ce 3d
       0.18828298 0.05122149 -0.18030551 0.10080907
000070 20 37 a6 3c a8 56 e8 3d 8a fb 86 be c9 06 35 be
       0.020289958 0.11344653 -0.26363784 -0.1767837
000080 cd 02 60 be 1d 08 c4 3c 69 4a 88 be 92 a9 98 be
       -0.21876068 0.02392965 -0.2661927 -0.29816872
000090 f5 a5 92 3e 39 c7 42 bd 10 4c b0 3c 1b 27 11 be
       0.2864224 -0.047553275 0.021520644 -0.14175074
0000a0 52 1a 9d bd 08 86 73 be c0 88 8c be 86 81 4a be
       -0.07671036 -0.23781598 -0.27448082 -0.19775972
0000b0 b7 66 b2 be e1 d4 90 3e 3b 36 51 bb 06 ee 17 3e
       -0.3484399 0.28287414 -0.0031923193 0.14836892
0000c0 75 3f 0f bc 14 b9 35 3e 90 84 e4 bd 3c 01 f0 3d
       -0.008743157 0.17746383 -0.11158097 0.117189854
0000d0 8e e1 d2 3d 54 80 f0 3d e6 5a d9 bd 00 65 94 bc
       0.102969274 0.11743227 -0.106130406 -0.018114567
0000e0 10 c9 13 3e c2 b2 70 3e 70 89 9e 3c 55 7d 07 be
       0.14432168 0.2350569 0.019352645 -0.13231404
0000f0 08 c7 2a 3e 43 30 7a 3e fc cf 8c bd 98 78 6e 3e
       0.16677487 0.24432473 -0.06875607 0.2328819

actor.2.weight f4 [64, 64]
000000 a6 1a 53 bc 6b 7f 3b bf e9 23 1a 3e 93 8a 10 3d
       -0.012884771 -0.732413 0.15052761 0.035288405
000010 96 46 2c 3e fd 1a b2 be ec dd 29 3d ad d9 2f 3d
       0.16823801 -0.34786215 0.041471407 0.0429322
000020 6c 69 d3 3e e2 4a b9 3e 83 bc 30 3e f7 b6 00 bc
       0.41291368 0.36189944 0.17259412 -0.007856122
000030 96 87 b5 3e 26 c1 b7 be 8e 83 1e be 6a da d0 bd
       0.35455006 -0.35889548 -0.15479872 -0.10197909
000040 e9 b2 1c 3e 46 66 c4 be 29 11 33 bc e5 73 ff bd
       0.15302624 -0.38359278 -0.010929384 -0.12473277
000050 a5 af d0 3e 29 ec 91 be 59 1e a6 bd 4b d5 e7 be
       0.40759006 -0.28500488 -0.08111257 -0.45279917
000060 24 fd 88 3e 6c 6e 38 3d 5a 00 1e 3f f4 15 45 bd
       0.2675563 0.04502718 0.61719286 -0.04811664
000070 ab dc 51 bd 35 d3 a7 3c 69 ae 20 be d6 dd 64 3e
       -0.051235836 0.020486454 -0.15691532 0.22350249
000080 75 63 65 3d 0c 8c e1 3d 54 0e 02 3d 8e 8b 0f 3f
       0.056003053 0.1101304 0.031751946 0.5607232
000090 da 9b 34 3f 77 bb ea bd 8f 3e 04 be 97 f7 e9 3e
       0.7055031 -0.11461537 -0.12914489 0.4569671
0000a0 c1 88 d7 3e 5d fd 8f bd 86 20 30 bc 1e fe ac be
       0.42096522 -0.07030747 -0.010749942 -0.33787626
0000b0 93 be 83 be 06 22 34 bf 9e 1a af 3d 3e 45 e1 3c
       -0.25731334 -0.70364416 0.08549999 0.027498838
0000c0 50 32 e9 3e d6 56 38 bc 31 ee 73 be ec b2 b5 bc
       0.45546198 -0.011251172 -0.23821332 -0.022180043
0000d0 64 ff df 3e dc a5 72 ba d6 78 46 be 6a 34 eb 3c
       0.43749535 -0.00092562824 -0.19382033 0.028711516
0000e0 d9 d8 69 bf 29 7a d3 3d f0 d4 fe 3d b3 99 a9 3e
       -0.9134651 0.103260346 0.12442958 0.33125076
0000f0 3f c6 a8 3d ed b0 96 3e 48 60 62 3f 09 90 12 be
       0.082409374 0.2943186 0.88428164 -0.14312758
000100 ec c3 cd 3e ca c4 07 be 8c 05 ac 3e 81 99 f8 3b
       0.4018854 -0.13258663 0.33597982 0.0075866585
000110 1c ef c2 bd 35 f2 94 be bd 44 ac 3d 82 cb 14 be
       -0.09518263 -0.2909104 0.08411548 -0.14530757
000120 08 d2 b2 bd eb 25 82 3e 54 c9 b1 bd a6 96 e3 bd
       -0.087314665 0.25419554 -0.086809784 -0.11112718
000130 81 49 2d 3e c8 6d 21 3e c3 ed 86 bd d4 51 d4 3b
       0.16922571 0.15764534 -0.06588318 0.0064794812
000140 f8 51 c5 3d 56 e7 4d be 8a 21 e6 bc 49 e0 ef be
       0.09634775 -0.20107779 -0.028092165 -0.46850803
000150 6c 82 21 be cd 53 61 be 02 fc 07 3e d6 46 44 3d
       -0.15772408 -0.22004624 0.13279727 0.047919117
000160 04 2f 5c be 81 6f f3 3c aa 3b a6 3e 73 0d f2 3e
       -0.2150231 0.029716255 0.32467395 0.47275886
000170 5b 81 69 3d bb f6 92 3d 19 22 3b bf 79 5a 35 3f
       0.05700813 0.07175966 -0.73098904 0.70841175
000180 94 0f 44 3c c7 39 2e bd 79 2a ba be 13 37 94 bc
       0.011966605 -0.04253557 -0.3636053 -0.018092668
000190 22 73 0b bf 8f 09 f0 3e cb b3 9c 3d f4 8a 98 3e
       -0.54472554 0.46882293 0.0765148 0.29793513
0001a0 65 12 bf 3e c0 f8 8e 3d a7 2c 3a 3e af 0d a2 be
       0.3731872 0.06981039 0.18181096 -0.31651065
0001b0 1d 3f be be 78 72 b7 be 55 4d 29 3e c5 8e 0a 3e
       -0.37157527 -0.3582952 0.16533406 0.13531025
0001c0 16 d9 34 3e 1f eb cf bc 70 45 8f be ae a3 c1 bd
       0.17660937 -0.02538067 -0.27982664 -0.094550475
0001d0 07 a1 0c 3f d9 3d 05 bd 73 f2 3a bf 7e 74 2f 3d
       0.5493321 -0.032529686 -0.730262 0.042835705
0001e0 b5 0f 0c 3f c8 50 52 3c 53 84 97 3d 16 5f 45 3f
       0.5471147 0.012836643 0.07398286 0.77098215
0001f0 ba a9 3e bd a5 d1 07 bf 7f c5 d0 be f1 da cf 3d
       -0.046548583 -0.5305427 -0.40775678 0.10149182
000200 7d 60 a3 be fe e7 60 3e 8b 94 47 3e 65 f3 7c bd
       -0.31909552 0.21963498 0.19490258 -0.061755557
000210 7b 77 69 3e 74 45 23 bf 7d ba b0 be 92 1a c7 3d
       0.22799484 -0.6377785 -0.3451728 0.09721865
000220 fb 67 8b 3e 46 69 02 bf f9 6e fb 3d 33 8e 13 3c
       0.27227768 -0.50941885 0.12277026 0.009006071
000230 d7 a1 07 3e 62 e7 73 be fd d6 13 3d f4 c5 27 3e
       0.13245331 -0.23818734 0.0360937 0.16384107
000240 04 a8 e9 3d a4 8c d7 be d6 f5 e9 3e a6 c6 de 3e
       0.114089996 -0.42099488 0.4569537 0.43510932
000250 fe 5b 8a be 7f 11 3f 3e b8 1f 69 3d 0b 36 1d be
       -0.2702331 0.18659018 0.056915015 -0.15352647
000260 b4 21 b2 be c2 e3 b1 3d a6 43 a7 3e 30 f5 e2 be
       -0.34791338 0.086860195 0.326688 -0.44327688
000270 24 ea 08 bd 50 a6 ff 3d fb e4 09 bf 78 68 79 be
       -0.03342642 0.124828935 -0.5386502 -0.24356258
000280 cb 99 e3 bd 6e c0 c4 3e fa 17 20 3f d8 51 e1 3e
       -0.11113318 0.38428062 0.62536585 0.44007754
000290 e8 1d 1d bf 21 0e 9d 3e a0 92 58 3d f1 f2 d3 3e
       -0.6137376 0.30674842 0.052874207 0.41396287
0002a0 0b f0 d1 3e 18 49 a9 3d fe 9c c2 3e 5d 59 ca 3e
       0.4100345 0.08265895 0.380104 0.39521304
0002b0 62 8e 03 3f cd 94 0c bf e6 50 1d 3e c1 48 80 bd
       0.51389134 -0.5491455 0.15362892 -0.06263877
0002c0 04 65 04 3f 80 3c ab be 21 29 52 3e 4f dd ae 3d
       0.5171664 -0.33444595 0.20523502 0.08538305
0002d0 0e 2e 17 3f 4d 7a 0b 3d 88 c7 8d 3e 9e 2a a2 3c
       0.5905465 0.034052182 0.27691293 0.019795712
0002e0 8e ab e9 3e f1 2a f3 3d e9 6e e4 3d a2 7e c0 3e
       0.45638698 0.11873425 0.11153967 0.37596613
0002f0 53 12 e3 bd 54 85 ce be 57 92 e2 be 29 34 be bd
       -0.110874794 -0.40336096 -0.44252273 -0.092872925
000300 4a 78 dc 3e f9 0b 95 be 1d 31 d8 be 4e cb f3 bd
       0.43060523 -0.29110697 -0.4222497 -0.11904012
000310 ad 59 b7 be 6c 00 d0 3e 90 59 02 3e ed cb 56 bd
       -0.35810605 0.40625322 0.12729478 -0.052440573
000320 20 6f 18 be 77 b8 1d 3f 53 3b 19 3d 3c bf 01 3e
       -0.14886141 0.61609596 0.03741009 0.12670606
000330 0b 30 89 be 60 bf c9 3e 41 83 0f be 42 cd 4d bc
       -0.26794466 0.3940382 -0.14014913 -0.012561144
000340 b1 df f9 3d 75 cd 0f 3f ee 56 bd be 67 0e fa be
       0.12200869 0.5617288 -0.36980385 -0.48839113
000350 2e a5 d8 3e 1c e3 6b be f6 a8 d5 bd c7 8e e3 3e
       0.42313522 -0.23035854 -0.10432617 0.44444868
000360 87 ea 8e 3e 91 91 ad 3d d8 54 05 bf 16 63 f6 3e
       0.27913305 0.0847503 -0.52082586 0.48122472
000370 30 78 07 3e 95 ca 19 be 91 13 21 3f ed ef 78 3e
       0.13229442 -0.15018685 0.6292048 0.24310274
000380 ae 78 4d bc aa 43 b5 be 74 66 02 bf 5c 91 9c be
       -0.012540979 -0.35403186 -0.5093758 -0.3057965
000390 14 08 26 3f a8 3c c3 be 29 48 1c 3d 2e 06 11 bf
       0.64856076 -0.38132215 0.038154755 -0.56650054
0003a0 48 42 cc be 3d 70 ae 3d f2 4c 1f bf 07 be 18 bf
       -0.3989432 0.085175015 -0.62226784 -0.5966496
0003b0 4a 29 fa be 0f 1c 1a 3f ad 9b 6e bd 09 55 e7 bd
       -0.48859626 0.60199064 -0.058253933 -0.11295516
0003c0 eb 0f 07 bf 1b 34 d6 3e ff 87 38 be 95 54 a4 3c
       -0.52758664 0.41836628 -0.18020628 0.020059863
0003d0 19 c3 e9 be bc ab 90 3c 03 24 e4 be 43 44 0a 3e
       -0.4565666 0.017660014 -0.44558725 0.13502602
0003e0 f6 8a 1f bf 23 71 16 3e b0 e1 96 bd 37 e5 bf be
       -0.6232141 0.14691596 -0.07367265 -0.37479565
0003f0 f6 57 ac 3d 12 25 d4 3e 9c 9b f5 3e f5 b2 06 3d
       0.08415215 0.41434532 0.47970283 0.03288551

actor.2.bias f4 [64]
000000 85 8e 34 bd b6 15 85 3d 38 52 84 3d e5 12 ac 3d
       -0.04408123 0.06498282 0.064609945 0.08402041
000010 68 3e a2 3c d2 ae b4 bd e1 26 c7 3c 17 c9 a3 3a
       0.019805148 -0.08822407 0.024310531 0.0012495843
000020 fc c8 07 3e 84 b8 35 3d ea 6d fc 3d 2b 7e 54 3d
       0.13260263 0.04436542 0.12325652 0.051878136
000030 a6 24 74 3d 84 b7 ba bd 50 37 00 3e 84 8f f8 ba
       0.059605263 -0.09117034 0.125211 -0.001896367
000040 ba 20 e0 bd df 58 80 3d df 24 86 3d f5 90 4a bd
       -0.10943742 0.06266951 0.06550001 -0.049454648
000050 47 c4 64 3d 58 c8 af 3d 91 37 e3 bc be 5e 42 3c
       0.055851247 0.085831344 -0.027736457 0.011863409
000060 62 4f 83 bd 98 b9 be 3d d0 3e 42 3e 04 73 f4 bd
       -0.064116254 0.09312743 0.18969274 -0.11936
000070 8d 4f b1 bd 2b 25 9b 3c c3 4e b1 bd 28 86 59 3e
       -0.08657751 0.018938622 -0.08657601 0.21242583
000080 dc bb 7e 3d b6 40 2e 3e 47 36 13 bd 8c bf 95 bd
       0.062190875 0.17016873 -0.035940435 -0.07311925
000090 ad da ac 3b 19 ff bc 3d 22 11 40 3d c4 9e 26 3b
       0.0052750916 0.092283435 0.04689134 0.0025424222
0000a0 e2 ef 1e bd 46 6f c2 bc 1b 5b fb bc 34 65 8c bd
       -0.03880299 -0.0237347 -0.03068309 -0.068552405
0000b0 c1 aa 55 bd c7 51 e6 3d c2 78 5f 3d 1d 19 24 3e
       -0.052164797 0.112460665 0.054558523 0.16025205
0000c0 18 be 2c bd 46 b1 ba bc f3 b9 27 be 19 05 7c bd
       -0.042173475 -0.022789609 -0.16379528 -0.0615283
0000d0 d1 5b d7 3d 4f f6 61 3d 7e b8 61 3d 7f ea e4 3d
       0.105155595 0.05516654 0.055107586 0.11177539
0000e0 0f fe d2 3c aa 78 9d 3d 5c d0 f0 bb ca 59 30 bd
       0.02575591 0.076890305 -0.007349057 -0.04305438
0000f0 fc 29 f4 39 14 0d f3 3c bd c1 ed bd 57 18 51 3e
       0.00046570587 0.029669322 -0.11609218 0.20419441

actor.4.weight f4 [7, 64]
000000 b8 4b 47 bf e6 00 de 3e 59 64 13 40 09 51 87 c0
       -0.7784991 0.4336006 2.3029997 -4.228642
000010 44 0c 1c bf 09 5c 84 3e 64 68 99 c0 ff 04 b2 bf
       -0.60956216 0.25851467 -4.793993 -1.3907775
000020 31 9c e0 bf 9f 81 cc bf 37 6c 5c c0 93 6c 8e c0
       -1.7547666 -1.5977057 -3.444105 -4.4507537
000030 34 74 c8 3f 84 70 dd bf 7c 1f 53 c0 36 80 33 c0
       1.5660462 -1.7299962 -3.2987967 -2.8047004
000040 7b be 96 3e 3c 3a c7 3e ac bb f7 3f 81 8b 33 3f
       0.294422 0.38911617 1.9354148 0.7013474
000050 be c6 a5 3f 7f 46 0f bf ac 44 8b bf 88 1f 97 be
       1.2951276 -0.55966944 -1.0880332 -0.29516244
000060 64 86 00 40 ac 06 7c 3f 0d 9c 11 be d3 ad 07 40
       2.0082026 0.9844768 -0.14219685 2.1199844
000070 eb f8 f9 bf 0e da 48 bf 5b 3e ed bd 78 50 84 3d
       -1.9529089 -0.78457725 -0.11584159 0.06460661
000080 48 74 8a c0 0c 1b 31 bf b5 02 de 3d b4 c2 f6 3f
       -4.3266945 -0.69181895 0.1084036 1.9278169
000090 72 05 19 c0 78 a3 d3 3d 13 17 4f bf 10 16 4b 3f
       -2.3909574 0.103339136 -0.80894583 0.7933054
0000a0 14 58 2d c0 72 e6 ed bf 7c b7 b9 3e 54 39 e3 3f
       -2.7085009 -1.8585951 0.362728 1.775187
0000b0 1b f4 a4 3f bc d7 8c 40 73 20 12 c0 77 d2 85 c0
       1.2886995 4.401335 -2.2832305 -4.1819415
0000c0 46 ce 42 c0 92 dc 1f 3e 4a 03 07 3f 27 42 1d c0
       -3.04384 0.15611485 0.52739394 -2.4571626
0000d0 b3 7f e2 3f c2 8d 95 40 d3 d7 fb bf bf ad 37 c0
       1.7695221 4.6735544 -1.9675239 -2.8699796
0000e0 c8 ae ef 3d 14 10 d2 3d 46 ec 0d c0 32 1e 6f bf
       0.11703259 0.10256973 -2.217546 -0.9340545
0000f0 f5 7d cf 3f e2 e5 b6 be 08 76 71 40 3a be db be
       1.6210314 -0.35722262 3.772829 -0.4291857
000100 07 3c 86 3e ea 8e 87 be a3 d9 dc 3f c0 48 e7 bf
       0.26217672 -0.26476222 1.7253917 -1.8069077
000110 b0 b0 82 3e 25 70 51 be 4c 25 04 c0 c8 b9 74 3e
       0.25525427 -0.20452936 -2.0647764 0.23898995
000120 b8 1e f5 bf 99 b8 a9 bf c5 57 88 bf b1 22 11 c0
       -1.915 -1.325946 -1.0651785 -2.2677424
000130 34 79 ab 3f b9 5c b6 bf 3c 88 ee bf 2b bf ff bf
       1.3396363 -1.4247047 -1.8635325 -1.9980215
000140 12 9e 1b 3e c3 84 f5 be 9b 3b d1 3f 66 32 9b 3f
       0.15197018 -0.47952852 1.6346315 1.2124755
000150 94 be df 3f 57 29 12 3f 81 c9 9b bf b1 6b 9a 3e
       1.7480035 0.5709433 -1.2170869 0.30160287
000160 63 c6 3f bf 5c bc b2 3f 9b 42 48 3f af 7a fd 3f
       -0.7491209 1.3963733 0.7822663 1.9803065
000170 1b 88 ef bf b2 21 a2 bf df c4 55 3f 8e c0 3e 3f
       -1.8713411 -1.2666533 0.83503526 0.74512565
000180 08 68 38 c0 bf 42 e2 3d 21 cd 15 3e 01 3b a8 3f
       -2.8813496 0.11047887 0.14629032 1.3143007
000190 2f 9a e0 bf 1a c3 48 3f 1e 59 21 bd 6f e0 ee 3e
       -1.7547053 0.784227 -0.03939163 0.46655604
0001a0 2d b0 12 bf fa d9 d6 bf 5a b9 97 3e d0 28 93 3e
       -0.5730007 -1.6785271 0.296336 0.28742075
0001b0 27 05 5b 3f 32 6b ba 3f 9c ad d2 bf 9f 56 11 c0
       0.85554737 1.4563963 -1.6459231 -2.270912
0001c0 3b 45 41 bf 1e d6 ab be 7b ce 5d 3e ee 3a 3c bf
       -0.7549626 -0.33561796 0.21660797 -0.7352742
0001d0 da 42 f4 3f b4 26 0c 40 4d 7f 33 bf a6 ce 71 bf
       1.9082901 2.1898623 -0.7011612 -0.94455945
0001e0 4f cb b8 3e dd 73 8a 3e e6 8a f0 bf 32 1c a2 bf
       0.36092612 0.27041522 -1.8792388 -1.2664855
0001f0 cc 4f aa 3f 66 b3 eb bd 13 89 9d 3f 8b 0c 23 3f
       1.3305602 -0.11508827 1.2307457 0.63691014
000200 ad 02 64 3c 16 b9 0c 3f 18 b4 d8 3e 8c 5a e4 3e
       0.013916654 0.5496992 0.423249 0.44600332
000210 3b 98 2e 3f e2 9e 80 bf 03 0f 86 3e 8d 80 d4 be
       0.68201035 -1.0048487 0.26183328 -0.41504326
000220 23 ad e6 bf 9f f1 84 bf 39 8a 67 3e ad ad c7 be
       -1.8021587 -1.0386237 0.22611322 -0.38999692
000230 ca 04 78 3e ac 46 a0 bf 0a 3e a2 bf 64 ac c3 bf
       0.24220577 -1.2521567 -1.2675183 -1.5286984
000240 db 50 27 bf 76 ac a2 bf 3e 42 c7 3f 05 fa 37 3d
       -0.6535775 -1.2708881 1.556709 0.04491617
000250 78 40 b6 bd 89 55 90 3f 1b 99 67 bf f3 03 5b be
       -0.08899015 1.1276103 -0.90467995 -0.21388225
000260 d7 6c 49 bb 89 29 ef 3f be 85 9a 3e 0b f2 7a 3f
       -0.003073504 1.868455 0.30180162 0.9802558
000270 78 1e 81 bf 69 14 92 bf 70 cd c2 be 65 b5 ad bd
       -1.0087423 -1.1412479 -0.3804736 -0.08481864
000280 40 90 53 bf 5f c9 7a 3f 0c 44 45 3f 18 fb c7 3f
       -0.82641983 0.9796352 0.77056956 1.5623503
000290 2f 3b 1e bf 87 79 39 3f 71 aa 01 3f fc b7 12 3f
       -0.61809057 0.7245106 0.506507 0.5731199
0002a0 3c 28 98 3f 55 af f2 bf 38 f9 8c be 8e 5f 75 bf
       1.1887279 -1.8959757 -0.2753389 -0.9584893
0002b0 84 6f 37 3e 7d 89 e8 be f6 17 15 bf be eb 83 bf
       0.17913634 -0.45417395 -0.58239686 -1.0306318
0002c0 3b c4 4b 3f ea 4e 66 bf 57 46 10 be 60 96 5d 3f
       0.795963 -0.89964163 -0.14089333 0.8655758
0002d0 54 75 8b 3f 3d 03 c9 bd e5 9b 6d bf e7 fc 15 3f
       1.0895181 -0.09815071 -0.92816 0.58589023
0002e0 0b 94 9e be be e8 45 3f fe a0 bc bf 3a 9e a7 bf
       -0.30972323 0.7730826 -1.4736631 -1.3095162
0002f0 ff df 88 3f b6 36 72 3f ba 7a 90 bf 6a 73 77 3f
       1.0693358 0.9461473 -1.1287453 0.9666048
000300 da ee fa 3e 23 cb 84 be 05 c7 36 be bd 91 10 3f
       0.49010354 -0.2593623 -0.17849357 0.5647238
000310 79 bf 39 3f 82 46 43 bf d7 70 a5 3f b8 93 59 3f
       0.7255779 -0.7627946 1.2925061 0.84991026
000320 a7 93 dc be 1d 06 15 bf 4c c0 cc 3f 8a d1 b5 3f
       -0.430814 -0.58212453 1.5996184 1.4204571
000330 08 d6 00 bf bc b8 00 3f 76 aa 5f 3f 0d 5c 0c 3f
       -0.50326586 0.5028188 0.8736948 0.5482796
000340 42 2f 34 bf 5d 19 e1 be 12 5c 45 be 56 3a da 3e
       -0.7038461 -0.43964663 -0.19273403 0.42622632
000350 3a 5d ee 3e a3 b4 17 3f c8 f4 46 bf 55 0e 33 3f
       0.465555 0.59260005 -0.77717257 0.69943744
000360 98 3a 80 bf 50 cd 62 3f d0 74 01 3f 35 4a 90 be
       -1.0017881 0.8859453 0.50568867 -0.28181615
000370 fc ce 90 be 59 af 33 bf b7 70 12 3f 36 ea 79 3f
       -0.28282917 -0.70189434 0.5720324 0.97623
000380 c6 38 83 3f 57 09 3a 3f 33 9a ed 3e be 09 c9 3d
       1.0251701 0.726705 0.46406707 0.09816311
000390 0e 66 d8 3e 53 0e ee 3e dd 03 38 3f 72 7e ee 3d
       0.42265362 0.46495304 0.71880895 0.11645211
0003a0 00 01 b4 3f bd 11 46 3d b6 2e 81 be a8 07 da be
       1.4062805 0.04835676 -0.2523095 -0.42583966
0003b0 ad 9c 78 bf af fe c0 bf f0 14 18 3e c8 be 32 3f
       -0.9711407 -1.5077723 0.14851737 0.6982236
0003c0 9f 63 b4 3f 8d 68 de be 09 57 bd bd 9e 84 64 3f
       1.4092902 -0.4343914 -0.09245116 0.8926486
0003d0 08 98 c1 3f 1a d1 12 bf d5 f3 00 3f e0 a5 7c 3f
       1.5124521 -0.57350314 0.5037206 0.98690605
0003e0 1f d5 96 3f 50 e2 58 3e 4b 6b 43 3e 36 0c ac bf
       1.1783789 0.21180081 0.19083898 -1.3441226
0003f0 5d 66 c7 be 9c 31 e9 3c 8b fe 81 bf 34 44 16 3f
       -0.38945284 0.028466038 -1.0155805 0.5869782

actor.4.bias f4 [7]
000000 32 b4 f5 be 5b ab d0 3e ec f5 6a 3f c0 29 0c 3f
       -0.4798904 0.40755734 0.91781497 0.54751205
000010 5b ce 63 3f e5 5b 36 3f 31 7b 3e bf
       0.8898675 0.7123397 -0.74406725

critic.0.weight f4 [64, 16]
000000 df 20 87 3e 87 95 25 be fd 4a 0c bf fa 24 a6 bf
       0.26392266 -0.16170321 -0.54801923 -1.2980034
000010 8b c8 85 bf b6 c0 9c bf c1 05 26 3d 40 8b a1 3e
       -1.0451826 -1.2246311 0.04053283 0.31551552
000020 80 b3 65 3e d5 69 39 be b3 c8 9b 3e 50 fc 82 3d
       0.22431755 -0.18106778 0.3042656 0.06395781
000030 98 57 8e 3e e1 4e 01 3f d5 ac 72 3f 35 11 43 3d
       0.27801204 0.50510985 0.9479497 0.04762383
000040 3a e2 48 be 49 d7 f6 3e 18 00 31 3f 13 db 63 bf
       -0.19617549 0.48211125 0.6914077 -0.89006156
000050 c4 9a b6 bf d9 99 d8 bf 30 f1 04 bd 7b 19 c7 3a
       -1.4265981 -1.692195 -0.032456577 0.0015190089
000060 a0 58 ef bd e3 b9 37 3e fa 01 50 be a6 f3 f1 bd
       -0.11686826 0.17942004 -0.20313254 -0.118140504
000070 cf d4 a5 3d 3c 96 96 3e d1 c8 e9 be 28 00 98 be
       0.08097231 0.29411495 -0.45661023 -0.2968762
000080 b7 cc e4 3d b8 41 9f bd 6f 94 78 be 2d 8a 7d bf
       0.11171859 -0.07776207 -0.24275373 -0.99038965
000090 0e 26 d7 be ba 1a 28 bf d8 df 37 3e 28 cc b9 3d
       -0.4202122 -0.6566578 0.17956483 0.09072143
0000a0 10 c0 2e be 48 1d 7e be 82 0a 05 be 22 3d ce bc
       -0.17065454 -0.24815857 -0.1299229 -0.025175635
0000b0 3f cf f0 3c 0d b3 00 3d 37 18 36 3f ed dd 09 be
       0.029395698 0.031420756 0.711307 -0.13463564
0000c0 2c d5 0d be c7 b2 61 3d 64 44 f1 3e 3b 8d 41 3f
       -0.1385085 0.055102136 0.4712249 0.75606126
0000d0 62 0c 09 3f a8 39 97 3e d3 07 48 be 49 09 4f bd
       0.5353452 0.29536176 -0.19534235 -0.050545964
0000e0 85 45 ba be 1b 07 28 be e0 d0 6f be cd 13 bf bd
       -0.36381164 -0.1640896 -0.23419523 -0.093299486
0000f0 32 d7 2d be af d1 5e 3e b5 eb cd bf 9a 03 3d be
       -0.16976622 0.21759675 -1.6087557 -0.18458405
000100 9a 61 77 bd 26 e7 ba 3e 99 d1 a9 3e 42 5b 0b c0
       -0.060395814 0.36504477 0.33167723 -2.177445
000110 58 95 08 c0 c9 f3 97 bf ea e9 c2 be 85 3e 17 be
       -2.1341152 -1.1871272 -0.38069087 -0.14769943
000120 45 e9 e5 be 3b c6 13 be ca 64 69 be d7 4e 8c be
       -0.44904533 -0.14431088 -0.22792354 -0.274039
000130 c4 de f4 3d 9b 26 a0 3d 35 91 e5 3d 45 78 4e bb
       0.11956552 0.078198634 0.11209337 -0.0031504792
000140 b4 c1 9a 3e c1 93 b9 3e db ef 2e bf 9e f8 35 3f
       0.3022591 0.3624554 -0.6833474 0.71082485
000150 03 ed 1a 3f a5 c8 da 3e 9a 6e 25 bd 79 37 93 bd
       0.605179 0.42731205 -0.04038868 -0.07188315
000160 94 55 8c 3e 60 8d cd be 1e f0 28 be 89 93 eb bd
       0.2740904 -0.40146923 -0.16497847 -0.115027495
000170 c8 69 ab 3e 02 d1 1d 3d 7f c0 4e 3e 9d 03 11 3e
       0.33479142 0.038529404 0.20190619 0.14161535
000180 1c a5 88 3d c8 61 8b 3d 82 bf 6d be 1c 17 13 3e
       0.06672117 0.0680576 -0.23217586 0.14364284
000190 88 f6 f7 bd 78 22 5d bd 0a 84 58 be 2c b3 12 be
       -0.12107569 -0.05398795 -0.21144119 -0.14326161
0001a0 c4 c9 fc 3d d2 67 24 3e 80 e0 b1 bd 8c 1f 78 3e
       0.12343171 0.1605523 -0.08685398 0.24230784
0001b0 b0 b7 8b 3c 40 ba bd bc f4 87 22 be dc 94 f6 bd
       0.017055362 -0.0231601 -0.15872175 -0.120401114
0001c0 e9 d7 10 3d de a9 19 be 13 44 05 3e 0e ab e9 3e
       0.035362158 -0.15006205 0.1301425 0.45638317
0001d0 ea 9e fc 3e 9b 7f 07 3f 52 55 ab 3e dd 42 ba bd
       0.49339992 0.52929085 0.33463532 -0.090947844
0001e0 a2 ef 71 3e a5 73 82 bd 8f 5d a8 3e ee dc aa 3c
       0.23626569 -0.06369714 0.3288388 0.0208573
0001f0 49 6e 5f bd 98 fb 87 3c c2 ec b5 bc 8b 35 d2 3e
       -0.054548535 0.016599461 -0.022207621 0.41056475
000200 aa 63 93 bd b1 bf d9 3e 2d 67 c3 3d c8 04 76 bf
       -0.07196744 0.4252906 0.095411636 -0.96101046
000210 08 d3 4c be 4b db 0e bf 3b 79 c9 3e 3c b6 e7 3e
       -0.20002377 -0.55803365 0.39350304 0.4525622
000220 ff e5 88 3e b5 6a e1 be 3c e0 2d 3e 91 ac 90 3e
       0.26737973 -0.44026724 0.1698007 0.28256658
000230 31 f3 20 bc 20 54 38 be 61 ed 40 bf 49 5d 9e 3e
       -0.009823606 -0.18000841 -0.7536221 0.30930546
000240 2c 33 99 3d 74 49 22 be 36 2f 54 be 20 52 56 bc
       0.074804634 -0.15848333 -0.20721135 -0.013081104
000250 98 8a d5 bd 98 90 b4 3d 0c c9 28 be 54 ff 71 be
       -0.10426825 0.088166416 -0.16482943 -0.23632556
000260 90 57 68 bd ac b3 75 3e 38 7d 7f 3d 6e 1c 7b 3e
       -0.05672413 0.2399432 0.062375277 0.24522564
000270 e0 b7 64 bc f0 e5 3d 3e 8c 06 6d be 58 df 01 3d
       -0.013959855 0.18544745 -0.23147029 0.031707138
000280 36 8d b0 bb ba 0d e4 bc eb d9 d8 be e6 dd 18 bb
       -0.0053879274 -0.027838577 -0.42353758 -0.002332562
000290 5f 3c a8 be bb 21 09 bf 0a fa 1d 3f 0f 90 27 3f
       -0.3285856 -0.53567094 0.61709654 0.6545419
0002a0 de 08 02 3f 44 ca 15 bd c5 94 65 3e 8f 37 7e 3e
       0.5079478 -0.03656985 0.22420032 0.24825881
0002b0 4f 2e bb bd 12 c1 30 be 23 7e 6b bf 06 b2 12 3f
       -0.09139692 -0.1726115 -0.91989344 0.5730289
0002c0 aa a6 bb be f7 a4 e9 bd cd 6f 4e be d3 a5 86 be
       -0.36650592 -0.11408418 -0.20159836 -0.2629839
0002d0 a8 09 a1 be b4 27 04 bf 4f 95 9c be 37 4a 30 be
       -0.3145268 -0.5162308 -0.30582663 -0.1721581
0002e0 e7 92 59 be 42 b3 d0 bd 41 e4 6f ba b5 73 ba be
       -0.21247445 -0.10190441 -0.0009151139 -0.36416402
0002f0 8a c6 03 be 2f dd 88 3e 68 db e5 bf 55 7f 6a bf
       -0.12868705 0.2673125 -1.7957582 -0.91600543
000300 c1 0a 46 3e dc 8a a3 be f6 f2 a9 be 6a d4 6e bf
       0.1934004 -0.3194188 -0.33193177 -0.9329287
000310 4b aa ed bf 72 3c a2 bf de 26 13 3f ba 4c fb 3e
       -1.8567594 -1.2674696 0.5748118 0.49081975
000320 a9 f6 02 3f ca 9f a6 bd a2 cf e0 3d 7c 40 8b 3e
       0.51157624 -0.08135946 0.10977103 0.27197635
000330 07 95 47 3e ca ee 85 be a6 df 9d bf 0c 11 11 3f
       0.19490443 -0.26158744 -1.2333877 0.56666636
000340 00 d9 05 bb 62 fc 1a be ea c5 06 be 80 b0 41 bc
       -0.0020423532 -0.15135339 -0.13161436 -0.011821866
000350 7a 24 41 be e0 5e 2f bd 3a cd 24 be cc b1 f1 3d
       -0.18861571 -0.04281509 -0.16093913 0.1180149
000360 10 94 b4 3d 3a 92 7e 3e b0 c9 b9 3d 30 b1 96 3d
       0.08817303 0.24860469 0.09071672 0.073580146
000370 06 a0 4f 3e 70 1f ff bc 30 eb 4f be d2 8a 25 3e
       0.20275888 -0.03114292 -0.2030456 0.16166237
000380 3d f5 2d 3d 89 99 85 bd a2 d3 2f be c7 ce 32 bd
       0.042470206 -0.06523425 -0.17170575 -0.04365423
000390 8f ce 87 3d 7c cf 96 3c ff c1 9e bd c7 e5 aa 3e
       0.06631195 0.018409483 -0.077518456 0.3337843
0003a0 e6 c9 47 3e ed da 29 be b4 96 4b 3e 54 a8 a6 3e
       0.19510612 -0.1658742 0.19881707 0.325503
0003b0 2b 76 bb bd f4 89 61 3b 8b e1 c9 bd 44 14 bb bb
       -0.09153398 0.0034414502 -0.09857472 -0.005709203
0003c0 ae 08 2b 3e 87 3c 17 3f cb e2 c5 3e 9d b5 90 3f
       0.1670253 0.5907673 0.38649592 1.1305424
0003d0 b1 cc 09 40 9f fa 89 3f 3c 15 c8 3e e5 5b 23 3e
       2.1531184 1.0779608 0.390787 0.15953024
0003e0 4b c0 50 3e 57 ca 88 3e a4 5b 4c be 8b c7 04 3e
       0.20385854 0.26716873 -0.19956833 0.12966745
0003f0 16 4c 64 3e 0b 28 90 be 76 53 06 3f 59 84 2c 3f
       0.2229465 -0.2815555 0.524711 0.67389446

critic.0.bias f4 [64]
000000 ed 8c d2 3d 9a 60 26 be 97 b7 8d bd 2d 77 c0 be
       0.10280786 -0.16247788 -0.069197826 -0.37590924
000010 b9 a9 53 be a8 2e 89 3c 80 ad 1a 3b 92 57 ab 3e
       -0.20670213 0.01674588 0.002360195 0.33465248
000020 50 56 b7 3d 30 dd 9a bd 84 51 58 3e 64 df f4 be
       0.0895201 -0.075617194 0.21124846 -0.47826684
000030 4f f7 05 3f e8 e8 99 bd bc 18 7f 3e 00 4c 28 3e
       0.5233049 -0.075151265 0.24911779 0.16435242
000040 9d a6 a3 3d 2c ca 79 be 6c 9f ca 3e 2c 34 1e bc
       0.07990763 -0.24393529 0.39574754 -0.009655993
000050 46 6d 40 3e e4 7f 84 3b f0 ac 7a be 42 2a e4 bc
       0.18791685 0.004043566 -0.24480033 -0.027852181
000060 94 9a ea 3c 93 4c 36 3e 69 de c5 bd 92 82 61 3d
       0.028638162 0.17802648 -0.09661562 0.055056162
000070 d1 84 3c 3b 0e 2b ae 3d 40 95 8e bc f4 cf bc be
       0.0028765688 0.08504306 -0.017405152 -0.36877406
000080 aa 6e 49 3e 7c fe 21 be 25 d3 64 3e d2 bf 4b 3e
       0.19671121 -0.15819734 0.2234617 0.19897392
000090 72 3c 60 be 56 c0 8c be 04 fd d8 3d b5 83 11 be
       -0.21898058 -0.2749049 0.10595134 -0.14210398
0000a0 14 1c a1 be 3f 6e 57 bc 86 e2 a6 be 35 64 cc 3c
       -0.31466734 -0.013148843 -0.325947 0.024950126
0000b0 40 17 10 3f e7 4d 95 3d 80 dd 74 3e f4 5c b0 bd
       0.56285477 0.07290249 0.2391262 -0.086114794
0000c0 2e eb b0 3e 06 17 b9 3c b5 96 a3 be c8 cf 25 3c
       0.34554428 0.022593986 -0.31950918 0.01012034
0000d0 aa d9 6d be 68 89 52 3c d6 04 ba be aa 96 53 bd
       -0.23227564 0.012850143 -0.36331815 -0.051657356
0000e0 6f bd 8b 3e 00 a8 cf 3e 31 36 31 be 9a 59 f4 3e
       0.27292964 0.4055786 -0.17305829 0.4772461
0000f0 51 a3 0e 3f c9 67 51 3e 64 9a 72 3d 52 05 09 be
       0.5571795 0.20449747 0.05922927 -0.13380936

critic.2.weight f4 [64, 64]
000000 69 e8 21 bf c1 f9 ba bc 2c dd bd 3e 0f a1 84 be
       -0.63245255 -0.02282417 0.37082803 -0.25904128
000010 2a 49 d5 3f 1d bc e2 bc ea d4 51 3e 2a 57 92 3d
       1.6662953 -0.02767759 0.20491377 0.071455315
000020 c6 93 01 3f 57 71 ca 3d 57 7c f3 3d 78 78 f9 3f
       0.5061611 0.09884899 0.1188895 1.9489889
000030 3c b4 13 bf ed bd 22 3e dc 5a a8 3e 48 90 a1 be
       -0.5769689 0.15892763 0.3288182 -0.3155539
000040 ad 4f 22 3d 04 1b 68 be 99 9e 3e 3e 05 41 a6 3f
       0.039626766 -0.22666556 0.18615188 1.2988592
000050 e7 9e cf 3d 12 9e 3f 3f 6a 52 17 be be f6 19 3e
       0.1013773 0.7485057 -0.14777532 0.15035531
000060 c6 45 ce be cc 79 f3 3d 63 2f 29 be 09 d5 50 be
       -0.40287608 0.11888465 -0.16521983 -0.20393766
000070 ce 77 8d be c7 2b 9f 3e 5f eb 53 be 0b 56 43 bf
       -0.27630466 0.31088087 -0.20695256 -0.76303166
000080 98 fa 9f be eb 34 b5 be ea bd 6a 3e a9 70 85 3e
       -0.31245875 -0.35391936 0.22924009 0.26062515
000090 43 e0 cd be 7f 8c 3a 3f 68 bf 58 3e 3a 59 47 bf
       -0.4021016 0.7287063 0.21166766 -0.77870524
0000a0 07 50 8d bf 17 1c 66 3e dd fa be 3e 91 ed f0 be
       -1.1040047 0.22471653 0.37300768 -0.4705625
0000b0 5e f4 23 bf 4a ca 65 3e 9c 74 c1 be 40 3c 90 3f
       -0.6404475 0.22440448 -0.37784278 1.1268387
0000c0 1c f5 06 3f 8b b6 45 be da d3 67 be b7 0e 08 bd
       0.5271776 -0.19307916 -0.22639409 -0.03321716
0000d0 4d dc 9d 3f 82 99 59 bd 3e 62 97 3f fb 65 14 3e
       1.2332855 -0.053124912 1.1826856 0.14492027
0000e0 08 7b e4 3d 8d 6e c4 be fb 1a 85 be b6 21 a7 bf
       0.11156279 -0.38365594 -0.25997147 -1.3057163
0000f0 ae fa dd 3a 4b 13 d3 bd 19 70 b4 be 60 ca a0 3e
       0.001693567 -0.10306414 -0.35241774 0.314044
000100 46 7b f2 3e 94 4e b9 be 87 d3 4c be 6f 11 fe bd
       0.47359675 -0.36192763 -0.20002566 -0.12405669
000110 65 5b 5d bf c1 71 06 be cd 57 12 3e bd 1e 3b be
       -0.8646758 -0.13129331 0.14291306 -0.18273444
000120 8b 08 2a bf 14 6f 95 bd 1b 85 37 bf c9 78 85 bf
       -0.66419286 -0.07296577 -0.7168748 -1.0427486
000130 b1 ec 40 be 0f 1f a9 3c 0e 1e 32 3e 15 5b 7a 3f
       -0.1884029 0.020644693 0.17394277 0.9779523
000140 63 78 40 3f ea 6e 9a bd ec 3e 9e 3e dd dc 00 3f
       0.75183696 -0.075406864 0.3090738 0.5033701
000150 08 f7 16 3e 66 dc be 3e d1 fd 4b bf f5 15 0f 3f
       0.14742672 0.37277526 -0.7968417 0.5589288
000160 b1 c7 8d be 1f aa 01 3f a4 c2 cc bd f2 e4 cf bd
       -0.27691415 0.5065021 -0.09998062 -0.1015109
000170 3c da 40 be 88 ed 93 3d 8b cb 7b 3d 46 ea 94 3f
       -0.1883325 0.0722304 0.06147341 1.1633995
000180 5f e7 06 be e8 d5 22 3f 3a 8e bf 3e 58 38 b5 3d
       -0.13174199 0.63607645 0.37413198 0.08848637
000190 ed ad 09 3f 5b 84 aa bf ee c5 d7 3e 5e 84 21 bf
       0.53781015 -1.3321642 0.42143196 -0.630926
0001a0 39 22 4f 3f 99 b3 28 be ca d1 27 bf 74 b8 6c bc
       0.80911595 -0.16474761 -0.6555449 -0.014448274
0001b0 cf 4b 3e bf 1e 27 d5 bf 08 5b 01 bf 41 83 a2 be
       -0.74334425 -1.6652563 -0.5052953 -0.31740764
0001c0 f5 ec 80 bf e4 11 47 3e fb 1f a5 be 84 9e 82 3f
       -1.0072314 0.19440418 -0.32250962 1.0204625
0001d0 2c b4 ce 3d ad 97 84 be c2 7c 15 bf 3e 70 8d bd
       0.10092959 -0.2589697 -0.5839349 -0.06906174
0001e0 44 af c2 3d 43 60 f6 3d c2 ef 3c be 06 29 8e 3f
       0.095060855 0.12030079 -0.18450835 1.1106269
0001f0 aa 86 56 3f 5a 88 a6 3e 31 7b cb 3d 28 4b 8e bd
       0.8379923 0.32525903 0.09935606 -0.06947929
000200 df 25 a6 bf 8f 4e af bd 73 20 81 3e ec 43 94 bf
       -1.2980307 -0.08559906 0.2522007 -1.1583228
000210 a0 a2 dc 3d ae c8 f4 3e f3 12 54 be db 8d f2 be
       0.10773206 0.47809356 -0.20710354 -0.47373852
000220 ba a7 97 3e 11 a7 a5 be da b0 6b 3e 4c c3 c4 be
       0.29620153 -0.32354024 0.23016682 -0.3843025
000230 c2 06 70 3f 75 f3 dd be e1 3a 07 bd 2d b8 81 3e
       0.9376031 -0.43349805 -0.033015136 0.25335827
000240 05 4d f8 3e 47 3d 90 3e f6 86 ac be 84 7c 81 bf
       0.4849626 0.2817175 -0.33696717 -1.0116124
000250 ed 6b 63 be 4f e0 df bf 40 cf 43 bd a6 b6 6c be
       -0.22209139 -1.7490329 -0.04780507 -0.2311655
000260 f9 60 01 40 e4 af 89 be ce 75 44 3e 25 fd 47 3e
       2.0215437 -0.26892006 0.19185564 0.1953016
000270 79 48 45 3e 2c 00 32 bf 17 89 81 3e 79 a1 40 bf
       0.19265927 -0.6953151 0.25299904 -0.7524639
000280 9a 6f a4 3e d6 06 a1 3d be 52 32 3f cf 61 c1 be
       0.32116395 0.07862632 0.69657505 -0.37769935
000290 84 27 13 3f 8c 68 89 bf ac 2b dc 3d 76 bb 10 3f
       0.5748217 -1.073503 0.10750517 0.5653604
0002a0 e1 7c 22 bf a0 4b ee bb ff 3b 11 bf 5b 0b 17 c0
       -0.634718 -0.007272199 -0.5673217 -2.360068
0002b0 cf df 91 3d f8 bb 74 bf 7d ca 3a bf e7 5c 21 bf
       0.07122766 -0.9559932 -0.7296522 -0.6303238
0002c0 51 66 97 bd 17 e5 22 3f d3 a4 7b 3e a7 e8 6f 3e
       -0.07392562 0.63630813 0.24574594 0.23428594
0002d0 8f cc 37 be 9b df bf 3e a0 ad 91 be 20 b3 9f be
       -0.17949127 0.37475285 -0.28452778 -0.3119135
0002e0 8b 84 3b be 16 d1 70 3e 8c 0c f6 bc 43 55 e8 3e
       -0.1831228 0.2351726 -0.03003528 0.4537755
0002f0 9c 25 80 3f 85 66 81 bd 3f ac 12 3f 17 ec 65 be
       1.0011477 -0.06318382 0.57294077 -0.22453342
000300 d5 5b 29 3e c0 16 a0 3f f8 80 f8 be b6 55 a1 bf
       0.16538937 1.2506943 -0.48535895 -1.2604282
000310 27 bf 81 3e 4a 34 62 bf fb 5d c3 3e c0 78 65 3d
       0.2534115 -0.88361037 0.3815764 0.05602336
000320 71 1a ca bd 78 ed 5a 3e fc 4a 97 3f 59 03 be 3d
       -0.098683245 0.2137965 1.1819758 0.09277982
000330 ef a9 63 be 93 98 ac 3e cd a7 2e bd 55 03 97 bf
       -0.22232793 0.33710155 -0.042640496 -1.1797892
000340 73 97 47 be 7b 8c be be 3a 15 cd 3e 5c ae 49 3f
       -0.19491367 -0.37216553 0.40055257 0.78781676
000350 7f 7c 4e 3e 88 30 11 40 c9 cf 03 be 79 9e 41 bf
       0.20164679 2.268587 -0.12872232 -0.75632435
000360 f0 42 2e bf e6 a8 ec 3e 27 cc 67 be ac cd e8 be
       -0.6807089 0.4622261 -0.22636472 -0.45469415
000370 75 3c cd be 2c b9 4c 3f f6 d4 82 be ad ed df be
       -0.40085188 0.7997005 -0.255531 -0.4373602
000380 78 1c c4 be 17 a9 49 bf fd 44 ef be 5a 54 b4 3e
       -0.3830297 -0.78773636 -0.4673232 0.35220605
000390 61 87 01 3d ae 71 7a 3e 9c c8 15 bf df 4a c5 be
       0.031623248 0.24457428 -0.5850923 -0.38533685
0003a0 a9 2f e1 3e 7d 82 39 3f 14 cb b8 be e4 e6 58 bf
       0.43981674 0.72464734 -0.36092436 -0.8472731
0003b0 0e d2 56 3f e2 7c 52 3e bc 9c bd 3f 9d 15 4b 3e
       0.8391427 0.20555452 1.4813457 0.19832464
0003c0 26 33 71 3e f9 55 9a bd 3e 1f 7d be 97 f9 39 3e
       0.23554668 -0.07535929 -0.24718949 0.18161617
0003d0 0e 1f 2b 3f d0 6b 97 be d7 3c c3 3f 57 58 31 3e
       0.6684426 -0.29574442 1.5252942 0.17318855
0003e0 4a 15 a9 3d d5 1a ef 3e a7 db 65 be 4c a0 83 bf
       0.08256014 0.4670016 -0.22447072 -1.0283294
0003f0 7b a4 e1 be 92 0b 99 3e 37 69 19 bf 71 e0 42 3e
       -0.440708 0.2989164 -0.5992617 0.1903093

critic.2.bias f4 [64]
000000 78 ca 9b 3e b3 24 81 bd ae 24 90 be 12 d2 43 3e
       0.3042791 -0.06305828 -0.28152984 0.19123104
000010 21 07 b8 3e 0d ac 6f bd df ed 50 be 49 47 79 3e
       0.3594294 -0.05851369 -0.2040324 0.243436
000020 a0 b6 c5 bd 68 31 0a bd 79 a8 1f bc d8 66 25 3e
       -0.096539736 -0.033738524 -0.009744757 0.16152513
000030 6f e8 c6 bd 8d 68 42 3e 17 c6 b4 3d 09 3e 7b be
       -0.09712302 0.18985195 0.08826845 -0.24535383
000040 9c 07 db 3e e0 3e 52 bd 07 eb 6b be 55 fa 0f 3e
       0.42779243 -0.051329494 -0.23038875 0.14060338
000050 b1 9e 25 be 97 3c c6 3e a3 13 0d be af 69 89 be
       -0.16173817 0.387181 -0.13777022 -0.26838443
000060 eb c9 32 bd 4a 38 81 3e 32 34 56 3b 36 1c c7 be
       -0.043649595 0.25238258 0.003268492 -0.3888871
000070 00 2d 13 3e ea 21 30 3e c7 9a 8e be 38 b5 8c 3d
       0.14372635 0.17200437 -0.2785246 0.06870502
000080 6e ea 3c 3e be 7f 99 3e 2f 6e 20 3e e1 97 ea be
       0.18448803 0.29980272 0.15667032 -0.45819
000090 18 ae 09 3e 98 61 89 be b1 5a f5 3c ee e3 ca be
       0.13445318 -0.2683227 0.029950472 -0.39627022
0000a0 d5 2a 78 be 75 54 d9 3d dc 54 b0 3e d3 a7 70 3d
       -0.24235089 0.10611812 0.34439743 0.0587538
0000b0 05 2c 62 bd 1d 16 87 bb e7 4d 6b 3b b7 03 8b bd
       -0.05521776 -0.004122509 0.0035904588 -0.06787818
0000c0 e1 b3 ea 3d 63 55 a3 3e 53 9c ce bc 35 5c 05 3e
       0.114600904 0.31901082 -0.025221026 0.13023455
0000d0 7b 40 0c 3e 14 21 ae bb c6 5f b0 bd f1 20 c5 bd
       0.13696472 -0.005314002 -0.08612017 -0.09625424
0000e0 d7 c1 96 bb 02 54 9d bc c5 3f 5c 3d a4 89 94 bd
       -0.004600744 -0.019205097 0.053771753 -0.07252815
0000f0 b0 02 bc 3e e4 11 33 bd 22 2a 08 be 39 ed 23 be
       0.367208 -0.043718234 -0.13297322 -0.16008462

critic.4.weight f4 [1, 64]
000000 69 55 08 3e 21 52 11 3e bc 7e bc be c6 2c ae 3e
       0.13313831 0.14191486 -0.3681544 0.34018534
000010 d2 97 d1 be 31 47 5c 3e d6 70 aa 3d da 6e e8 bd
       -0.40936142 0.21511532 0.08322303 -0.11349268
000020 25 32 40 3e 71 1f 91 bd da c4 73 3e 7c 21 5d 3e
       0.18769129 -0.07086075 0.23805562 0.21594805
000030 5e 8c 69 3e 88 a7 79 3e 54 a7 3b be 97 53 df 3e
       0.22807452 0.24380314 -0.1832555 0.4361846
000040 3c f2 de bd cd ce 8f 3e 7a 76 0a be 88 46 0f be
       -0.10886046 0.28087464 -0.13521758 -0.1399175
000050 2f 47 05 bd c4 2e 3d 3e e7 43 d2 3d 7e 18 04 3e
       -0.03253859 0.18474871 0.102668576 0.12899968
000060 e7 22 89 be 0c de ad 3d 24 6b 57 3e 06 cc a8 bd
       -0.2678444 0.08489618 0.21036965 -0.082420394
000070 60 15 43 3e d4 b7 6f 3d 47 4a b4 bd e9 06 0e 3e
       0.19051123 0.05852492 -0.0880323 0.13869824
000080 a7 f4 7b bd ec 16 83 bd b4 7d f3 3d 49 ea 9e be
       -0.061512616 -0.064008564 0.1188921 -0.3103812
000090 b7 50 8c bd 14 b7 ab be 56 c9 33 be 88 77 5b bd
       -0.06851333 -0.33538115 -0.17557272 -0.05358079
0000a0 28 ae 47 bb 14 30 89 bc c2 db 88 3e e9 2b 3b be
       -0.0030468795 -0.016746558 0.26730162 -0.18278469
0000b0 b1 4f 20 3d 0e 4f dc 3d b0 0c 44 be 47 9c 64 be
       0.0391385 0.10757266 -0.19145465 -0.2232524
0000c0 3c c4 9f be 3d d5 dc 3d ef 86 52 be 54 28 20 be
       -0.31204402 0.107828595 -0.20559286 -0.15640384
0000d0 40 19 ae 3d 35 e6 51 3d 42 ae 6b 3e d9 e5 f0 bd
       0.0850091 0.051244933 0.23015693 -0.1176259
0000e0 5b 53 e4 bd e6 95 1a 3e 5b 7f 78 be 98 6d 47 3e
       -0.11148711 0.15096244 -0.24267332 0.194754
0000f0 66 cc 2a 3d f4 b8 d3 3d f2 80 9d 3b 12 16 42 3d
       0.041698836 0.103380114 0.0048066312 0.04738433
