Model Results/ppoMSFT2022-03-011999.pth (torch, 48325 bytes, 11 tensors)

actor.0.weight f4 [64, 16]
-0.2618488 -0.40720594 -0.560373 0.50263375 -0.061011095 0.27038208 -0.09070282 0.14437464
0.1709174 0.08187804 -0.012060953 -0.09462707 0.077760935 0.51256764 -0.21048397 0.030730397
0.1366078 -0.10167521 0.083056904 0.65608215 0.37770966 0.5871437 -0.1277396 0.0035866739
-0.16917884 -0.13638157 0.014715805 -0.2209229 0.1390293 -0.3156624 0.21136352 -0.31566367
-0.56970406 -0.20442392 -0.17794731 -0.47203884 0.044802442 0.16609834 0.055773094 -0.25270596
-0.2714012 -0.044107497 -0.25693512 -0.3161882 0.19680546 -0.034069505 -0.184369 -0.39786848
1.7951034 1.621157 1.7709936 -0.9861638 -1.028853 -0.882837 0.04764233 -0.103865415
-0.2730452 0.0055615962 -0.3337251 -0.16249806 0.010349153 -0.2963078 0.1539857 -0.35269803
1.1832333 1.3121953 1.1312526 -0.36573395 0.016075792 -0.13388428 0.36898655 0.062965035
0.03407661 0.13388176 0.12704718 0.011019243 0.3244714 0.18068369 0.6592203 0.0817273
1.0995349 0.9856829 0.7796781 -0.5755717 -0.6531936 -0.7682866 -0.0122522805 -0.16820908
0.20797597 0.043345217 -0.0017535789 -0.067338414 -0.2500106 -0.04467534 -0.569234 -0.22347896
-1.0958062 -1.227666 -0.8761378 0.3261623 0.3477932 0.52096593 -0.14480019 -0.2100027
0.12368691 0.10808432 0.010620115 -0.3265622 0.20357075 0.2666876 -0.4267731 -0.21415173
0.37740162 0.662481 0.73217773 -0.6035861 -0.23410587 -0.59721226 0.1372116 -0.08054243
-0.039929576 0.11918587 -0.16654001 -0.17126466 0.47814533 -0.21481441 -0.5951676 -0.018565908
0.013275258 0.045091614 -0.24302578 0.07806037 -0.03602253 -0.124591954 0.23407646 0.0040171337
0.24948026 0.018889667 0.20226018 0.06045857 0.08507322 -0.029901005 -0.1556775 0.21666072
-0.13563757 -0.023066668 -0.09520115 -0.26542288 0.11613354 -0.24515614 0.21534787 -0.012062891
-0.1680833 -0.1941408 -0.2136647 -0.13993429 0.1910015 0.35595226 0.053001232 0.115237705
-0.13486524 -0.22042595 -0.36989224 0.45209426 0.5356681 0.629566 -0.114612825 -0.32730815
-0.07927912 0.007004645 -0.39434886 -0.15746972 -0.10628879 0.08393958 -0.070749365 -0.23757745
-0.20548436 0.18012473 -0.23417729 0.0015611947 -0.23424158 -0.04106185 -0.18102473 0.19490516
0.17167476 0.09963983 -0.21729836 -0.21212485 0.18381828 -0.22319728 -0.22888523 0.0890111
1.2153515 1.8967128 1.83606 -1.6959251 -1.5241303 -1.7834969 -0.16247952 -0.27242404
0.07641014 0.28748092 -0.0360154 0.041534647 -0.038674057 0.060066346 -0.37682864 0.5970331
-0.88038766 -0.85177016 -0.31574953 0.8773948 0.91223526 0.8328288 0.09847714 0.061953727
0.2984363 0.10287088 -0.03904601 0.15470837 0.44607857 0.24453817 -0.2672379 0.12866166
0.06187079 -0.23249549 -0.38852274 -0.51011324 -0.5236396 -0.3197428 -0.03842993 0.06934842
0.13160326 -0.012305394 -0.092091456 -0.22751686 0.14313827 -0.13360521 -0.3266863 -0.07765258
1.2343414 1.1575241 1.1251788 -0.9572887 -0.7236197 -0.79391223 -0.13242118 0.18276182
0.1835492 0.2771307 0.1412536 0.036544647 -0.06731609 -0.09676283 -0.47931507 -0.1711679
00000000: 0c11 86be 4c7d d0be 9b74 0fbf 9bac 003f
00000010: c5e6 79bd 856f 8a3e 66c2 b9bd f2d6 133e
00000020: f904 2f3e adaf a73d 4e9b 45bc d6cb c1bd
00000030: 2041 9f3d a237 033f 1c89 57be 50be fb3c
00000040: eae2 0b3e 183b d0bd bd19 aa3d 00f5 273f
00000050: 2963 c13e 0d4f 163f 2bce 02be 670e 6b3b
00000060: 383d 2dbe 9ca7 0bbe 8f1a 713c 9d39 62be
00000070: b25d 0e3e 819e a1be ae6f 583e ab9e a1be
00000080: 20d8 11bf 8154 51be d237 36be 13af f1be
00000090: c482 373d af15 2a3e 5472 643d ad62 81be
000000a0: 19f5 8abe 10aa 34bd 008d 83be 6be3 a1be
000000b0: 5f87 493e 778c 0bbd 3acb 3cbe 6bb5 cbbe
000000c0: f3c5 e53f 1382 cf3f ebaf e23f 3b75 7cbf
000000d0: 75b1 83bf 9b01 62bf 9b24 433d 64b7 d4bd
000000e0: 95cc 8bbe 0d3e b63b 04de aabe e465 26be
000000f0: 7e8f 293c a8b5 97be 6dae 1d3e d694 b4be
00000100: 3074 973f 04f6 a73f e3cc 903f 7b41 bbbe
00000110: 61b1 833c f618 09be ceeb bc3e d0f3 803d
00000120: ea93 0b3d 4d18 093e a818 023e 0e8a 343c
00000130: 1e21 a63e 2505 393e a9c2 283f a560 a73d
00000140: 8fbd 8c3f b755 7c3f fc98 473f ab58 13bf
00000150: b237 27bf 6eae 44bf cabd 48bc 003f 2cbe
00000160: a7f7 543e c18a 313d 58d8 e5ba b9e8 89bd
00000170: 6401 80be 7dfd 36bd 52b9 11bf abd7 64be
00000180: 6143 8cbf 2924 9dbf 914a 60bf bffe a63e
00000190: f311 b23e 065e 053f 8046 14be f30a 57be
000001a0: 904f fd3d 505b dd3d feff 2d3c 2933 a7be
000001b0: da74 503e 478b 883e 0182 dabe 974a 5bbe
000001c0: c93a c13e 5b98 293f 0070 3b3f 9e84 1abf
000001d0: 73b9 6fbe e7e2 18bf 3381 0c3e 6ef3 a4bd
000001e0: 328d 23bd b917 f43d 7789 2abe 0160 2fbe
000001f0: 77cf f43e 4ff8 5bbe e75c 18bf 8817 98bc
00000200: 7880 593c fcb1 383d c0db 78be 1ede 9f3d
00000210: 5c8c 13bd 112a ffbd bdb1 6f3e 29a2 833b
00000220: c177 7f3e 81be 9a3c 4b1d 4f3e 68a3 773d
00000230: de3a ae3d f4f2 f4bc ec69 1fbe 4fdc 5d3e
00000240: 93e4 0abe 4ff6 bcbc d2f8 c2bd 82e5 87be
00000250: 6cd7 ed3d 360a 7bbe 2784 5c3e 6fa3 45bc
00000260: 071e 2cbe d9cc 46be ebca 5abe ef4a 0fbe
00000270: e695 433e 603f b63e d217 593d bf01 ec3d
00000280: 1d1a 0abe 57b7 61be 8462 bdbe e678 e73e
00000290: 8b21 093f 3d2b 213f 21ba eabd ef94 a7be
000002a0: 175d a2bd 3987 e53b 18e8 c9be be3f 21be
000002b0: f0ad d9bd 84e8 ab3d 0be5 90bd 8147 73be
000002c0: 7e6a 52be 9e72 383e 2ccc 6fbe 00a1 cc3a
000002d0: 06dd 6fbe 7830 28bd 8c5e 39be 3895 473e
000002e0: 82cb 2f3e f80f cc3d 7683 5ebe 4237 59be
000002f0: dc3a 3c3e d48d 64be e460 6abe 744b b63d
00000300: a390 9b3f 7cc7 f23f 0404 eb3f 1314 d9bf
00000310: b416 c3bf a049 e4bf 0861 26be 2a7b 8bbe
00000320: eb7c 9c3d b330 933e e284 13bd 3c20 2a3d
00000330: b068 1ebd 2108 763d afef c0be 29d7 183f
00000340: 1661 61bf 9c0d 5abf eca9 a1be f29c 603f
00000350: 4088 693f 4534 553f 62ae c93d 31c3 7d3d
00000360: a5cc 983e f8ad d23d b5ee 1fbd df6b 1e3e
00000370: 6964 e43e 3768 7a3e 68d3 88be e2bf 033e
00000380: 3a6c 7d3d 4c13 6ebe 74ec c6be c896 02bf
00000390: 3f0d 06bf 54b5 a3be b468 1dbd 8b06 8e3d
000003a0: 01c3 063e 909c 49bc 729a bcbd 2efa 68be
000003b0: d792 123e cecf 08be 6d43 a7be 5108 9fbd
000003c0: e6fe 9d3f c029 943f dc05 903f df10 75bf
000003d0: 243f 39bf d53d 4bbf 6b99 07be ea25 3b3e
000003e0: 52f4 3b3e 13e4 8d3e c9a4 103e d7af 153d
000003f0: 05dd 89bd 972b c6bd c968 f5be a346 2fbe

actor.0.bias f4 [64]
0.13868074 -0.07241814 -0.33295104 -0.095615305 0.29928333 0.0432304 0.13860102 -0.11274961
-0.09304791 -0.12356761 -0.32978994 0.16589394 -0.2721708 0.20781125 0.12791575 0.089893736
-0.46409997 0.048740655 -0.1301927 -0.15475775 0.010251991 0.0632119 0.29631174 -0.19342928
-0.11976392 -0.22353299 -0.11496959 0.13980086 -0.08185841 -0.03764543 -0.0017985665 0.03639716
0.035922706 -0.09806053 -0.12393973 0.154267 -0.19040038 -0.0024949182 -0.20403185 -0.21706356
0.14204478 0.06315256 0.028983653 0.09149767 0.20251316 -0.20665388 0.06254715 -0.017085878
0.007478303 -0.14152579 -0.14175414 -0.043640852 0.15239088 -0.08049723 0.13549252 0.50167704
0.098908216 -0.061891362 0.11349001 -0.177338 0.39962602 -0.19761847 0.0985814 -0.019267833
00000000: 5302 0e3e f64f 94bd 8f78 aabe f5d1 c3bd
00000010: aa3b 993e 5c12 313d 6ded 0d3e 44e9 e6bd
00000020: e78f bebd 0411 fdbd 3ada a8be 1ae0 293e
00000030: f959 8bbe 79cc 543e 59fc 023e 351a b83d
00000040: 839e edbe 48a4 473d 3c51 05be d178 1ebe
00000050: f8f7 273c 3e75 813d 2cb6 973e 5312 46be
00000060: c946 f5bd d5e5 64be 2d75 ebbd f527 0f3e
00000070: 62a5 a7bd 1832 1abd e1bd ebba 3015 153d
00000080: b023 133d f6d3 c8bd 1dd4 fdbd 2bf8 1d3e
00000090: 51f8 42be c881 23bb baed 50be e945 5ebe
000000a0: 3074 113e 2156 813d 206f ed3c 2163 bb3d
000000b0: 9c5f 4f3e 139d 53be b818 803d aff7 8bbc
000000c0: 8d0c f53b 23ec 10be ff27 11be c0c0 32bd
000000d0: 5b0c 1c3e bbdb a4bd 8dbe 0a3e e86d 003f
000000e0: 6490 ca3d cc81 7dbd 736d e83d 1898 35be
000000f0: c89b cc3e 7f5c 4abe 0ce5 c93d 93d7 9dbc

actor.2.weight f4 [64, 64]
0.5605869 0.2083355 -0.0350784 -0.40748093 0.19774894 -0.32124966 1.0187755 0.15640278
0.24286783 -0.38566098 0.14377606 -0.22410387 -0.6737872 0.2645944 -0.11734505 0.02272998
0.119023986 -0.011879271 -0.15642078 -0.35720828 0.010966641 -0.027200451 0.20675038 0.31387278
-0.11173151 -0.31335247 -0.6554962 0.09838011 0.42784604 -0.051817115 0.20844397 -0.08443274
0.2395523 -0.29951128 0.29619813 0.89311373 0.6207051 -0.9995502 0.55929154 -0.47676018
-0.26091847 -0.08115612 -0.26792505 -0.33807713 0.050992478 0.39851043 -0.12464344 -0.90219474
0.13578813 0.19229853 0.15772843 -0.0766513 -0.17012696 0.06809231 0.09879157 0.30901465
-0.31961662 0.5804887 -0.08485467 0.6161153 -0.48967627 0.07059654 0.075614884 0.010950057
-0.5380059 0.35909733 -0.0013472736 0.12889238 -0.15224753 0.5150843 -0.30338824 0.117275305
-0.062998325 -0.30219978 -0.017073737 -0.10730211 -0.28665274 -0.6685961 0.16528806 0.2728701
-0.97425085 -0.12856396 -0.06636327 -0.5850102 0.094419286 0.17152302 0.41874278 -0.29748097
-0.07329375 -0.17855504 0.6699977 0.06820661 -0.21250808 0.0024242653 -0.21470398 0.03826358
-0.005476275 0.08265021 -0.0031069224 -0.06558532 0.59304035 0.06895326 -0.5795384 -0.34829152
0.6328503 -0.036478274 -0.7225118 0.37550524 -0.12102166 0.61395913 0.06191851 -0.8877776
-0.3832106 0.36907473 -0.08756587 -0.09042567 0.024665007 0.012013568 -0.07016593 0.08732989
0.15913355 0.21849039 -0.1294214 -0.4055777 0.39203924 0.38412863 0.28780103 -0.21513043
0.41531694 0.037453 -0.18982042 -0.17666061 -0.38183796 0.20397484 0.7142222 0.5154772
-0.15774882 -0.43054312 0.47393876 -0.00507161 0.25634885 0.23323524 0.2846936 0.5261253
0.5306214 0.342087 0.21910708 0.30077583 -0.2753506 -0.73983306 0.053978764 -0.36509424
0.34670424 0.6110633 -0.4369159 0.26545942 0.46664718 0.08392915 0.1612789 0.2001783
0.0050946875 -0.22265112 0.3875486 0.89958245 -0.551679 -0.34654614 0.39692208 -0.37994522
-0.23082897 0.18119363 0.4832736 -0.25161657 -0.38301563 0.3349391 -0.0070421663 0.47979775
-0.21608014 -0.21817821 0.32424453 -0.0100499075 0.23408572 -0.19120607 -0.1614863 0.28226388
0.5448463 0.6185641 0.00590595 0.5249608 -0.31598723 -0.15200013 0.050734714 -0.0049179825
-0.20701505 0.03900551 0.18051615 -0.43819505 0.028246136 0.15700434 0.36663586 0.37079385
0.19390857 -0.2310301 -0.05396759 -0.23990883 -0.38662082 0.571421 -0.15839791 -0.40554005
0.23882814 -0.2896944 -0.18532094 -0.43526244 -0.85918736 0.23307279 -0.09720267 0.061718114
-0.25595543 0.041092623 -0.95109797 0.13125297 -0.65643954 -0.1629219 -0.20250796 -0.19199401
0.31346267 -0.16777028 0.34388608 0.42267027 0.16388147 -0.50311327 0.91680634 -0.015318102
-0.73815984 -0.16519485 -0.6772057 -0.081295215 -0.22905892 0.6045898 -0.29469004 -0.41417825
0.48080605 0.003066663 0.15051106 -0.22241047 -0.07333719 -0.06980527 0.1987726 0.30677718
-0.4329116 -0.23845993 -0.1588033 0.5604366 -0.12932864 -0.006921707 0.13654105 0.022501532
00000000: a082 0f3f e755 553e 5eae 0fbd 57a1 d0be
00000010: b37e 4a3e d67a a4be 3c67 823f 0d28 203e
00000020: 58b2 783e 5b75 c5be 083a 133e 7c7b 65be
00000030: 517d 2cbf eb78 873e 9a52 f0bd 3934 ba3c
00000040: d9c2 f33d 46a1 42bc c52c 20be 01e4 b6be
00000050: 6dad 333c 7bd3 debc 5fb6 533e efb3 a03e
00000060: 7dd3 e4bd bc6f a0be 99ce 27bf 837b c93d
00000070: a30e db3e 2f3e 54bd 5672 553e 13eb acbd
00000080: 334d 753e 8b59 99be 48a7 973e 1aa3 643f
00000090: 88e6 1e3f 86e2 7fbf bb2d 0f3f e919 f4be
000000a0: 1b97 85be 2e35 a6bd 792d 89be 7218 adbe
000000b0: 7ddd 503d 8f09 cc3e 0f45 ffbd 3cf6 66bf
000000c0: 0b0c 0b3e e8e9 443e 9083 213e 5bfb 9cbd
000000d0: c335 2ebe fb73 8b3d 3c53 ca3d 2b37 9e3e
000000e0: caa4 a3be e89a 143f 49c8 adbd bbb9 1d3f
000000f0: d9b6 fabe eb94 903d fadb 9a3d de67 333c
00000100: c1ba 09bf 9bdb b73e 0097 b0ba 5dfc 033e
00000110: c7e6 1bbe 91dc 033f b455 9bbe 092e f03d
00000120: 4405 81bd eeb9 9abe 39de 8bbc 35c1 dbbd
00000130: 26c4 92be 1d29 2bbf 4641 293e a1b5 8b3e
00000140: 8168 79bf 45a6 03be 77e9 87bd 3ac3 15bf
00000150: e65e c13d bba3 2f3e 7465 d63e 6d4f 98be
00000160: 091b 96bd 22d7 36be f884 2b3f e8af 8b3d
00000170: b89b 59be 6ce0 1e3b 5cdb 5bbe 46ba 1c3d
00000180: 5372 b3bb 8344 a93d 829d 4bbb 9951 86bd
00000190: 7ed1 173f 5e37 8d3d a15c 14bf 4453 b2be
000001a0: 7a02 223f 3e6a 15bd 89f6 38bf 3942 c03e
000001b0: 34da f7bd 6d2c 1d3f 439e 7d3d 6545 63bf
000001c0: 2e34 c4be 5df7 bc3e bc55 b3bd 1831 b9bd
000001d0: 450e ca3c 8ed4 443c 28b3 8fbd 03da b23d
000001e0: e8f3 223e f2bb 5f3e 0b87 04be e1a7 cfbe
000001f0: 5eb9 c83e 82ac c43e a85a 933e 274b 5cbe
00000200: 6ca4 d43e 5168 193d 4960 42be 85e6 34be
00000210: 4480 c3be c8de 503e 44d7 363f 50f6 033f
00000220: e888 21be 2670 dcbe 1aa8 f23e c02f a6bb
00000230: 2840 833e 38d5 6e3e 5cc3 913e 26b0 063f
00000240: ced6 073f 0726 af3e 9b5d 603e 4aff 993e
00000250: c1fa 8cbe b365 3dbf d618 5d3d a2ed babe
00000260: 3883 b13e a56e 1c3f 71b3 dfbe 4cea 873e
00000270: 61ec ee3e 0ce3 ab3d 4c26 253e 8afb 4c3e
00000280: 56f1 a63b a8fe 63be c56c c63e 094b 663f
00000290: d63a 0dbf 7f6e b1be 5f39 cb3e 2e88 c2be
000002a0: 6e5e 6cbe d38a 393e a36f f73e e3d3 80be
000002b0: a01a c4be 237d ab3e f9c1 e6bb 0da8 f53e
000002c0: 1d44 5dbe 1c6a 5fbe 6103 a63e 5ea8 24bc
000002d0: 2bb4 6f3e 86cb 43be aa5c 25be e484 903e
000002e0: 0c7b 0b3f 385a 1e3f b386 c13b d563 063f
000002f0: 14c9 a1be eca5 1bbe 34cf 4f3d 0727 a1bb
00000300: c1fb 53be 3ec4 1f3d 3ad9 383e 1a5b e0be
00000310: 7164 e73c bfc5 203e b2b7 bb3e b1d8 bd3e
00000320: f88f 463e 2893 6cbe 1f0d 5dbd a9aa 75be
00000330: 2af3 c5be a648 123f 1033 22be f2a2 cfbe
00000340: 5d8f 743e d352 94be c6c4 3dbe b8da debe
00000350: b4f3 5bbf a2aa 6e3e 3212 c7bd 22cc 7c3d
00000360: 970c 83be bd50 283d 287b 73bf 2e67 063e
00000370: 6c0c 28bf 00d5 26be 3f5e 4fbe 149a 44be
00000380: 2e7e a03e f9cb 2bbe d611 b03e 3d68 d83e
00000390: 8bd0 273e 08cc 00bf d2b3 6a3f c7f8 7abc
000003a0: 0bf8 3cbf d728 29be 5a5d 2dbf 1b7e a6bd
000003b0: 6c8e 6abe 66c6 1a3f 9de1 96be 2c0f d4be
000003c0: 362c f63e 11fa 483b 921f 1a3e 92bf 63be
000003d0: cf31 96bd 11f6 8ebd 0b8b 4b3e e611 9d3e
000003e0: 97a6 ddbe d72e 74be 559d 22be c678 0f3f
000003f0: ba6e 04be 7dcf e2bb 6bd1 0b3e 2255 b83c

actor.2.bias f4 [64]
0.1845964 -0.060845107 -0.003677636 0.08931499 -0.00094131107 -0.05723845 -0.06762823 -0.18322602
-0.21262935 0.0031195285 -0.0041004075 -0.1441089 -0.07488873 0.014027258 -0.030495122 -0.03871277
0.036730494 0.07652147 0.101139344 0.075076535 0.058097765 0.14092097 -0.0031616185 -0.025110412
-0.101908825 -0.050610412 0.10121934 0.10880931 0.067847356 0.0612098 0.06519814 -0.3098909
0.051464193 0.01513352 0.13318677 0.14251287 -0.1831165 0.14203437 -0.16992934 -0.15153544
0.00069230207 0.07303352 0.0035182002 -0.08798473 0.18410197 -0.0057996223 0.03040762 0.05460453
0.01624037 -0.11368047 -0.140388 -0.035189427 -0.020720562 0.009432296 -0.11364262 0.17333716
0.08994489 0.122942634 -0.051277805 0.05068858 -0.012916112 -0.05008076 -0.074274346 -0.041217726
00000000: d706 3d3e b838 79bd 7e04 71bb c7ea b63d
00000010: 51c2 76ba dd72 6abd ab80 8abd 9a9f 3bbe
00000020: 82bb 59be 0171 4c3b b65c 86bb 4991 13be
00000030: 435f 99bd 96d2 653c e8d0 f9bc 4891 1ebd
00000040: b772 163d 4ab7 9c3d 2522 cf3d bac1 993d
00000050: ecf7 6d3d 964d 103e 2833 4fbb 5ab4 cdbc
00000060: 93b5 d0bd dd4c 4fbd 164c cf3d 6ad7 de3d
00000070: 8ef3 8a3d 21b7 7a3d 9a86 853d 05aa 9ebe
00000080: 1ecc 523d 95f2 773c 1d62 083e e5ee 113e
00000090: e482 3bbe 7571 113e f501 2ebe 1b2c 1bbe
000000a0: 9b7b 353a 9992 953d 9b91 663b 5731 b4bd
000000b0: 3a85 3c3e c20a bebb 6719 f93c 00a9 5f3d
000000c0: 860a 853c 4ed1 e8bd dfc1 0fbe ca22 10bd
000000d0: 2bbe a9bc eb89 1a3c 76bd e8bd 4c7f 313e
000000e0: 0735 b83d 59c9 fb3d ad08 52bd d49e 4f3d
000000f0: 1a9e 53bc 7c21 4dbd 261d 98bd ebd3 28bd

actor.4.weight f4 [7, 64]
-0.58327246 0.34505522 -1.0194398 0.6575165 -0.9586821 -0.54578185 -0.8301611 0.17936794
-0.37401536 -0.727729 -1.0514013 -0.52975315 1.4410784 0.94584674 -0.524313 0.3656924
-0.20263708 0.6192828 -0.057887923 -0.035464387 -1.2974286 0.9121204 0.18000393 -1.3209689
-0.13240714 -0.79721624 -0.06752061 0.23903543 -0.15776968 -0.085450865 -0.22455502 0.28213772
0.84617335 0.12233652 -0.7315949 0.3691125 -1.1111 -0.0025933909 -0.2753353 -0.80428904
0.7900327 0.4558126 -0.79324263 0.46218148 0.2701376 1.139669 0.4296354 1.1371657
-0.3623546 -0.42603502 -0.8381592 -0.28818753 -1.4027073 0.8042199 -0.7221553 1.109217
0.31404856 0.26077348 0.41310465 0.45554033 -0.8940163 -0.33519152 -0.33261448 -0.93357414
-1.0797218 -0.44840753 -0.41154337 -0.518968 -1.3209248 -0.75601214 0.937991 1.2735965
0.80821973 0.51871276 -0.31254053 1.9028234 0.8549999 0.8580992 -0.1946836 1.6404487
-0.47767392 -0.13327563 0.28481093 0.8114421 -0.63623023 0.33200386 0.3570323 1.7413906
1.1693655 -0.0488363 -0.1559952 -2.6244328 0.29145175 -0.02557287 1.1174545 1.60352
0.39731014 0.8399224 -0.35988486 0.30084848 3.2008808 1.2415769 1.0440321 0.22687894
1.0341853 0.90722215 0.25084367 1.2442921 0.40815696 0.5719577 -0.38967583 -0.39829126
-1.2033874 -0.6379151 -0.30390143 -0.40372404 -0.08476067 1.8284327 0.7272835 -0.7327417
0.41830802 0.13065979 -0.3601505 1.0091412 -0.86263573 -0.9649135 2.1882517 -0.07580957
0.90818083 1.118891 -1.8754148 0.45932123 0.94165915 -1.5201377 -0.2927961 -0.2937776
-0.54650146 -0.09391575 1.3787347 -0.5106138 1.0835587 0.94044435 -0.8793057 -0.3076801
0.91582996 0.23871157 -0.13709708 1.5357078 -1.7132019 0.900556 -0.8786572 -0.3093593
-0.4474954 -0.5395394 -2.2544503 0.91530883 0.51849717 0.112479374 -0.67584753 -0.5578397
-1.2900038 -0.16235586 -0.8612537 -1.6490763 -0.42388323 -0.14624102 -0.8967729 -0.4333368
-0.049574982 1.6045724 -1.9582523 0.6529183 -0.42806366 1.5449303 1.5916181 -1.3804263
-1.4932896 0.9105037 -1.1571227 -0.77278924 -1.0295979 0.5259404 -0.77084136 0.52481127
-1.741741 1.0114286 -1.070077 -0.45141503 0.67858857 1.7220596 -1.068794 -0.32642573
0.4904944 -0.38169822 3.5286531 0.1676262 -1.3399242 3.7147608 0.6071726 -0.071916714
0.83355767 1.1512866 -1.9396573 0.005185222 -2.7547123 -3.0639002 0.80771583 -0.29924923
-1.0940548 -0.8361953 -0.15959576 -3.057503 3.8138037 0.14264111 -0.3394728 -0.5549404
-0.19340579 -0.15862677 2.834246 0.1354707 -0.76506597 1.223146 -0.1935393 -0.42529857
1.3550545 0.32759047 2.3557048 1.4290332 -0.5489701 -0.42864263 -0.03464585 0.42000383
-0.28347468 -3.7956767 2.4257522 -2.6286716 0.7120845 -4.021997 -1.6916307 2.148126
2.4437382 -1.7925651 2.6146235 1.5079364 3.2984486 -2.2889457 1.2718124 -0.37620553
2.3488443 -0.648866 2.247435 -0.5728843 -0.80800503 -2.5130892 -0.09124979 0.77048534
00000000: 5851 15bf 14ab b03e 017d 82bf 0053 283f
00000010: 316c 75bf 5cb8 0bbf 7085 54bf 3bac 373e
00000020: f17e bfbe 734c 3abf 5194 86bf e79d 07bf
00000030: 4275 b83f 0323 723f 6039 06bf 093c bb3e
00000040: 1880 4fbe 5189 1e3f e31b 6dbd 1b43 11bd
00000050: 2412 a6bf b980 693f f352 383e 8215 a9bf
00000060: bd95 07be 5d16 4cbf 3f48 8abd b4c5 743e
00000070: 608e 21be dd00 afbd c0f1 65be 5b74 903e
00000080: d19e 583f 928b fa3d ce49 3bbf 50fc bc3e
00000090: 8638 8ebf e1f5 29bb c0f8 8cbe e3e5 4dbf
000000a0: 953f 4a3f 4560 e93e f311 4bbf 0da3 ec3e
000000b0: 7a4f 8a3e ace0 913f 2cf9 db3e a58e 913f
000000c0: 8b86 b9be 4321 dabe 9a91 56bf 518d 93be
000000d0: ea8b b3bf 5be1 4d3f 2bdf 38bf d3fa 8d3f
000000e0: f9ca a03e 1a84 853e 7482 d33e 953c e93e
000000f0: 41de 64bf 399e abbe 724c aabe b7fe 6ebf
00000100: 5334 8abf ac95 e5be d0b5 d2be 16db 04bf
00000110: 1014 a9bf 038a 41bf 2e20 703f 3605 a33f
00000120: 7de7 4e3f 5cca 043f 5005 a0be b88f f33f
00000130: 46e1 5a3f 64ac 5b3f 235b 47be 39fa d13f
00000140: ad91 f4be 6879 08be bdd2 913e abba 4f3f
00000150: fcdf 22bf 69fc a93e f0cc b63e e3e5 de3f
00000160: c5ad 953f 9208 48bd 35bd 1fbe b5f6 27c0
00000170: 2a39 953e 327e d1bc c008 8f3f 2540 cd3f
00000180: 3c6c cb3e 2805 573f d442 b8be d008 9a3e
00000190: 3bdb 4c40 feeb 9e3f d8a2 853f f452 683e
000001a0: 2f60 843f b63f 683f 956e 803e f744 9f3f
000001b0: f3f9 d03e d26b 123f 9783 c7be d5ec cbbe
000001c0: 9908 9abf 674e 23bf f898 9bbe ebb4 cebe
000001d0: 0197 adbd 150a ea3f 402f 3a3f f694 3bbf
000001e0: 782c d63e aecb 053e a565 b8be 8a2b 813f
000001f0: b2d5 5cbf 9204 77bf 510c 0c40 0c42 9bbd
00000200: 8a7e 683f d237 8f3f 980d f0bf 272c eb3e
00000210: 9310 713f df93 c2bf 5fe9 95be 056a 96be
00000220: 85e7 0bbf e756 c0bd 617a b03f 96b7 02bf
00000230: 0db2 8a3f f6c0 703f 2e1a 61bf 3f88 9dbe
00000240: d573 6a3f ce70 743e 2d63 0cbe 1392 c43f
00000250: 334a dbbf d78a 663f aeef 60bf 5864 9ebe
00000260: 1e1e e5be 411f 0abf ea48 10c0 ae51 6a3f
00000270: 3bbc 043f 965b e63d 5804 2dbf 95ce 0ebf
00000280: d81e a5bf 9d40 26be 1f7b 5cbf ef14 d3bf
00000290: 3907 d9be 35c0 15be e992 65bf 52de ddbe
000002a0: 230f 4bbd a162 cd3f 03a8 fabf a725 273f
000002b0: 292b dbbe 47c0 c53f 24ba cb3f cfb1 b0bf
000002c0: 1d24 bfbf c516 693f 991c 94bf 84d5 45bf
000002d0: ddc9 83bf 08a4 063f dc55 45bf 085a 063f
000002e0: 5ef1 debf 7e76 813f 48f8 88bf df1f e7be
000002f0: fbb7 2d3f 736c dc3f 3ece 88bf 4621 a7be
00000300: 1522 fb3e f36d c3be 74d5 6140 34a6 2b3e
00000310: a382 abbf a4be 6d40 aa6f 1b3f 1249 93bd
00000320: 0964 553f 5c5d 933f b146 f8bf cbe8 a93b
00000330: 354d 30c0 f116 44c0 77c6 4e3f 3237 99be
00000340: fd09 8cbf e510 56bf 126d 23be 21ae 43c0
00000350: 5c15 7440 8310 123e 61cf adbe 9310 0ebf
00000360: 2b0c 46be 0e6f 22be 4964 3540 d5b8 0a3e
00000370: 5ddb 43bf 0c90 9c3f 2b2f 46be bcc0 d9be
00000380: 6d72 ad3f f0b9 a73e dec3 1640 8fea b63f
00000390: 4e89 0cbf 0c77 dbbe cfe8 0dbd be0a d73e
000003a0: 9823 91be 5eec 72c0 863f 1b40 283c 28c0
000003b0: 2b4b 363f 33b4 80c0 5b87 d8bf e57a 0940
000003c0: 3566 1c40 c672 e5bf fe55 2740 0f04 c13f
000003d0: c819 5340 167e 12c0 c0ca a23f 039e c0be
000003e0: 7753 1640 151c 26bf fad5 0f40 8ca8 12bf
000003f0: 6bd9 4ebf 74d6 20c0 2be1 babd 873e 453f

actor.4.bias f4 [7]
0.73967683 0.16368362 0.74236965 -0.45692062 -0.3987561 0.7680653 0.40295547
00000000: 765b 3d3f ae9c 273e f00b 3e3f 80f1 e9be
00000010: c229 ccbe ed9f 443f 2e50 ce3e

critic.0.weight f4 [64, 16]
-0.07495195 -0.05467813 -0.13289931 -0.00045414528 -0.18041049 -0.42214832 -0.09323617 0.14668387
-0.25094694 0.3308635 -0.079899676 0.21608867 0.15328391 -0.09935066 -0.63095134 -1.1219707
-0.55618906 0.1811121 0.31010863 -0.17519596 -0.0153873265 0.57897407 -0.2330298 0.059022073
-0.014915674 0.30795062 0.06476436 -0.110801905 -0.006420583 -0.19791181 0.68582547 -0.20841889
0.038709216 -0.014320056 -0.06940886 -0.004420545 -0.17117457 -0.21401317 -0.13173495 -0.12987104
0.2294806 -0.04667959 -0.07806752 0.11232515 -0.0072239353 -0.2971494 -0.99201375 0.02270601
-0.4104781 0.5968866 0.149402 -0.6339232 0.15180424 0.74863595 0.11218863 -0.11592391
0.19031471 0.11596365 0.13527519 -0.13453023 0.28920043 0.093080364 0.71263206 0.64907
0.34331468 0.09703321 0.21563081 0.19749697 0.025374137 -0.2650805 0.053822014 0.14545564
-0.2766417 -0.24126856 -0.22055209 0.15019971 0.07456727 -0.2193409 0.05834451 -0.1726464
0.08043011 0.3344345 0.13581292 0.052651767 0.055861074 0.20604187 0.09994385 -0.19083034
-0.28584275 -0.273214 -0.28004524 0.066120215 0.04966145 0.072259285 -0.5161956 -0.23669733
0.7347784 0.19657579 0.123087645 0.4115385 -0.26503327 -0.2064934 0.32952097 -0.0025034237
0.026231853 -0.06898332 0.091664344 0.3535022 0.16119085 -0.14570892 -0.5124622 0.32298085
-0.645963 0.2747232 0.09109141 -0.23726042 -0.056818858 0.23085411 -0.20982842 -0.16965155
-0.12748486 0.2859989 -0.0799822 -0.11004775 -0.1083585 0.13040541 1.4290445 0.29576012
-0.32240304 0.19653974 0.46583447 -0.058854584 -0.06502314 0.3846624 0.038824707 0.22188413
0.08415789 0.0072838888 -0.1359918 -0.08074865 0.06155122 0.08554538 0.6807126 -0.10715963
0.1215825 0.20445897 0.2078221 0.0016899857 -0.06958943 0.4178114 0.30084163 0.038220897
-0.064802684 -0.07325853 -0.20001239 -0.01022076 0.0733206 0.21493302 -0.98486763 -0.043330245
0.12602851 0.057063073 0.13711116 -0.172411 0.12303826 -0.1159268 -0.027721912 0.24709865
-0.09196019 -0.07481435 -0.2133494 -0.22589514 -0.17013776 0.033132523 -0.02388081 0.0056580603
-0.57139856 -0.010526704 0.21212736 0.13698056 0.011503875 0.1192562 0.04794195 0.2638821
0.37845477 0.45938447 0.03440124 -0.10386766 -0.073417656 0.010928446 1.4373262 0.7452484
0.20795028 -0.07115584 0.09456737 0.08674045 -0.29483557 0.008082171 -0.13638692 0.047726914
-0.24169856 0.016461983 -0.2524615 -0.18845527 0.07885573 0.044169854 0.09154588 -0.22590525
-0.46674895 0.36473772 -0.0041039726 0.17971373 0.12224992 0.08763058 0.22664668 -0.046933584
0.15520148 -0.1125612 -0.067445405 -0.18421233 0.12930392 -0.04305778 0.58099604 0.7919192
-0.113245755 -0.119309604 0.1825341 -0.21505824 0.119850636 0.24456885 0.051871657 -0.13187799
-0.20828134 0.029620558 -0.19071546 -0.043026417 -0.11234096 -0.19617027 0.019582182 0.08681041
0.3029419 0.13185719 -0.24155484 -0.012183631 0.1504613 0.28900412 0.17887464 0.18234606
0.25639194 -0.30930057 0.02004966 0.3900199 0.076016665 -0.11701512 1.2171246 1.6628278
00000000: 6880 99bd 2df6 5fbd c216 08be 591a eeb9
00000010: 87bd 38be d323 d8be 9bf2 bebd 4c34 163e
00000020: 1e7c 80be f166 a93e 71a2 a3bd 5946 5d3e
00000030: 75f6 1c3e 5c78 cbbd 0786 21bf bc9c 8fbf
00000040: 6862 0ebf 7375 393e 8fc6 9e3e 9266 33be
00000050: 201b 7cbc a537 143f 5d9f 6ebe 21c1 713d
00000060: df60 74bc b4ab 9d3e 2da3 843d 1cec e2bd
00000070: c163 d2bb 65a9 4abe 4292 2f3f c36b 55be
00000080: 8e8d 1e3d ab9e 6abc 3b26 8ebd 38da 90bb
00000090: 6348 2fbe 4526 5bbe 87e5 06be eafc 04be
000000a0: f6fc 6a3e 1933 3fbd dde1 9fbd ba0a e63d
000000b0: c3b6 ecbb f723 98be 9df4 7dbf f401 ba3c
000000c0: 2f2a d2be 8fcd 183f d6fc 183e ca48 22bf
000000d0: 9272 1b3e 9ba6 3f3f 27c3 e53d 8469 edbd
000000e0: dce1 423e 5a7e ed3d 9485 0a3e 4bc2 09be
000000f0: 1412 943e eba0 be3d 0e6f 363f 7429 263f
00000100: f1c6 af3e 59b9 c63d 53ce 5c3e a53c 4a3e
00000110: 6cdd cf3c a2b8 87be 7974 5c3d 53f2 143e
00000120: fba3 8dbe 1b0f 77be 68d8 61be f4cd 193e
00000130: bab6 983d e79a 60be a7fa 6e3d 38ca 30be
00000140: 8bb8 a43d 003b ab3e 8b12 0b3e 61a9 573d
00000150: 95ce 643d a4fc 523e 5caf cc3d 0769 43be
00000160: fb59 92be b5e2 8bbe 1762 8fbe 096a 873d
00000170: ce69 4b3d adfc 933d 6525 04bf c960 72be
00000180: 701a 3c3f 2a4b 493e 6015 fc3d 2db5 d23e
00000190: 71b2 87be 0173 53be f9b6 a83e 7b10 24bb
000001a0: 2fe4 d63c 2047 8dbd 84ba bb3d 3efe b43e
000001b0: 370f 253e b834 15be b930 03bf bf5d a53e
000001c0: d55d 25bf 85a8 8c3e 228e ba3d 65f4 72be
000001d0: e4ba 68bd 0565 6c3e 43dd 56be 23b9 2dbe
000001e0: 648b 02be 736e 923e b5cd a3bd b760 e1bd
000001f0: 10eb ddbd ff88 053e eeea b63f df6d 973e
00000200: 0312 a5be b741 493e db81 ee3e 8111 71bd
00000210: da2a 85bd 78f2 c43e a806 1f3d 9835 633e
00000220: f95a ac3d b0ad ee3b 6f41 0bbe 8c5f a5bd
00000230: 221d 7c3d 6b32 af3d 2e43 2e3f 8276 dbbd
00000240: 3f00 f93d b15d 513e 51cf 543e 8382 dd3a
00000250: e784 8ebd 60eb d53e ea07 9a3e 848d 1c3d
00000260: 45b7 84bd 9108 96bd 0cd0 4cbe f974 27bc
00000270: 1c29 963d 6717 5c3e 4920 7cbf 0e7b 31bd
00000280: 9e0d 013e f8ba 693d de66 0c3e 828c 30be
00000290: 7cfb fb3d 086b edbd 1019 e3bc 6e07 7d3e
000002a0: a055 bcbd 4438 99bd 4478 5abe 0e51 67be
000002b0: 9838 2ebe f8b5 073d b0a1 c3bc 4067 b93b
000002c0: 2d47 12bf 3278 2cbc ea37 593e a244 0c3e
000002d0: c07a 3c3c 983c f43d c75e 443d 8e1b 873e
000002e0: d3c4 c13e 7134 eb3e 51e8 0c3d 91b8 d4bd
000002f0: ff5b 96bd 3a0d 333c 4efa b73f 99c8 3e3f
00000300: ebf0 543e 27ba 91bd 8aac c13d faa4 b13d
00000310: b0f4 96be 156b 043c 03a9 0bbe 4c7d 433d
00000320: d47f 77be 48db 863c a242 81be 6bfa 40be
00000330: 1d7f a13d 73eb 343d 687c bb3d b553 67be
00000340: b8f9 eebe e7be ba3e 9e7a 86bb e006 383e
00000350: 2b5e fa3d a977 b33d 1116 683e 6e3d 40bd
00000360: 23ed 1e3e 7d86 e6bd d120 8abd 28a2 3cbe
00000370: 3f68 043e 5b5d 30bd 28bc 143f 37bb 4a3f
00000380: 64ed e7bd 9858 f4bd 38ea 3a3e 3a38 5cbe
00000390: 4074 f53d 4270 7a3e 6077 543d 060b 07be
000003a0: b447 55be d0a6 f23c ea4a 43be 783c 30bd
000003b0: 0413 e6bd dce0 48be d06a a03c a8c9 b13d
000003c0: 331b 9b3e 9205 073e 275a 77be da9d 47bc
000003d0: 8712 1a3e 59f8 933e ea2a 373e edb8 3a3e
000003e0: ce45 833e a55c 9ebe 2f3f a43c b0b0 c73e
000003f0: a0ae 9b3d a0a5 efbd bdca 9b3f 8bd7 d43f

critic.0.bias f4 [64]
-0.07399266 -0.064579725 0.28307474 -0.17740144 -0.046980124 0.06875318 0.17456053 -0.07664359
-0.21325375 0.16377693 0.04354438 0.2582532 -0.20296925 0.42120293 0.10788506 0.18303758
-0.18988883 -0.054246783 -0.34827912 0.19459432 -0.11437972 0.1212733 -0.011451265 -0.14605136
-0.24296108 0.021092325 -0.15316764 0.10246704 0.10066223 0.1930857 -0.25881696 0.11596736
-0.10376926 0.16566932 0.27832243 0.050878115 -0.01765422 -0.20121175 -0.49638796 -0.15214865
0.094940305 0.018304925 -0.11506244 0.11895561 -0.17340681 -0.0853807 0.20564145 0.052518286
-0.59206015 0.21685335 -0.32134005 -0.021061212 0.21973169 -0.048026383 0.39293572 -0.17921217
-0.23460424 -0.12114369 -0.21938403 0.12698752 0.18931282 0.1499125 0.07883194 -0.015844643
00000000: 7789 97bd 6042 84bd 2cef 903e b9a8 35be
00000010: 3b6e 40bd 78ce 8c3d ffbf 323e 51f7 9cbd
00000020: 315f 5abe 24b5 273e 985b 323d c339 843e
00000030: 2cd7 4fbe e9a7 d73e d8f2 dc3d 346e 3b3e
00000040: 3872 42be e031 5ebd a451 b2be bc43 473e
00000050: ea3f eabd 235e f83d 169e 3bbc 7d8e 15be
00000060: caca 78be d0c9 ac3c fad7 1cbe 3dda d13d
00000070: 0028 ce3d 42b8 453e a883 84be 4c80 ed3d
00000080: fa84 d4bd 38a5 293e 4780 8e3e 9265 503d
00000090: 959f 90bc 740a 4ebe 9026 febe dbcc 1bbe
000000a0: 1070 c23d 36f4 953c dba5 ebbd 009f f33d
000000b0: 8e91 31be 14dc aebd ac93 523e 6a1d 573d
000000c0: 4191 17bf ce0e 5e3e af86 a4be 9088 acbc
000000d0: 5801 613e 50b7 44bd df2e c93e 6583 37be
000000e0: 183c 70be 2f1a f8bd 35a6 60be 0409 023e
000000f0: 38db 413e aa82 193e a472 a13d a0cc 81bc

critic.2.weight f4 [64, 64]
-0.4286958 0.27481 0.699768 -1.5634664 0.435378 0.031291176 1.696818 0.1802904
0.16268504 -0.23323627 -0.013991176 0.6380952 0.27538708 0.08344181 0.13049038 0.32841733
-0.80998534 -0.08899995 -0.7694777 0.09291506 -0.008588925 -1.3354185 0.3080456 0.1701687
0.023741834 0.007627993 -0.061242815 -0.32033002 0.11707561 -0.07491871 -0.075600885 0.12883985
-0.03994989 -0.081691846 0.5030879 -0.08443147 0.22446904 0.062206082 -0.22164372 -0.5688626
-0.14113446 -0.098208934 0.64999354 -0.07602378 -0.19363151 -0.00313963 -0.07844815 -0.07495102
0.4584168 0.1381639 0.029424947 -0.13215998 1.072587 0.08612261 0.6701759 -0.2111872
-1.6297446 -0.14865655 0.14476253 -0.27214134 -1.569167 0.07977939 -0.05550136 0.013804793
0.016003644 -1.6138465 2.3493063 0.9810612 0.21631515 0.27480674 -0.442984 -0.07396638
0.85966563 -0.097086646 0.04632064 0.2774989 0.08805991 -0.28030446 0.016570004 0.7039508
-0.69556624 0.08725948 -0.69753915 -0.2099263 0.25286406 0.1522329 -1.3520385 0.82405055
0.20657635 -0.06629827 -0.23094772 -1.337108 0.14927189 -0.20969325 -0.065830655 0.0029202022
0.032501098 -0.116682686 1.2518977 -0.12972797 0.11924954 -0.004445506 -0.123639025 -0.029293932
-0.09137819 -0.1049815 -0.099322334 -0.027713694 -0.08414084 0.18692914 -0.08254011 -0.036625955
-1.4152846 0.11426035 0.23665942 -0.06515761 -0.705211 0.11508451 -0.32478338 0.47427198
0.07246976 1.1613964 0.23531282 0.39161065 -0.71476537 -0.20946208 0.16221195 0.044537358
-0.9004033 0.56376225 0.96347505 1.076039 0.10827513 -0.21893841 0.60272145 1.2752976
-0.68085444 -1.031256 -0.10800289 0.06343224 -0.1160081 1.0058887 0.03301462 0.6589281
0.9601243 0.013514261 0.74335355 -0.060234495 0.0738133 1.1193218 0.8130565 1.4423101
-0.07026776 -0.041861683 0.025368089 -0.5528083 -0.07605092 0.115420066 0.056917846 0.019943798
-0.024816124 -0.10596812 -0.76529604 0.046741154 -0.7295988 -0.09121529 0.96792006 -0.28882942
-0.10746423 0.18610153 0.04540175 0.06418752 0.17422757 0.06714244 -0.058445156 -0.02242571
-0.3623941 0.10505677 0.067525074 -0.006419234 -0.33692744 0.06706053 -0.18291701 0.0029189698
-0.40996507 0.768855 0.26569685 0.43876246 -0.74955094 -0.04243546 -0.13629127 -0.053891536
-0.5243851 0.65779316 -0.6908666 -0.09812892 -0.56944746 0.2973324 -0.58478373 -0.38476473
-0.76727104 0.30094063 0.002204409 -1.191346 0.030247899 -0.54253113 0.18057576 -1.59718
-0.566501 -0.007839571 -0.99206054 -0.21050619 0.013099658 -0.08292951 -0.5028472 1.4289984
0.13805975 0.009365066 -0.05893972 1.7438587 0.058871727 -0.1545149 -0.13899979 -0.001585064
0.05131973 0.05467557 0.49062037 0.0022075467 1.1622791 -0.15839404 0.8637062 0.39490238
-0.17942433 -0.09129382 -0.21454223 -0.02006709 -0.13989745 -0.008695154 -0.04328346 0.028331809
0.48771048 0.17950593 -0.045674596 -0.08350523 1.017324 0.122224085 -0.24403323 0.882099
0.74726874 1.4584973 -0.011164546 -0.11113373 -0.43271008 -0.055228006 0.07023361 0.1902106
00000000: 047e dbbe e5b3 8c3e ff23 333f ab1f c8bf
00000010: dde9 de3e 2d2b 003d 5531 d93f 0c9e 383e
00000020: e896 263e 7dd5 6ebe 3f3b 65bc 355a 233f
00000030: 89ff 8c3e 8ae3 aa3d 459f 053e 5126 a83e
00000040: 335b 4fbf 9b45 b6bd 7efc 44bf 404a be3d
00000050: 90b8 0cbc feee aabf 27b8 9d3e b440 2e3e
00000060: 3c7e c23c 3ef4 f93b bfd9 7abd 4c02 a4be
00000070: 56c5 ef3d fb6e 99bd a3d4 9abd 98ee 033e
00000080: 7fa2 23bd 0e4e a7bd 5eca 003f 68ea acbd
00000090: 36db 653e cecb 7e3d 92f6 62be fba0 11bf
000000a0: 8d85 10be c421 c9bd fa65 263f 5bb2 9bbd
000000b0: 5747 46be 40c2 4dbb 6ca9 a0bd ec7f 99bd
000000c0: 9bb5 ea3e d67a 0d3e 960c f13c f254 07be
000000d0: 884a 893f 0d61 b03d a690 2b3f 7541 58be
000000e0: 799b d0bf 6c39 18be a13c 143e 1c56 8bbe
000000f0: 77da c8bf 6063 a33d 6555 63bd 802d 623c
00000100: 131a 833c 8692 cebf 095b 1640 d426 7b3f
00000110: b881 5d3e 78b3 8c3e cdce e2be af7b 97bd
00000120: 0c13 5c3f 5dd5 c6bd b6ba 3d3d 5614 8e3e
00000130: c158 b43d 1184 8fbe d1bd 873c 1f36 343f
00000140: a110 32bf 19b5 b23d ed91 32bf ecf6 56be
00000150: 6677 813e f1e2 1b3e 990f adbf faf4 523f
00000160: c088 533e 63c7 87bd 8f7d 6cbe 5b26 abbf
00000170: bbda 183e d4b9 56be 39d2 86bd dd60 3f3b
00000180: df1f 053d 55f7 eebd 2f3e a03f 69d7 04be
00000190: 1a39 f43d 9bab 91bb 7536 fdbd d4f9 efbc
000001a0: 7d24 bbbd 8a00 d7bd 8269 cbbd d407 e3bc
000001b0: 0852 acbd 5a6a 3f3e ca0a a9bd 1905 16bd
000001c0: 0c28 b5bf 5501 ea3d d956 723e 5a71 85bd
000001d0: b588 34bf 6db1 eb3d 024a a6be c7d3 f23e
000001e0: 076b 943d a3a8 943f d8f5 703e 3181 c83e
000001f0: ddfa 36bf 3a7d 56be e41a 263e ce6c 363d
00000200: d580 66bf b952 103f 4da6 763f a5bb 893f
00000210: 5abf dd3d 6431 60be f44b 1a3f f43c a33f
00000220: 7a4c 2ebf 3200 84bf 9f30 ddbd c3e8 813d
00000230: a895 edbd f6c0 803f 573a 073d 83af 283f
00000240: b5ca 753f eb6a 5d3c 6b4c 3e3f 72b8 76bd
00000250: 6d2b 973d f045 8f3f 7924 503f 9e9d b83f
00000260: 8be8 8fbd 2877 2bbd bdd0 cf3c d884 0dbf
00000270: 96c0 9bbd 5b61 ec3d b022 693d 2d61 a33c
00000280: 2f4b cbbc d005 d9bd 71ea 43bf a773 3f3d
00000290: fdc6 3abf 15cf babd 9cc9 773f 73e1 93be
000002a0: 3516 dcbd 6691 3e3e 2ff7 393d bf74 833d
000002b0: b668 323e fa81 893d 3064 6fbd 1fb6 b7bc
000002c0: b88b b9be 0128 d73d 964a 8a3d 7058 d2bb
000002d0: c181 acbe 0857 893d 994e 3bbe 304c 3f3b
000002e0: f1e6 d1be aed3 443f 6b09 883e 79a5 e03e
000002f0: 92e2 3fbf ced0 2dbd f08f 0bbe 5fbd 5cbd
00000300: 1a3e 06bf 2265 283f a2dc 30bf d1f7 c8bd
00000310: 4fc7 11bf f43b 983e 63b4 15bf e2ff c4be
00000320: e06b 44bf e414 9a3e d977 103b 077e 98bf
00000330: 71ca f73c 52e3 0abf dae8 383e 6570 ccbf
00000340: 3606 11bf 8b71 00bc aef7 7dbf ef8e 57be
00000350: f39f 563c f2d6 a9bd 98ba 00bf 6be9 b63f
00000360: 895f 0d3e ef6f 193c c76a 71bd c336 df3f
00000370: 7b23 713d 2739 1ebe f655 0ebe ecc1 cfba
00000380: a334 523d 7ef3 5f3d 9832 fb3e 7dac 103b
00000390: 90c5 943f 0c32 22be d91b 5d3f a530 ca3e
000003a0: 03bb 37be 41f8 babd f5b0 5bbe bd63 a4bc
000003b0: 4741 0fbe 1f76 0ebc ff49 31bd 1c18 e83c
000003c0: 30b5 f93e 67d0 373e 4915 3bbd ca04 abbd
000003d0: ac37 823f 9f50 fa3d d9e3 79be 3dd1 613f
000003e0: 014d 3f3f 0ab0 ba3f 80eb 36bc 159a e3bd
000003f0: 2d8c ddbe c336 62bd a4d6 8f3d 91c6 423e

critic.2.bias f4 [64]
0.042410582 -0.10038554 -0.03831051 -0.14952429 0.016112369 -0.020918787 -0.050248604 0.0043357015
0.087562405 0.17381403 0.11874897 -0.09195729 -0.035798613 -0.12746039 0.11141055 0.2711051
0.14566171 0.03590843 0.14857402 0.026556142 0.011673792 -0.03254692 -0.19665547 0.080642566
0.035832822 -0.15340112 0.03475252 0.05482686 -0.18708016 0.07995948 -0.21241501 -0.25013614
-0.08687159 -0.13713479 0.04533445 -0.08525796 0.10792973 0.1643887 0.090271495 -0.024376402
-0.00017888575 -0.15400082 0.052139573 -0.041780353 -0.11342555 0.27524474 0.08323256 -0.13980193
-0.04060272 0.15320264 0.19566317 -0.16171767 -0.14006999 -0.02087116 -0.112576604 0.12812215
-0.045987036 0.11829626 0.18558522 0.10277154 -0.16491377 0.102143325 -0.001227467 0.10215139
00000000: b8b6 2d3d ef96 cdbd 7beb 1cbd e51c 19be
00000010: 16fe 833c e05d abbc 7bd1 4dbd 8012 8e3b
00000020: eb53 b33d 4efc 313e a932 f33d 1b54 bcbd
00000030: 91a1 12bd fa84 02be 372b e43d 4ace 8a3e
00000040: 5828 153e b814 133d ca23 183e 448c d93c
00000050: 6f43 3f3c eb4f 05bd 0d60 49be ee27 a53d
00000060: 70c5 123d 2f15 1dbe a958 0e3d 2192 603d
00000070: f191 3fbe ccc1 a33d 5283 59be d811 80be
00000080: bbe9 b1bd 106d 0cbe 9eb0 393d ba9b aebd
00000090: 430a dd3d 8355 283e 43e0 b83d 05b1 c7bc
000000a0: 4793 3bb9 64b2 1dbe 4e90 553d e021 2bbd
000000b0: a84b e8bd e1ec 8c3e d575 aa3d 3d28 0fbe
000000c0: 0a4f 26bd 27e1 1c3e ed5b 483e 5199 25be
000000d0: 826e 0fbe fff9 aabc 908e e6bd 7432 033e
000000e0: e75c 3cbd 4f45 f23d 0d0a 3e3e e379 d23d
000000f0: 28df 28be 8530 d13d f5e2 a0ba bf34 d13d

critic.4.weight f4 [1, 64]
-0.017207092 -0.16191033 -0.013494039 -0.011405715 0.11138354 -0.21245167 0.13935855 0.11960314
0.040192597 0.003588702 -0.056927413 -0.085341886 0.16361341 -0.08177919 -0.030538866 0.09069264
-0.07388266 -0.05274933 0.09220856 -0.09461032 0.21770367 0.002933409 -0.06128579 0.027254913
-0.019408396 -0.15985186 0.04339952 -0.030471716 -0.019152455 0.2075934 0.094625324 0.026939914
-0.13321984 0.15744025 0.13779299 0.1054605 0.08854226 -0.18384145 0.110600084 0.10159173
-0.10091835 0.18445182 0.061704934 0.045735925 0.079824604 -0.20408836 -0.13181986 0.0104938755
-0.16358459 0.041307252 -0.13023372 0.10600164 0.094868325 0.026584245 0.16561563 -0.008993679
0.0554778 0.176741 -0.01573631 -0.11044544 0.053673856 -0.15552959 -0.12489135 -0.10995995
00000000: e3f5 8cbc d2cb 25be 1a16 5dbc 09df 3abc
00000010: 0e1d e43d ee8c 59be 02b4 0e3e 7ef2 f43d
00000020: fea0 243d 6e30 6b3b b82c 69bd bac7 aebd
00000030: 468a 273e d97b a7bd a52c fabc 10bd b93d
00000040: cb4f 97bd ae0f 58bd d7d7 bc3d 0ec3 c1bd
00000050: b6ed 5e3e 703e 403b cf06 7bbd b245 df3c
00000060: 5bfe 9ebc 35b0 23be b2c3 313d d29f f9bc
00000070: 9ce5 9cbc 5d93 543e ecca c13d 18b1 dc3c
00000080: c86a 08be 0438 213e 9b19 0d3e adfb d73d
00000090: a555 b53d ef40 3cbe 4c82 e23d 530f d03d
000000a0: 48ae cebd f0e0 3c3e 50be 7c3d 9855 3b3d
000000b0: 157b a33d 8afc 50be c9fb 06be 81ee 2b3c
000000c0: b882 27be cb31 293d fd5b 05be 6317 d93d
000000d0: 534a c23d 34c7 d93c 2597 293e 395a 13bc
000000e0: b13c 633d 98fb 343e 6fe9 80bc 3831 e2bd
000000f0: 1ed9 5b3d 2643 1fbe 09c7 ffbd af32 e1bd
