Model Results/ppoMSFT2021-09-011999.pth (torch, 48325 bytes, 11 tensors)

actor.0.weight f4 [64, 16]
000000 00 03 03 bf 30 8d 37 bf 62 ab 43 bf 7d b0 3c bf
       -0.5117645 -0.7169981 -0.76433384 -0.737068
000010 88 99 8d bf 9b 41 94 bf 53 b3 2c 3e 25 34 4f 3e
       -1.1062479 -1.1582521 0.16865282 0.20234735
000020 d4 de d9 bd 2e 59 e8 3d 15 05 3a 3e da b6 bd bc
       -0.10638204 0.11345135 0.18166001 -0.02315848
000030 cc b8 2c be 40 65 92 be a2 4d 6f bf 52 43 91 3b
       -0.1686737 -0.28592873 -0.93477833 0.004433074
000040 52 54 8c 3f 34 72 a1 3f 75 25 8b 3f ce 9e 33 bd
       1.0963233 1.2612977 1.0870806 -0.04385262
000050 e8 29 33 be 0e 80 40 bd f7 91 6f bd 1c 11 9a bd
       -0.17496455 -0.046997122 -0.058488812 -0.075227946
000060 66 67 f2 bd e8 d3 35 3d 91 3a c9 bc 24 a8 f8 3c
       -0.11836128 0.044391543 -0.02456406 0.030353613
000070 1d 6a 9d be 25 56 36 3d ae 6f 85 3e e3 62 bf bc
       -0.3074502 0.044515748 0.26061767 -0.023362583
000080 6f 42 e2 be c7 56 27 bf 25 6f 4e bf 33 f4 5e 3f
       -0.4419131 -0.65366787 -0.80638343 0.8709137
000090 07 1c 29 3f 98 e7 30 3f 56 34 64 39 20 80 11 be
       0.6605839 0.69103384 0.00021763271 -0.14209032
0000a0 29 30 2e 3e ec 58 03 bc 0f 0b d2 bd c1 6f 13 3e
       0.17010559 -0.008016806 -0.102560155 0.143981
0000b0 a5 c4 b1 be 05 31 9d 3e 2c 4b 32 3f f0 05 fb bd
       -0.3472034 0.3070146 0.69645953 -0.12256992
0000c0 5b dd 1f be dd 9b a5 be ae f9 0d bf a0 2c d6 be
       -0.15611784 -0.32345477 -0.55459106 -0.4183092
0000d0 b8 32 a9 be be 21 ae be 65 54 b4 3e b7 88 9b 3d
       -0.33046508 -0.34010118 0.35220638 0.07594436
0000e0 1d af 84 3e e8 5c 24 3e 61 c6 49 3d 03 22 03 3e
       0.2591485 0.16051066 0.049261454 0.12805943
0000f0 b4 d2 b8 3d 67 15 63 bd 79 6c 82 3e aa 7c 77 3d
       0.090245634 -0.055440333 0.25473383 0.060421623
000100 b4 c8 19 bf da e5 ad be 0a 91 27 be de 13 6c be
       -0.60071874 -0.33964425 -0.16363922 -0.23054454
000110 1a ea 83 bd b0 6a b8 be 46 b7 6b 3e 10 bc 1b 3e
       -0.06441136 -0.36018896 0.23019132 0.15208459
000120 15 fa b4 3e 61 11 0f bd d7 c9 5d 3e d8 03 2e bc
       0.35347047 -0.034928683 0.21659027 -0.010621034
000130 2a da 64 bd b0 66 a2 3e dc d4 9a 3e 6e 02 36 3e
       -0.05587212 0.3171897 0.30240524 0.17774364
000140 36 cf 33 3e 62 d2 2e 3e 84 62 4a 3e 04 94 1f 3e
       0.17559513 0.17072442 0.19764143 0.15583807
000150 10 a0 ef 3d 0e c8 3f be 42 6b 0e 3e 80 64 c0 3c
       0.117004514 -0.18728659 0.13908103 0.023485422
000160 40 71 98 bd 4c 5b 41 be 86 4a 1d be 9c 10 e5 bd
       -0.07443476 -0.18882483 -0.1536046 -0.111848086
000170 10 33 9c 3d 76 63 29 be e0 8f 5e 3c 48 66 74 3e
       0.07626927 -0.16541848 0.013584107 0.23867142
000180 27 1a e4 be d0 84 3b bf ca 28 f1 be e2 b3 29 be
       -0.44551203 -0.7324953 -0.47101432 -0.16572526
000190 a8 35 48 be d4 a6 33 be 16 28 81 3e 28 ea 28 3e
       -0.19551718 -0.17544109 0.25225896 0.16495574
0001a0 5b 1a c3 3d 04 de e8 bd c9 d5 9d bd 71 71 fe bd
       0.09526511 -0.11370471 -0.07706792 -0.12423981
0001b0 1e 8a b7 3d a5 9b bc 3e c2 62 10 3e d2 b1 54 3e
       0.08961891 0.36837497 0.14100173 0.20770958
0001c0 6c 52 37 3f ff d9 9b 3f 4d f9 a4 3f f8 90 44 3f
       0.7161014 1.2175902 1.288858 0.76783705
0001d0 59 df 1a 3f 2a a4 0e 3f 20 db 8b bd a6 14 46 be
       0.6049705 0.55719244 -0.06828904 -0.19343814
0001e0 2c ed 27 be 8c 53 2a 3e 51 62 bf 3d de bc 4b 3e
       -0.16399068 0.16633433 0.09344924 0.19896266
0001f0 10 0f a3 be 0f 81 1b 3e 16 54 98 bf 47 9d 13 3f
       -0.3184743 0.1518595 -1.1900661 0.5766186
000200 8d 39 02 3f 48 86 94 3e ba 9e 74 3e c0 cb 02 3f
       0.50869066 0.29008698 0.23888674 0.5109215
000210 b3 91 11 3f 57 84 0e 3f 62 1f b9 3e 51 bd b1 3d
       0.56862944 0.55670685 0.36156756 0.08678687
000220 84 f2 95 3e ba 1a 27 3e 46 03 67 3d d8 ed bd 3e
       0.29286587 0.16318789 0.056399606 0.37095523
000230 0c 51 a9 bd 31 ab 05 be f3 42 2f bd c3 4b dc bd
       -0.082674116 -0.13053586 -0.042788457 -0.10756638
000240 50 94 d2 be 09 88 0b bf 7a 88 85 be d3 4d 83 3c
       -0.41128778 -0.5450445 -0.26080686 0.01602832
000250 a7 c3 82 3e c2 b6 2f 3e 85 ac b7 3e a8 0d 39 3e
       0.25539896 0.1715956 0.3587381 0.18071616
000260 91 48 3a 3e ac dd 6d 3e f5 7b f9 3c 1e c2 71 3e
       0.18191744 0.23229092 0.030454615 0.23609206
000270 56 30 31 be af 54 2f be ae 91 c0 3e c5 b7 33 3f
       -0.17303595 -0.17122148 0.37611145 0.70202285
000280 50 1c 89 3f a2 ea 8a 3f 36 11 9e 3f 96 3f ee bd
       1.0711765 1.0852854 1.2349002 -0.11633222
000290 76 b0 e9 3e 05 2e b1 3e 27 cc a2 3e bb 11 66 3e
       0.45642442 0.34605423 0.3179638 0.22467701
0002a0 ad 01 98 3e 1a 01 35 3e b5 2c 96 3d 50 f0 3a 3e
       0.2968878 0.17676201 0.07332746 0.18255734
0002b0 7b 3a 5e bd c1 2d 9e be 2d 14 45 3f b6 85 09 3f
       -0.05425499 -0.30894282 0.7698391 0.5371965
0002c0 26 6f 86 bf 5d 0d 6e bf 71 51 69 bf 95 d1 91 bf
       -1.050267 -0.9298914 -0.91139895 -1.1392084
0002d0 78 1c a8 bf 1d 05 b6 bf 1e b3 32 3d b8 a8 f3 3d
       -1.3133688 -1.422031 0.04362785 0.11897415
0002e0 e7 06 6d ba 0c 76 5f 3e 63 41 10 be dc 89 06 be
       -0.0009041861 0.21822375 -0.14087443 -0.13138527
0002f0 90 96 94 3e 21 46 6f 3d 85 39 48 3e bb 34 45 3e
       0.2902112 0.05841649 0.19553192 0.19258396
000300 4b 16 04 bf 0b 8c 6c bf b8 e5 8e bf bd 24 8d bd
       -0.51596516 -0.9240119 -1.1163855 -0.06891773
000310 db 8e a3 be b4 25 c5 be 92 4b b3 bd f7 38 00 3e
       -0.31944928 -0.38505328 -0.08754648 0.1252173
000320 f0 04 7f be 7f 62 12 be f9 e0 57 be c9 f4 a9 bd
       -0.24904227 -0.14295386 -0.21081914 -0.08298642
000330 24 d7 ef 3d 03 27 9e be e3 4e f6 be b4 dd 85 be
       0.11710957 -0.3088914 -0.4810706 -0.2614571
000340 b6 a6 27 3e 96 cc 57 3e 1c 46 b6 bd 20 73 58 3e
       0.16372189 0.21074137 -0.08900091 0.21137667
000350 20 9f 13 be 9c 12 d8 bd b8 4a 94 bd 00 a4 d8 3a
       -0.1441617 -0.105504245 -0.07240814 0.0016528368
000360 f4 72 14 be 98 c7 71 3e 80 ac 8b bb 9e c7 04 3e
       -0.14496976 0.23611295 -0.004262507 0.12966773
000370 94 33 b0 3d ea c1 43 3e 58 9a e6 bd 4e 8a 16 3e
       0.08603588 0.19116941 -0.112599075 0.14701197
000380 c5 f4 89 bf cc 24 82 bf 25 61 1f bf c1 d8 1a 3e
       -1.0777823 -1.016748 -0.62257606 0.15121748
000390 fe db 95 3d 2d 3d 9f bd 94 22 50 3d df 44 9c be
       0.07317351 -0.0777534 0.050814226 -0.30521294
0003a0 5a c6 2d 3e c6 43 90 be 0d 81 16 be 1c ee e7 bd
       0.16970196 -0.28176707 -0.14697666 -0.11324713
0003b0 81 c3 38 be eb 91 5d 3e 56 48 5b 3d 78 35 c6 3e
       -0.18043329 0.21637695 0.05353578 0.38712668
0003c0 9b f7 7b 3e 70 ec 42 3f 39 6c f3 3e 3d 70 09 bf
       0.24606173 0.76142025 0.47543505 -0.5368689
0003d0 22 64 6e bf 19 1c aa be 06 ed 9f 3d ba 93 ae 3d
       -0.9312154 -0.33224562 0.078088805 0.0852427
0003e0 0f 65 67 3e e4 a1 9c 3e 35 3e d3 3d be d8 a8 3e
       0.22597145 0.30592263 0.103145994 0.3297786
0003f0 cb 77 74 3e fd c4 17 be b5 c9 53 be 5c 9d d6 be
       0.23873822 -0.14821239 -0.20682414 -0.4191693

actor.0.bias f4 [64]
000000 08 ff a7 3c 41 c0 84 bb 94 20 5a be b5 c9 c0 bd
       0.02050735 -0.0040512388 -0.2130149 -0.094134726
000010 d4 93 e6 bd 78 87 88 3d 63 8b 08 bd 25 9d 27 3e
       -0.11258665 0.066664636 -0.033336055 0.1636854
000020 16 f4 12 3e 47 ce af 3e c2 8c a3 3e ad eb 36 be
       0.14350924 0.34337065 0.31943327 -0.1786334
000030 a6 30 da 3d 28 b0 37 bd 80 e3 3a 3d b9 cc ee 3d
       0.1065381 -0.04484573 0.045627117 0.116601415
000040 ae 39 13 3d f4 89 79 be 2a 5c cd bd 2e 85 b0 bb
       0.03594368 -0.24369031 -0.100273445 -0.00538697
000050 e2 27 65 3e 92 2f b5 be bc 24 60 3e 17 88 de bd
       0.22378495 -0.35387856 0.21889013 -0.10865801
000060 da 4c 0f 3e 53 59 72 3e 3b ca 3f 3c 45 aa b8 bd
       0.1399416 0.23666887 0.01170593 -0.09016851
000070 cc b6 7f be b3 87 8a 3d 42 da 7a be c9 49 ae 3e
       -0.24972075 0.06764164 -0.24497321 0.3404067
000080 5a da 13 3c ea 05 61 be 24 fb 1c 3e 3f d0 29 3e
       0.009024227 -0.21974912 0.15330178 0.16583346
000090 55 6a 66 3e da d3 7d 3e 0d d3 6b 3d ec a8 fd bd
       0.225015 0.24787846 0.05757432 -0.12385735
0000a0 68 96 d3 3d 66 b9 08 bd 70 46 e5 3c ee dd 7c 3e
       0.10331422 -0.033379935 0.027987689 0.24694034
0000b0 58 06 10 3d cd 17 4b be 30 b6 63 3d 80 d8 24 bd
       0.0351623 -0.19833298 0.05559367 -0.040245533
0000c0 bd 50 ac be 39 be 63 3e 8f 31 b3 3e e1 67 93 3e
       -0.33655348 0.22240533 0.34998748 0.2879019
0000d0 9e f9 ed bd 98 32 96 3d 38 eb 3f 3e 17 c9 c4 bc
       -0.11619876 0.07333869 0.18742073 -0.024021668
0000e0 e2 92 0f 3e 11 dd 61 be 5c 2a 51 3e cd 37 03 3e
       0.14020875 -0.22056986 0.20426315 0.12814255
0000f0 c3 0b 17 3e 20 bc 0b be 5f c0 26 bd 2d da 84 3e
       0.1475058 -0.13645983 -0.040710803 0.25947705

actor.2.weight f4 [64, 64]
000000 12 61 d5 3e d0 bc 71 be 3d fa 21 be 44 f4 27 3d
       0.4167562 -0.23607183 -0.15818115 0.041004434
000010 db 00 0a 3e 8b 9a 08 be 6f da f4 be 1a 48 e1 be
       0.13476889 -0.13340203 -0.47822902 -0.44000322
000020 5c 5f e7 3e e2 5d c0 be a8 8d b0 bd 6a c8 1e bf
       0.4518994 -0.37571627 -0.08620769 -0.6202456
000030 18 8b a1 3e 0b 3b a0 3d 8e e4 bb be 2d 75 73 3e
       0.31551433 0.078237616 -0.3669781 0.23775168
000040 89 50 41 be 33 cb 32 be 8d 21 01 3f 3d 64 45 3e
       -0.18878378 -0.17460327 0.5044182 0.19276519
000050 15 65 b1 bd f0 9b 30 be 1a 5a c4 bc 2b d3 a8 3e
       -0.08661858 -0.17246985 -0.023968745 0.32973608
000060 54 84 22 3d 07 c3 64 3f 90 8c 4b be ac f6 f4 be
       0.03967698 0.8936009 -0.19877839 -0.47844446
000070 43 20 e4 bd a0 f2 80 bf c1 41 38 3f f0 87 23 3e
       -0.11138966 -1.0074043 0.7197533 0.15969825
000080 3a dd ab 3e 9e e7 f5 be fa 26 2a bc 02 de 3a be
       0.3356722 -0.48028272 -0.010385269 -0.18248752
000090 06 78 7a bc 63 b0 8b bd f9 60 98 bc fa 85 07 be
       -0.015287405 -0.068207525 -0.018600928 -0.13234702
0000a0 43 bf 3e 3e 73 72 b8 bd 3f 88 96 3d 69 0e 84 3d
       0.18627648 -0.090062045 0.07350206 0.06448061
0000b0 e6 73 22 be 12 b2 00 3e 63 87 97 bd bd bf 22 3e
       -0.15864524 0.12567928 -0.0739887 0.15893455
0000c0 ad ba 1c bf e3 84 a4 3e 56 9b e3 be 27 6b 94 be
       -0.61222345 0.32132635 -0.4445445 -0.28988
0000d0 41 d6 58 3d c7 6b 56 3e 38 9d 72 3d 6a 26 01 3f
       0.052938703 0.20939551 0.059231967 0.5044924
0000e0 fb 52 53 3e e1 df 67 be f3 11 00 3f 1d 5a 07 be
       0.20637123 -0.22643997 0.5002739 -0.13217969
0000f0 19 59 45 bf 09 7a 1d 3e aa df b8 3e 7a 62 83 bd
       -0.7708908 0.15378584 0.36108142 -0.06415267
000100 b5 bb f6 be ab 8f 2d 3e f9 f5 19 3f 1b 7e 6c 3e
       -0.48190084 0.16949336 0.6014095 0.2309498
000110 62 65 b7 3e 2f f0 7f 3d c3 93 7e bd 08 ee 54 bf
       0.35819536 0.062484916 -0.062152635 -0.83175707
000120 bd 0a a9 be b5 7f 6e 3e db e5 c1 3e b3 7b 86 3e
       -0.33016005 0.23290904 0.37870678 0.2626625
000130 2d eb c4 bd b7 e9 f5 3d 17 e8 62 bc fc bb e9 be
       -0.09615169 0.12007468 -0.01384928 -0.45651233
000140 b1 08 3c 3e 68 a9 39 3d d1 6f b1 bb 13 f2 4a 3f
       0.1836269 0.045327574 -0.005414941 0.79275626
000150 48 d0 e9 bd cc fc 75 be da e0 ec 3e e2 9a aa be
       -0.114166796 -0.24022216 0.46265298 -0.3332129
000160 ca 86 8e bc a3 bd cd 3e 64 a7 26 3e 2f 0f 4a 3d
       -0.017398257 0.40183744 0.16274792 0.049330886
000170 51 97 16 be 82 4b 4e 3d 65 46 7b be 2b b1 82 3e
       -0.1470616 0.05036498 -0.24538572 0.25525793
000180 0d 2c 81 3e 90 2c c0 bd a1 7c 07 bd 28 1a 27 bf
       0.2522892 -0.093834996 -0.03307784 -0.65274286
000190 2d ab b5 be d5 d4 16 be 68 47 d7 be c9 eb 3a bf
       -0.3548216 -0.14729626 -0.42046666 -0.7301603
0001a0 ab bb e3 3d 69 71 eb 3d d5 02 af 3d 13 15 94 3d
       0.11119779 0.11496241 0.08545462 0.07230582
0001b0 78 7d ef be f1 ae 40 3e 70 29 28 be 2c 9b e2 3d
       -0.46775413 0.18816735 -0.16422057 0.11064753
0001c0 d2 a7 71 be e0 55 79 be 3e 10 44 3d fc 29 df bc
       -0.23599175 -0.24349165 0.047867052 -0.0272417
0001d0 24 64 b1 be f5 09 82 be d5 fd f4 3b bb 2d 85 3f
       -0.34646714 -0.25398222 0.007476548 1.0404581
0001e0 5f 58 b2 be a7 12 da 3e 54 7c 74 3e e0 69 28 3f
       -0.34833047 0.42592356 0.23875552 0.6578655
0001f0 28 63 17 3e 4c 01 36 bd 9f ee 3e be 60 ea d7 bd
       0.14783919 -0.04443483 -0.18645714 -0.1054275
000200 2a ac 0c bf ee 8e 4a 3d 7e e4 3b 3f 3f 53 8e 3e
       -0.549502 0.049452715 0.73395526 0.27797887
000210 74 64 98 3e 08 38 a4 bd 5b a9 12 3f 4d aa 0c bf
       0.2976414 -0.080184996 0.57289666 -0.5494736
000220 f3 37 79 be 31 8c 02 3e 39 05 01 3f 76 15 6e be
       -0.24337749 0.12748791 0.50398594 -0.23250374
000230 e0 bf f0 be d5 a4 d8 bb af f3 f5 3e d8 b1 df be
       -0.4702139 -0.0066114464 0.48037478 -0.43690372
000240 66 9e 9b bd 19 ac 46 be 62 11 ee 3d 3b 6d 0f 3f
       -0.075985715 -0.19401588 0.11624409 0.5602605
000250 d0 e4 f5 bd 54 e3 cc be b8 26 37 3e a7 a7 88 be
       -0.12006533 -0.40017188 0.17885864 -0.2669041
000260 f3 07 79 3b a2 10 98 bd 4f 7f 85 3e ee 9f 8b 3e
       0.0037999123 -0.074250475 0.2607369 0.27270454
000270 45 17 93 bc cc 67 f0 3e 23 76 be be 80 4a 22 3e
       -0.017955432 0.4695419 -0.37199506 0.15848732
000280 6b e2 32 be bd df 1a 3e 8b 1a 0f be 15 bf f8 be
       -0.17469184 0.15124412 -0.13974969 -0.48583284
000290 60 2e 20 bf ab 04 85 bb 86 74 c2 be 6e 53 14 bf
       -0.6257076 -0.0040593944 -0.37979525 -0.57939804
0002a0 54 bd 60 3d 6e 16 e4 3e b2 a2 25 3e 1f 21 49 3e
       0.054868057 0.44548362 0.16175345 0.19641541
0002b0 8f 1b 01 bf 6a 01 2d 3d 7f bd 0c be 57 3b c4 3d
       -0.50432676 0.042237677 -0.13744162 0.09581631
0002c0 39 34 9c 3e 6c 72 c1 be d3 35 b5 bd 5c 2f 71 3e
       0.30508593 -0.3778261 -0.08848157 0.23553222
0002d0 33 ec 79 be 42 11 7c be fd 5b fe 3d 44 d6 48 3f
       -0.24406509 -0.24615958 0.12419889 0.78451943
0002e0 cb 2a a3 be f5 25 e9 3e 98 86 4c be 6e 25 50 3f
       -0.31868586 0.4553677 -0.19973218 0.81307113
0002f0 af 07 d4 3e a1 74 1e 3e 17 d2 4f 3c 8c 6b e9 bc
       0.41412112 0.15474178 0.012684367 -0.028493665
000300 e4 1a 30 bf 22 d7 47 bf 71 6e d5 3e d2 2e f4 3d
       -0.6879103 -0.7806264 0.41685823 0.11922993
000310 b6 d7 4b 3e 71 36 01 be 70 dd 94 3e 3f a5 b3 be
       0.19906506 -0.12618424 0.29075193 -0.3508701
000320 fb 77 c5 3e 64 1d 7d 3e dd 3c 9b 3e f2 a8 04 be
       0.385681 0.24718243 0.30319872 -0.12955073
000330 28 9c 8c 3e db cc 69 3d d7 41 00 3e 5a 6c 27 bf
       0.27462888 0.05708013 0.12525116 -0.65399706
000340 33 8d 4b 3e e6 86 a9 bd fe fc 8a bd c1 d9 50 be
       0.19878082 -0.08277683 -0.06786536 -0.20395567
000350 47 b2 a8 bd e8 f5 b0 be 14 2d fd 3b 0b 36 a4 3e
       -0.08237129 -0.34562612 0.007726321 0.32072482
000360 42 ef 28 3e af 48 5d bd de a3 ae 3d 81 33 0c be
       0.1649752 -0.054024395 0.08527349 -0.13691522
000370 27 09 06 be d8 06 0c 3f 09 a8 93 3e 0f cb da bd
       -0.13089429 0.5469794 0.28839138 -0.106832616
000380 49 f6 f0 bd df 17 d3 3c 31 2d 63 be a8 68 10 bf
       -0.11765725 0.025768219 -0.22185208 -0.5640969
000390 c6 95 d2 be b5 f6 47 bd 00 d8 d1 ba 2c 14 5c be
       -0.41129893 -0.048819263 -0.0016009808 -0.2149207
0003a0 44 03 7b 3e 70 80 bb 3d 3d b1 f9 3d b3 69 31 3e
       0.24512964 0.09155357 0.12192009 0.17325477
0003b0 35 76 06 bf 74 98 87 be 46 ab 5c be 3a fe db 3d
       -0.5252412 -0.264835 -0.2154971 0.10741849
0003c0 d4 35 76 bf cf 96 46 bd 81 b4 32 3e 72 90 7f 3e
       -0.96175885 -0.048483666 0.1745167 0.24957445
0003d0 cf b1 ed bd 87 9d 34 be 3c 05 5c 3e 37 44 89 3f
       -0.1160618 -0.17638217 0.21486372 1.0723943
0003e0 ba 3d bf be 85 06 3e 3d 94 60 53 be f5 b4 36 3e
       -0.3735178 0.046392936 -0.2064231 0.17842467
0003f0 80 8e 1b bf 2b c8 27 3e 16 ef 57 3d c6 f6 cf be
       -0.6076431 0.16384952 0.052718244 -0.4061796

actor.2.bias f4 [64]
000000 30 4e df 3c 2d 53 16 bd d2 59 3f 3e 47 cd cf 3b
       0.027258962 -0.036700416 0.18686607 0.0063416096
000010 19 96 69 3d 46 1a 20 3d 15 5a 08 be 24 21 91 bc
       0.05702791 0.039087556 -0.13315614 -0.017715998
000020 79 cd 6d 3e b4 1f de 3c 0f 9d d1 3d 2d 01 7f 3c
       0.23222913 0.027114727 0.10235035 0.015564245
000030 b8 45 a6 bd 9f 71 84 3d e9 c4 6e 3d e3 44 6e bb
       -0.081187665 0.06466984 0.058293257 -0.0036356978
000040 44 4e 35 3e 7c b4 48 be 55 da 37 3d ff f1 8d bd
       0.17705637 -0.196001 0.044885952 -0.06930923
000050 2f b4 3a 3e cb b4 b4 3d 2b 93 6c be e7 5c 92 3d
       0.18232797 0.08823546 -0.23103015 0.07146626
000060 44 8b 42 be 78 55 90 3d 8c 2b a9 bd 17 68 99 3d
       -0.18998438 0.07047552 -0.08260259 0.07490557
000070 20 a3 26 be 41 d7 94 3d 06 74 08 be 9c a8 90 3d
       -0.16273165 0.07267619 -0.1332551 0.0706341
000080 ff 4c 16 3e 3a c6 63 3d 23 0f e9 3d 56 cc 6a bc
       0.14677809 0.055608965 0.1137984 -0.014330944
000090 77 bb d1 3d 20 27 06 bc 6c 6e 50 be 96 14 98 bd
       0.10240834 -0.008188039 -0.20354623 -0.074258015
0000a0 9c cd 53 3e 18 24 fb bc 40 d7 bb bd c7 cc 41 bd
       0.20683903 -0.03065686 -0.09171915 -0.04731443
0000b0 64 db ea bc 22 15 20 bd 67 a8 2c be 03 ce 5b be
       -0.028669067 -0.039082654 -0.16861115 -0.21465306
0000c0 25 9b 06 bd ba b3 c4 bd d7 cb d4 bd bd d6 1e bd
       -0.0328628 -0.096045926 -0.10390442 -0.03877901
0000d0 cf d4 90 bd 1e ef f4 39 17 4e 80 bd 01 9d 8d 3d
       -0.0707184 0.00046717463 -0.062648945 0.06914712
0000e0 94 46 9a bd ea 75 dc 3b 46 7d e0 3d ae 1f 3c 3b
       -0.07532993 0.0067279236 0.10961394 0.0028705406
0000f0 91 aa f6 3b 8b 64 19 be 88 d2 e5 bd ba d3 d5 bb
       0.0075276573 -0.1497976 -0.11221796 -0.006525484

actor.4.weight f4 [7, 64]
000000 7c c9 21 3f e4 28 ad bf 90 25 e4 be 8e 98 e0 be
       0.63198066 -1.3528104 -0.44559908 -0.4386639
000010 ab 5d b2 bf 07 83 01 3f 76 35 4a be 54 87 5d bf
       -1.3934835 0.50590557 -0.19746956 -0.8653462
000020 31 11 4f bf 38 24 47 be 61 04 77 bf 65 ff be 3f
       -0.80885607 -0.1944741 -0.96491057 1.492169
000030 3c d3 b7 3f d1 d0 85 bf 84 bd 82 3f d6 21 00 3f
       1.4361339 -1.0454351 1.0214086 0.5005163
000040 98 1d 9b bd 47 18 8d 3f 50 4c 84 bf 4a 02 6d 3f
       -0.07574004 1.1023034 -1.0335789 0.9258162
000050 c7 da 44 3f 75 5f c9 be 0e e0 46 3e 29 d4 ac bf
       0.7689633 -0.3933064 0.19421408 -1.3502246
000060 fc e8 48 3f ea 85 26 3f 22 5f 79 3f 8b a5 9f bf
       0.78480506 0.65048087 0.97410786 -1.2472395
000070 58 4b 5a 3f 77 c0 cc 3e 19 1b bc bf 4f 52 2d bf
       0.85271215 0.3999059 -1.469577 -0.6770372
000080 6e 22 3b 3f 2b 78 2a be b8 af a1 bf 9d c4 81 3e
       0.7309941 -0.16647403 -1.263175 0.25345317
000090 9b d0 66 bd 9b 59 c7 be a2 95 74 3f 6d 59 9a be
       -0.056351285 -0.3893555 0.9554082 -0.3014635
0000a0 4c 1f 76 bf 20 88 fe be 9b f8 a7 be 90 7a 80 3f
       -0.96141505 -0.4971323 -0.32806858 1.0037403
0000b0 22 b1 cc be 15 9d 00 bf 83 7e 9b 3f 95 3e 15 3f
       -0.39978892 -0.5023969 1.2147983 0.5829862
0000c0 31 c9 36 be e9 02 de 3e db 62 85 bf 66 24 fd 3e
       -0.17850186 0.43361595 -1.0420793 0.49441832
0000d0 08 6f d6 3f 50 5b ca 3e 00 55 1c 3f 6b a7 a7 be
       1.6752634 0.3952279 0.610672 -0.32744917
0000e0 f0 b8 7b 3e 9b 31 8f 3f f6 7d 1e bf 76 7a 25 3f
       0.24582267 1.1187013 -0.6191095 0.64639986
0000f0 ea ca 94 bf a8 a2 b8 3f c9 0a ad be 19 83 30 3f
       -1.1624424 1.4424639 -0.3379729 0.6895004
000100 10 8e 3a c0 aa e5 6f 3d 5c 8e 72 3f 0e 4b 00 bf
       -2.9149208 0.058568634 0.94748473 -0.50114524
000110 65 08 06 bd 78 b0 72 3f 87 c8 f5 3f dc 23 20 bf
       -0.03272285 0.9480052 1.9201821 -0.6255472
000120 0b 55 1a be 75 59 0b 40 97 ed d2 3f f6 75 c4 bf
       -0.15071504 2.177335 1.6478757 -1.5348499
000130 42 20 27 c0 f8 ee 2c bf 8e a1 e8 bf 42 53 1e c0
       -2.6113439 -0.6755214 -1.8174303 -2.4738317
000140 f1 28 09 3f 8d 9c 9e be 27 c7 66 3f 97 8f 28 3f
       0.53578097 -0.30978814 0.9014763 0.658441
000150 05 b6 e8 bf 9b 43 e3 3f 35 4f bb be 52 29 bc 3f
       -1.8180548 1.7755007 -0.36583868 1.470011
000160 29 7e 9f bf 3d 59 30 c0 97 2b 0a bf 20 56 43 3f
       -1.2460376 -2.7554467 -0.5397276 0.7630329
000170 85 0c a5 bf 13 97 99 3e 09 a4 18 3e 0c 4b e9 3f
       -1.2894446 0.29998073 0.14906324 1.8226027
000180 eb b2 80 3f 67 17 ee 3f 6b d8 bd 3f d5 d2 6e bf
       1.0054601 1.8600892 1.483167 -0.93290454
000190 13 d8 a1 bf fe e5 31 3f 3c c4 81 3f c1 40 69 be
       -1.2644066 0.69491565 1.0138011 -0.22778608
0001a0 b6 f7 a3 3f b9 29 fd 3f 4b 30 af bf e1 eb 34 bf
       1.280997 1.9778358 -1.3686613 -0.7067242
0001b0 9b e1 12 40 85 8a 59 3e f6 48 36 3f 89 0b 80 3f
       2.2950199 0.21244247 0.7120508 1.000352
0001c0 2e 4b cb 3f 4c 29 83 3f 60 43 ca be ba 8b 41 3f
       1.5882318 1.0246978 -0.39504528 0.7560383
0001d0 92 50 02 c0 6d 2e 4b bf 73 1e 7c bf 9b f8 0c bf
       -2.0361676 -0.79367715 -0.9848396 -0.5506684
0001e0 b1 aa 62 3f 34 2e 27 bf ac ca ce 3f 53 7e ba bf
       0.88541704 -0.65304875 1.61556 -1.4569801
0001f0 65 91 92 3e 63 95 ab bf 5e 8c ee 3f b2 81 0d 3f
       0.28626552 -1.3404964 1.8636587 0.55276024
000200 76 da cf 3f ea 23 28 bf cf 46 c4 3d 26 fd f2 3e
       1.6238544 -0.656798 0.09583818 0.47458762
000210 c7 82 84 3e 11 f6 2a be bd f3 a2 bf fe 87 a7 be
       0.25881025 -0.1669543 -1.2730633 -0.3272094
000220 3e a7 48 3f 7c d2 d9 bf 51 69 37 bf 6d 96 8e 3f
       0.7838019 -1.701736 -0.71645075 1.1139656
000230 db e7 de 3f 4d 5e f8 3e 21 b8 b4 3f 32 46 df 3f
       1.7414507 0.48509446 1.4118692 1.7443297
000240 91 eb 3b 3d 70 ec 5e 3d 82 66 81 be 18 05 7b bd
       0.04587895 0.054424703 -0.2527352 -0.061284155
000250 e3 db 12 40 ec 1a 63 bf 17 57 9a be 9d 4e 2f bf
       2.2946708 -0.88712955 -0.3014457 -0.6847933
000260 bf 91 11 3f 31 b6 d1 3f 47 2f 54 3f a4 e4 4c bf
       0.56863016 1.6383725 0.8288464 -0.8003638
000270 a7 56 7d 3f 5f 38 3a bf f0 c0 8b be 93 9c 88 bf
       0.98960346 -0.72742265 -0.27295637 -1.0672783
000280 a9 9f 15 3d 65 c9 da bf 20 02 79 bf 42 13 1e 3f
       0.036529217 -1.7092711 -0.9726887 0.61748135
000290 a4 31 63 3f d7 cc bb bc ca 6d 9e bf 6d f5 e3 be
       0.8874762 -0.022924824 -1.2377255 -0.44523183
0002a0 73 f3 68 bf ce 5c a8 bf c7 84 ea 3f 4c cf f9 3d
       -0.90996474 -1.3153322 1.832177 0.12197742
0002b0 be 8e f9 bf 60 37 6c 3d 29 79 2e bf 09 22 fb be
       -1.9496686 0.057669997 -0.68153626 -0.49049404
0002c0 68 a6 93 bf 1c bc d0 be 27 99 67 be 9a 13 84 bd
       -1.1535158 -0.40768516 -0.22617017 -0.06449051
0002d0 8a 36 3c 3f b0 b3 aa 3f 60 96 cf 3e 7d 07 03 bd
       0.7352072 1.3336086 0.40544415 -0.031989563
0002e0 6c e8 61 bf 44 2b 0a 3f 41 25 9e bf 9a 44 8f 3f
       -0.8824527 0.5397227 -1.2355119 1.119281
0002f0 7f 82 53 bf 2d 48 4f 3f 0b c3 da bf a6 9f 44 bf
       -0.82620996 0.80969507 -1.7090772 -0.76806104
000300 69 f3 3c 3f c5 96 80 bf cf 76 15 c0 83 cf de be
       0.73808914 -1.0046011 -2.3353765 -0.43517694
000310 4f fa 2a bf 68 30 68 bf ae 33 3e bf 4b 19 8a be
       -0.6678819 -0.9069886 -0.74297607 -0.26972422
000320 50 fd 7e bf 57 63 bd bf 66 38 50 c0 d3 4c ad 3f
       -0.99605274 -1.4795941 -3.2534423 1.353907
000330 c5 86 1c 40 af ce 99 be 54 54 27 40 76 a7 3d 3f
       2.4457257 -0.300405 2.614522 0.7408365
000340 c4 17 9c bf e7 ea d8 3e 40 3b 0c c0 ba 0a 09 3f
       -1.2194753 0.42366716 -2.1911163 0.5353199
000350 0a d8 d9 3f 18 46 cf bf fb da a1 3f 80 b3 44 c0
       1.7019055 -1.6193266 1.2644953 -3.0734558
000360 6c 55 1b 40 38 f2 05 3f ae cc 97 3f 05 c4 d9 bf
       2.4270887 0.5232272 1.1859338 -1.7012945
000370 6b 2a 26 40 52 2e 39 3f d5 7b 40 3f 16 31 3a c0
       2.596339 0.72336304 0.7518895 -2.909246
000380 80 6f d5 bf b0 cc ff bf 48 ca 38 c0 f6 20 c7 3f
       -1.6674652 -1.9984341 -2.8873463 1.5556934
000390 b5 a3 51 3e 90 44 0b 3f 35 89 77 3d b3 20 82 3f
       0.20472606 0.54401493 0.060433585 1.0166229
0003a0 cd 9a 3c c0 05 a0 8c bf 61 7f b2 3f e8 54 fa 3f
       -2.9469483 -1.0986334 1.3945123 1.9557161
0003b0 bb 50 39 c0 50 a0 b5 3f 62 00 ec 3d f3 6e 07 bd
       -2.8955524 1.4189548 0.115235105 -0.033064794
0003c0 6a 07 44 c0 38 eb a2 3d 45 5f 4a 3d 11 b7 e2 be
       -3.0629525 0.07955021 0.049407262 -0.44280294
0003d0 89 70 80 40 96 2d 78 3f 3c 7b 69 40 0b 86 de 3e
       4.013737 0.9694456 3.6481466 0.43461642
0003e0 fd d9 ae be 69 e1 b6 3f c5 31 11 c0 5a d3 96 40
       -0.34150687 1.428754 -2.2686627 4.7132998
0003f0 86 7e 41 bf 5c 62 e9 3f bf 6a 0e c0 62 21 b4 3e
       -0.75583684 1.8233142 -2.2252653 0.3518172

actor.4.bias f4 [7]
000000 c3 4f 4c 3f 34 e5 bf bd cb a5 66 3f 28 11 d5 be
       0.79809207 -0.09369889 0.9009673 -0.41614652
000010 e2 3b 1e 3f d1 0a 69 3f cb 99 25 be
       0.61810124 0.9103213 -0.16171949

critic.0.weight f4 [64, 16]
000000 9c 33 17 3d 6c d3 25 3e a1 d3 c2 3d 35 8b 1f bf
       0.036914453 0.16193932 0.09513021 -0.6232179
000010 f0 74 00 bf 6a ef 04 bf bc 17 4b be c8 57 d1 be
       -0.5017843 -0.51927817 -0.19833273 -0.40887284
000020 13 bf 90 be b1 0c 83 be 38 df a4 3d af 81 dd bd
       -0.28270778 -0.2559562 0.08050388 -0.10815751
000030 50 9d d1 be e5 89 ef 3d 5a 49 82 be 3a 30 a0 3e
       -0.40940332 0.11696223 -0.25446588 0.31286794
000040 d2 c0 07 3b b6 51 f6 bd e0 c5 c9 bc 2c 8b 03 3d
       0.0020714295 -0.12027304 -0.024630487 0.032115147
000050 13 b4 41 bd 95 1e a9 bd 98 91 34 be f5 31 d5 bd
       -0.047290873 -0.08257786 -0.17633665 -0.10409919
000060 ae 1d ee 3b 6e 6a 9c be b4 42 26 ba 4c e0 aa 3c
       0.0072667217 -0.3054995 -0.0006342337 0.020858906
000070 a1 4a d6 3d 6c ee 58 be 3a a8 45 be 08 2a fe 3d
       0.10463453 -0.211847 -0.19302455 0.124103606
000080 7b ff 32 3f 0b 12 ac 3e 4b b9 87 3e f3 46 fe 3e
       0.6992108 0.33607516 0.26508555 0.49663505
000090 d7 a5 04 3f 8f 09 37 3f ee a4 da be 6b 63 cf bc
       0.5181555 0.7149896 -0.42703956 -0.02531596
0000a0 a0 7c 35 be 66 3b c0 3a 28 02 77 bd 47 92 86 bc
       -0.17723322 0.001466614 -0.06030479 -0.016427172
0000b0 06 ff b6 be 78 a0 1c bd f8 17 f8 be 8b fa 42 bf
       -0.35741442 -0.038238972 -0.48455787 -0.7616355
0000c0 02 e8 df be 50 41 d1 bd 54 da a2 3d 8a b2 07 be
       -0.43731695 -0.102175355 0.07951799 -0.13251701
0000d0 86 fb 92 be 51 db 71 3c 7e 03 25 3e 42 e3 d7 bd
       -0.28707522 0.014761762 0.16114613 -0.10541393
0000e0 e3 48 0c 3e e7 77 af 3e 9c 5b 2b bd 4e ea 5c 3e
       0.13699679 0.34271166 -0.041835412 0.21573755
0000f0 4e 17 46 be c4 45 9b bc 46 f0 92 bf a6 53 b7 be
       -0.19344828 -0.018954165 -1.1479576 -0.35806006
000100 44 7e c0 bd 6c 94 65 be 00 ed db bb 58 73 2e be
       -0.09399083 -0.224199 -0.006711602 -0.17036188
000110 00 50 91 39 00 b3 a2 bb b0 bd 32 be 6c 8e 21 3e
       0.0002771616 -0.004965186 -0.17455173 0.15776986
000120 52 17 34 be 88 9b 4b 3d 00 4f 1e 3e 3a d5 5c 3e
       -0.17587021 0.049708873 0.15459824 0.21565714
000130 44 1c 84 3d 50 31 77 bd 46 bc 7e 3e b4 01 7b 3e
       0.06450704 -0.060349762 0.24876508 0.24512368
000140 4e 30 cf 3d ab a6 31 bd 7a 15 aa bd 99 c8 89 bd
       0.10116635 -0.043371838 -0.083048776 -0.06727714
000150 00 cd 43 be 86 77 1c be 46 6c be 3d 4b e3 1c 3c
       -0.1912117 -0.1527997 0.09297995 0.009575675
000160 a6 10 20 3e 10 d1 7f be 96 00 7a be 5e 33 33 3c
       0.15631351 -0.24982095 -0.24414286 0.01093754
000170 9f 98 9d be 03 9b 8f 3e bc fc 81 3f 30 31 0f be
       -0.30780503 0.28047952 1.0155253 -0.13983607
000180 64 5a c7 3d 52 4d 11 be b0 f0 87 bc da cf 02 3e
       0.097340375 -0.14189652 -0.01659426 0.12774602
000190 d0 c9 98 bd fe b6 13 3e 7e 81 45 be cc 50 aa 3d
       -0.07460368 0.14425275 -0.19287679 0.08316192
0001a0 d2 54 36 be 20 90 09 3d 9e 38 0a be 90 4e ff bd
       -0.17805794 0.033584714 -0.1349816 -0.124661565
0001b0 a6 3d 70 be 1e 16 6e be 54 b5 c3 3d a8 6b 69 3e
       -0.23461017 -0.23250625 0.0955607 0.22794974
0001c0 a9 67 e9 be 95 b6 42 bc 64 05 5c be fe 9d 8c bf
       -0.455869 -0.011884351 -0.21486431 -1.0985715
0001d0 94 d8 03 bf f2 f6 f0 be d1 a9 75 bd ac 68 cc bb
       -0.51502347 -0.47063404 -0.059976403 -0.006238064
0001e0 41 a8 7a bd fd 47 a2 3d 99 fc 03 3e 57 83 05 3e
       -0.061195616 0.07923887 0.12889327 0.13038383
0001f0 aa f0 7d be dd 8b 4e 3c 4b e1 5d bf 52 bf 90 bd
       -0.24798837 0.012606588 -0.86671895 -0.070677415
000200 04 5f c6 be 21 5a 5f be 7b ff a1 be e0 d0 96 3e
       -0.38744366 -0.21811725 -0.3164023 0.29456234
000210 17 b3 aa 3e 98 10 8d 3e 16 e6 a4 3e ee b1 86 3d
       0.3333976 0.27551723 0.32206792 0.06576906
000220 45 95 98 bd 40 3a a0 bd 59 d7 e6 3c a6 75 8b 3e
       -0.07450346 -0.0782361 0.028178858 0.27238196
000230 9f 2e de bd 7d b2 2d 3e 88 b9 37 3f ea 8d ca 3e
       -0.10848736 0.16962619 0.71767473 0.39561397
000240 3a 7e 0d 3f 6e 93 ad bc de 1d b4 be 4e 57 c8 bc
       0.5527073 -0.021188464 -0.35179037 -0.024455693
000250 6f a0 8b 3c 29 fb 1b 3e b9 ba b4 3e 34 dd cd 3e
       0.017044274 0.15232529 0.35298708 0.40207827
000260 e4 2a 8e 3e ff d4 d4 be d9 c0 a7 bd 6a 9c db 3e
       0.27767098 -0.41568753 -0.0819108 0.42892772
000270 62 51 ba 3d a8 6e ed bd 85 7e 24 3f 9f d1 1c 3f
       0.09097554 -0.11593372 0.64255553 0.61257356
000280 df 93 07 be a0 83 b2 3c f7 ac 8d be b7 01 b9 bd
       -0.13240002 0.02179128 -0.27671024 -0.0903353
000290 76 53 49 3e 3f f5 69 3d 84 43 b7 bd e6 e3 88 be
       0.19660744 0.05711865 -0.089484245 -0.26736373
0002a0 f5 4f ae 3d 6d 24 75 3d 39 6c 97 3d ed ba 16 3e
       0.08511344 0.05984919 0.07393689 0.14719744
0002b0 86 03 78 be 8b 95 64 bd 0c c8 ae bf dc 68 3a 3d
       -0.24220094 -0.055806678 -1.36548 0.045510158
0002c0 39 40 6a 3d 84 1f fb be f7 d9 8d be a8 2a ec 3e
       0.057190154 -0.49047482 -0.27705356 0.46126294
0002d0 6d d7 3b 3d 8f 86 d4 3d 68 a8 a8 be 94 b8 11 3e
       0.045859743 0.103772275 -0.32940984 0.14230567
0002e0 0b 85 6d bd 50 be d8 3d 88 32 2e bd 3b 3a 66 bd
       -0.057988208 0.10583174 -0.04252866 -0.056207877
0002f0 dd 66 27 be f5 87 5a 3d 9f 4a 44 40 08 5d 77 be
       -0.16347833 0.053352315 3.0670545 -0.24156582
000300 80 4a 73 3d 2c 05 87 3d 10 0f ea bd 30 21 dd bc
       0.05939722 0.06592783 -0.11428654 -0.026993364
000310 10 f5 35 bd 7c 34 c3 3d 20 45 8a bd 00 98 37 3b
       -0.044423163 0.09531495 -0.06751466 0.0028014183
000320 38 0d 67 bd 4a c8 06 3e 86 2a 28 3e 0c 76 43 3e
       -0.05640909 0.13162342 0.16422471 0.19088
000330 00 9b ae bc 50 97 43 3d 90 15 af 3d ee 56 03 3e
       -0.021314144 0.047751725 0.085490346 0.1282613
000340 27 52 52 3e 0d 5a ec be 73 a7 a6 bd 60 8a a1 3c
       0.20539151 -0.46162453 -0.08137407 0.019719303
000350 5d 7b 7f 3d a8 74 01 3f 69 4d a9 3d f7 fa 89 3d
       0.062373508 0.5056863 0.08266718 0.06737321
000360 f8 6b 0c 3e 4d d7 69 bc 96 f2 49 3c a5 51 b5 3d
       0.13713062 -0.014272523 0.012325903 0.08853463
000370 7c 57 63 be 7e 00 f6 bd 26 df ce 3c 61 bd 86 3e
       -0.22201341 -0.120118126 0.02525289 0.2631636
000380 28 43 1a 3f e1 4e 8f 3f 9d 4c 72 3f ef 7e 83 bf
       0.6025872 1.1195947 0.9464815 -1.0273112
000390 1b d7 7c bf 5d 33 c5 be 03 13 6c 3e ec 98 1f 3e
       -0.98765725 -0.3851575 0.23054127 0.15585679
0003a0 5b cd 21 3e ee fd 0a 3e 21 0f 1c 3e 48 b3 5e 3d
       0.15800993 0.13573429 0.15240146 0.054370195
0003b0 ed 19 00 3f 0e 82 2c be 08 54 9a be cf 0d 22 3d
       0.5003956 -0.16846487 -0.30142236 0.03956395
0003c0 4b 0b d3 be 48 22 be 3c f2 46 ec bd 57 d6 92 bd
       -0.41219553 0.023209706 -0.11536969 -0.07169788
0003d0 fa 57 0f be 1a a1 23 3d 6d a7 e4 bd b4 bc 9b bd
       -0.13998404 0.03994856 -0.111647464 -0.07604352
0003e0 1a 03 9a be 9d f4 63 3d 9e 8d b4 3d 0b 68 59 be
       -0.3008049 0.055653203 0.08816074 -0.21231095
0003f0 77 91 21 be 2d 6c 95 be c9 e2 6f bf a2 ba ee be
       -0.15778147 -0.29184094 -0.9370542 -0.46626765

critic.0.bias f4 [64]
000000 a2 26 86 bd e5 f5 88 bb 8c 5a dc be 7f 0e a4 bd
       -0.065503374 -0.0041797035 -0.43037832 -0.080105774
000010 90 3e f5 bc 4c ca ef bd c8 5b 1a be 1b 66 7a bd
       -0.029937059 -0.11708507 -0.15074074 -0.06113253
000020 a6 54 d5 3d 9e 9c 12 3f 49 d8 85 3d e2 75 ee 3d
       0.10416536 0.5727023 0.06535394 0.11643578
000030 90 bb f6 bc 5b 3c 24 3e f8 97 51 3e 81 4c 96 bd
       -0.030118734 0.16038649 0.20468128 -0.07338811
000040 7f a6 fb 3e 93 82 74 3c 6e a2 4f 3c 05 60 de bd
       0.49150464 0.014923709 0.012673004 -0.10858158
000050 30 8f 3e bd 2d dd 38 3e 2c ed c2 bb ab 96 42 bd
       -0.046523273 0.18053122 -0.0059486832 -0.04750697
000060 74 8b 16 bd ec 07 10 3e b1 68 ff 3e 53 21 eb 3e
       -0.036754087 0.14065522 0.4988456 0.45923862
000070 b8 be 21 3e fc 49 be 3c ca b0 b0 bb ff 72 c7 3d
       0.1579541 0.023228638 -0.0053921686 0.09738731
000080 5e 24 9b 3d 95 8f 6a be 70 69 59 be 19 e5 8e 3e
       0.07575296 -0.22906335 -0.21231627 0.27909163
000090 8f 2b 64 3e 65 c7 37 3e 80 97 52 3e c2 6c d9 3e
       0.22282241 0.17947157 0.20565605 0.42465788
0000a0 7c 03 4c be 40 f9 98 be cf 9d 09 3f cb db 74 3e
       -0.19923204 -0.29877663 0.5375642 0.2391197
0000b0 e8 8f c5 3d 18 2a 29 3d 09 2f 14 be fa 98 0f be
       0.096465886 0.04129991 -0.14471067 -0.140232
0000c0 88 56 0e 3e f0 c9 c5 3d cc 84 2d 3e b3 36 e3 3d
       0.13900197 0.09657657 0.16945189 0.110944174
0000d0 3b a4 90 3e 76 05 4c 3f 56 3a 1d 3e 44 0e 83 3e
       0.28250298 0.7969583 0.15354285 0.2559682
0000e0 7b 27 c9 bd ff a2 17 3e 91 8b d4 be 0f 84 db 3d
       -0.098219834 0.14808272 -0.4151273 0.107185476
0000f0 b4 f4 3a 3e 72 09 90 3d 31 d3 61 bf d5 4d 10 3e
       0.1825741 0.070330516 -0.8821288 0.1409219

critic.2.weight f4 [64, 64]
000000 16 83 df 3e eb c0 18 3f a2 5f cf bf 3b fe 4e be
       0.43654698 0.5966937 -1.620106 -0.20214169
000010 f7 c2 74 be e5 82 20 3e 06 3f e7 3e d1 2f 3e be
       -0.23902498 0.15674932 0.4516527 -0.18572928
000020 16 ac 04 3e 81 19 a9 3f db ed 16 bd d7 4a 7a be
       0.1295627 1.3210908 -0.03684793 -0.24442612
000030 70 a4 7c be b6 98 71 3e 54 8e ff bf d8 91 f1 3c
       -0.24672103 0.23593411 -1.996531 0.029488489
000040 d3 4d f5 3d bc 65 6e 3e 41 21 e8 3d 53 40 99 bd
       0.119777344 0.23280996 0.11334468 -0.07482972
000050 9d d3 9b 3e 67 3c f8 be 9a d3 f4 be 2c 4f 7b 3e
       0.30434886 -0.48483583 -0.4781769 0.2454192
000060 20 80 4b be 4e d5 df be b5 5a f3 be 31 85 e6 3f
       -0.19873095 -0.43717426 -0.4753014 1.8009397
000070 15 1a d9 3e 40 4a 0a 3f 20 47 6c 3f ee 54 dd bd
       0.42402712 0.54019547 0.9229603 -0.10807215
000080 60 b5 9e bf 7d 23 1d 3e 00 65 bb bd 56 3c a9 be
       -1.2399101 0.15345569 -0.091501236 -0.33053845
000090 0d c5 47 3f 3b 6a 5f bf 6c a5 89 3e 00 f5 14 3f
       0.7803505 -0.8727147 0.2688402 0.5818634
0000a0 0e 63 73 3f 8c 70 69 be 15 b2 d0 3e 8d f5 b9 be
       0.9507302 -0.2279684 0.40760866 -0.36320153
0000b0 c7 62 aa 3e 53 64 a5 3e 68 3f 03 bf bf c1 89 be
       0.33278486 0.32303104 -0.51268625 -0.2690563
0000c0 92 4b b2 3e 19 38 8f 3e 2c 72 67 bf 35 34 41 bf
       0.3482328 0.27972487 -0.9040859 -0.75470287
0000d0 87 b6 57 3f cc 4a 43 3e a2 49 bb 3e 3f e2 3c bf
       0.8426289 0.19071501 0.36579615 -0.73782724
0000e0 ae 09 5f bf e2 e1 d4 bd 79 ff 81 3f 31 3f b9 3e
       -0.87124145 -0.10394646 1.0156089 0.36181024
0000f0 6c a1 69 bf 94 f1 a9 3e 51 d2 09 bf 4a e6 96 3e
       -0.91261935 0.33192122 -0.5383654 0.29472572
000100 44 2f 09 be e9 4c de bc 48 1a 20 be 27 cf 03 3f
       -0.13396937 -0.027136283 -0.15635026 0.51487964
000110 7a 81 af be 99 88 65 bf 34 cf 20 3e e0 a1 18 3f
       -0.3427847 -0.89661556 0.15704042 0.59622
000120 05 73 f4 bd 7d f4 45 bf d6 14 c5 3e 37 a1 9e 3e
       -0.11936001 -0.77326185 0.3849246 0.30982372
000130 01 2b 42 be 6e 20 e7 3e cc 80 1b 3f f7 23 51 be
       -0.18961717 0.4514193 0.60743403 -0.20423876
000140 39 d4 df be 31 f0 46 bf c7 4a ba be 83 94 35 be
       -0.437166 -0.77710253 -0.36385176 -0.17732434
000150 f1 a0 a5 3e 91 cb 57 bf e3 09 ca bd 14 d9 78 bd
       0.3234935 -0.8429499 -0.09865167 -0.060753897
000160 fa 78 b4 be 53 04 34 be f7 46 fc be 74 ea 59 bf
       -0.35248548 -0.17579775 -0.49272892 -0.8512337
000170 a6 f0 ef 3d 76 c9 75 bf cc bd ae 3e 16 14 e7 bd
       0.11715822 -0.9601053 0.3412918 -0.11283128
000180 cf 0a f9 be 1e be cb 3e e4 49 fa 3e 32 26 26 be
       -0.4864106 0.39793485 0.488845 -0.16225508
000190 1b 56 00 bf 6a 11 7f 3e 49 b9 9b 3e 39 96 2a bf
       -0.50131387 0.24908987 0.304148 -0.6663547
0001a0 d2 cf fa 3e 83 41 3b bf 76 54 b5 be 86 cd 3c bb
       0.4898668 -0.7314684 -0.35416 -0.0028809025
0001b0 75 af 83 3e 10 d4 a6 3e 16 c8 ea be 3d e3 2e bf
       0.257198 0.32583666 -0.45855778 -0.6831549
0001c0 34 ea 78 3e c2 9f 75 3e ba 48 d6 be b5 84 77 bf
       0.24308091 0.23986724 -0.4185236 -0.9668687
0001d0 97 16 36 3f ca ef 1e bf 1f 5f 80 3e 72 ae 27 bf
       0.7112822 -0.6208464 0.25072572 -0.6550056
0001e0 56 18 1c c0 ab ab 4e bf ba b8 3f bf 61 e5 4f be
       -2.4389853 -0.80730695 -0.74891245 -0.20302345
0001f0 03 26 c6 be 2e 6a 03 3f 8c ef 82 3e b8 38 1d bf
       -0.38700876 0.5133389 0.25573385 -0.6141467
000200 9f b9 8b 3e 1a 48 2b be b4 5b c4 be ad 2a 4b 3e
       0.27290055 -0.16726723 -0.38351214 0.19840498
000210 3d 63 c0 3d 75 da 56 3f 1d cd 8c bd fc be 2b bf
       0.09393928 0.8392709 -0.0687506 -0.67088294
000220 68 0e 98 3e 54 d5 3c bc 6c e2 86 bd 7b e6 a6 3f
       0.2969849 -0.011525471 -0.06586155 1.3039087
000230 20 41 95 3e 12 a2 72 be 8b c1 1c 3e b1 a5 02 3f
       0.2915125 -0.23694637 0.15308206 0.51034075
000240 54 d0 c6 3c db 82 8b 3e c2 c0 d0 3e 6c 77 92 be
       0.02426926 0.27248272 0.40772063 -0.28606737
000250 95 8a 34 be 34 8f 7f 3f 8f 7a 8e 3e 30 2b ec bd
       -0.1763099 0.99827886 0.2782788 -0.11531675
000260 12 9a a1 3e 80 65 05 be d2 e5 4d bf 3c c7 43 3e
       0.3156286 -0.13027 -0.804288 0.1911897
000270 03 d1 98 be 9d 9f c2 be fe ae 6e 3e 49 06 f1 bd
       -0.29846963 -0.380124 0.23308942 -0.11768777
000280 53 02 db be 28 88 ce 3e a6 ef 22 be 58 b1 97 3e
       -0.4277521 0.40338254 -0.15911731 0.2962749
000290 b0 d5 8c 3e 39 65 46 3f 44 c9 1e be 80 1e 9b bf
       0.2750678 0.77498204 -0.15506464 -1.2118683
0002a0 a8 82 a8 3e f5 b0 c8 be 8d 13 ce 3f 3d 10 0c bd
       0.32912183 -0.39197508 1.6099716 -0.034195174
0002b0 4b 9c 37 be 00 e0 05 be e2 f0 90 3e cc 4d 44 bf
       -0.17930715 -0.1307373 0.2830878 -0.7668121
0002c0 0b b8 13 be 1a 4e 01 be f6 19 5d bf 42 2e c3 3e
       -0.14425676 -0.1262745 -0.8636774 0.3812123
0002d0 6c c7 88 3d 7d 0a b2 bf e3 c9 c1 bd 3c 56 e7 3d
       0.06678662 -1.3909451 -0.09462335 0.11295745
0002e0 06 27 fb 3e ea 00 4f bf 79 14 b3 bf 79 2a 51 be
       0.4905321 -0.8086077 -1.3990623 -0.20426358
0002f0 66 9b 57 3e 86 dd e9 3c 53 e1 14 3e 73 30 94 3e
       0.21055374 0.028548013 0.1453908 0.28943214
000300 f3 3b b6 3e d4 e6 1d bd 6a 32 55 3e bf cd a0 bf
       0.35592613 -0.038550213 0.20820013 -1.2562789
000310 e9 5a bb bd 5b a2 cc 3e 52 a4 28 3e 24 ed 53 be
       -0.09148199 0.39967617 0.16468933 -0.2069593
000320 9f 71 9d be 2f 55 e6 3e 73 06 36 3f 4e 9d 21 3e
       -0.3075075 0.44986865 0.7110359 0.15782663
000330 3c cc 38 be 7d 7c 84 3e 10 fc c2 3f b5 26 39 3d
       -0.18046659 0.25876227 1.5233173 0.04520293
000340 1a 9e 05 bf bb 02 80 be 4d 3b 69 bf 09 f0 84 bd
       -0.5219437 -0.25002083 -0.9110611 -0.064910956
000350 e0 a9 9e 3d b8 33 2f bf 53 50 4e be d6 ab 5d be
       0.07747245 -0.6843829 -0.20147829 -0.21647581
000360 01 67 ad be 4d b2 05 bf d0 73 0e 3e e8 c3 7a be
       -0.33867648 -0.5222519 0.13911366 -0.24488795
000370 20 dd ff 3d 77 5c 12 bf 98 c6 29 3e 06 12 82 be
       0.12493348 -0.5717234 0.16579664 -0.25404376
000380 ab e2 13 be 8c 21 48 3f 9a a2 5c be 95 6b 7d 3e
       -0.14441936 0.7817619 -0.21546403 0.2474807
000390 ff f4 f3 be e2 e3 a9 be 05 fe cd 3d 90 13 28 bd
       -0.47647855 -0.33181673 0.10058216 -0.04103428
0003a0 4e ad ec 3e 08 ee 9d be c0 f6 2a 3f e4 57 c2 bd
       0.4622597 -0.30845666 0.6678276 -0.0948942
0003b0 c6 c1 82 bf f5 5d 0e 3e cd e1 c4 bf f0 65 f4 3d
       -1.0215385 0.1390303 -1.5381409 0.119335055
0003c0 68 11 51 3e c5 9c 28 3e eb c7 8d 3f 69 60 6b bf
       0.20416796 0.16466053 1.1076635 -0.91943985
0003d0 81 9e 6e 3f a6 13 1a 3f c3 91 74 3e 85 f4 b4 3e
       0.9321061 0.6018623 0.23883729 0.35342804
0003e0 a6 0d 04 be 55 1f 9e 3e 15 96 b0 3f 47 ef e3 3e
       -0.12895831 0.3088328 1.3795801 0.44518492
0003f0 7f 60 3a be d1 2c 84 3e e5 fe 2a 3f 1a fa 34 3f
       -0.18200873 0.25815442 0.6679519 0.70694125

critic.2.bias f4 [64]
000000 e1 76 be be 61 e3 c1 be f4 7c 78 3e ac 8c 6e be
       -0.37200072 -0.3786879 0.24266416 -0.2329585
000010 e9 24 c0 3d d2 00 6a be b5 f0 c1 3e e9 18 23 3e
       0.0938204 -0.22851875 0.37878957 0.15927471
000020 da 5e e7 bd 2a 18 72 be 5f bf b6 bb f5 ac bd 3d
       -0.112973884 -0.2364203 -0.0055770124 0.092615046
000030 7b 3c 0d bd 46 fb 22 3b 0a 96 e3 bc 86 76 7b bd
       -0.034481507 0.002486901 -0.027781505 -0.06139233
000040 cd 87 5a bd dc cb c5 bc 01 ed f2 3d 3f c7 1f bc
       -0.053352166 -0.02414506 0.11861611 -0.009752094
000050 82 f8 70 3e cc 1a d0 bd 8b 10 34 be bd cb 8e bd
       0.23532298 -0.10161361 -0.17584436 -0.06972454
000060 a0 6f 34 3e 51 60 e7 3d b9 15 57 be 94 43 d7 3d
       0.17620707 0.11297668 -0.2100438 0.105109364
000070 ad fa ad be 3b de 12 3d c8 45 0a be 13 15 08 3d
       -0.33980313 0.035856467 -0.13503182 0.033223223
000080 9f fa b0 3c b9 a6 e0 3d db b6 5e 3b 2a d3 2b 3d
       0.02160388 0.109693 0.0033983502 0.04194943
000090 4e b6 d9 bd 30 e1 51 be f9 ad d4 3e f2 79 d6 bc
       -0.10630475 -0.20496058 0.4153898 -0.026181195
0000a0 30 04 02 be 0b 8f 63 3d 95 ce 61 be ff 52 ad bc
       -0.1269691 0.05555634 -0.22051461 -0.02115774
0000b0 6a 8e a8 bc e8 79 bc bc 5a 5d ae bd 66 a7 26 bb
       -0.02057572 -0.023007348 -0.08513899 -0.0025429367
0000c0 66 ea 26 3e 9e be 95 be 03 bb b8 3d 82 c0 13 be
       0.16300353 -0.29246992 0.09020045 -0.14428905
0000d0 a4 09 a8 bd ce 30 36 3d 65 bb 0d 3e f6 e9 ec ba
       -0.08204964 0.044480138 0.13841017 -0.0018075097
0000e0 0e 70 c7 3c 23 46 96 3e 57 ab d0 3d 79 f6 dc 3c
       0.024345424 0.29350385 0.101889305 0.026972996
0000f0 0e 9e 3f 3d ec 35 19 3b 55 d1 45 bd ca 27 5a 3e
       0.046781592 0.0023378087 -0.048295338 0.21304241

critic.4.weight f4 [1, 64]
000000 d6 84 58 be 93 34 c9 bd de 9f 86 3d ec 4d 5c bd
       -0.21144423 -0.09824481 0.06573461 -0.05378525
000010 62 2a e4 bd 76 6b d6 bd 9c d5 ac 3d 42 c3 3e bd
       -0.111408964 -0.10469715 0.0843918 -0.04657293
000020 88 17 12 3d 2b b8 a7 bd e4 f7 36 be ec 72 33 be
       0.035666972 -0.08189424 -0.17868 -0.17524308
000030 de 74 c0 bd c8 74 2a 3d c7 11 15 be d5 59 f5 bd
       -0.09397291 0.041615278 -0.14557563 -0.11980025
000040 38 d3 38 be 19 79 1e 3e c2 41 97 be 9e 49 22 be
       -0.18049324 0.15475883 -0.29542357 -0.15848395
000050 7b 8f 81 bd af 5f 26 be 90 b3 3f bd 70 27 45 bd
       -0.06326195 -0.16247438 -0.046802104 -0.048133314
000060 6f cd 56 3d fe 7c 51 3e 70 dc 61 3d 7b 12 06 3e
       0.05244201 0.20457837 0.055141866 0.13092987
000070 68 4f ec bd 73 4e 3b be 7c c3 cf bd 5c 67 07 3e
       -0.11538583 -0.18291645 -0.101447076 0.13223022
000080 94 1a 46 3e 6f 1c 07 be 23 75 19 be 4a 05 c4 bd
       0.19346076 -0.1319444 -0.1498609 -0.09571321
000090 96 62 b8 bd be b6 b0 3d f7 45 7e 3d 6a 46 3a 3e
       -0.09003179 0.08628605 0.062078442 0.18190923
0000a0 59 0f 9f 3c df 43 b6 bd af f5 15 3e 57 70 06 3e
       0.019416498 -0.08899664 0.14644502 0.13128792
0000b0 14 fb 10 3c 5e a4 e0 bd 7a 65 03 be 85 62 08 3d
       0.008848924 -0.109688506 -0.12831679 0.03329708
0000c0 ef 97 c5 3d b6 a7 7c bd 40 5f e4 bd d2 b1 dc bd
       0.0964812 -0.06168338 -0.1115098 -0.10776104
0000d0 9b 1d 5c bd 3f c2 62 be 9d 6f 50 be e0 35 1b 3e
       -0.05373917 -0.22144412 -0.20355077 0.1515727
0000e0 4c 4e 36 be c1 47 7f bd 42 f4 ad 3c 85 7f 6a 3e
       -0.17803305 -0.06232429 0.021234635 0.22900207
0000f0 b1 b7 8c 3d 8d 28 11 3e c2 ce 16 3e aa a7 45 3e
       0.06870974 0.14175625 0.1472731 0.1930224
