Model Results/ppoMSFT2019-09-011999.pth (torch, 48543 bytes, 11 tensors)

actor.0.weight f4 [64, 16]
000000 1d 49 3d 3e df af 5b be 2f b6 2c 3e 73 2a d6 bd
       0.18484922 -0.21453808 0.16866373 -0.10457315
000010 19 8d 8a be 72 0e 2f 3e c7 5b e7 be ca 39 34 bf
       -0.27060774 0.17095354 -0.45187208 -0.7040068
000020 5c 28 47 bf ce 6a 15 bd 3b 85 86 3e b2 44 e8 bd
       -0.7779596 -0.03647881 0.26273522 -0.113412276
000030 77 f4 f9 3d d7 62 89 be d8 e6 ee bd 36 30 ed be
       0.12204831 -0.2683322 -0.11665124 -0.46325845
000040 49 a8 2d bd c4 e1 ad 3b be ae db 3d c9 10 dd bc
       -0.042396817 0.0053064544 0.10726689 -0.026985543
000050 d0 33 52 bd 1a 58 2f 3e d4 b8 2a 3e 95 4b 24 3f
       -0.051318944 0.17123452 0.16672069 0.6417783
000060 8b ac e3 3e 6b 13 1d 3c ac 00 0e 3e 13 1e 40 bd
       0.44467577 0.009587149 0.13867444 -0.04690368
000070 3a 7d 4e bd 76 c6 c3 bd da 8f ee 3e c2 4f 10 bf
       -0.050412394 -0.09559338 0.46594125 -0.563717
000080 80 4f 70 bd d8 2c 84 3c f7 5e e9 bd ab d6 07 be
       -0.058669567 0.016134664 -0.11395066 -0.13265483
000090 37 c4 29 be 1c 22 85 3e 78 06 62 3e d4 27 b7 3e
       -0.16578756 0.26002586 0.2207278 0.35772574
0000a0 b5 6a be 3e 0d b7 f6 3d 5f 7a 55 3e b3 34 85 3d
       0.37190786 0.12046633 0.20847462 0.06504192
0000b0 31 b2 41 be 6e 25 32 be 24 69 43 3f 01 be 25 bf
       -0.18915631 -0.17397091 0.76332307 -0.6474305
0000c0 5c 9f fa 3d 52 b6 06 3e b7 52 5e bd c1 af 7a 3c
       0.12237427 0.13155487 -0.0542781 0.015300692
0000d0 dd 35 bb bc 71 ca b7 3d 7c e4 08 3f 80 b7 02 3f
       -0.022852832 0.089741595 0.5347364 0.5106125
0000e0 d7 7f 47 3f fa 08 41 bd 2d 88 2a bd aa 6b c0 be
       0.77929443 -0.0471277 -0.041633774 -0.3758214
0000f0 8a e6 50 3e 31 0b 77 be b2 62 1b 3d fe a4 26 3f
       0.20400444 -0.24125363 0.03793592 0.6509551
000100 be 72 80 3e af 3e 27 be 15 7f 4d 3c 77 5d 68 3e
       0.2508754 -0.16332506 0.012542506 0.22691904
000110 7f f9 5a bd c5 3f 78 be 42 eb 17 3f 3a 2d 3e 3f
       -0.053460594 -0.24243076 0.5934335 0.7428776
000120 f0 cc 43 3f d1 5c b7 be 54 46 5b bd 8a e4 16 3e
       0.76484585 -0.35813 -0.053533867 0.14735618
000130 4d 03 44 3a ff f1 4a 3e 1c 9c fc bd c0 dd 39 3f
       0.00074772985 0.19818877 -0.12334463 0.7260399
000140 ef ad 2e 3e c6 1a 03 bd 73 46 11 be 37 39 7a 3e
       0.17058538 -0.032007955 -0.1418703 0.24435888
000150 20 84 4d be b5 6f 19 be 13 e2 9a bf f4 23 ad bf
       -0.20069933 -0.14984019 -1.2100242 -1.3526597
000160 ac 01 9a bf e4 a8 32 3e f8 c3 40 3e c2 ec 1f be
       -1.203176 0.17447239 0.18824756 -0.1561766
000170 42 8a 1f 3e 99 db a4 3d 4a 66 5d be 95 e2 26 bf
       0.15580085 0.080496974 -0.21621051 -0.65189487
000180 be c5 58 3e ac 47 c1 bd 27 89 1e be 41 8d c6 bd
       0.21169183 -0.094374985 -0.15482007 -0.09694911
000190 6c 4d 02 3e 23 1e 3d bd 98 38 9c 3d 7f 24 dd be
       0.12724847 -0.04617132 0.07627982 -0.43191907
0001a0 b2 91 af be 9d 9e 66 3e 66 b8 d4 bc ac 6f a4 3d
       -0.34290844 0.22521444 -0.025966834 0.08029112
0001b0 ae 15 45 3e 16 03 dd be 16 3a cb be ee 58 76 bd
       0.19246551 -0.43166417 -0.39692754 -0.060143404
0001c0 fa ad c1 bd cb 28 60 bd 2d a9 cc 3b a1 38 cc 3d
       -0.094570115 -0.054726403 0.0062457533 0.099717386
0001d0 e9 9b a5 bd d4 c8 92 be 9a 1a 78 bf b0 72 3a bf
       -0.08086378 -0.28668845 -0.9691559 -0.7283125
0001e0 6f 6e a9 be 43 81 4d bd 98 21 3b be d5 f6 51 3e
       -0.33092067 -0.0501721 -0.18274534 0.20504315
0001f0 98 17 10 be 8d 8e c6 3e f0 39 37 3e a7 f2 50 be
       -0.140715 0.38780633 0.17893195 -0.20405065
000200 d2 12 24 3e 4f 72 07 3e 4a bf 9c be b6 42 c4 bd
       0.16022804 0.13227199 -0.30614692 -0.095830366
000210 5a c1 c5 3d 7a b6 1f 3c e9 14 5d be 28 68 23 bf
       0.096560195 0.009748096 -0.21590008 -0.63830805
000220 ac 2f f4 be 26 ef 05 3d 36 65 9e 39 75 3c 00 be
       -0.4769262 0.032698773 0.00030211516 -0.12523063
000230 5b ec 9b 3e d2 4b ab be 5b ff d4 be df 47 96 3e
       0.30453762 -0.33456284 -0.4160107 0.29351708
000240 87 53 2a 3d 5b 2e ec bc d1 42 cc 3d 35 52 8a bd
       0.041583564 -0.028830698 0.09973682 -0.06753961
000250 b7 08 52 be a5 66 7e 3d bb 43 47 3e f6 f4 25 3e
       -0.20511137 0.06210961 0.19459431 0.16206726
000260 41 b5 ed 3e 25 56 1d 3e 93 95 78 be 34 13 0a bc
       0.46427348 0.15364893 -0.24275808 -0.00842743
000270 a5 38 aa 3e b8 b3 3d 3d 25 de 37 3f c0 6c 19 bf
       0.3324634 0.04631397 0.7182334 -0.59931564
000280 df c1 f5 bd 49 73 01 bd 7e f6 52 3d a2 f2 53 3c
       -0.119998686 -0.031604085 0.051504605 0.012936266
000290 92 15 b5 3d 70 57 4c bd 5e 35 be be 38 9b b4 3d
       0.08842005 -0.049888074 -0.3715009 0.08818668
0002a0 b8 df a0 3e e7 53 b6 bd ac 91 c8 be 66 28 cc be
       0.31420684 -0.08902722 -0.3917364 -0.39874572
0002b0 49 b2 96 be ce 6e 7d 3e 85 b8 25 3f ee 6b 9c bd
       -0.29432896 0.247493 0.6473468 -0.076377735
0002c0 54 72 0b 3e b1 fa a8 3d 30 fd 7b 3c 85 89 e3 3d
       0.13617831 0.082509406 0.015380189 0.11110214
0002d0 68 ba 48 be 20 62 f7 3d 94 d8 1e bf a6 ff 19 bf
       -0.19602358 0.12079263 -0.6204922 -0.60155714
0002e0 5c 19 8f be 45 be 72 3d 38 c3 f1 bd 6d 32 ec bd
       -0.27949035 0.059263486 -0.11804813 -0.115330555
0002f0 6e 17 35 3d dd a7 c3 3e 1e 9e ee be 63 c1 d3 3e
       0.044211797 0.38214007 -0.4660501 0.4135848
000300 0f 4a c2 3d af 93 96 3e 4e 2e a8 be 3e 1a ad 3d
       0.09486782 0.2940955 -0.32847828 0.08452271
000310 36 74 6e 3e a8 85 06 be fc 53 50 bf ef 49 88 bf
       0.23286518 -0.13136923 -0.8137815 -1.0647563
000320 ec ba 3a bf 2a 2f bb be 38 6a 06 3e 23 37 76 bb
       -0.7294147 -0.3655942 0.13126457 -0.0037569485
000330 c8 39 65 3e ed dd 86 be b4 3b c2 3e be 80 f7 bd
       0.22385323 -0.2634119 0.37936175 -0.120851025
000340 4d 50 10 be 72 e1 77 3e de 12 f0 bd f2 c6 1e 3e
       -0.14093132 0.24207094 -0.11722349 0.15505579
000350 3b b8 af bd ab c1 1a bd da 1e 80 3e 90 6c 3c 3e
       -0.08580061 -0.037782352 0.25023538 0.18400788
000360 65 0d 73 3e e9 3f c2 bd 55 c0 1e be 8d be 33 3d
       0.23735578 -0.09484846 -0.15503056 0.043882895
000370 24 37 a3 3d 36 21 0a 3e 97 4a 5c 3f 17 bd 10 bf
       0.079695016 0.13489231 0.86051315 -0.5653853
000380 4f 9f 92 bd 81 9f f5 3d 83 b8 83 3c ee 03 fb 3d
       -0.07159292 0.119933136 0.016079193 0.12256609
000390 33 03 b1 bd a1 5d 3b bd 51 63 08 bf bc 11 25 bf
       -0.08643188 -0.04574359 -0.53276545 -0.64480186
0003a0 4b 94 bc be fe 28 cd bd ec 67 8f bb b8 97 8d be
       -0.3683189 -0.10017584 -0.004376402 -0.27654815
0003b0 b1 e3 fe bd 54 e1 73 3e 0e 22 1f 3e f7 eb 80 bd
       -0.124457724 0.23816425 0.15540335 -0.06295007
0003c0 61 10 9a be 1a cf 01 3e 0b 9e 90 3d e5 dd e9 3d
       -0.3009062 0.12676659 0.07061394 0.11419276
0003d0 f9 f7 20 3b c3 f9 18 be 5a bc 68 3e 5e c5 8f 3d
       0.0024561866 -0.14939027 0.227281 0.07020067
0003e0 5a 1e 0b 3e cf 90 1f 3e db 89 18 3e bf f0 e4 3c
       0.13585797 0.15582584 0.14896338 0.027946828
0003f0 1e 0b fb bd bb 33 ae bd b3 56 af 3e c1 1c 37 bf
       -0.1225798 -0.085059606 0.34245834 -0.7152825

actor.0.bias f4 [64]
000000 b2 bd cf 3e a2 7f 19 bd 88 56 15 be 95 8d b7 be
       0.40574414 -0.037475236 -0.1458379 -0.35850206
000010 a6 06 b4 be 3f 07 91 3e 63 5f 90 3e d1 9d 5d be
       -0.35161322 0.2832584 0.28197774 -0.21642233
000020 c8 e5 be 3e 67 dc ab be 8c fd d3 bd 45 72 b8 bd
       0.37284684 -0.3356659 -0.103510946 -0.0900617
000030 95 bb de bc 9e ff e0 bd a9 da 17 3e fc 18 36 3e
       -0.027189055 -0.10986255 0.14829506 0.17782968
000040 e1 35 56 be 57 ae 17 3c 78 4c 39 3e ed 88 17 3e
       -0.2091899 0.009257874 0.18095577 0.14798327
000050 d3 a7 e9 bd 34 28 3d bb d7 26 37 3e 05 ab a0 be
       -0.11408963 -0.0028863074 0.1788591 -0.31380478
000060 04 b1 5b 3d 63 de 83 3e d3 70 f5 bd ac 1c 89 be
       0.053635612 0.25755605 -0.1198441 -0.26779687
000070 57 4c 57 bc 0a dd 94 3e ae eb 16 3e b1 63 5d 3c
       -0.013140759 0.2907489 0.14738342 0.013512538
000080 f0 14 cb bd 19 a2 a8 bd 73 a9 93 be 5c d9 72 bd
       -0.09916103 -0.08234043 -0.28840217 -0.05928932
000090 05 74 d7 3c 16 23 1a 3e b7 d0 25 be 8e a7 46 3c
       0.02630044 0.15052447 -0.161929 0.012124909
0000a0 f7 b3 c6 be 83 46 71 3e 67 d7 92 3e 7e 76 e2 be
       -0.38809177 0.23562054 0.28679964 -0.44231027
0000b0 c8 a2 ca 3d e7 a2 72 be ef 75 83 3e 65 91 7e 3c
       0.09894329 -0.23694955 0.25675914 0.015537594
0000c0 33 93 92 be ca 17 b5 bd e1 b5 72 bc 44 f1 9a be
       -0.2862793 -0.08842428 -0.014813871 -0.30262196
0000d0 8d 93 7c be e2 46 ad 3b 03 61 18 3d bb cc 00 3e
       -0.24665661 0.005287991 0.037201893 0.12578098
0000e0 ed 68 48 3d 7a 5b af 3e b6 d3 9b 3e 4e 1d 9a 3e
       0.04892819 0.3424948 0.3043496 0.30100483
0000f0 e9 00 79 be 02 6c 08 3d aa 6c 58 be 9b 99 bb 3d
       -0.24316753 0.03330613 -0.21135202 0.09160157

actor.2.weight f4 [64, 64]
000000 5f 4b 31 be 0c 97 3b be 6d 3a 4e 3d 8e a5 ae bd
       -0.17313908 -0.18319339 0.050348688 -0.08527671
000010 65 97 b3 3d 00 7e cf 3d b9 e7 2c be cd 1f 5d be
       0.087691106 0.101314545 -0.1688527 -0.21594162
000020 b9 29 b8 3d 29 8f a4 bd b6 28 b7 3d 17 78 68 3e
       0.08992333 -0.08035118 0.08943312 0.2270206
000030 ac fd d3 bd 15 85 f1 ba a0 48 70 bd ee e5 93 3e
       -0.103511184 -0.0018426502 -0.05866301 0.2888636
000040 a6 f0 0d 3c 60 d0 a2 3c d7 f2 ff 3c a3 51 b0 3d
       0.008663332 0.019874752 0.031243725 0.08609321
000050 9b e5 c8 3d 71 51 47 be 29 b3 9a 3d 51 3f 06 3c
       0.09809419 -0.19464661 0.07553703 0.008193807
000060 72 b0 52 3e ee 7c 08 be b5 f6 88 3e cf ee 89 bc
       0.20575121 -0.13328907 0.26750723 -0.016837506
000070 a7 02 f2 bd 07 f8 47 3d 00 70 71 3d 32 9c 1c be
       -0.11816912 0.04882052 0.058944702 -0.15293959
000080 16 bc b7 3d 25 da 35 bd d1 e4 17 3e 5e 63 2b be
       0.089714214 -0.044397492 0.1483338 -0.16737124
000090 b2 a8 8b 3d 62 ed eb 3c d7 cc 04 3e 42 9b 88 3d
       0.068192855 0.028799716 0.12968765 0.06670238
0000a0 80 50 9d 3d 1b cb f1 bd a3 ab f4 bc bf 4d e5 bd
       0.0768137 -0.118063174 -0.029866999 -0.111964695
0000b0 d2 e2 39 be e5 78 6f 3e 58 c5 ae 3b 23 a2 89 bd
       -0.18152931 0.23385961 0.005333584 -0.06720378
0000c0 4e 88 32 ba b0 57 80 be 0d 34 df bd 0f 8c 84 3e
       -0.0006810472 -0.250669 -0.108986 0.25888106
0000d0 7f d9 05 3e 0b 34 d8 3d 49 99 89 3d 17 8d 6a 3e
       0.1307125 0.105568014 0.0671869 0.22905384
0000e0 fd 44 e9 bd 36 be a4 bc 85 53 2b be 2e 77 5b bd
       -0.113901116 -0.02011023 -0.16731079 -0.053580455
0000f0 9f 4e f4 3d b4 d4 bf 3d d7 e1 6c be 3c d0 3e 3e
       0.11929058 0.09366742 -0.23133026 0.18634123
000100 c4 e6 3e be 70 65 94 3d 77 75 01 3d 69 3b 35 3c
       -0.18642718 0.0724591 0.031606164 0.011061528
000110 e4 c3 48 3e 10 27 2d be df a4 73 bd 4a f5 b4 3d
       0.19605976 -0.16909432 -0.059483405 0.08835848
000120 02 52 8d be 76 aa 22 3e f6 6c ac 3e fd 08 8e 3d
       -0.2760163 0.15885338 0.3367688 0.06935308
000130 d5 7b 35 bc 94 29 eb bc f2 88 a2 3e fc f3 98 be
       -0.011076887 -0.02870635 0.31745106 -0.29873645
000140 f4 ab 25 3e 16 a7 80 3c 13 4e 52 be 46 aa fe bb
       0.16178876 0.015704673 -0.20537595 -0.007771763
000150 b9 3d e5 3d da 71 de bd 6c ee d6 3d 80 4d bf 3e
       0.11193413 -0.10861559 0.10494694 0.37363815
000160 bc de e2 3c ec a5 8c be 83 d6 80 3d a9 99 2e 3e
       0.027694099 -0.27470338 0.06290915 0.17050804
000170 f0 91 a4 3d 05 ab 27 bc 91 15 bb 3d 03 75 dc bd
       0.08035648 -0.010233645 0.09134973 -0.10764506
000180 ee fe 71 be 2b 0c 43 be a5 cf e6 bd 3d 4d 58 3e
       -0.23632404 -0.1904761 -0.11270074 0.21123214
000190 2b 25 ff 3c 51 f8 c9 be aa 50 25 bc e5 3b ea bc
       0.031145653 -0.39447263 -0.010090033 -0.028593013
0001a0 db a4 ab 3e 42 51 6a be cf 98 9c be c9 ce 0c 3f
       0.33524212 -0.2288256 -0.30585334 0.5500303
0001b0 76 c1 0f 3d 6e 32 a6 3d 31 4d 2b bd 8f c4 9c 3e
       0.035096608 0.081150874 -0.041821662 0.30618712
0001c0 c5 35 b4 3e a2 92 a7 3e 6c 97 5f 3d 6b 7f 14 bd
       0.35197273 0.3272906 0.054587767 -0.036254328
0001d0 e7 a3 d4 3e c3 e7 14 bc e6 97 af bd fd f6 b7 be
       0.41531298 -0.009088459 -0.08573894 -0.35930625
0001e0 7d 70 b1 be 96 ce 2a bd 55 af aa be 66 d2 50 3e
       -0.34656134 -0.041700922 -0.33336893 0.2039276
0001f0 e0 75 b2 3c c9 05 89 3e 12 7d e3 bd 5d a0 53 bd
       0.021784723 0.26762226 -0.1110784 -0.051666606
000200 f5 f6 6e 3e e0 25 04 bc 54 e4 09 bf 07 80 dd bc
       0.23336394 -0.008065671 -0.53864026 -0.027038587
000210 18 4c ea bd 38 84 9b 3e 93 92 4b 3e 40 c7 91 3d
       -0.11440295 0.30374312 0.19880132 0.07118082
000220 47 98 51 be 8a d8 bc be b5 15 e0 be 43 25 b9 3e
       -0.20468245 -0.36883956 -0.4376656 0.3616124
000230 9d 98 a6 be 30 86 83 bf e6 59 5e be b3 b3 48 bc
       -0.3253831 -1.0275326 -0.21713981 -0.012249875
000240 3c a8 fd be 17 b3 ff 3d 42 fb 85 3e 34 1f a7 3e
       -0.49542415 0.124853306 0.26168257 0.32640994
000250 4d ec a3 3e 62 67 6a 3c 0c dc 26 bf ca 36 c9 be
       0.3201622 0.014306875 -0.65179515 -0.39299613
000260 67 39 34 be bd d1 87 3e b6 e1 c0 3e 91 55 de be
       -0.17600022 0.26527205 0.37672204 -0.43424657
000270 7a 67 c0 bd b9 96 62 3e 2f 28 8e 3e a1 ae 91 bd
       -0.093947366 0.22127809 0.27765033 -0.07113386
000280 da c8 eb 3e 3d 8e db 3d 07 c2 8b be 2e 66 58 be
       0.46051675 0.10720489 -0.2729647 -0.21132728
000290 d6 1a b5 be 59 23 0b 3f 95 1d 75 be c5 bd 3b 3e
       -0.35372037 0.5435081 -0.23937066 0.1833411
0002a0 15 45 e2 bd 2d ab d6 3e 55 8c 96 3f b0 2b da bd
       -0.110483326 0.41927472 1.1761576 -0.10652864
0002b0 bd ba ac be ad 56 d1 bc fa fb 8f 3e 85 f7 3b 3e
       -0.3373622 -0.025554026 0.2812193 0.1835614
0002c0 80 78 84 bf 0f c1 0b bf 22 3e 33 3f 40 c0 85 3d
       -1.0349274 -0.5459146 0.7001668 0.065308094
0002d0 30 b7 a3 be cd 0a a4 3e 78 45 da be 9d ab 2c be
       -0.31975698 0.3203949 -0.42631125 -0.1686234
0002e0 53 8d 58 3e 1b 48 76 3e 93 34 97 3e c3 1d 8f 3e
       0.21147661 0.24050944 0.29532298 0.27952394
0002f0 8b 16 09 be 38 d5 d1 bd a6 e3 80 bd 5c 25 8b 3e
       -0.13387506 -0.102457464 -0.062934205 0.2717694
000300 fc ac ef be 71 f9 23 be e3 97 ab be 73 cc 3b 3f
       -0.46811664 -0.16013123 -0.33514318 0.7335884
000310 69 57 47 3f 07 ae 28 bf 0a 6e 9d be e2 8e 65 3d
       0.7786775 -0.65890545 -0.30748016 0.056044467
000320 d7 23 65 3e 79 26 50 be 10 e1 c9 3d 76 57 dc 3e
       0.22376953 -0.20327176 0.098573804 0.43035477
000330 51 48 2a be 8e 85 91 be b1 41 91 3e cd 7d 00 bf
       -0.16629149 -0.28422207 0.2837043 -0.50191957
000340 7f b6 d6 be 08 b6 89 3e 02 c3 13 bf 81 bc 62 3f
       -0.41936108 0.2689669 -0.57719433 0.88568884
000350 08 45 08 3d f9 19 9b be 81 47 e6 be be 73 e3 bd
       0.03326896 -0.30293253 -0.44976428 -0.111060604
000360 31 98 56 bf 8b b9 3c 3e a8 85 e7 3e 11 47 fe bd
       -0.83825976 0.18430154 0.4521916 -0.124158986
000370 1d 38 0a bf 7c ac df 3e 74 33 96 3d 87 13 b4 3e
       -0.5399187 0.43686283 0.07334033 0.35171148
000380 11 01 75 3e 3b d4 99 3d cf 2b e4 3e 0c bc 02 bd
       0.23926188 0.07511183 0.44564673 -0.031917617
000390 1b 52 07 3f c3 93 3d bb c9 00 aa 3e 6b a4 54 bd
       0.5285966 -0.0028927184 0.33203724 -0.051914614
0003a0 6e 07 7f 3f 5e 7b a6 bd 8c ed 1d be 57 63 dd 3c
       0.9962071 -0.08128999 -0.15422648 0.027024908
0003b0 ff ad 93 be 1a 9f a2 3e 1a 64 18 bf b8 d7 89 be
       -0.28843686 0.3176201 -0.5952774 -0.26922393
0003c0 4d 6e df 3e 90 e6 89 3d a5 3f 14 3c 35 88 62 3e
       0.4363884 0.067334294 0.009048377 0.22122271
0003d0 09 1c 60 3e b7 96 bc 3e 9b 8f 1b be e7 1c 26 bd
       0.21885695 0.36833736 -0.151915 -0.040554907
0003e0 2b ea 0d bf 55 c0 fe bb 86 03 80 bf c9 c7 69 bf
       -0.55435437 -0.0077743926 -1.0001075 -0.9132047
0003f0 22 7f 1f 3f 4c f1 08 3f 03 39 b3 be 59 42 ab 3d
       0.62303364 0.5349319 -0.35004434 0.08362264

actor.2.bias f4 [64]
000000 90 57 ef 3c 59 fa be be 87 cc 09 be 70 54 6f 3e
       0.029216558 -0.37300375 -0.13456927 0.23372054
000010 4c 4f 69 be de a2 eb 3b eb 22 c1 3d 05 c3 79 bd
       -0.22784156 0.007191046 0.09430488 -0.060977
000020 33 7f f2 bd ae 0f 64 3d 28 85 33 be 42 17 4e be
       -0.118406676 0.055679016 -0.17531264 -0.2012606
000030 e7 66 87 3e 9d 2f 29 be a5 4a 5b bf 40 96 51 3e
       0.26445696 -0.1652207 -0.85660774 0.20467472
000040 32 52 a8 3d c1 85 ba be 47 88 35 bd 14 02 7a bd
       0.082188025 -0.3643017 -0.044319417 -0.061037138
000050 18 30 d0 3e d6 63 c8 be f7 31 ab 3c bc b1 3b 3d
       0.40661693 -0.3913867 0.020897849 0.045823798
000060 ce aa dd bc 95 90 7d be fe 26 8f 3d 2f 4d 35 be
       -0.027058985 -0.24762185 0.06989859 -0.17705224
000070 7c 92 5f bd 05 87 cf bd b3 f2 a7 3e 54 98 32 be
       -0.054583058 -0.10133175 0.32802352 -0.17440921
000080 32 24 88 3e db 11 68 bd 6c 2d 81 3e 15 db 0f 3f
       0.26590115 -0.056657653 0.25229967 0.5619367
000090 6a 4e 65 be f8 3b 45 be 74 d7 7b 3d c4 90 69 3e
       -0.22393194 -0.19261158 0.06148477 0.2280913
0000a0 b5 6d 6a 3d d6 ab 10 bd 43 b3 9b be 3f 77 42 3e
       0.05723353 -0.035320126 -0.30410203 0.18990801
0000b0 f8 c5 66 bd a6 20 1f be 7c f5 9d bd 43 fc 7d bd
       -0.05634114 -0.15539798 -0.07712838 -0.062008154
0000c0 50 f2 db bd 47 eb 1f be 99 be 2e be 54 06 38 bd
       -0.10739577 -0.15617095 -0.17064895 -0.04492791
0000d0 5f 21 96 3d b4 9f 89 3d 0b b3 c8 bd 40 7d 11 3d
       0.07330584 0.06719914 -0.09799775 0.03551984
0000e0 13 43 50 bc 7b b4 e0 bd 9b 9e 16 be a2 88 75 3d
       -0.012711304 -0.10971924 -0.1470894 0.059944756
0000f0 1e 37 2c be 01 f9 10 be 4b 30 c6 bd ee 41 29 bc
       -0.168179 -0.14157487 -0.0967718 -0.01033066

actor.4.weight f4 [7, 64]
000000 e7 81 f8 3c e8 98 fb bd 9b 42 27 3e 55 a9 5e 3f
       0.03033538 -0.12285024 0.16334002 0.8697713
000010 08 2f 10 be cd 4a 68 3e 86 b3 ab 3d 18 51 98 bc
       -0.14080441 0.22684784 0.08383851 -0.018593356
000020 2c cb e6 3d d0 53 1a 3d 33 3c ae be f4 28 7c be
       0.11269221 0.037677586 -0.34030303 -0.24624997
000030 b9 aa 13 3e 2b 3d 9a be 86 d2 77 bc 14 24 82 bc
       0.14420594 -0.30124792 -0.015125876 -0.015886344
000040 b8 7d 38 3e b6 b5 11 bf 77 a6 a2 3e 52 9a dc 3d
       0.18016708 -0.56917894 0.31767628 0.10771622
000050 7a e2 8e 3e db b4 3c be a0 66 84 3d 00 f7 c3 3e
       0.27907163 -0.18428366 0.06464887 0.38274384
000060 30 79 83 be c3 0c 33 be 30 41 09 be a7 63 9b be
       -0.25678396 -0.17485337 -0.13403773 -0.30349466
000070 be a6 b6 3d 68 cc 19 bf b0 af 84 3e 32 73 9d be
       0.08918522 -0.60077524 0.2591529 -0.3075195
000080 83 7a 4a 3e 33 40 8d be 61 ba 8c be 7a 1f 36 bf
       0.19773297 -0.27588043 -0.27485946 -0.7114178
000090 d3 09 84 be 9d b4 dc bd d0 cc 00 3e b8 9f 05 be
       -0.25788745 -0.10776637 0.1257813 -0.13049209
0000a0 d6 30 8d 3e f5 8a 94 3e fe a5 6e bd b2 13 c1 3d
       0.2757632 0.29012266 -0.05826377 0.09427585
0000b0 2b 1b 69 be e6 3a a6 be 94 66 57 be 97 0c e9 bd
       -0.2276427 -0.3246681 -0.21035224 -0.113793544
0000c0 b1 dd 89 3e 8d 6f 65 be 89 83 88 be e1 a3 69 bd
       0.2692695 -0.22405834 -0.26662853 -0.057041053
0000d0 0f 40 29 3c 59 a9 dd 3d cd 14 85 bc 1a f2 1c be
       0.010330214 0.10823316 -0.01624527 -0.1532673
0000e0 7f 40 06 be 99 2c 97 be 95 a5 a5 3e 93 f3 c0 3e
       -0.13110541 -0.29526213 0.32352892 0.37685832
0000f0 90 dd 4d 3c 7b 44 51 be 5e 35 1c 3e 63 32 d7 bd
       0.012565032 -0.2043628 0.15254733 -0.105076574
000100 b7 3d a9 bd af 7c c1 bd e4 1c 85 3e 1b d0 77 3e
       -0.08263724 -0.0944761 0.25998604 0.2420048
000110 b4 36 cd be a8 75 a6 3e fb ea 59 3e 12 67 d6 3d
       -0.40080798 0.3251164 0.21281044 0.10468878
000120 c7 70 1a bd 5f de 69 3d 6e 5f 0b bf 62 68 83 be
       -0.03770521 0.057096835 -0.5444249 -0.25665575
000130 f3 83 7b 3e 03 ad ae be 8e 63 d1 be fb 26 ab 3d
       0.24562053 -0.34116372 -0.40896267 0.08357044
000140 1a 89 58 3d 14 0b 14 bf 48 22 5e 3e 82 f8 87 3d
       0.052865125 -0.57829404 0.21692765 0.06639196
000150 1d 5a ad 3e e1 5e f2 be a8 0f 66 3d ea b2 92 3e
       0.33857813 -0.47338012 0.056167275 0.28652126
000160 fa 49 8d be e3 da 60 be 5d 1f 2c be 0a e4 be be
       -0.27595502 -0.21958499 -0.16808839 -0.37283355
000170 99 a1 0a 3e 5b cc 15 bf 6a 03 9a 3e b5 e3 af be
       0.13538207 -0.58514947 0.3008073 -0.34353414
000180 94 79 c4 3d 71 67 44 be d1 9b 38 be fc 4b 95 be
       0.09593502 -0.19180085 -0.18028189 -0.29159534
000190 34 a4 8b be b5 75 34 be ea 26 5a be d4 1c ac bd
       -0.27273715 -0.17623027 -0.21303907 -0.08403936
0001a0 30 bc 70 3e d3 b9 83 3e 88 e2 8e bd d1 1a 80 3d
       0.23509288 0.2572771 -0.06976801 0.06255115
0001b0 be 2c c1 bc b9 8e 88 be 58 dc 1d bd 4c ed 53 bd
       -0.023580905 -0.2667139 -0.038540214 -0.051739976
0001c0 5d 91 4d 3e 8a 58 5b be cb 92 ce be a3 62 49 bd
       0.20074983 -0.21420494 -0.4034637 -0.049166333
0001d0 d5 0d d1 bc bc 99 d6 bd a6 80 0e be a6 ed f5 bd
       -0.025519291 -0.10478541 -0.13916263 -0.120082185
0001e0 15 de ef 3c 05 d2 81 be f2 f3 ee 3d 3b ce 04 3f
       0.029280702 -0.25355545 0.116676226 0.5187718
0001f0 74 fc ba 3d 80 85 25 be 4e ff a9 3d 10 fd 74 be
       0.09130183 -0.16164207 0.08300649 -0.2392466
000200 3d d7 77 3b ce 53 2e be c9 65 7d be 46 d0 2b bd
       0.00378175 -0.17024156 -0.24745859 -0.041946672
000210 cc 48 9d be 8c 3b 8f 3e 9a cc 75 3e 94 88 25 bd
       -0.30719602 0.27975118 0.2400383 -0.040413454
000220 40 de 24 bd 59 d1 1c 3d 17 32 ca be a6 0a 96 be
       -0.040251017 0.038285587 -0.3949134 -0.29305
000230 0e 54 ad 3e f4 b9 6b be 84 76 a7 be a2 e2 c1 3d
       0.3385319 -0.23020154 -0.32707608 0.09467055
000240 9c 3d 39 bd 4f 0c 4f bf c6 d7 5f 3e 53 9c 05 bc
       -0.04522477 -0.80878156 0.21859655 -0.008154946
000250 b4 74 0c 3f 73 83 05 bf de 9f 76 3d f9 e9 aa 3e
       0.54865575 -0.521537 0.060211055 0.33381632
000260 c2 e1 a5 be 5c 79 90 be 99 61 6b bd b3 d7 ca be
       -0.32398802 -0.2821759 -0.057466123 -0.3961769
000270 b6 b0 fd 3d 62 4e 24 bf 5e 7b ab 3e c7 8a d1 be
       0.123872206 -0.641821 0.3349256 -0.4092619
000280 00 e8 04 3c b2 54 58 3d 48 08 d3 bd 32 8a bb bd
       0.008111954 0.052815147 -0.10304314 -0.09157218
000290 7f 8b ac be 82 17 6d be 75 11 0a bf 5b 2c 7b bd
       -0.33700177 -0.23153499 -0.5393289 -0.061321598
0002a0 7a 20 c3 3e 4f 9d 3c 3e 51 56 6b be be 14 5c 3e
       0.38110715 0.18419383 -0.22982146 0.21492288
0002b0 c5 b1 1a be a1 11 bc be 46 ce 31 bd 05 30 d8 3d
       -0.15106876 -0.367322 -0.04340961 0.10556034
0002c0 d9 c5 d7 be 5d 63 c8 be f9 01 d7 be c2 1f b8 bd
       -0.42143133 -0.39138308 -0.41993693 -0.08990432
0002d0 e1 a7 c4 bd 61 b2 0c be 1e 32 7e bd ed 1a be bc
       -0.09602333 -0.13739921 -0.062059514 -0.023206199
0002e0 ec 79 05 be 72 43 2a be 08 c3 59 3e 7a 7e bb 3e
       -0.13034791 -0.16627291 0.21265805 0.3661993
0002f0 a8 87 25 3e bd 69 7d be 60 a1 fa 3c 07 98 2e be
       0.1616503 -0.24747367 0.030594528 -0.17050181
000300 d5 7d b3 bd ab 6a aa be f9 8a af be 2d 05 da 3e
       -0.08764235 -0.33284506 -0.34285715 0.42582074
000310 fb 01 6f be 34 a8 3b 3e fb c0 83 3e ca 45 a9 bd
       -0.23340599 0.18325883 0.2573317 -0.08265264
000320 5f cc dc 3d b6 80 01 3e 5c 98 de be 28 6a c1 be
       0.10781168 0.12646756 -0.43475616 -0.37776303
000330 f7 e8 37 3e 80 a9 93 be 50 c9 fc be b8 67 3c 3e
       0.17959963 -0.28840256 -0.4937234 0.1839894
000340 2b dd 94 be 76 43 0e bf 60 20 52 3e 68 98 34 3d
       -0.29074988 -0.5557169 0.20520163 0.04409066
000350 ce fd b7 3e 05 b4 91 be d8 ef 6e 3d 37 43 c7 3e
       0.35935825 -0.28457657 0.0583342 0.38918468
000360 0b 36 9d be 01 fb 8f 3e 40 f0 0a be 45 5d fe be
       -0.30705294 0.28121188 -0.1356821 -0.49680534
000370 60 28 06 3f f9 9a 33 bf 44 99 aa 3e e1 60 a0 be
       0.5240536 -0.70158345 0.33320057 -0.31323913
000380 a4 05 4c be e9 17 41 3e 51 91 27 be 91 95 b2 3e
       -0.19924027 0.18856777 -0.16364028 0.34879735
000390 d9 32 8d 3d 56 53 8d be bf 31 05 bf 01 6c 33 bd
       0.06894464 -0.27602643 -0.5202903 -0.043804172
0003a0 02 41 a5 3e cb 41 4d 3e a1 ab 72 be f9 25 87 3d
       0.3227616 0.2004463 -0.23698284 0.065990396
0003b0 ba 24 54 3e 38 25 cd be e3 d2 e4 3d b1 3f 9b 3e
       0.20717135 -0.40067458 0.11173036 0.3032203
0003c0 89 b4 e5 bc 66 23 fa bc 89 4e 8e be c4 d2 96 bd
       -0.028040187 -0.030534457 -0.27794293 -0.07364419
0003d0 28 76 a3 be 47 77 7d be 08 73 d7 bd 9e 98 ce bd
       -0.31926084 -0.24752532 -0.10519987 -0.10087703
0003e0 39 97 13 be 80 cf 80 3e c1 95 1d be f2 2a e0 3e
       -0.14413156 0.2515831 -0.15389158 0.43782765
0003f0 58 60 c1 3e 72 ef b1 be 09 5a 18 3d bd 87 0d be
       0.37768817 -0.34752995 0.03719524 -0.13821311

actor.4.bias f4 [7]
000000 3b ac a0 3e c3 59 3b 3f de 5e 86 3f 5d e5 b5 3f
       0.313814 0.7318384 1.0497701 1.4210621
000010 6a e2 b5 3f ac c1 9b 3f e0 bb 09 3f
       1.4209721 1.2168479 0.538023

critic.0.weight f4 [64, 16]
000000 7b 59 8e 3c 04 d9 4e bb ce a6 f1 3e 91 66 1c be
       0.017376652 -0.0031562457 0.47197574 -0.15273501
000010 04 74 30 3e 63 20 7a be 0e c3 92 bd c6 f6 16 3f
       0.17231756 -0.24426417 -0.0716611 0.58970296
000020 f3 b3 cf 3e 42 80 ec bc 5b 9f 16 3e 51 87 cd bd
       0.40566978 -0.028869752 0.14709227 -0.10035575
000030 13 8f 09 3f 90 c3 94 3f 7a 40 82 3f 0d 5d 02 3f
       0.5373394 1.1622181 1.0175927 0.50923234
000040 1a 86 38 3e 42 d6 ce 3d af 6e a6 bc ec ba bc 3d
       0.18019906 0.1009946 -0.02031645 0.0921534
000050 96 f1 ca 3e 99 1f 79 3b 6d 11 63 be e3 8a e3 bd
       0.3963744 0.0038013218 -0.22174616 -0.11110475
000060 36 61 6d bd e3 71 a1 be 57 7f 0c bf 54 4b 28 bf
       -0.057954036 -0.315322 -0.54881805 -0.6573994
000070 2b 2b a2 be 5c ac dd be 53 66 d7 bf a5 32 39 c0
       -0.3167356 -0.43295562 -1.6828102 -2.893716
000080 d3 98 d2 bd 12 28 1f 3e 6f 2a 9f bd c9 9c f3 3e
       -0.10283055 0.1554263 -0.077717654 0.47580555
000090 87 ab 15 3f 89 0b 87 3e 52 e3 9c be 2e d5 81 be
       0.58464855 0.26375988 -0.30642182 -0.25357956
0000a0 20 ec cc be 0f a3 66 bc 28 71 96 bd 3c 73 64 bd
       -0.400239 -0.014076962 -0.073458016 -0.05577396
0000b0 f9 39 4a 3c d9 e6 cd 3e 32 d7 9a 3f e1 3f 2e 40
       0.012342923 0.40215185 1.2096922 2.7226489
0000c0 ff 8a 47 3d 8e a8 ff 3e 59 b6 99 bc f6 5e ea 3e
       0.04871654 0.49933285 -0.018763708 0.45775574
0000d0 35 45 da 3e 40 39 bc 3d a4 6e 81 3e 69 a7 e0 bd
       0.42630926 0.09190607 0.25279725 -0.10969431
0000e0 3c a8 55 3e a9 a9 db be 07 f5 3b bf 26 f2 68 be
       0.20864958 -0.42902878 -0.7342076 -0.22748622
0000f0 b6 10 1f bf 8a 33 99 bf b1 0e 85 bf 6e 17 9d bf
       -0.62134874 -1.1968853 -1.0395108 -1.2272775
000100 fd 93 cd 3e 27 39 1b 3e eb ab de 3e a2 fc b3 be
       0.4015197 0.1515852 0.43490538 -0.3515368
000110 19 12 77 be 78 2b d0 bd df b5 0a 3f c8 1d 66 3f
       -0.24127997 -0.10164541 0.54183763 0.8988919
000120 df 92 2c 3f d5 2a c1 3e 2b 2d 04 3f 8b 3e 5a 3e
       0.6741161 0.3772799 0.5163142 0.21312921
000130 59 16 dc bd f1 e5 c7 3d 41 e2 23 c0 79 97 e1 bf
       -0.1074645 0.09760655 -2.5606844 -1.7624351
000140 65 44 e0 be 4d a7 47 be 26 d2 79 3e 75 78 8b be
       -0.4380218 -0.19497414 0.24396572 -0.2724034
000150 9a 04 ab be f4 5e 74 be 3a cb f8 be 05 81 59 be
       -0.33401948 -0.23864347 -0.4859255 -0.21240623
000160 6f fe f4 be 24 ab 49 3f 7d f3 b2 3e de 09 13 3f
       -0.47850367 0.78776765 0.34951392 0.5743693
000170 5f 43 04 3f 01 eb 3d 3f 52 b5 fb 3f 8d c8 49 3f
       0.516653 0.7418671 1.966471 0.7882164
000180 e3 09 8f 3e 7d 3d 98 3d 1e f9 cf bd 1a 56 de bd
       0.2793723 0.07433603 -0.10154937 -0.10856266
000190 4e 95 9f bd 37 d4 b9 bd 7d 27 91 3f c7 ed 62 3f
       -0.077921495 -0.0907368 1.1340176 0.8864407
0001a0 23 b5 6b 3f 7d 04 8f bd f7 af ae bd 8d f4 9a 3d
       0.9207327 -0.06983278 -0.085296564 0.075661756
0001b0 63 d6 43 3b 3c 60 b5 bc ab 24 0c c0 6e 0b a9 be
       0.0029882423 -0.022140615 -2.189738 -0.33016533
0001c0 7d 49 a3 bd 1c 38 b8 be fd 14 88 3a 48 18 57 3e
       -0.07973001 -0.35980308 0.0010382232 0.21005356
0001d0 12 0e e9 3e 12 5a 2d 3e d7 76 ca bf a6 95 5a bf
       0.45518547 0.1692889 -1.5817517 -0.85384595
0001e0 ac 21 1a bf 6f 76 ab 3d 0a 1e cd 3d 63 65 31 bd
       -0.6020763 0.08372199 0.10015495 -0.04330958
0001f0 92 e4 23 be e6 da 42 3f 8d f4 d2 3f 7e c7 32 3e
       -0.16005161 0.7611526 1.6480881 0.17458913
000200 5d 41 ad 3d a3 a2 06 be cb f3 de bd e1 78 65 3f
       0.08459733 -0.13147978 -0.108863436 0.8963757
000210 96 05 11 3f 73 57 0a 3f 5f 73 ec 3f ef 4b 16 40
       0.5664915 0.54039687 1.8472708 2.3483846
000220 03 d2 19 40 b9 0f 0b bf 0a 29 d8 be f2 9b 17 bf
       2.403443 -0.54320866 -0.4221881 -0.5922233
000230 be 46 32 bf 32 4f 62 bf 47 25 aa bf 54 80 c7 bf
       -0.69639194 -0.8840209 -1.3292626 -1.5586038
000240 68 55 10 3f 67 a6 bb 3d 84 d5 2d 3e 5c 86 cc 3e
       0.5638032 0.09162598 0.16975981 0.39946258
000250 1b b5 05 3e 7b ef 65 3e 3e 8e bf 3e 77 06 e4 3e
       0.13057368 0.22454636 0.3741321 0.44536182
000260 ad 45 e1 3e d9 2b e4 be 96 ce 00 be 26 85 62 be
       0.4399847 -0.44564703 -0.12578806 -0.22121105
000270 ea f4 0a bf 53 08 89 bf 16 72 1d c0 12 1a 70 be
       -0.5427996 -1.0705665 -2.4600883 -0.23447445
000280 ab 60 dd 3e db ca 95 3e d3 f1 e9 3e 6f bf c7 3d
       0.43237814 0.2925633 0.4569231 0.0975331
000290 52 3d 76 3e f4 e3 4f 3e a1 04 b9 3f bf 5a 05 40
       0.2404683 0.20301801 1.4454538 2.0836637
0002a0 f9 76 03 40 cc 40 fa be 5a d9 1a be 7a 57 ed be
       2.0541365 -0.4887756 -0.15121976 -0.46355802
0002b0 e4 5c 92 be a1 18 13 bf d3 16 1d c0 15 d6 32 bf
       -0.28586495 -0.57459456 -2.454518 -0.69857913
0002c0 7d a9 04 be b1 5b b1 be 70 22 6d 3b 6e 0a 21 bd
       -0.1295528 -0.34640267 0.0036183856 -0.039316587
0002d0 24 44 a1 be b9 58 32 be 7b cd 22 bf 7f 86 23 bf
       -0.314973 -0.17416658 -0.6359479 -0.638771
0002e0 3f f4 e4 be 54 e8 f3 3e 31 f0 0c 3f 20 d0 14 3f
       -0.44717595 0.4763819 0.55054003 0.58130074
0002f0 83 be d6 3e 88 43 cf 3c 1e cb 8f 3f 36 4f 78 40
       0.41942224 0.025300756 1.1233861 3.8798347
000300 a6 6a 72 bc 1c 9e 0e 3e 5e b3 01 be 0e 7d 63 be
       -0.014795935 0.13927501 -0.1266608 -0.22215673
000310 cb 4b b6 bd 11 85 1f bd 6c 34 eb be 61 d1 27 bf
       -0.08901175 -0.03894526 -0.45938432 -0.6555386
000320 6b fe 42 bf 34 40 28 3f 44 ab f9 3e 58 4f 21 3f
       -0.7616946 0.65722966 0.48763478 0.63011694
000330 7c e9 ca 3e 28 fe 34 3d be e2 b6 3f fc 31 94 3f
       0.3963126 0.044187695 1.4287946 1.1577754
000340 26 72 a3 3e f3 66 83 3d 7b 1e 71 3d d8 a6 91 3e
       0.31923026 0.064161204 0.05886696 0.28447604
000350 b9 40 81 3c 00 23 e1 bd 33 02 36 bf a9 6e 53 bf
       0.015777932 -0.10993004 -0.71097106 -0.8259073
000360 12 35 26 bf ef 66 92 be c3 e5 c3 be e4 a6 0a bf
       -0.6492473 -0.28594157 -0.38261232 -0.54160905
000370 8b df 35 3f c5 5a 88 bf d2 4b de bf 13 04 9e bf
       0.71044225 -1.0652701 -1.7366889 -1.2344993
000380 48 33 5c be 36 9f 77 3e 7c ca c8 bd 63 e8 17 bc
       -0.21503937 0.24181828 -0.09804246 -0.009271714
000390 ee ec 73 3c b9 66 a5 be 84 e2 df be 95 19 5b be
       0.014888031 -0.32304934 -0.43727505 -0.21396478
0003a0 58 e4 09 bf 03 93 8f bd 0b 61 98 3e c6 4b 30 3f
       -0.5386405 -0.07010462 0.29761538 0.6886562
0003b0 0a 0e 4c be 99 40 02 be fe 45 36 3f 95 5c 97 3f
       -0.1992723 -0.12719955 0.7120055 1.1825129
0003c0 e3 1b a0 3e 9f 13 db bd 5d 34 49 bd fd 80 a6 3d
       0.31271276 -0.10697102 -0.049122203 0.08130071
0003d0 a3 14 8a 3e 8c c6 60 3e 65 9b 7c bf df 90 45 bf
       0.2696887 0.2195074 -0.98674613 -0.7717418
0003e0 9e 3a 2e bf 68 0f 10 bf 1f d7 d9 be d5 84 78 bd
       -0.6805819 -0.5627351 -0.42546937 -0.060673553
0003f0 59 d6 92 bf 99 71 9b be 5e c2 e0 bf b1 8f 8a bf
       -1.1471664 -0.30360106 -1.7559316 -1.0825101

critic.0.bias f4 [64]
000000 1d b1 52 3e ed dd e2 be 1b f2 f9 3d 1d 89 1c bf
       0.20575376 -0.4430994 0.12204381 -0.6114672
000010 33 58 56 3e 9c 2e 03 3f e9 eb da 3e 6c e8 bc bc
       0.20932083 0.51242995 0.4275811 -0.023060046
000020 bb 51 eb be ae 2c 8a be 0b a8 5f be b2 98 0b 3f
       -0.45960793 -0.26987213 -0.21841447 0.5452987
000030 8a 19 e8 3e 3d f9 8f be 41 ed 31 3f b5 52 b7 3d
       0.45331985 -0.2811984 0.69502646 0.08951322
000040 00 a0 c2 3f f2 ae 05 bc ee b3 4f be 09 96 ba 3e
       1.5205078 -0.008159386 -0.20283481 0.36442593
000050 90 55 1c bf e8 da 42 3e 1c b0 53 bf b5 e0 dc be
       -0.6106806 0.19028819 -0.82690597 -0.43140188
000060 05 7c 1e 3f 38 38 ae be 47 cb e7 be 73 26 9f bc
       0.6190799 -0.34027267 -0.45272276 -0.019427514
000070 5c 83 bd bf df 0b 45 3f 43 df bf be b7 88 2f 3e
       -1.4805713 0.7697124 -0.37475023 0.17141996
000080 82 38 8f bf bb fa 8f be 61 9f 57 3f a8 8c 38 bf
       -1.118912 -0.2812098 0.8422757 -0.72089624
000090 bb c4 39 bf 7f fe ac bd f6 30 6a 3e 03 2f 24 bf
       -0.7256581 -0.08446979 0.2287024 -0.64134234
0000a0 bf 2f 41 bc 0b 0d 02 3d 66 06 2a 3f 5c 67 83 be
       -0.011791169 0.03175072 0.66416013 -0.25664794
0000b0 94 ad 35 be 42 5b 02 be 0b 8d ab be 0d c7 5c bf
       -0.17741996 -0.12730125 -0.33506045 -0.8624123
0000c0 4b 02 f8 bd de 80 61 bf 29 5c 85 be 37 45 c0 bf
       -0.12109812 -0.8808726 -0.26046875 -1.5021123
0000d0 37 2c 7d bb ba 0b 86 bf 1e 13 9b be 8b 20 af 3e
       -0.003863109 -1.0472329 -0.30288023 0.34204516
0000e0 b8 0a 70 be 9a a7 a9 bf e8 c3 80 3e 84 6f 17 3e
       -0.23441589 -1.3254273 0.25149465 0.14788634
0000f0 cb 8b 36 3e bf 3f a8 be 72 07 b8 be 23 a4 6f bf
       0.17826764 -0.32861134 -0.3594318 -0.9360983

critic.2.weight f4 [64, 64]
000000 ed 30 b3 3e 72 f3 98 be d5 8a 50 3e 33 04 bd 3d
       0.34998265 -0.29873234 0.2036546 0.092293166
000010 81 92 d3 3d 4c 0e ff bd 5f 32 7e be ae c5 10 3f
       0.10330678 -0.12453899 -0.24823903 0.56551635
000020 74 80 5c 3e c6 c8 d4 3e 7a ae ab 3e 78 e5 3f 3f
       0.21533376 0.41559428 0.33531553 0.74959517
000030 c9 08 92 be 9b db 09 3f 61 52 d8 3e 92 b1 70 3e
       -0.28522328 0.53850716 0.4225035 0.23505238
000040 85 82 59 3e cd 31 9e bc 08 09 51 3e 8d f5 77 3c
       0.21241195 -0.019310856 0.20413601 0.015134227
000050 17 4c be 3d 29 c7 e5 3e ac f9 a0 be b4 83 19 be
       0.09291857 0.4487851 -0.31440485 -0.14991647
000060 c2 f4 7d 3e 90 4b 50 bd 8e 49 31 be 4c 05 a7 be
       0.24800399 -0.050853312 -0.17313215 -0.3262123
000070 78 b6 4b be f3 22 08 3e 56 39 a9 3c 8c 0c d6 3e
       -0.19893825 0.13294582 0.020657223 0.41806448
000080 bd 6c 62 3e cb c1 59 3e aa a0 45 3e 6e 1a 2d be
       0.22111793 0.21265332 0.1929957 -0.16904613
000090 80 64 42 be 5c ad 26 3e 43 48 e8 3d de e8 58 3d
       -0.1898365 0.16277069 0.11341908 0.052956454
0000a0 e8 24 b0 be 0c 8e 25 3f 50 b1 7a be 3b 8a 9f be
       -0.34403157 0.6466987 -0.24481702 -0.3116015
0000b0 62 a2 6f 3f 31 a5 26 be bd 71 68 be 2a 6b 72 3e
       0.9360715 -0.16273953 -0.22699638 0.23673692
0000c0 bb 12 e4 be 6f 77 f4 bd de d3 1e be d7 be 54 bd
       -0.4454554 -0.11936843 -0.15510508 -0.05193981
0000d0 f7 89 64 3e c3 00 cb bd 1b 22 45 3e d3 70 ad bd
       0.22318254 -0.09912255 0.19251291 -0.08468785
0000e0 db ec 8e 3e 6e a4 58 be 2a 1b 15 3d a9 9f 07 3f
       0.2791508 -0.21156475 0.03640286 0.52978
0000f0 e5 30 db 3e 9e 72 fa be d8 f3 c8 be 4c 71 94 be
       0.4281074 -0.4891557 -0.39248538 -0.2899269
000100 ce ee 49 bf f7 d0 b9 3e de 3a 09 3e 96 04 e6 bd
       -0.7888001 0.3629224 0.13401362 -0.112313434
000110 a3 5c 06 bf 28 ff 1f be 27 a8 c3 3e f2 d7 bd 38
       -0.524851 -0.15624678 0.38214228 9.052445e-05
000120 71 e9 26 be 47 2c 5f be 13 7e 0a be 73 76 31 3f
       -0.16299988 -0.21794234 -0.13524656 0.69321364
000130 77 65 16 3f ae 36 f0 be 29 85 02 3b b7 0b 05 bf
       0.58748573 -0.46916717 0.0019915795 -0.51971
000140 3a 8b d9 3e d0 c6 9a 3e fe f7 c0 be 1d 18 89 3d
       0.42489034 0.30229807 -0.37689203 0.06694052
000150 23 54 48 3e 8a 81 2e 3e 6d 1a 70 be 75 64 e3 bd
       0.19563346 0.17041603 -0.2344758 -0.11103145
000160 23 0e c2 3c 22 03 0f 3d 9d ce 08 3e f4 07 c6 3e
       0.023688382 0.034915097 0.13360067 0.38677943
000170 7d 3f d5 bd 22 de 59 3e 31 0f e2 3d ea 20 cb be
       -0.104125 0.21276143 0.11038054 -0.3967355
000180 75 49 82 be b4 d6 0d 3e db f3 77 3e bb 33 83 3d
       -0.25446668 0.13851434 0.24214117 0.06406351
000190 ef f1 e3 3d 35 5c 9b be 88 7d 40 be 61 30 f8 be
       0.111301295 -0.30343786 -0.18797886 -0.4847441
0001a0 db c9 d2 3e dd 87 58 be e2 b9 48 3e 93 bd 50 bd
       0.41169629 -0.21145578 0.19602159 -0.050962042
0001b0 4a c1 12 bf 93 eb 38 be b9 5f 69 be 32 64 90 3d
       -0.57326186 -0.18058614 -0.22790422 0.07050361
0001c0 e6 70 87 3d f6 5d 3a 3d 8a 7e 0f bf a1 07 50 3e
       0.066133305 0.045499764 -0.5605246 0.2031541
0001d0 f0 44 8c be e6 c0 02 3e f1 96 1b 3f ac 80 cc be
       -0.27396345 0.12768897 0.60777193 -0.3994192
0001e0 15 f6 35 3c 77 f9 c6 be fb 92 16 3e 6a a8 e2 3d
       0.011106034 -0.38862202 0.14704506 0.11067279
0001f0 94 6b 94 be 3a fa 4e 3e 1d 93 bc 3e 46 08 23 3d
       -0.28988326 0.20212641 0.3683099 0.039802812
000200 70 cd 98 3e 6c ab 6e be 85 1b 11 3f a0 9a d7 3e
       0.29844236 -0.2330758 0.56682616 0.42110157
000210 24 d6 12 bd ff 9c 20 3e 7e 65 09 3e 5d 29 9f 3e
       -0.03584875 0.1568489 0.13417622 0.31086245
000220 f9 c8 5b bd 1a 49 53 bd ec c0 a7 bc 46 f6 65 3e
       -0.05365846 -0.051583387 -0.020477735 0.22457227
000230 c0 55 25 be a5 97 01 bf 5d 4b 82 be 2f 6c 9e bd
       -0.16145992 -0.50622016 -0.25448123 -0.07735478
000240 9b a1 73 3e 41 e8 e7 3d b3 e5 96 bd 58 12 b5 be
       0.23792116 0.11323596 -0.073680304 -0.35365558
000250 d4 a4 cf bc ff 79 ef be 2a b4 94 3e 9b 38 ba be
       -0.02534715 -0.46772763 0.29043704 -0.36371312
000260 4c 23 16 be b2 fd 0e 3e ca 46 4c 3e 1c f0 89 bb
       -0.14661902 0.13963965 0.19948879 -0.0042095315
000270 5b cf de 3d f9 a4 b8 bd 70 2f a1 bd 19 90 c9 be
       0.10879394 -0.09015841 -0.07870376 -0.3936775
000280 2d 9e 08 be 74 1f 37 3d 35 4a e7 bd 6d 02 5a 3e
       -0.1334159 0.04470773 -0.11293451 0.21289988
000290 68 0a 02 3e 3c 60 e1 bd 70 61 30 bf 00 5c a7 3e
       0.12699282 -0.110046834 -0.6889868 0.32687378
0002a0 6b 7f 23 bd 8a fc 89 3e 1e 06 86 bc 3f b7 71 3e
       -0.039916437 0.26950485 -0.016360339 0.23605059
0002b0 ac ab 01 bf 8b 17 cb 3e fb ae 64 3d 2c 58 b3 3d
       -0.50652575 0.396664 0.055830937 0.08757052
0002c0 75 60 00 3f 67 db e3 3e 20 74 6a be 5e 93 8f be
       0.5014718 0.44503328 -0.2289586 -0.2804212
0002d0 4b 43 29 be 56 17 ac be 5b 15 34 be 71 86 34 bf
       -0.16529576 -0.33611554 -0.17586271 -0.7051764
0002e0 77 7d 2e 3f ab 23 dc be 2f e8 03 3f 6d 2e 02 bf
       0.68160194 -0.42995963 0.5152616 -0.5085209
0002f0 46 64 3f bf 63 40 d3 3e f3 d3 a1 3e 50 d3 12 bf
       -0.7476238 0.4126006 0.31607017 -0.5735369
000300 22 3e b4 be 95 e1 06 3d 62 cb 3d 3e c1 64 1f 3f
       -0.35203654 0.032929976 0.18534616 0.62263113
000310 e4 e8 16 be 99 93 2a 3e ac 76 93 bb 10 28 6d 3e
       -0.14737278 0.16657867 -0.004500231 0.23159814
000320 da 01 91 bd 53 e9 da 3c 3f 69 9b bd 63 2e 87 3e
       -0.07080431 0.026722586 -0.075884335 0.26402578
000330 4a 31 e7 3d f4 89 8b be fa d2 d8 3d 0e 16 c6 3e
       0.11288698 -0.27253687 0.105871156 0.386887
000340 d0 3d e0 bd 63 ef 19 be 70 1b 85 bd ec e9 c3 be
       -0.1094929 -0.15032725 -0.06499374 -0.38264406
000350 61 26 49 bd 64 2e 02 3e 47 51 2c bf d2 72 60 be
       -0.049108867 0.12713009 -0.6731152 -0.219188
000360 24 cb 52 bd 68 31 8a be 36 5d 9b be 52 1e d2 3d
       -0.05146326 -0.2699082 -0.30344552 0.102596894
000370 64 2b d1 3d 4c 4d 51 3e 37 ff 3a 3e ef cb 59 3f
       0.10213354 0.20439643 0.18261419 0.850768
000380 6b 5a 89 3e 19 d0 7a be 8d 7c b3 3e 44 4b c5 3d
       0.26826796 -0.24493445 0.35055962 0.096334964
000390 a7 28 b3 3e ea 19 9b bd 87 5b 4b be ba e6 a4 3e
       0.34991953 -0.07573302 -0.19859134 0.3220728
0003a0 bb 32 fd 3c 72 60 a0 be b6 c8 53 be 83 99 0c bf
       0.03090798 -0.31323582 -0.20682034 -0.5492174
0003b0 d0 d8 86 be b9 6d 26 3f bf 49 c9 be 54 b9 52 3e
       -0.2633729 0.65011173 -0.39314076 0.2057851
0003c0 82 07 4b be f0 94 9d 3e e3 bd 1c 3e 7c 05 86 3e
       -0.19827083 0.30777693 0.15306811 0.2617606
0003d0 cb 87 99 3d 22 6a b7 3c 89 7f 95 3e 13 d2 a3 bd
       0.074966036 0.022389475 0.29198864 -0.07999053
0003e0 4d 2c 98 3d 98 72 0b 3f de b5 83 3e 80 16 c0 3e
       0.07430325 0.5447173 0.2572469 0.37517166
0003f0 6b 01 52 3e 6e 37 ad be ac 87 bf 3d b6 a5 fc 3e
       0.20508353 -0.33831352 0.09352049 0.49345177

critic.2.bias f4 [64]
000000 d4 9f 89 3e e8 8b 80 3d 52 53 fc be 68 6a 37 be
       0.26879752 0.06276685 -0.49282318 -0.17911685
000010 af 35 7d bc 25 96 d9 3d 3d e7 0a 3e 65 55 a3 3d
       -0.015454694 0.10624341 0.13564773 0.07975272
000020 8c 92 90 3e 56 73 75 bb 23 e4 66 3e 56 f8 21 be
       0.28236806 -0.0037452779 0.22547965 -0.15817389
000030 c1 c5 18 be ef 18 10 3d 51 fd 84 3d b9 7d ad bd
       -0.14919187 0.03518003 0.06493629 -0.08471245
000040 de 07 8b 3d a7 53 d7 3c f9 48 e6 be c3 28 62 3e
       0.0678861 0.026285006 -0.4497755 0.22085862
000050 ae 6b 24 bd a4 19 12 bd 4f 70 14 3e e6 2a 6b bd
       -0.040141754 -0.035668984 0.14495967 -0.057413958
000060 53 61 82 be 82 7f 9a 3e 27 6c 88 bd db 82 5d be
       -0.25464877 0.30175406 -0.066612534 -0.21631949
000070 19 fe e1 3d 80 04 16 3f cf c3 c4 be 06 03 a8 be
       0.110347934 0.58600616 -0.3843064 -0.32814807
000080 ce 91 a2 3e 56 5f 63 be 63 5b 00 3a cc cc de bc
       0.31751865 -0.22204337 0.000489643 -0.027197264
000090 43 da b3 3e 02 5c a6 be 1f 2a ad bd 27 a6 89 3e
       0.35127458 -0.3249207 -0.084552996 0.26884577
0000a0 9b ae 9b 3d 94 43 96 3e bd ed e4 bd 2b 8c cf 3d
       0.07601663 0.29348433 -0.111781575 0.10134157
0000b0 75 b0 1d 3e 15 2e 3e be 7d 92 f2 3c 1f a8 1b 3e
       0.15399344 -0.18572266 0.029610867 0.15200852
0000c0 2d 1f ff 3d 30 0b 4e 3e 46 84 5a 3e c1 76 72 be
       0.12457118 0.20121455 0.21339521 -0.23678114
0000d0 cc 11 8b 3e e4 0f df be 5a 89 94 3d 9d 3f 1b 3e
       0.27162015 -0.4356681 0.0725276 0.15160985
0000e0 7d 7c 13 be 10 94 56 be f5 6b 30 be cb 5e 5e bd
       -0.14402957 -0.20954919 -0.17228682 -0.05428962
0000f0 91 fd 43 bd cf 9d 72 3d e9 99 2f 3e b3 1f 97 bd
       -0.04784924 0.05923253 0.17148556 -0.07379093

critic.4.weight f4 [1, 64]
000000 87 26 e9 3c f2 97 f4 3b 8e 51 f1 bd c7 ac 18 bc
       0.028460754 0.0074644024 -0.117831334 -0.009318537
000010 bb 5a ac bd 41 72 00 3d 80 fa cb bd 12 80 63 bd
       -0.08415743 0.03135896 -0.099598885 -0.05554206
000020 44 92 1c 3d b4 9c 2f bd e7 cb 45 3d 16 e3 91 bc
       0.038225427 -0.042874053 0.04829016 -0.017808478
000030 5b 27 18 bd cd e2 40 3d 65 88 34 ba 76 fe 60 bc
       -0.037146907 0.047091294 -0.00068867794 -0.013732543
000040 f3 81 44 bd fe ef 82 3d 9b be fe bd bb cb a3 bd
       -0.04797549 0.06393431 -0.12438699 -0.07997843
000050 3c 26 09 be b5 a5 d1 3c c9 ea e2 3d 04 b2 ad bd
       -0.13393492 0.02559171 0.11079938 -0.084812194
000060 0a a8 41 bd a7 47 63 3d 6e a1 3f 3d c9 da 2f be
       -0.047279395 0.055488255 0.04678481 -0.17173304
000070 f9 fa 36 3e ea 74 f3 bd 10 38 b4 bc ca f2 d2 bd
       0.17869176 -0.11887534 -0.021999389 -0.103002146
000080 da 44 02 3d 6d 41 c8 bd 95 76 fe bc f2 ff cd 3d
       0.031803943 -0.09778104 -0.031062404 0.10058583
000090 fa 37 27 3e ba 07 b1 3b 96 ef b9 3d c5 19 99 bc
       0.16329947 0.0054025324 0.090789005 -0.018689046
0000a0 c0 3b c2 bc 79 25 3c 3d 3b 8e 73 3b 1a 00 55 3d
       -0.023710132 0.045934174 0.0037163633 0.05200205
0000b0 85 a7 c1 3d 90 7c 84 3c 16 c9 d5 ba 0a ea 2c bd
       0.0945578 0.016172677 -0.0016310539 -0.042215385
0000c0 6b 41 81 bb a2 f8 b6 bd c5 51 48 bd ea e1 14 be
       -0.003944566 -0.08934142 -0.048906107 -0.14539304
0000d0 76 00 8f bc ff 38 a9 bb 12 85 a5 3d 02 19 c0 bd
       -0.017456274 -0.005164265 0.08082022 -0.0937977
0000e0 7c ce bf bd ac a3 8d bd 5e 92 91 bb 22 90 99 bd
       -0.09365556 -0.069159836 -0.004442497 -0.07498194
0000f0 66 77 0c bd e3 ca 70 bb 1c 3a f7 bc bc 2a ba bd
       -0.034293555 -0.0036742024 -0.030179076 -0.09090182
