Model Results/ppoTSLA2021-06-011999.pth (torch, 48325 bytes, 11 tensors)

actor.0.weight f4 [64, 16]
00000000: ff77 a63f 2109 97bf 7ae5 f4be ef89 d03e
00000010: 57e0 313f 219f 303f db9f cdbf 1246 bebe
00000020: 30e8 ce3e 4585 973e 9237 e43e f6b7 f03e
00000030: 3d00 e8bf 2305 f1be 3417 d83e 835a 473e
00000040: ae02 33bf 75d3 e53d 9afc 063e af04 33be
00000050: a8d2 8bbe 3d1f 863d 8cbc 31bf 70e6 84bf
00000060: 759c 82bf aa68 303e a2f2 503e a4b4 103e
00000070: 69c4 bcbf a899 dfbf d644 233e e240 17be
00000080: 65ba 48bf 7250 17bf 14a8 763e 3ec9 87bf
00000090: 186e 6dbf 8678 b8bf 1289 993e a70d dbbe
000000a0: 831e 29be 6766 193f 27a1 153f f289 303f
000000b0: f603 043f b512 7d3e 424a 7cbd df20 563d
000000c0: 0026 aabe 44b5 4c3f 5126 5a3e 44e5 7e3f
000000d0: 3f23 363d 1a7c 023f 69d4 9abd 8497 f9bf
000000e0: e592 47c0 3250 e3be b6b7 1cbf f084 12bf
000000f0: 2a78 2d3f 3f5a 133f 3dd4 8b3e 15fe 213f
00000100: 3949 2e3d abe3 f63f 910a 573f f806 c73d
00000110: 13f2 b13c ced4 d53d 2787 0640 0844 7440
00000120: 5378 9840 185f 0f3f d51c d03e fc9f 9d3e
00000130: afce 643e 9766 593f 5356 253e 3881 04bf
00000140: 560b b13f 7cec a0be 8887 be3f 2718 f4bd
00000150: 61a6 abbd 3f87 9f3e 8c11 98be 68e1 903f
00000160: e016 0540 a8db c6bd 1290 86be 852e d2be
00000170: 7c01 fd3e 60ee 21bf 3a24 97be 09d3 bc3d
00000180: 3b47 5e3e 7b63 09bf db06 37bf 6a89 9bbf
00000190: 9a78 34bf a630 31bf 916e 963f 9f60 823e
000001a0: e83c 2ebe 1af9 8ebe 4baf c5be c279 fdbe
000001b0: 667e 993e 4747 eebf 5bd0 afbd 929e 0b3e
000001c0: 6837 05bf b288 2f3f 5ba7 203f 261b 603f
000001d0: a31c 6a3f ae93 413f 8815 33bd b7d0 6ebf
000001e0: 7d70 05c0 6004 9b3c d830 a43d c9fb 83be
000001f0: b20b dc3e 167d 89bd e50d 423e d0e9 58bd
00000200: 351d 1bbf 5fad 3fbf 516d 813f 7022 e7bc
00000210: b3ba 99be 38b7 a8bd 85d1 a5c0 a7be b0c0
00000220: be38 c4c0 a1db 97be 4a20 e3bd 8f44 66be
00000230: b5ac 24bf 603f 033f 2ad2 9fbc a48b 1a3f
00000240: 56bf e3bd 1a31 bc3e 38df 773f 8591 823e
00000250: 3960 b63e 2053 503e 9a9d b23f b5e2 e93e
00000260: 6ae4 4cbd c638 3c3e 3fe4 d43c c287 5dbe
00000270: 1d1b bc3f b02b 643f 38d8 86be 6251 953e
00000280: 8192 e4be 66bc 10bf c259 0dbf 1edc 24bf
00000290: 8864 52bf c1f7 8abf 9ef0 8fbf 4590 f9bf
000002a0: 442a b6bf 0d6e 91bd a54e 79bd a655 553e
000002b0: ada0 8bbf 897e 43bf 476d a73c 46d7 6f3d
000002c0: 01e2 4b3e 0895 98bf 9c7e da3f 41a3 2dbe
000002d0: 1865 11bd 16f5 35be ad1c f73f 87cc 1040
000002e0: 3965 ee3f 8131 433f 241c 543d 2c2f 52be
000002f0: 5f75 fb3e 6a6a d4be b6b1 723e cb98 67be
00000300: b9ea b9be 4e19 64bf 3c0f 803f dd6d 9ebe
00000310: 995b 4e3e 8837 973e 8079 dabe c9c5 de3f
00000320: bde4 0c40 4f85 223e 2aa6 df3d 6872 da3e
00000330: 1de3 a3be e05d f2bc e5f2 643e 0fa0 673e
00000340: 3cca 3e3d 7b43 acbf 58fd debf d854 38be
00000350: f678 e0be b212 05be fda3 b5bf 8284 27c0
00000360: a02d 1bc0 d17f dcbe 9de8 513c f2c9 5fbe
00000370: 8d28 86bf ebdc 9ebf 5286 9b3d d6c1 d13e
00000380: 95c4 f0be f977 e23d 0000 84be b3ce 95bf
00000390: 0e28 f5bf fb98 08c0 d08a 38c0 9e1a c6c0
000003a0: d97a eac0 fc10 49bf cff3 8ebe 4563 debe
000003b0: 06a1 a63d b448 a6bd 38b6 0d3e 3f1c ebbe
000003c0: a73d 59be 98df 59bf f3bb 43be 555e b0be
000003d0: 094d e4be 9dc0 ecbe 5be5 6d3e 4341 5440
000003e0: d1c8 8540 6cdb d1ba 17fb 84be ced2 f6be
000003f0: 4df9 53bd d92b e83f 653e 41bf 7902 9dbe
1.300537 -1.1799661 -0.47831327 0.40730235 0.6948294 0.6899281 -1.6064409 -0.37162834
0.4041152 0.29593864 0.44573647 0.4701535 -1.8125073 -0.47074232 0.42205203 0.19468121
-0.69925964 0.11221973 0.13182297 -0.17482255 -0.27309155 0.06548927 -0.69428325 -1.0382824
-1.0203997 0.17227426 0.20405057 0.14131409 -1.474744 -1.7468767 0.15944228 -0.14770845
-0.78409415 -0.59107125 0.24087554 -1.0608289 -0.92746115 -1.4411781 0.2998739 -0.42783853
-0.16515546 0.5992188 0.58449024 0.6896049 0.51568544 0.24714167 -0.061594255 0.052277442
-0.33232117 0.7996409 0.21303679 0.9956858 0.044467207 0.50970614 -0.07560045 -1.9499364
-3.1183407 -0.44397122 -0.6121782 -0.57234097 0.6776148 0.5755958 0.27310362 0.63278323
0.0425503 1.9288229 0.840005 0.09718126 0.021721875 0.1044098 2.101999 3.8166523
4.764688 0.56004477 0.40646997 0.3078612 0.22344469 0.84922165 0.16146211 -0.5175967
1.3831584 -0.31430423 1.4885111 -0.11918669 -0.08381344 0.31157872 -0.29700887 1.1318789
2.0795212 -0.09709865 -0.26281792 -0.41051117 0.49415195 -0.63254356 -0.29519826 0.09219939
0.2170686 -0.5366742 -0.71494836 -1.215131 -0.70496523 -0.69214857 1.1752492 0.2546434
-0.17015421 -0.27924424 -0.386103 -0.49506956 0.29979247 -1.8615502 -0.085846625 0.13634709
-0.5203767 0.68567955 0.62755364 0.87541425 0.91449946 0.75615966 -0.043721706 -0.93287224
-2.0849907 0.018922985 0.08017129 -0.25778034 0.42977673 -0.067133114 0.18950613 -0.052957356
-0.6059144 -0.7487392 1.0111486 -0.028214663 -0.30025253 -0.08238071 -5.181826 -5.523273
-6.1319265 -0.2965975 -0.11090143 -0.2248709 -0.6432603 0.5126858 -0.019509394 0.60369325
-0.11120479 0.36756212 0.9682498 0.25501648 0.35620287 0.2034421 1.3954346 0.45680776
-0.05002252 0.18381032 0.025987742 -0.21633819 1.4695774 0.8912916 -0.26336837 0.29163653
-0.44643024 -0.56537473 -0.55215085 -0.6439837 -0.8218465 -1.0856858 -1.1245306 -1.9497153
-1.4231648 -0.07101069 -0.060866017 0.20833454 -1.0908409 -0.7636495 0.02043785 0.05855491
0.19910432 -1.1920481 1.7069888 -0.16956808 -0.0354968 -0.17769274 1.9305626 2.2624834
1.8624641 0.7624741 0.05178465 -0.20525807 0.49112985 -0.41487437 0.23700604 -0.2261688
-0.36311892 -0.8910111 1.0004649 -0.30943194 0.20152129 0.29534554 -0.42670822 1.7404109
2.201461 0.15871166 0.10920365 0.4266541 -0.3200921 -0.029585779 0.22358282 0.22619651
0.046579584 -1.3458093 -1.7421064 -0.18001115 -0.43842286 -0.12995413 -1.419067 -2.6174626
-2.4246597 -0.43066266 0.012811807 -0.2185438 -1.0481125 -1.2411169 0.07593979 0.40968198
-0.4702498 0.11058039 -0.2578125 -1.1703705 -1.9152849 -2.1343372 -2.8834724 -6.190749
-7.327496 -0.7854154 -0.27920386 -0.43435112 0.081361815 -0.08119336 0.13839042 -0.45919988
-0.21214925 -0.851068 -0.19114666 -0.3444697 -0.44590023 -0.46240702 0.23232023 3.3164833
4.1807637 -0.0016010827 -0.25972816 -0.48207706 -0.051751424 1.8138381 -0.7548583 -0.3066595

actor.0.bias f4 [64]
00000000: 3237 113f 9115 c73e 7b56 fd3e 872c 04be
00000010: dd40 18be f0f4 05bf 8576 13bf 79f6 a93e
00000020: ce94 bf3e 8ef2 2abd 2a72 cd3e 5b8f 7dbe
00000030: a677 983b f851 5abe 1623 eb3e 9535 82bf
00000040: 5c2b 10bf 8676 38bf 0954 033e 6d40 93be
00000050: 18b9 0a3f f27a d73d 5949 ea3e e869 38bc
00000060: 77e0 953d 879c 173f 00e7 833d 9c3a 80be
00000070: a10a dd3e 9311 253f af47 3dbd 421f c6be
00000080: 0e32 0abf 8753 28be ea0c 39be ecff 31be
00000090: a46c 4c3f 0c03 36be deaa 1bbd f455 0fbe
000000a0: 16a0 66be 2fce 423e 3f63 a73e d7db 80be
000000b0: b6ae 38bf 3ed4 1dbe 9f78 06bf 37ec 883e
000000c0: 55a0 043f 1ff3 81be 267c 123f c6b5 2b3f
000000d0: 9c2d 9f3e 1464 51bd 40f0 203e c533 c2be
000000e0: d6c0 febe 4a57 393f f91c 213e 3d96 e33e
000000f0: 90ea a5be f184 25be feec 113c bc91 b73e
0.56724846 0.3888364 0.49480042 -0.12907611 -0.14868493 -0.5232687 -0.5760272 0.33195856
0.37418216 -0.041735224 0.40126163 -0.24761717 0.004652935 -0.21320331 0.45925206 -1.0172602
-0.5631616 -0.7205585 0.12825026 -0.2876009 0.5418868 0.10521497 0.45759085 -0.011255719
0.07318204 0.59223217 0.06440544 -0.25044715 0.43172172 0.6447994 -0.04621094 -0.38695723
-0.5398263 -0.16438113 -0.18071333 -0.17382783 0.7985327 -0.177746 -0.03800475 -0.13997632
-0.22522005 0.19023965 0.32692906 -0.25167724 -0.7214159 -0.15412995 -0.52527803 0.26742718
0.5180715 -0.253808 0.57220685 0.6707424 0.31089485 -0.051120833 0.15716648 -0.37930122
-0.49756497 0.7239882 0.15733708 0.4445056 -0.3240552 -0.16163994 0.008906601 0.35853374

actor.2.weight f4 [64, 64]
00000000: dd46 99be b810 483f 901e b83e beec b9be
00000010: 800f c7be 8d50 85be 2248 61be 7c39 c3be
00000020: e00e 813f 7847 52bf dc2e 063f 3bc3 d3be
00000030: 30d5 483f 3e92 083f d5f4 dc3e 269c b13e
00000040: 7908 9d3f a00d 3cbf 1a9c 4dbf 62a9 10bf
00000050: 7efe d23d c8fc 09bf 3cd3 4fbf e520 afbe
00000060: 5f23 833f 7b37 58bf c75b febe 4589 4bbe
00000070: f7fc 983e bd0a 613f ce78 b33e 75b3 8d3e
00000080: 4d6c 5cbf 83e0 323e 1e84 013f f491 3a3d
00000090: 6519 a43e 79b4 273f 7feb 143f 64de 993e
000000a0: 159f c83f 8c79 a6be 5769 d53e 3325 183f
000000b0: dc23 04bf 7f41 40bf 9413 40bf f16e 3f3e
000000c0: ee71 853e 5131 383f d21e 6cbe 09b3 f73e
000000d0: f116 f1bd e100 6b3e 9b5a 8e3e c000 18bd
000000e0: c868 87be dd8e 47be f952 92be 0feb 0abf
000000f0: 0644 18be 19e3 04bd 78ff 85be 7b55 2bbd
00000100: 159a f3bf 8d99 56bf 558c 80be 2080 473e
00000110: 6c2e e83f e4d6 763d 9d89 82be f0fd 4abe
00000120: 711f 91bf 1dcc 203f 0fd8 33be 82cc c13e
00000130: f45f 05bf 1923 ccbf b771 3ebf d97f 873f
00000140: e2dd 833f 57ad e33d 9ad7 8f3e a5b0 5a3f
00000150: f419 21bf d19b 9abd 5a47 e63c 4178 3f3e
00000160: f464 593e c613 4fbf bbdf 32be fc8b b43e
00000170: 13b7 cdbe 9bd3 1b3e d267 d5be d8e8 e83f
00000180: 699e 8e3f 23c8 63be 3a9d 4b3f c81e c63e
00000190: 373e 72bf 8264 ebbd 62f9 b33e fa0c e2be
000001a0: 0edb 9a3e aa05 ac3e 3961 8bbe bf4e 5dbd
000001b0: 2550 d13f 856f d73e 7ae7 1e3e 32e7 b9be
000001c0: 6387 94bc 8a5f 8d3e f414 9e3c 9be0 96be
000001d0: 39e9 b03e 1b57 62bf e61e a2be 0a22 fd3e
000001e0: 30a4 653f 8653 09bf 7bf2 14be c9e6 1e3d
000001f0: 6c2c 67bf 0458 583e 3a96 5c3f 9592 8abf
00000200: 1589 bf3f 228d 05bf e7ae e1be addf 13be
00000210: c112 80be c2d1 3e3f 8f57 323e 08ec 0e3f
00000220: 836f a5bf 8aba ef3e e1b8 35bf 80d1 b2bc
00000230: c088 c7bc 593b 19be df48 f5bf 1358 ef3e
00000240: 2aa2 853d f139 95be f817 643f da0c d43e
00000250: cf13 17bf 894f d63d e9b3 733f d356 8bbe
00000260: 2443 86be d220 41bf e1c9 2abf c51d fc3e
00000270: 5151 00bf d75b 88be bcc1 043f d56a 2d3f
00000280: 49b4 f63e 983e 82be 6d95 193f 950d 553f
00000290: b1c6 adbf 5fa6 e63e 343c 11bf 8284 c13d
000002a0: 90b5 b6be f3ae 123f ade6 4ebf 0f05 13bf
000002b0: 750d 0c3f f1a9 1f40 db02 cf3e ad31 a1bf
000002c0: 9840 1e3c cbd6 3dbe 406f bf3e 3ced a0be
000002d0: 4adc 0bbf 2a8a 8f3c c639 dbbe afca 59be
000002e0: ca67 b43e f9e4 41be d65f 383e 858f 853f
000002f0: 3c81 b53d 3ca5 f3be 748a b0bd d7d1 403f
00000300: 9fd5 673f 7104 003f 0fb6 a13d 7a76 90bf
00000310: bac8 00bf d8a6 93be 37f4 db3e 08f8 89bf
00000320: db99 d23d a255 79bf e723 1e3e 87e0 24bf
00000330: 176f 90bc 2977 a63f a860 e63d 67fc 443f
00000340: 7a91 e83d 0d2a e73d 40b2 6ebf 7695 19bf
00000350: 5be1 853d 2362 4bbe ad3c f4be a52e 733e
00000360: f3eb 903e 13f6 c6bd 9625 b23e ee47 5abe
00000370: 3a3f 56bd bfae 6ebc b7d6 8bbf 949f afbf
00000380: 8e5c 4bbf b672 453f 0d22 5cbf 3029 483f
00000390: c5dc 8c3e c20e 61be ad23 c4bd ceab 2cbf
000003a0: a48d 853e d7e1 7e3e 41ae ee3d 2228 143f
000003b0: 10bc 98be 154d 19bf 14e4 3bbf 99e4 5b3c
000003c0: a774 a3be bab2 6c3e 6c5d 52bf 8baf 503f
000003d0: 2f83 cfbd a75b aabe e97b 2e3e 8971 4c3f
000003e0: b413 cdbe 765b b9be 52a6 983e 3849 38bf
000003f0: 0cb1 b73e 5610 673d 2b07 16bf 5084 babd
-0.29936877 0.7815051 0.35960817 -0.36313432 -0.38879013 -0.26038018 -0.22000173 -0.38129795
1.0082664 -0.821403 0.5241525 -0.41359887 0.784503 0.5334815 0.43155542 0.34689444
1.2268211 -0.7345829 -0.8031632 -0.5650846 0.10302447 -0.5390134 -0.81181693 -0.34204784
1.0245169 -0.84459656 -0.49679396 -0.19876583 0.29880497 0.8790701 0.35053104 0.27675977
-0.86102754 0.17468457 0.5059222 0.045549348 0.32050624 0.65509754 0.5817184 0.30052483
1.5673548 -0.32514608 0.4168193 0.5943176 -0.5161722 -0.7509994 -0.75029874 0.18694665
0.26063484 0.7195025 -0.23058632 0.4837878 -0.11771954 0.22949554 0.278035 -0.03711009
-0.2644713 -0.19488092 -0.28578928 -0.5426492 -0.14869699 -0.03244314 -0.2617147 -0.041829567
-1.9031397 -0.8382805 -0.25107065 0.1948247 1.8139167 0.06026353 -0.25495616 -0.19823432
-1.133772 0.6281145 -0.17562889 0.3785134 -0.5209954 -1.5948211 -0.74392265 1.0585891
1.0302088 0.11117046 0.28094178 0.8542579 -0.62930226 -0.07549251 0.028110195 0.18698217
0.21229917 -0.80889547 -0.17468159 0.3526305 -0.40178737 0.1521744 -0.4168077 1.8196058
1.1142093 -0.22244315 0.79536784 0.3869536 -0.9462618 -0.1149378 0.351512 -0.44150525
0.3024525 0.3359807 -0.27222613 -0.054030176 1.6352583 0.4207727 0.15517989 -0.363092
-0.018130964 0.27611953 0.0192971 -0.29468235 0.34552935 -0.8841416 -0.316642 0.49440032
0.89703655 -0.5364307 -0.14545624 0.038794313 -0.9030216 0.21127325 0.8616673 -1.0825983
1.4963709 -0.52168477 -0.44078752 -0.14440794 -0.25014308 0.74538815 0.17416213 0.55828905
-1.2924656 0.46822006 -0.7098523 -0.021828413 -0.0243572 -0.14964046 -1.9162863 0.46746883
0.06525071 -0.29145768 0.89099073 0.41416055 -0.590146 0.10464389 0.95196396 -0.2721468
-0.262231 -0.75440705 -0.6671429 0.49241462 -0.5012408 -0.26632568 0.51858115 0.6774114
0.48184422 -0.2543838 0.5999363 0.8322385 -1.3576261 0.45048806 -0.5673249 0.09449102
-0.35685396 0.572982 -0.80820733 -0.57429594 0.54708034 2.4947474 0.40431866 -1.2593285
0.009658955 -0.18538968 0.37389565 -0.31430995 -0.5463301 0.017521936 -0.42817515 -0.21268724
0.35235435 -0.18935002 0.18005309 1.0434424 0.0886254 -0.47587 -0.08620158 0.7532019
0.90560335 0.5000678 0.07896053 -1.1286156 -0.50306284 -0.2883823 0.4295976 -1.0778818
0.10283252 -0.9739629 0.15443383 -0.644051 -0.017631097 1.3005115 0.112489045 0.76947635
0.113558725 0.112873174 -0.9324074 -0.59993684 0.06537124 -0.19861655 -0.47702542 0.23748262
0.28305015 -0.09714904 0.347943 -0.21316501 -0.05230639 -0.01456803 -1.0924901 -1.3720574
-0.794381 0.7712816 -0.8598946 0.7818785 0.27512184 -0.21978286 -0.09577117 -0.67449653
0.26084626 0.24890839 0.1165433 0.5787374 -0.2983098 -0.5988324 -0.73394895 0.013421201
-0.31924936 0.23115054 -0.821738 0.8151786 -0.10132443 -0.3327305 0.17039455 0.7986074
-0.40054095 -0.36202592 0.29814392 -0.7198672 0.35877264 0.056412064 -0.5860469 -0.09107268

actor.2.bias f4 [64]
00000000: 33f3 8c3e cf99 c4be bf1f 06bf 868e e5bd
00000010: da46 8c3e d950 b4bc dd26 723e e478 ca3e
00000020: 9a62 123e 8dfa cd3e da99 d7be 022c 5d3d
00000030: 8d19 283e ee12 233f ebc0 12be 9ecb 843c
00000040: e0ed 5cbd a8df 00bf 659b 29be 52f1 3d3f
00000050: 12cc 4c3f 2907 52be 7e91 a33e f127 ec3e
00000060: 2905 19be d8e4 80be e7f7 bc3c 47f0 083f
00000070: cb4b eebd 0e64 f93e 29db 5c3e 5c56 05bd
00000080: 7b43 8e3d 7c1a b13c 08c9 493e b7e6 aa3e
00000090: 20e6 f3be bfbc ac3e e4c3 90be 8b6a 25be
000000a0: 68bb ae3e e34f 7a3e fbe2 59be e86f d73d
000000b0: 2a26 5cbf 2afe 123f e245 5f3e ff29 883e
000000c0: 83f6 84be 85d0 2abf 9809 2c3f e217 55be
000000d0: a05c f83e 8364 a93e b084 b23e 521e ba3e
000000e0: aa99 9dbd ac3e 43be 4b0a 06bf 8264 4e3e
000000f0: 4e41 2f3f 8b65 003e 8779 583f 3d5f 7abf
0.27529296 -0.38398597 -0.5239219 -0.11208825 0.27397805 -0.022011207 0.23647638 0.39545357
0.14295426 0.40230218 -0.42109567 0.053997047 0.16415997 0.6370076 -0.14331405 0.016210373
-0.053937793 -0.5034127 -0.16563185 0.7419635 0.79998887 -0.20510544 0.3194694 0.46124223
-0.14943375 -0.25174594 0.023067428 0.53491634 -0.1163555 0.48709148 0.21567978 -0.03255306
0.06946465 0.021619074 0.19705594 0.33379146 -0.4763651 0.33737752 -0.28274453 -0.16153924
0.34127355 0.24444537 -0.21277992 0.10519391 -0.85995734 0.57419074 0.21804002 0.2659454
-0.25969324 -0.66724426 0.6720214 -0.20809892 0.48508167 0.33084497 0.34866858 0.36351258
-0.07695325 -0.19066876 -0.52359456 0.20155528 0.6845902 0.12538736 0.84560436 -0.9780157

actor.4.weight f4 [7, 64]
00000000: ac9c 0ebf c530 9a3e d4b9 bbbf e69c 71bf
00000010: 1d3f 1340 7514 29bf 2b3a 79bf 7b85 1c40
00000020: 22d6 fe3f b9d1 593f 033e de3f 9f80 623f
00000030: b1d2 95bf 4307 043f 4443 df3f a6e3 aa3f
00000040: 52fd b9bf 7ed3 90bf 81fc 5b3e 045d 833f
00000050: 9581 893e 2236 eebf 2076 e6bf 8a93 923f
00000060: 980f d1bf 76c3 ca3f 2ee5 ffbf bb3e f83e
00000070: 1dcc 2c3f 0a29 aebe 74be 593f 35c5 773d
00000080: b9d0 013f cb35 04bf e069 363f 6b61 5b3e
00000090: 6c59 0440 db5e f1bf 12b9 b93f 094a 583e
000000a0: b367 aa3f aa8d 5e3f 7d9f 883f 6261 983f
000000b0: e498 a8bf 5cb7 403f 1323 03c0 028a 3dbe
000000c0: 05ea ee3f eca5 1640 70a4 0a40 ce4f 983f
000000d0: 3ede ca3f bded 09c0 6123 ea3f 4479 ab3e
000000e0: d5b3 e53f 4404 4e3f 55ce 7ebf 0cd2 a43f
000000f0: 8412 3abf 5bd1 b8bf c386 a5bd af5b d73f
00000100: 0648 863f 4287 1c40 8efd bcbf 77d0 e83f
00000110: 04b9 853f e5fc 193f c248 d8bf 3b6f 513f
00000120: 1e8c 683e 2acc 6fbe d5f0 50bf f56c 02c0
00000130: 415b 8ebf 50fe 0140 11ec fcbe 6041 253f
00000140: 4c82 a3bf 14c4 b13f c77f bb3f ac25 eebe
00000150: ed9a d73f a2c3 303c 8ca9 713f 376d 16c0
00000160: 8159 eebe 5003 87bf 5047 71bf cb9c f63f
00000170: 20d5 edbe 2bdc 03c0 21bd c0be 62cf d63f
00000180: 407d 09bf a6a5 8f3f 6bae 0ac0 152c 0cbe
00000190: d521 adbf b23b 803f 05f4 0ec0 c394 8a3f
000001a0: ab28 a63f 6815 593f 8fc9 4bbe 3f1f e6bf
000001b0: 0527 0bc0 fb91 00c0 f7cb a7be 932d 2640
000001c0: 8939 8e3f a0da a6bf d436 9b3f 4c73 04c0
000001d0: 19b6 993f 3505 a63f 321f 8f3f a8fd e43f
000001e0: ef3f 52bf 3bac 983f 4948 01bf a51e 7e3f
000001f0: 80ef bd3f baad 92be 2fc4 2a40 d99a b9bf
00000200: 3a48 4f3f abb0 85bf 5c6b 13bf 0ac4 183f
00000210: 0658 a43e 44cf 8d3f 84c0 83bf 55ba 0f3f
00000220: 2703 5c3e 40bb 1fbf b3f5 303d 90fd 62bf
00000230: 0b85 21bf 2789 4dbf 3f27 a0be 632e b53f
00000240: 6fad 6ebf 8fb2 17c0 d26e 6fbf be1f 15bf
00000250: 1c76 bc3e e814 abbd 9cdc 463f eb9f 14bf
00000260: 8a00 46bf 5b91 c8bf e745 233e f688 76bf
00000270: 18a6 99bf 1460 d03c 0d65 323f 97f8 5b3f
00000280: d3fb e53e aaf9 403f 8879 34bf eb9f 8ebf
00000290: b3da 07bf 1806 613f 2125 e8be 1c3d 9bbb
000002a0: bd5e 1fbe 3879 d3bf 6d21 dfbe 8eef c5bd
000002b0: ddc1 8f3f efa5 913f cc5f 833f 555c cb3e
000002c0: 3309 b93f 1bb1 cdbf 2fe7 8a3f 0492 dabe
000002d0: b570 613f 0c65 1a3d 6831 2d3f cdac 983f
000002e0: 84bd ffbe 5854 86bf 25aa 0e3e 2d99 f73f
000002f0: 40a3 9e3e 797a 4f3f d3d0 cebf 85da b73e
00000300: 6aae a53e a180 14be a0f2 80bf 1ee8 343f
00000310: bdef 5d3e f83f f7bc 224e e6be c459 303f
00000320: 053d d5be e23e 5abd b8eb efbe 74db de3e
00000330: 5727 813e 632c b1bf 6786 d0be e09e 8d3d
00000340: c6c9 6dbf 6f8c dfbe 0e6b febe dbb8 323f
00000350: 1b6b 0fc0 a146 69bf 9782 043f 4db8 92bf
00000360: a8f0 1540 dc7b 39bf ea16 0a40 a8e6 09c0
00000370: 9c35 4fbf c9f5 d73d 7c26 dbbe 4949 8f3f
00000380: b697 cb3f f30c 853e ffa2 85bf 29e8 cbbf
00000390: a2ef 33bf 71fe 383f d6d8 163f b89e 6a3e
000003a0: 8d74 993f e35f 523e de6a 53be be29 d0bf
000003b0: d2f8 35bf bb2f 7a3f 17d5 793f 5813 d63e
000003c0: 90ea 28be ff45 b4be 41b7 5bbf c933 64bf
000003d0: 6b1a 533e 555b d4bb 5937 1d3f 8db8 543f
000003e0: d6c1 553e 3d83 e9be a32b 413d 96ea 42bd
000003f0: dd8d c1be 1c88 943f 1f6a e2bc 43f6 eebe
-0.5570781 0.30115333 -1.4666085 -0.94380033 2.3007271 -0.6604684 -0.9735438 2.445647
1.9909098 0.85085636 1.7362674 0.8847751 -1.1704923 0.5157358 1.7442403 1.3350723
-1.4530432 -1.1314542 0.21483041 1.0262761 0.26856676 -1.861027 -1.8004799 1.1451275
-1.6332884 1.58409 -1.9991815 0.4848536 0.6749895 -0.34015685 0.85056233 0.060490806
0.5070911 -0.5164458 0.712553 0.21423881 2.0679579 -1.8857073 1.4509604 0.21121992
1.3312896 0.8693491 1.0673672 1.1904719 -1.3171659 0.75279784 -2.0490158 -0.18509677
1.8665167 2.353877 2.1662865 1.1899354 1.5849073 -2.1551354 1.8292047 0.33490956
1.7945505 0.8047526 -0.9953359 1.2876601 -0.726845 -1.443889 -0.080823444 1.6824855
1.049073 2.4457555 -1.4764879 1.8188618 1.0447087 0.6015151 -1.6897204 0.8181035
0.227097 -0.23417726 -0.8161748 -2.0379002 -1.1121598 2.031147 -0.49398854 0.6455288
-1.2774138 1.3887963 1.464837 -0.46513116 1.6844155 0.01078883 0.94399333 -2.350416
-0.4655266 -1.0547886 -0.9424944 1.92666 -0.46451664 -2.060313 -0.37644294 1.6782038
-0.5370674 1.1222427 -2.1668956 -0.13688691 -1.352595 1.0018218 -2.2336438 1.0826648
1.2981161 0.8479829 -0.19901107 -1.7978286 -2.1742566 -2.00891 -0.327728 2.5965316
1.1111308 -1.3035469 1.2126107 -2.0695372 1.2008697 1.2970339 1.1181395 1.788991
-0.82128805 1.192756 -0.50500923 0.9926551 1.4838715 -0.28648168 2.668224 -1.4500381
0.80969584 -1.044454 -0.5758569 0.5967413 0.32098407 1.1078877 -1.0293126 0.56143695
0.21485578 -0.62395096 0.043203067 -0.88668156 -0.6309363 -0.802874 -0.31279942 1.4154781
-0.9323339 -2.3702734 -0.93528473 -0.5825156 0.3680886 -0.08353597 0.77680373 -0.58056515
-0.7734457 -1.5669359 0.15944634 -0.96302736 -1.2003813 0.025436439 0.6968544 0.85926193
0.4491869 0.7538096 -0.7049794 -1.1142553 -0.53068084 0.87899923 -0.45340827 -0.0047375094
-0.15563484 -1.6521368 -0.4358019 -0.09664832 1.1231037 1.1378764 1.026361 0.3971888
1.4455932 -1.6069673 1.0851802 -0.42689526 0.880626 0.037694022 0.6765351 1.1927735
-0.49949276 -1.049449 0.13932092 1.934362 0.30983925 0.81046253 -1.6157478 0.35908905
0.3235963 -0.14502193 -1.0074043 0.7066668 0.21673484 -0.03018187 -0.44981486 0.6888697
-0.41648117 -0.053282626 -0.46859527 0.43526804 0.25225326 -1.3841671 -0.4072754 0.069150686
-0.92886007 -0.4366183 -0.4969105 0.6981332 -2.2409122 -0.91123396 0.51761764 -1.1462494
2.3428135 -0.7245462 2.1576486 -2.1547031 -0.80941176 0.10544927 -0.428028 1.119424
1.5905674 0.25986442 -1.0440367 -1.5930225 -0.70287526 0.72263247 0.58924615 0.22912109
1.1988693 0.2054439 -0.20646235 -1.6262739 -0.71082795 0.9772908 0.97590774 0.41811633
-0.16495728 -0.35209653 -0.858265 -0.8914152 0.20615546 -0.006480614 0.6141258 0.830941
0.20874724 -0.4560794 0.047160756 -0.047587 -0.37803546 1.1604037 -0.027638493 -0.46672258

actor.4.bias f4 [7]
00000000: ea19 283f f1c6 4b3f e59a 103e 65aa 703e
00000010: a88d 013f 5f4a 533f 3fa6 d13e
0.6566454 0.79600435 0.14121588 0.235025 0.50606775 0.82535356 0.40947148

critic.0.weight f4 [64, 16]
00000000: 9492 3f40 d34a d33f d64d e040 907e 3b3f
00000010: 6003 39bd 374f eabe 2caa 5240 013b 813e
00000020: ff7e 74c0 63d1 0540 5093 823f e51b 963f
00000030: 933c cabe 1ae8 a6bf d10c dd3e 44df 7f3e
00000040: f58f 14bf 1881 29be 91c7 1fbf ff09 3a3f
00000050: dde0 943f de7e a73e 58b2 d4be 79f8 c3bc
00000060: 7652 bdbf 096a 22bf 38dc 51bf 2ac0 8bbf
00000070: 9545 1240 925b 3d40 cf4f 7ebe 1cbf 013d
00000080: 4374 d6be 8a2f b23e 0cb0 e7be 8355 1c3f
00000090: ed45 3c3f 7f32 613f c4e6 8740 a431 9b40
000000a0: 2626 8c40 0557 8abf 5512 58bf f4f1 28bf
000000b0: 902f e1bf d54b ba3e 36d4 b7be 5eaa 67bd
000000c0: 4cd5 943f a47a 823e cd96 52bf aa1d 863f
000000d0: f79a 49be 24c1 03bf 0e73 0b40 2e2b 5a40
000000e0: 2218 4140 4390 1abf 7f55 4cbf 766b 46bf
000000f0: eb3b 253f 7520 1c3f a14f be3c 7dac 3a3f
00000100: 15f6 94bf 0438 143f 42b0 e33e 3395 a63f
00000110: 9e25 473e 74f2 a13e 6aa7 07c0 5f37 4fc0
00000120: 6a2c 8bc0 da5a 93bf 968e 5ebf efaf 93bf
00000130: f115 7cbf 1edd 0940 227d df3e 48d6 953e
00000140: 1f35 84be b372 5bbf 5a78 813f d63e 2d3f
00000150: 6b11 82be 2b2b bd3e c2d5 c3bf d724 1e3f
00000160: ea7d 893f 0e19 44bf d2dd c0be fec2 18bf
00000170: e446 3dc0 f018 ae3e 070a 2e3f ebdb 033e
00000180: 0636 033f 5bb8 cfbc 435f 493d c7d4 4c3b
00000190: 1f61 443c 7217 1fbd 402d 1cbf 1c94 71c0
000001a0: d790 bac0 5ece f4bf 4668 0cc0 a42b cfbf
000001b0: edf6 0340 253e 1440 ef0b 2d3e d908 863e
000001c0: 9acb c7bf 2f28 cc3e eee4 ba3f da59 7bbf
000001d0: 747c fabf 90d2 bdbf ab9c 1abf a20c 10c0
000001e0: 3201 55c0 9009 a53e f714 c23e 446d 0b3e
000001f0: 6e49 78bf 29e5 b43e dc87 ebbd 5b4f 3abe
00000200: 82be e040 6360 bbbf 90b2 563f 4da3 4dbf
00000210: 8847 fcbe 540b 3d3f bd77 6e3f 04c1 1b40
00000220: bbc4 5e40 9523 15bf 6af2 ca3d c3a5 fc3e
00000230: a0f8 643f 2a4b 93bf 0fd9 e93e 616e f43e
00000240: 830b 0ebf b67f 15bf c100 52bf 96e0 993f
00000250: 014a 103f 14f9 913f f957 7e40 0d27 7e40
00000260: 8a02 8040 3bdd 29bf eaaa 26bf cff6 12bf
00000270: 9b0f 30bf 5256 19c0 5a0c 463c 590b c83e
00000280: 0e59 d5bf f2d5 59bc 0c98 613e d9d6 e03d
00000290: b56d ce3e 1e78 c23e ca28 9ebf 7fa6 b5c0
000002a0: 33a8 b4c0 5947 903e 4dcf ad3e 9a7d 2d3f
000002b0: ccab 3dbf 24d4 f5bf 88be 57bd 0b80 cf3e
000002c0: 3f8e 13bf fa74 483f ae13 78bd 368c 6a3e
000002d0: defc e0bd 3426 a53f ee00 ad3f f584 9e3f
000002e0: e420 313e 3dab 6cbf 59dd 46bf 4597 09bf
000002f0: 6bdd d7bf 7e68 923f 6c01 19bd 49f7 0b3f
00000300: ddd8 4a3e 9ace f83e ffdb 863f 7d50 0fc0
00000310: a2c6 0ec0 0f1a 0ac0 9fee 853f a747 f43e
00000320: ef90 b43d d14c 413f 6565 b73d de52 8dbe
00000330: c653 933f 0a9c 3e3f dce7 963e 8fb7 80bf
00000340: d652 7dbf d9f6 56c0 d17e 29c0 70b7 f4bf
00000350: a807 5fbf 40b6 e7bd c8d8 c23f fa83 9440
00000360: 4331 bd40 b0c3 fd3d aad1 223f fa2a 403f
00000370: a85a da3f 4502 613e 699d babe 9b30 553e
00000380: 1159 06c0 f3c4 55bf b364 15bf 5a29 04c0
00000390: b19a fabf c3ad c3bf a765 8540 b247 b53f
000003a0: a20b 04bf fd79 fb3e 4e24 ebbd bf66 2fbe
000003b0: 1237 0340 c228 cd3e 1a82 03bf 32bc 2fbe
000003c0: 1c8b 823f 0202 b43e a140 053e b423 423f
000003d0: d1db ae3f 0a1e 5a3f 7ddf 74c0 a5da 9cc0
000003e0: 0290 98c0 6c3f c3bf 1b6d 3cbf 9716 05bf
000003f0: d9d8 6dbd f985 99bf f1b6 613e 317d 86bd
2.9933214 1.650721 7.0095015 0.73239994 -0.045169234 -0.4576356 3.2916365 0.2524033
-3.8202512 2.090905 1.0201206 1.1727263 -0.3949934 -1.3039582 0.4317384 0.24987513
-0.5803216 -0.16553152 -0.6241389 0.726715 1.1631123 0.3271398 -0.41542315 -0.023922192
-1.479079 -0.63443047 -0.8197665 -1.0918019 2.285497 2.958714 -0.24835132 0.031676397
-0.41885576 0.34801894 -0.452515 0.6106798 0.735442 0.87967676 4.2469196 4.8498096
4.379657 -1.0807806 -0.8440297 -0.6599419 -1.759264 0.3638598 -0.35904092 -0.05655896
1.1627593 0.25484192 -0.82261354 1.0477803 -0.1968802 -0.51466584 2.1788974 3.4088855
3.017098 -0.60376376 -0.79817957 -0.7750772 0.6454455 0.60987025 0.02323133 0.72919446
-1.1637598 0.57897973 0.44470412 1.3014282 0.19447944 0.3163029 -2.1195931 -3.2377546
-4.3491716 -1.1512101 -0.8693632 -1.1538066 -0.9847098 2.154121 0.43650156 0.29265046
-0.25821778 -0.8572189 1.0114853 0.67674005 -0.25403914 0.36946997 -1.5299609 0.61774963
1.0741551 -0.7660073 -0.37669235 -0.59672534 -2.9574518 0.340034 0.6798405 0.12876861
0.5125431 -0.025356462 0.049163114 0.0031254755 0.011986046 -0.03884072 -0.61006546 -3.7746649
-5.8301806 -1.9125478 -2.1938643 -1.6185193 2.0619462 2.316293 0.16899084 0.26178625
-1.5609009 0.39874408 1.4601114 -0.9818398 -1.956923 -1.4829884 -0.60395306 -2.250771
-3.328198 0.32233858 0.3790662 0.136159 -0.96987045 0.35331085 -0.115005225 -0.18194334
7.0232553 -1.463879 0.83866215 -0.803273 -0.49273324 0.7384541 0.93151456 2.4336557
3.4807575 -0.5825742 0.09909518 0.49345216 0.8944187 -1.1507313 0.45673415 0.47740462
-0.55486315 -0.58397996 -0.820324 1.2021663 0.5636292 1.1404138 3.9741194 3.9711335
4.00031 -0.66353196 -0.65104544 -0.5740785 -0.6877381 -2.3958936 0.012087906 0.39071158
-1.6667802 -0.013295637 0.22030658 0.10978479 0.40318075 0.37982267 -1.2356198 -5.676574
-5.645532 0.28179434 0.3394722 0.6776978 -0.74090266 -1.9205365 -0.05267194 0.40527377
-0.57638925 0.7830349 -0.060565643 0.22905049 -0.109857306 1.2902284 1.3515909 1.2384325
0.17297703 -0.9244879 -0.776815 -0.53746444 -1.6864446 1.1438138 -0.03735487 0.546742
0.1980929 0.48595124 1.0535887 -2.2392876 -2.2308736 -2.1578405 1.0463446 0.47710916
0.088167064 0.7550784 0.08954886 -0.27602285 1.1509941 0.74456847 0.2947377 -1.0056018
-0.9895452 -3.3588164 -2.6483653 -1.9118481 -0.8712106 -0.11314058 1.5222406 4.6411104
5.9122634 0.1239084 0.6360117 0.7506558 1.7058916 0.21973522 -0.3644822 0.20819323
-2.0991862 -0.83503646 -0.5835678 -2.065024 -1.9578458 -1.5287403 4.1686587 1.4162505
-0.5158025 0.49116507 -0.11481534 -0.17129038 2.0502362 0.40070158 -0.51370394 -0.17161635
1.0198703 0.35157782 0.13012935 0.7583573 1.3660833 0.85202086 -3.8261406 -4.90169
-4.767579 -1.525373 -0.7360398 -0.51987594 -0.05806813 -1.199401 0.22042443 -0.06566847

critic.0.bias f4 [64]
00000000: 2a34 0c40 ca10 42be e844 bcbf e81c 44bf
00000010: d17d d9be 11b8 e7be e502 16bf 6ddb bc3e
00000020: f332 aebd 68fc 67bf 0dc6 903f d381 1ebf
00000030: 8abf 49be 73d2 9e3d e0b7 a63d 54af f1be
00000040: 3de2 c1be c7f4 c13e 0232 b4be d06c 31bf
00000050: 76ab 4d3f c328 0c3f f73b c93d 01d8 c5be
00000060: 22fe 0b3f da8a 2ebf b0cc 8e3f 319c e83e
00000070: e592 993e 3a34 edbd f74d 403f 70dd 983e
00000080: 98cc 963e 2b85 a03f d71b 23bf b9b0 0a3f
00000090: b693 8e3f cccf 0bbf fa2c 0abe ad52 b4bd
000000a0: 136b f03d eacd 863e 6a6f 0ebf 2512 853f
000000b0: 77fa 97bf 6dd3 b5be 8dc7 53be 9689 d0be
000000c0: 15f3 b73f 376b 093e 485c 183f 4501 c63d
000000d0: 0104 25bf afff 46bf 0b96 053f 4789 ce3e
000000e0: 3712 063f bfa8 1bbf f565 693f a4f3 1dbe
000000f0: caa4 bd3f 43b2 7fbf 573d 233f 6120 06be
2.1906838 -0.18951717 -1.4708529 -0.7660661 -0.42478803 -0.4525762 -0.58598167 0.3688616
-0.085058115 -0.90619516 1.131044 -0.61916846 -0.19701973 0.07754984 0.0814054 -0.47204077
-0.3786792 0.37882063 -0.35194403 -0.6930666 0.80339754 0.547497 0.098258905 -0.3864136
0.5468465 -0.6818062 1.1156216 0.45431665 0.29994884 -0.11582227 0.75118965 0.29856443
0.29452968 1.254064 -0.63714355 0.5417591 1.1138828 -0.5461395 -0.1349372 -0.08804832
0.11739173 0.26328975 -0.55638754 1.0396162 -1.1873311 -0.35512868 -0.20681591 -0.4072997
1.4371058 0.13419805 0.5951581 0.09668211 -0.64459234 -0.7773389 0.5218207 0.4033911
0.52371544 -0.6080436 0.911712 -0.15424973 1.4815915 -0.9988138 0.6376547 -0.13098289

critic.2.weight f4 [64, 64]
00000000: 3354 9d3f 7d7a 253e f8bc 42be 60a4 293f
00000010: a592 07bf 080c 30be e660 44bf 2597 2f3e
00000020: ed97 363f 0c9c 0bbd 6c6c 163d 08db 383e
00000030: 9b81 943d c581 a13f 8bc4 2a3f 4d1f 2a3f
00000040: 38e9 f63e 4933 c8be 8a9d a9bf de44 1cbf
00000050: 0bd9 c0bf b7e7 e93f faf4 e03e 97ec 9bbe
00000060: 90a1 203e 496f df3c 566e f53e 44b7 8a3f
00000070: 60e9 fcbd d11c c3be 2a0e dc3e 94e1 41bf
00000080: 60ce 663e df02 1e3f 8e10 6e3f ae2a 8ebe
00000090: 0d8b 71be a040 56c0 4d1f 123f 6721 d7bf
000000a0: f295 c43e 6848 813f 7d1b e8be ffe7 9b3f
000000b0: 559c 72bf 82c3 9fbf e56a 2fc0 b37b f3bf
000000c0: a8a4 103d ea91 4c3f 8e94 a2be 4b9d 333e
000000d0: 69be b03e b200 42bf c6e5 ff3e 7c98 b43f
000000e0: b862 c6bf f62d 7a3e e56c d63f 7263 14bf
000000f0: 1265 5bbd fc65 eabf 4d7b 113f f014 5f3f
00000100: 660a d53f e2d3 c4bd ca7d 14bd fdff 3bbe
00000110: 3ade 943f ea49 8f3f 817e 9f3e 0f24 693e
00000120: f872 803c 4415 4b3f e14e a63f 558a 9a3d
00000130: 1c0c 4ebf 2613 4dbe c808 6bbf 294a 5a3f
00000140: 0a59 26bf 0cc1 703e 02a4 12be 7cdd 853f
00000150: ab7f ecbe 6b85 00bf b90c 14bf 0610 dfbd
00000160: d329 49bf 36d1 543e ad1f b5bf 7c4d 1abc
00000170: 7f85 22be a90c 86bf b526 7ebe e389 803f
00000180: 8784 c8bf 8962 3fbf 5b2e b2bd 940c b03f
00000190: 34a1 d7bd 1238 5fbd f162 cfbe 36a1 d6be
000001a0: 0841 1ebf cb01 b23f 2a92 7cbf a369 083f
000001b0: b3af f33e e4d8 26bf 01ce 6b3e e848 fbbf
000001c0: b43e 863d 4e50 db3e 450b a73f 332e 873d
000001d0: bf56 6b3e 8ea4 88bc 7416 69bf 4eb8 89be
000001e0: 3463 113f e030 0abe 54a0 4bbf 3931 b0bf
000001f0: 437c 55bd 5d8f 36bf 78cb 473f f5bf 36bf
00000200: 8fe7 17bf 3c37 663f 9ebb 3abe 8296 2c3f
00000210: 3b4a 1e3f 24bd cdbe 6bef a73f a118 06c0
00000220: 20b4 5a3e 4c84 993e efcc 183f b50a 8fbe
00000230: 5e02 cdbf d0ee 063f 97dd 04bf dffa 713f
00000240: cc0a b33f 9e91 a03f 6825 95bf 38cd 3e3d
00000250: 05e5 6dbe ea39 7dbe 4130 ef3d 74f2 82bf
00000260: 634a 1ebf 623f 69bf b8ed 0f3f 23a0 22c0
00000270: cc8b 253f 93ad 90bf 0cf6 443f 41a4 d63e
00000280: 4f44 8cbf 501a ad3e 074f 97bf be92 b03f
00000290: 0e50 fbbe d304 303f aae2 d43f a353 80bd
000002a0: 6879 8ebf 3fe6 c7be 0eed 7e3f 6e13 433f
000002b0: 94d5 c6bd cd6f 80bf 1212 cd3e 2a6b 873e
000002c0: b087 463e 83dc 213f 9a3e 1f40 5f2f 3dbe
000002d0: a3b6 e43e 5437 763f d66a d2be 8ae8 89be
000002e0: c603 54bf 79d2 6ebe 8f5f 8bbe a579 1abf
000002f0: d02b 82bf e2d9 a9bf c292 a0be 06a0 093f
00000300: e592 94bf 1be7 f13f 99db 3f3e 8ebf d23e
00000310: 2342 cb3f 1470 c83c 3fba 543f 919e 0abf
00000320: 9cb5 343f 5911 af3e 5c03 63bd 60dc d23e
00000330: 26b1 d6be 9471 66bf 06ea 3abf d2ce 213f
00000340: 3db6 543e f4df a4be e38c f9be 72df 513e
00000350: e283 a9be 57b9 31bf d71f 1ebf f018 08bf
00000360: 225d 97bd 9448 4f3f 3609 d4bf bcd0 9d3f
00000370: 452c 9d3f 9817 d53d 9788 cebe 1af2 7abd
00000380: e669 80bd 1180 bfbf 6eb6 023d 9462 d83e
00000390: 42c0 503f 6eea 08bf f51c 8e3f 1b3d eb3c
000003a0: 49b8 a6be d214 d43e f937 fdbe e662 00bf
000003b0: 9cd9 973f 4ef8 b1bd dbc9 b1bf 17b3 9b3f
000003c0: 24bc 3cbe 9286 8ebf bd27 a2be 36a8 243f
000003d0: 21b6 8c3f e91f 67bf b258 39bf 6e42 a8bd
000003e0: d30f 08bf 73a1 4c3f 77b2 71bf 3dc9 2a3f
000003f0: 65a4 bb3e 5e50 68bf c4de 9e3f 260c e3bf
1.229132 0.16160007 -0.19017398 0.6626644 -0.52958137 -0.1719209 -0.76710355 0.17147501
0.7132557 -0.034084365 0.036724493 0.18052304 0.07251283 1.2617728 0.6670615 0.6645401
0.48224807 -0.39101627 -1.3251202 -0.61042583 -1.5066236 1.8273839 0.43936902 -0.3045394
0.15686631 0.027274745 0.47935742 1.0837178 -0.123492 -0.38107923 0.42979556 -0.7573483
0.22539663 0.6172313 0.9299401 -0.27766937 -0.235882 -3.3476944 0.5707901 -1.6807069
0.3839565 1.0100222 -0.45333472 1.2180175 -0.94769794 -1.2481539 -2.7408993 -1.9022125
0.03531328 0.7991015 -0.31753963 0.17540471 0.3452027 -0.7578231 0.4997999 1.4109035
-1.5498877 0.24431595 1.6751982 -0.5796424 -0.053563185 -1.8312373 0.5682877 0.87141323
1.6643798 -0.09610726 -0.036252774 -0.1835937 1.1630318 1.1194432 0.31151202 0.22767662
0.015679821 0.79329324 1.2992822 0.07545916 -0.8048723 -0.20026836 -0.91810274 0.8526941
-0.6497961 0.23511142 -0.14320377 1.0458217 -0.46191153 -0.5020358 -0.57831913 -0.10891728
-0.78579444 0.20782933 -1.4150292 -0.009417888 -0.15871237 -1.0472614 -0.24819453 1.004208
-1.5665444 -0.7475973 -0.08700248 1.3753839 -0.10528794 -0.054496832 -0.40505174 -0.4191987
-0.6181798 1.3906797 -0.9866053 0.5328619 0.47594985 -0.651747 0.23027803 -1.9631624
0.065549284 0.42834705 1.3050314 0.06600609 0.2298231 -0.016680028 -0.91049886 -0.26898426
0.56791997 -0.13495207 -0.79541516 -1.3765022 -0.05212046 -0.71312505 0.78044844 -0.71386653
-0.59337705 0.8992803 -0.18235633 0.67417157 0.61832017 -0.40183365 1.311994 -2.0952532
0.21357775 0.29983747 0.59687704 -0.27937856 -1.6016347 0.5270815 -0.5190062 0.94523424
1.398767 1.2544439 -1.165204 0.04658243 -0.23231895 -0.24729124 0.116791256 -1.0230241
-0.61832255 -0.9111234 0.56222105 -2.541024 0.6466644 -1.1302971 0.7693794 0.4192219
-1.0958346 0.33809137 -1.1820992 1.3794782 -0.49084514 0.6875736 1.6631672 -0.062659524
-1.11308 -0.3904285 0.99580467 0.7620152 -0.097087055 -1.0034119 0.4005285 0.26448947
0.19387698 0.632271 2.488196 -0.18475102 0.4467059 0.96178174 -0.41097134 -0.26935226
-0.8281826 -0.23322476 -0.27221343 -0.60341865 -1.016962 -1.3269618 -0.31361967 0.537598
-1.1607329 1.8898653 0.18736114 0.4116177 1.5879558 0.024467506 0.8309669 -0.54148203
0.70589614 0.34192923 -0.055423126 0.41183758 -0.4193203 -0.90017056 -0.7301334 0.6320621
0.20772643 -0.32202113 -0.487403 0.20495394 -0.3310843 -0.6942343 -0.61767334 -0.5316305
-0.073908105 0.8097012 -1.6565311 1.2329326 1.2279135 0.10404891 -0.40338585 -0.061266042
-0.062701985 -1.4960958 0.03191226 0.4226271 0.8154336 -0.5348271 1.1102587 0.02871566
-0.32562473 0.41422135 -0.49456766 -0.5015091 1.1863284 -0.086899385 -1.3889726 1.2164029
-0.18431145 -1.1134818 -0.31670943 0.6431917 1.0993081 -0.90283066 -0.72400963 -0.082157955
-0.53149146 0.7993385 -0.9441294 0.66713315 0.3664886 -0.9074763 1.2411733 -1.7738082

critic.2.bias f4 [64]
00000000: b8ce 1bbf 7c27 50bf 5831 a43e e3ce ef3d
00000010: f9d9 9abe 2cc6 a23f f880 96bd da6f 903f
00000020: e05f 2abf 0324 983e fcc2 b8be 21f9 7fbe
00000030: b2bd 493e 3320 b7be 48fc 3d3e 73f2 06bf
00000040: 10fe 2e3f 115d ebbe ba77 233e 09d5 39be
00000050: 9a42 eabe 401e d3be 884c 353c 5268 c0bd
00000060: ec8c 833f 4de5 fe3d 2543 f1bd 320f 3fbe
00000070: 707b 723e aeb5 083f a343 bb3e f7fd e6be
00000080: 418b 1fbe 0f51 19be c5c4 c83e fa5f 43bf
00000090: 589b 1ebe 94ab 083e 842d fc3e 62c2 3abe
000000a0: 897b a13e 3d9e 24be 0766 a8bd 20b1 e33e
000000b0: 2aae 16bf ae06 bbbe 6e04 07bf 7dbc 233f
000000c0: fc3d 3fbf 1146 75bd e100 10bf ec74 51be
000000d0: d28a c6be e460 f9be 8638 8d3e 1a95 ddbb
000000e0: 6577 f0be 1fb4 4ebc 8bfe 633e 0d73 603c
000000f0: 7355 923d 6041 773f e514 8ebf a6c0 33bf
-0.608623 -0.8131025 0.32068896 0.117093824 -0.30244425 1.2716727 -0.073488176 1.1284134
-0.66552544 0.29714975 -0.3608626 -0.24997379 0.1970127 -0.35766754 0.18553269 -0.527137
0.6835642 -0.45969442 0.15963641 -0.18147673 -0.45753938 -0.41234016 0.01106561 -0.093948975
1.0277381 0.124460794 -0.11780385 -0.1865814 0.236799 0.5340222 0.3657504 -0.45115635
-0.15580465 -0.14972328 0.39212623 -0.76318324 -0.15488946 0.13346702 0.49253476 -0.18238214
0.31539562 -0.16075988 -0.08222585 0.44471073 -0.58859503 -0.36528534 -0.52741134 0.63959485
-0.74703956 -0.059881274 -0.5625134 -0.20454758 -0.38777786 -0.48706734 0.27582186 -0.006762159
-0.4696609 -0.012616186 0.22265069 0.013699305 0.071452044 0.9658413 -1.1100127 -0.70215833

critic.4.weight f4 [1, 64]
00000000: 2ab9 aabe 1b75 ee3e 91db 01bf 668e e7be
00000010: a00c 05bf ce94 43bf 98e2 1bbf d122 383f
00000020: dd74 cf3e 1dd7 b1be 7336 0e3f fbf9 16bf
00000030: 6e6c f83e a1f9 0a3f 309a 17bf 7027 ba3e
00000040: d582 263f 53e4 26bf a56d 213f a74d 76be
00000050: f8e9 29bf 1d50 3cbf 2e40 1fbf 74df 05bf
00000060: 45a2 56bf f7ac 15bf 69e0 06bf f588 35bf
00000070: 9c20 1dbf 6958 03bf 4c73 c5be d8e6 25bf
00000080: 677a e5be 2f5a 30bf 0902 1fbf d124 10bf
00000090: 8ce9 093f 644e 09bf b806 9cbe 465f 29bf
000000a0: 251f e83e 8933 1a3f ba6a f2be 75ef 03bf
000000b0: d1fc 21bf 2d1a 2ebf 58f0 c23e 9a4f 31bf
000000c0: 7e09 9fbe 01c1 e3be d584 00bf 4b14 23bf
000000d0: 70b8 db3e c379 073f f5f0 1fbf 5bac 9abe
000000e0: ccf3 44bf 19b2 a9be 5b89 333f 817d cabe
000000f0: 7b39 063f cb64 0d3f 32ff 1c3f e5ce f8be
-0.33344394 0.4657372 -0.50725657 -0.4522583 -0.5197239 -0.7639893 -0.6089263 0.71928126
0.40518847 -0.3473443 0.5555183 -0.5897519 0.48520225 0.54287153 -0.59219646 0.36358213
0.65043384 -0.65192145 0.6305793 -0.2405306 -0.66372633 -0.73559743 -0.62207305 -0.5229409
-0.83841354 -0.5846705 -0.5268617 -0.70912105 -0.6137788 -0.5130678 -0.38564527 -0.64805365
-0.44819948 -0.6888761 -0.6211248 -0.5630618 0.5387199 -0.5363524 -0.30473876 -0.66161
0.4533626 0.60234886 -0.4734705 -0.5153726 -0.6327639 -0.6800869 0.38073993 -0.6926209
-0.3106193 -0.44483188 -0.50202686 -0.6370284 0.42914152 0.5292017 -0.62477046 -0.30209622
-0.76934505 -0.3314369 0.7013146 -0.39548877 0.5243146 0.5523192 0.613269 -0.48595348
