Model Results/ppoTSLA2021-09-011999.pth (torch, 48325 bytes, 11 tensors)

actor.0.weight f4 [64, 16]
-1.1089971 0.8864246 -0.16046426 0.6319814 -0.1760752 -0.10929538 3.002171 0.026894892
-1.3140663 0.25323784 -0.35163382 -0.32277375 1.1389322 -0.3609515 -0.47983307 0.41166356
-0.057543363 -0.393947 -0.730139 1.2175877 1.2659601 1.2376081 -0.25781977 0.9320383
0.33093017 0.0013881545 -0.08812316 -0.15241386 -2.8429945 0.6471547 0.16495867 -0.077793516
-0.23921272 0.17945723 0.37826878 0.24135251 0.6455927 1.047079 -1.3728935 -1.222793
-1.6497751 -0.39685312 -0.62233996 -0.7789473 -1.4640774 -0.2584747 -0.061324377 0.039210163
-0.16661519 0.12797982 -0.4634996 0.59658265 1.0161402 0.7176933 -1.7299141 0.35331294
1.880359 0.4533837 0.7144137 0.7367007 -0.81721485 0.5565895 0.20947981 -0.09426634
-0.15928705 1.4266362 1.3364382 -0.2078559 -0.89636475 -1.112387 1.4020015 -0.33514422
-0.98444986 -0.46504337 -0.617628 -0.43586245 -0.41126907 -0.6005065 -0.2700614 0.1702862
-0.7333351 -0.550297 -1.3970835 -0.64892495 -0.19194107 -0.0018017741 -2.9611177 -1.1201651
0.96056706 0.6234102 0.90511984 0.90031207 -0.31162062 0.6291202 0.12543756 0.20642616
-0.047940817 -0.23321715 -0.2234579 -0.60983634 -0.7028496 -0.7648585 1.3464687 0.7399898
0.65326744 0.38615724 0.37209827 0.35377747 0.6843731 1.1240932 0.8340427 0.10033887
0.24689539 0.17053714 0.6146713 -0.36885092 -1.2522974 -1.0418824 0.7375845 -0.76118565
-1.9503001 -0.64879274 -0.8514345 -1.0038859 0.025214981 -0.45941603 -0.3036228 -0.35451064
1.6634983 0.089068405 -0.51549536 -0.48371992 0.27941123 0.5031367 -2.2795713 -0.41830373
0.52568346 -0.4330562 0.26343158 0.27293077 0.6767093 0.4607135 0.15237637 -0.171242
-2.1789706 0.17849383 0.9144676 0.18821737 -0.07691835 -0.32098836 0.7503651 -0.7616455
-1.3178425 -0.17990366 -0.39988557 -0.6365127 0.28618166 0.43647677 0.046710562 0.04665772
0.07214318 -1.3826164 -1.1903054 0.57862717 1.335752 1.0121078 -2.8789542 -1.6739774
-2.00935 0.08180687 -0.11558269 0.34889036 -0.43957338 0.8624039 0.050546307 0.062135287
-0.049016826 0.7203066 0.20753534 -1.3522373 -1.2763143 -1.3566698 -1.6840127 -3.1747794
-3.3447523 -0.84739745 -0.8585469 -0.8615429 2.0981753 -0.6211759 -0.07317235 -0.22765774
-1.5223541 0.6233396 0.18781629 0.43792814 0.21393248 -0.07092582 0.8529079 -1.2731535
-2.091379 0.015833229 -0.5889308 -0.5832398 1.6484898 0.37747318 0.2824713 -0.15777498
1.102405 0.21871401 -0.47769386 -0.6623943 -0.50020593 -0.14693528 -3.9464345 -3.4914849
-2.4301553 -0.64909214 0.013452911 0.47202817 -0.7376581 -0.7201083 0.48182067 0.1760571
1.7491117 0.046638563 0.2672557 -0.39330035 -0.32238048 -0.36690313 1.2430484 1.7185302
2.323727 0.2631535 0.22771038 0.014241425 -0.2855643 -1.1134642 -0.24258198 0.019791631
-0.3229768 -0.0040895855 0.4458776 -0.9088938 -0.0068571735 0.47779807 -1.4225852 -1.8459466
-1.5777373 -0.7023164 -0.31023318 -0.16044234 1.0262482 -0.50200677 0.40700513 -0.39404097
00000000: 9ef3 8dbf b9ec 623f be50 24be 88c9 213f
00000010: 0f4d 34be 42d6 dfbd 9223 4040 ad52 dc3c
00000020: 5333 a8bf 64a8 813e 5909 b4be 9a42 a5be
00000030: 88c8 913f a3ce b8be aeac f5be 91c5 d23e
00000040: 97b2 6bbd 6cb3 c9be 64ea 3abf ead9 9b3f
00000050: fb0a a23f f169 9e3f f400 84be 109a 6e3f
00000060: ae6f a93e bcf2 b53a ea79 b4bd 6112 1cbe
00000070: 9ff3 35c0 eeab 253f edea 283e 3552 9fbd
00000080: 2ef4 74be a3c3 373e 72ac c13e 1d25 773e
00000090: 9045 253f af06 863f f9ba afbf 7b84 9cbf
000000a0: d52b d3bf 5530 cbbe ac51 1fbf 1769 47bf
000000b0: e366 bbbf cc56 84be 452f 7bbd d69a 203d
000000c0: 2c9d 2abe 240d 033e d24f edbe a4b9 183f
000000d0: e210 823f c0ba 373f d36d ddbf 6fe5 b43e
000000e0: 9baf f03f e921 e83e d1e3 363f 6b98 3c3f
000000f0: fe34 51bf a67c 0e3f e081 563e b60e c1bd
00000100: 251c 23be 049c b63f 6810 ab3f 2dd8 54be
00000110: 2978 65bf b262 8ebf c974 b33f 0698 abbe
00000120: e804 7cbf 2a1a eebe de1c 1ebf 5d29 dfbe
00000130: dc91 d2be cbba 19bf 7d45 8abe 815f 2e3e
00000140: d9bb 3bbf 44e0 0cbf a2d3 b2bf f21f 26bf
00000150: 338c 44be 8229 ecba f482 3dc0 9261 8fbf
00000160: b9e7 753f d097 1f3f efb5 673f da7a 663f
00000170: bd8c 9fbe 050e 213f b472 003e 6161 533e
00000180: 975d 44bd 7ad0 6ebe 26d2 64be 3c1e 1cbf
00000190: f4ed 33bf c4cd 43bf 1659 ac3f f96f 3d3f
000001a0: 893c 273f 67b6 c53e aa83 be3e 5222 b53e
000001b0: 1333 2f3f 49e2 8f3f d383 553f 777e cd3d
000001c0: 25d2 7c3e 4aa1 2e3e 195b 1d3f 07da bcbe
000001d0: 484b a0bf 675c 85bf 56d2 3c3f 10dd 42bf
000001e0: 6fa3 f9bf 4817 26bf 9df7 59bf 557f 80bf
000001f0: a68f ce3c 9438 ebbe 7374 9bbe 6b82 b5be
00000200: 83ed d43f 7f69 b63d 81f7 03bf 23aa f7be
00000210: fd0e 8f3e 91cd 003f 7fe4 11c0 e82b d6be
00000220: 3193 063f 8bb9 ddbe 81e0 863e 95bd 8b3e
00000230: d23c 2d3f a4e2 eb3e 8d08 1c3e 105a 2fbe
00000240: 4174 0bc0 16c7 363e 8c1a 6a3f 0ebc 403e
00000250: 5e87 9dbd 9658 a4be ed17 403f 33fb 42bf
00000260: 10af a8bf aa38 38be cdbd ccbe 7ff2 22bf
00000270: 6786 923e e279 df3e 9353 3f3d 2a1c 3f3d
00000280: cebf 933d 93f9 b0bf ed5b 98bf e920 143f
00000290: ecf9 aa3f c08c 813f c940 38c0 e444 d6bf
000002a0: 3199 00c0 5c8a a73d 9eb6 ecbd c2a1 b23e
000002b0: c30f e1be 81c6 5c3f a509 4f3d 9281 7e3d
000002c0: dec5 48bd 0366 383f 2584 543e 1d16 adbf
000002d0: 445e a3bf 5ba7 adbf ba8d d7bf 962f 4bc0
000002e0: 6c10 56c0 0aef 58bf bbc9 5bbf 138e 5cbf
000002f0: 8148 0640 6205 1fbf 63db 95bd 1c1f 69be
00000300: 80dc c2bf 2f93 1f3f ea52 403e 1e38 e03e
00000310: 1e11 5b3e 8e41 91bd 2c58 5a3f b2f6 a2bf
00000320: 27d9 05c0 b0b4 813c 2bc4 16bf 344f 15bf
00000330: b701 d33f 2a44 c13e 14a0 903e c48f 21be
00000340: 9b1b 8d3f 91f6 5f3e 4a94 f4be ac92 29bf
00000350: 7f0d 00bf 3476 16be 6292 7cc0 7d74 5fc0
00000360: aa87 1bc0 e72a 26bf 9969 5c3c adad f13e
00000370: 29d7 3cbf 0459 38bf 33b1 f63e 5048 343e
00000380: e4e2 df3f 1408 3f3d bdd5 883e aa5e c9be
00000390: 0e0f a5be bada bbbe 361c 9f3f ccf8 db3f
000003a0: f1b7 1440 0ebc 863e e92c 693e de54 693c
000003b0: 7c35 92be ff85 8ebf 6967 78be 0f22 a23c
000003c0: 375d a5be ee01 86bb 124a e43e 44ad 68bf
000003d0: 24b2 e0bb f3a1 f43e 4617 b6bf fa47 ecbf
000003e0: 4cf3 c9bf 02cb 33bf e2d6 9ebe ff4a 24be
000003f0: 1a5c 833f 8483 00bf fa62 d03e bdbf c9be

actor.0.bias f4 [64]
-0.08203729 0.18642245 -0.37295476 0.4792531 -0.35163578 0.7958722 0.108205974 -0.63731873
0.10505482 -0.24653184 0.52037174 -0.15087786 0.029279683 0.58293015 -0.20580928 -0.0036022856
-0.16161376 0.8393747 0.617878 0.08772985 -0.3441879 -0.28687483 -0.10186872 -0.755736
-0.0714998 0.11379415 -0.5292604 0.22340684 -0.17523098 -0.2678177 -0.00304793 -0.5245149
0.3539013 0.40278712 -0.014397563 -0.037134297 -0.56499624 0.5155646 -0.36353332 -0.29840386
-0.5407362 0.7448933 -0.1337809 0.6409361 -0.046937782 0.13289496 0.55441564 -0.4641269
0.6710224 0.4765991 0.6348794 0.19646789 0.07287514 -0.49898672 0.55621636 -0.4212058
-0.17023356 -0.119795896 -0.24219494 0.06730139 -0.36881137 -0.14290486 0.32425764 -0.5045355
00000000: 2b03 a8bd 87e5 3e3e edf3 bebe aa60 f53e
00000010: 9b09 b4be 48be 4b3f 189b dd3d 5227 23bf
00000020: fb26 d73d d872 7cbe 1537 053f ba7f 1abe
00000030: f2db ef3c e93a 153f abbf 52be 5314 6cbb
00000040: 147e 25be 43e1 563f 412d 1e3f b5ab b33d
00000050: 6539 b0be 42e1 92be 8ca0 d0bd ea77 41bf
00000060: 7d6e 92bd e80c e93d 9c7d 07bf c3c4 643e
00000070: c06f 33be 671f 89be c8bf 47bb 9c46 06bf
00000080: 8d32 b53e 1d3a ce3e c2e3 6bbc 221a 18bd
00000090: 98a3 10bf 0bfc 033f 0a21 babe 64c8 98be
000000a0: b06d 0abf 54b1 3e3f dcfd 08be 6314 243f
000000b0: d541 40bd 9e15 083e 2fee 0d3f 0ba2 edbe
000000c0: 20c8 2b3f cc04 f43e 7587 223f e12e 493e
000000d0: 903f 953d 307b ffbe 3264 0e3f 49a8 d7be
000000e0: b551 2ebe 8d57 f5bd f301 78be 50d5 893d
000000f0: d8d4 bcbe a755 12be 1905 a63e 3d29 01bf

actor.2.weight f4 [64, 64]
0.9276382 -1.3465854 -0.37477893 0.558131 0.3590861 1.641696 0.25754696 -0.3327524
-0.313053 -0.08757525 -0.6584254 -0.13003188 0.61585265 -0.29021734 -0.35796633 -1.1260289
-1.487275 -1.00699 -0.9814886 0.64239347 0.0074094078 -0.19401418 0.10952531 -0.25107974
-0.37704992 0.7422092 -0.74038213 0.43954003 0.37352625 -0.5071584 -0.9119967 0.30244234
0.531197 0.37054577 0.108425505 -0.8099597 0.23992054 1.1350106 0.24986336 -0.366997
0.1471551 1.7957599 0.9548692 -0.46257076 -0.80122864 2.424838 0.20658933 -0.74533707
0.04062824 0.21313615 0.9152554 -0.4287247 -0.6331182 -0.99474984 0.35460132 -0.23115414
-0.4912109 0.38944742 -0.4717665 -1.0229175 -0.06776568 -0.06084387 -0.16615856 0.28840908
-0.02673661 0.6073141 -0.13031046 2.275823 -1.918802 0.12038001 0.15411668 -1.434072
0.5243944 -0.30957812 0.38384455 -0.8828487 0.2439356 -0.21746227 -0.29119802 -1.0089483
-0.25389522 1.3596727 1.0000411 -0.6485983 -0.20416094 0.3197482 -0.8511711 -0.7176052
-0.15782762 0.21335761 -0.88398623 0.15704711 0.63000494 1.0042101 -0.08835612 0.11923125
0.100060225 0.58080876 0.46065068 -0.68940526 -0.8642246 0.26334292 0.11495726 -0.8741492
-0.2938869 0.23233598 0.29939336 0.007997729 -0.09485324 -0.24343538 0.23169105 -0.20953768
0.24320795 0.4230867 0.39183655 0.41538277 -0.46507564 -0.46609622 0.12835334 -0.16208255
-0.20299672 0.23996784 -1.4788003 -0.620808 0.39322868 -0.23575327 -0.5601126 -0.7699157
0.4118445 -0.3382016 -0.590408 0.7992355 -0.6165843 0.037520505 0.6588763 -0.85772973
0.4672543 0.8000204 0.3352607 -0.029038157 1.4459852 -0.68800217 -0.43466008 0.18617262
-0.68005073 0.13178134 0.43677157 -1.4760083 -0.6569556 1.306426 0.75175977 0.1208878
0.12464454 0.03517754 -0.3584504 -0.8853671 0.43065363 0.26291922 0.002725047 0.025683204
0.81378365 0.2839938 0.86030257 -0.39317673 -1.2483294 -0.3538777 0.1056997 0.19493745
0.4969995 0.6492174 0.4851532 0.40580764 -0.67105687 -2.455851 0.34318736 -0.24503513
-0.2386749 0.5298265 -0.16033074 -0.23289908 -0.32046208 -0.1566677 -0.41265026 -0.36256158
-2.236572 0.0798942 -1.1060096 -0.58524525 0.5694953 -0.68328476 -1.3385254 0.0027425487
0.33669984 -0.6448496 -0.04327737 0.3510473 0.22495738 0.57483876 0.43295443 -0.5388312
0.03406719 0.73493934 -0.1772115 0.6685657 0.938288 0.22044934 -0.96002895 0.38392255
-0.49228832 -0.5153558 0.011516983 -0.35487804 0.032710213 0.36872333 -0.41396967 -0.23718138
-0.199197 2.063045 -0.5566433 -0.5750515 -0.70916206 -0.21960643 -2.5598936 0.92134494
0.32975674 0.6543574 -0.012444465 -0.3802133 0.1998644 0.618972 1.3016087 -0.22374004
-0.52845144 1.8146 0.12687941 -0.26805285 -1.6117511 0.030990414 -0.08124886 -2.284941
-0.85178685 -0.06453839 0.6584333 0.1320093 -0.69308805 -0.43206 1.7689847 0.055075385
-0.8795334 0.55958563 -0.39718804 0.007993766 0.07780856 0.03998052 1.9418437 -0.66850847
00000000: b279 6d3f e95c acbf 06e3 bfbe ace1 0e3f
00000010: 22da b73e 1823 d23f 32dd 833e 865e aabe
00000020: 7c48 a0be a75a b3bd 918e 28bf 1427 05be
00000030: 85a8 1d3f 5e97 94be 5d47 b7be b721 90bf
00000040: 075f bebf 0ce5 80bf d642 7bbf e673 243f
00000050: 9eca f23b a7ab 46be ce4e e03d 868d 80be
00000060: b00c c1be 6c01 3e3f af89 3dbf 640b e13e
00000070: d53e bf3e 22d5 01bf 9e78 69bf b9d9 9a3e
00000080: 87fc 073f 2db8 bd3e 310e de3d 8559 4fbf
00000090: bbad 753e 0748 913f 2edc 7f3e 08e7 bbbe
000000a0: d4af 163e 76db e53f 4f72 743f 13d6 ecbe
000000b0: 521d 4dbf 8c30 1b40 278c 533e 69ce 3ebf
000000c0: cc69 263d 5d40 5a3e 2e4e 6a3f ce81 dbbe
000000d0: 0914 22bf eda7 7ebf 4e8e b53e acb3 6cbe
000000e0: ff7f fbbe a765 c73e 618b f1be f6ee 82bf
000000f0: bcc8 8abd 6c37 79bd 7825 2abe 5baa 933e
00000100: bc06 dbbc f078 1b3f 1b70 05be 16a7 1140
00000110: 4e9b f5bf cb89 f63d c3d0 1d3e ac8f b7bf
00000120: b63e 063f 0681 9ebe 4687 c43e 5f02 62bf
00000130: 41ca 793e 6eae 5ebe e817 95be 3825 81bf
00000140: 8efe 81be c109 ae3f 5901 803f 8a0a 26bf
00000150: 910f 51be 09b6 a33e 59e6 59bf f9b4 37bf
00000160: 909d 21be 6b7a 5a3e ec4c 62bf f5d0 203e
00000170: 0148 213f f589 803f 0ef4 b4bd 832f f43d
00000180: 60ec cc3d e2af 143f 68da eb3e dd7c 30bf
00000190: d33d 5dbf e2d4 863e b66e eb3d 3ec8 5fbf
000001a0: 5878 96be 7ce9 6d3e 164a 993e e808 033c
000001b0: 6a42 c2bd 2047 79be 6b40 6d3e 0c91 56be
000001c0: 810b 793e d29e d83e cd9e c83e 0dad d43e
000001d0: 651e eebe 2aa4 eebe 0f6f 033e f8f8 25be
000001e0: 5fde 4fbe 21ba 753e 5449 bdbf 46ed 1ebf
000001f0: 4555 c93e 4e69 71be 8a63 0fbf 3219 45bf
00000200: 48dd d23e c328 adbe fb24 17bf b39a 4c3f
00000210: 78d8 1dbf 1aaf 193d 1eac 283f 2d94 5bbf
00000220: f53b ef3e 23ce 4c3f 4aa7 ab3e 6ee1 edbc
00000230: 0b16 b93f e920 30bf c48b debe 09a4 3e3e
00000240: ce17 2ebf b0f1 063e 86a0 df3e d7ed bcbf
00000250: 3e2e 28bf f838 a73f 5473 403f 0694 f73d
00000260: a345 ff3d 5316 103d d086 b7be 6ba7 62bf
00000270: a27e dc3e 599d 863e b496 323b 9565 d23c
00000280: 2054 503f a367 913e ca3c 5c3f 764e c9be
00000290: 42c9 9fbf 752f b5be 1679 d83d af9d 473e
000002a0: b876 fe3e 1d33 263f 0066 f83e 05c6 cf3e
000002b0: 62ca 2bbf aa2c 1dc0 41b6 af3e 7dea 7abe
000002c0: 3167 74be b6a2 073f be2d 24be 197d 6ebe
000002d0: 9b13 a4be 7f6d 20be e546 d3be aca1 b9be
000002e0: ff23 0fc0 929f a33d b991 8dbf a2d2 15bf
000002f0: 72ca 113f c0eb 2ebf cd54 abbf 55bc 333b
00000300: ec63 ac3e dd14 25bf 9d43 31bd 79bc b33e
00000310: 3a5b 663e a228 133f 34ac dd3e d7f0 09bf
00000320: 0a8a 0b3d fc24 3c3f ee76 35be 1f27 2b3f
00000330: a433 703f 79bd 613e 75c4 75bf 7f91 c43e
00000340: 370d fcbe 5cee 03bf bab1 3c3c 93b2 b5be
00000350: 25fb 053d 4ec9 bc3e d5f3 d3be addf 72be
00000360: 4cfa 4bbe ee08 0440 2d80 0ebf 9336 13bf
00000370: a58b 35bf 82e0 60be 4cd5 23c0 43dd 6b3f
00000380: e0d5 a83e f783 273f dfe3 4bbc 51ab c2be
00000390: 41a9 4c3e f374 1e3f 1d9b a63f 1c1c 65be
000003a0: 9848 07bf d044 e83f adec 013e 393e 89be
000003b0: dc4d cebf 9cdf fd3c cd65 a6bd 793c 12c0
000003c0: b40e 5abf b42c 84bd 168f 283f 722d 073e
000003d0: 386e 31bf f836 ddbe 176e e23f ba96 613d
000003e0: 1a29 61bf 0141 0f3f 3b5c cbbe 49f8 023c
000003f0: 185a 9f3d 9dc2 233d 568e f83f 5f23 2bbf

actor.2.bias f4 [64]
0.19491468 0.4252572 0.12489458 0.15710469 -0.35286045 0.20197204 0.22018804 -0.016216287
0.5649699 -0.4882431 -0.20100728 0.2705011 -0.20309545 0.47508568 0.17541555 0.36197126
-0.19115458 -0.74619436 0.34717423 0.27064767 -0.2672601 0.43250316 -0.31778735 0.48654947
0.017356182 0.10163261 -0.6988656 -0.25634918 0.12950402 -0.054519836 0.25848377 0.10358909
-0.4010035 -0.3964457 0.17287458 0.4308281 0.36532968 -0.5775827 0.025698774 0.30802783
0.18406335 -0.22009495 0.29440436 0.04095114 0.6322727 0.1465701 -0.27010673 -0.07655711
-0.6438766 0.43903345 -0.21082991 0.16233891 -0.18415095 0.06381857 0.14726734 0.62452924
-0.11564857 0.0048955805 -0.10172346 -0.45176715 0.68885136 0.454291 0.20377246 -0.07377504
00000000: b797 473e 50bb d93e bbc8 ff3d 0de0 203e
00000010: 20aa b4be c2d1 4e3e f978 613e 05d8 84bc
00000020: dea1 103f 00fb f9be dad4 4dbe 1f7f 8a3e
00000030: 41f8 4fbe 6e3e f33e 22a0 333e 4c54 b93e
00000040: 07be 43be 9806 3fbf d2c0 b13e 5592 8a3e
00000050: 51d6 88be 0e71 dd3e 06b5 a2be 031d f93e
00000060: 8d2e 8e3c c224 d03d dbe8 32bf 3340 83be
00000070: b49c 043e 3150 5fbd fc57 843e 8426 d43d
00000080: 5550 cdbe eefa cabe 0906 313e 8095 dc3e
00000090: 7e0c bb3e 76dc 13bf 3c86 d23c d3b5 9d3e
000000a0: 1a7b 3c3e 9260 61be 2bbc 963e 62bc 273d
000000b0: a0dc 213f 7916 163e 6e4b 8abe f9c9 9cbd
000000c0: 19d5 24bf fec8 e03e cce3 57be 2c3c 263e
000000d0: 1192 3cbe 4fb3 823d 40cd 163e 26e1 1f3f
000000e0: 28d9 ecbd 1b6b a03b 6454 d0bd 064e e7be
000000f0: 9058 303f d498 e83e baa9 503e 5e17 97bd

actor.4.weight f4 [7, 64]
1.2875603 -0.23926237 0.19341955 0.26415765 -2.5591855 2.2607107 -1.5165086 -1.7223294
-2.314061 1.653651 1.0323745 -1.0967022 -1.8571427 0.28203386 -2.488775 -1.6779286
0.5777419 -1.7083968 1.8591617 2.0184324 0.47126752 -0.21613194 -1.6889653 -1.3677965
-0.61221683 2.2421193 0.29310283 -1.6291068 -0.35646558 2.1597097 -0.29487664 1.6599383
-1.9543649 -1.1313502 0.030445024 2.4769652 2.2543013 -1.7326376 0.6953978 -2.3059123
1.3790921 -0.8317777 -2.3341599 0.55658185 2.5138302 -0.024549775 1.9198744 0.8707007
-1.0957156 2.900715 0.5433929 2.3085325 1.9397031 0.74946505 0.46229485 1.0086143
0.70547855 -2.0056145 -0.7933294 -0.31555444 -2.552983 0.7220754 -0.72951597 -1.9219489
2.785252 0.09294772 0.5026539 -1.2163023 0.50093096 0.8199757 0.27216533 0.46696103
0.307145 0.14664659 0.488936 -0.5836241 2.0995648 -1.8412385 -0.3736354 -1.3344768
-0.39844704 1.0351312 -0.9082836 -0.15052721 1.0030612 -0.2032027 -0.39957413 0.055628028
-0.70769376 -0.51164055 0.17624518 1.3545558 0.78072923 0.15082791 -1.6476759 -0.06178412
2.4343505 -1.5678232 0.20652455 0.4853058 0.92718726 -1.4486275 1.2320583 0.09849723
1.0595968 2.106528 0.2792702 1.6379155 0.62326986 -0.6437371 -0.08784505 -0.38149568
1.5707407 0.18928006 1.4996564 0.92086834 0.021489339 0.99678373 -1.4777308 1.6040726
-0.5624534 -0.22703488 -2.2497897 0.9760379 0.2321275 -1.6272312 0.061140765 0.012485139
0.9787375 -0.7972683 1.2548558 -1.0633289 -0.09503077 0.11962941 0.038768865 0.1228119
-0.3574273 -0.5252328 -0.19788824 -1.6769792 -0.0067875558 0.24188714 -0.10254797 -0.31407133
0.24498713 0.97168636 -2.8242166 -0.08854939 2.1273415 -1.3919184 -0.30664703 -0.30485046
0.18640356 -0.20858182 -0.48558503 0.23783752 0.10850511 0.0647531 0.38576257 2.7832813
-0.1275943 -0.78692156 2.197351 -0.49999207 0.19768979 1.4179343 -1.0590708 -0.099831074
0.9984653 -0.8893497 0.8797179 0.6966047 0.061048817 -0.9696529 -0.0036306249 -0.6532654
-1.9074419 0.21632919 1.0715533 -0.40829283 1.027148 1.2577362 -0.12531033 -0.35473904
-0.66444564 0.87444204 -0.7100724 0.78101885 -0.12197661 -1.6966296 -0.42820358 0.20853856
0.23860745 -0.8101625 1.4893711 0.8312715 -0.05232561 -0.5714434 0.8985248 -0.51494575
-0.46800795 -0.17985915 -0.39587238 0.39514288 -0.31823438 0.22057667 1.0608828 0.024027368
-0.9281327 -0.80922014 -0.19415957 -0.3385695 0.51291335 1.4299238 0.33540687 -1.1703452
-0.41887575 1.2840384 1.586212 0.44263238 0.5843508 0.3534791 0.31330281 -0.30950633
0.109421425 0.9517636 -0.82754165 1.4192147 0.32010478 0.28831255 1.6963029 0.8205767
-0.04817858 0.17896588 1.8832394 0.1827181 0.60442543 -1.5077254 0.28173876 0.56432164
0.07212727 -0.18951155 0.43588173 -2.186006 -0.2117745 1.6735302 0.37784383 1.1690217
0.31647348 -0.42252466 -0.26337138 0.36782065 0.09173203 0.89670444 1.0837601 1.1429563
00000000: c7ce a43f 3201 75be c60f 463e ac3f 873e
00000010: b2c9 23c0 7caf 1040 f41c c2bf 4a75 dcbf
00000020: 9319 14c0 d6aa d33f d924 843f bd60 8cbf
00000030: dab6 edbf be66 903e 1748 1fc0 5dc6 d6bf
00000040: e5e6 133f bfac dabf 03f9 ed3f ff2d 0140
00000050: fa49 f13e b151 5dbe 0430 d8bf f513 afbf
00000060: 3eba 1cbf e27e 0f40 9311 963e 9286 d0bf
00000070: a882 b6be af38 0a40 12fa 96be dc78 d43f
00000080: a128 fabf 15d0 90bf d867 f93c 9986 1e40
00000090: 7946 1040 12c7 ddbf 9705 323f 1194 13c0
000000a0: 1786 b03f 62ef 54bf e062 15c0 267c 0e3f
000000b0: 98e2 2040 9c1c c9bc 72be f53f 3ee6 5e3f
000000c0: 6940 8cbf 51a5 3940 cc1b 0b3f ffbe 1340
000000d0: 3148 f83f f1dc 3f3f e9b1 ec3e 461a 813f
000000e0: 3e9a 343f fd5b 00c0 a317 4bbf 5a90 a1be
000000f0: 1364 23c0 efd9 383f 8fc1 3abf 6c02 f6bf
00000100: 9241 3240 605b be3d edad 003f cbaf 9bbf
00000110: 033d 003f ede9 513f 4159 8b3e 8415 ef3e
00000120: 1c42 9d3e 862a 163e d255 fa3e 6468 15bf
00000130: 455f 0640 b4ad ebbf 244d bfbe 23d0 aabf
00000140: 4001 ccbe 2e7f 843f 4685 68bf ce23 1abe
00000150: 4f64 803f 5e14 50be fb94 ccbe 37da 633d
00000160: 6b2b 35bf e0fa 02bf 9e79 343e 1662 ad3f
00000170: dfdd 473f a272 1a3e 0be7 d2bf 5811 7dbd
00000180: 66cc 1b40 6eae c8bf 2c7b 533e 007a f83e
00000190: 255c 6d3f a06c b9bf 16b4 9d3f eab8 c93d
000001a0: dea0 873f 5bd1 0640 81fc 8e3e 37a7 d13f
000001b0: 9d8e 1f3f f4cb 24bf 1be8 b3bd 6753 c3be
000001c0: 080e c93f a2d2 413e bef4 bf3f 07be 6b3f
000001d0: 690a b03c 382d 7f3f 4826 bdbf 4052 cd3f
000001e0: f2fc 0fbf d57b 68be 8efc 0fc0 9fdd 793f
000001f0: d5b2 6d3e 1d49 d0bf bd6e 7a3d 788e 4c3c
00000200: 8a8e 7a3f c619 4cbf 1d9f a03f 291b 88bf
00000210: 7e9f c2bd 4400 f53d 1acc 1e3d ce84 fb3d
00000220: b600 b7be a875 06bf 37a3 4abe 41a7 d6bf
00000230: 256a debb 43b1 773e ac04 d2bd f5cd a0be
00000240: e8dd 7a3e 70c0 783f f7bf 34c0 6259 b5bd
00000250: 5d26 0840 622a b2bf d700 9dbe 5c15 9cbe
00000260: 93e0 3e3e 7996 55be 9a9e f8be ae8b 733e
00000270: ed37 de3d 469d 843d ac82 c53e 4821 3240
00000280: 15a8 02be b173 49bf 66a1 0c40 f6fe ffbe
00000290: 316f 4a3e df7e b53f a28f 87bf 3c74 ccbd
000002a0: 6c9b 7f3f 6cac 63bf 3135 613f b054 323f
000002b0: 530e 7a3d 2c3b 78bf c7ef 6dbb 673c 27bf
000002c0: 0e27 f4bf 6685 5d3e a928 893f c20b d1be
000002d0: 9679 833f 80fd a03f 5a51 00be 5ba0 b5be
000002e0: 1c19 2abf 6fdb 5f3f 4ec7 35bf daf0 473f
000002f0: dfce f9bd 292b d9bf 803d dbbe 228b 553e
00000300: 8355 743e cf66 4fbf b6a3 be3f 36ce 543f
00000310: 6153 56bd 1d4a 12bf b905 663f 7cd3 03bf
00000320: bd9e efbe ff2c 38be c9af cabe 2b50 ca3e
00000330: 9eef a2be dade 613e 02cb 873f 0bd5 c43c
00000340: 1b9a 6dbf 0d29 4fbf c4d1 46be fb58 adbe
00000350: 4a4e 033f be07 b73f 73ba ab3e dfcd 95bf
00000360: e276 d6be 5f5b a43f ff08 cb3f b6a0 e23e
00000370: 0498 153f 36fb b43e 3a69 a03e 9d77 9ebe
00000380: 5718 e03d c7a6 733f c5d9 53bf d4a8 b53f
00000390: c6e4 a33e b49d 933e 7420 d93f 5111 523f
000003a0: e756 45bd d542 373e fd0d f13f 741a 3b3e
000003b0: a0bb 1a3f 25fd c0bf 1040 903e 6277 103f
000003c0: 76b7 933d 510f 42be e42b df3e 86e7 0bc0
000003d0: 6adb 58be 3d36 d63f bf74 c13e 81a2 953f
000003e0: d008 a23e 2755 d8be 9dd8 86be fd52 bc3e
000003f0: 01de bb3d 6c8e 653f a7b8 8a3f 644c 923f

actor.4.bias f4 [7]
0.7923644 0.34611094 -0.1433838 -0.066189244 0.050138615 0.21904235 0.83044183
00000000: 65d8 4a3f 7435 b13e 34d3 12be 3a8e 87bd
00000010: 265e 4d3d a34c 603e d697 543f

critic.0.weight f4 [64, 16]
0.269366 1.0655959 0.44500297 0.39464638 0.5212791 1.0742419 -1.9108071 -0.8112466
-0.57066035 -1.4335357 -1.2816174 -1.0091151 -0.49930432 -2.4304059 -0.3372544 0.17109114
-0.30913737 0.26079762 -0.31452942 0.10664019 -0.40907708 0.3191935 -5.069013 -8.6559
-10.453009 -0.3137765 0.122273706 0.4905384 -0.33670238 -2.2863333 0.32983208 0.12029636
0.5100856 0.79584056 -0.53018945 -1.292348 0.5812848 -0.04694858 1.3151051 3.5325344
4.334135 0.47601682 -0.48099095 -0.7397679 0.028767113 0.010976702 0.17031485 -0.028043907
-2.6798935 -1.3684804 -1.7055464 0.6622137 0.6287445 -0.15142421 -4.612438 -5.074432
-4.4779134 -2.7921588 -2.2022724 -1.7904751 -1.2989609 -1.280187 -0.552308 0.48452663
0.024231924 0.7308932 -0.7573395 -0.20769995 0.32399493 -0.09294411 1.3491385 4.5967164
6.3532944 0.29756343 0.46084568 0.4303232 1.0209967 -0.67183995 0.5060191 -0.5404402
1.1555123 0.15687628 0.68943125 0.65402937 0.05772829 0.16194128 -6.3539133 -6.5264516
-6.351021 -0.81328386 -0.1462564 0.1373106 0.15604895 2.452048 0.025681201 0.15966743
-2.4343162 0.35691783 0.25448418 0.5425956 -0.48764676 0.5247077 0.4558146 -3.0936017
-4.858136 0.10797457 0.066797875 -0.025941642 2.3121686 -1.2366862 0.2480749 -0.2716735
-1.512242 -0.6624213 0.22094022 -1.2703981 -1.8695244 -2.3108768 -0.114557974 -2.1390228
-1.2167406 -0.01275589 -0.001433201 0.1352834 2.1921732 -0.657039 -0.07195016 -0.26083887
1.4652578 -0.33410555 -1.0002964 0.9497662 -0.4866246 -0.54720426 -1.1288229 1.3511009
4.0557313 -0.3072799 0.15374202 0.23471102 0.7705671 -0.006607756 0.15303676 0.031229705
0.8106321 0.5566731 1.3718162 -0.37453365 -0.89087045 -0.92735016 0.16905867 0.2824125
0.62442166 1.2810849 1.8362501 1.8542453 0.18490125 0.20577706 0.62284285 0.33151513
0.53479314 0.7904399 -1.0677049 1.0086541 -0.70641005 -0.4487728 -0.43660563 0.90847284
3.2398956 0.009375894 0.9813791 0.6559664 -1.1411281 0.09009203 -0.13703404 0.27844915
-1.3249766 -1.016932 0.022479989 1.2370247 0.54397124 0.24397677 0.67030656 -2.6328452
-4.934949 -1.3388866 -1.5558637 -1.2237016 2.468221 2.470662 -0.46756178 0.055384293
-1.6139294 -0.10854409 0.38043216 -1.1948483 0.35838655 0.15442318 6.692258 5.47609
3.9445736 0.698627 -0.398427 -0.9947916 -0.7527054 1.0924299 -0.25003457 -0.19216867
0.078921214 -0.41510668 -0.56606376 -1.9653035 -0.8131956 -1.0237812 0.41342738 0.32863238
-1.2589873 -1.5408767 -1.7794759 -1.7330832 2.2626464 1.7802871 -0.6777022 -0.16557859
-0.36434945 -1.854317 -0.114174046 1.4429601 1.7574928 2.301994 -2.68219 -4.563578
-7.697723 0.75691396 0.032719 0.27401593 -1.4161624 -0.72652924 0.14967273 -0.20274186
1.7323908 0.93796575 3.051234 -0.80335337 -0.8492598 -0.36588874 7.7468824 6.4273524
5.3290567 0.10939306 -0.4930887 -0.51749223 1.4000176 -0.43447858 -0.2849936 -0.4742379
00000000: 57ea 893e 7265 883f 6ed7 e33e 170f ca3e
00000010: 8c72 053f c280 893f 5495 f4bf dbad 4fbf
00000020: cc16 12bf 197e b7bf 0a0c a4bf af2a 81bf
00000030: d1a4 ffbe c58b 1bc0 9cac acbe 8432 2f3e
00000040: 4147 9ebe 4487 853e 000a a1be 2c66 da3d
00000050: 8d72 d1be 556d a33e 5b35 a2c0 917e 0ac1
00000060: 863f 27c1 50a7 a0be a36a fa3d d927 fb3e
00000070: 4164 acbe 4953 12c0 c0df a83e f05d f63d
00000080: f894 023f 35bc 4b3f 7fba 07bf a96b a5bf
00000090: 15cf 143f 274d 40bd 5d55 a83f 0b15 6240
000000a0: 3cb1 8a40 7ab8 f33e 7244 f6be 6e61 3dbf
000000b0: 02a9 eb3c a0d7 333c 0467 2e3e 56bc e5bc
000000c0: 6083 2bc0 5e2a afbf 584f dabf d686 293f
000000d0: 66f5 203f f30e 1bbe 1899 93c0 bf61 a2c0
000000e0: 114b 8fc0 bbb2 32c0 08f2 0cc0 4a2e e5bf
000000f0: 5a44 a6bf 2bdd a3bf 0f64 0dbf e013 f83e
00000100: 0782 c63c d11b 3b3f 00e1 41bf 4caf 54be
00000110: aae2 a53e 7b59 bebd 92b0 ac3f 4d18 9340
00000120: 304e cb40 3c5a 983e f7f3 eb3e 5353 dc3e
00000130: 05b0 823f b4fd 2bbf 788a 013f 4a5a 0abf
00000140: d4e7 933f 2da4 203e 917e 303f 786e 273f
00000150: 8074 6c3d efd3 253e 4253 cbc0 b1d8 d0c0
00000160: 903b cbc0 5f33 50bf 3dc4 15be 269b 0c3e
00000170: 4ccb 1f3e 5bee 1c40 6261 d23c dc7f 233e
00000180: d6cb 1bc0 efbd b63e c04b 823e 8ce7 0a3f
00000190: d6ac f9be 3e53 063f 8860 e93e 92fd 45c0
000001a0: da75 9bc0 c521 dd3d 53cd 883d 9183 d4bc
000001b0: 92fa 1340 bc4b 9ebf 5907 7e3e ca18 8bbe
000001c0: 2591 c1bf 7194 29bf 273e 623e 689c a2bf
000001d0: 934c efbf 68e5 13c0 5f9d eabd c0e5 08c0
000001e0: 28be 9bbf 15fe 50bc 3fda bbba bb87 0a3e
000001f0: 914c 0c40 b533 28bf 9b5a 93bd ac8c 85be
00000200: 918d bb3f e20f abbe b609 80bf e123 733f
00000210: dc26 f9be 9415 0cbf 457d 90bf e0f0 ac3f
00000220: 8dc8 8140 cb53 9dbe 8c6e 1d3e 1658 703e
00000230: e343 453f e085 d8bb abb5 1c3e 70d5 ff3c
00000240: 9685 4f3f 2182 0e3f ac97 af3f e0c2 bfbe
00000250: 1610 64bf d266 6dbf b71d 2d3e 5f98 903e
00000260: 19da 1f3f 97fa a33f 3e0a eb3f e957 ed3f
00000270: c156 3d3e 39b7 523e a172 1f3f 5abc a93e
00000280: 34e8 083f 455a 4a3f 8eaa 88bf 941b 813f
00000290: 4ad7 34bf 8cc5 e5be c68a dfbe ad91 683f
000002a0: 735a 4f40 5a9d 193c a93b 7b3f 6aed 273f
000002b0: 7c10 92bf 2c82 b83d a752 0cbe e390 8e3e
000002c0: d598 a9bf d42a 82bf f427 b83c d356 9e3f
000002d0: b341 0b3f 0cd5 793e 3699 2b3f 8980 28c0
000002e0: 1aeb 9dc0 a360 abbf 8b26 c7bf 41a2 9cbf
000002f0: 55f7 1d40 541f 1e40 4264 efbe a4da 623d
00000300: 3d95 cebf 5d4c debd 01c8 c23e caf0 98bf
00000310: 717e b73e 1c21 1e3e fa26 d640 213c af40
00000320: e573 7c40 38d9 323f a0fe cbbe aaaa 7ebf
00000330: 4db1 40bf bed4 8b3f 8804 80be ddc7 44be
00000340: 72a1 a13d dd88 d4be 8ee9 10bf 118f fbbf
00000350: 962d 50bf 430b 83bf c1ac d33e 8142 a83e
00000360: 7f26 a1bf 733b c5bf dec5 e3bf acd5 ddbf
00000370: 33cf 1040 73e0 e33f e47d 2dbf 6f8d 29be
00000380: 038c babe 425a edbf 15d4 e9bd ebb2 b83f
00000390: 86f5 e03f df53 1340 00a9 2bc0 d508 92c0
000003a0: bf53 f6c0 1dc5 413f 5c04 063d d14b 8c3e
000003b0: cf44 b5bf d2fd 39bf cf43 193e 909b 4fbe
000003c0: fbbe dd3f 861e 703f 6b47 4340 91a8 4dbf
000003d0: 1769 59bf c555 bbbe 76e6 f740 dfac cd40
000003e0: a287 aa40 7809 e03d 1f76 fcbe 5f7a 04bf
000003f0: c733 b33f fa73 debe aeea 91be 4fcf f2be

critic.0.bias f4 [64]
-0.96935284 1.489458 -1.0896187 -1.6213012 -0.86434054 0.7713506 0.4014335 -0.2964763
-0.6425046 1.8617184 -0.06272896 -0.4124764 -1.3007206 -1.2046473 1.6209979 -1.1692724
-0.5360686 -0.79274815 0.2240229 1.6354978 -0.5290522 -1.0389255 -1.1503874 -0.059913334
0.5140561 0.32624897 0.07732737 -0.22142428 0.45722276 1.5837843 -0.49391916 1.1271343
0.69428277 1.0540318 -1.3419688 -0.42839855 -0.107747205 0.0067126914 0.6618059 -0.8969271
-1.0843545 0.45787108 0.6135863 0.7956512 0.46240237 0.7231267 -0.69610137 0.0123682
0.18279296 0.53259987 1.0619541 1.6287594 0.83795816 -0.6018693 -0.58986074 1.0337453
0.6748223 1.5817467 -0.3375714 0.06549579 1.2306622 -0.6503247 -0.774987 -0.5846964
00000000: 8227 78bf 8fa6 be3f a078 8bbf cc86 cfbf
00000010: 6c45 5dbf 3c77 453f b188 cd3e becb 97be
00000020: 2e7b 24bf ca4c ee3f 0a78 80bd 1b30 d3be
00000030: 037e a6bf e231 9abf dc7c cf3f b8aa 95bf
00000040: cb3b 09bf 8bf1 4abf 4266 653e fe57 d13f
00000050: f76f 07bf 83fb 84bf e53f 93bf af67 75bd
00000060: 2e99 033f 1b0a a73e d05d 9e3d 0cbd 62be
00000070: 1a19 ea3e 72b9 ca3f f9e2 fcbe f045 903f
00000080: 84bc 313f 84ea 863f a2c5 abbf 0e57 dbbe
00000090: 91aa dcbd 23f6 db3b 1d6c 293f 049d 65bf
000000a0: 21cc 8abf 146e ea3e fe13 1d3f ccaf 4b3f
000000b0: 01c0 ec3e d51e 393f b333 32bf fea3 4a3c
000000c0: 142e 3b3e 7758 083f 1dee 873f 307b d03f
000000d0: 6d84 563f 1b14 1abf 1d01 17bf c451 843f
000000e0: 27c1 2c3f ad76 ca3f 29d6 acbe a822 863d
000000f0: 5786 9d3f ae7b 26bf 8c65 46bf aaae 15bf

critic.2.weight f4 [64, 64]
0.04695833 -0.40261325 -0.20824152 0.00490009 1.0819823 -1.2602099 0.5365282 0.665775
1.6518883 0.23782967 1.0067531 0.869727 0.3454635 -0.14038466 1.0287553 0.2975696
-0.2148023 -0.95861167 -0.7906938 0.014365985 -0.18848759 -0.35360837 -0.17612088 1.2113241
-0.5057565 0.36370775 -0.30564272 0.11455313 -1.5715818 1.2846704 -0.44644612 -0.7026926
0.05634153 0.7627241 0.06618438 -0.88710994 -0.82882506 -0.43563733 0.77485543 -0.17169772
0.0050179977 -0.9599487 -0.43508187 0.28251347 0.463397 1.5325017 0.594477 0.09370786
0.6853163 1.6284654 0.20361549 1.8589513 0.5078584 -0.29593843 0.47218552 -0.06196938
-0.4881265 0.02330366 -0.8404082 2.073472 -0.9535615 0.09497167 0.055523947 -0.7088177
-1.1921858 0.72237957 0.5540436 -0.62743145 0.22460884 0.7807689 -0.61212534 0.033565983
1.3292086 1.2825999 0.97997415 -0.9315465 -0.5586174 -0.66904753 -1.4590014 -0.26241782
-0.42765146 -0.2696126 0.55742705 -0.22859372 0.07379641 -0.8349409 -0.2778736 1.5956217
0.17881447 0.04419406 -0.276512 0.09327041 0.6726651 0.24680854 0.67692095 -0.015579693
0.5930971 -0.42537114 -1.2996424 -0.29411313 -0.4084788 -0.5558505 0.060239162 0.7140046
-0.71544254 -0.7365878 -0.26737785 0.6752668 -0.8214734 0.85337013 0.12367657 -1.4515584
-0.87464976 -0.07216132 1.1675762 2.296411 0.8680839 -0.41144127 0.026125902 0.9038534
-0.04701627 -0.48762205 -0.88792217 0.7944497 0.4849133 1.2148077 -0.096730016 -0.9501453
0.37582296 1.8500143 0.009538576 -0.424368 0.024660865 0.3790845 0.5334614 2.7062187
0.24920154 0.07575871 1.6073588 -0.26476178 -0.025206376 -1.1506478 0.6564853 0.8787851
-0.59211856 -0.379485 0.43634027 0.32527086 0.60302883 -0.5446233 0.1621136 0.9850548
-0.7440679 -0.31273353 -0.18424654 0.34278458 0.7577365 1.4100468 0.15145881 0.65208495
0.3096679 -0.34593052 -0.28031477 -0.4972252 -0.8248379 -0.9423309 0.841603 -0.32159784
-0.90971655 0.46062168 -0.9751983 1.2204331 0.3471774 1.3878245 -0.33507583 -0.27245694
0.85471255 1.0428841 0.18096 -0.21921319 0.838312 -0.06274586 -0.5168899 -0.042509116
-0.2243252 -1.0373076 0.30195105 0.7834134 0.7886366 0.8752151 -0.69508344 -1.5602571
-0.04795273 -0.4308682 1.5569693 -0.10164457 -1.0553603 -0.095134005 -0.2834604 -0.7219875
-0.22683263 -0.297602 -1.928158 1.1977912 0.36702457 0.022614155 -0.25951496 -1.2894101
0.099237874 1.1405851 0.09235432 -0.25248367 -0.69651467 -0.8841491 1.7731522 -3.02383
0.52548236 -0.23335502 0.7743321 -1.2687815 -0.029145254 -0.12868571 -1.0153235 0.06490051
0.6296611 -0.45976067 0.13310772 -0.7763451 0.45975792 0.7306403 -0.67323446 0.40401125
0.32383838 0.65526736 -0.56193835 -1.2960138 -0.5824104 1.3496426 -0.23335099 0.015298893
0.7235679 -1.9494002 -0.72099215 -0.35544372 -1.1911618 0.6129343 -0.102296926 0.4976276
-1.0172323 -0.034114785 0.0125443 -2.5878985 -0.262973 -2.1029449 -0.59205395 1.1209497
00000000: 6157 403d 5323 cebe 443d 55be ef90 a03b
00000010: 657e 8a3f 8f4e a1bf ea59 093f 3b70 2a3f
00000020: 1371 d33f 9f89 733e 49dd 803f 6ea6 5e3f
00000030: 98e0 b03e ffc0 0fbe 41ae 833f 0b5b 983e
00000040: 22f5 5bbe 9367 75bf e96a 4abf 4f5f 6b3c
00000050: e402 41be 280c b5be 0859 34be ab0c 9b3f
00000060: 4279 01bf e737 ba3e 347d 9cbe d59a ea3d
00000070: 9829 c9bf 1470 a43f 9694 e4be aae3 33bf
00000080: 60c6 663d e341 433f ad8b 873d a319 63bf
00000090: e12d 54bf db0b dfbe ed5c 463f 87d1 2fbe
000000a0: 046e a43b 33bf 75bf 0dc3 debe 9ba5 903e
000000b0: 5f42 ed3e 0429 c43f a52f 183f e8e9 bf3d
000000c0: e470 2f3f 8e71 d03f 9480 503e 1ef2 ed3f
000000d0: 0203 023f 3e85 97be 4dc2 f13e 9bd3 7dbd
000000e0: b7eb f9be 51e7 be3c fe24 57bf c4b3 0440
000000f0: 9b1c 74bf 8280 c23d 146d 633d 1475 35bf
00000100: 8b99 98bf deed 383f cdd5 0d3f 599f 20bf
00000110: dcff 653e 78e0 473f 3fb4 1cbf 7c7c 093d
00000120: 8223 aa3f 3c2c a43f 96df 7a3f d579 6ebf
00000130: 8d01 0fbf b346 2bbf 8fc0 babf a15b 86be
00000140: 22f5 dabe aa0a 8abe 8ab3 0e3f 7914 6abe
00000150: 9222 973d b0be 55bf 7345 8ebe 553d cc3f
00000160: 241b 373e d504 353d fb92 8dbe 8f04 bf3d
00000170: c833 2c3f 61bb 7c3e b14a 2d3f f841 7fbc
00000180: 36d5 173f 3fca d9be af5a a6bf ff95 96be
00000190: 2224 d1be 384c 0ebf 57bd 763d 01c9 363f
000001a0: 3e27 37bf 0591 3cbf c0e5 88be 49de 2c3f
000001b0: 154c 52bf 7776 5a3f 244a fd3d aacc b9bf
000001c0: 0ce9 5fbf 50c9 93bd 2373 953f 66f8 1240
000001d0: bf3a 5e3f 6ea8 d2be fd05 d63c f062 673f
000001e0: 2294 40bd 99a9 f9be de4e 63bf 0e61 4b3f
000001f0: 8e46 f83e d27e 9b3f 631a c6bd b93c 73bf
00000200: de6b c03e 45cd ec3f b047 1c3c c346 d9be
00000210: 9505 ca3c 5d17 c23e ed90 083f b032 2d40
00000220: b02e 7f3e 6227 9b3d efbd cd3f db8e 87be
00000230: 9a7d cebc 6d48 93bf 6c0f 283f 0ff8 603f
00000240: 1595 17bf dc4b c2be fe67 df3e e789 a63e
00000250: 1960 1a3f 6f6c 0bbf 1c01 263e 8d2c 7c3f
00000260: 3c7b 3ebf 9c1e a0be 20ab 3cbe 7681 af3e
00000270: 05fb 413f 6a7c b43f 0518 1b3e 0aef 263f
00000280: ca8c 9e3e ce1d b1be 6b85 8fbe 4d94 febe
00000290: 9428 53bf 993c 71bf 4b73 573f 79a8 a4be
000002a0: 2fe3 68bf 9bd6 eb3e 99a6 79bf 2737 9c3f
000002b0: 3cc1 b13e 3ca4 b13f 0f8f abbe 7a7f 8bbe
000002c0: 71ce 5a3f 3a7d 853f 944d 393e 6c79 60be
000002d0: 9d9b 563f e780 80bd e652 04bf 0a1e 2ebd
000002e0: 81b5 65be 7fc6 84bf 5499 9a3e c88d 483f
000002f0: 17e4 493f 190e 603f fdf0 31bf 81b6 c7bf
00000300: 156a 44bd c29a dcbe c54a c73f 072b d0bd
00000310: 0c16 87bf 9ed5 c2bd b921 91be 2cd4 38bf
00000320: d046 68be 4a5f 98be e2cd f6bf 3951 993f
00000330: a5ea bb3e 5241 b93c 25df 84be 640b a5bf
00000340: 3a3d cb3d b1fe 913f 4324 bd3d 8a45 81be
00000350: c94e 32bf 9857 62bf a7f6 e23f 6e86 41c0
00000360: 0386 063f 9ef4 6ebe a13a 463f 6f67 a2bf
00000370: 07c2 eebc 30c6 03be 1ff6 81bf 8fea 843d
00000380: 7831 213f c065 ebbe 644d 083e 8dbe 46bf
00000390: 6465 eb3e 3e0b 3b3f 1859 2cbf 90da ce3e
000003a0: 25ce a53e 9abf 273f 31db 0fbf c8e3 a5bf
000003b0: d918 15bf 17c1 ac3f 90f3 6ebe 35a8 7a3c
000003c0: bf3b 393f f285 f9bf f192 38bf b8fc b5be
000003d0: fd77 98bf 43e9 1c3f 0d81 d1bd 0bc9 fe3e
000003e0: ab34 82bf f2bb 0bbd 9c86 4d3c 21a0 25c0
000003f0: 66a4 86be a696 06c0 d990 17bf 487b 8f3f

critic.2.bias f4 [64]
-0.05315255 -0.17915536 0.14662097 -0.03964782 0.7708815 -0.9895863 0.01812563 0.62956417
0.9494794 -0.07046056 0.6921073 0.25090522 -0.46791646 -0.057199392 0.26391092 0.23331687
-0.54781485 0.00567817 0.41363564 -0.47982046 0.7481015 -0.5655477 -0.33990288 -0.4550359
0.12379674 -0.47500753 -0.34882957 -0.23595054 0.19858152 -0.023768509 0.041494068 0.06379779
0.20049186 -0.17315648 0.38704982 -0.5060701 0.15877526 0.44395077 0.4200286 0.78721607
-0.13202876 -0.39383474 0.39389968 -0.1535913 -0.1979036 -0.42618993 -0.48232684 0.4682753
0.03617263 0.36634997 0.37990585 -0.22157913 0.24237837 -0.7966756 0.22579187 0.116364494
-0.7440687 0.45638773 -0.61364007 -0.056627654 -0.72461504 0.25104633 0.9139322 -0.3810994
00000000: 7db6 59bd 8174 37be cf23 163e c165 22bd
00000010: 7d58 453f 8755 7dbf 347c 943c 1e2b 213f
00000020: 1511 733f a04d 90bd f22d 313f a676 803e
00000030: bf92 efbe e949 6abd 551f 873e 9eea 6e3e
00000040: 983d 0cbf f10f ba3b 0dc8 d33e 07ab f5be
00000050: 9483 3f3f bcc7 10bf c007 aebe 77fa e8be
00000060: 2589 fd3d 3034 f3be ca99 b2be 059d 71be
00000070: f458 4b3e 2db6 c2bc aff5 293d 6aa8 823d
00000080: bd4d 4d3e ef4f 31be 652b c63e cf8d 01bf
00000090: fb95 223e 844d e33e fd0d d73e fe86 493f
000000a0: 8c32 07be b5a4 c9be 38ad c93e 0a47 1dbe
000000b0: 3ea7 4abe 9135 dabe 8bf3 f6be c8c1 ef3e
000000c0: c029 143d 3992 bb3e 0583 c23e a4e5 62be
000000d0: 0932 783e eff2 4bbf fc35 673e 8250 ee3d
000000e0: 497b 3ebf a7ab e93e 8417 1dbf 66f2 67bd
000000f0: 5f80 39bf 2589 803e 76f7 693f 761f c3be

critic.4.weight f4 [1, 64]
-0.43187347 0.4353855 -0.538553 -0.31293717 -0.44564077 -0.4195291 0.37835944 0.45267385
-0.3708793 -0.42750347 0.5415811 0.45704097 -0.4804406 0.37008014 0.44571963 -0.5076855
-0.5049161 -0.30905065 0.43199483 0.41296253 -0.365158 0.48898858 0.45494488 -0.37377244
0.5018384 -0.5290989 0.34916377 0.36590737 -0.5838114 0.5274042 -0.60169095 0.48544413
0.51013166 -0.42452392 0.65085524 -0.29378545 -0.32551363 -0.5392 0.4674117 0.6553349
-0.43135202 -0.21218328 -0.34845138 0.3649674 -0.46256295 0.37757677 0.4166687 -0.30979994
0.3933672 -0.48570094 0.23403254 0.32899794 0.41219324 -0.345239 -0.53739196 -0.5223497
0.30991712 0.48336992 0.68560195 0.439475 -0.46589255 0.3232756 0.37550962 0.3627498
00000000: 851e ddbe d9ea de3e 9cde 09bf 4d39 a0be
00000010: 072b e4be 85cc d6be 54b8 c13e dec4 e73e
00000020: e4e3 bdbe bce1 dabe 0fa5 0a3f 4601 ea3e
00000030: 4ffc f5be 257b bd3e 5d35 e43e adf7 01bf
00000040: 2e42 01bf e33b 9ebe 6d2e dd3e d36f d33e
00000050: fdf5 babe b65c fa3e 89ee e83e 1a5f bfbe
00000060: 7b78 003f 0773 07bf 98c5 b23e 3658 bb3e
00000070: aa74 15bf f603 073f 6b08 1abf 228c f83e
00000080: fd97 023f 335b d9be 739e 263f 0c6b 96be
00000090: b9a9 a6be 0309 0abf 9650 ef3e 07c4 273f
000000a0: 2cda dcbe 9346 59be 3868 b2be 02dd ba3e
000000b0: 0dd5 ecbe be51 c13e 9a55 d53e 199e 9ebe
000000c0: 6d67 c93e cbad f8be 3aa6 6f3e 6b72 a83e
000000d0: fe0a d33e 2bc3 b0be 8592 09bf b6b8 05bf
000000e0: 75ad 9e3e 437c f73e 9c83 2f3f de02 e13e
000000f0: 7889 eebe 6184 a53e cc42 c03e 57ba b93e
