Model Results/ppoTSLA2019-12-011999.pth (torch, 48325 bytes, 11 tensors)

actor.0.weight f4 [64, 16]
00000000: 4fdb 4abf 48be 3fbd a48e 0f3e b75c 9a3e
00000010: 9e7d 14be 3114 45be 4d7a 2240 ac17 e53f
00000020: 996d 1d3f 0ad8 f63e a27f f53d 8368 ea3d
00000030: 329c 183f f4cf c4bf 0897 e33e e913 54be
00000040: f5ca 763f 956e e03f 77a4 4d40 dfec ccbe
00000050: 19cd 84bf 2d27 eabe 8bdc 37c0 2b3e 4dc0
00000060: 8627 55c0 a361 083d aee4 423c 54a5 fc3d
00000070: 6604 a63d 2882 94bf bc7f b13f e6f0 853e
00000080: 03b0 713f 7ed5 79bd 36aa b4bf 23c4 393d
00000090: b608 abbd 96bf 1dbe a78b 9b3f 5651 9b3f
000000a0: ebd7 833f 0823 fd3e 8c9d 743e c661 483d
000000b0: cdc8 99bf 9716 77bf fa00 fa3c 6a70 a23e
000000c0: 6733 3dc0 fe51 61c0 d88a 44c0 08c4 253f
000000d0: 0cdd b03e 795c a53e 5382 93bc f252 e2be
000000e0: dd00 58bf 3dcf 273e 22bc 213f 1338 d33e
000000f0: 1c63 ebbe ae01 88be a137 133f 3a9c 5a3e
00000100: e96e 7c3f 7662 30be e060 f63d 28ee 193f
00000110: fa4d cf3e c105 633e 1f12 27c0 4918 1ec0
00000120: 1f7d 0cc0 08d3 1ebf 2325 95be ecbf 06bd
00000130: 07a7 c4be 890d 48be 952e 9dbd 15a9 8a3d
00000140: 550c bebe 1ad3 a93e cf72 8ebf 760a 293f
00000150: af78 173f 4c7c 933d 9946 4c3f f787 253f
00000160: 1a2b 5d3e f330 1d3f 4eab db3e 8beb e33e
00000170: 53f9 25bf 8d09 bd3e ae9a 363e a266 14bf
00000180: 3442 cc3f 291a 5fbe e088 483d 5cef 19bf
00000190: 1ecb 9b3e 0f16 c53e 50da 4fbd d019 d23e
000001a0: ba01 533f 3af4 113f 2295 e83e 7466 d33e
000001b0: 8787 10bf b250 b4bf 3829 babe 28bb 3d3e
000001c0: 16b6 a83f 49de 39bf 2e91 f5be 5484 063f
000001d0: 327b 913e 799e 92bd 51d2 90c0 8871 8fc0
000001e0: 116a 6fc0 d3f6 14bf 78f0 15be e103 f0be
000001f0: b09d 31bf 92df 583f ff6c 763c 889a c1be
00000200: b2bb 633f cde8 55be 1e0d a6bf 9481 213f
00000210: 758d 733f df05 fc3e 3ec2 b940 a81e fe40
00000220: d7e5 0741 acc7 8e3f 0ba5 603f 8ca5 dd3e
00000230: 1a39 773f ed14 ef3e 25eb eebd da16 85bc
00000240: 6c64 cdbf 7de1 34bf 339f 26be 05f5 f4be
00000250: 7978 4bbe 1d66 aebe 614e 1b40 2730 d93f
00000260: 5ddc 0b40 3d57 df3e 4ab6 403f 7e10 823f
00000270: 7537 4c3f c619 103e a720 78be 9e51 713e
00000280: 961c cbbf 5d55 4fbf 2eab a0bf 5e01 123f
00000290: 3d2f fe3d 15a0 c73e e72f 80be bc3a 0dbf
000002a0: d509 88bf dd1e 23bf 3c3a aebe 3bea 67be
000002b0: cc73 efbd bf45 09bf 2b06 e43e 7270 243d
000002c0: a79d d73f 7d23 86bf 23dc be3c e358 c6be
000002d0: 3a61 883d c62f 59bc 8c4a bd3d 306b 0d3f
000002e0: 3dbe 3e3f 87f0 593e fab5 d73e 2735 eb3e
000002f0: 3dc2 51be e951 eabf df93 833d c77c 033e
00000300: a221 b63f 6d69 c8be e38b 2e3e 35f4 ecbd
00000310: 884a 66be 8501 15bf 4dd5 bd3f b281 c63f
00000320: 552a 0240 76b5 cfbd 26e4 a0be d0c7 29be
00000330: 5439 b03f 1425 6c3f 30b9 48be f630 edbe
00000340: b7d5 a5bf cd64 633e bb14 2d3f 9149 ed3e
00000350: 3b3f 6bbe 2e27 d6be 5ec4 153f 5b62 5bbc
00000360: 6192 26bf a653 adbe 763a 0fbf 19a4 ccbe
00000370: 4b30 a43c 3962 a03f 806f a3be 7364 e53e
00000380: 4285 743f 9682 843d c192 37bf 486c 2fbf
00000390: c3fe a93e e828 073f 9d07 49bf 72fb 2d3f
000003a0: e45f 683f 1493 023f b476 243f f13e d13e
000003b0: 77fa 41bf c631 46bf 0f58 e3be 70f5 6d3d
000003c0: 85cf 403f 0c57 26bf 81a0 9abe 87ad 72c0
000003d0: 0e36 26c0 ee70 3bc0 198f 55c0 bc21 e4bf
000003e0: fac3 72bf b7ff b83c a901 e53e 84a0 953e
000003f0: b762 84bf ee2f b5bf 4e3b f4bb f21f c93c
-0.7924089 -0.046812326 0.14019257 0.3014886 -0.14501044 -0.19245984 2.5387146 1.7897849
0.6149536 0.482117 0.11987235 0.11445715 0.59613335 -1.5375962 0.44451165 -0.2071072
0.9640344 1.7533747 3.2131631 -0.40024468 -1.0375091 -0.45733014 -2.8728359 -3.2069194
-3.3305373 0.03329624 0.011895342 0.12336221 0.08106308 -1.160222 1.3867106 0.26160353
0.944092 -0.060994618 -1.4114444 0.045353066 -0.08351271 -0.15405115 1.2151994 1.2134197
1.0300268 0.4944079 0.23888224 0.04892137 -1.2014405 -0.96518844 0.030518044 0.3172639
-2.9562624 -3.5206294 -3.0709743 0.64752245 0.34543645 0.32297114 -0.01800648 -0.44203907
-0.8437632 0.16387649 0.6317769 0.4125372 -0.45974052 -0.26563781 0.5750676 0.21348658
0.98606735 -0.1722506 0.12030196 0.6012902 0.4048918 0.22170164 -2.610481 -2.4702322
-2.1951368 -0.6204076 -0.29129896 -0.032897875 -0.38408682 -0.19536413 -0.076749004 0.06770531
-0.37118784 0.3316887 -1.1128787 0.6603159 0.59168524 0.07201442 0.79795223 0.6466059
0.21598473 0.61402816 0.42904133 0.44515643 -0.64833564 0.3692135 0.17832443 -0.57969105
1.5957704 -0.21787323 0.04895866 -0.6013086 0.30428404 0.38493392 -0.05074531 0.41035318
0.8242451 0.57013285 0.4542628 0.41289103 -0.564568 -1.4087126 -0.36359572 0.18528426
1.3180568 -0.72604805 -0.47962326 0.52545667 0.28414303 -0.071591325 -4.5256734 -4.482609
-3.7408488 -0.58189124 -0.14642513 -0.4687796 -0.6938124 0.8471614 0.015040635 -0.3781321
0.88958275 -0.20889588 -1.2972753 0.63088346 0.9513772 0.4922323 5.804961 7.941242
8.493613 1.1154685 0.87751836 0.43290365 0.96571505 0.46695653 -0.11665944 -0.016246248
-1.6046271 -0.7065657 -0.16271667 -0.47843185 -0.19870175 -0.3406228 2.4266589 1.696782
2.185325 0.43621245 0.7527815 1.0161283 0.7977212 0.14072332 -0.24231206 0.2356629
-1.5868099 -0.8098963 -1.255224 0.57033336 0.12411354 0.3898932 -0.25036547 -0.55167747
-1.0628 -0.6371897 -0.34028804 -0.22647946 -0.116920084 -0.5362205 0.44535956 0.0401463
1.6844987 -1.047958 0.023298329 -0.3873969 0.066591695 -0.013256019 0.09242734 0.5524168
0.7450903 0.2128316 0.42131025 0.4593899 -0.20484252 -1.8306247 0.064246885 0.12840568
1.4229014 -0.39142933 0.1704555 -0.11570016 -0.22489369 -0.58205444 1.4830719 1.550833
2.0338337 -0.10142033 -0.31424063 -0.16580129 1.3767495 0.92244077 -0.19601893 -0.46326417
-1.2955846 0.22206421 0.6760976 0.4634519 -0.2297334 -0.41826767 0.5850276 -0.013390149
-0.65067106 -0.3385288 -0.5594858 -0.39968947 0.02004256 1.2529975 -0.31921005 0.448032
0.95515835 0.0647022 -0.71708304 -0.685246 0.3320218 0.52796793 -0.7852724 0.679618
0.9077132 0.51005673 0.64243627 0.40868333 -0.75772804 -0.774197 -0.4440312 0.058095396
0.7531665 -0.64976573 -0.3020058 -3.7918413 -2.5970492 -2.9287677 -3.336859 -1.7822795
-0.94830287 0.022582872 0.4472783 0.29224026 -1.0342625 -1.4155252 -0.0074533587 0.024551366

actor.0.bias f4 [64]
00000000: 7aaa c33e 172e a73f 6218 69bd f5fd 5f3f
00000010: 9d92 ce3c abda 423d bc72 a43e 21b7 d9bc
00000020: c0d7 9fbe 4f80 e53e 744d 153e 0919 8dbd
00000030: 2a5e 36bf aa59 e4be d318 a13e 7b27 0d3f
00000040: 444b 15bf 3bc0 dd3e 1446 e13e 43cb 8e3e
00000050: 4f42 f73e 280f 973e b12e 333f d11d 48be
00000060: 5dcd 3e3f 1e76 803e de96 0a3c 5d71 9f3d
00000070: b3c6 173f d5e6 f93e 2a88 0fbf a3cc b43e
00000080: 216e afbd 5134 b83e 3d82 143f ddff 56bd
00000090: 4b36 aabe 6766 05bd def8 893e 7517 10bd
000000a0: 140d a4be 3b72 093f d3b4 14be b058 1fbf
000000b0: 5ba5 18bf ce99 55bf 928b 4fbf 8cee 34bf
000000c0: 2867 853e d5c1 c03c 3067 603e 6ece 03be
000000d0: 7a23 99be 8571 79bd 86c4 1cbf 03a1 823b
000000e0: bd44 143f 9122 f23c 3981 dc3e 6ca4 9e3e
000000f0: f0ff cf3e bf5f 5abb 7801 233f 3a42 ae3e
0.38216 1.306094 -0.05690802 0.8749688 0.025216395 0.04757182 0.32118785 -0.02657658
-0.31219292 0.44824454 0.14580327 -0.06889541 -0.7123743 -0.44599658 0.31464252 0.5513837
-0.5831797 0.43310723 0.43998778 0.2788945 0.48292777 0.2950375 0.6999312 -0.19542624
0.7453211 0.25090116 0.008458821 0.07785294 0.59287566 0.48808923 -0.56067145 0.35312375
-0.08565927 0.35977414 0.5801123 -0.052490104 -0.33244547 -0.03256836 0.26947683 -0.03517862
-0.32041228 0.53689927 -0.14522104 -0.622447 -0.5962731 -0.8343781 -0.8107234 -0.70676494
0.26055264 0.023529926 0.21914363 -0.12871715 -0.2990988 -0.060899276 -0.6123737 0.0039864792
0.57917386 0.029557498 0.4306734 0.3098482 0.40624952 -0.003332123 0.63674116 0.34034902

actor.2.weight f4 [64, 64]
00000000: f039 3e3f 87dc 543f 4570 1840 c64e 403f
00000010: a473 973d bd37 b73d f240 f13f 12a3 623f
00000020: 791e 933f bd08 0c3f 6f64 1ebf e354 c93f
00000030: 3ca2 a0be 98c5 b6bf 11b5 833f a429 c73e
00000040: 1b04 9fbe cdf1 0c3f a541 0ebe 70ae 76be
00000050: 11d0 893e 5fdf f4bd e9d3 aabd 0028 023f
00000060: 2747 19be 1744 093f 2b0b 4bbf 8cb1 373f
00000070: 9cbd 3f3e 5e67 c03f 844d 3cbf 52f5 123d
00000080: d31e 9f3e d5af 8a3e 14a5 f9be 796c 5fbf
00000090: 8e2b b9bd 1042 f53e 17cc f73d 93ac d4be
000000a0: 0146 53be b473 1f3f 6f07 be3e 1303 4f3e
000000b0: e5cc 60be e997 07bf 6dc8 54bf 1805 15bf
000000c0: 91bc c33f 72a8 283f 151d 9dbf c688 31be
000000d0: 7507 90be b1cb 22bf f27b d83e a169 563f
000000e0: 4ddd a83f 7d0a 443d 90f9 ab3d 70ff 6f3f
000000f0: 7186 d33f fe09 dabe b176 9abe 4f66 36be
00000100: b251 89be b201 923f 8291 5dbf ef16 d83d
00000110: c331 48be dcf9 7cbf 8e64 2abf d5be b13e
00000120: 30f7 28bf 9e40 dabe e0f3 8abf 957d 3ebf
00000130: ef26 a8bd c000 303f 30e9 11bf f6a6 b63e
00000140: 61ef 0fbf c0b8 c23e ab46 303e c90a 51bf
00000150: 7936 6bbf 272c 95bd b4e1 2bbf 54a2 573e
00000160: da4c c7be dece 45be 148d 8fbf 32f3 123f
00000170: 97b8 33bf 7b70 ccbe a83d 203f c155 433e
00000180: 5636 cabe d545 97bd 2393 ffbe 3e10 0ebf
00000190: cf2f 7dbd c909 423f 3625 e93b 677e 44bf
000001a0: cb9f 4dbe 047c bb3e 5bb9 623e a608 a53e
000001b0: 8310 563c c738 febe a9bc 113f 3008 d4be
000001c0: bdae f5bd b7b5 91be 40dd 7a3f 60b7 68be
000001d0: 7197 213e b272 a73e 0cd8 3b3f 6def 7e3f
000001e0: 1fc7 a93f 93f7 d5be 2169 35bd 42f3 b63e
000001f0: a746 06bf 062d b43e 07ec d8be 4bf4 93be
00000200: 512b 4ebf 35f3 92bf 0a15 ac3f b295 8a3d
00000210: 8965 983f 850b ff3e 74f5 d63f 8e88 003f
00000220: 58c5 943f 7775 73be 446f cfbd 5d58 1d3f
00000230: dd85 d2be 5f32 a4be 9889 c53f 0ab3 a0be
00000240: 4923 25be 6abc cf3d 22ef b83d 2ab4 e83e
00000250: 2d01 853e b5ce 7c3e 74d0 143e a0ff 2b3f
00000260: 0eed a73e d552 5e3f 00d7 84bd d7e0 fcbd
00000270: 7124 1fbe 53bd c73e a321 e4bf 3c95 d1be
00000280: a0f5 babd add1 333f 1379 023f 88fb 473e
00000290: 7cdd d93e 65a1 c6bf d88d 99be 98d6 093e
000002a0: 072d ca3e 9971 2ebf a252 a33e ec62 083d
000002b0: 97c8 afbe 3f8d 323f 25ff b9be 4de7 953f
000002c0: 6a23 523f d9cb 74be 1b98 b7be c97f 8cbf
000002d0: 2e46 3c3e d919 38bf d5e7 0f3e 1e5d 853e
000002e0: c8a8 83be a709 023e 6cf3 a63e fffa 85bd
000002f0: 11c9 a43f 8e8f 573a 1387 b83d 15af 973e
00000300: 0dbb 9b3c 23d3 503f f359 893e 59f8 3bbe
00000310: 7560 e7be 265d 4bbd 60d9 d13e f1ad 51bf
00000320: 28d0 e43e 1bd7 883e b9f8 0cc0 4b87 70be
00000330: 3c2f f6bd e80a 86be 75e9 703f f110 85bd
00000340: 279a a1be d5b3 7b3e b20d 863e a69d 98bf
00000350: 9f49 42bf b265 33be 6520 1dbe d7ab 99be
00000360: 2b6f 223d f55a 5abf 2922 50bf c9dc 4e40
00000370: bd7e 08bf f18a 29bf 2663 0e3b c063 233f
00000380: 2bec 3a3f 1a5c 71bf 59cb c0bf cd7b 5ac0
00000390: 4a58 d9be 7c8f 823f d2c9 353c 150d 11be
000003a0: 8910 83be 66e0 5cbf 9b6a 253f 3539 0c3e
000003b0: 9614 4bbd 7754 b0be ca6f debe 00f9 603c
000003c0: 9154 d73d d772 5abd 3765 533f 0e36 6e3f
000003d0: 98e0 08be 0f8c 293f e007 7b3f c5ac 1e40
000003e0: 86c5 c23f 7392 febe 3215 2dbf 2df7 35bf
000003f0: 770e 473f ac91 4cbf 044c 103e 2bfa 39bf
0.74307156 0.83149 2.3818524 0.751202 0.073951036 0.08946178 1.8847945 0.88530076
1.1493675 0.54700834 -0.61872 1.572903 -0.31373775 -1.4279051 1.0289632 0.38898957
-0.3105782 0.5505646 -0.13892229 -0.2408998 0.26916555 -0.11956667 -0.083412 0.50842285
-0.14968549 0.5361952 -0.79313916 0.7175529 0.18724674 1.5031545 -0.7355578 0.035878487
0.31078205 0.27087274 -0.48758757 -0.8727489 -0.090415105 0.47901964 0.12099474 -0.41537914
-0.20632173 0.62285924 0.37115046 0.20216016 -0.21953161 -0.5296617 -0.83118325 -0.582109
1.5291921 0.6588203 -1.22745 -0.17337331 -0.2813069 -0.6359206 0.42282063 0.83754927
1.3192536 0.047861565 0.0839721 0.9374914 1.6525403 -0.42585748 -0.3016868 -0.17812465
-0.2682014 1.1406767 -0.8655015 0.10551249 -0.19550233 -0.98818755 -0.66559684 0.34715906
-0.6600218 -0.42627424 -1.0855675 -0.7441037 -0.08210551 0.68751144 -0.5699644 0.35674256
-0.5622464 0.38031578 0.17214458 -0.8165708 -0.91879994 -0.07283812 -0.6714127 0.21058017
-0.3892582 -0.19317195 -1.1214929 0.57402337 -0.70203537 -0.39929566 0.6259408 0.19075681
-0.3949458 -0.07386366 -0.49916944 -0.55493534 -0.061813172 0.7579618 0.0071150316 -0.76755375
-0.20080487 0.36618054 0.2214102 0.3223316 0.01306546 -0.49652693 0.569285 -0.41412497
-0.11996219 -0.2845895 0.9799385 -0.22726202 0.15780427 0.32704693 0.73376536 0.99584085
1.3263892 -0.41790447 -0.044289712 0.35732466 -0.52451557 0.351906 -0.42367575 -0.28897318
-0.80534846 -1.1480471 1.3443921 0.06766833 1.1905986 0.49813476 1.6793656 0.50208366
1.1622725 -0.23775278 -0.10128644 0.61462957 -0.41117755 -0.3206968 1.5432615 -0.31386596
-0.16126741 0.10143359 0.09029986 0.45449954 0.2597746 0.24688227 0.14532644 0.6718693
0.32798046 0.8684514 -0.064863205 -0.12347572 -0.15541245 0.3901163 -1.7822765 -0.4093417
-0.091288805 0.70241815 0.50965995 0.19529545 0.42551792 -1.5518004 -0.2999103 0.13460767
0.39487478 -0.68142086 0.3189898 0.033297464 -0.34332725 0.69746774 -0.36327472 1.1711212
0.8208529 -0.23905887 -0.35858235 -1.0976497 0.18386146 -0.7191444 0.1405328 0.26047605
-0.25714707 0.12698995 0.3260759 -0.06542014 1.2873861 0.00082229904 0.09010138 0.29625764
0.019010091 0.8157217 0.26826438 -0.18356456 -0.45190778 -0.04964938 0.40986156 -0.8190604
0.4469006 0.26726612 -2.2026808 -0.2348911 -0.12020728 -0.26180196 0.9410623 -0.06497372
-0.3156292 0.24580319 0.26182324 -1.192311 -0.75893587 -0.17519262 -0.15344389 -0.30013916
0.0396568 -0.8529504 -0.81302124 3.2322257 -0.5331839 -0.6622763 0.0021726578 0.6382408
0.73016614 -0.9428116 -1.5062057 -3.4138062 -0.42450172 1.0200038 0.011095481 -0.14165147
-0.25598553 -0.86279905 0.6461579 0.13693698 -0.04958018 -0.34439442 -0.43444663 0.013731241
0.10514177 -0.053332176 0.82576317 0.9305123 -0.13366926 0.6622934 0.9805889 2.479295
1.5216529 -0.49721107 -0.67610466 -0.71080285 0.77756447 -0.7990978 0.14091498 -0.7264735

actor.2.bias f4 [64]
00000000: 52b0 f03d c59c c13d e666 d43e 49cf 013f
00000010: b7ba 773d 7c30 83be 352f e73d 6f27 1cbf
00000020: 372f 453e 960f 76be 2d35 203f 6501 243e
00000030: 839a 713e 6e00 2a3f 85a8 9b3e 7f60 1a3e
00000040: bd31 4d3d 997e bfbe 12ba 873b 32d3 803e
00000050: c3ab fe3e 87f4 94bd 240f ecbd e0f6 8f3e
00000060: 2b53 f6be 0f34 bdbe 228e e6be a7c2 f53e
00000070: 35e5 97be 6c1c adbd 0cdb cdbe 6523 103e
00000080: 0a1e 9fbe 3796 8bbe 113a bcbd e210 1b3f
00000090: f858 9ebe 3a01 553f c3de f93e b48b afbe
000000a0: d93a a7bd 0f65 64bf 8a5a dcbe 3aea 303f
000000b0: eea7 59bf 03c9 00bf c0ae a93e 2fd1 d7be
000000c0: f050 363e d9e0 10bf 67da 78be 52b8 29bd
000000d0: 5360 0d3f 4bb5 26bf 3d58 c23e 60ad 94bc
000000e0: 8bae 6f3d dc18 b43d 6bb0 0fbe 2099 513f
000000f0: 2b9f 9cbd a13c 22be c103 54bd 3ef4 4fbe
0.117523804 0.094537295 0.41484755 0.5070692 0.0604808 -0.25622928 0.11288301 -0.6099767
0.19256292 -0.24029383 0.6258114 0.16016157 0.23594098 0.66406906 0.30402008 0.15075873
0.050096262 -0.37401274 0.0041420544 0.2516113 0.4974042 -0.072732024 -0.11526325 0.28118038
-0.48110327 -0.3695378 -0.45030314 0.4800007 -0.2966706 -0.08452687 -0.40206182 0.14076002
-0.31077605 -0.27263042 -0.09190763 0.60572636 -0.30927253 0.83204997 0.48802766 -0.34286273
-0.08165521 -0.89216703 -0.43037826 0.691074 -0.85021865 -0.5030672 0.33141136 -0.42151782
0.17804313 -0.5659309 -0.24302064 -0.041435547 0.55225104 -0.6512038 0.37957945 -0.018149078
0.058516067 0.08793804 -0.14032142 0.81874275 -0.076475464 -0.1584344 -0.051761393 -0.20308015

actor.4.weight f4 [7, 64]
00000000: df9f cb3f 977d 94bf 4643 353f d6a8 04c0
00000010: 65e7 3e3f 286d 66be 2f74 f0bf a89a 64bf
00000020: 107a c8bf c33a f1bf a621 813f 701e 243f
00000030: 0927 82bf a33c b5bf a4dd 0cc0 40da 863f
00000040: b013 cc3f f8b6 bf3f 12ef cc3f 9d4c 783f
00000050: ea98 abbf 797b 883f 7105 0cbf c5ba c6bf
00000060: 04ac b13f 23e5 da3e b55f 03c0 559e a6bf
00000070: 54d3 cf3f 798b fe3e a108 5dbf a249 493f
00000080: 5711 58bf ff11 8ebf 2536 913f 00b6 ca3f
00000090: 1c0a 2fbf 9157 603f 4738 1dbf 76ea d1bf
000000a0: 34cd bdbf bfaa 0440 86c1 86bf f84e 3640
000000b0: c57a c2bf e57f bdbf 5daa c7be b90b eabf
000000c0: cf5f b73f c8fe 9e3f 1c17 bdbf a649 0ec0
000000d0: e8f7 9abf 5121 07c0 5898 ce3e 5d3f 0140
000000e0: 630a babf 2326 443f b4ae b2bf 8e95 aabe
000000f0: 6616 9bbf 7b1c af3f 4dc5 1240 c231 63bf
00000100: 4348 9a3f 8527 423f 6a75 af3e 40c2 5d3e
00000110: fe51 ba3f 0d05 48bf ef38 d3bf fb37 b33f
00000120: 358c 6c3f 6e6d eb3f 43b3 663f 25d1 9b3e
00000130: 8c63 3b3c 4c28 20bf 8598 a8bf 9cf1 053d
00000140: 3c19 61bf f307 bf3e cdb1 79bf 749f 2a3e
00000150: 5fe8 d5bf 23e9 9b3f 51c6 8dbf 9fd7 59bf
00000160: 9326 59bf 5e3c 7b3f 11e5 a2bd 7018 743f
00000170: 02c7 a23f 18e4 8a3f 0380 7fbf ff5a cc3f
00000180: 1949 5d3f ac80 3440 6ae0 c83f 66d2 0a3f
00000190: 5279 c83f a488 bebf 3517 6ebf 6892 92bf
000001a0: 851f 0440 388e b3be ec5c 04c0 78e7 373e
000001b0: aa29 c53f 79e1 8cbf 05ae 013e c71d a2bf
000001c0: 8239 46bf 6f0b 153f 1b8e c2bf 336e 8d3f
000001d0: 5921 04bf df4d b7bf 612a e4bf 601d 853e
000001e0: 5a4c b33f 400a db3f a04b 9d3e d748 c1bf
000001f0: 9016 96bf 0f34 ae3e 449a 1bbf 9cd0 dfbf
00000200: 5b0a 7b3e 41da bcbe 9936 833f c98c 37bf
00000210: 3d0d ca3d 1929 a0bb 2e0f fbbe a902 03bf
00000220: 0d0d 813c a25a 08be 00f9 a33e 6d8e c53f
00000230: a4a8 5fc0 09a4 43be 9032 143e b5f9 3dbe
00000240: 5bc6 803e 7097 193c a541 5b3e 51f3 c2bc
00000250: fd62 dabf 8408 8f3d 93f5 3ebe ebde 2bbf
00000260: bb7c 1940 8d30 4040 65a7 123f 9227 24bf
00000270: 3801 1540 0ca2 4fbe af50 e2be 6b60 f13f
00000280: f6cc 15bd a926 b4bf ffbb 92be 8b7d 26bf
00000290: bfa0 c3bc 0ed2 9a3f 64e6 213d 6a50 84be
000002a0: a877 a4be 4a28 dc3e b336 c7be f97b 24c0
000002b0: 15e1 443f 38bd 873e 4cc7 5bbf a593 ac3e
000002c0: f2f7 71be fa3e dfbd 92f4 743e f546 353f
000002d0: e9b7 dd3e 387e dd3f 9a80 763e d6aa d0be
000002e0: 0558 2cbe 25d0 f1bd da33 5a3d 3925 623d
000002f0: fd45 b0bf 2461 723f a6fc 0cbe ac35 c4bf
00000300: 0fdf 813c a089 72be 9350 7abe 85d6 603e
00000310: aedd 943e e36d cc3e 7c1b b9be 0920 623d
00000320: b1c9 d13e d3c0 133f 2beb 583f 2584 2abf
00000330: 3841 8fbe b50a 143f ec25 b2bd 6956 42bf
00000340: d0bb 05be 8217 df3e 3151 b73d afce bebf
00000350: 71f9 0f3f 3a78 103d 10bc 9bbc 56be 153f
00000360: 2606 c2be 1d08 193f 5e5c 3fbe 01f5 38bf
00000370: cae8 c8be be32 dd3e 7c78 32bd 90c2 753e
00000380: b368 44bf d168 09bd dd25 073f b370 043e
00000390: 4eb5 89bc 794f 0d3f d244 98be 34e0 f0be
000003a0: 36fa 6dbe 72f1 153e fec9 263e 6184 113f
000003b0: bb90 21be c896 f63e 482e e8be ba65 563d
000003c0: 8fff cbbd 53eb d83e 6c11 b5be 67be 563f
000003d0: 4c75 c23e 0afc 15be 3d8a c43e c8cb 9a3e
000003e0: 5b61 573c bba8 403f e026 9e3f cec3 933e
000003f0: 99fa 97be 2a87 ce3d 81ae f7be 7af5 473e
1.5908164 -1.1600827 0.70805776 -2.072805 0.7457183 -0.22502577 -1.8785456 -0.89298487
-1.566225 -1.8846058 1.0088394 0.64108944 -1.0168163 -1.415913 -2.2010279 1.0535355
1.5943508 1.4977713 1.6010458 0.969919 -1.3406041 1.0662681 -0.546958 -1.5525748
1.388062 0.42752942 -2.0527165 -1.3017069 1.6236367 0.49715784 -0.8634129 0.7862798
-0.8440146 -1.1099242 1.1344649 1.5836792 -0.683748 0.87633616 -0.61414 -1.6399677
-1.4828248 2.0729215 -1.0527809 2.8485699 -1.5193716 -1.4804655 -0.38997164 -1.8284827
1.4326113 1.2421503 -1.4772677 -2.2232451 -1.2106905 -2.1114085 0.40350604 2.0194924
-1.453442 0.7662069 -1.3959565 -0.33317226 -1.211621 1.3680567 2.2932923 -0.887478
1.2053303 0.7584155 0.34269267 0.21656132 1.4556272 -0.78132707 -1.650175 1.4001459
0.9240144 1.839277 0.9011728 0.30433002 0.011437308 -0.6256149 -1.3171545 0.03270112
-0.8792913 0.37310752 -0.9753693 0.16662389 -1.6711539 1.2180523 -1.1076146 -0.85094637
-0.84824485 0.9813899 -0.07953847 0.9534979 1.2716982 1.0850859 -0.99804705 1.596527
0.86439663 2.8203535 1.5693486 0.5422729 1.5662024 -1.488545 -0.9300416 -1.145093
2.0644238 -0.35069442 -2.0681715 0.17959392 1.540334 -1.1006309 0.1266404 -1.2665337
-0.774315 0.5822057 -1.5199617 1.1049255 -0.51613384 -1.4320639 -1.7825433 0.25998974
1.4007676 1.7112503 0.3072176 -1.5100354 -1.1725636 0.34024093 -0.60782266 -1.7485538
0.24515669 -0.36885265 1.0251037 -0.71699196 0.09865806 -0.0048877117 -0.4903502 -0.51175934
0.015753293 -0.13315824 0.3202591 1.543409 -3.494668 -0.19105543 0.14472413 -0.18552287
0.25151333 0.009374484 0.2141176 -0.023797663 -1.7061459 0.06984046 -0.18648367 -0.6713702
2.398238 3.0029633 0.57286674 -0.6412288 2.3281994 -0.2027666 -0.44202182 1.885755
-0.03657242 -1.4074298 -0.28659055 -0.65035313 -0.02388036 1.2095354 0.03952636 -0.258426
-0.3212254 0.42999488 -0.3890892 -2.5700667 0.7690595 0.2651155 -0.8585098 0.33706394
-0.2362974 -0.10900684 0.23921421 0.70811397 0.43304375 1.7304144 0.24072495 -0.40755337
-0.16830452 -0.118072785 0.053272106 0.05521128 -1.3771359 0.94679475 -0.13768253 -1.5328879
0.015853433 -0.23685312 -0.24444799 0.21956833 0.29075378 0.39927587 -0.3615378 0.055206332
0.4097419 0.577161 0.8473384 -0.66607887 -0.27979445 0.5782884 -0.08698639 -0.759131
-0.13059926 0.43572623 0.08951033 -1.4906825 0.5623999 0.035270907 -0.019010574 0.58493555
-0.37895316 0.59778005 -0.18687579 -0.72248846 -0.39240104 0.43202776 -0.043571934 0.24000001
-0.7672226 -0.033547226 0.5279215 0.12933616 -0.016810086 0.5519939 -0.29740006 -0.47046053
-0.23239979 0.14642885 0.16287991 0.5684262 -0.15777867 0.48161912 -0.4534781 0.052343108
-0.09960853 0.42367038 -0.35364854 0.8388428 0.37980115 -0.14646927 0.38386717 0.30233598
0.01314577 0.7525746 1.2355614 0.28860325 -0.29683378 0.10084374 -0.48375323 0.19527236

actor.4.bias f4 [7]
00000000: 853b 0d3f ca55 003e e08b c1bd eca2 5ebd
00000010: e00c a3be 85b0 083f b505 683f
0.55168945 0.12532726 -0.09450507 -0.054354593 -0.3184576 0.5339435 0.9063371

critic.0.weight f4 [64, 16]
00000000: 59a1 28be 188d 38bf cc74 403f ee5d dd3e
00000010: 10e9 af3d 17a2 02bf 143a 8abf 885e b6c0
00000020: 613d dec0 f312 63bf 3884 d8be a75d 91bc
00000030: 8970 873f a289 81bf 78ae 23be 7aeb d93c
00000040: 869d 86be 748e de3e 43eb 91bb 030d 05bf
00000050: 6082 a23e 1388 c03e aca8 fe40 659c 8340
00000060: 624e c2bf 9424 693f 3342 b9be 65dd dcbe
00000070: be73 433e 2164 e53f 38f8 9abe fb3f 433e
00000080: 758c ba3f 6b73 a6bf a40c e2bd e749 603f
00000090: ee12 aebe 3802 1fbf bbd8 1e40 95e8 a03f
000000a0: 08be 1abf 4ef5 513f aff6 b53e 7556 1abd
000000b0: c7a6 b4bf 6ceb 94bf 5841 33be 5741 29be
000000c0: 0684 b2bb ea70 2abf 13e9 583f 0ba3 643f
000000d0: 104d c73e 8d9b 82bf 3447 0ec1 3967 c8c0
000000e0: 8cca 08c0 2195 c3bf f004 463e fb6e 593f
000000f0: 6a27 34bf acfa 99bf ba0b c73e b063 3fbd
00000100: d84a 6dbf e033 f9bf 73b4 b3bd e619 c1bd
00000110: 4f13 fe3d fde9 a1be d0b0 27c0 8cef c03e
00000120: 7a74 9e3e d30b 85be d26f 93be 2d27 90bf
00000130: 1db0 2540 3de6 db3f 294f c03c 0132 943b
00000140: c8bb 90be 0511 1d3e 650e b0bf 13ca e83f
00000150: 4f2c e23e 69f5 403f dfaf 0740 d3b1 dabf
00000160: f02e 13c0 efb6 d0bf 433f 02c0 92cc f2bf
00000170: 863a 433f b187 393e ea75 133e c3c1 2dbf
00000180: 45a4 5abe 3c48 c5bd bef3 cebf a65d afbe
00000190: cd45 4bbf bb95 30bf 2aa2 21c0 1923 d8bf
000001a0: 2de1 4abf d6a5 f8be bfc2 13bf ddf9 29bf
000001b0: 4031 f2bf 835c 88bf b416 44be ae56 e1be
000001c0: 21fd debe 8084 5dbf d406 9c3f c603 c73f
000001d0: 4d7d 17bf 257e 1ebf 79f6 cabf bd7f e2be
000001e0: 0ed3 b2be e289 8e3e d605 21be f014 8bbd
000001f0: aecf acbf f130 703f 8da5 283e 4d5c 583e
00000200: 4234 b2bf a5fc 7fbd c16f 613f 3ea8 1bbf
00000210: 135f 0bbe f731 4f3f 0aa5 7040 471e e93f
00000220: d9dc 423d 8666 9c3f 7262 da3d e5b6 59bd
00000230: c2ac dfbe c85b 5bbf a037 9bbe ca14 6bbe
00000240: 4a54 16be 4421 cb3f 0711 d2bf 73c5 a2be
00000250: f240 313e 1c48 583b b9b0 0440 ffbf 1a40
00000260: ec2e 913f 4caf 443f 57e3 083f 0c40 c3bd
00000270: 722e c4be 8253 79be 872d 67bc ceae 8abd
00000280: 610b 213f de0d 753f 6590 95be 1177 0bbf
00000290: 8601 19bf 20c0 91bf 8299 99c0 8d63 d9c0
000002a0: bd29 b9c0 3e10 00c0 379f 74bf 7d40 13bf
000002b0: 4268 d4be afb4 e73e 761c 1c3e 5dfb 74be
000002c0: 3e6f e33f cd19 7a3f e3c5 3ebd 0132 7fbf
000002d0: 0e05 e8bf 4bb0 58bf 4e5d 8040 2197 dd40
000002e0: 0a67 e140 51df c23f 99bd 803f b7c0 183f
000002f0: b3cf 9dbf f739 87bf e346 d93e 1c0e 38be
00000300: 90c9 ffbf db4c 993f a3c1 5e3e 8baa 86bf
00000310: da13 6bbe d2ae 853e 20c0 013f 59d0 39be
00000320: a4d0 843c b749 79bf bada 35bf 707a 30bf
00000330: 3b44 72be a804 2b3f 31c2 8a3c f7e9 fa3d
00000340: cc88 813f 700d afbe eecc 0fbf 1b64 3abf
00000350: e105 f1bd a633 3a3f cce4 f8bf 061d c7c0
00000360: f036 d9c0 55bf a2bf d7d1 46bf f976 71be
00000370: bc53 d2be 275a d63f c131 e03d ed7a 243e
00000380: 3c08 b7bf 74f2 eb3e 471d 063e 8443 1f3f
00000390: 4b6f fa3e 3fe7 6b3e 9459 2fc0 fa54 9ac0
000003a0: 921f bec0 54d4 e8be 5ecb 06be 3259 323f
000003b0: 1f00 18bf 04c1 d33e ff57 2abe 1263 6b3d
000003c0: 2506 ba3e f8b7 6fbf 5d33 d93e 6f0b 10be
000003d0: 88b4 62be 9f27 e4be a178 b2bf 5c41 fbbf
000003e0: fe62 1ac0 8bb9 bdbf 2a63 5ebf 0909 e5be
000003f0: 0a38 be3f 3361 d13f 1ef2 61bd 807b b7bd
-0.16467799 -0.7209029 0.7517822 0.43235725 0.08589375 -0.5102858 -1.0798974 -5.6990395
-6.9449925 -0.8870079 -0.42288375 -0.017744852 1.0581218 -1.0120127 -0.15984523 0.026601542
-0.26292056 0.43468058 -0.004453094 -0.5197298 0.31740093 0.37603816 7.95809 4.112841
-1.518017 0.9107144 -0.36183318 -0.4313766 0.19087121 1.7921182 -0.302675 0.19067375
1.4574114 -1.3003973 -0.11037567 0.87612766 -0.33998817 -0.6211276 2.4819782 1.2570978
-0.60446215 0.8201493 0.35539767 -0.037680108 -1.4113396 -1.1634345 -0.17505395 -0.16528831
-0.0054478673 -0.66578543 0.84730643 0.89311284 0.38925982 -1.020372 -8.892384 -6.2626004
-2.1373625 -1.5279886 0.19337821 0.8493497 -0.7037264 -1.2029624 0.38876134 -0.04672593
-0.9269233 -1.9468956 -0.08774652 -0.09428768 0.124060266 -0.3162383 -2.6201668 0.3768276
0.3094824 -0.25985584 -0.2879625 -1.1261955 2.588874 1.7179638 0.023475247 0.0045225625
-0.28268266 0.15338524 -1.3754393 1.8186668 0.4417443 0.75374466 2.1201093 -1.7085518
-2.2997398 -1.6305827 -2.0351112 -1.896868 0.76261175 0.18118168 0.1440045 -0.6787378
-0.21351726 -0.09632918 -1.6168134 -0.34251136 -0.7940338 -0.6897847 -2.5255227 -1.6885711
-0.7924984 -0.48564023 -0.57719034 -0.66396886 -1.892128 -1.0653232 -0.19149286 -0.44011444
-0.43552497 -0.86530304 1.2189584 1.5548027 -0.5917557 -0.6191123 -1.5856467 -0.44238082
-0.34926647 0.2783957 -0.15724882 -0.06791103 -1.3500879 0.9382468 0.16469403 0.2112896
-1.3922198 -0.0624968 0.8806115 -0.6080359 -0.13610487 0.80935615 3.7600732 1.8212365
0.047573898 1.2218788 0.10663308 -0.053152937 -0.4368649 -0.8568692 -0.30315876 -0.22957149
-0.14680591 1.5869527 -1.6411446 -0.31791267 0.17309931 0.0033001965 2.0732863 2.4179685
1.1342444 0.7682998 0.53471893 -0.095337 -0.38316685 -0.24348262 -0.014109976 -0.067716226
0.6290799 0.95724285 -0.29211727 -0.54478556 -0.5976795 -1.1386757 -4.7999887 -6.793402
-5.786345 -2.0009913 -0.9555544 -0.57520276 -0.41485792 0.45255038 0.15245232 -0.23924012
1.7768323 0.9769562 -0.04657544 -0.99685675 -1.8126543 -0.84644 4.0113897 6.9246984
7.043828 1.5224401 1.0057861 0.5966906 -1.232901 -1.0564564 0.42436895 -0.17974132
-1.9983387 1.197658 0.21753554 -1.0520796 -0.22956792 0.2610994 0.50683784 -0.18145885
0.016212769 -0.97378105 -0.71036875 -0.68936825 -0.2365884 0.6680398 0.0169383 0.122516565
1.0119872 -0.3418994 -0.5617207 -0.72809 -0.117686994 0.7273506 -1.9444823 -6.222293
-6.787956 -1.271464 -0.7766394 -0.2358054 -0.4107951 1.6746262 0.1094699 0.16062517
-1.4299388 0.46083415 0.13097106 0.62212396 0.48913035 0.23037432 -2.7398424 -4.822873
-5.941354 -0.45474494 -0.13163516 0.6966735 -0.59375185 0.41358197 -0.1663513 0.057467528
0.36332813 -0.9364009 0.42422 -0.14066862 -0.2213918 -0.44561478 -1.3943063 -1.9629321
-2.412292 -1.4822248 -0.8687006 -0.44733456 1.4860852 1.6357788 -0.05516254 -0.08959103

critic.0.bias f4 [64]
00000000: 2cdf 963f d8b7 38be 230e 693f a57a e83e
00000010: 0bf7 1fbf 96a5 ecbf 7aff 93be c37b cabd
00000020: 0076 c53e 40a8 08be f534 933d e9d1 cbbe
00000030: 2b68 31bf b2ae ef3e 439f d13f ff7e b03d
00000040: 28a4 de3f 41fe 90be 71ed 08bf efac a43f
00000050: 316f 46bf f8a4 893f 85ff a5bd 1614 6dbf
00000060: 9ec9 40bf 183f c7bd e44e 73bf 7018 efbd
00000070: 5c80 7b3e 3a0d 8d3f 7ae3 67bd 4944 4d3f
00000080: a1e2 d33e b877 adbf 633e edbd 78c6 e2be
00000090: fd6b cd3f 66e3 42be 688b 1f40 da47 e0be
000000a0: 1a42 723e 7260 993b c13a bcbf deb9 993e
000000b0: cc9d 3cbe 3298 9d3f edde fc3e eb98 8dbf
000000c0: 69a4 1e3e 8d9c d63d b573 ba3e e4e8 cbbd
000000d0: 9a53 f83f ad3d 4b3f d91a f23c 4404 7b3f
000000e0: eccb 903f ac1c 8a3f 2fbd 70be ad0d d9bf
000000f0: 4b24 d6bf 1fb4 d43f 6a01 983e 3f21 093f
1.1786857 -0.18038881 0.91037196 0.4540607 -0.6248633 -1.8488033 -0.2890585 -0.09886887
0.3856659 -0.13345432 0.07187835 -0.39808586 -0.6929957 0.4681297 1.6376728 0.086179726
1.7393847 -0.2831898 -0.53487307 1.2865275 -0.77513415 1.075347 -0.08105377 -0.92608774
-0.75307643 -0.09728831 -0.9504225 -0.11674583 0.24560684 1.1019661 -0.056613423 0.8018232
0.41383842 -1.355216 -0.11584165 -0.44292045 1.604858 -0.19032058 2.4928837 -0.43804818
0.23658028 0.0046806866 -1.470543 0.30024618 -0.1841957 1.2312071 0.4938883 -1.1062292
0.15492405 0.104790784 0.36416402 -0.0995653 1.9400513 0.79390985 0.029553818 0.98053384
1.1312232 1.079 -0.23509668 -1.6957299 -1.6729826 1.6617469 0.2968858 0.53566355

critic.2.weight f4 [64, 64]
00000000: eb31 b23f 645e 16bf 852f 2fbc d2d9 1d3f
00000010: f5b2 4e3f 5b1d 31be 8d65 84bd 7a16 c43f
00000020: 05ec f83e 38a0 bcbe 96c7 e33e 42d4 acbe
00000030: 13c7 acbd d016 80bf a552 723e 8011 923e
00000040: 9af1 863f 5c5f fcbe ec4d 77bf 345e 95be
00000050: dc67 c0be ff85 8bbd 08e6 d63d 3b65 5fbf
00000060: 8623 9ebe 4107 8e3e d1e0 45bf e70b 4fbe
00000070: 0dc5 9dbf 0ca6 563f 09b5 943e eed0 23bf
00000080: cf58 a13f 8b14 11c0 54b0 553f bfa7 30bf
00000090: 62ae 8fbe 1b20 bd3e 999c 363f 6da8 04bf
000000a0: 0b02 38be 0f63 073f 6488 34be 0c5d 4fbe
000000b0: 1e71 4abf a95b e23f dd9b 4e3f cc2c 683f
000000c0: 3762 a639 01c1 b83e 8809 433f 8144 43be
000000d0: cd60 2a3e 3366 8abd 0c55 b13e 797a 703f
000000e0: 4af6 cf3e f3d2 273f 780a 80be 3deb 84bf
000000f0: 7cbc 0c3f 78aa 8cbf c036 20bf 7042 44bc
00000100: d786 93bf a26d e53f 25e0 d4bf c04f d2bf
00000110: 45af 3cbf 07f7 b0bd 9847 65bf f442 39bf
00000120: ddc1 a23f 0888 583f f7ec b1bf f785 cc3e
00000130: 2490 4f3d 76ae 6dbf f38d 8e3f 56b4 d4bb
00000140: 9f50 f33d a7fe b7be b093 8f3f 2ae2 0bbf
00000150: 7cd7 c93f 2578 023e e899 c53e 289c 473f
00000160: 903c 743f e146 993d be95 c13f 39b2 97be
00000170: f992 e13e 76a2 673f 65c6 e8bf f48e 8fbf
00000180: a8dc b5be 9666 3dbf de78 893e 399c 8e3e
00000190: db0c 49bf dcb2 c0bf 5511 cb3e efbd 3a3e
000001a0: 7a2e 1ebf f0a7 50bf 6edb 713b 43b0 d5be
000001b0: da2d c03f 552d b4bf cb9d 1c3f bb6b a3be
000001c0: 9486 a03f c339 e33f 283a bdbe 94e0 46bf
000001d0: cef6 753f 9f1a c6be fe40 993f 4b8a 20bf
000001e0: 30bd e1bf f24e 82bf 5a68 20bd 8ae6 49bf
000001f0: ea1d 923e ec5d 2e3e 66e7 903e 075e 9c3f
00000200: 4257 183f dc94 1fbe b863 9dbf d12b 6b3d
00000210: 2a40 bd3c e8f9 da3e 37a6 143e a9f8 d5bf
00000220: 6c31 ce3f 44d6 1f3f aaf7 323f 8c8e 0a3d
00000230: f487 e53f a101 9ebf 05b7 223d cf97 8ebe
00000240: 19f1 5e3e 7de0 adbf d530 483f d73d 59bf
00000250: 8ea8 1c3f d675 d3be 7b54 26bf d47c dcbf
00000260: 76f1 7a3d a781 243e 5161 7a3f ab71 8dbd
00000270: eaef 23bf b2bf 8cbf 335b 6ebf 6543 dc3e
00000280: 1157 a03f 9050 cebe b1b2 843e 44cb 23bf
00000290: 5905 babd f50a 57bd 8c5d c2bf c68e e63d
000002a0: b9be 35c0 d418 003f 084b 733f 8457 1ebd
000002b0: f44e 1440 2de1 773f ffe6 763e bab4 3cbf
000002c0: 356a fdbd 3dbc 20be 3e01 e8bd e34b 54bf
000002d0: 283a 483f 1876 07bf 7554 50bf 3696 263f
000002e0: 2295 86bf d9c4 d93c f680 063f 8f30 033e
000002f0: 5eb4 ba3f 2966 813f d628 b3be 3256 cebd
00000300: 3aec 2c3f fc28 ddbe c139 dabd 8f39 27bf
00000310: 6f34 033f 6760 463e 759e 423e 1e2b 2bc0
00000320: fcc1 c6be b1e2 b43d cd0b 91be 5dfc 823f
00000330: ac89 58bf fdff 733d 25fe 473e 7ed7 013e
00000340: 5e91 ef3e 5fc0 a73e aaad 973f 2e46 33be
00000350: 4c5c 9b3f fd66 2a40 b062 6b3e d53b f73e
00000360: 7f55 80bf 7989 633e 05aa c73e 71ec 613f
00000370: 2540 d1bd 8a21 26bd 8c8b 8cbf 4438 88be
00000380: 6ccf 60bf 937a ba3f c972 5cbf 68b3 fb3e
00000390: b170 8d3f ed8c 9a3d 4216 4f3f d0f7 af3f
000003a0: 4193 2f3f a09c 16c0 59b6 21bf 5043 78bf
000003b0: 9fe9 85be a093 05bf 6443 a0be a0ad 73bf
000003c0: b9da f4be 0faf bbbd 49ae 6bbe eab4 55be
000003d0: 98b4 97be 20d1 cbbf b038 36be 43ed f6be
000003e0: fad1 3ec0 0664 813e 46eb 793f 7865 bdbe
000003f0: 1c2e 4ebe 8e26 2640 7b52 16be a679 7a3e
1.3921484 -0.5873778 -0.010692482 0.6166049 0.80741817 -0.17296354 -0.06464682 1.5319359
0.4861757 -0.36840987 0.4448821 -0.3375569 -0.08436408 -1.0006962 0.23664339 0.28528976
1.0542481 -0.49291503 -0.96603274 -0.29173434 -0.37579238 -0.06812667 0.10493094 -0.8726384
-0.30886477 0.2773991 -0.7729617 -0.20219384 -1.232576 0.8384712 0.2904437 -0.63990676
1.2605227 -2.2668788 0.8347218 -0.6900596 -0.2806273 0.36938557 0.713327 -0.518195
-0.1796953 0.52885526 -0.17630154 -0.20250338 -0.79078853 1.7684222 0.8070658 0.90693355
0.00031735163 0.3608475 0.7618642 -0.19069101 0.16638489 -0.06757774 0.34635198 0.9393688
0.4061759 0.6555626 -0.25007987 -1.0384289 0.54975104 -1.0989523 -0.6258354 -0.011978731
-1.1525525 1.7924082 -1.6630903 -1.6430588 -0.7370494 -0.08640867 -0.8956237 -0.7236779
1.2715412 0.8458257 -1.3900441 0.39945957 0.050674573 -0.9284433 1.113707 -0.0064912243
0.11880612 -0.35936472 1.1216946 -0.54641974 1.5768886 0.12741144 0.38593984 0.7797265
0.9540491 0.07484222 1.5123823 -0.2962816 0.44057444 0.9048227 -1.8185545 -1.1215501
-0.3551991 -0.7398466 0.26850027 0.27853563 -0.7853524 -1.5054584 0.3966166 0.18236516
-0.6178967 -0.8150625 0.0036904472 -0.4173604 1.5013993 -1.4076334 0.6117827 -0.3191813
1.254107 1.7752002 -0.36958432 -0.7768643 0.9607972 -0.38692185 1.1972959 -0.6271102
-1.763586 -1.0180342 -0.039162017 -0.788674 0.28538448 0.17028016 0.28301543 1.2216195
0.59508145 -0.15584129 -1.2296057 0.057414833 0.023101885 0.42768788 0.14516531 -1.671651
1.6108832 0.6243632 0.69909155 0.03382735 1.7932115 -1.2344247 0.039725322 -0.27850196
0.21771659 -1.3584133 0.7819951 -0.84859985 0.61194694 -0.4130084 -0.64972657 -1.7225595
0.06126543 0.16065083 0.97804743 -0.06906446 -0.64037955 -1.0996001 -0.9310791 0.43020168
1.252657 -0.4029584 0.2591758 -0.63982034 -0.09083051 -0.052500684 -1.5184798 0.112577006
-2.8397658 0.50037885 0.95036364 -0.03865768 2.317319 0.96827966 0.24111556 -0.73713267
-0.12373773 -0.15696807 -0.11328362 -0.82928294 0.7821374 -0.5291457 -0.8137887 0.65072954
-1.0514262 0.026583122 0.5254053 0.12811492 1.4586294 1.0109302 -0.34992093 -0.10075034
0.67547953 -0.4319533 -0.10655547 -0.653222 0.5125188 0.19372712 0.19005759 -2.6745067
-0.38819873 0.088323005 -0.28329316 1.0233265 -0.8458507 0.0595703 0.19530542 0.1267986
0.46790594 0.32763955 1.1849873 -0.1750724 1.2137542 2.662536 0.22986865 0.48287836
-1.0026091 0.2222041 0.38996902 0.88251406 -0.10217313 -0.04055933 -1.0980086 -0.26605427
-0.878165 1.4568657 -0.8611265 0.49160314 1.1050016 0.07546411 0.8089334 1.3747501
0.68584067 -2.3533096 -0.63168865 -0.9697771 -0.261548 -0.5217838 -0.31301415 -0.95186806
-0.47823122 -0.09164249 -0.23015703 -0.20869794 -0.2962997 -1.5923195 -0.17795062 -0.4822789
-2.981566 0.25271624 0.97624624 -0.36991477 -0.20134777 2.5961032 -0.14679901 0.24460468

critic.2.bias f4 [64]
00000000: ec0a 23be 8033 b63d fd88 25bf 9e98 bc3e
00000010: 2054 c13d 7246 f2bd 6909 2a3e 4060 18bd
00000020: b9cc 6ebf 9a72 763e 7a08 153e 59f2 3dbe
00000030: 9c7d a03e 0222 9fbe 645c 8a3f fd76 23bb
00000040: 0801 dcbe 9611 eabe 89e5 c9bd fc5b 4f3e
00000050: 4171 a9be 82be 66bf a5c0 05bf cf04 4abf
00000060: ebe7 253f dba8 3d3f 5039 2f3f 8eb5 563e
00000070: 09d4 c5bf b831 14bf 5fbe 093f ea69 773e
00000080: 055b 013f 1147 9ebe d7a8 683f 91ae 05bf
00000090: 2198 133f 671c 4f3e 35e6 5cbe 6248 4dbf
000000a0: bc0a 6cbf 2a54 f53e 3c41 48bf 07e4 643f
000000b0: 9db1 d83e ff39 3f3f 2e91 15bf 2c69 b3bd
000000c0: f415 023f e573 193f 24ea 6b3e f32c 6bbe
000000d0: 090f 3b3f caca c2be 2eab 28be 93b5 5f3e
000000e0: 6db9 403e 00e5 2fbe 412f a23e 5b71 233f
000000f0: 8aef 783f 8bde 3f3f bc16 143f fa9b f8be
-0.15922135 0.088965416 -0.6466215 0.36835188 0.09439874 -0.118298426 0.16605152 -0.037201166
-0.9328113 0.24067155 0.14554015 -0.1854948 0.31345832 -0.31080633 1.0809445 -0.0024942749
-0.42969537 -0.45716542 -0.098582335 0.20249933 -0.33094218 -0.9013444 -0.5224708 -0.7891359
0.64807004 0.7408578 0.68446827 0.20967695 -1.5455333 -0.57888365 0.5380611 0.24161497
0.5052951 -0.30913594 0.9088263 -0.5221949 0.57654005 0.20225678 -0.21572192 -0.8018857
-0.9220388 0.47915775 -0.7822454 0.8941044 0.42323008 0.7469787 -0.5842465 -0.08760294
0.5081475 0.59942466 0.23038536 -0.22966366 0.73069817 -0.3804534 -0.1647155 0.21846609
0.18820734 -0.171772 0.31676677 0.6384484 0.9724051 0.7494895 0.5784719 -0.485565

critic.4.weight f4 [1, 64]
00000000: 66b8 bc3e c134 2dbf 0c72 d93e 674d fcbe
00000010: 0b8d 0a3f 844c aabe 5e17 f5be 1b5d e5be
00000020: 8913 e8be 2698 c53e 113b febe ae11 d13e
00000030: 33a1 3cbf bbe5 08bf c2b0 0dbf 1c00 bbbe
00000040: 03dd 0dbf efe5 c03e 1509 c8be 9e73 e33e
00000050: 3744 d73e 0664 f0be 96dd 433f 8f35 ce3e
00000060: e8c5 1a3f 1781 d33e 398f fe3e 0889 e03e
00000070: abe6 043f 6bc2 c23e 4a99 03bf 303d 47bf
00000080: 31e5 3e3f db0f 203f 5dc4 c33e d360 b7be
00000090: fbe4 02bf 2502 f43e 8d16 c9be 3de0 ce3e
000000a0: fe5f d83e 7c04 163f 3850 e4be 5727 e13e
000000b0: 04f6 183f ad9e eebe 1b92 02bf 3a16 07bf
000000c0: 3295 09bf ec20 f73e 1c6e ef3e e630 b6be
000000d0: db5a 5bbf cf8a 103f c7e8 30bf 2f03 07bf
000000e0: 1c38 c5be 8f73 acbe 85f6 2d3f da3c ce3e
000000f0: 3d86 223f c23f 053f 5f22 553f 5a8e 4b3f
0.36859435 -0.6765862 0.42469823 -0.49277803 0.54121464 -0.33261502 -0.4786939 -0.44797596
-0.45327404 0.38592643 -0.4965444 0.408338 -0.7368347 -0.5347554 -0.55347836 -0.3652352
-0.5541536 0.37675425 -0.3906943 0.44424146 0.4204423 -0.46951312 0.7650999 0.40275237
0.6045823 0.41309425 0.49718645 0.43854547 0.5191447 0.38038954 -0.51405776 -0.7782774
0.7456847 0.62524194 0.3823575 -0.3581606 -0.51130646 0.47657886 -0.39275017 0.40405455
0.42260736 0.5860059 -0.44592452 0.43975326 0.5975039 -0.46605435 -0.5100419 -0.5276829
-0.5374328 0.48267305 0.46763694 -0.35584182 -0.8568551 0.56461805 -0.6910519 -0.5273923
-0.3851937 -0.33681914 0.67954284 0.402808 0.6348608 0.5205041 0.8325557 0.79514086
