Model Results/ppoTSLA2020-03-011999.pth (torch, 48325 bytes, 11 tensors)

actor.0.weight f4 [64, 16]
000000 c7 7f 17 be 03 4e fe 3f 0f 13 df 3e f8 4c 2a 3f
       -0.14794837 1.9867557 0.43569228 0.66523695
000010 58 f4 dc bd 2f 48 5f bf f2 f0 25 40 aa 21 da 3e
       -0.10788792 -0.8721952 2.5928311 0.4260381
000020 85 70 44 bf bd 69 9d bd ee 6e d2 be ae 3c e6 be
       -0.7673419 -0.076861836 -0.41100258 -0.4496817
000030 12 1b 18 3e 97 41 d2 3e 74 24 80 bd eb a6 8a be
       0.14854077 0.41065666 -0.06256953 -0.27080473
000040 e6 6a 70 3d 8f c3 47 3f d8 aa 63 3f f5 68 80 3f
       0.058695696 0.78032774 0.8893256 1.003203
000050 72 7f 08 3f b0 85 18 3e 6d 40 4d 40 68 67 2d 40
       0.53319466 0.14894748 3.2070572 2.7094364
000060 af 5d 0a 40 60 48 1f 3f ba 4d 23 3f 85 89 38 3f
       2.161968 0.6221981 0.63790476 0.7208484
000070 59 1f 0c bf 9e 78 c8 ba 18 99 c0 3e f2 d9 4a 3e
       -0.5473533 -0.0015294736 0.376168 0.19809702
000080 31 09 41 bf 6a 2f 8a 3f b6 1a c4 3f 0f 71 8f 3e
       -0.7540465 1.079572 1.5320652 0.28015944
000090 e6 77 19 be 39 59 81 be 45 3f ca 3f f5 42 60 3f
       -0.14987144 -0.25263384 1.5800558 0.8760217
0000a0 de 5d 50 3e 30 aa 73 bc 5e f4 94 be 35 33 ad be
       0.20348307 -0.014872119 -0.29092687 -0.3382813
0000b0 e2 d3 2e be a1 b6 a0 3e 52 c4 b1 bd 8b 8d cf be
       -0.17073014 0.31389335 -0.08680023 -0.40537676
0000c0 8c b7 06 be 76 df b1 3d 15 eb 47 be ab 80 03 3f
       -0.13155955 0.086852 -0.1952327 0.51368207
0000d0 8b 45 58 3f 3c ec 10 3f cd 3b fe 3d 44 6a 1c 3f
       0.84481114 0.56610465 0.1241375 0.6109965
0000e0 4b ff cc 3e dc 6e 29 3e 21 a4 75 3c 05 63 81 3e
       0.40038523 0.16546196 0.014992745 0.25270858
0000f0 c9 bb a1 3f 08 b8 ad 3f 0b 32 fd be d4 89 64 3e
       1.2635432 1.3571787 -0.49452242 0.22318202
000100 be f2 b7 3e 21 7e 50 40 62 7b a7 3d 0e 58 29 3f
       0.35927385 3.2576983 0.0817783 0.66149986
000110 cf 6d 8b be ef 9d 2b bf 43 5a e3 bd 2a d4 ab bf
       -0.27232215 -0.6703786 -0.111012004 -1.3424122
000120 bd 18 65 bf 2c 38 95 be 83 ee c8 3d 77 cf 4a 3e
       -0.8949087 -0.29144418 0.098111175 0.19805704
000130 55 5e 30 bf 16 7d 2f bf b4 97 3f 3e e6 c2 35 be
       -0.6889394 -0.6855024 0.18710214 -0.17750129
000140 cc 7d 23 3e 3a e2 93 3f f8 13 65 3f 6b ab 07 3f
       0.15965956 1.1553414 0.89483595 0.5299594
000150 04 1d 53 3f 1e 1a 54 3f 83 5a b9 bf 1a e6 b1 be
       0.8246615 0.8285235 -1.4480747 -0.34745866
000160 11 47 93 3e 07 0e 2b bf 37 23 ae be d9 7b 09 be
       0.28765157 -0.6681828 -0.34011242 -0.1342615
000170 ce 7d 3b bf 8b fe 56 3f ef 64 ac be 1d 88 e5 be
       -0.7323884 0.8398215 -0.33670756 -0.4483041
000180 58 e8 b7 be b1 a5 af 3c 43 d6 1f bf 72 5b ff 3e
       -0.35919452 0.021441313 -0.6243631 0.49874455
000190 43 8a b8 3e 27 ed 87 3e 4c 42 e6 3f 06 a9 b5 3d
       0.36042985 0.2654812 1.7988982 0.08870129
0001a0 81 f3 d5 be 77 a7 21 3f 35 0b 1e 3e 4e d4 91 3e
       -0.4178734 0.63146156 0.15433963 0.28482288
0001b0 33 10 9a bf 6a d1 a9 bf 39 08 52 3f 7e 37 b1 3e
       -1.2036194 -1.3267033 0.82043797 0.3461265
0001c0 92 b8 42 3d 64 47 f2 3f f2 0d 91 3f bd 85 21 3e
       0.0475393 1.8928037 1.1332381 0.15773673
0001d0 3c db 51 be f7 9e 2f bf 8a 18 db 3f da c5 8b bf
       -0.20493788 -0.68601936 1.7116864 -1.0919755
0001e0 d0 75 01 c0 c7 60 1c bf cf 25 bc be 6a 62 14 be
       -2.0228157 -0.6108517 -0.36747596 -0.14490667
0001f0 22 ac 27 bf 21 e8 e5 3e fe f9 3e 3f 0b 72 61 bd
       -0.6549703 0.44903663 0.7460021 -0.0550404
000200 c0 2e 47 be 69 8c 4c bf 2f cd 07 40 18 f8 d9 be
       -0.19451427 -0.7990175 2.1218984 -0.42572093
000210 22 e9 4d be e5 53 fc 3c 3c 28 99 bf 6b b7 c0 3f
       -0.20108464 0.030801723 -1.1965404 1.5055975
000220 dc 86 0b 40 e0 11 3f 3d fc 4e 97 3e 67 95 fa 3d
       2.1801062 0.046647906 0.29552448 0.122355275
000230 1a ec 8d 3f 6f ef 39 3f 62 04 82 be 29 ce 04 bf
       1.1087677 0.7263097 -0.2539397 -0.51877075
000240 ba f1 5a bf 80 46 d7 be 95 aa 4e bf 54 90 03 3f
       -0.85525095 -0.42045975 -0.8072904 0.513921
000250 4d 4f e2 3e 53 91 c5 bd 9d 00 69 3f a2 2e 92 3e
       0.44201127 -0.09646859 0.9101656 0.28551203
000260 57 2c 8e 3e 55 09 5d 3f 87 bc d9 3e 5a a0 c9 3e
       0.27768204 0.86342365 0.42526647 0.3938015
000270 8f 69 5f 3d 30 6d 12 be 69 79 6b 3e 28 b6 4c 3e
       0.054544028 -0.14299464 0.22995533 0.19991362
000280 4e 4a fd be 20 99 c7 be 0f 35 42 bf 45 17 af be
       -0.49470752 -0.38984013 -0.7586221 -0.3419744
000290 0d f0 0c bf b4 a4 36 bf b1 56 24 40 8e 11 3c 3f
       -0.5505379 -0.7134507 2.5677912 0.73464286
0002a0 10 d6 42 3e 33 2a 2c 3f 12 df 00 3f 96 63 cf 3e
       0.19026971 0.6725189 0.5034038 0.40505666
0002b0 95 48 0f 3e 6e 6c 2b bf 34 22 56 3e 6e 65 20 3f
       0.13992532 -0.66962326 0.20911485 0.6265477
0002c0 48 47 b5 bf 38 0c 58 3f 8e d7 eb 3e 24 9b 0b 3f
       -1.4162378 0.84393644 0.46062893 0.545336
0002d0 b4 ce 0d 3e 6c 6c 6b be fa 6d d6 3f ad 35 92 3e
       0.13848382 -0.22990578 1.6752312 0.28556576
0002e0 00 38 cc be be 83 4e 3d 14 ed 05 bf 5a 4d 33 be
       -0.39886475 0.050418608 -0.5231488 -0.17509976
0002f0 ba 52 28 3e 30 15 42 3f 35 50 c9 3e 93 3c bf be
       0.16437808 0.7581358 0.39319006 -0.37350902
000300 19 b6 9e bf a8 fa b3 be 47 60 27 bf b8 44 56 bb
       -1.2399322 -0.35152173 -0.6538128 -0.0032694768
000310 b0 ca 1d bf ae 36 87 bf fc c3 a4 3e a4 0a ec bf
       -0.616374 -1.0563562 0.32180774 -1.8440747
000320 df a2 6a c0 ff df 3e bf 12 92 88 bf 15 c8 87 bf
       -3.6661909 -0.7456054 -1.0669577 -1.0607935
000330 5a 78 3a 3f b1 3c 59 be 0d cc 02 3f 69 0a 47 bd
       0.7283989 -0.21214558 0.51092607 -0.048593912
000340 21 d4 3c be 43 4a 2f bf 37 c3 21 c0 ee 48 4b 3f
       -0.18440296 -0.6847269 -2.52754 0.79408157
000350 93 5f 7c 3f 91 64 f8 3e fb 59 a5 bf 22 56 dd bf
       0.98583335 0.48514226 -1.2918085 -1.7291911
000360 c1 84 fe bf 1a d0 51 be 54 b7 2b 3b 26 b2 a5 be
       -1.9884263 -0.2048954 0.0026201801 -0.3236248
000370 a4 49 1b bf bb 8b 63 be 63 40 9a 3e 28 5b b0 3e
       -0.6065924 -0.22221272 0.30127248 0.34444547
000380 d5 5d b2 3e 75 a3 af 3d b0 10 a1 3e 4f 31 d0 3d
       0.34837213 0.08576099 0.31458044 0.10165655
000390 3c 4c 03 bf 0f e1 6e bf 77 5b 89 40 8a bb 36 40
       -0.512882 -0.9331216 4.292415 2.8551965
0003a0 72 db 1e 40 e9 7a 27 3f 30 a3 1d 3f c5 23 41 3f
       2.4821439 0.6542192 0.6157713 0.75445205
0003b0 b6 4f 78 bf 5a 31 08 bf 1a 0f 2f 3e 94 68 09 3d
       -0.9699663 -0.53200305 0.17095605 0.033547
0003c0 5d 91 76 be a3 69 11 c0 d3 62 da bf bc 8e 29 bf
       -0.24078889 -2.2720726 -1.7061409 -0.6623342
0003d0 c4 68 9e 3d d0 5b 00 3f 44 c8 ee bd 67 95 2b 3f
       0.07734826 0.50140095 -0.116592914 0.67024845
0003e0 95 77 3f 3f 08 50 45 be 81 55 02 be 63 ce 69 be
       0.7479184 -0.19268811 -0.1272793 -0.22832637
0003f0 2c e3 f0 be 4b 33 34 bf ea 20 08 bc 91 68 0a bd
       -0.47048318 -0.70390767 -0.008308629 -0.03379113

actor.0.bias f4 [64]
000000 19 3e 50 be ea a8 93 3e 30 f6 c7 be d6 89 10 be
       -0.20336188 0.2883981 -0.39055014 -0.1411508
000010 26 d5 ca bd 28 02 2d bf d5 02 07 3f 29 bd 96 be
       -0.09903936 -0.67581415 0.52738696 -0.29441193
000020 5d 7f e3 be a2 1e 02 3f 9f 88 fa 3e 2e 8a 1a be
       -0.44433108 0.5082799 0.4893236 -0.15091774
000030 09 01 c5 3c cf b7 5c 3e 76 55 99 3e 59 89 6b be
       0.024048345 0.21554492 0.29948014 -0.23001613
000040 77 76 a3 bd a5 b5 c9 3b 7a 64 b2 be bf 76 95 be
       -0.0798158 0.006155687 -0.34842283 -0.2919216
000050 09 c4 19 3d e5 0f 6b 3e 4a 95 8f 3e a7 ac 2d 3e
       0.03754047 0.22955282 0.28043586 0.16960393
000060 b6 02 53 3e 7f 3f a5 3e d0 75 2c bf 1e 7e 4e 3d
       0.20606503 0.32275006 -0.6736727 0.050413243
000070 61 d7 3b 3e 24 81 1e bf fc 61 d3 be d6 d6 14 3e
       0.1834388 -0.619158 -0.41285694 0.14535078
000080 58 26 db 3e a5 64 26 bf 15 66 06 3f e6 13 fc be
       0.4280269 -0.6499732 0.52499515 -0.4923393
000090 0e 3a 37 be 70 49 87 bd 5b d4 0d 3f 9d ec aa 3e
       -0.1789324 -0.06605804 0.55402154 0.33383647
0000a0 e0 6b a6 be 40 ee 1d 3e b3 d7 87 bc 57 dd 37 3f
       -0.32504177 0.15422916 -0.016582346 0.7182211
0000b0 e2 e2 e5 be c2 2d 0d be 82 7b cb be 47 88 77 be
       -0.4489966 -0.13786986 -0.39742666 -0.2417308
0000c0 bc a0 6d 3f ae 47 16 3f 5e 3c 7f 3f ac df 8d bd
       0.92823386 0.58703125 0.9970149 -0.06927428
0000d0 2d b1 f8 3e 70 65 76 be 0e 05 a8 bd d2 43 2a bf
       0.48572674 -0.24062133 -0.08204089 -0.66509736
0000e0 4a 69 c2 3e 9b 49 cd be 9c b9 f9 3c bc 47 eb bd
       0.37970954 -0.4009522 0.030484013 -0.114882916
0000f0 cd 3a 29 be 18 b6 e7 bc fa 59 bc be 1b 48 8f 3e
       -0.16526337 -0.028285071 -0.36787397 0.279847

actor.2.weight f4 [64, 64]
000000 a2 a8 1e bf a4 58 29 bf 35 e0 b3 be 40 bd a4 bf
       -0.61976063 -0.6615088 -0.35131994 -1.2870255
000010 f4 d8 e3 be fc 2b 7d be 75 c9 ff bd 3f 4c 76 be
       -0.4450146 -0.2472381 -0.12489597 -0.24052523
000020 51 1b 83 bf a3 22 c3 be fe 67 61 be 64 ca 39 bf
       -1.0242711 -0.38112363 -0.22012326 -0.7257445
000030 75 7c 73 3f 2e 50 c1 bc 57 00 c7 be a4 3f 3b 3e
       0.9511178 -0.023597803 -0.38867447 0.18285996
000040 3f 47 4f 3e aa a7 08 3f aa e0 31 bf cd 56 60 bf
       0.20242022 0.53380835 -0.69483435 -0.8763245
000050 b4 ed 2f be ef 62 61 3e e4 c3 88 bd 3f bc 5e 3f
       -0.1718052 0.22010396 -0.06677988 0.8700599
000060 81 38 5c be 9f a8 55 3e 20 1c 0c 3e 0c 76 0e 3f
       -0.2150593 0.20865105 0.13682604 0.55648875
000070 41 76 c8 be db 04 6d bf 96 5b fa bf 7a bd 47 bf
       -0.3915272 -0.92585534 -1.95592 -0.78023493
000080 4c f0 9c 3f 03 7b b2 bf 34 d4 e8 bf 9a f0 3e be
       1.2260833 -1.394379 -1.8189759 -0.1864647
000090 f3 b9 e2 3f 0d be 73 3d 66 d8 a7 3c 3d 74 ce 3e
       1.7712997 0.05950742 0.020488929 0.40323058
0000a0 a2 e2 32 3e 8f 47 a2 3d 70 9d 92 bd 23 69 f3 3e
       0.17469266 0.07923805 -0.07158935 0.4754115
0000b0 f9 47 ae bd 11 5c fd 3c f8 3c a7 3e 62 ac 0d bf
       -0.085098214 0.03092769 0.32663703 -0.5534116
0000c0 c6 a6 88 bf d8 54 0f 3f 23 08 3a 3f 75 f0 bf be
       -1.0675895 0.55988836 0.72668666 -0.37488142
0000d0 07 f6 02 bf b8 f0 9c be b6 37 db bd e8 70 01 3d
       -0.5115666 -0.30652404 -0.107039854 0.031601816
0000e0 eb 73 86 bd b3 82 52 3f 93 c1 06 40 39 47 03 3f
       -0.06565078 0.8223068 2.1055648 0.5128055
0000f0 b5 e0 52 3f 8a 68 0c 3e 12 ba 2c 3f 9a 50 73 3e
       0.82374126 0.13711753 0.6747142 0.23761216
000100 2f 12 b1 3e 31 51 05 3f f3 e3 44 bd bb 58 4e 3f
       0.34584185 0.52077013 -0.04806895 0.8060414
000110 3c 0d d6 3e 23 fd ca be 88 da f3 3e 1f dd a5 3e
       0.41806972 -0.39646253 0.47627664 0.32395265
000120 ee eb 91 bf 1e 96 eb 3e 0e 08 da 3e c8 a7 11 3f
       -1.1400125 0.46012968 0.4258427 0.5689664
000130 20 7a 05 be e0 fa 0b 3f 77 96 12 bf c9 b8 67 be
       -0.13034868 0.5467968 -0.5726084 -0.22629084
000140 97 2f 4c be e5 7e 8a 3e 7a 9d a8 3e c7 36 31 bf
       -0.19940029 0.27049938 0.32932645 -0.6922421
000150 06 24 7b 3d 1d d1 e7 be 78 77 01 be ed 5c f4 be
       0.06131365 -0.45276728 -0.1264323 -0.47727147
000160 8c d3 d4 3e 94 02 f1 3e c5 48 84 be 96 1e a1 bd
       0.41567647 0.4707228 -0.2583677 -0.07867162
000170 9e 96 4b 3f 9b 16 a7 3d 39 b1 36 bf 51 25 c2 be
       0.795267 0.081586085 -0.7136417 -0.37919095
000180 d0 80 70 bf 8d 02 d5 3f 7b c3 13 3f fe 86 e5 3c
       -0.9394655 1.6641403 0.57720155 0.02801847
000190 1c 55 7e 3f f7 3c 20 3f 16 f4 93 3e 5d 5f 43 3f
       0.99348617 0.62593025 0.2889716 0.7631739
0001a0 27 d9 ae 3f 0e cc f7 3e 27 ec cf 3a ff 88 a6 3e
       1.366002 0.4839787 0.0015863226 0.32526395
0001b0 53 1d 67 3f b6 d5 38 3f cb d4 e0 be bb 8f 9b 3e
       0.9027912 0.72201097 -0.43912348 0.30383095
0001c0 ef dd 5d 3f 80 cb 2d bb 7c d5 41 bf f6 a9 8a bc
       0.8666677 -0.0026519 -0.75716376 -0.016926747
0001d0 53 64 c2 be 4e bc 58 3f c5 f2 af 3e 3e 76 ba be
       -0.37967166 0.8466233 0.34364906 -0.36418337
0001e0 9c c5 05 3f 0f 0e cb 3d 61 87 6d 3e a3 26 72 bd
       0.5225465 0.09914791 0.23196174 -0.059118878
0001f0 3c 37 db 3c 66 db d8 be 00 48 59 bf 85 6a 01 bf
       0.026759736 -0.42354888 -0.8487549 -0.5055316
000200 40 00 09 3f a5 3c a8 bf eb f2 cc 3d 19 3e 23 bf
       0.53516006 -1.3143507 0.100072704 -0.6376663
000210 5f 25 2f 3f d2 02 41 3e db 7f 12 bf 5a cc 83 3e
       0.684164 0.18848732 -0.5722634 0.25741845
000220 28 2d 34 bf 1a e4 32 bf a1 3c 62 be 63 94 ae be
       -0.703814 -0.69879305 -0.2209344 -0.34097585
000230 1f eb d9 3e 0f 09 06 3f ec 8e ea be cf 4f 46 3f
       0.42562196 0.5235757 -0.45812166 0.7746553
000240 9e c5 28 be 7a 22 04 3e e3 d9 41 bf d3 d7 e0 3e
       -0.16481635 0.12903777 -0.75723094 0.4391466
000250 5f ec a9 be f6 f9 fb bb 7a 49 91 bf fb 17 4a 3f
       -0.3318815 -0.00768971 -1.1350548 0.7894284
000260 cf 94 08 be bc ac b0 be 19 bb 05 3e 2f c3 17 3f
       -0.13338016 -0.34506786 0.13059653 0.592822
000270 16 4f 21 bf ec 12 b3 3e b9 07 da 3d 71 17 92 3e
       -0.630113 0.34975374 0.10646004 0.2853351
000280 eb 2b 2b bf b2 98 b9 3f c3 d3 92 bf d0 88 04 40
       -0.6686389 1.4499724 -1.1470875 2.0708504
000290 f7 ca d1 bf e0 4d b1 be cb 65 5d bd 63 21 fc be
       -1.6390065 -0.34629726 -0.054052155 -0.49244222
0002a0 20 d2 94 be e5 ce ca be 69 df d0 3e 45 67 dc be
       -0.29066563 -0.39610973 0.40795448 -0.43047538
0002b0 a3 d7 99 bc f4 df 28 bd f7 c6 b0 3f 36 10 8c bf
       -0.018779581 -0.041229203 1.3810719 -1.0942447
0002c0 ce b6 cb be 32 4b 5d bf cf a2 7e bf ed 07 af be
       -0.39787906 -0.86442864 -0.99467176 -0.34185734
0002d0 af 36 07 bf b2 16 36 bf 15 af 09 bf 98 33 b2 3e
       -0.52817816 -0.7112838 -0.5378278 0.34804988
0002e0 2e 25 00 be ac 15 61 3f ad e0 4e 3e 7a a6 dc 3f
       -0.12514183 0.87923694 0.20202895 1.7238305
0002f0 d1 3a 6e 3f 15 da 4f bf 9c 4e 15 3f a3 7e 4f be
       0.93058497 -0.8119214 0.58323073 -0.20263152
000300 eb ba 40 bf aa bf 3c bf b8 56 15 bf f0 0b c0 bd
       -0.75285214 -0.73729956 -0.5833545 -0.09377277
000310 7f bf e8 3d 5e 19 db be df 39 02 3d 35 6e 6f bf
       0.1136465 -0.4279279 0.03179347 -0.9352754
000320 a4 c8 17 bf 67 3d c2 be cc 2d 26 3f a5 93 95 bf
       -0.5929053 -0.3793747 0.6491363 -1.1685683
000330 5d 00 fc 3e 14 8e 0a bf 37 fd 1e 3d 2a 90 ba 3e
       0.49219027 -0.54123044 0.038815703 0.36438113
000340 40 64 cc 3d 82 2a 41 bf 87 87 3c 3f 7e 2d 1e bf
       0.09980059 -0.75455487 0.736443 -0.61788166
000350 42 a3 70 3f 9d 31 88 3f 61 10 87 bf 76 8f 28 bb
       0.9399911 1.0640141 -1.0551873 -0.0025720275
000360 2a 6f 5d be 8e 16 c4 bd a0 7c cf bf 21 aa 04 bf
       -0.21624437 -0.095746145 -1.6209908 -0.51822096
000370 df ed 55 3e b2 fa 84 bf fb f1 61 bf c7 e3 cd 3e
       0.20891522 -1.0389006 -0.8825986 0.40212843
000380 af 2d 00 be 4c ce f7 bd 13 17 a2 be 79 28 49 3e
       -0.12517427 -0.12099895 -0.3165823 0.19644345
000390 b1 bf a8 bf 14 76 fe be 72 48 64 be 54 5e 0e 3e
       -1.31835 -0.4969946 -0.2229326 0.13903171
0003a0 b8 08 0a bf fb 41 65 3f 13 5e 13 3f 3a 1c aa 3e
       -0.53919554 0.89553803 0.5756542 0.3322466
0003b0 a1 a6 d3 bf 29 65 1c bf ea 92 64 bb d8 97 38 bf
       -1.6535226 -0.6109186 -0.0034877607 -0.72106695
0003c0 1b 7d 87 be 52 d5 9e 3f 9b 5b 1a 3f d9 81 ae 3f
       -0.26462635 1.240885 0.6029603 1.3633376
0003d0 be 7d 7d be a1 e5 e9 bd c3 9e ac 3d 33 db 93 3e
       -0.24754998 -0.11420751 0.08428719 0.28878173
0003e0 91 92 b6 3d 80 1a 61 bf 5b 6f c4 3e 00 f5 29 3f
       0.08914674 -0.8793106 0.38366207 0.66389465
0003f0 c2 da 3a 3f a7 41 41 3e d5 e4 c8 3e a1 94 06 40
       0.7299005 0.188727 0.39237085 2.1028216

actor.2.bias f4 [64]
000000 a2 e7 df 3c c3 38 6c be 54 1c ff be 90 b2 02 bf
       0.02733213 -0.23068528 -0.498263 -0.51053715
000010 63 9a df 3e d6 66 30 be 57 0c 31 be 2c 34 0e 3e
       0.43672475 -0.17226729 -0.17289864 0.1388709
000020 92 4c 63 be 92 9f a6 be 07 04 d1 3e 75 9c 06 bf
       -0.22197178 -0.32543617 0.40823385 -0.52582484
000030 da 9a 28 be 88 6b 72 be eb da 52 3e f8 ac 86 3e
       -0.16465321 -0.23673832 0.20591323 0.2630384
000040 21 a2 03 3f a4 4a 0d 3f 2f 25 f4 3e cf 45 cb be
       0.51419264 0.5519202 0.4768462 -0.39701697
000050 3c 5b a4 3e 69 8c 38 be ee 55 8c be 86 6f da 3e
       0.32100856 -0.18022312 -0.2740931 0.4266321
000060 32 1c d8 3e ae ff cd bd 66 84 59 be 6d e5 9d be
       0.4220901 -0.10058533 -0.21241912 -0.308391
000070 b7 6d 22 bf 0b ed c0 bd 8e d2 af 3e ed 19 b1 be
       -0.6344866 -0.09420212 0.34340328 -0.34590092
000080 83 f3 03 3f ab 59 a2 be 3f c9 7e be 09 54 bc 3e
       0.51543444 -0.31709036 -0.24881457 0.36782864
000090 1f fd 39 be 65 60 8a 3d bc f6 5b bd ad 10 b4 be
       -0.18162964 0.06756667 -0.0537021 -0.35168973
0000a0 1b fe b3 3d ec 1d 11 3d 86 40 ef 3e 53 87 23 3f
       0.08788701 0.035428926 0.46728915 0.63878363
0000b0 e1 16 da 3d 49 25 03 bf d5 f9 17 bf 98 f5 ca be
       0.10648895 -0.5122877 -0.5936559 -0.39640498
0000c0 12 8f 0e 3f 0d 6c 04 bd ee 5a bd be 30 1c 5e 3d
       0.5568706 -0.032329608 -0.36983436 0.0542261
0000d0 70 de 8e be 9b 9b 17 3e bd 15 e0 be 42 b0 97 bc
       -0.2790408 0.14805453 -0.43766585 -0.018516663
0000e0 3d b1 8d be 17 fb 25 3d f7 5a dc be 2b ca ef be
       -0.27674285 0.04052266 -0.4303815 -0.4683393
0000f0 65 4b b7 be 60 34 53 be ec bb 9e bc c1 cd c4 3d
       -0.3579971 -0.20625448 -0.019376718 0.09609557

actor.4.weight f4 [7, 64]
000000 aa b7 3e 3f 03 73 2a bf 69 2c b5 bf 2f f1 07 40
       0.74499 -0.66581744 -1.4154178 2.1240957
000010 6d ac 13 bf a8 34 8b bf 3b 8e 2d 3f 0f 7b f2 be
       -0.57684976 -1.0875444 0.6779515 -0.4735951
000020 3e 4e 86 bf b2 1c d0 3f bd 26 cc bd 10 5a 17 40
       -1.0492628 1.6258757 -0.09968326 2.364872
000030 92 15 82 3e d0 32 46 bd 6c b5 e6 bf 12 33 dc 3f
       0.25407082 -0.048388302 -1.8024116 1.7203085
000040 c6 59 7c bf 55 03 43 3f a5 d4 d3 bf e8 ad 60 bf
       -0.98574483 0.7617696 -1.6549269 -0.8776536
000050 b0 87 16 bf 5f 92 74 3e 44 c3 2b 3d 9b 98 2a bf
       -0.5880079 0.23883961 0.041934267 -0.6663911
000060 5a af 91 bf b2 e4 82 be da b4 22 bf 04 82 b7 3f
       -1.1381638 -0.25565106 -0.6355721 1.4336553
000070 2d 2b 1d c0 31 cc 1e c0 e1 77 6c 3f 67 15 89 bf
       -2.4557602 -2.4812129 0.9237042 -1.0709656
000080 5c 20 40 bf ad 64 09 c0 9e 12 a7 bf f3 df ed bf
       -0.75049376 -2.1467698 -1.3052557 -1.8583969
000090 5c 2e 97 bf 48 52 c1 bf 6e 49 4b bf d0 ff b2 3f
       -1.1811023 -1.5103235 -0.7940892 1.3984318
0000a0 5c 73 2f c0 96 92 c9 3f 53 87 15 bf cb 6d 29 3f
       -2.741416 1.574786 -0.58409613 0.66183156
0000b0 54 e5 81 3f 64 52 3a 3f 39 03 c7 bf a8 0c d4 bf
       1.014811 0.7278197 -1.5547858 -1.6566362
0000c0 24 69 11 bf ea 23 64 bf 49 29 ca bf 97 4c bf bc
       -0.56801057 -0.891173 -1.5793849 -0.02335195
0000d0 c7 55 c0 3f 58 ef 4a 3f 31 ef 90 3e 7d 38 26 bf
       1.5026177 0.7927146 0.2830749 -0.64929944
0000e0 37 ed 0f 3f d4 82 89 bf 52 18 d1 bf 2c 55 be bf
       0.56221336 -1.074305 -1.6335547 -1.4869742
0000f0 ee d4 9b bf d1 c5 15 bf 17 b0 67 bf 56 5d f0 3f
       -1.2174356 -0.5850497 -0.90503067 1.8778484
000100 0e f6 60 3d 51 be 88 3e 1f 3c 6a bd d9 34 87 3e
       0.054922156 0.267077 -0.057186242 0.26407507
000110 a3 f2 2f bf d6 46 5a be f2 b6 f6 bf f7 50 71 be
       -0.6872961 -0.21316084 -1.927458 -0.23566042
000120 ec 67 b2 bc 3e 12 c5 3d 62 91 8f 3e ff 5d dd 3e
       -0.02177807 0.0962262 0.28040606 0.43235776
000130 e9 89 9b 3d 51 67 9e bf 57 ee 69 bf 45 59 8a 3e
       0.07594664 -1.237528 -0.913793 0.27021232
000140 a1 0f 97 3e fe 52 f1 3e f5 a3 3c 3f 36 5f 09 bf
       0.2950411 0.4713363 0.7368768 -0.53660905
000150 4f 57 b7 be 93 ad 87 be 94 5b d9 be fe d4 00 3e
       -0.358088 -0.26499614 -0.4245268 0.1258125
000160 74 38 22 be d7 73 34 be ab db 45 bf a1 3d c0 3f
       -0.15841848 -0.17622314 -0.7728831 1.5018808
000170 28 c2 cb 3f e3 56 03 bf be bf 0a 3e 4f 38 d6 bd
       1.5918627 -0.51304454 0.13549706 -0.10459959
000180 32 31 6a 3f e5 dd fc 3e e4 77 e0 3e d0 95 c7 3f
       0.91481316 0.49388042 0.4384147 1.5592594
000190 7b 25 33 be 2d 24 5c bf 40 57 13 3e 33 fa f1 be
       -0.17494766 -0.859927 0.14388752 -0.472612
0001a0 93 7f 5b 3e bc 59 0c 3f 3f 45 82 3f af 43 06 bf
       0.21435384 0.54824424 1.0177382 -0.52447027
0001b0 28 fc e5 3e f5 87 26 3d d2 08 52 3f 42 21 0f bf
       0.44918942 0.040657002 0.8204471 -0.5591012
0001c0 34 88 04 c0 db 77 3c bd 23 f0 16 bf c1 a1 77 bf
       -2.0708132 -0.04601274 -0.5896017 -0.9673119
0001d0 3d d0 0e bf a8 b4 ec 3e 84 59 db be 3a 4d 3b 3d
       -0.55786496 0.4623158 -0.42841733 0.045727946
0001e0 6f 69 2a bf c6 a7 bd 3e f6 71 07 3f cb 13 a8 be
       -0.6656713 0.37042063 0.52908266 -0.328276
0001f0 be b2 76 3e a5 36 f2 3e 0d a7 a0 be 12 60 cf 3f
       0.24091622 0.47307315 -0.3137745 1.6201193
000200 33 f7 91 bf 4c b3 c0 3f 7e 61 21 c0 b5 5c 01 3f
       -1.1403564 1.5054717 -2.5215755 0.50532085
000210 89 4a a4 be fa 28 1a c0 74 63 9a bf e0 07 e4 3f
       -0.32088116 -2.408751 -1.2061601 1.7814903
000220 c1 33 e0 bf 5c 15 06 bf ee 96 8b 3f af 2e a0 be
       -1.7515794 -0.5237634 1.0905435 -0.31285617
000230 6b de b8 3f 9d 43 8e 3e 75 81 11 c0 34 e4 83 3f
       1.4442877 0.2778596 -2.2735264 1.0304017
000240 c1 14 76 bf f7 30 65 bf 93 c1 58 3e 43 87 16 40
       -0.9612542 -0.8952784 0.21167593 2.3520057
000250 15 88 e2 be a0 b3 03 40 4e c7 a6 3f 67 73 92 bf
       -0.44244447 2.0578384 1.3029573 -1.1441468
000260 f7 11 24 be 5b ec c7 bf 53 ae 23 c0 f3 46 8d bf
       -0.16022478 -1.5619005 -2.557515 -1.1037277
000270 5b 9e 91 bf 92 35 e1 bf d3 dc 0b c0 0f 1d 80 3f
       -1.1376451 -1.7594473 -2.185353 1.0008868
000280 a8 5b f2 3e 04 c1 9e bf 7f 66 f8 3f 75 da 81 3f
       0.47335553 -1.2402654 1.9406279 1.0144793
000290 d1 ff 93 bf dc e6 b3 3e c4 68 c9 bf e0 84 dc bd
       -1.1562444 0.3513707 -1.5735097 -0.107675314
0002a0 c5 56 85 be 58 b8 fd 3f 75 8b d0 be 1a 16 3f 3f
       -0.26042762 1.9821882 -0.40731397 0.746431
0002b0 1f bc a8 bf 4b 02 4b bf 66 b4 84 bf aa f5 c2 bf
       -1.318241 -0.79300374 -1.0367553 -1.5231221
0002c0 e0 5f 8a 3f a3 f4 6d bf 77 ba aa 3f 93 cf b1 bf
       1.0810509 -0.9295141 1.3338155 -1.3891472
0002d0 73 74 a6 be 3c 46 8f bf d1 54 00 3f c4 e1 86 3f
       -0.3251072 -1.1193309 0.5012942 1.0537648
0002e0 bf a4 ca 3f ee 8e 9b bf ad cf 49 bf ed b9 31 c0
       1.5831527 -1.2152994 -0.78832513 -2.776973
0002f0 b7 7e 16 40 f4 bc f3 bf ff c2 86 3f 7d d4 f6 3f
       2.351484 -1.9042039 1.0528258 1.9283596
000300 7c 2d f0 3e a4 8e 81 3d 5a 92 8a 3e f2 3c e7 be
       0.46909702 0.06326035 0.27064782 -0.45163685
000310 57 e0 32 3f 49 51 b5 3d c4 b5 de 3e b6 e6 83 3e
       0.69873565 0.088533945 0.4349805 0.25761956
000320 78 e2 b0 be 7a e0 bd 3e 76 1a 30 3f 6b 54 2f bf
       -0.34547782 0.37085325 0.68790376 -0.68488187
000330 af 5e c7 bb e7 a0 9d 3f d4 81 09 be 02 58 53 3e
       -0.006084285 1.2314728 -0.13428432 0.20639041
000340 0c f8 f4 be 1c 88 00 bf f9 82 84 3f 7a d5 30 3e
       -0.47845495 -0.50207686 1.035247 0.17268935
000350 33 99 65 be aa aa d6 3d bd 6a 4a 3f 5e 35 49 be
       -0.22421722 0.1048177 0.7906912 -0.19649264
000360 d7 84 97 3e a6 ee c9 be 2b 0a a7 3e 7c 03 68 be
       0.29593536 -0.39439887 0.32624945 -0.22657579
000370 3d 52 43 bd fb b1 97 bf c6 06 5d be 68 f5 86 bf
       -0.04768585 -1.185119 -0.21584615 -1.0543642
000380 88 76 8b bf 70 79 15 bf a8 ce f1 3e 14 73 4a bd
       -1.0895548 -0.58388424 0.4722798 -0.049426153
000390 31 82 17 3e ff 2e f6 3d a1 ac 00 bf 43 53 f6 3c
       0.14795758 0.120206825 -0.5026341 0.030069
0003a0 71 8d ea 3d cd 85 01 3f 8e d7 08 bf e5 bf be bc
       0.11452759 0.5059479 -0.5345391 -0.023284862
0003b0 c8 9c 89 bd f1 da 18 3e f9 cd e3 bd 3c 4b 5a 3e
       -0.06719357 0.1492727 -0.111232705 0.21317762
0003c0 5c f7 2a 3f dc ec c2 3f bc 05 0b 40 e2 b9 bc 3d
       0.6678369 1.5228534 2.172225 0.09215142
0003d0 f6 ec 23 3f a5 23 22 be 7d c5 40 3e d3 18 72 bf
       0.6403345 -0.1583391 0.18825336 -0.9456913
0003e0 06 ea af 3e 4a d8 cc be 3a 87 4c 3e 93 bf 55 40
       0.34358233 -0.40008765 0.1997346 3.3398178
0003f0 b8 cb 81 be cd 04 c6 bd 9e 68 27 40 36 25 a9 be
       -0.25350738 -0.096688844 2.6157603 -0.33036202

actor.4.bias f4 [7]
000000 6c b4 90 3f 20 05 9c 3c ae df 45 3f dc 0d 51 3e
       1.130506 0.019045413 0.77294433 0.20415443
000010 b9 56 12 3e d6 8f 05 be d4 b0 09 3f
       0.14290895 -0.1304315 0.53785443

critic.0.weight f4 [64, 16]
000000 0a f6 f0 3e 9f b0 87 bf f6 2c 89 bf 57 c7 13 3f
       0.47062713 -1.0600775 -1.0716846 0.57726043
000010 62 5c 1b 3f a6 35 3b be ce 00 26 40 53 69 8a bf
       0.6068784 -0.18282184 2.593799 -1.0813392
000020 36 e9 59 c0 89 65 31 bf 5b 5f 8f bf b1 35 8c bf
       -3.404859 -0.69295555 -1.1200975 -1.0953885
000030 38 c3 62 bf 1c 52 9e bf 22 5f bf be d7 40 11 3f
       -0.8857913 -1.2368808 -0.37377268 0.5673956
000040 34 65 59 be e6 80 59 3f b7 20 46 40 4d 35 0d 40
       -0.21230012 0.8496231 3.0957468 2.2063782
000050 fb fc b1 3f a6 eb 15 3e e1 83 c6 bf 8c be 1a c0
       1.3905329 0.14640674 -1.5508996 -2.41788
000060 df f2 0c c0 8c 4d 9e 3f a1 df bd 3e 13 62 cf be
       -2.2023237 1.2367415 0.37084678 -0.40504512
000070 21 65 62 3f 3a 41 87 3f 63 5c ce 3e 99 38 49 be
       0.8843556 1.056678 0.4030486 -0.19650497
000080 cd 5f 49 bf 6c d3 93 bf 26 5c 50 3c 5c 55 3c bf
       -0.78661805 -1.1548896 0.012717282 -0.7356775
000090 24 49 d8 3e 5c 9a 61 3f f7 40 e5 bf e0 7c cb 3f
       0.42243302 0.8812616 -1.7910451 1.5897484
0000a0 4f 8e 32 40 e1 44 78 3d 22 a9 74 3f 25 4d 62 3f
       2.7899358 0.060612563 0.95570576 0.88398963
0000b0 17 aa fd bf 7d 89 fd 3d 8c 3d 7e 3d 93 b1 95 bd
       -1.9817532 0.123797394 0.062070414 -0.0730926
0000c0 fd 4a 59 3f 48 63 0d bf 7f 24 e7 3e 43 e2 85 be
       0.8488005 -0.55229616 0.45145032 -0.26149186
0000d0 5b 5b 92 3e cd 5d d0 3d 5b fc 6e c0 4a a4 cf c0
       0.28585324 0.10174141 -3.7341526 -6.488805
0000e0 20 9f 02 c1 df 7b 72 bf 2f 67 53 bf 9e cd c4 be
       -8.163849 -0.9472026 -0.8257932 -0.38438123
0000f0 e7 3e 1a bf 0d 9f fb bf 1c 6e 26 bf ea 15 84 3e
       -0.6025223 -1.9657913 -0.65011764 0.2579797
000100 d0 73 65 bd 70 d9 89 c0 b3 ae 63 c0 33 c3 6e bf
       -0.05601865 -4.3077927 -3.5575378 -0.932666
000110 4f 4d a2 3e 3e 6e c5 3d 41 e7 09 3f 1b 91 c2 3e
       0.31699607 0.09640168 0.5386849 0.38001332
000120 c1 e3 b9 be bd 1c 87 be 9d 80 dd be 4a 18 97 be
       -0.36306575 -0.26389113 -0.43262187 -0.2951072
000130 01 37 58 bf b9 df 81 bf 5e 58 6e 3e b1 4c c0 be
       -0.8445893 -1.01464 0.23275897 -0.3755851
000140 1a a9 a6 bf 5e b7 e0 bc c9 88 b2 3e ed 4c d3 bd
       -1.3020356 -0.027431186 0.34869984 -0.10317407
000150 03 b9 2a bf 2c cc 1e 3e 26 e8 83 3e 37 ef bb 3f
       -0.66688555 0.15507573 0.25763053 1.4682378
000160 85 25 ac 3f d7 12 d8 be 66 ed 1c bf 76 7b 13 bf
       1.344895 -0.42201874 -0.6129974 -0.5761026
000170 1a cd 30 40 8a 76 0d 40 d4 1c 4f 3f 26 fd 0b bf
       2.7625184 2.21036 0.80903363 -0.5468315
000180 d4 c7 5f 3f 84 b3 78 3f d9 26 9b be 36 77 44 c0
       0.8741429 0.9714892 -0.30303076 -3.069776
000190 9f 4a e1 bf b4 7d 35 bf 38 04 6d c0 3c 5e e5 bf
       -1.7600898 -0.7089493 -3.7033825 -1.7919383
0001a0 43 5a f0 bf 90 65 fe be bf ce 27 be 49 85 6e 3d
       -1.8777546 -0.4968686 -0.16387461 0.05823258
0001b0 64 ad 37 c0 2c dd 0e c0 04 e9 52 3e c6 51 d1 3e
       -2.869958 -2.2322493 0.20596701 0.408827
0001c0 25 e6 20 c0 c8 78 0a 3f e0 c5 c4 3f eb b1 26 3f
       -2.514047 0.5409055 1.5372887 0.6511523
0001d0 b8 d9 6d be 73 24 0a be 86 d4 be bf 29 a1 8f 3e
       -0.23227584 -0.13490467 -1.4908607 0.28052643
0001e0 9a 6d 11 40 03 c8 9e bf f9 21 2b be c5 80 a2 3e
       2.2723145 -1.2404789 -0.16712178 0.31738868
0001f0 b9 43 eb bd 5c 54 c6 3f 75 75 e8 bc 8b f8 22 3e
       -0.114875264 1.5494494 -0.02837632 0.15915124
000200 79 fd 0f bf 75 26 a1 3f 6a 5e e3 3f 8a 46 aa bd
       -0.56246144 1.2589861 1.7763188 -0.083142355
000210 73 74 48 3d a8 98 1f 3f 2f 1a 4f 40 ad 4a 14 3f
       0.04893918 0.6234231 3.2359731 0.57926446
000220 90 82 5f bf 19 8c 99 bf be 3a c4 bf 1a 4a b8 bf
       -0.873086 -1.199588 -1.5330427 -1.4397614
000230 fb a5 1a 40 be f6 4a bf 59 51 95 3e 66 a3 ae 3e
       2.4163806 -0.7928275 0.29163626 0.34109038
000240 05 55 6d bf 27 46 24 3f b8 b0 18 3f 5a 77 8e 3e
       -0.92707855 0.64169544 0.5964465 0.27825433
000250 b4 92 30 bf d2 cc 8e 3e 6d df 2c 40 a2 f2 1b bf
       -0.6897385 0.2789064 2.7011368 -0.60917103
000260 e1 05 a0 bf b1 de 92 bd 87 11 f2 be fe 66 b5 be
       -1.2501794 -0.07171381 -0.47278997 -0.3543014
000270 db 4d bf 3f 81 54 61 3f d8 44 06 bf e0 d9 f2 3e
       1.4945635 0.8801957 -0.524488 0.4743185
000280 db ed 86 c0 b9 8b d9 bf 83 9c 98 c0 9e fb ef 3d
       -4.216535 -1.6995765 -4.7691054 0.11717914
000290 95 14 74 bc c2 1d 5c bd b5 5a 1d c0 74 6f 9f bf
       -0.014897485 -0.053739317 -2.4586613 -1.2455888
0002a0 94 70 60 bf ac 34 0d bf f5 d6 80 bb 36 6c e2 be
       -0.8767178 -0.55158496 -0.003931875 -0.44223183
0002b0 2d 28 86 3f eb b3 53 3c 46 03 6c bf c3 a8 f3 3e
       1.0481011 0.012921314 -0.92192495 0.47589692
0002c0 9b 6c 39 c0 fd 80 5e 3f 53 70 67 3f 5a 1b 58 3f
       -2.8972538 0.8691557 0.9040577 0.84416735
0002d0 cb c3 83 bf b8 76 90 bf 6d a8 38 bf af 7d 3b bf
       -1.0294126 -1.128623 -0.72132 -0.7323865
0002e0 78 11 ff bf 9f 66 82 3f 6d 99 9f 3e 95 fc 19 3c
       -1.9927206 1.0187567 0.31171742 0.009398599
0002f0 1b 66 55 bf f2 43 81 bf fc 96 42 3d 8d eb 91 3e
       -0.83358926 -1.009886 0.04750727 0.28500023
000300 f6 a3 a6 bf 9f e4 7b 3f 20 98 e3 3e 91 ed 67 3f
       -1.3018787 0.98395723 0.44452 0.9059687
000310 53 69 94 3e 6f 97 50 bd 35 01 83 c0 4d 2c bd c0
       0.28986606 -0.05092567 -4.0938973 -5.911658
000320 1f 9f c8 c0 c4 20 89 bf 43 e8 a1 be 20 c2 f1 be
       -6.269424 -1.0713124 -0.31622514 -0.47218418
000330 e7 7c ec be 5e 6b 89 3f ef 74 bb 3d b6 cf 00 be
       -0.46189043 1.0735891 0.09153163 -0.12579235
000340 11 15 14 bd 53 80 c4 be f0 0f 1d 3d ab bd fd bd
       -0.036152903 -0.38379154 0.038345277 -0.12389692
000350 9e 90 1a 3f fa 80 80 3e 9e d0 c2 c0 9a c0 57 c0
       0.6037692 0.250984 -6.087966 -3.3711305
000360 33 6d 7b bf 99 8b ed bd 37 f7 7a 3e 2a 1c 39 3e
       -0.982135 -0.11598892 0.24508367 0.1807715
000370 98 cb 88 c0 2b e6 12 c0 1c a6 41 3e 31 24 42 3f
       -4.2748528 -2.2952983 0.18911022 0.75836474
000380 ee 50 29 3e 46 17 e3 bf ad ce bf 3f 72 f2 0c bf
       0.16534778 -1.7741477 1.4984947 -0.5505744
000390 71 ad ea 3e 18 dd 0d 3e ae 78 05 40 9d 5c 49 40
       0.4583545 0.13853872 2.0854907 3.1462777
0003a0 61 73 90 3f 46 83 d9 3e d2 97 ab be 83 c8 f7 be
       1.1285211 0.42482966 -0.33514267 -0.48395166
0003b0 c3 5c ad bf 9f c7 01 3f 5c ef 8f bd ed 33 a5 3e
       -1.3543934 0.5069522 -0.07028076 0.3226618
0003c0 cc 31 5f 3e 85 75 45 3d 40 a2 d1 bd c8 20 7e bf
       0.2179634 0.04820778 -0.10236025 -0.9926877
0003d0 02 bd 3c 3e 98 b5 af 3e ee 3b e1 c0 9b 82 c5 c0
       0.18431476 0.34318233 -7.0385656 -6.172193
0003e0 5d 6b cc c0 d2 73 4a bf 0b e1 19 bf d7 db 20 bf
       -6.388106 -0.7908298 -0.60109013 -0.6283545
0003f0 08 68 e7 be cf 44 88 3f 17 e0 e5 3d 27 57 97 be
       -0.45196557 1.0645999 0.11224382 -0.2955868

critic.0.bias f4 [64]
000000 1b b6 2e 3f 32 2f b7 bf b0 15 95 3f 5d 6d b8 3e
       0.6824662 -1.4311278 1.1647243 0.36020938
000010 23 34 1c bf 04 87 a1 be 1c 26 4d 3f 27 33 29 bf
       -0.61017054 -0.3154832 0.80136275 -0.6609368
000020 ca ad 60 be 43 a9 8a bf 2c d9 9d 3f 74 06 a1 bd
       -0.21941295 -1.0832905 1.2331901 -0.07862559
000030 97 4a 11 3f 92 d8 04 3f f7 31 b0 3e 4e 5f 2f 3f
       0.5675444 0.5189296 0.3441312 0.685048
000040 74 e8 b5 be 18 0b 1e 3e 1a c0 02 bf 74 13 ee be
       -0.3552891 0.1543392 -0.51074374 -0.46499217
000050 66 e7 3f 3f a6 7b 90 bf 4f 0b f5 3c 08 71 8f 3e
       0.7496246 -1.1287735 0.029912619 0.28015924
000060 88 2b fc be b5 60 b5 3d 6b 66 8a 3d 71 c4 91 3f
       -0.49251962 0.08856336 0.06757816 1.1388074
000070 10 d6 9f be 07 ec eb 3f 4d 69 65 bf 67 4c 83 3f
       -0.31218004 1.8431405 -0.896138 1.0257691
000080 9c 6d a6 bf e3 d8 4a be 30 1a a9 be 8c 0a 0a 3f
       -1.30022 -0.19809298 -0.33027792 0.53922343
000090 f8 5e 8c be 85 53 0b 3f 0c 12 61 bf c1 af 1d 3f
       -0.27416205 0.54424316 -0.8791816 0.61596304
0000a0 db 61 90 3e a1 72 0a 3e e5 af d8 3f 6a 92 0f 3f
       0.28199658 0.1352029 1.6928679 0.56082785
0000b0 ce 0e cf 3f 31 a1 cd be 76 ad d0 bf fa 81 a0 be
       1.6176393 -0.40162042 -1.6302936 -0.31349164
0000c0 97 e4 05 bf 15 4a e4 3d 32 8b 1f bf fe 05 b6 3f
       -0.52301925 0.111469425 -0.6232177 1.4220579
0000d0 af 3e ec be 3e 53 e4 3e a7 5c bb 3f bb 0f 4e bf
       -0.46141574 0.4459476 1.463765 -0.8049275
0000e0 f2 c3 fe 3e 08 02 1e be 57 86 65 3e d4 62 78 bf
       0.4975887 -0.15430462 0.22414528 -0.970258
0000f0 dd 04 32 3f e4 32 ac 3e 64 9f c5 bf 9b 83 a4 be
       0.6953867 0.33632576 -1.5439267 -0.32131657

critic.2.weight f4 [64, 64]
000000 81 8b 04 3e 15 ad 96 3f 4e 04 a5 bf 91 a8 e5 3e
       0.12943842 1.177157 -1.2891939 0.44855168
000010 eb f4 0b bf 58 aa e8 bd e7 00 fc bf 3c 36 cb 3f
       -0.5467059 -0.113606155 -1.9687775 1.5875926
000020 68 0c 53 3f 10 24 a2 3f c9 0f b3 be 0d 4f 9e 3f
       0.82440805 1.2667255 -0.3497298 1.2367874
000030 7c ca 8c bd 49 60 7e bc 69 a5 0e c0 a1 a1 17 3e
       -0.06874558 -0.015525886 -2.2288458 0.1480775
000040 06 90 01 3f 70 ec 20 be 0d b8 43 3e 71 77 44 3f
       0.5061039 -0.15715194 0.19113179 0.76744753
000050 81 cd 8f bf 3a 4b 50 3f f8 be 81 bf 74 24 99 bf
       -1.123459 0.81364787 -1.0136404 -1.196425
000060 f4 a9 c1 3e 63 54 b8 3e f6 d9 91 be 3f 33 ab 3e
       0.37824976 0.36001882 -0.28486603 0.33437535
000070 3e 5a c5 3e d4 cc 15 bf 11 b8 94 3e b2 ed 82 3f
       0.38545412 -0.5851567 0.29046682 1.0228789
000080 55 a0 08 3f 68 18 36 bf 97 91 b0 3d 51 78 e9 be
       0.5336965 -0.7113099 0.08621519 -0.45599607
000090 38 9f f8 be ab e2 3c 3f e2 c2 b1 3f 9f 3d 00 c0
       -0.48558974 0.7378337 1.3887599 -2.003761
0000a0 2b 88 f4 bd 13 31 3f bf 38 b3 81 c0 6d 7c 23 3d
       -0.119400345 -0.74684256 -4.0531273 0.039913584
0000b0 c3 ba 22 c0 11 e9 96 bf 3a e7 01 40 05 32 8a bf
       -2.542649 -1.1789876 2.029738 -1.0796515
0000c0 2c 3d 67 be fc 1c 7e bf 11 44 9f bd cc 41 01 c0
       -0.22581929 -0.99262977 -0.077766545 -2.019641
0000d0 28 4c 0f bd c1 da a6 3e ca 13 33 3f a9 25 75 3e
       -0.034984738 0.3258877 0.6995207 0.23940147
0000e0 c4 13 8a be a2 28 8d bf 6e 44 48 bf a9 20 9e 3f
       -0.26968205 -1.1028025 -0.78229415 1.2353717
0000f0 61 fb 29 3f d6 c2 96 bf 0e 65 a1 3f 5e bc 62 bf
       0.663992 -1.1778209 1.2608964 -0.88568676
000100 90 74 51 bf 4f 2d 1b c0 57 f7 2b 3f a2 ca 71 bf
       -0.81818485 -2.4246404 0.67174286 -0.9444982
000110 f7 98 be 3e 64 6a fb 3e 73 39 1f 3f ba e4 7c bf
       0.37226078 0.49104607 0.62197036 -0.9878651
000120 76 ff 5d 3f de 56 32 3e 4e b0 c0 3f 31 b8 15 c0
       0.8671793 0.1741595 1.5053804 -2.3393672
000130 ca 54 81 3f de 5c 08 3e fa d0 31 3e a5 56 3d 3f
       1.0104 0.13316676 0.17364874 0.73960334
000140 cf c7 45 bf 9b 6a a0 be 7c b5 02 bf aa 2e 3f bf
       -0.7725801 -0.31331334 -0.51058173 -0.7468058
000150 20 6e 4c be e3 eb c4 be 40 44 14 3f e3 33 d1 3e
       -0.19963884 -0.38461217 0.5791664 0.408599
000160 08 7d ba be d4 88 b4 3c fb 28 cd be 9a 5f 80 3f
       -0.36423516 0.022037901 -0.40070328 1.0029175
000170 35 a6 62 3f 3d 16 32 bd d6 47 b9 bf 46 49 73 3e
       0.8853486 -0.04347824 -1.4475048 0.2375842
000180 0e a1 cb bf 78 b3 01 be 47 4f 8d bf 7c f0 8c 3f
       -1.5908525 -0.12666118 -1.1039819 1.101089
000190 28 dd 93 bf ce 14 99 b9 42 b2 3c 3e e0 df 25 bf
       -1.1551867 -0.00029197935 0.18427375 -0.6479473
0001a0 6f f7 1c bf 5b 25 7f 3d 55 8c c2 3f bc bb 9e 3f
       -0.61315054 0.062291484 1.5199076 1.2401042
0001b0 43 2b b5 3f 8a 55 8e bd 4b dc 45 be 20 6a f6 be
       1.4153827 -0.06949909 -0.19322316 -0.48127842
0001c0 c5 91 0a 3e 88 fc 8b 3f 55 37 8e bf 15 7d 24 40
       0.13532169 1.0936441 -1.1110636 2.5701344
0001d0 fc 95 3b bf 72 68 85 3e 3d 5c a0 3c f9 14 e1 be
       -0.73275733 0.26056248 0.019575233 -0.43961313
0001e0 7b 5c 88 bc eb 87 b7 bf b6 c7 83 3d 60 ba 3b 3d
       -0.01664566 -1.4338354 0.06434576 0.045832038
0001f0 d7 75 7e be 77 7f 17 3e a0 2f af 3d 25 eb 6e 3e
       -0.2484964 0.14794718 0.085540056 0.23331888
000200 16 1e 5c 3d 69 25 26 bf e9 dd 5b 3e d3 d8 44 bf
       0.05373963 -0.64900833 0.21471371 -0.7689335
000210 11 b8 64 bf 2e 55 d4 3d a0 8c 13 be f9 79 16 3f
       -0.89343363 0.10367809 -0.14409113 0.58779866
000220 d6 f6 90 3f cc 1d 7b 3f 4f ae cf bf ff b0 c9 3e
       1.1325328 0.9809234 -1.622507 0.3939285
000230 8b 85 46 be 5c b6 ee 3e 9e e4 30 bf 92 7f 9c bf
       -0.1938688 0.46623504 -0.6909884 -1.2226431
000240 85 6a 83 bf 0e 0f 5b bf 3d 82 24 3f 7b db 24 3f
       -1.0266882 -0.85569847 0.6426123 0.643974
000250 48 fc d6 3e 15 41 ae 3f fa 7c 07 bf 81 08 ff 3e
       0.4198935 1.3613611 -0.52925074 0.49811175
000260 d8 41 ab be 92 2d 84 3e e9 e0 8a bf a2 a1 6c be
       -0.33448672 0.25816017 -1.0849887 -0.23108533
000270 12 80 47 3f 52 f6 52 bf 57 c2 fb 3c a0 d5 0f 3f
       0.77929795 -0.82407105 0.030732317 0.5618534
000280 39 34 d4 3f 29 c6 9e 3e 2c 71 96 3f 09 9c 95 be
       1.6578437 0.3101056 1.1753287 -0.29220608
000290 22 65 9c bf ce a4 c8 be 99 55 37 bc a5 5e 92 bd
       -1.2218363 -0.39188236 -0.011189842 -0.07146958
0002a0 e2 58 c3 bf 82 e3 58 3f a7 91 1f 3f 2a b9 e8 be
       -1.52615 0.8472215 0.6233162 -0.4545377
0002b0 ea 15 0a bf a2 13 5b bf 39 64 df 3e 7a 1e 4d 3f
       -0.5393969 -0.8557683 0.4363115 0.8012463
0002c0 74 43 83 3e e7 ee ee 3e da 38 e8 be 4a 2e 79 bf
       0.256374 0.46666643 -0.45355874 -0.97336257
0002d0 d8 b7 a1 3e 8b db fe 3e 8c 12 d1 be 1a 8d 88 bf
       0.31585574 0.49776873 -0.40834463 -1.0668061
0002e0 e4 2d ea 3e a5 d5 de 3d ff fe 14 3f d3 fb 44 3f
       0.45738137 0.10880593 0.58201593 0.76946753
0002f0 1e 84 98 bf 3f 9c 14 be f3 b9 b5 bd 68 fa f5 bd
       -1.1915319 -0.14512728 -0.088733576 -0.12010652
000300 19 cd 89 be 66 f4 7b bf b2 07 d1 3d 44 db 99 be
       -0.2691429 -0.984198 0.10206546 -0.300501
000310 0c bd da bd 9b 49 35 3f f6 9b 1c 3e 3f 08 90 3f
       -0.10680589 0.7081544 0.1529387 1.1252517
000320 87 9d aa be d2 f8 4b bf 39 03 0e be b3 50 28 40
       -0.3332331 -0.79676545 -0.13868417 2.6299255
000330 86 24 4c 3f 13 49 9d bf 5d ad ba bf b4 10 b8 be
       0.7974323 -1.2287925 -1.4584156 -0.35950243
000340 2e 19 09 bf 83 c8 d0 3f c5 7a 56 3f 26 e4 88 bf
       -0.53554046 1.6311191 0.8378108 -1.0694625
000350 aa e2 98 bf 7f 81 ba 3f a5 aa fa bf 4f 69 dc be
       -1.1944172 1.4570769 -1.9583327 -0.43049094
000360 00 52 6c bd d0 8d f8 3e 25 f4 e9 be 8f 72 01 3f
       -0.05769539 0.48545694 -0.4569408 0.5056543
000370 8e f3 25 3f 9f 19 0d be 1a 48 aa be 3e 6d cc 3e
       0.6482476 -0.13779305 -0.33258134 0.39927095
000380 89 96 f4 3e b8 fa a9 bf bd d5 40 bf 1f 1d 0b 3f
       0.477711 -1.3279638 -0.7532614 0.5434131
000390 43 5d 2c bd 00 ae fe 3f 88 77 1e 3e c9 40 33 bf
       -0.04208113 1.989685 0.15475285 -0.7002073
0003a0 cf e6 c7 be f9 7b 6c bf 21 16 aa 3e 7b 05 9b 3f
       -0.3904328 -0.9237667 0.33220008 1.2111048
0003b0 a0 ee 41 bf 3e 85 10 bf 35 15 bb bc 19 54 08 bf
       -0.7575474 -0.5645331 -0.02283726 -0.5325332
0003c0 1f 34 74 bf 38 ca 2b bf e8 dc 15 bf 11 f6 28 3f
       -0.9539203 -0.67105436 -0.585402 0.6600047
0003d0 3a 61 6d 3f 77 45 92 3e 9e dd 33 3f 55 6c 64 bf
       0.9272648 0.28568622 0.70260036 -0.892278
0003e0 ae c7 d1 bc fa 90 77 bd f2 f3 c2 bd e9 0e 25 bf
       -0.02560791 -0.060440995 -0.09519185 -0.64475876
0003f0 d2 e8 3b 3f 38 6d a2 3f 72 5c 16 be b7 aa bf be
       0.7340213 1.2689581 -0.14683703 -0.37434933

critic.2.bias f4 [64]
000000 95 48 28 bf 2b 5d 83 3f 87 ec 6c 3e 2a 89 38 3e
       -0.6573575 1.0262808 0.23137103 0.18021074
000010 0f 5d 6d be 0c f0 16 3f 39 85 6d 3e 20 eb 45 be
       -0.2318003 0.5896003 0.23195352 -0.19327974
000020 9d b1 49 3d 6c 2d bf 3e 7b 36 14 be 85 6a 5d 3e
       0.04924165 0.37339342 -0.14473908 0.21622665
000030 0f 27 84 bd 2d 21 76 be fa a2 94 be 1a 48 19 bf
       -0.06452762 -0.24036093 -0.2903059 -0.59875643
000040 da 31 48 bd 42 73 82 3d a2 d5 cb be d1 19 8d 3e
       -0.048875667 0.0636964 -0.39811426 0.2755876
000050 dc 2f ce 3e f6 b7 53 bf b2 94 99 be dc 73 ca 3e
       0.4027089 -0.8270258 -0.29996258 0.3954152
000060 dd f7 e3 bd 71 fd 83 bf 3d 11 f5 3e b9 57 3e be
       -0.111312605 -1.0311719 0.47864714 -0.18588151
000070 f9 b6 af be 39 17 1e 3f 24 8a 51 be a6 2a bc bd
       -0.34319285 0.61754185 -0.20462853 -0.09187822
000080 e8 04 3f 3c 4c 58 74 3e ae 9b c5 be a5 9f d2 3e
       0.011658885 0.23861808 -0.38595337 0.41137424
000090 2e a5 51 3d 21 b8 e2 be 48 f9 34 bf 00 60 1c bf
       0.05118292 -0.44281104 -0.70692873 -0.61083984
0000a0 54 c3 a7 be 4a 0d 65 3e d2 63 ac 3e 11 cb 56 3e
       -0.3276621 0.2236835 0.33669907 0.20975901
0000b0 6d a0 7c bc b6 a0 3b be 5a fe a4 bd 63 af 07 3f
       -0.015419108 -0.18323025 -0.08056326 0.53001994
0000c0 cb 51 13 be e8 3b 0a be 29 1f 3b be 7c dd f0 be
       -0.1438667 -0.13499415 -0.18273605 -0.4704398
0000d0 5d 15 06 3f be 34 38 3e 00 9c 9a 3e 81 00 60 bf
       0.5237635 0.1798887 0.30197144 -0.8750077
0000e0 49 81 51 3d 99 ab 2d be 20 75 8c 3e 2f 95 05 3e
       0.051148687 -0.1695999 0.2743311 0.1304519
0000f0 2f 84 47 bf 8f dd 64 bf 28 05 e5 3e a8 fa 1e bf
       -0.7793607 -0.8940057 0.44730496 -0.6210122

critic.4.weight f4 [1, 64]
000000 70 54 0c 3f 52 63 12 bf 92 ba 15 bf b8 27 1c bf
       0.5481634 -0.571828 -0.5848781 -0.60998106
000010 31 54 17 3f 93 9f 07 bf 3b 28 e0 3e e0 71 9b 3e
       0.5911284 -0.52977866 0.43780693 0.30360317
000020 ad 08 0b 3f b7 f6 0d bf 16 c2 14 bf 08 bf f6 3e
       0.54310113 -0.5545458 -0.5810865 0.4819262
000030 f1 3b b7 3e 1c 69 09 3f 9c 2c e3 3e c2 5a cf be
       0.3578792 0.5367601 0.44369972 -0.4049893
000040 a4 3b d7 be a4 58 b6 be 14 66 f3 be 20 b4 c1 be
       -0.4203769 -0.35614502 -0.47538817 -0.37832737
000050 8e e0 22 3f 90 90 5d 3f bd f1 d0 3e cd 85 c3 3e
       0.63623893 0.8654871 0.40809432 0.3818802
000060 01 71 15 bf 0b f8 ce 3e 71 ee c0 be 14 c4 c3 3e
       -0.58375555 0.40423617 -0.37681916 0.38235533
000070 f7 b8 cd 3e c1 2e bd be 8a 6d e0 be 26 e0 eb 3e
       0.4018018 -0.36949733 -0.43833572 0.4606945
000080 17 a6 d6 3e 99 9d fe 3e 59 32 99 be 7d 47 b1 be
       0.41923591 0.49729612 -0.29921225 -0.34624854
000090 c4 c2 44 bf 19 75 c5 be 19 8b 79 3e 88 81 14 3f
       -0.7685969 -0.385659 0.24369468 0.5801015
0000a0 05 62 d2 be 1e d5 fc 3e 42 6d d9 be 82 bf a5 be
       -0.41090408 0.49381346 -0.4246617 -0.3237267
0000b0 a9 e5 31 3f 68 23 c0 be 64 96 08 3f 47 a3 2d 3f
       0.6949106 -0.37527013 0.5335448 0.67827266
0000c0 99 e4 1f bf 4a e6 fc 3e 0c f8 12 bf 8b bd 25 3f
       -0.6245819 0.49394447 -0.5740974 0.64742345
0000d0 0a d8 fc be 72 74 ef be d9 e8 21 3f 75 5b d9 be
       -0.49383575 -0.46768528 0.6324592 -0.4245259
0000e0 16 1b 15 bf 32 d8 27 bf 54 dd 22 3f 4a 5a da 3e
       -0.58244455 -0.6556426 0.6361897 0.4264701
0000f0 7f 66 02 3f 82 51 d7 be b7 fb 1f 3f 1b f9 1a bf
       0.50937647 -0.42054373 0.6249346 -0.60536355
